results/MejorandoCerebro2/AgenteCoche/AgenteCoche-24192.onnx (onnx, 91659 bytes, 7 tensors)

action_model._continuous_distribution.log_sigma f4 [1, 2]
00000000: 0000 0000 0000 0000
0.0 0.0

action_model._continuous_distribution.mu.bias f4 [2]
00000000: 0000 0000 0000 0000
0.0 0.0

action_model._continuous_distribution.mu.weight f4 [2, 128]
00000000: 47ee 46bc d6ff 40bc bb08 a7b9 dc6d b7bc
00000010: 2a17 29bc 0fc7 993a 894b 8d3b 3d42 ddbc
00000020: 8f76 1939 3846 063d 2481 8a3b 0f14 bd3b
00000030: 445f 87bc 3846 00bd 8b15 333c 7f56 09bd
00000040: df28 393c f73c c43c ae93 afbc 1825 adbc
00000050: 6374 023c be4e 80bc b0e1 e43b cf48 183d
00000060: fc7c 3abb 6a90 ccbb e2fd bc3c c029 e3bb
00000070: dfda 64bc 1a61 9d3b d276 e23b b87b 47bc
00000080: f3e4 973b 7224 fb3c 29f2 283c 672d 28bc
00000090: 6515 96bb 9398 643c a01f bebb 51d8 85ba
000000a0: 1dc0 2d3c f89d c3ba b52d 793b 455d dbbc
000000b0: cf79 79bb 1381 cfbb aecd 28bc 6469 c53c
000000c0: 7a84 4e3c 6b95 dabc 303b aa3b b3ca 40bb
000000d0: 1d9a e03a 18be f63b 8795 fd3a a798 bb3a
000000e0: 4f77 ac3c 757b dcbc ecac 44b8 4c32 843c
000000f0: ed40 07ba 374c ccbb ff57 c4b8 4315 22bc
00000100: 3f05 be3b 772c a8bb 3575 323a 46ca af3c
00000110: ff39 833c 43fc 02bd d8b0 64bb dee9 a53c
00000120: 985f d0bc 9128 bfbb 7286 19bc 8eb5 abbb
00000130: d9ad 9bbc a85c 3f3c d86b e1bb 0879 9abb
00000140: 30bd df3c 8b11 293a 88f3 cdbb 2beb 0c3a
00000150: 3179 cc3c 8bfd 9f3b bbcc 783c e02f 86bc
00000160: c7a6 713c ad0d adbc f32b 1f3d 9a1b b5bc
00000170: 533a 9e3c 0ae2 48bc 8a11 dc3b 2b3d 303c
00000180: 139a 84bc 5cd2 19bd 079a de34 15f6 5cbc
00000190: 7f97 9bbc fdc0 e9bc 418a 42bc fcb0 39bd
000001a0: 9603 1dbc 5d7f c43c 40d4 79bc 5e6d 023c
000001b0: 0abe a6bc 07a6 4a3a 9ebe 8e3c 1772 933b
000001c0: cf7f 7a3a 6de5 d7bc 375c c3b9 91c2 1ebc
000001d0: cfed 053c 6bcd 99bc 5531 e93c 2646 393c
000001e0: b33f bbbb 7300 0a3a e396 563d e8b4 df3b
000001f0: c7f9 c63c 5798 883c 5df6 6ebc 64b2 343c
00000200: ab05 993b d40b b33b 53fb 673c 3b34 5fba
00000210: 0346 09bd 8705 90bc 65a3 84bb 9bb4 1c3d
00000220: cf20 8cbc 7027 79bc cf13 cabc fd52 d83c
00000230: e54b 0f3d df1e 963b 9718 bc3b 62a5 5f3a
00000240: 0892 fcbb 3232 d2bc 56a3 083c e7c4 29bc
00000250: 5aca d2bb 1887 933c f7e4 843c 0d69 d9bb
00000260: e78e d039 82f0 84bc b516 dd3a 0301 67bc
00000270: 2954 c53c 03df 5dbb fd44 40bc 0b77 1d3b
00000280: 0eb0 47bd a044 d5bc 0048 1dbc fa21 ba3b
00000290: 5a6b cfbb efe7 90ba a38b 563b 8650 2fbc
000002a0: d32d a4bb e4a5 ab39 6310 e93b 518b 093d
000002b0: b8b7 9a3c f8de c8bb 24f8 abbb 3b16 9dbb
000002c0: 1823 cebb 5aff bf3a 3288 703c 9ab7 b43c
000002d0: 058f 933a c76f 183b 23ab 17bd 20ac 593c
000002e0: cb96 c5bc a8fd c9bc 82c8 83bc 6c4f 493c
000002f0: c9db 923c 3781 03bd e8e7 f3bb e1f1 96bc
00000300: 36a1 aebc 4ff4 a4bb 9bf8 ec3c 439d 903b
00000310: 6586 91bc 8e22 8f3c 8f19 c13c c5ce f8bb
00000320: 0f6b 333c ab25 b93c b75b b3ba f425 403d
00000330: f817 5d3c f31c 89bb 5d2c f9b9 d518 4fbc
00000340: 1009 e33c 3018 39bb d23c cb3b 98e8 ab39
00000350: 3849 a3bb 229c 16bb 285c acbb 585f fe3b
00000360: 5399 d53b bb56 bbbb 0d0b 71bc 182b ecbc
00000370: 44c2 b93b 6331 9d3b 16f3 ba3c f3d7 b73b
00000380: 3f32 c0b9 db78 ed3b a9b0 8fbb 8b23 b03c
00000390: 52b0 b8bc b13b 86bc df66 32bc 9fe9 2c3c
000003a0: fb4a 353c c560 4e3c 19b2 023c 52b3 4d3c
000003b0: 216e b43c 8e30 82bb 27c5 273c 854c c73c
000003c0: 25ca 9e3c 4d10 b73c 6b85 99ba 1d32 283c
000003d0: 24ad 3dbb 94fe 28bc 2bc5 4f3c 3bb9 dc3c
000003e0: 8f7a 25bc db26 653c 9323 90bc 4a24 efbb
000003f0: d39c c63b 0369 8f3c 0739 42bc 71b2 003c
-0.012141771 -0.011779746 -0.00031859227 -0.022391252 -0.010320464 0.0011732298 0.004311983 -0.027009124
0.00014635384 0.03278181 0.0042268205 0.0057702134 -0.016524918 -0.031316966 0.010930429 -0.033529755
0.011301248 0.023954852 -0.021432724 -0.021135852 0.007962319 -0.015662547 0.006984912 0.03717881
-0.0028455844 -0.0062428014 0.02307028 -0.006932467 -0.013968199 0.004802835 0.006911137 -0.012175493
0.004635447 0.030657027 0.010311642 -0.010264731 -0.004580187 0.013952392 -0.00580211 -0.0010211562
0.010604885 -0.0014924398 0.0038021628 -0.026777873 -0.0038066988 -0.0063325255 -0.010302944 0.024098106
0.012604827 -0.026682576 0.005195044 -0.0029417693 0.0017135773 0.007529985 0.0019346931 0.0014312462
0.021052985 -0.026914338 -4.6891088e-05 0.016137265 -0.0005159516 -0.0062346715 -9.362399e-05 -0.0098927645
0.005798965 -0.0051322537 0.00068076263 0.021458756 0.016018866 -0.031978857 -0.0034895446 0.020253118
-0.025436208 -0.0058336933 -0.009370433 -0.005240149 -0.019003795 0.011679806 -0.006879311 -0.004714135
0.027311891 0.00064494525 -0.0062851347 0.0005375619 0.024960132 0.0048825196 0.01518553 -0.01638025
0.0147492355 -0.021124685 0.038860273 -0.022107888 0.01931492 -0.012260923 0.006715958 0.010756771
-0.01618675 -0.03755413 4.1462792e-07 -0.013486405 -0.018993137 -0.028534407 -0.011873783 -0.0453348
-0.0095833745 0.023986513 -0.015248358 0.0079606455 -0.02035429 0.00077304285 0.017424878 0.0044996846
0.0009555788 -0.026354516 -0.00037262004 -0.009689943 0.008174374 -0.018774709 0.028465906 0.011308229
-0.0057143806 0.0005264349 0.05238999 0.0068269856 0.024289025 0.016674204 -0.014585105 0.01102886
0.004669865 0.0054640565 0.014159041 -0.0008514558 -0.033514034 -0.01758076 -0.0040477985 0.038258176
-0.017105488 -0.015207157 -0.024667649 0.02640676 0.034984488 0.004581317 0.005740236 0.0008531419
-0.007707838 -0.0256587 0.008339724 -0.010361887 -0.0064328136 0.018008754 0.01622246 -0.0066348375
0.00039779322 -0.016227964 0.0016867729 -0.014099362 0.024087982 -0.003385485 -0.011735198 0.0024027254
-0.048751883 -0.0260337 -0.009599686 0.00568032 -0.006329936 -0.001105545 0.0032737039 -0.010700351
-0.0050103455 0.0003273926 0.007112549 0.033580128 0.018886432 -0.0061300956 -0.0052480865 -0.00479391
-0.0062908046 0.0014648244 0.014680909 0.022060204 0.0011257833 0.0023259984 -0.037028443 0.013285667
-0.024119755 -0.024657086 -0.01608682 0.012287002 0.017927067 -0.03210565 -0.007443417 -0.018425884
-0.021317106 -0.0050340067 0.028927138 0.0044132783 -0.01776428 0.017472532 0.023571758 -0.007593008
0.010950818 0.02260097 -0.0013683949 0.046911195 0.013494484 -0.004184359 -0.00047526034 -0.012640198
0.027714282 -0.0028243177 0.0062023187 0.00032788957 -0.0049830936 -0.0022981246 -0.0052600093 0.0077628307
0.006518522 -0.005717126 -0.014712107 -0.028829142 0.00566891 0.004797147 0.02282099 0.00561046
-0.0003665853 0.007247073 -0.004385073 0.021501323 -0.022545014 -0.016385885 -0.010888784 0.0105537465
0.01106524 0.012596314 0.007977032 0.01255496 0.02202517 -0.0039730733 0.010239876 0.02432848
0.0193835 0.02234664 -0.0011712735 0.010265854 -0.0028942311 -0.010314602 0.012681286 0.026943794
-0.010100021 0.013986315 -0.017595088 -0.007298027 0.0060611754 0.017506128 -0.011854417 0.007855044

network_body._body_endoder.seq_layers.0.bias f4 [128]
00000000: 0000 0000 0000 0000 0000 0000 0000 0000
00000010: 0000 0000 0000 0000 0000 0000 0000 0000
00000020: 0000 0000 0000 0000 0000 0000 0000 0000
00000030: 0000 0000 0000 0000 0000 0000 0000 0000
00000040: 0000 0000 0000 0000 0000 0000 0000 0000
00000050: 0000 0000 0000 0000 0000 0000 0000 0000
00000060: 0000 0000 0000 0000 0000 0000 0000 0000
00000070: 0000 0000 0000 0000 0000 0000 0000 0000
00000080: 0000 0000 0000 0000 0000 0000 0000 0000
00000090: 0000 0000 0000 0000 0000 0000 0000 0000
000000a0: 0000 0000 0000 0000 0000 0000 0000 0000
000000b0: 0000 0000 0000 0000 0000 0000 0000 0000
000000c0: 0000 0000 0000 0000 0000 0000 0000 0000
000000d0: 0000 0000 0000 0000 0000 0000 0000 0000
000000e0: 0000 0000 0000 0000 0000 0000 0000 0000
000000f0: 0000 0000 0000 0000 0000 0000 0000 0000
00000100: 0000 0000 0000 0000 0000 0000 0000 0000
00000110: 0000 0000 0000 0000 0000 0000 0000 0000
00000120: 0000 0000 0000 0000 0000 0000 0000 0000
00000130: 0000 0000 0000 0000 0000 0000 0000 0000
00000140: 0000 0000 0000 0000 0000 0000 0000 0000
00000150: 0000 0000 0000 0000 0000 0000 0000 0000
00000160: 0000 0000 0000 0000 0000 0000 0000 0000
00000170: 0000 0000 0000 0000 0000 0000 0000 0000
00000180: 0000 0000 0000 0000 0000 0000 0000 0000
00000190: 0000 0000 0000 0000 0000 0000 0000 0000
000001a0: 0000 0000 0000 0000 0000 0000 0000 0000
000001b0: 0000 0000 0000 0000 0000 0000 0000 0000
000001c0: 0000 0000 0000 0000 0000 0000 0000 0000
000001d0: 0000 0000 0000 0000 0000 0000 0000 0000
000001e0: 0000 0000 0000 0000 0000 0000 0000 0000
000001f0: 0000 0000 0000 0000 0000 0000 0000 0000
0.0 0.0 0.0 0.0 0.0 0.0 0.0 0.0
0.0 0.0 0.0 0.0 0.0 0.0 0.0 0.0
0.0 0.0 0.0 0.0 0.0 0.0 0.0 0.0
0.0 0.0 0.0 0.0 0.0 0.0 0.0 0.0
0.0 0.0 0.0 0.0 0.0 0.0 0.0 0.0
0.0 0.0 0.0 0.0 0.0 0.0 0.0 0.0
0.0 0.0 0.0 0.0 0.0 0.0 0.0 0.0
0.0 0.0 0.0 0.0 0.0 0.0 0.0 0.0
0.0 0.0 0.0 0.0 0.0 0.0 0.0 0.0
0.0 0.0 0.0 0.0 0.0 0.0 0.0 0.0
0.0 0.0 0.0 0.0 0.0 0.0 0.0 0.0
0.0 0.0 0.0 0.0 0.0 0.0 0.0 0.0
0.0 0.0 0.0 0.0 0.0 0.0 0.0 0.0
0.0 0.0 0.0 0.0 0.0 0.0 0.0 0.0
0.0 0.0 0.0 0.0 0.0 0.0 0.0 0.0
0.0 0.0 0.0 0.0 0.0 0.0 0.0 0.0

network_body._body_endoder.seq_layers.0.weight f4 [128, 43]
00000000: 2bc0 2dbe 748c 0abe f4b1 183d 290d 683d
00000010: c312 ed3d fed3 9d3d faab a73e 9db4 e7bd
00000020: 504d 3bbe aba1 063e 3ea3 4cbd 6440 483e
00000030: 1591 8b3d d470 0d3d 6f3b 7dbe 9511 3cbe
00000040: aebd 87bd ec5d c03c 7b21 923c 199c c43b
00000050: 6b94 1e3d 34cb d4bb e088 813e 9cf5 debd
00000060: 39f1 3d3d 8113 2d3c c3d6 7abd 82a7 aebd
00000070: 5dee 843d d177 01bd 1f4e 4fbe 1062 33bd
00000080: 5281 243e 5d42 11bd 27e4 c9be e887 ef3c
00000090: 1bdb 013d 1139 cc3b 36f4 26be 5e3d c63d
000000a0: ee68 9fbd a6c1 9f3e 004f 1e3e bd63 433d
000000b0: 9e9a f93c eb86 0fbe 701e 33bd 907d aebd
000000c0: aa64 313d ab53 e73d a53d dbbd 208a 1b3e
000000d0: 31ca 79bd 2dd9 30be 7fbf 7ebd 5a2b 66be
000000e0: 7c00 cebd fed2 5a3d 2c8a 8b3e 8e5f fb3c
000000f0: 637e 0abd a8ec 303d e665 ff3c 3760 eebd
00000100: 57de cfbd cef9 3b3d 9d0e b1be 4a5d 14be
00000110: c5a7 8f3d 7301 b5bd f67e 5cbe 0bff 453b
00000120: 65f5 57be 6887 153e bf88 2c3d d8fd 0f3d
00000130: a0a5 cd3d 8cbc 813d 223b f43d d137 873b
00000140: 60f5 b4bd 5e20 5a3e 8d75 3e3c b8d3 553d
00000150: fa41 3fbd dd0f 6cbd a49b 7c3e aeab 67be
00000160: 3b6c 2ebe 6048 4a3e 1319 87be 892a 963d
00000170: 3ef7 f93d 1c38 b2bd 3eab 823e a7a7 343d
00000180: b815 42bd d582 3d3d 4a7e 8a3c 576d 02bc
00000190: f437 d1bd 5fc8 0cbb 89f0 d13c c0bf ed3d
000001a0: 2bda 2ebc fb7e 1cbe e1f3 aa3d 8035 d2bd
000001b0: 5500 9a3d b453 323e a18b c7bd d24f 8dbd
000001c0: b733 5e3e 0ffd 0f3d 085c 413d d6b6 dabd
000001d0: 1691 ccbd ab92 113d 89c2 f3bd e3dc 3fbe
000001e0: 28d8 72bb 40c8 3d3d e457 bdbd f5e8 1ebe
000001f0: af1d 7b3d 47ee 343e 65c6 82bd 1bdd 9d3e
00000200: 011c 5ebe 7711 11bd f162 6c3d 914c 233e
00000210: 4d50 33bd 1831 babc 5f10 bb3e 334b 5f3e
00000220: a9ca 723e 314f c43b a05c b53d c722 5a3e
00000230: fb81 d9bd 090d fdbd 975c 353e 4ab0 403e
00000240: 5dcc 8d3d ffe2 933c 83c7 153e ce52 e3bb
00000250: 35a6 543e b92e 2a3e e873 7dbd 2ab8 a0bc
00000260: 5e52 97bd 7781 943d e1b5 0abd ad86 afbe
00000270: 91f8 133d 135c 743d 6249 d73d efe1 c7bb
00000280: a6fd 00be 6ec0 0a3d d1a0 5bbe 07c8 883e
00000290: 43d0 efbc 1b4b aa3d 0ab7 c8bc 5421 7dbe
000002a0: 45ea efbd 461e 0a3e 7217 553b ec59 40bd
000002b0: 624d 1fbe 45c6 923e bad1 9f3d ea5a c03d
000002c0: 4222 793d 9c3c 28be 7860 ed3d fed2 1dbd
000002d0: 6acb cabd 62f3 42be 83e7 af3d 2d5f 933e
000002e0: decb a23e 9506 9cbe fd36 a9bd 5eeb 93bd
000002f0: cdef 3abe 422c 86bd f8e2 0bbe 52b4 cebd
00000300: a909 083f c429 8c3d f937 2abe f99e df3c
00000310: c009 803e a2ec d83d 0c29 2d3e d10a c8bd
00000320: e2b0 23be d1cb 4bbe 8a63 3cbe ab7d 01bd
00000330: 6e66 ae3c 8f65 64bc a5f8 4abd 5f09 8d3c
00000340: 40a5 acbd 0b1b 8ebd b611 abbd 94bf 24bd
00000350: 12fd dd3d b20e a7bb 362d 343d 97d8 5e3d
00000360: bdc0 a83e 13cc 9cbe 955d d6bd d0fd 5a3d
00000370: 7621 9e3e 3e0a 403e dc26 9dbd e10b 9bbd
00000380: a80d 9b3d 3058 e23d 58be db3d 5e25 96bc
00000390: 28bd e3bd 3f61 3fbe 4ec8 033e 672c 41be
000003a0: 7689 c73c f072 e1be a241 fe3d 1f87 d5bd
000003b0: b5f2 bd3e d93f 21be 6299 1e3e e107 9ebe
000003c0: ff4c 743d d244 be3c b36d 44bd 7cc0 3e3d
000003d0: a338 843e 6800 69be 5541 b63d be42 c0bc
000003e0: d816 d8bc f119 9a3d e3d5 473e b460 a8bc
000003f0: d37d fbbd 95c0 6abc b898 2abe 4d20 5dbd
-0.16967838 -0.13530141 0.037279084 0.056653176 0.11575844 0.0770645 0.32748395 -0.11313746
-0.18291211 0.13147609 -0.049960367 0.19555813 0.068147816 0.03453143 -0.24729703 -0.18366082
-0.066279754 0.023482285 0.01783823 0.0060000536 0.03871576 -0.0064939503 0.2529974 -0.1088669
0.046372626 0.010563732 -0.06123997 -0.08528043 0.06490777 -0.031608406 -0.20244645 -0.04379469
0.16064957 -0.03546368 -0.3943188 0.02923961 0.031703096 0.006232389 -0.16304097 0.096796736
-0.077836856 0.3120243 0.15459824 0.04770254 0.030469235 -0.14016311 -0.0437302 -0.08520043
0.04330889 0.11295255 -0.10705117 0.1518941 -0.06098384 -0.17270346 -0.062194344 -0.22477475
-0.10058686 0.053423874 0.27253854 0.030685212 -0.033811938 0.043194443 0.031176519 -0.11639445
-0.1014983 0.04589253 -0.34581462 -0.14488712 0.070144214 -0.08838167 -0.21532807 0.0030211832
-0.21089704 0.14602435 0.0421226 0.035154194 0.10041356 0.063347906 0.11925341 0.004126527
-0.08835864 0.2130141 0.011624706 0.052203864 -0.04669378 -0.057632316 0.24668747 -0.22624084
-0.17033474 0.19754171 -0.26386318 0.07332332 0.12205361 -0.08702108 0.25521272 0.0441052
-0.047383994 0.04626735 0.016905922 -0.007960639 -0.1021575 -0.0021481735 0.025627391 0.11608839
-0.0106721325 -0.15282814 0.083472975 -0.102641106 0.075195946 0.17414743 -0.09743429 -0.0689999
0.21699415 0.035153445 0.04720691 -0.106794044 -0.099886104 0.035540264 -0.11902339 -0.18736605
-0.0037055109 0.04633355 -0.092452794 -0.15518554 0.061307605 0.1766902 -0.06385497 0.30832753
-0.2169037 -0.035417046 0.057711545 0.15947177 -0.043777753 -0.022728488 0.36535928 0.2180603
0.23710121 0.0059908857 0.088555574 0.21302329 -0.10620495 -0.12356002 0.17711101 0.18817249
0.06923745 0.018052576 0.14626889 -0.0069373613 0.20766528 0.16619386 -0.061878115 -0.019619066
-0.07388757 0.07251256 -0.03386486 -0.34282437 0.036125723 0.05965812 0.105120435 -0.0060999314
-0.12596759 0.03387492 -0.21448065 0.2671511 -0.029274112 0.083151065 -0.024501342 -0.24719745
-0.11714605 0.13488111 0.0032515195 -0.046960756 -0.15556863 0.28666893 0.07803674 0.093923405
0.060823686 -0.1642937 0.115906656 -0.038531296 -0.099020794 -0.19038156 0.08589079 0.2878355
0.31796163 -0.30473772 -0.08262441 -0.07222627 -0.18255539 -0.0655141 -0.136608 -0.10092987
0.5313974 0.06843904 -0.16622914 0.027297484 0.2500744 0.10592009 0.1691019 -0.09767688
-0.15985444 -0.19901969 -0.18397346 -0.031613987 0.021289077 -0.013940229 -0.049553532 0.017216383
-0.084299564 -0.06938752 -0.083529875 -0.040221766 0.10839285 -0.0050981874 0.04398843 0.054405775
0.32959548 -0.30624446 -0.10467068 0.05346471 0.30884904 0.18753907 -0.076734275 -0.07570625
0.07570964 0.11051977 0.107296646 -0.018328365 -0.11120063 -0.1868944 0.12869379 -0.18864594
0.024357539 -0.44033003 0.12414862 -0.10426163 0.37099233 -0.15747012 0.15488198 -0.30865386
0.05964374 0.023226175 -0.04795618 0.046570286 0.2582446 -0.22754061 0.0889918 -0.023469325
-0.02637808 0.07524479 0.19515185 -0.020553924 -0.122798584 -0.014328142 -0.1665982 -0.053985883

network_body._body_endoder.seq_layers.2.bias f4 [128]
00000000: 0000 0000 0000 0000 0000 0000 0000 0000
00000010: 0000 0000 0000 0000 0000 0000 0000 0000
00000020: 0000 0000 0000 0000 0000 0000 0000 0000
00000030: 0000 0000 0000 0000 0000 0000 0000 0000
00000040: 0000 0000 0000 0000 0000 0000 0000 0000
00000050: 0000 0000 0000 0000 0000 0000 0000 0000
00000060: 0000 0000 0000 0000 0000 0000 0000 0000
00000070: 0000 0000 0000 0000 0000 0000 0000 0000
00000080: 0000 0000 0000 0000 0000 0000 0000 0000
00000090: 0000 0000 0000 0000 0000 0000 0000 0000
000000a0: 0000 0000 0000 0000 0000 0000 0000 0000
000000b0: 0000 0000 0000 0000 0000 0000 0000 0000
000000c0: 0000 0000 0000 0000 0000 0000 0000 0000
000000d0: 0000 0000 0000 0000 0000 0000 0000 0000
000000e0: 0000 0000 0000 0000 0000 0000 0000 0000
000000f0: 0000 0000 0000 0000 0000 0000 0000 0000
00000100: 0000 0000 0000 0000 0000 0000 0000 0000
00000110: 0000 0000 0000 0000 0000 0000 0000 0000
00000120: 0000 0000 0000 0000 0000 0000 0000 0000
00000130: 0000 0000 0000 0000 0000 0000 0000 0000
00000140: 0000 0000 0000 0000 0000 0000 0000 0000
00000150: 0000 0000 0000 0000 0000 0000 0000 0000
00000160: 0000 0000 0000 0000 0000 0000 0000 0000
00000170: 0000 0000 0000 0000 0000 0000 0000 0000
00000180: 0000 0000 0000 0000 0000 0000 0000 0000
00000190: 0000 0000 0000 0000 0000 0000 0000 0000
000001a0: 0000 0000 0000 0000 0000 0000 0000 0000
000001b0: 0000 0000 0000 0000 0000 0000 0000 0000
000001c0: 0000 0000 0000 0000 0000 0000 0000 0000
000001d0: 0000 0000 0000 0000 0000 0000 0000 0000
000001e0: 0000 0000 0000 0000 0000 0000 0000 0000
000001f0: 0000 0000 0000 0000 0000 0000 0000 0000
0.0 0.0 0.0 0.0 0.0 0.0 0.0 0.0
0.0 0.0 0.0 0.0 0.0 0.0 0.0 0.0
0.0 0.0 0.0 0.0 0.0 0.0 0.0 0.0
0.0 0.0 0.0 0.0 0.0 0.0 0.0 0.0
0.0 0.0 0.0 0.0 0.0 0.0 0.0 0.0
0.0 0.0 0.0 0.0 0.0 0.0 0.0 0.0
0.0 0.0 0.0 0.0 0.0 0.0 0.0 0.0
0.0 0.0 0.0 0.0 0.0 0.0 0.0 0.0
0.0 0.0 0.0 0.0 0.0 0.0 0.0 0.0
0.0 0.0 0.0 0.0 0.0 0.0 0.0 0.0
0.0 0.0 0.0 0.0 0.0 0.0 0.0 0.0
0.0 0.0 0.0 0.0 0.0 0.0 0.0 0.0
0.0 0.0 0.0 0.0 0.0 0.0 0.0 0.0
0.0 0.0 0.0 0.0 0.0 0.0 0.0 0.0
0.0 0.0 0.0 0.0 0.0 0.0 0.0 0.0
0.0 0.0 0.0 0.0 0.0 0.0 0.0 0.0

network_body._body_endoder.seq_layers.2.weight f4 [128, 128]
00000000: da85 a5bd e46f 3c3e 7816 eb3c 6216 eabd
00000010: 8b7f 443d 1200 cabd 226a df3d 1ab7 923b
00000020: cd8a a23c e85b 1ebd 995b 0b3d 6952 0ebe
00000030: 548e be3c 9d65 053d 89a0 bbbc b54d 1ebd
00000040: f202 8bbc 5d9c 2d3d 1061 fd3c 667f 183d
00000050: 4345 05be 3e62 b83d e1bf 853c 57d5 cbbb
00000060: dc24 8fbd 4b60 aabd f793 c6bd a44d 9e3d
00000070: d2f8 96bd 74f8 563c 655b 0bbe 5ee7 39bc
00000080: 85ee 1ebd 3c03 c03d 6ab3 b93c f747 623e
00000090: 9ddc a23b 4991 263d ec65 06be 6255 833b
000000a0: 3a3f b53d 2641 e93c c563 2fbd b807 01be
000000b0: 70fa bdbb dd56 afbd 5420 bb3d 7651 113e
000000c0: 3d11 68bc 13c9 13bc f9cf 3b3c 53de 5a3d
000000d0: 58e3 ebbd ee1a c23d b516 eabd a417 9cbd
000000e0: 375e 9a3d 5d6a 253d 61d4 833c b7a6 f33d
000000f0: a4b8 7b3a 73fb 92bd 25a1 063e 42af cc3a
00000100: 8467 583c 5b7e 8f3c 4265 fb3d e75e bcbb
00000110: bb56 c43d c514 2cbd 98fa c1bd 8489 823e
00000120: ac4d 33be 0a80 2e3d 3075 de3d ef17 63be
00000130: 3a44 0fbe 7f06 47be 2677 d1bd 9431 1ebb
00000140: 9586 073d ccf3 70bd 7563 aa3d 11d0 2e3d
00000150: 0833 853d 43c2 d03d 8536 38be 2477 e03d
00000160: e11e c3bc 0c52 28be ef08 743d 2a3f 64bb
00000170: be29 b5bd ea9f 49bd c7f3 033e 5569 62bd
00000180: 76b9 a33d d898 b0bc 813f 3c3e 67ce c53b
00000190: 875f 623e a13b 033d 338c efbc d4f5 8f3c
000001a0: 3639 183c 2150 e3bd e8fc ad3d 7d25 82bd
000001b0: af2d 133d a344 2abd 96a3 bc3d 47b0 8ebc
000001c0: fd70 c7bd 311c abbd 596e 9a3d abb7 30be
000001d0: a984 80be b770 0bbd e9f4 5a3e 80ab d8bd
000001e0: 1c9c 5f3d 3fed 9f3d 88d5 a6bd e071 0fbd
000001f0: 8855 603d 2365 ecbc 7777 a53c 225c 83bb
00000200: 85ed e7bc c1db 13bd 33ba 343d 5af9 69bd
00000210: 2f25 5abd 32ab 063c 250c 553d c64b 883d
00000220: 3ddc fd3d 4f8b a63c 4c34 733d ab79 cfbd
00000230: 39e0 0b3e 1cf6 7a3d c16b e53c b49f 193e
00000240: 6a69 c53d 7bd1 64bd 1f4e d0bc 13e3 aabc
00000250: d4ca 443d e0f5 223e 5a90 cebb 0947 01bd
00000260: f3c3 803d 714b 3ebd d99d 13be dede 803c
00000270: 8d1a f9bd 24c4 053e 3397 303d b329 96bd
00000280: e893 173d 7918 c9bd 6523 79bd ab26 5a3c
00000290: dadb 153e 8d33 ecbd f2db 0f3d 42bb 4f3d
000002a0: aeb5 fa3b 4bfe 81be cb8c a13d 7f60 c6bd
000002b0: 2ac3 003c 9497 c9bc a276 113c e772 a03d
000002c0: 9f6b e7bd 0085 3fbc 1878 fd3d 5583 b3bd
000002d0: e9e1 aa3d dc4b 983c 3c6f fa3d 5c62 cfbd
000002e0: 803d 0f3d c942 02bd 0826 9dbd f6da d0bc
000002f0: c798 55be 224c 063d b8fa 49bb 1610 46be
00000300: d7ce 3e3d 7f48 0cbe fe8e 14be adf2 0e3e
00000310: 8d36 853c 9bb8 4d3c 2615 64bd d08d 48bd
00000320: d1a5 2a3e 5fd1 bc3c 4189 fbbc e68b 38bd
00000330: 8660 553c 0a73 2d3d ee14 98bd aaf5 883c
00000340: 3f4a 99bd 1c16 b53d d190 133d 4cb5 86bd
00000350: 3f0c b83d 3963 563d 6805 5f3d 0d3d f93d
00000360: dcb5 0fbe 6399 033d 931b 543d c0eb 9a3b
00000370: a550 14be 4e34 953d 4a89 873d 90b2 7c3d
00000380: e66a 04be 9e2e 94bd aeb5 2b3d 3fcf 8abb
00000390: a64a c13c 4baa 513d e672 cb3c 9705 c8bc
000003a0: 52d0 b63d d5b2 7a3c be93 823c 5ea5 123d
000003b0: 1e90 51bc d19d 0d3e c9db d6bd 87f6 5d3e
000003c0: 3e08 513e 1b4b 34bc 9d45 c03b c4ef 4cbc
000003d0: 5270 f13d 7881 eabc ec86 c53c bbe9 c1bc
000003e0: a0a5 4dbd 9292 923d 6dac 073d 06c6 fbbc
000003f0: 834f 1f3d 467c 5c3c e042 d5bb c076 003d
-0.08082171 0.18402058 0.028697237 -0.114300504 0.047973197 -0.09863295 0.10908915 0.004477394
0.019841576 -0.038661867 0.0340229 -0.13898624 0.023261227 0.03256761 -0.022903698 -0.038648326
-0.016969178 0.042385448 0.030930072 0.03723087 -0.13014702 0.09003113 0.016326847 -0.0062205005
-0.06989452 -0.08319148 -0.09696191 0.077296525 -0.073716775 0.013120759 -0.13609083 -0.011346666
-0.03880169 0.09375617 0.02266856 0.22097765 0.004970147 0.0406659 -0.13124818 0.004007981
0.0884995 0.028473448 -0.042819757 -0.126006 -0.0057976767 -0.0856149 0.091370255 0.14191231
-0.014164266 -0.009020108 0.011463159 0.05343468 -0.11517972 0.09477793 -0.11430112 -0.076216966
0.07537501 0.04038464 0.016092481 0.11897033 0.0009602404 -0.071768664 0.1314741 0.0015616196
0.013208274 0.017516306 0.12275173 -0.005748618 0.09586855 -0.042011995 -0.09471625 0.2549554
-0.17510098 0.042602576 0.108621955 -0.22177099 -0.1399087 -0.19436072 -0.10227804 -0.0024138438
0.03308733 -0.058826253 0.08319751 0.042678896 0.06503874 0.101933025 -0.17989548 0.10960224
-0.023818435 -0.16437548 0.059578832 -0.0034827688 -0.08845852 -0.04922477 0.12885962 -0.055276234
0.07994358 -0.021557257 0.183836 0.006036568 0.22106753 0.03203929 -0.029241657 0.017573275
0.009290984 -0.11099268 0.08495504 -0.063548066 0.03593224 -0.041569363 0.09210889 -0.01741804
-0.09738348 -0.083549865 0.075405784 -0.17257564 -0.25101212 -0.03404304 0.21382488 -0.10579586
0.054592237 0.07808923 -0.081461966 -0.03502071 0.05476907 -0.02885682 0.020198567 -0.004008786
-0.0283115 -0.036098246 0.044122886 -0.057122566 -0.053258117 0.008219527 0.052013535 0.06655078
0.12395523 0.0203301 0.059376046 -0.10130628 0.13659753 0.061269864 0.028005483 0.15002328
0.09639247 -0.05586384 -0.025427876 -0.02086023 0.048044994 0.15914106 -0.006303829 -0.031561885
0.06287374 -0.046458665 -0.14415683 0.015731271 -0.12163267 0.13063103 0.043112945 -0.07332172
0.03700629 -0.09819121 -0.06082477 0.013314883 0.14634648 -0.1153327 0.035121866 0.050715692
0.0076510524 -0.25389323 0.07888182 -0.09686374 0.007859031 -0.02460841 0.008878382 0.07834416
-0.11299824 -0.0116894245 0.12376422 -0.08765284 0.0834387 0.01859086 0.122282475 -0.101261824
0.03497076 -0.031801973 -0.076732695 -0.025495034 -0.20859061 0.03278745 -0.0030819606 -0.19342074
0.046583977 -0.1369953 -0.14507672 0.13959761 0.016261363 0.01255622 -0.05568423 -0.048963368
0.16664816 0.023049055 -0.030705096 -0.045055293 0.013023501 0.042346038 -0.07425867 0.016718704
-0.074848644 0.08842108 0.03602678 -0.065775484 0.08986711 0.05234072 0.054448515 0.12169848
-0.14034218 0.032128703 0.05178411 0.0047278106 -0.14483888 0.07285367 0.06617983 0.061693728
-0.12931404 -0.07235454 0.04192131 -0.0042361314 0.023595165 0.051187795 0.024835061 -0.024416728
0.08926453 0.015301426 0.01593959 0.035802238 -0.012790708 0.13829733 -0.104911394 0.21676074
0.204133 -0.011004235 0.0058676735 -0.012508336 0.117890015 -0.028626189 0.024112187 -0.023671022
-0.05020678 0.07156862 0.033123422 -0.030734073 0.038894188 0.0134573635 -0.0065082163 0.03136325
