results/MejorandoCerebro2/AgenteCoche/AgenteCoche-499984.onnx (onnx, 92171 bytes, 7 tensors)

action_model._continuous_distribution.log_sigma f4 [1, 2]
00000000: 0000 0000 0000 0000
0.0 0.0

action_model._continuous_distribution.mu.bias f4 [2]
00000000: 0000 0000 0000 0000
0.0 0.0

action_model._continuous_distribution.mu.weight f4 [2, 128]
00000000: 1ff3 adbb 0283 743b 8d25 17bd 0b1c 6fbc
00000010: ecff 86bb 13af 51bd 6751 943b 3985 cabc
00000020: 6fe2 c2bc 9b6f 05bd bf40 2b3b 9356 2bbb
00000030: e05c d83b faef 56bc d765 85bc 53f6 b43c
00000040: 72f4 d0b7 abf2 633b 5a1d 32bb 8424 03bd
00000050: b4c7 153c d792 373c e2a6 31bc 4d4a 043d
00000060: fb2a 85bb 4747 86bb 423c 05bc 436c 9c3c
00000070: f76d 643b 9234 57bb 1dd8 d33c e754 debb
00000080: 8658 193d 234b caba 833e 7d3b 4f27 ae3b
00000090: 2054 683b b152 07bc 0ad9 d13c ea51 9cbc
000000a0: 46f6 1bbc 2eca c1bc cfc6 c93b 6325 303b
000000b0: 7f0d 88bc fbe4 bc3c 8cc5 04bc 1f08 8ebc
000000c0: 5b53 c2bc da3c 47bc fff3 5bbc 1b37 02bc
000000d0: d8eb 0c3c 6d57 a63b 9106 a7bc 17ac c83c
000000e0: e5f4 603c 475a cebc 430b 973b dd54 6dba
000000f0: a78f bdbc d531 613c f00d d8bc 0ac1 7dbc
00000100: 4b4b 4abd 1fcf d2bb 0cc7 c2bc 0c5b 013c
00000110: 0a35 443c 378e e1bc daec e63b efa3 88bb
00000120: 4f44 1abc 3049 973c 8221 53bc 725e 47bc
00000130: 15a2 a4bc bf8b 5cbb fccb b2bc 0ca7 94bc
00000140: 6d89 85bc 4210 5b3c 979a 613c 1bb0 91bc
00000150: 9f40 1cbc b30f bbbc d2e9 903c ff49 9f3c
00000160: 0df5 26bc b2c2 49bb 83e4 143a 2379 2bbc
00000170: 0f05 733c 4ba3 7a3c ce13 2f3c 60a5 1abc
00000180: fd05 e3bb 2e5f 8cbc cbf1 95bc 4be8 e7ba
00000190: ff50 933c 430d d43b f31a 4a3b 38f4 fbbc
000001a0: c2f3 043c b404 3a3b 9309 b63c a6b3 13bc
000001b0: b0f3 55bc b788 06bc e3a9 edbc 1d90 25ba
000001c0: cdf3 6aba 3adc 8c3c d75b 133c b30a 273b
000001d0: be36 0bbc 7340 edbb b609 a13c 75b9 62bc
000001e0: e013 9e3c 6953 093c a3c7 a73b a3ca c4bb
000001f0: cf5c ac3b 2013 1c3d 73bf 00bc 7bc4 b53c
00000200: c694 bd3c a715 1cbc 909c b9bc 1525 74bc
00000210: c90b 033d 0e73 2cbc d367 b3bc df3a b6bc
00000220: 2f1b c63b 0b8b b4bc 1b17 9b3b f3b6 1a3c
00000230: 976f 103c 7e3c ac3a da1c 1a3d c84b 7cbc
00000240: 53bf 19bc e0f4 e9bb bfce 84bc e9f2 1ebb
00000250: ea7f 4ebc 7556 5abb b166 863c 759e f83b
00000260: d760 a73b d497 263c 032d c2bc 515e 8abc
00000270: 12b5 ec3b c353 663d fbdd c03b 665c 0abc
00000280: 858d d7b9 0af7 e9bb 7d54 27bc d02b ce3b
00000290: 467f 173c cb4f b5bb 40ed 8bbb 457c eebc
000002a0: 45a6 d8ba 4705 e0bc f66e 923b 138b 7b3c
000002b0: 179c a0bc e5d0 eabb 8f6b 683c e4d2 c33b
000002c0: 15d3 02bc db03 153b 07b6 183c 6655 9e3c
000002d0: 7f17 243a 776a 3b3c 5bca d1bb a5ea cebc
000002e0: 7f8f 2c3d 2bd4 983c 3be7 debb 27d7 ce3c
000002f0: 177e 1fbd 412a c6bc 35a3 703c 87d5 ffbc
00000300: edff 8abb b318 153b a6e6 943c 44d9 9b3b
00000310: f2a3 d93a 704b 633b 689d ef3b 88f2 c0bb
00000320: a55f 6cbb 9a43 c2bc 094e 333d 4bfe 513c
00000330: a7ea d6ba d8b5 4f3a 6f65 3e3b 42bb 023c
00000340: 5f97 b1bc 38be 113c 0a3b 37bc 3b7a 5abc
00000350: 1a50 473c 886f debc f542 ce3c 9d7d d2bc
00000360: 728a 9e3c bbd9 79ba 000a b0bc ea16 f73c
00000370: d5e7 b73a b363 533c a7c0 ff3c af1f c3bc
00000380: eede ac3a ef2f ceba 8399 fcbc e881 4b3c
00000390: 4d05 87bc f35f 6c3c 704f 5cbc 83dd 583c
000003a0: 606f 883b b08b bbbb 9fbb 9abc b6ed 99bc
000003b0: d754 043c 7f59 28bc d5d7 dabc 58ce fd3c
000003c0: 07f6 3cbb 562b ccbc 7952 a83c 9be3 103c
000003d0: a740 1d3d 9b69 5d3c f370 4d3c a477 923c
000003e0: ca65 1b3b f837 0fbc 2fb3 1ebc 0791 623c
000003f0: 062e 8d3c f74a 43bc bb15 1e3b 95ce 01bd
-0.0053085233 0.0037309532 -0.036901046 -0.014594088 -0.0041198637 -0.051192354 0.0045263055 -0.024721729
-0.023789613 -0.03257714 0.002613112 -0.0026144132 0.0066028684 -0.013118738 -0.016283913 0.022090113
-2.4909361e-05 0.0034782093 -0.002717814 -0.032017246 0.009141851 0.011204443 -0.010843011 0.03229742
-0.0040639616 -0.0040978524 -0.008132042 0.019094592 0.0034855583 -0.003283773 0.025859887 -0.0067850235
0.03743794 -0.001543377 0.0038641996 0.0053147445 0.0035450533 -0.008259461 0.025616188 -0.019082028
-0.009519165 -0.023655977 0.006157733 0.0026877753 -0.016607998 0.023058405 -0.0081037395 -0.017337857
-0.023721388 -0.012160504 -0.013424872 -0.0079477085 0.008601151 0.00507634 -0.020388873 0.024496121
0.013730262 -0.025189532 0.004609497 -0.0009053478 -0.023139788 0.013744791 -0.026373833 -0.015487919
-0.04938821 -0.006433382 -0.023776554 0.007895242 0.011975536 -0.027533634 0.007047278 -0.004169933
-0.0094157 0.018467516 -0.012886407 -0.012168514 -0.020096818 -0.003365263 -0.021825783 -0.01814606
-0.016300881 0.013370575 0.013769767 -0.017784169 -0.009536891 -0.022834634 0.01768962 0.019444464
-0.010190261 -0.0030786213 0.0005679803 -0.010465893 0.014832749 0.015297721 0.010685874 -0.009438843
-0.006928204 -0.017135229 -0.018303772 -0.001769313 0.017982958 0.0064713075 0.0030838817 -0.030756101
0.008114757 0.002838415 0.022221362 -0.0090149995 -0.013058588 -0.008211306 -0.029011672 -0.0006315725
-0.0008962721 0.017194856 0.008994064 0.0025488555 -0.008496938 -0.007240349 0.01965795 -0.013838162
0.019296587 0.008381703 0.005120234 -0.0060056015 0.005260087 0.038104177 -0.007858145 0.022188416
0.02314223 -0.009526647 -0.022657663 -0.014901419 0.03199366 -0.010525478 -0.021900093 -0.022244869
0.006045721 -0.022038957 0.004732979 0.009443033 0.008815668 0.0013140587 0.03762517 -0.015398927
-0.009383994 -0.007139787 -0.016211865 -0.0024253672 -0.012603739 -0.0033315693 0.016406389 0.007587249
0.0051079798 0.010168035 -0.023703104 -0.016890677 0.0072237337 0.056232225 0.005885837 -0.008444881
-0.00041113436 -0.007140045 -0.010213015 0.006291844 0.009246653 -0.0055331937 -0.0042702258 -0.02911199
-0.0016529044 -0.027346266 0.004468794 0.015352982 -0.01960568 -0.0071660154 0.0141858 0.005976068
-0.007984896 0.0022737894 0.009320742 0.01932783 0.00062596047 0.011438957 -0.0064022965 -0.025258372
0.042129036 0.018655857 -0.006802467 0.025249077 -0.038938608 -0.02419007 0.014687349 -0.031229747
-0.0042419345 0.0022750318 0.018176388 0.0047561247 0.0016604646 0.0034682415 0.0073124655 -0.005888287
-0.003606775 -0.023713876 0.043775592 0.012816976 -0.0016396836 0.000792352 0.0029052158 0.007979216
-0.021678625 0.008895449 -0.01118351 -0.013334806 0.012165094 -0.027152792 0.025178412 -0.025694663
0.019353125 -0.00095310406 -0.021489143 0.030162293 0.0014030883 0.012902188 0.031219793 -0.023818819
0.0013188997 -0.0015730838 -0.030834919 0.012421109 -0.01648202 0.014427173 -0.013446674 0.013236406
0.0041636676 -0.005723439 -0.018888293 -0.018790107 0.008076868 -0.010275244 -0.026714245 0.030982181
-0.0028833167 -0.024923008 0.020547139 0.008843328 0.038391735 0.013513948 0.012539136 0.017879315
0.0023711794 -0.008741371 -0.009686275 0.0138285225 0.01723386 -0.0119197285 0.002412184 -0.031691153

network_body._body_endoder.seq_layers.0.bias f4 [128]
00000000: 0000 0000 0000 0000 0000 0000 0000 0000
00000010: 0000 0000 0000 0000 0000 0000 0000 0000
00000020: 0000 0000 0000 0000 0000 0000 0000 0000
00000030: 0000 0000 0000 0000 0000 0000 0000 0000
00000040: 0000 0000 0000 0000 0000 0000 0000 0000
00000050: 0000 0000 0000 0000 0000 0000 0000 0000
00000060: 0000 0000 0000 0000 0000 0000 0000 0000
00000070: 0000 0000 0000 0000 0000 0000 0000 0000
00000080: 0000 0000 0000 0000 0000 0000 0000 0000
00000090: 0000 0000 0000 0000 0000 0000 0000 0000
000000a0: 0000 0000 0000 0000 0000 0000 0000 0000
000000b0: 0000 0000 0000 0000 0000 0000 0000 0000
000000c0: 0000 0000 0000 0000 0000 0000 0000 0000
000000d0: 0000 0000 0000 0000 0000 0000 0000 0000
000000e0: 0000 0000 0000 0000 0000 0000 0000 0000
000000f0: 0000 0000 0000 0000 0000 0000 0000 0000
00000100: 0000 0000 0000 0000 0000 0000 0000 0000
00000110: 0000 0000 0000 0000 0000 0000 0000 0000
00000120: 0000 0000 0000 0000 0000 0000 0000 0000
00000130: 0000 0000 0000 0000 0000 0000 0000 0000
00000140: 0000 0000 0000 0000 0000 0000 0000 0000
00000150: 0000 0000 0000 0000 0000 0000 0000 0000
00000160: 0000 0000 0000 0000 0000 0000 0000 0000
00000170: 0000 0000 0000 0000 0000 0000 0000 0000
00000180: 0000 0000 0000 0000 0000 0000 0000 0000
00000190: 0000 0000 0000 0000 0000 0000 0000 0000
000001a0: 0000 0000 0000 0000 0000 0000 0000 0000
000001b0: 0000 0000 0000 0000 0000 0000 0000 0000
000001c0: 0000 0000 0000 0000 0000 0000 0000 0000
000001d0: 0000 0000 0000 0000 0000 0000 0000 0000
000001e0: 0000 0000 0000 0000 0000 0000 0000 0000
000001f0: 0000 0000 0000 0000 0000 0000 0000 0000
0.0 0.0 0.0 0.0 0.0 0.0 0.0 0.0
0.0 0.0 0.0 0.0 0.0 0.0 0.0 0.0
0.0 0.0 0.0 0.0 0.0 0.0 0.0 0.0
0.0 0.0 0.0 0.0 0.0 0.0 0.0 0.0
0.0 0.0 0.0 0.0 0.0 0.0 0.0 0.0
0.0 0.0 0.0 0.0 0.0 0.0 0.0 0.0
0.0 0.0 0.0 0.0 0.0 0.0 0.0 0.0
0.0 0.0 0.0 0.0 0.0 0.0 0.0 0.0
0.0 0.0 0.0 0.0 0.0 0.0 0.0 0.0
0.0 0.0 0.0 0.0 0.0 0.0 0.0 0.0
0.0 0.0 0.0 0.0 0.0 0.0 0.0 0.0
0.0 0.0 0.0 0.0 0.0 0.0 0.0 0.0
0.0 0.0 0.0 0.0 0.0 0.0 0.0 0.0
0.0 0.0 0.0 0.0 0.0 0.0 0.0 0.0
0.0 0.0 0.0 0.0 0.0 0.0 0.0 0.0
0.0 0.0 0.0 0.0 0.0 0.0 0.0 0.0

network_body._body_endoder.seq_layers.0.weight f4 [128, 44]
00000000: cfbd 94be 90cd c23d 37be 773e bfa1 8e3d
00000010: dce9 0b3e 76ee da3a 76f0 b1be 9177 86be
00000020: b6dc 993e cf78 2cbe 3695 6c3d 1a4f 4a3e
00000030: 32d0 bb3e a458 6abe 5959 1bbc d844 733c
00000040: 276f 4fbe 8976 91be fb03 013d b7f8 18be
00000050: 32f8 e23c 9dd7 a9be dd75 a0bd 2124 c0bd
00000060: 34b1 3abe 5fac 6c3d 09ae 2bbe 0312 c8bc
00000070: 4b7d a73c 92c9 c4bc aa12 623e b55e 81bd
00000080: a008 24bd 0258 643e e8c0 35be 1ebc c6bd
00000090: 9ed5 0fbe 0bdf 81bd 9229 a5bc 002f 513e
000000a0: 70da fbbd dd4e f4bd 48d9 56bd 91e1 53be
000000b0: 1dc1 773d a558 c3bd d8eb 1e3e 18ba 77be
000000c0: deef 07be b101 513d d7e9 993e 7dc8 8cbe
000000d0: 714a 3dbe e293 8f3d fe0f 113e a03f 113e
000000e0: 36d4 07be 54ca c4bd 6d06 0b3e 6e33 223e
000000f0: 45b8 e83b 7aee ab3d c0f0 b6bd 9c6c c5bd
00000100: ea88 a13d 2b5c 763e 180a e3bd ef59 22be
00000110: 4423 a1bc ea57 9dbd fd4b 76be 0c8b 233e
00000120: 993b 213e c484 eb3c a54e 50bd f321 79be
00000130: eec5 9a3e a84b cd3d 9f7f b6bc 1e51 2a3e
00000140: b05f 0e3e 8c62 02bd e96c 513c 0d5f 743e
00000150: c8ab 873c 0c53 6e3e 7464 183d a693 0cbe
00000160: bb3b d83c 0deb b2bd 064a 8d3e cb8d 65be
00000170: 3c21 07be 7415 7abd 536c 28be 47f5 f7bc
00000180: 27f6 f5bd b510 333d 2e43 7d3e 41ff 1d3e
00000190: 0a90 28bd 42a5 52bd 10a3 b63c d50d 12be
000001a0: 1c95 073e 9840 8fbd b86c 9dbc a471 6d3e
000001b0: db52 ecbd 64b0 42be 0ca3 4a3b 2c8d 67bb
000001c0: 741a 813d afae 433e 6212 993d 1b2e 26be
000001d0: 151d 20be d8b0 02be 702b 83be 5c4f 033d
000001e0: 55cc 223d 96f9 893e 2889 a13d 2ca1 773e
000001f0: ed09 e63e 3744 743e 4e22 36bd 0ea9 e73d
00000200: 8882 6abd 25d8 25bd 3308 88be 60b6 2b3d
00000210: 8e4d f3bd 8699 e9bd 18af bd3e 0825 11bd
00000220: a447 53bc d25d 70bb 9d8e ab3e ab7e 45bd
00000230: c46a 69be 58e9 063e 8198 933e 442b 37be
00000240: 0e99 12be 44b3 1ebe e02e af3e 62de f73c
00000250: b432 3ebe fec9 943e 8b72 87bc b3f0 c2bd
00000260: 7093 963e 0857 cebd 6d42 b9bb e11c 833d
00000270: 450a ea3b 4954 a1bd 7da9 7ebe 2ac5 323e
00000280: 79ba 87bc eaee e2bb f2d3 90be c771 65be
00000290: d2f4 dd3d 8ae3 b43e a096 1ebe e6c0 65bc
000002a0: bbd2 89bd 1615 233e d42e 153e a2de 7a3e
000002b0: cf52 debc 5655 ccbd 863a 4cbd 1321 1a3d
000002c0: d944 2dbd 93da 45be d818 873d a3e4 873d
000002d0: 92c0 6e3e c2ae 243e d819 6bbb 8960 593d
000002e0: df4b 61bd 28cc c5bd 5429 853e 43f0 a43e
000002f0: ec54 45be 887b f8bd fb0c c33d ef5f d7bd
00000300: 53af 50be eb87 4bbc bc3e 73bd fc6c a0be
00000310: 2dfd 49bd 12d4 a1bd e77c 8bbd 580a 2cbb
00000320: 436e 29be ef32 f6bc d154 1ebd 85a6 313e
00000330: cab8 313d b30e 573c b681 003e 1fad a6bc
00000340: 91a1 063e 56a3 013e 5c2d e53d 2371 afbc
00000350: 48d3 803c 6ff2 94bd 2eec ccbd bc45 8f3d
00000360: c738 113e f497 103e 14c5 38be 48e0 20bc
00000370: d9ef dbbd ba2d 1ebe 28fb c23d 9bcb c93d
00000380: b61d 7dbc 3f4b f1bd f258 a13e 33aa 27be
00000390: f9ad 133d 9a77 c5bd 7ae2 f5bd 0879 0cbd
000003a0: cfef 30bd d4e2 313d 47d8 71bc f2b2 45be
000003b0: abc5 273e b1a1 3b3e 8d6c c13d 815e 5cbe
000003c0: 6447 c13d b47b 8dbb 6717 c5bd 6536 93bd
000003d0: cba9 cdbd 2efd ed3b 628f 8cbe f88f 80bc
000003e0: 9b42 8dbe fd1e 493d dcc6 413e 51c8 503e
000003f0: 2740 a7bd c1bb 67be 3de5 a0bd 1a1c adbd
-0.29051062 0.09511864 0.24193655 0.06964444 0.13663429 0.0016703147 -0.3475377 -0.26263097
0.30051202 -0.1684296 0.057759486 0.19756737 0.36682278 -0.22885376 -0.009481751 0.014847957
-0.20257245 -0.28410748 0.031497937 -0.14938627 0.02770624 -0.33172312 -0.07834981 -0.09381891
-0.1823166 0.057781573 -0.16765608 -0.024422651 0.020445487 -0.024021897 0.22077432 -0.06316892
-0.040047288 0.22299197 -0.17749369 -0.09703849 -0.14046332 -0.0634137 -0.020161424 0.20428085
-0.12297523 -0.119291045 -0.05245331 -0.20691516 0.0604869 -0.09538392 0.15519655 -0.24192083
-0.13275096 0.051027004 0.30061218 -0.2749671 -0.18485428 0.07010628 0.14166257 0.14184427
-0.13264546 -0.096089035 0.1357667 0.15839931 0.0071020448 0.08395095 -0.08932638 -0.09639856
0.078874424 0.24058597 -0.110859096 -0.1585462 -0.019670136 -0.07682784 -0.24052425 0.15971011
0.15745391 0.028749831 -0.05085625 -0.24329357 0.30229133 0.10024196 -0.022277651 0.16632506
0.1390369 -0.031832263 0.012782314 0.23864384 0.016561404 0.23273867 0.037205175 -0.13728198
0.02639567 -0.08736239 0.27595538 -0.22417371 -0.13196272 -0.061055616 -0.16447572 -0.030268325
-0.120098405 0.043717105 0.24732658 0.15429403 -0.04115299 -0.051427133 0.022294551 -0.14263089
0.13240474 -0.06994742 -0.01921688 0.23187882 -0.11539241 -0.190126 0.0030919937 -0.0035331948
0.06303874 0.19109605 0.07474209 -0.16228525 -0.15636094 -0.12762773 -0.25619078 0.032058105
0.039745647 0.2694823 0.078874886 0.24182576 0.44929448 0.23854147 -0.04446631 0.113115415
-0.05725339 -0.040489335 -0.26568756 0.041921973 -0.11880027 -0.114062354 0.37047648 -0.035435706
-0.012895498 -0.0036677015 0.33507243 -0.048216503 -0.22794634 0.13174951 0.2882729 -0.17887598
-0.14316198 -0.15498072 0.3421545 0.030257408 -0.18574029 0.29060358 -0.01653411 -0.09518566
0.2940936 -0.10075194 -0.0056536705 0.064019926 0.0071423375 -0.07877404 -0.24869342 0.17458025
-0.01656841 -0.0069254534 -0.282867 -0.22406684 0.108377114 0.3532985 -0.15487146 -0.014023041
-0.06729647 0.15926012 0.14568645 0.2449899 -0.027139096 -0.09977214 -0.0498605 0.0376292
-0.042301986 -0.1932166 0.065965354 0.06635406 0.23315647 0.1608229 -0.0035873558 0.05307058
-0.055003997 -0.0965808 0.26008093 0.32214555 -0.19270676 -0.12132937 0.0952396 -0.10516345
-0.20379381 -0.012422542 -0.059386 -0.31333148 -0.049313713 -0.07901777 -0.068109326 -0.0026251283
-0.16545968 -0.030053584 -0.038655106 0.17348678 0.04338912 0.013126063 0.12549481 -0.020346222
0.1314757 0.12659964 0.11190292 -0.021416252 0.015725747 -0.07272803 -0.10005985 0.06995723
0.14181815 0.14120466 -0.1804393 -0.009819098 -0.10739107 -0.15447131 0.095205605 0.09853288
-0.015448978 -0.1178193 0.31513172 -0.1637352 0.036054585 -0.09641953 -0.120060876 -0.034295112
-0.04319745 0.04342921 -0.014761037 -0.19306543 0.16383998 0.18323399 0.094445325 -0.21520425
0.09437445 -0.004317725 -0.09623604 -0.07188109 -0.10042151 0.0072628474 -0.27453142 -0.01569365
-0.27589878 0.04910182 0.18923515 0.20388915 -0.08166533 -0.22630216 -0.07856224 -0.084526256

network_body._body_endoder.seq_layers.2.bias f4 [128]
00000000: 0000 0000 0000 0000 0000 0000 0000 0000
00000010: 0000 0000 0000 0000 0000 0000 0000 0000
00000020: 0000 0000 0000 0000 0000 0000 0000 0000
00000030: 0000 0000 0000 0000 0000 0000 0000 0000
00000040: 0000 0000 0000 0000 0000 0000 0000 0000
00000050: 0000 0000 0000 0000 0000 0000 0000 0000
00000060: 0000 0000 0000 0000 0000 0000 0000 0000
00000070: 0000 0000 0000 0000 0000 0000 0000 0000
00000080: 0000 0000 0000 0000 0000 0000 0000 0000
00000090: 0000 0000 0000 0000 0000 0000 0000 0000
000000a0: 0000 0000 0000 0000 0000 0000 0000 0000
000000b0: 0000 0000 0000 0000 0000 0000 0000 0000
000000c0: 0000 0000 0000 0000 0000 0000 0000 0000
000000d0: 0000 0000 0000 0000 0000 0000 0000 0000
000000e0: 0000 0000 0000 0000 0000 0000 0000 0000
000000f0: 0000 0000 0000 0000 0000 0000 0000 0000
00000100: 0000 0000 0000 0000 0000 0000 0000 0000
00000110: 0000 0000 0000 0000 0000 0000 0000 0000
00000120: 0000 0000 0000 0000 0000 0000 0000 0000
00000130: 0000 0000 0000 0000 0000 0000 0000 0000
00000140: 0000 0000 0000 0000 0000 0000 0000 0000
00000150: 0000 0000 0000 0000 0000 0000 0000 0000
00000160: 0000 0000 0000 0000 0000 0000 0000 0000
00000170: 0000 0000 0000 0000 0000 0000 0000 0000
00000180: 0000 0000 0000 0000 0000 0000 0000 0000
00000190: 0000 0000 0000 0000 0000 0000 0000 0000
000001a0: 0000 0000 0000 0000 0000 0000 0000 0000
000001b0: 0000 0000 0000 0000 0000 0000 0000 0000
000001c0: 0000 0000 0000 0000 0000 0000 0000 0000
000001d0: 0000 0000 0000 0000 0000 0000 0000 0000
000001e0: 0000 0000 0000 0000 0000 0000 0000 0000
000001f0: 0000 0000 0000 0000 0000 0000 0000 0000
0.0 0.0 0.0 0.0 0.0 0.0 0.0 0.0
0.0 0.0 0.0 0.0 0.0 0.0 0.0 0.0
0.0 0.0 0.0 0.0 0.0 0.0 0.0 0.0
0.0 0.0 0.0 0.0 0.0 0.0 0.0 0.0
0.0 0.0 0.0 0.0 0.0 0.0 0.0 0.0
0.0 0.0 0.0 0.0 0.0 0.0 0.0 0.0
0.0 0.0 0.0 0.0 0.0 0.0 0.0 0.0
0.0 0.0 0.0 0.0 0.0 0.0 0.0 0.0
0.0 0.0 0.0 0.0 0.0 0.0 0.0 0.0
0.0 0.0 0.0 0.0 0.0 0.0 0.0 0.0
0.0 0.0 0.0 0.0 0.0 0.0 0.0 0.0
0.0 0.0 0.0 0.0 0.0 0.0 0.0 0.0
0.0 0.0 0.0 0.0 0.0 0.0 0.0 0.0
0.0 0.0 0.0 0.0 0.0 0.0 0.0 0.0
0.0 0.0 0.0 0.0 0.0 0.0 0.0 0.0
0.0 0.0 0.0 0.0 0.0 0.0 0.0 0.0

network_body._body_endoder.seq_layers.2.weight f4 [128, 128]
00000000: 73f3 093e 12cb adbd b36d 28bc 8f67 c93c
00000010: ddaa 843c 0f9c ffbb 8ed4 1abe 6be6 123d
00000020: ba4f 0cbe a58c eabc 6450 e03d da36 f2bd
00000030: 6a27 81bc 6619 823c 12ad a2bd 80eb 923d
00000040: c712 fcbd 3825 63bd 1d86 cbbb 2bef aa3c
00000050: f235 c8bc dcc9 c23d 4ffd 73be 49f9 b0bd
00000060: b39f 04be 4a31 ea3b d5cc a7bc ead4 eabd
00000070: 7931 d4bc 0082 00bd 8e12 d6bd 03a3 a4bd
00000080: 0a35 7a3d cfb8 1b3e 95a5 fd3c eaa3 c5bd
00000090: a635 3a3d 5e83 b33d bed4 ba3c 8c38 353d
000000a0: 3457 e63d 75c3 4f3d f4cf d03d 1604 d43c
000000b0: 5e18 f03d dfa8 a6bc 965d 08be 231e 903d
000000c0: d40c 2a3e 0e7d 20bb d604 0ebe dbac 21bd
000000d0: a0b6 8b3c 09f2 20be e4a5 d7bd 65e8 ce3d
000000e0: 77ee 12bc 7961 9ebd 77ec 47bd 7769 1d3e
000000f0: 38ba 4fba f222 60bd aa0e 573d f987 4a3c
00000100: 768b 533d 0af2 0b3e ac83 093d 2c05 263c
00000110: ca19 933d 12f6 c7bd 1205 de3c b9b9 623d
00000120: 9167 ecbd 4b83 ee3d 008f 8bbd cc98 55bd
00000130: e2d6 1d3b aa1b 17be 61e4 293e 297f a53d
00000140: e1b9 c5bc da8c 6fbd faab 4c3c 6c45 973d
00000150: df90 cf3c 3dd3 e13c a018 0abe 65e9 e43c
00000160: a4af ff3c 0aaa 233e 8a4f 88bd 9c22 8ebc
00000170: ffa4 84bd 7462 8e3d baca 503d 0cb5 523d
00000180: a4dc f8bb de88 b2bd af6f f3bc 4ba1 4abc
00000190: 9a1a 9cbd faf4 88bd 0980 6abd a3a0 88bd
000001a0: 6f0b a4be db7b e8bb 8256 103e e3ba a6bd
000001b0: 5eb7 593d 035d 2c3d b857 37bd f2b4 ca3d
000001c0: a4ec 65bc ad83 e1bc a6f8 f7bd 7950 6fbe
000001d0: 132e 7fbb 76ea 87bd 31ea 79bd f81c 073d
000001e0: 130c 6bbb 3560 81bd 4939 8fbc c473 6dbd
000001f0: 4989 2ebe 036a cc3c 5c9b 29be f333 f1bd
00000200: 0828 6b3e 9122 62bd a83a b6bd 500b d5bc
00000210: 20b2 b73d 09be 11bc 9277 f8bb 7e9c 51bc
00000220: 998e 5fbe 2e40 e9bd 6ae0 393d e7af 82bd
00000230: 0402 333d 6360 1c3d 08a3 89bc 2eb1 32bd
00000240: 41fb 61bc 6147 b23c 3204 65bd ba2e 08be
00000250: ec61 24be f372 c83d 0b7a cabd 0b08 a53d
00000260: ca67 e2bd 33db ae3d f186 dabc 56ce 55bd
00000270: 8e2f 91bd 4962 293d 9b54 163d cb49 35bd
00000280: 14a1 1cbd fbb9 b43b 477c c4bd ba53 fb3d
00000290: d353 2f3c cca9 09bd 1934 03bd 6b6b a23d
000002a0: c141 c43d 711e 643c 7bf2 17bc 88e0 6d3d
000002b0: 84c6 cf3d 3144 3abd 4318 7fbc b8ac 42bc
000002c0: 2354 bd3d 4b83 12be e0dd bebc 6701 c4bb
000002d0: e6ec a4bd 2fef 6a3d 22a9 0ebd fb55 a0bb
000002e0: e079 183e b956 c63d 2d4f 25bd 02da 8bbd
000002f0: 1620 febc 68b6 873d 950f 1d3e b687 8e3d
00000300: 8a99 d43c 05fc 6bbb e806 4d3d 9d3d 193d
00000310: 2916 b1bc 4915 063e 5032 92bc 1a71 80bd
00000320: 77c2 453c a671 d0bd 6722 f93d 19e6 503d
00000330: 0b31 6bbc dc6f 21bd 3efc ac3c aceb cb3c
00000340: d7d2 953d 4bc8 22be 31ec 8d3c 291e ae3d
00000350: 5d89 babd 73d2 2ebd 27d9 86bc ad8a 03be
00000360: e25c c4bd 95b9 08bd 21e8 1ebc 7d63 e2bb
00000370: 7cd2 17be 8008 2a3d fdfa 7cbd 2718 99bd
00000380: b30b 85bc 7f6c b8bd 1253 83bd 58a3 523d
00000390: e034 d93c f33e b53d 389f 36bd 52d5 2f3d
000003a0: cf1c 023d 9717 a73d b721 8a3d 8134 383c
000003b0: 8506 78bb 83e1 cabd a740 303d 0290 c1bc
000003c0: 079d e5bc 3220 123e cd98 a1bd 0160 bdbd
000003d0: ad89 3abd 2e45 6b3e 9511 5e3d ff3a 513d
000003e0: 50f0 02be 04d2 df3d fc33 0bbd 2b86 4b3c
000003f0: 4f7a 113d d394 b73d fc74 6fbd cd9b b63c
0.13471775 -0.08485998 -0.010280061 0.024585513 0.016194755 -0.007800586 -0.15120146 0.035864275
-0.13702288 -0.028631518 0.10952833 -0.11826868 -0.015765864 0.015881252 -0.07943167 0.07173824
-0.12308269 -0.055455416 -0.006211056 0.020865997 -0.024439786 0.09511158 -0.23827098 -0.08641297
-0.12951545 0.007146989 -0.020483414 -0.114663914 -0.025902497 -0.031373978 -0.10452758 -0.080389045
0.06108574 0.15207218 0.030962745 -0.09650405 0.04546132 0.08765291 0.022806522 0.04424338
0.112471014 0.05072351 0.10195914 0.025880855 0.11723398 -0.020344196 -0.1331695 0.07036998
0.16606456 -0.00244886 -0.13869032 -0.03947149 0.017054856 -0.15717329 -0.10529688 0.101029195
-0.008967987 -0.07733435 -0.048809495 0.15372263 -0.0007924172 -0.054720826 0.05250422 0.01236152
0.051646672 0.1366655 0.033572838 0.010133069 0.07182653 -0.09763731 0.027102027 0.0553529
-0.11543191 0.11646136 -0.068143845 -0.05214767 0.002408438 -0.14756647 0.16591026 0.080808945
-0.024136486 -0.058483936 0.012492174 0.07386288 0.025337635 0.027566547 -0.13485956 0.027943322
0.031211682 0.15982834 -0.06655796 -0.017350487 -0.06476783 0.06952372 0.050974585 0.05144219
-0.007594662 -0.087175116 -0.02971634 -0.012367557 -0.07622261 -0.066873506 -0.05725101 -0.06671264
-0.32039973 -0.007094843 0.140955 -0.081411146 0.05315339 0.04208089 -0.04476139 0.09897794
-0.01403347 -0.027528608 -0.12107973 -0.23370542 -0.0038937374 -0.06636517 -0.061014358 0.03298661
-0.003586535 -0.06317178 -0.01748337 -0.05797173 -0.17044558 0.024952894 -0.16563171 -0.11777487
0.2296449 -0.055208746 -0.088979065 -0.02600637 0.089695215 -0.008895406 -0.0075826133 -0.012793658
-0.2183174 -0.113891944 0.045380034 -0.06381207 0.043703094 0.03817786 -0.016801372 -0.043626003
-0.013792814 0.021762552 -0.055912204 -0.13299075 -0.16052979 0.0978755 -0.09886559 0.08058175
-0.110549524 0.08537903 -0.026675673 -0.05219873 -0.070891485 0.041353498 0.03670178 -0.044259828
-0.038239554 0.0055153347 -0.095940165 0.12271829 0.010701138 -0.033609197 -0.032032106 0.079306446
0.09582854 0.013923273 -0.00927412 0.058075458 0.10145286 -0.04547519 -0.015569749 -0.011882
0.092445634 -0.14307897 -0.023299158 -0.0059816125 -0.08052997 0.05735701 -0.034829266 -0.004893062
0.14890242 0.0968451 -0.04035871 -0.06828691 -0.03102116 0.06626588 0.15337975 0.069594786
0.02595212 -0.003600837 0.050055414 0.037412275 -0.021617012 0.13094057 -0.017846256 -0.062715724
0.01207029 -0.10177927 0.12164765 0.05100069 -0.0143549545 -0.039413318 0.021116372 0.02489265
0.07315605 -0.15896718 0.017324539 0.08501846 -0.09108231 -0.04268117 -0.016460968 -0.1284587
-0.095880285 -0.03338011 -0.0096988985 -0.0069088326 -0.14826387 0.041512012 -0.0617628 -0.0747531
-0.01624093 -0.09005069 -0.06412329 0.051425308 0.02651447 0.08849897 -0.044585437 0.042928047
0.031765755 0.08158796 0.06744712 0.011242987 -0.0037845683 -0.09906294 0.043030407 -0.023628239
-0.028028978 0.14270094 -0.078904726 -0.09246827 -0.045541454 0.22975609 0.054215986 0.051081654
-0.12786984 0.10928729 -0.033985123 0.012422125 0.035517033 0.08963933 -0.058461174 0.022291088
