results/CurvaPequeña/AgenteCoche/AgenteCoche-189180.onnx (onnx, 93707 bytes, 7 tensors)

action_model._continuous_distribution.log_sigma f4 [1, 2]
000000 00 00 00 00 00 00 00 00
       0.0 0.0

action_model._continuous_distribution.mu.bias f4 [2]
000000 00 00 00 00 00 00 00 00
       0.0 0.0

action_model._continuous_distribution.mu.weight f4 [2, 128]
000000 53 31 9f 3b 99 00 15 3c 08 d6 9a bc d8 20 3d bc
       0.004858175 0.009094381 -0.018900886 -0.011543475
000010 84 a6 ca bb 42 37 03 bc 7e 0c 80 ba 18 99 33 3c
       -0.006184401 -0.00800878 -0.0009769348 0.010961793
000020 e0 e7 f4 bb cd f1 5c 3b ce 99 bc bc 05 b2 61 bc
       -0.0074739307 0.003371346 -0.023022559 -0.013775353
000030 db b9 29 3d 7e ee 3a 3c cb 45 ef 3b 18 f8 1d bd
       0.04143701 0.0114094 0.007302021 -0.03856668
000040 de fb 12 bd e6 56 0c bc b8 c9 9b bb fe 6c 31 bd
       -0.03588473 -0.00856564 -0.0047542714 -0.043316834
000050 26 f4 83 3c e2 2e 65 3c d3 93 1a 3c bf fa b3 3c
       0.01610763 0.0139882285 0.009434658 0.021970151
000060 3a 82 75 3b 87 73 e3 ba f2 16 d6 bc 52 2c d4 3c
       0.0037461654 -0.0017353155 -0.026133988 0.02590004
000070 57 f0 f9 3c 53 0e ac 3c 0b 0b da bc bd 2b d0 3c
       0.03051011 0.021002924 -0.026616594 0.025411481
000080 a4 50 25 bc ad b5 c1 bc fa 23 5b 3d 4a df 77 3c
       -0.010090027 -0.0236462 0.053501107 0.01512892
000090 a7 fa 11 3d 5f 6a 55 3c 1b 4e 37 bd 80 74 cf bb
       0.03563943 0.013025849 -0.04475222 -0.0063310266
0000a0 02 e0 7b 3b e2 8d 62 bc 14 e7 09 bb 08 a1 da bc
       0.003843308 -0.013827773 -0.0021042274 -0.026688114
0000b0 57 fd 81 3c 36 91 87 bc 25 17 8c ba 4f 7b 4b bc
       0.015867872 -0.016548734 -0.001068805 -0.012419536
0000c0 46 61 b4 bc d8 01 49 bc 4b b4 ba bb 44 df 80 3c
       -0.02201904 -0.012268506 -0.005697762 0.015731461
0000d0 53 d2 2d 3c 00 9b 1b 3c 9b 2f 28 bc 13 59 e8 b9
       0.010609227 0.009497404 -0.010265256 -0.00044316854
0000e0 74 e5 09 3c 94 90 04 39 eb c4 2c bc bd 16 0f 3a
       0.008416522 0.0001264236 -0.010544996 0.00054584054
0000f0 27 c8 b3 3b 30 e7 4d 3d aa ff e7 bc c8 38 52 bc
       0.0054865065 0.050269306 -0.028320152 -0.0128309205
000100 02 e5 4d 3c 5d bc 9e bc 64 21 2d 3b 6b 7e 47 bc
       0.012566807 -0.019376928 0.0026417607 -0.0121761365
000110 7a e8 5b bc 88 fb fe bb 50 85 6d 3c d9 a2 23 bc
       -0.013422126 -0.0077814497 0.014497116 -0.009987556
000120 03 87 5c 3c fb dd 91 3c b9 05 b0 3b bd a2 71 3c
       0.013459924 0.017806044 0.005371776 0.0147482725
000130 ad 38 54 bc e2 58 55 3d 2f d5 71 bc 9d dc cc 3b
       -0.012952966 0.05208672 -0.0147603 0.006251885
000140 72 b7 96 3a 40 29 d5 bb c0 a4 79 bc 3a 8a 16 bc
       0.0011498763 -0.0065051615 -0.015237033 -0.009188229
000150 73 18 3c bb fb 48 5d 3c 17 b7 60 bc a9 5c 14 3d
       -0.0028701096 0.013506169 -0.013715527 0.03622118
000160 aa df 0d bb 77 e7 9f 3c 9d 83 97 3c 83 b5 19 3d
       -0.0021648207 0.01951955 0.018495375 0.03752662
000170 87 75 83 3c 5f b1 a8 3b 4e b7 2f bb d3 38 89 3c
       0.016047252 0.0051480974 -0.002681214 0.016750729
000180 b3 c2 9e 3c 57 03 be 3c f5 82 84 3c a2 84 18 bc
       0.01937995 0.023194952 0.016175726 -0.009308966
000190 af 50 d7 bb 7b 62 ed 3c 0b 27 a6 3b dc 67 b7 3c
       -0.0065708975 0.028977623 0.0050705723 0.022388391
0001a0 29 7a 03 bc 07 27 39 3c a5 74 16 39 57 ba bc 3c
       -0.008024731 0.011300809 0.00014348568 0.023038073
0001b0 c1 e5 19 bb 4f c0 4a bd 97 18 e6 3c 86 1a 97 bc
       -0.0023482891 -0.049499806 0.028087897 -0.018445265
0001c0 64 04 c6 bc d7 93 df 3c 50 b6 08 3d e0 ef f3 3c
       -0.024172015 0.027292175 0.03337699 0.029777467
0001d0 28 2b 8d bc bf 2a 16 3d 3b 71 a1 bb 43 51 72 3c
       -0.017232493 0.03666186 -0.004926828 0.014789882
0001e0 8f 44 ae bc 89 a9 06 bc 97 2a 59 3c 68 8b df b9
       -0.021272926 -0.008219131 0.013254783 -0.0004263774
0001f0 6b c7 4a bc be 83 0f bd 41 41 ba bc 17 f1 b6 3c
       -0.0123766465 -0.03503775 -0.022736194 0.022331757
000200 38 30 d3 bc 9c b7 2e bc d9 60 0d bd 3d 5b da bb
       -0.025779828 -0.010663893 -0.03451619 -0.0066637085
000210 65 63 8e bc 7f 8f 6b bc bc 43 a2 bc 95 b2 81 3c
       -0.01738138 -0.014377474 -0.019807689 0.015832225
000220 10 60 23 bc 0c da 41 3b 7f 0d 20 bb 6d d0 f6 bb
       -0.009971634 0.002957943 -0.0024422107 -0.0075321705
000230 fa 84 df 3c b9 fb 05 3b 4d fa 5d 3c 9e 37 c1 bc
       0.027285088 0.0020444228 0.013548446 -0.02358609
000240 1d aa c9 3c 7b 4e 9b bb 32 3f f2 bb 9a 95 b6 3b
       0.02461725 -0.00473958 -0.0073927874 0.005572033
000250 b8 62 e0 3c 0d 4e 4d 3c 0c ca 29 bc 53 3c 0b bc
       0.027390823 0.012530816 -0.010363113 -0.008498269
000260 a7 1c eb 3c 72 9d 88 bb 30 9f 63 3c 76 d4 43 bc
       0.028700186 -0.0041691596 0.013892934 -0.01195251
000270 5e 44 a1 3c 27 6c 33 3c 74 d1 02 3d 6a 72 86 bb
       0.01968592 0.0109510785 0.03193803 -0.0041029947
000280 92 93 e3 3c 83 50 ea bb 12 24 37 bd 32 ed cc bc
       0.027780328 -0.007150711 -0.044712134 -0.025015447
000290 d8 c5 2f bb b2 97 96 bc d3 c1 00 bc bd 86 a2 3c
       -0.0026820805 -0.01838288 -0.007858711 0.019839639
0002a0 96 19 98 ba a6 c9 04 3c 2b c1 e0 3c b3 06 72 3c
       -0.0011604305 0.008104717 0.02743586 0.014772105
0002b0 47 39 4b 3a fd 71 5c ba 78 da ac bc 92 cf 60 3d
       0.00077523704 -0.00084093196 -0.021100268 0.054885454
0002c0 70 9c 9b bc 2f 38 10 bd ab aa a9 39 66 db c9 3b
       -0.018995494 -0.03520983 0.0003236135 0.0061601875
0002d0 01 4b 02 bc 5b 1f 23 3c c0 29 35 3c bd 72 e6 bc
       -0.007952453 0.009956206 0.011057317 -0.028130883
0002e0 98 56 ec 3c 53 7a 33 3d 8a 64 65 bc af 13 63 bc
       0.028849885 0.04381783 -0.014001021 -0.013859673
0002f0 29 5e 9b bc 8a 8f 67 3c 0b 14 bd bc a3 cc b2 3c
       -0.018965797 0.0141333435 -0.023080846 0.021826094
000300 61 f9 c6 bc 73 65 6a 3b dd 32 e3 bc d9 a0 b8 bb
       -0.024288835 0.0035766035 -0.027734214 -0.005634409
000310 e0 2d 5f 3c fd 8d db bc ca ed 87 bc 3d e4 2a bc
       0.013621777 -0.026801104 -0.016592879 -0.010430393
000320 a3 5a 9a 3c c9 1c ca 3b 25 79 f4 bb f0 ff 2b bc
       0.018842047 0.0061679822 -0.0074607306 -0.010498032
000330 d7 1b 53 bc 57 46 d7 3c c3 2c be 3b ed 76 37 3c
       -0.0128850555 0.026278658 0.005803676 0.011197788
000340 18 9f 45 3b a2 1d 83 bb 36 e9 84 3c 74 ad 13 3c
       0.0030154642 -0.0040013352 0.016224485 0.009013522
000350 e2 da 03 3c 18 5a 52 bc 30 aa 9b 3c 2b e1 3e 3b
       0.008047791 -0.012838863 0.01900205 0.002912591
000360 aa a0 79 3b 5a 36 87 bc f9 27 46 3b 6f 7b ed 39
       0.0038090148 -0.016505409 0.0030236228 0.00045296128
000370 4a e4 2c 3c 6b e3 13 b9 47 c5 06 b9 b8 ca 3f 3c
       0.010552475 -0.00014103732 -0.00012852727 0.011706047
000380 b9 a4 c7 3b 50 b3 bf 3a 81 2c bb bc 65 fd 64 ba
       0.0060926345 0.0014625583 -0.02284837 -0.00087352685
000390 b0 92 85 bb e3 d7 4c bc a3 6e 7c 3c 94 d6 97 3c
       -0.0040763244 -0.012502643 0.015407237 0.018534936
0003a0 9e bb 83 bc e0 e1 e9 3c 78 23 06 3c 7b 23 c5 3c
       -0.016080674 0.028550088 0.008187167 0.02406477
0003b0 5d de 04 bc db 3f bb 3a 5a a3 ef 3b bb 1d 27 bc
       -0.008109656 0.0014285998 0.007313174 -0.010199959
0003c0 14 79 aa bc 66 8e ac 3c db 52 f5 bb 37 8b b9 3b
       -0.020809688 0.021063995 -0.007486684 0.0056623477
0003d0 6f 3b b6 bb e4 e9 82 3c 1d cd 79 3c 85 f0 f9 bb
       -0.0055612843 0.015980668 0.015246657 -0.007627549
0003e0 81 cc c6 ba b2 9d f2 bb fe da b0 3b c8 7c 58 3c
       -0.0015167148 -0.0074040527 0.0053971997 0.013213344
0003f0 97 f9 71 3a 12 95 f4 3a 95 09 20 ba ed 23 72 3c
       0.0009230612 0.0018660149 -0.00061049435 0.014779073

network_body._body_endoder.seq_layers.0.bias f4 [128]
000000 00 00 00 00 00 00 00 00 00 00 00 00 00 00 00 00
       0.0 0.0 0.0 0.0
000010 00 00 00 00 00 00 00 00 00 00 00 00 00 00 00 00
       0.0 0.0 0.0 0.0
000020 00 00 00 00 00 00 00 00 00 00 00 00 00 00 00 00
       0.0 0.0 0.0 0.0
000030 00 00 00 00 00 00 00 00 00 00 00 00 00 00 00 00
       0.0 0.0 0.0 0.0
000040 00 00 00 00 00 00 00 00 00 00 00 00 00 00 00 00
       0.0 0.0 0.0 0.0
000050 00 00 00 00 00 00 00 00 00 00 00 00 00 00 00 00
       0.0 0.0 0.0 0.0
000060 00 00 00 00 00 00 00 00 00 00 00 00 00 00 00 00
       0.0 0.0 0.0 0.0
000070 00 00 00 00 00 00 00 00 00 00 00 00 00 00 00 00
       0.0 0.0 0.0 0.0
000080 00 00 00 00 00 00 00 00 00 00 00 00 00 00 00 00
       0.0 0.0 0.0 0.0
000090 00 00 00 00 00 00 00 00 00 00 00 00 00 00 00 00
       0.0 0.0 0.0 0.0
0000a0 00 00 00 00 00 00 00 00 00 00 00 00 00 00 00 00
       0.0 0.0 0.0 0.0
0000b0 00 00 00 00 00 00 00 00 00 00 00 00 00 00 00 00
       0.0 0.0 0.0 0.0
0000c0 00 00 00 00 00 00 00 00 00 00 00 00 00 00 00 00
       0.0 0.0 0.0 0.0
0000d0 00 00 00 00 00 00 00 00 00 00 00 00 00 00 00 00
       0.0 0.0 0.0 0.0
0000e0 00 00 00 00 00 00 00 00 00 00 00 00 00 00 00 00
       0.0 0.0 0.0 0.0
0000f0 00 00 00 00 00 00 00 00 00 00 00 00 00 00 00 00
       0.0 0.0 0.0 0.0
000100 00 00 00 00 00 00 00 00 00 00 00 00 00 00 00 00
       0.0 0.0 0.0 0.0
000110 00 00 00 00 00 00 00 00 00 00 00 00 00 00 00 00
       0.0 0.0 0.0 0.0
000120 00 00 00 00 00 00 00 00 00 00 00 00 00 00 00 00
       0.0 0.0 0.0 0.0
000130 00 00 00 00 00 00 00 00 00 00 00 00 00 00 00 00
       0.0 0.0 0.0 0.0
000140 00 00 00 00 00 00 00 00 00 00 00 00 00 00 00 00
       0.0 0.0 0.0 0.0
000150 00 00 00 00 00 00 00 00 00 00 00 00 00 00 00 00
       0.0 0.0 0.0 0.0
000160 00 00 00 00 00 00 00 00 00 00 00 00 00 00 00 00
       0.0 0.0 0.0 0.0
000170 00 00 00 00 00 00 00 00 00 00 00 00 00 00 00 00
       0.0 0.0 0.0 0.0
000180 00 00 00 00 00 00 00 00 00 00 00 00 00 00 00 00
       0.0 0.0 0.0 0.0
000190 00 00 00 00 00 00 00 00 00 00 00 00 00 00 00 00
       0.0 0.0 0.0 0.0
0001a0 00 00 00 00 00 00 00 00 00 00 00 00 00 00 00 00
       0.0 0.0 0.0 0.0
0001b0 00 00 00 00 00 00 00 00 00 00 00 00 00 00 00 00
       0.0 0.0 0.0 0.0
0001c0 00 00 00 00 00 00 00 00 00 00 00 00 00 00 00 00
       0.0 0.0 0.0 0.0
0001d0 00 00 00 00 00 00 00 00 00 00 00 00 00 00 00 00
       0.0 0.0 0.0 0.0
0001e0 00 00 00 00 00 00 00 00 00 00 00 00 00 00 00 00
       0.0 0.0 0.0 0.0
0001f0 00 00 00 00 00 00 00 00 00 00 00 00 00 00 00 00
       0.0 0.0 0.0 0.0

network_body._body_endoder.seq_layers.0.weight f4 [128, 47]
000000 93 00 54 3e cf 54 96 be 85 18 8a bd 09 24 63 be
       0.20703344 -0.2936158 -0.06742958 -0.22181715
000010 d0 40 41 3e 0a 78 50 bc f5 db 4c 3e 98 6f e0 3c
       0.1887238 -0.012723932 0.20005782 0.027396962
000020 df c9 3f bd b4 97 39 3d dd ed d2 bd a8 5f 49 be
       -0.04682338 0.04531069 -0.10299275 -0.19665396
000030 97 23 03 3e 24 d0 95 bd b9 c7 4b be c9 54 b4 bd
       0.12806545 -0.0731509 -0.19900407 -0.08805234
000040 5a 5f 5e be 7f 5d c1 3d b6 a6 b9 3d 35 ed be bd
       -0.21716061 0.09441661 0.09065001 -0.093225874
000050 d6 44 86 bd fe 50 37 3e bc 7d 20 3e fe f3 a0 bd
       -0.06556098 0.1790199 0.15672964 -0.07859038
000060 16 4e 44 3d 43 4a cc bc 62 5b 69 3e 62 82 89 3e
       0.04792603 -0.024937754 0.22788766 0.26857287
000070 d2 83 c0 bd 9e 02 47 bd 1d d0 25 3e 1a 81 30 bc
       -0.09400143 -0.04858648 0.1619267 -0.010772968
000080 53 6e 97 3d 20 a0 62 3d be 68 85 be 80 f1 14 3e
       0.073940895 0.05532849 -0.26056474 0.1454525
000090 7a f6 f6 3d f7 8b 0d 3e 52 de 3c 3e 8d af 20 3e
       0.120587304 0.13822924 0.18444183 0.15691967
0000a0 64 6c 05 3d f4 bf d1 bd ac d6 8f be 69 18 47 3e
       0.032574072 -0.1024169 -0.2809347 0.19442905
0000b0 42 4f d9 3b 7d b9 0d 3e 82 bc 66 bc 9e 94 65 bd
       0.0066317627 0.1384029 -0.01408303 -0.056049936
0000c0 94 94 ac 3e a1 41 27 3d a2 cf 2d be c3 65 78 bd
       0.33707106 0.040834073 -0.16973737 -0.060643923
0000d0 9d 9c bd bc 6c 5b 04 be 39 9b 03 3e 3d 0b 9b 3c
       -0.023145968 -0.129255 0.12852181 0.018926257
0000e0 66 14 41 3e 04 e1 5a 3e 14 50 7f be 03 0a e1 bd
       0.18855438 0.21374899 -0.24932891 -0.10988238
0000f0 cb d8 21 3e bc 48 bf bd 1c ac 73 3d 4f d3 e7 3d
       0.15805356 -0.09340045 0.05949031 0.11319601
000100 1a b0 2a bd cd 85 32 bd 7c 82 1b 3d c2 bc 16 bd
       -0.04167185 -0.043584634 0.037966236 -0.036801107
000110 ca 5c d6 3a 33 37 1a 3e 63 f5 73 3e a7 3a 1b 3c
       0.0016354558 0.1506012 0.23824076 0.009474433
000120 b2 1c a8 b8 93 7b 75 be f8 12 1e bd 0a 6a 06 3e
       -8.016209e-05 -0.23972921 -0.03859231 0.13126388
000130 03 70 84 3c e3 04 0a bd 0b 32 77 bd d3 ed 16 3e
       0.016166693 -0.033696067 -0.06035046 0.1473916
000140 c0 25 d4 bd 26 6d f2 3d eb 94 ea 3d a1 79 0c 3e
       -0.10358763 0.11837225 0.11454185 0.13718273
000150 b2 04 26 be e3 0a 32 3e 8b 05 76 bd f1 12 a8 bd
       -0.16212729 0.17386965 -0.06006388 -0.08206738
000160 97 e2 94 bc 60 1c b8 bd f8 51 26 be 9b 77 a0 be
       -0.018174453 -0.08989787 -0.16242206 -0.31341252
000170 27 18 ea 3d 93 32 1d bd 41 bd b3 3d 51 36 f1 3d
       0.11430388 -0.03837831 0.08776332 0.11777938
000180 42 50 0d 3e c8 07 3e be ab 12 07 bd ac b4 9c 3e
       0.13800147 -0.18557656 -0.032976788 0.30606592
000190 85 40 81 bd 0f 24 44 bd 86 28 ab be 5b dc dc 3d
       -0.06311134 -0.04788595 -0.33429354 0.10784217
0001a0 f5 68 97 3e 54 51 83 bc fb 9b 70 3d 5e ec 91 3e
       0.29572263 -0.016029991 0.058742505 0.28500646
0001b0 8b 83 6e be 1e 25 0b 3e 3c 6e 00 bc af a3 39 3e
       -0.23292367 0.13588378 -0.007838782 0.18128847
0001c0 d1 01 3d be 43 82 f8 3c cf ce 90 bd 29 9e 3b 3d
       -0.18457724 0.030335551 -0.070706956 0.04580513
0001d0 71 e0 81 be 07 86 1d 3e 6d b3 29 3c e6 5b 00 3e
       -0.25366548 0.15383159 0.01035772 0.12535056
0001e0 86 47 4d 3d 0f 55 03 3e 47 55 ac 3d fa cf ba bd
       0.05011704 0.12825416 0.08414703 -0.091217
0001f0 04 04 f7 bc e9 e0 bd bc 63 7c 46 bd 23 40 02 bc
       -0.030153282 -0.023178535 -0.04845847 -0.007949862
000200 bb 20 9d bd d6 8f 55 be 20 18 67 be ba 6f 6b 3e
       -0.076722585 -0.2085565 -0.22567797 0.22991839
000210 78 59 b5 bd 17 8f 0c be a5 14 33 3e d3 aa 69 be
       -0.088549554 -0.1372646 0.17488344 -0.2281907
000220 6d c8 c2 bd 1c f7 50 3e dd ff bc bd b2 84 4f 3e
       -0.095108844 0.20406765 -0.092284895 0.20265463
000230 73 e3 05 3e f4 74 37 3e 9f 47 89 bd e6 6a 58 bd
       0.13075046 0.17915708 -0.06703114 -0.05283632
000240 88 64 a1 3d 09 d9 59 be 90 a8 b9 3d e2 1d bd 3d
       0.07880503 -0.21274199 0.09065354 0.09234215
000250 f3 b4 f8 3d fb f7 15 3d a1 b7 b8 be ca e7 36 be
       0.12143888 0.036613446 -0.36077598 -0.17861858
000260 eb a8 66 3d 5e 2c d2 3d c5 d2 1b 3e bf a2 d9 bd
       0.056313436 0.102623686 0.15217121 -0.106267445
000270 28 af 9b bc 47 7a 25 3e d4 81 d7 3d 71 fe 89 be
       -0.01900442 0.16159926 0.105228096 -0.26951936
000280 f0 66 ee bd 7e 8d d8 bd ae 1b 80 be 48 31 ff 3d
       -0.116407275 -0.105738625 -0.25021118 0.124605715
000290 79 00 cd bd a3 f5 96 bc 3f 55 b2 bc 15 ff 0f be
       -0.10009856 -0.018427676 -0.021769164 -0.1406215
0002a0 7a 80 2c 3e 17 f7 fe bd e9 46 9e bb c9 60 ae 3c
       0.16845885 -0.124494724 -0.0048302305 0.021286385
0002b0 b4 ee b8 3d ae ef 14 be f6 8a 42 be 08 7c 2e 3d
       0.09029904 -0.14544556 -0.18998322 0.042598754
0002c0 94 c0 ae 3d 47 20 47 3e ff d6 5f 3e b2 86 69 3e
       0.08532825 0.19445907 0.21859358 0.22805288
0002d0 4f 01 fd bd 37 e4 f0 3c 63 be a0 be 5b a9 16 3d
       -0.12353765 0.029405696 -0.31395254 0.036782604
0002e0 e3 fb 0b be e4 24 ab bd 87 e7 0a bb ee af 7a be
       -0.13670306 -0.08356646 -0.002119513 -0.24481174
0002f0 e4 de 40 bd 86 62 8a bd e2 d7 ec bc 2b 94 ce bd
       -0.047087565 -0.06757073 -0.028911535 -0.100868545
000300 20 73 1f 3e 5e 23 86 3d 09 0d 1e be 44 1c b3 3c
       0.1557126 0.065497145 -0.1543466 0.021864064
000310 e4 e1 bb 3d 39 cb 8b 3c 4c c2 18 3e 05 cb e4 3d
       0.091739446 0.017064678 0.14917868 0.111715354
000320 85 88 48 be d7 cc ab 3d d4 48 d3 bd b1 9a 11 be
       -0.19583328 0.083886795 -0.10316625 -0.14219166
000330 5e e7 1b 3e 21 e3 7e bd 75 91 01 3e 5d 3b 2b 3d
       0.15224978 -0.062228326 0.12653144 0.04180466
000340 60 e5 be 3d eb 01 ff 3c fa 86 c6 3d 1f 64 42 be
       0.093210936 0.031128844 0.096937135 -0.18983506
000350 97 e8 62 3e 2d e4 af 3e cc 1c 58 be d9 b6 22 ba
       0.22159038 0.34353772 -0.21104735 -0.0006207056
000360 0b 42 ae 3d 79 12 85 3c 3e 00 a5 3d c1 9b 7a bd
       0.085086904 0.01624416 0.08056687 -0.061183695
000370 23 c4 21 3e 6a b6 0c 3e 84 49 e4 bc 54 b3 15 3e
       0.15797476 0.1374146 -0.027867086 0.1461919
000380 39 13 03 bc 4d 4b 09 3d cc c7 93 bd 6d 28 66 be
       -0.0080001885 0.033519078 -0.072158426 -0.22476359
000390 0f bc 9a 3d ca db 28 be d9 3b 9d 3d ed f7 b5 3d
       0.075554006 -0.16490093 0.07677431 0.08885179
0003a0 3e 4e 20 3e ac 25 de bd 02 54 8f 3e f4 bd da 3c
       0.15654847 -0.10847029 0.2799378 0.026701905
0003b0 4d ca 88 be f7 6f 1b 3e 85 4b 3d be 34 e0 b6 bd
       -0.26716843 0.1517943 -0.1848584 -0.08929482
0003c0 68 63 a3 bc a7 fc 6c 3e 2b de c5 bd c1 a7 58 3e
       -0.019944862 0.23143254 -0.09661516 0.21157743
0003d0 5d 60 4b be 71 ef 9c be 31 0b d7 3d 13 45 6f 3e
       -0.19860978 -0.3065143 0.105001815 0.23366193
0003e0 08 21 6b bd 32 ef c4 3d 16 24 e6 3c ab d4 87 3d
       -0.057404548 0.096159354 0.028093379 0.0663236
0003f0 48 97 37 bd c8 63 ab 3d 53 5a b4 3b 5c f4 92 ba
       -0.044822007 0.08368641 0.0055039315 -0.0011211741

network_body._body_endoder.seq_layers.2.bias f4 [128]
000000 00 00 00 00 00 00 00 00 00 00 00 00 00 00 00 00
       0.0 0.0 0.0 0.0
000010 00 00 00 00 00 00 00 00 00 00 00 00 00 00 00 00
       0.0 0.0 0.0 0.0
000020 00 00 00 00 00 00 00 00 00 00 00 00 00 00 00 00
       0.0 0.0 0.0 0.0
000030 00 00 00 00 00 00 00 00 00 00 00 00 00 00 00 00
       0.0 0.0 0.0 0.0
000040 00 00 00 00 00 00 00 00 00 00 00 00 00 00 00 00
       0.0 0.0 0.0 0.0
000050 00 00 00 00 00 00 00 00 00 00 00 00 00 00 00 00
       0.0 0.0 0.0 0.0
000060 00 00 00 00 00 00 00 00 00 00 00 00 00 00 00 00
       0.0 0.0 0.0 0.0
000070 00 00 00 00 00 00 00 00 00 00 00 00 00 00 00 00
       0.0 0.0 0.0 0.0
000080 00 00 00 00 00 00 00 00 00 00 00 00 00 00 00 00
       0.0 0.0 0.0 0.0
000090 00 00 00 00 00 00 00 00 00 00 00 00 00 00 00 00
       0.0 0.0 0.0 0.0
0000a0 00 00 00 00 00 00 00 00 00 00 00 00 00 00 00 00
       0.0 0.0 0.0 0.0
0000b0 00 00 00 00 00 00 00 00 00 00 00 00 00 00 00 00
       0.0 0.0 0.0 0.0
0000c0 00 00 00 00 00 00 00 00 00 00 00 00 00 00 00 00
       0.0 0.0 0.0 0.0
0000d0 00 00 00 00 00 00 00 00 00 00 00 00 00 00 00 00
       0.0 0.0 0.0 0.0
0000e0 00 00 00 00 00 00 00 00 00 00 00 00 00 00 00 00
       0.0 0.0 0.0 0.0
0000f0 00 00 00 00 00 00 00 00 00 00 00 00 00 00 00 00
       0.0 0.0 0.0 0.0
000100 00 00 00 00 00 00 00 00 00 00 00 00 00 00 00 00
       0.0 0.0 0.0 0.0
000110 00 00 00 00 00 00 00 00 00 00 00 00 00 00 00 00
       0.0 0.0 0.0 0.0
000120 00 00 00 00 00 00 00 00 00 00 00 00 00 00 00 00
       0.0 0.0 0.0 0.0
000130 00 00 00 00 00 00 00 00 00 00 00 00 00 00 00 00
       0.0 0.0 0.0 0.0
000140 00 00 00 00 00 00 00 00 00 00 00 00 00 00 00 00
       0.0 0.0 0.0 0.0
000150 00 00 00 00 00 00 00 00 00 00 00 00 00 00 00 00
       0.0 0.0 0.0 0.0
000160 00 00 00 00 00 00 00 00 00 00 00 00 00 00 00 00
       0.0 0.0 0.0 0.0
000170 00 00 00 00 00 00 00 00 00 00 00 00 00 00 00 00
       0.0 0.0 0.0 0.0
000180 00 00 00 00 00 00 00 00 00 00 00 00 00 00 00 00
       0.0 0.0 0.0 0.0
000190 00 00 00 00 00 00 00 00 00 00 00 00 00 00 00 00
       0.0 0.0 0.0 0.0
0001a0 00 00 00 00 00 00 00 00 00 00 00 00 00 00 00 00
       0.0 0.0 0.0 0.0
0001b0 00 00 00 00 00 00 00 00 00 00 00 00 00 00 00 00
       0.0 0.0 0.0 0.0
0001c0 00 00 00 00 00 00 00 00 00 00 00 00 00 00 00 00
       0.0 0.0 0.0 0.0
0001d0 00 00 00 00 00 00 00 00 00 00 00 00 00 00 00 00
       0.0 0.0 0.0 0.0
0001e0 00 00 00 00 00 00 00 00 00 00 00 00 00 00 00 00
       0.0 0.0 0.0 0.0
0001f0 00 00 00 00 00 00 00 00 00 00 00 00 00 00 00 00
       0.0 0.0 0.0 0.0

network_body._body_endoder.seq_layers.2.weight f4 [128, 128]
000000 98 3e 34 bd 38 42 8c bd 13 03 8d 3d 62 15 53 3d
       -0.044005007 -0.06848568 0.06885352 0.051534064
000010 60 df ba 3d 4d 77 0e bd 42 77 ac 3c df 32 9d 3d
       0.09124637 -0.034781743 0.02105296 0.076757185
000020 59 6a e6 3d b8 08 98 bd 2e 8b 19 3e 46 77 a7 bc
       0.11250753 -0.07423538 0.14994499 -0.020442616
000030 07 66 f2 ba 66 1d 95 3c ee 89 49 3d b7 50 92 bd
       -0.0018493541 0.018202495 0.049203806 -0.071443014
000040 3f fc db 3d 55 cd 49 3d b5 70 19 bc 32 4d 86 ba
       0.107414715 0.049268086 -0.00936525 -0.0010246395
000050 b9 18 43 3d 8c bc 0a be 68 74 4b 3d 53 36 a4 bd
       0.047631 -0.13548487 0.04967156 -0.08018174
000060 02 21 00 3e 0b 3c f7 3d 1d 8b cc 3c 85 26 39 3d
       0.12512591 0.12071999 0.024968678 0.04520275
000070 9b af f6 bd f6 7e d8 ba c5 cd 74 3d a3 84 82 bd
       -0.12045213 -0.001651733 0.05976655 -0.06372955
000080 36 b2 2b bb 9b dc 62 3d ce e1 3e 3d 4a 8c 73 bd
       -0.0026198751 0.055386167 0.046602063 -0.059459962
000090 96 cf aa bd e7 3b 5b be 9d ed 7b bd 44 2b 8f bd
       -0.08340375 -0.2140957 -0.061505903 -0.06990674
0000a0 5a 3a e8 bd d0 49 14 3e 9e 63 89 3d 42 3c 11 be
       -0.11339255 0.14481282 0.067084536 -0.14183143
0000b0 ad 64 27 3d 30 56 bf bc f8 cc 03 be a5 53 20 3d
       0.040867496 -0.023356527 -0.12871158 0.03914227
0000c0 7f 97 c9 3c 1b af 9b 3c 6b 0a 33 3d b3 be 74 bd
       0.024608372 0.019004395 0.043711107 -0.059752177
0000d0 3d cf a7 3c 2b b1 da 3d b1 da 7a bb 02 49 cc bc
       0.020484561 0.10678323 -0.0038277323 -0.024937157
0000e0 0d 6d a5 bd c3 84 bb 3d f9 ad f8 bc 61 bb 04 be
       -0.080774404 0.09156182 -0.030356394 -0.12962104
0000f0 84 3e 78 bd e7 02 8f bd 62 42 ec bd 6c 4a 86 bc
       -0.060606495 -0.069829755 -0.11536099 -0.016392909
000100 c4 46 bc bc 42 eb a1 3d b7 3b e9 bc ad 88 a4 3d
       -0.022982962 0.079062 -0.028470857 0.08033881
000110 35 3f 68 bd e3 38 48 be 76 cd 78 3d 1c 03 10 be
       -0.056700904 -0.1955295 0.060742818 -0.14063686
000120 58 2a 0a 3d 6a 7d 13 bc 65 c1 a1 3b b9 ca 40 bd
       0.03373179 -0.009002069 0.0049363845 -0.04706833
000130 4d 42 8d bc 21 1a e0 3c 21 47 44 bc 38 b6 63 bd
       -0.017243529 0.02735621 -0.011979849 -0.0555937
000140 27 8a eb 3d 27 83 17 bd 83 3d c7 bd a4 ac 85 bd
       0.1150096 -0.03699031 -0.09728529 -0.06527069
000150 5e b0 77 3b 86 89 07 bd 2e 46 5a 3b 39 bf 3b bd
       0.0037794332 -0.033090137 0.003330599 -0.04583666
000160 d6 51 cf 3d 79 78 01 be e3 ef 4b 3e 5c 51 44 bd
       0.10123031 -0.12643613 0.19915728 -0.047929153
000170 dd 5d 7b be 4c 7e 89 bd 8c 00 a5 3e bd ae 23 3e
       -0.24547525 -0.06713542 0.3222698 0.15984626
000180 30 9b b9 bd 0a a0 aa bd a9 4b 61 bd 22 2e cc bd
       -0.09062803 -0.08331306 -0.055003796 -0.09969737
000190 ab 5c 87 3d 2e e7 10 3d c2 66 02 3e 21 cd ac bd
       0.06609472 0.03537672 0.12734511 -0.08437563
0001a0 e8 07 8e bc c4 bf 85 3d 1d c8 64 bd 9d 5b 4b ba
       -0.017337754 0.06530717 -0.055854905 -0.0007757487
0001b0 02 1e 49 bd ed d1 56 be a8 00 a4 bd 8f bc 23 3e
       -0.049100883 -0.20978518 -0.08007938 0.15989898
0001c0 41 78 90 3d d3 0a d4 3a 7b 6a 33 3d 2e fa 1b bd
       0.070541866 0.0016177542 0.04380272 -0.038080387
0001d0 59 9d 98 3d f5 27 28 bd b6 4f 98 3c af 26 ac bc
       0.07451887 -0.04105373 0.018592697 -0.02101454
0001e0 0d 40 9c bb 07 79 2b 3d a3 0e 9f bd da 83 8f 3d
       -0.0047683776 0.041863468 -0.077664636 0.070075706
0001f0 ef ad 05 be bb 0c 17 3e cb f6 64 3d 86 b3 23 bc
       -0.13054632 0.1475095 0.055899423 -0.009991532
000200 82 c9 18 3e 12 74 11 be 0e 12 90 bd 8a 4d 8f 3c
       0.14920619 -0.14204434 -0.07034694 0.017493028
000210 9c d4 bf 3d 6e 47 5d be 1b 84 91 bc dd aa 9a bd
       0.09366724 -0.2160928 -0.017763188 -0.07552121
000220 7d 59 d2 3c 00 00 4d 3e 25 a3 6d 3d ff bc 35 3a
       0.025677437 0.20019531 0.058016915 0.00069327647
000230 ff 2f 0d be 6f bc a1 bd 3b b1 02 3e 5e d4 d5 bd
       -0.1378784 -0.07897269 0.1276292 -0.104408965
000240 2f a6 c2 3c e1 7a 88 3d 7b d6 01 be 2a e1 4e 3d
       0.023760883 0.06664062 -0.12679474 0.050507702
000250 3d ce 51 3d 64 c2 9e 3d 4a d7 e6 3c 18 36 14 bd
       0.051222075 0.07751921 0.02817883 -0.0361844
000260 47 ec f4 bc ea 1b 02 3e 63 0f ba bd 13 59 e7 3c
       -0.029897822 0.12705961 -0.09084966 0.028240716
000270 b8 45 fd bd 10 a4 fb 3d 7d b1 4b bd 2c 06 f3 bd
       -0.123668134 0.12287152 -0.049729813 -0.118664116
000280 3a 7f ea 3d 38 1a 02 3e 73 c1 0b bb fd 71 8f bd
       0.11450048 0.12705314 -0.0021325022 -0.070041634
000290 c2 d9 9c bd 66 5f 86 3d dd 3c 62 bc 93 e0 a2 3c
       -0.076587215 0.065611646 -0.013808456 0.019882476
0002a0 c9 48 65 3c b6 f3 12 be b2 90 29 bc 94 e3 49 3d
       0.013994404 -0.14350781 -0.010349439 0.0492893
0002b0 13 5d 8c 3d ab 47 85 3d 6d d3 26 be 69 f7 08 3d
       0.0685369 0.0650781 -0.1629159 0.033439074
0002c0 db 56 1d 3c 3a d4 b3 bb 85 38 54 3d 60 a7 26 be
       0.0096032275 -0.005487946 0.051811714 -0.16274786
0002d0 a7 07 40 bd bd d6 4e 3d 6d b2 fa 3d e1 c4 18 3e
       -0.046882298 0.05049776 0.12241063 0.14918853
0002e0 be 11 41 bd 05 25 01 bd 9a 68 3a be 55 85 d9 bc
       -0.04713606 -0.031529445 -0.18203965 -0.026552835
0002f0 d4 eb d7 3a 71 06 9f 3c 35 1c 81 bc dc b3 1b 3d
       0.001647348 0.019412251 -0.01576052 0.038013324
000300 8c 88 c4 bd fa 28 a0 3c 87 dd 01 bc 81 8d ec bd
       -0.09596357 0.01955079 -0.007926351 -0.11550427
000310 98 0a 92 bd 1a e4 cb bd 90 6e 4b be 1a 75 2a bd
       -0.07130927 -0.09955616 -0.19866395 -0.041615583
000320 3f cb c2 3d cc d5 44 bd 5c da 62 3d 23 f0 88 bd
       0.09511422 -0.048055455 0.055384025 -0.066864274
000330 09 c0 a9 3d 5d e7 0c 3e 40 f2 02 3d fc 67 ad 3d
       0.08288581 0.13760133 0.03196931 0.08467099
000340 30 00 ed 3d 64 1a 7a bd 2b 11 9d bd 27 1e 05 be
       0.115723014 -0.061060324 -0.0766929 -0.12999783
000350 cb e2 00 bd 8e 3c 89 3d 53 96 c8 bd 5d a4 c4 bc
       -0.031466287 0.06701003 -0.09794297 -0.024004156
000360 44 a3 a4 3d df 62 a8 3d 04 13 23 3d 22 81 57 3b
       0.08038953 0.08221983 0.039813057 0.0032883366
000370 8e d8 53 3e f7 e8 ab 3d 28 00 84 be 6e 4d 97 bc
       0.20688078 0.08394044 -0.2578137 -0.018469539
000380 fd 9e 3d be d7 60 88 bd 01 33 24 bd 18 ae 55 be
       -0.1851768 -0.06659096 -0.040087704 -0.20867193
000390 83 79 4d bd 53 c6 1e 3c 7c 50 ae bd 13 4d f5 3c
       -0.05016471 0.009690839 -0.08511445 0.029943978
0003a0 57 8b aa bd 9e 69 a2 3d c0 0a 14 be 05 7c 3b be
       -0.08327358 0.07930301 -0.14457226 -0.18309028
0003b0 eb f4 1f bc 4a 69 0d be 19 e0 94 3d 5e 47 26 be
       -0.009762983 -0.13809696 0.07269306 -0.16238162
0003c0 f1 77 dd bd 2d 44 4c 3d 88 b8 9a 3d 24 a6 84 3d
       -0.10813893 0.049869705 0.07554728 0.06477001
0003d0 6b 81 4f be 1e 43 bb 3d db 7c 3f bd 21 ce 08 3d
       -0.20264213 0.09143661 -0.04674993 0.033399705
0003e0 e8 27 6f be 9d 3e 38 be 03 01 65 b8 f8 31 f7 bd
       -0.23355067 -0.17992635 -5.4598797e-05 -0.12070078
0003f0 b7 27 a1 3d 95 ae 80 3d ea d4 04 bd e4 55 9a 3d
       0.07868903 0.06283299 -0.032429613 0.075359136
