results - copia/PruebaNuevoPythonAm/AgenteCoche/AgenteCoche-1499940.pt (torch, 202015 bytes, 36 tensors)

network_body.observation_encoder.processors.0.normalizer.running_mean f4 [20]
0.090929314 0.90907234 0.0 0.274825 0.5624985 0.43750325 0.0 0.3358375
0.78393346 0.2160663 0.0 0.27592814 0.72066915 0.27932832 0.0 0.38927275
0.76408845 0.23591149 0.0 0.27870312
00000000: 2639 ba3d f7b8 683f 0000 0000 ddb5 8c3e
00000010: e7ff 0f3f 6d00 e03e 0000 0000 e5f2 ab3e
00000020: ddaf 483f 7c40 5d3e 0000 0000 7446 8d3e
00000030: c67d 383f 1f04 8f3e 0000 0000 c24e c73e
00000040: 4d9b 433f c892 713e 0000 0000 2db2 8e3e

network_body.observation_encoder.processors.0.normalizer.running_variance f4 [20]
123991.71 123992.53 1.0 32754.799 369125.1 369125.03 1.0 36336.766
254065.58 254065.22 1.0 23823.238 301945.22 301944.5 1.0 34041.656
270379.3 270378.7 1.0 21060.023
00000000: db2b f247 442c f247 0000 803f 99e5 ff46
00000010: a33c b448 a13c b448 0000 803f c4f0 0d47
00000020: 651c 7848 4e1c 7848 0000 803f 7a1e ba46
00000030: 276f 9348 106f 9348 0000 803f a8f9 0447
00000040: 6a05 8448 5605 8448 0000 803f 0c88 a446

network_body.observation_encoder.processors.1.normalizer.running_mean f4 [20]
0.04668096 0.24820355 0.0 0.017760487 0.04432502 0.25090766 0.0 0.017754361
0.048933987 0.24509534 0.0 0.017744172 0.041849773 0.2538415 0.0 0.017728936
0.051382728 0.24204758 0.0 0.017709536
00000000: 8934 3f3d 1229 7e3e 0000 0000 717e 913c
00000010: 278e 353d f876 803e 0000 0000 9871 913c
00000020: 016f 483d 46fa 7a3e 0000 0000 3a5c 913c
00000030: ab6a 2b3d 83f7 813e 0000 0000 463c 913c
00000040: b276 523d 52db 773e 0000 0000 9713 913c

network_body.observation_encoder.processors.1.normalizer.running_variance f4 [20]
66751.04 279886.4 1.0 704.06665 63538.06 281918.44 1.0 705.297
69808.99 277525.47 1.0 702.0841 60146.19 284099.06 1.0 705.2826
73111.32 275186.28 1.0 701.0227
00000000: 855f 8247 cda9 8848 0000 803f 4404 3044
00000010: 0f32 7847 cea7 8948 0000 803f 0253 3044
00000020: 7f58 8847 af82 8748 0000 803f 6285 2f44
00000030: 31f2 6a47 62b8 8a48 0000 803f 1652 3044
00000040: a9cb 8e47 495e 8648 0000 803f 7441 2f44

network_body.observation_encoder.processors.2.normalizer.running_mean f4 [7]
0.75211686 0.04681663 0.1573046 0.32598796 0.9021617 0.10091549 0.0059551476
00000000: bb8a 403f cbc2 3f3d 7514 213e e5e7 a63e
00000010: 12f4 663f c8ac ce3d 6623 c33b

network_body.observation_encoder.processors.2.normalizer.running_variance f4 [7]
2.4618152e+06 28139.393 3.2644632 58874.1 70087.6 60348.438 7002.256
00000000: dd41 164a c9d6 db46 f7ec 5040 1afa 6547
00000010: cde3 8847 70bc 6b47 0cd2 da45

network_body.processors.0.normalizer.running_mean f4 [20]
0.090929314 0.90907234 0.0 0.274825 0.5624985 0.43750325 0.0 0.3358375
0.78393346 0.2160663 0.0 0.27592814 0.72066915 0.27932832 0.0 0.38927275
0.76408845 0.23591149 0.0 0.27870312
00000000: 2639 ba3d f7b8 683f 0000 0000 ddb5 8c3e
00000010: e7ff 0f3f 6d00 e03e 0000 0000 e5f2 ab3e
00000020: ddaf 483f 7c40 5d3e 0000 0000 7446 8d3e
00000030: c67d 383f 1f04 8f3e 0000 0000 c24e c73e
00000040: 4d9b 433f c892 713e 0000 0000 2db2 8e3e

network_body.processors.0.normalizer.running_variance f4 [20]
123991.71 123992.53 1.0 32754.799 369125.1 369125.03 1.0 36336.766
254065.58 254065.22 1.0 23823.238 301945.22 301944.5 1.0 34041.656
270379.3 270378.7 1.0 21060.023
00000000: db2b f247 442c f247 0000 803f 99e5 ff46
00000010: a33c b448 a13c b448 0000 803f c4f0 0d47
00000020: 651c 7848 4e1c 7848 0000 803f 7a1e ba46
00000030: 276f 9348 106f 9348 0000 803f a8f9 0447
00000040: 6a05 8448 5605 8448 0000 803f 0c88 a446

network_body.processors.1.normalizer.running_mean f4 [20]
0.04668096 0.24820355 0.0 0.017760487 0.04432502 0.25090766 0.0 0.017754361
0.048933987 0.24509534 0.0 0.017744172 0.041849773 0.2538415 0.0 0.017728936
0.051382728 0.24204758 0.0 0.017709536
00000000: 8934 3f3d 1229 7e3e 0000 0000 717e 913c
00000010: 278e 353d f876 803e 0000 0000 9871 913c
00000020: 016f 483d 46fa 7a3e 0000 0000 3a5c 913c
00000030: ab6a 2b3d 83f7 813e 0000 0000 463c 913c
00000040: b276 523d 52db 773e 0000 0000 9713 913c

network_body.processors.1.normalizer.running_variance f4 [20]
66751.04 279886.4 1.0 704.06665 63538.06 281918.44 1.0 705.297
69808.99 277525.47 1.0 702.0841 60146.19 284099.06 1.0 705.2826
73111.32 275186.28 1.0 701.0227
00000000: 855f 8247 cda9 8848 0000 803f 4404 3044
00000010: 0f32 7847 cea7 8948 0000 803f 0253 3044
00000020: 7f58 8847 af82 8748 0000 803f 6285 2f44
00000030: 31f2 6a47 62b8 8a48 0000 803f 1652 3044
00000040: a9cb 8e47 495e 8648 0000 803f 7441 2f44

network_body.processors.2.normalizer.running_mean f4 [7]
0.75211686 0.04681663 0.1573046 0.32598796 0.9021617 0.10091549 0.0059551476
00000000: bb8a 403f cbc2 3f3d 7514 213e e5e7 a63e
00000010: 12f4 663f c8ac ce3d 6623 c33b

network_body.processors.2.normalizer.running_variance f4 [7]
2.4618152e+06 28139.393 3.2644632 58874.1 70087.6 60348.438 7002.256
00000000: dd41 164a c9d6 db46 f7ec 5040 1afa 6547
00000010: cde3 8847 70bc 6b47 0cd2 da45

network_body._body_endoder.seq_layers.0.weight f4 [128, 47]
-0.14206408 0.24821703 0.013863662 -0.00022162545 -0.11515905 -0.33505473 0.014851509 -0.0315462
0.18184328 0.08870737 0.017816849 -0.14954492 -0.008321747 0.064600214 0.053102713 -0.088999696
0.04212236 0.05711568 0.112451576 -0.00026883386 0.11393655 -0.009412685 -0.10151664 0.1053102
0.29645526 0.1541765 -0.08611031 -0.09446821 0.06940574 0.018112278 -0.03382064 0.17265001
-0.158439 0.07830668 0.16798148 -0.15292338 -0.11451933 -0.25978345 0.19962586 -0.034171116
0.07384597 -0.022871224 -0.14508197 -0.07806956 -0.022971323 0.07441489 0.05993477 0.13864398
-0.002116782 0.0669958 -0.05820655 -0.0076202615 -0.10753745 0.18864153 0.41261777 -0.26071167
0.050953608 0.10958846 -0.29759118 -0.24130419 0.23326083 -0.0937873 0.2969544 0.06256629
-0.15006264 0.025713462 -0.020746144 0.29931933 0.05312546 0.26353925 -0.1449383 -0.10682919
-0.17242165 -0.26407206 -0.17463188 0.07453984 0.013058957 -0.04866469 -0.00040020657 0.13801885
0.2114334 -0.1446083 0.23297845 0.044336796 0.059837814 0.02478669 0.022991063 -0.064161256
0.09078957 0.5072833 0.026143178 0.1639291 -0.095028885 0.14671098 0.12876527 0.15074672
-0.06618359 0.10055744 0.048245937 -0.11969554 0.0345908 0.19085924 -0.08396546 0.013845699
-0.12138724 -0.04758766 0.09008837 -0.023558183 0.071547754 0.08545849 0.070381016 -0.31006303
0.07276184 -0.09544795 -0.04915325 -0.030571416 0.122074224 0.0040410375 -0.02508681 0.048257224
0.046021778 -0.21456379 -0.030319782 0.2697082 -0.07803026 0.09439196 -0.014243117 -0.14963591
0.15709627 -0.04011455 0.03128846 -0.110404365 -0.29328465 -0.061054535 -0.18238112 -0.0033369989
0.08207805 0.008846579 -0.16634656 0.041925542 -0.12472826 0.12710801 0.1473214 -0.075760454
0.15809123 0.03074836 -0.09898198 0.28655487 0.050937936 -0.16110365 0.067797564 0.14299315
-0.00431141 0.07812982 0.07619014 0.09380633 0.05063491 0.17542788 0.2018121 -0.12439847
-0.16212031 -0.029086228 -0.07131955 0.14870578 -0.20110202 -0.16249324 -0.22820845 0.059890922
0.16381878 -0.101290494 -0.111312404 0.017505692 0.07051206 0.22149213 -0.019032646 0.1958727
0.31201765 -0.009319665 0.017682867 -0.06802141 0.054665785 0.15679914 0.11097215 -0.113304086
-0.012011509 -0.11379475 -0.16401441 0.06179199 0.09448928 -0.043909393 -0.32484865 -0.09185401
0.027873375 0.2167058 0.100491494 0.084496245 -0.1574264 0.25802746 -0.16750982 -0.16019379
-0.102779225 0.18504131 0.06802742 0.10308313 0.005255147 -0.03797334 -0.07988322 -0.19001924
0.05644252 0.065444335 0.09986929 0.18626279 -0.06115388 0.08186632 -0.12498101 -0.091862865
0.020031346 0.028319623 -0.19353423 -0.014813162 -0.42965126 0.21147299 0.08896496 -0.3245177
-0.03063091 -0.041071348 -0.07774575 0.118464686 0.13754828 0.058755156 0.19088429 -0.07645071
0.3227743 -0.13498738 -0.27258325 -0.11962661 0.2209575 -0.21159945 0.08750558 0.24579452
0.023261514 0.15979889 0.2048791 0.081630416 0.055472046 0.33386964 0.24490455 -0.07006013
0.25308856 0.07894397 0.15056099 -0.079496935 0.27875796 0.0144735295 -0.18629435 0.10112246
00000000: 3f79 11be 9b2c 7e3e 6a24 633c 2164 68b9
00000010: 82d8 ebbd 4b8c abbe be53 733c 9736 01bd
00000020: 2035 3a3e 36ac b53d a4f4 913c 4e22 19be
00000030: f057 08bc 1e4d 843d 3b82 593d 7945 b6bd
00000040: 7f88 2c3d 22f2 693d 034d e63d 45f2 8cb9
00000050: 9157 e93d aa37 1abc f5e7 cfbd e0ac d73d
00000060: fcc8 973e 72e0 1d3e 9a5a b0bd 8d78 c1bd
00000070: 9924 8e3d 3360 943c 8387 0abd 2acb 303e
00000080: d53d 22be 415f a03d 5603 2c3e f297 1cbe
00000090: 1c89 eabd 5602 85be b96a 4c3e 03f7 0bbd
000000a0: 8e3c 973d 6f5c bbbc 5e90 14be efe2 9fbd
000000b0: 5b2e bcbc d566 983d 297e 753d b0f8 0d3e
000000c0: b5b9 0abb 1835 893d fe69 6ebd 63b3 f9bb
000000d0: 983c dcbd 3f2b 413e a342 d33e 007c 85be
000000e0: bbb4 503d ea6f e03d df5d 98be 7218 77be
000000f0: eddb 6e3e 8e13 c0bd 680a 983e c122 803d
00000100: 05aa 19be 0aa5 d23c d1f3 a9bc 6240 993e
00000110: 159a 593d 9eee 863e b56a 14be 43c9 dabd
00000120: 4d8f 30be 7434 87be b3d2 32be 58a8 983d
00000130: 3cf5 553c a054 47bd d1d2 d1b9 d054 0d3e
00000140: ff81 583e 3314 14be e791 6e3e 809a 353d
00000150: 7f18 753d 750d cb3c c157 bc3c fa66 83bd
00000160: e2ef b93d 51dd 013f 382a d63c 08dd 273e
00000170: 819e c2bd 673b 163e 0bdb 033e 595d 1a3e
00000180: 438b 87bd 0ff1 cd3d 889d 453d ef22 f5bd
00000190: 15af 0d3d 9b70 433e 15f6 abbd 12d9 623c
000001a0: e099 f8bd 47eb 42bd 4080 b83d 17fd c0bc
000001b0: a187 923d dc04 af3d ec23 903d 95c0 9ebe
000001c0: 2904 953d 377a c3bd eb54 49bd e870 fabc
000001d0: 0d02 fa3d ae6a 843b db82 cdbc 5ea9 453d
000001e0: 5581 3c3d 9cb6 5bbe 3161 f8bc 3117 8a3e
000001f0: 54ce 9fbd 9250 c13d f65b 69bc 283a 19be
00000200: d8dd 203e 284f 24bd 5428 003d af1b e2bd
00000210: 6829 96be 5214 7abd 1ec2 3abe 8db1 5abb
00000220: 8918 a83d 3ef1 103c c156 2abe 1eba 2b3d
00000230: 8871 ffbd 9a28 023e 6cdb 163e 4c28 9bbd
00000240: abe2 213e fce3 fb3c 10b7 cabd 52b7 923e
00000250: 4ca4 503d 5bf8 24be 73d9 8a3d cc6c 123e
00000260: ba46 8dbb 8702 a03d 9309 9c3d 881d c03d
00000270: 8d66 4f3d 5ea3 333e d5a7 4e3e a0c4 febd
00000280: de02 26be 3e46 eebc fc0f 92bd 5446 183e
00000290: b0ed 4dbe a164 26be 7aaf 69be 2f50 753d
000002a0: 1cc0 273e 6471 cfbd c2f7 e3bd 1968 8f3c
000002b0: a068 903d d5ce 623e 5aea 9bbc da92 483e
000002c0: c7c0 9f3e 82b1 18bc a9db 903c cf4e 8bbd
000002d0: 3be9 5f3d f48f 203e 5e45 e33d f90b e8bd
000002e0: eccb 44bc 390d e9bd 65f3 27be 9919 7d3d
000002f0: 9883 c13d 56da 33bd 9052 a6be f51d bcbd
00000300: b456 e43c 20e8 5d3e 7cce cd3d 5e0c ad3d
00000310: 6334 21be 2d1c 843e b287 2bbe d709 24be
00000320: ea7d d2bd 787b 3d3e f651 8b3d 401d d33d
00000330: 5e33 ac3b ef89 1bbd d099 a3bd 6794 42be
00000340: 4630 673d ae07 863d 4588 cc3d acbb 3e3e
00000350: 7e7c 7abd 87a9 a73d 0bf6 ffbd 9922 bcbd
00000360: c718 a43c 8efe e73c d62d 46be e8b2 72bc
00000370: 40fb dbbe 608c 583e 4333 b63d 2f27 a6be
00000380: aded fabc 6e3a 28bd 2a39 9fbd 9d9d f23d
00000390: 75d9 0c3e 3fa9 703d 2c77 433e 3192 9cbd
000003a0: ac42 a53e 223a 0abe 0890 8bbe ccfe f4bd
000003b0: af42 623e 87ad 58be 2036 b33d 8fb1 7b3e
000003c0: ee8e be3c 52a2 233e d4cb 513e d92d a73d
000003d0: a836 633d f6f0 aa3e 42c8 7a3e af7b 8fbd
000003e0: d394 813e 60ad a13d a92c 1a3e 4acf a2bd
000003f0: 5db9 8e3e 6222 6d3c f2c3 3ebe 4b19 cf3d

network_body._body_endoder.seq_layers.0.bias f4 [128]
0.0 0.0 0.0 0.0 0.0 0.0 0.0 0.0
0.0 0.0 0.0 0.0 0.0 0.0 0.0 0.0
0.0 0.0 0.0 0.0 0.0 0.0 0.0 0.0
0.0 0.0 0.0 0.0 0.0 0.0 0.0 0.0
0.0 0.0 0.0 0.0 0.0 0.0 0.0 0.0
0.0 0.0 0.0 0.0 0.0 0.0 0.0 0.0
0.0 0.0 0.0 0.0 0.0 0.0 0.0 0.0
0.0 0.0 0.0 0.0 0.0 0.0 0.0 0.0
0.0 0.0 0.0 0.0 0.0 0.0 0.0 0.0
0.0 0.0 0.0 0.0 0.0 0.0 0.0 0.0
0.0 0.0 0.0 0.0 0.0 0.0 0.0 0.0
0.0 0.0 0.0 0.0 0.0 0.0 0.0 0.0
0.0 0.0 0.0 0.0 0.0 0.0 0.0 0.0
0.0 0.0 0.0 0.0 0.0 0.0 0.0 0.0
0.0 0.0 0.0 0.0 0.0 0.0 0.0 0.0
0.0 0.0 0.0 0.0 0.0 0.0 0.0 0.0
00000000: 0000 0000 0000 0000 0000 0000 0000 0000
00000010: 0000 0000 0000 0000 0000 0000 0000 0000
00000020: 0000 0000 0000 0000 0000 0000 0000 0000
00000030: 0000 0000 0000 0000 0000 0000 0000 0000
00000040: 0000 0000 0000 0000 0000 0000 0000 0000
00000050: 0000 0000 0000 0000 0000 0000 0000 0000
00000060: 0000 0000 0000 0000 0000 0000 0000 0000
00000070: 0000 0000 0000 0000 0000 0000 0000 0000
00000080: 0000 0000 0000 0000 0000 0000 0000 0000
00000090: 0000 0000 0000 0000 0000 0000 0000 0000
000000a0: 0000 0000 0000 0000 0000 0000 0000 0000
000000b0: 0000 0000 0000 0000 0000 0000 0000 0000
000000c0: 0000 0000 0000 0000 0000 0000 0000 0000
000000d0: 0000 0000 0000 0000 0000 0000 0000 0000
000000e0: 0000 0000 0000 0000 0000 0000 0000 0000
000000f0: 0000 0000 0000 0000 0000 0000 0000 0000
00000100: 0000 0000 0000 0000 0000 0000 0000 0000
00000110: 0000 0000 0000 0000 0000 0000 0000 0000
00000120: 0000 0000 0000 0000 0000 0000 0000 0000
00000130: 0000 0000 0000 0000 0000 0000 0000 0000
00000140: 0000 0000 0000 0000 0000 0000 0000 0000
00000150: 0000 0000 0000 0000 0000 0000 0000 0000
00000160: 0000 0000 0000 0000 0000 0000 0000 0000
00000170: 0000 0000 0000 0000 0000 0000 0000 0000
00000180: 0000 0000 0000 0000 0000 0000 0000 0000
00000190: 0000 0000 0000 0000 0000 0000 0000 0000
000001a0: 0000 0000 0000 0000 0000 0000 0000 0000
000001b0: 0000 0000 0000 0000 0000 0000 0000 0000
000001c0: 0000 0000 0000 0000 0000 0000 0000 0000
000001d0: 0000 0000 0000 0000 0000 0000 0000 0000
000001e0: 0000 0000 0000 0000 0000 0000 0000 0000
000001f0: 0000 0000 0000 0000 0000 0000 0000 0000

network_body._body_endoder.seq_layers.2.weight f4 [128, 128]
0.052437663 0.17924738 0.041477416 0.044817016 0.10602697 0.010770376 0.09011975 0.060422275
0.2434231 -0.11116358 0.06411623 -0.04108967 -0.0563885 -0.16830334 -0.14547484 0.009227905
-0.02688146 -0.10017259 0.010593369 0.030056413 -0.04198185 -0.10153897 0.08732126 0.08842759
-0.021874884 -0.07362336 0.007028235 0.09770182 -0.010757012 -0.049674407 -0.09014633 0.0024171313
0.014302412 -0.024664741 0.0035309112 -0.14250034 0.10653535 0.015928866 -0.056246217 -0.14937887
0.023392187 -0.012759322 0.0636705 -0.0888661 0.035004474 0.052329563 0.047588896 0.0426241
-0.09027942 -0.091713704 -0.12194459 0.08574197 0.002140552 0.039080694 -0.010205348 0.07589294
0.053089008 -0.101505496 0.06904009 -0.013841451 -0.009680735 -0.07348402 -0.16706482 0.16464263
0.01844086 -0.0028340267 -0.03564943 -0.050222628 -0.084008746 0.10716729 -0.020530531 -0.022705698
-0.15198489 -0.10899042 0.11170783 -0.004861052 -0.017738018 -0.07336619 -0.02945664 -0.0021660696
-0.046474922 -0.008882126 -0.0780662 0.02527714 -0.02118949 0.04651388 0.0063960734 -0.059078436
-0.17452458 0.022902703 -0.13500986 0.07423731 0.105767824 -0.08177837 -0.020532433 0.06758214
-0.12035989 -0.13221489 0.0067701964 -0.018050997 -0.094308496 0.11185939 0.14063475 -0.31778482
0.056618333 0.06546958 0.011413618 -0.097899854 -0.09855362 0.13781191 0.13613808 -0.009526869
0.036693648 0.040336408 -0.13599318 0.11881213 0.07718477 -0.063413955 0.00065873587 0.11336582
0.029798696 -0.029303974 -0.0537675 -0.005659119 0.14997745 -0.14605135 0.054901112 -0.03909387
0.018924326 -0.1383482 0.019974202 0.059116334 0.008500909 -0.018561034 0.12481863 -0.043408215
0.111127794 0.052143253 -0.09239115 0.050740562 -0.03960194 0.015992122 0.0447919 0.0713989
-0.05692508 -0.02175715 0.06341683 -0.03385511 -0.008759542 -0.16590591 -0.011667481 0.04573268
0.027822133 0.1197146 0.038286224 -0.043506596 -0.003703302 -0.16344 -0.028944232 -0.031162472
-0.024298707 -0.063340604 0.03319482 0.10414222 -0.09284206 0.03238215 -0.04497507 -0.21518685
0.0682632 0.07150559 -0.0019770782 0.0016673608 -0.06662413 -0.07447985 -0.084608264 -0.027720135
-0.13031787 0.043839958 -0.11007627 0.0158319 -0.075156756 -0.057325143 0.064308494 -0.09834391
-0.05924079 0.025172012 0.03304031 0.0075417873 -0.027554387 0.03959862 0.16385406 -0.07489062
-0.031448632 0.15390867 -0.06481749 -0.0823671 0.058130983 0.09773638 0.086863615 0.06766099
0.10210638 0.07476442 -0.04350986 0.094908446 0.16997276 0.03648877 -0.026118802 0.08969624
0.12317525 0.11191467 -0.09810604 0.04228014 0.038715407 -0.013323004 -0.09052634 0.120599434
0.23348615 0.07643352 0.12084219 -0.0811638 -0.058971874 0.028873876 -0.06766786 0.07527588
0.043395713 -0.023663245 0.05145246 -0.025863457 -0.04641595 0.01072807 -0.042842716 -0.12838854
0.044991117 -0.04415412 -0.22287217 0.08506173 -0.009366711 -0.058533277 -0.026324764 -0.14926499
0.05145628 -0.04948722 -0.037419092 0.0032359827 -0.03355305 -0.19194981 0.20718344 0.034220017
0.055971794 -0.08149764 -0.12888148 0.02480217 0.0076479716 0.021895321 -0.024748879 0.1395497
00000000: e0c8 563d a08c 373e 39e4 293d 0c92 373d
00000010: ab24 d93d 3b76 303c b490 b83d 597d 773d
00000020: e843 793e bba9 e3bd 5f4f 833d a44d 28bd
00000030: a1f7 66bd b657 2cbe 5bf7 14be a430 173c
00000040: 8236 dcbc 4927 cdbd cf8f 2d3c de38 f63c
00000050: 29f5 2bbd aaf3 cfbd 7dd5 b23d 8619 b53d
00000060: f532 b3bc d8c7 96bd 1c4d e63b e417 c83d
00000070: 2e3e 30bc 6477 4bbd a49e b8bd bc68 1e3b
00000080: aa54 6a3c b60d cabc dc66 673b 9ceb 11be
00000090: 352f da3d 417d 823c 6f62 66bd c6f6 18be
000000a0: f9a0 bf3c 7a0c 51bc ae65 823d 6eff b5bd
000000b0: da60 0f3d 8657 563d 93ec 423d 9c96 2e3d
000000c0: 6be4 b8bd 65d4 bbbd 16be f9bd 7c99 af3d
000000d0: 8148 0c3b 1413 203d 5534 27bc c26d 9b3d
000000e0: dc73 593d 1de2 cfbd e464 8d3d 41c7 62bc
000000f0: f29b 1ebc ca7e 96bd 0a13 2bbe 1498 283e
00000100: 4911 973c 14bb 39bb 2305 12bd 3eb6 4dbd
00000110: c70c acbd 867a db3d a52f a8bc 4d01 babc
00000120: eda1 1bbe 5f36 dfbd 13c7 e43d 7649 9fbb
00000130: 524f 91bc 0341 96bd 0d4f f1bc 9ef4 0dbb
00000140: 7d5c 3ebd 5686 11bc 2ce1 9fbd 0112 cf3c
00000150: 9595 adbc 5785 3e3d 2796 d13b 3bfc 71bd
00000160: 92b6 32be 739e bb3c 0640 0abe bb09 983d
00000170: cd9c d83d 6b7b a7bd a233 a8bc 8168 8a3d
00000180: 3f7f f6bd 5763 07be 86d8 dd3b afdf 93bc
00000190: d024 c1bd 8916 e53d 8e02 103e b1b4 a2be
000001a0: a0e8 673d ea14 863d 2f00 3b3c b87f c8bd
000001b0: 7bd6 c9bd 911e 0d3e c867 0b3e 9616 1cbc
000001c0: 144c 163d ca37 253d cc41 0bbe c653 f33d
000001d0: 0c13 9e3d 2ddf 81bd 04af 2c3a 572c e83d
000001e0: 651c f43c e30e f0bc 4f3b 5cbd 2270 b9bb
000001f0: b093 193e 7c8e 15be fddf 603d e520 20bd
00000200: 3007 9b3c 27ab 0dbe f0a0 a33c f823 723d
00000210: 6647 0b3c 4f0d 98bc e9a0 ff3d d0cc 31bd
00000220: f896 e33d 2a94 553d 9237 bdbd 56d5 4f3d
00000230: a535 22bd e901 833c b677 373d 9639 923d
00000240: 462a 69bd 0d3c b2bc afe0 813d a8ab 0abd
00000250: 2f84 0fbc 3de3 29be f628 3fbc 3152 3b3d
00000260: 3eeb e33c ee2c f53d 04d2 1c3d f933 32bd
00000270: 19b3 72bb d15c 27be 741c edbc 7148 ffbc
00000280: 150e c7bc b8b8 81bd 4bf7 073d 8448 d53d
00000290: fa23 bebd 25a3 043d c737 38bd f159 5cbe
000002a0: 94cd 8b3d 8671 923d de91 01bb 588b da3a
000002b0: 3b72 88bd e488 98bd 1947 adbd 5615 e3bc
000002c0: 0c72 05be 8791 333d ab6f e1bd e7b1 813c
000002d0: c9eb 99bd c5cd 6abd 2cb4 833d 8868 c9bd
000002e0: 78a6 72bd 8935 ce3c 4755 073d 1921 f73b
000002f0: bdb9 e1bc 2a32 223d 5cc9 273e 4160 99bd
00000300: 48d0 00bd 3c9a 1d3e 08bf 84bd 15b0 a8bd
00000310: c11a 6e3d 032a c83d 8de5 b13d d891 8a3d
00000320: 261d d13d 171e 993d 6537 32bd 5c5f c23d
00000330: 570d 2e3e 4075 153d 19f7 d5bc aab2 b73d
00000340: 4e43 fc3d 8533 e53d d2eb c8bd f12d 2d3d
00000350: 0c94 1e3d bb48 5abc e065 b9bd d6fc f63d
00000360: fe16 6f3e 2d89 9c3d 1c7c f73d 3539 a6bd
00000370: 7e8c 71bd e888 ec3c 7295 8abd 3e2a 9a3d
00000380: b4bf 313d 6cd9 c1bc d1bf 523d 9adf d3bc
00000390: a71e 3ebd c9c4 2f3c d87b 2fbd 4978 03be
000003a0: 9b48 383d f3da 34bd 9a38 64be d834 ae3d
000003b0: d576 19bc 97c0 6fbd 08a7 d7bc ecd8 18be
000003c0: d2c3 523d 1cb3 4abd c344 19bd c812 543b
000003d0: ec6e 09bd 7e8e 44be e527 543e 4a2a 0c3d
000003e0: ae42 653d 3ce8 a6bd 82f9 03be ec2d cb3c
000003f0: d69b fa3b d15d b33c 29be cabc 1ee6 0e3e

network_body._body_endoder.seq_layers.2.bias f4 [128]
0.0 0.0 0.0 0.0 0.0 0.0 0.0 0.0
0.0 0.0 0.0 0.0 0.0 0.0 0.0 0.0
0.0 0.0 0.0 0.0 0.0 0.0 0.0 0.0
0.0 0.0 0.0 0.0 0.0 0.0 0.0 0.0
0.0 0.0 0.0 0.0 0.0 0.0 0.0 0.0
0.0 0.0 0.0 0.0 0.0 0.0 0.0 0.0
0.0 0.0 0.0 0.0 0.0 0.0 0.0 0.0
0.0 0.0 0.0 0.0 0.0 0.0 0.0 0.0
0.0 0.0 0.0 0.0 0.0 0.0 0.0 0.0
0.0 0.0 0.0 0.0 0.0 0.0 0.0 0.0
0.0 0.0 0.0 0.0 0.0 0.0 0.0 0.0
0.0 0.0 0.0 0.0 0.0 0.0 0.0 0.0
0.0 0.0 0.0 0.0 0.0 0.0 0.0 0.0
0.0 0.0 0.0 0.0 0.0 0.0 0.0 0.0
0.0 0.0 0.0 0.0 0.0 0.0 0.0 0.0
0.0 0.0 0.0 0.0 0.0 0.0 0.0 0.0
00000000: 0000 0000 0000 0000 0000 0000 0000 0000
00000010: 0000 0000 0000 0000 0000 0000 0000 0000
00000020: 0000 0000 0000 0000 0000 0000 0000 0000
00000030: 0000 0000 0000 0000 0000 0000 0000 0000
00000040: 0000 0000 0000 0000 0000 0000 0000 0000
00000050: 0000 0000 0000 0000 0000 0000 0000 0000
00000060: 0000 0000 0000 0000 0000 0000 0000 0000
00000070: 0000 0000 0000 0000 0000 0000 0000 0000
00000080: 0000 0000 0000 0000 0000 0000 0000 0000
00000090: 0000 0000 0000 0000 0000 0000 0000 0000
000000a0: 0000 0000 0000 0000 0000 0000 0000 0000
000000b0: 0000 0000 0000 0000 0000 0000 0000 0000
000000c0: 0000 0000 0000 0000 0000 0000 0000 0000
000000d0: 0000 0000 0000 0000 0000 0000 0000 0000
000000e0: 0000 0000 0000 0000 0000 0000 0000 0000
000000f0: 0000 0000 0000 0000 0000 0000 0000 0000
00000100: 0000 0000 0000 0000 0000 0000 0000 0000
00000110: 0000 0000 0000 0000 0000 0000 0000 0000
00000120: 0000 0000 0000 0000 0000 0000 0000 0000
00000130: 0000 0000 0000 0000 0000 0000 0000 0000
00000140: 0000 0000 0000 0000 0000 0000 0000 0000
00000150: 0000 0000 0000 0000 0000 0000 0000 0000
00000160: 0000 0000 0000 0000 0000 0000 0000 0000
00000170: 0000 0000 0000 0000 0000 0000 0000 0000
00000180: 0000 0000 0000 0000 0000 0000 0000 0000
00000190: 0000 0000 0000 0000 0000 0000 0000 0000
000001a0: 0000 0000 0000 0000 0000 0000 0000 0000
000001b0: 0000 0000 0000 0000 0000 0000 0000 0000
000001c0: 0000 0000 0000 0000 0000 0000 0000 0000
000001d0: 0000 0000 0000 0000 0000 0000 0000 0000
000001e0: 0000 0000 0000 0000 0000 0000 0000 0000
000001f0: 0000 0000 0000 0000 0000 0000 0000 0000

action_model._continuous_distribution.log_sigma f4 [1, 2]
0.0 0.0
00000000: 0000 0000 0000 0000

action_model._continuous_distribution.mu.weight f4 [2, 128]
0.01151339 -0.009683924 0.019617317 -0.029608015 -0.0063299485 0.008477451 -0.019311387 0.01164759
0.018860266 -0.011346549 -0.013562913 -0.009209621 0.009563345 0.0034859304 -0.02362029 0.010773069
0.007902031 0.018398536 -0.019554077 -0.00030525713 -0.009131576 0.0060938895 0.010169301 0.010763433
-0.0052262023 -0.014651676 -0.0056858878 -0.01025579 0.01758326 0.008504736 -0.019425314 0.02303513
-0.008806998 0.014259579 0.016889356 -0.0014862876 0.00065095694 -0.0060741864 -0.0013054995 -0.013927467
-0.0038114698 0.016018052 0.006116879 -0.01194139 0.016571395 -0.008726122 -0.028175265 -0.010529818
-0.010272093 0.017407587 -0.01688693 0.02421866 -0.02210414 -0.01912575 -0.014232515 0.025007412
-0.005792572 0.0052341656 0.02029503 -0.020446545 -0.0015457341 -0.03526036 0.002088243 -0.015114545
0.016438242 -0.022549944 -0.022465575 0.011374253 0.016032996 -0.023434773 -0.029195989 -0.0045652296
0.0006091428 -0.011351921 0.012770826 -0.035826422 -0.020167012 0.011531449 -0.0057457048 0.0006860676
0.0023030553 -0.00765683 0.03598915 -0.0071622506 0.0071476772 -0.004812542 0.019993288 -0.003977901
0.0024669317 -0.017189844 -0.0057579903 -0.01043656 0.0044137626 -0.004796001 0.013546082 -0.013056639
0.0044392627 0.0014256054 0.017658198 -0.015022539 0.00747811 0.014449164 -0.0071838344 -0.013640001
-0.02302592 0.02038343 0.0037210889 0.007377205 -0.021349384 0.03060165 0.009268009 -0.020300822
-0.01911076 0.0031859104 -0.0009722551 0.016766626 -0.013186509 -0.018571144 -0.014029858 0.0001818342
-0.0022393065 -0.021561747 -0.007026758 0.007944805 0.008053421 0.012377157 -0.0038920448 -0.0014206477
0.019562872 -0.027086997 -0.0053664558 0.0044861776 0.02086152 0.019579368 -0.0033008517 -0.004970249
-0.004595157 0.016401883 -0.00028002667 -0.016121102 0.001164155 0.0035441187 0.00075550954 -0.004732778
-0.01809859 0.032901637 -0.022661157 -0.024115723 -0.011722429 -0.0022962687 0.0034981202 0.021174675
-0.01501244 0.0048648706 0.013797851 0.016601486 -0.001179548 -0.0043312996 0.022798264 0.011266664
-0.030136088 -0.014780009 -0.026967416 0.013641417 0.04786772 0.013943982 -0.016849443 -0.010640415
0.0002076185 -0.022201052 -0.008405375 -0.026961163 0.0026877518 0.01994258 -0.015715571 -0.0004781525
0.0017263442 0.018674595 0.0042867158 -0.018165419 -0.004710708 0.018135546 -0.0068103964 0.0048404
0.021582892 -0.008873074 0.004916039 -0.019162167 0.013945453 -0.0027981033 -0.03821681 0.04768528
-0.019922508 0.021466142 0.015810376 -0.006784595 0.026520094 -0.011534027 -0.004261277 -0.0062194346
-0.011664413 0.015783386 0.023264365 -0.0076215514 0.019977318 0.035480075 -0.02776965 -0.004397091
0.011753181 0.010972111 -0.037542224 -0.020449 -0.010926709 -0.0068451874 0.0014804819 -0.024633419
-0.010134834 0.016412912 -0.0007040365 0.0137560535 -0.00070931675 0.0034234193 -0.010184071 0.010862629
0.011039389 0.034024376 -0.013257056 -0.015441692 0.0019454549 0.027815077 0.01830285 0.024768133
0.025906513 -0.00103213 -0.043199405 0.00057275884 -0.011197444 0.029241834 0.006298542 0.012374339
0.015358378 -0.011846632 -0.0025003057 0.018626317 0.01411956 0.012966983 0.014586398 -0.015114953
-0.0011607984 0.018494828 -0.026878862 0.017063033 -0.018858653 0.007211897 0.00065041095 0.005612541
00000000: a8a2 3c3c 52a9 1ebc 7fb4 a03c 828c f2bc
00000010: 756b cfbb 02e5 0a3c ea32 9ebc 89d5 3e3c
00000020: d880 9a3c e0e6 39bc fb36 5ebc f3e3 16bc
00000030: 94af 1c3c 3574 643b 577f c1bc 8781 303c
00000040: 8577 013c 87b8 963c df2f a0bc eb0a a0b9
00000050: 9b9c 15bc 40af c73b 249d 263c 1c59 303c
00000060: 9040 abbb 950d 70bc af50 babb e707 28bc
00000070: c50a 903c 7357 0b3c d621 9fbc 2bb4 bc3c
00000080: 3a4b 10bc 02a1 693c 8c5b 8a3c 89cf c2ba
00000090: fba4 2a3a f809 c7bb 4b1d abba 0830 64bc
000000a0: dac9 79bb 4a38 833c 1a70 c83b d2a5 43bc
000000b0: bcc0 873c 02f8 0ebc d0cf e6bc 4285 2cbc
000000c0: 484c 28bc 5b9a 8e3c 7656 8abc 3666 c63c
000000d0: be13 b5bc 9bad 9cbc 7f2f 69bc 58dc cc3c
000000e0: 9ecf bdbb 5d83 ab3b c341 a63c 837f a7bc
000000f0: 3b9a caba 2b6d 10bd e7da 083b ffa2 77bc
00000100: 7ea9 863c a9ba b8bc ba09 b8bc 135b 3a3c
00000110: a157 833c 48fa bfbc 6d2c efbc ec97 95bb
00000120: e2ae 1f3a 68fd 39bc ba3c 513c babe 12bd
00000130: 4a35 a5bc 67ee 3c3c 7746 bcbb 38d9 333a
00000140: dbee 163b 25e6 fabb 5c69 133d 50b1 eabb
00000150: 1037 ea3b 87b2 9dbb f7c8 a33c 0d59 82bb
00000160: 3fac 213b b7d1 8cbc 86ad bcbb 1bfe 2abc
00000170: 53a1 903b c627 9dbb 63f0 5d3c 83eb 55bc
00000180: 3c77 913b 61db ba3a eda7 903c 1821 76bc
00000190: ef0a f53b 30bc 6c3c 5f66 ebbb 507a 5fbc
000001a0: dba0 bcbc 27fb a63c 83dd 733b 7bbc f13b
000001b0: e7e4 aebc 50b0 fa3c d9d8 173c e94d a6bc
000001c0: 2b8e 9cbc b5ca 503b efde 7eba 2a5a 893c
000001d0: 3a0c 58bc 8322 98bc 7ddd 65bc bfaa 3e39
000001e0: 54c1 12bb 43a2 b0bc b840 e6bb ed2a 023c
000001f0: 7ff2 033c 8fc9 4a3c ad11 7fbb 0735 baba
00000200: 5142 a03c 8de5 ddbc 18d9 afbb c900 933b
00000210: c7e5 aa3c e964 a03c 1a53 58bb 78dd a2bb
00000220: f992 96bb 3e5d 863c 8bd0 92b9 6710 84bc
00000230: 8f96 983a 7244 683b 630d 463a 6b15 9bbb
00000240: 7f43 94bc dec3 063d e4a3 b9bc 568e c5bc
00000250: 6e0f 40bc ff7c 16bb b840 653b 8376 ad3c
00000260: bdf6 75bc 7e69 9f3b 6210 623c d7ff 873c
00000270: 109b 9aba 93ed 8dbb 6dc3 ba3c d097 383c
00000280: f5df f6bc da27 72bc c5ea dcbc 4080 5f3c
00000290: f110 443d 4d75 643c d807 8abc 2355 2ebc
000002a0: 2bb4 5939 fbde b5bc b3b6 09bc a8dd dcbc
000002b0: fe24 303b 9f5e a33c f1bd 80bc 8bb0 fab9
000002c0: 8046 e23a 77fb 983c 9477 8c3b a5cf 94bc
000002d0: 485c 9abb ff90 943c bf29 dfbb 389c 9e3b
000002e0: 9bce b03c 5f60 11bc b916 a13b faf9 9cbc
000002f0: 787b 643c 6260 37bb 3b89 1cbd a451 433d
00000300: 8734 a3bc c3d9 af3c c384 813c 4f51 debb
00000310: ab40 d93c 37f9 3cbc 2fa2 8bbb 66cc cbbb
00000320: 181c 3fbc 294c 813c e994 be3c 35be f9bb
00000330: 79a7 a33c 8e53 113d 2d7d e3bc 7915 90bb
00000340: 6a90 403c 5ec4 333c e0c5 19bd a984 a7bc
00000350: f005 33bc 984d e0bb bb0c c23a 06cc c9bc
00000360: 930c 26bc 5f74 863c 178f 38ba 1261 613c
00000370: 71f1 39ba 725b 603b 17db 26bc 2bf9 313c
00000380: 8ede 343c 255d 0b3d 1f34 59bc 27ff 7cbc
00000390: a2fe fe3a 72dc e33c dcef 953c 8ae6 ca3c
000003a0: e539 d43c 8948 87ba dcf1 30bd 3225 163a
000003b0: 7c75 37bc 928c ef3c 0064 ce3b bdbd 4a3c
000003c0: b5a1 7b3c 6018 42bc 2bdc 23bb 3896 983c
000003d0: ba55 673c 7873 543c cafb 6e3c b5a4 77bc
000003e0: ee25 98ba 7782 973c 0f31 dcbc c6c7 8b3c
000003f0: 767d 9abc c751 ec3b 5780 2a3a 68e9 b73b

action_model._continuous_distribution.mu.bias f4 [2]
0.0 0.0
00000000: 0000 0000 0000 0000

network_body.observation_encoder.processors.0.normalizer.running_mean f4 [20]
0.090929314 0.90907234 0.0 0.274825 0.5624985 0.43750325 0.0 0.3358375
0.78393346 0.2160663 0.0 0.27592814 0.72066915 0.27932832 0.0 0.38927275
0.76408845 0.23591149 0.0 0.27870312
00000000: 2639 ba3d f7b8 683f 0000 0000 ddb5 8c3e
00000010: e7ff 0f3f 6d00 e03e 0000 0000 e5f2 ab3e
00000020: ddaf 483f 7c40 5d3e 0000 0000 7446 8d3e
00000030: c67d 383f 1f04 8f3e 0000 0000 c24e c73e
00000040: 4d9b 433f c892 713e 0000 0000 2db2 8e3e

network_body.observation_encoder.processors.0.normalizer.running_variance f4 [20]
123991.71 123992.53 1.0 32754.799 369125.1 369125.03 1.0 36336.766
254065.58 254065.22 1.0 23823.238 301945.22 301944.5 1.0 34041.656
270379.3 270378.7 1.0 21060.023
00000000: db2b f247 442c f247 0000 803f 99e5 ff46
00000010: a33c b448 a13c b448 0000 803f c4f0 0d47
00000020: 651c 7848 4e1c 7848 0000 803f 7a1e ba46
00000030: 276f 9348 106f 9348 0000 803f a8f9 0447
00000040: 6a05 8448 5605 8448 0000 803f 0c88 a446

network_body.observation_encoder.processors.1.normalizer.running_mean f4 [20]
0.04668096 0.24820355 0.0 0.017760487 0.04432502 0.25090766 0.0 0.017754361
0.048933987 0.24509534 0.0 0.017744172 0.041849773 0.2538415 0.0 0.017728936
0.051382728 0.24204758 0.0 0.017709536
00000000: 8934 3f3d 1229 7e3e 0000 0000 717e 913c
00000010: 278e 353d f876 803e 0000 0000 9871 913c
00000020: 016f 483d 46fa 7a3e 0000 0000 3a5c 913c
00000030: ab6a 2b3d 83f7 813e 0000 0000 463c 913c
00000040: b276 523d 52db 773e 0000 0000 9713 913c

network_body.observation_encoder.processors.1.normalizer.running_variance f4 [20]
66751.04 279886.4 1.0 704.06665 63538.06 281918.44 1.0 705.297
69808.99 277525.47 1.0 702.0841 60146.19 284099.06 1.0 705.2826
73111.32 275186.28 1.0 701.0227
00000000: 855f 8247 cda9 8848 0000 803f 4404 3044
00000010: 0f32 7847 cea7 8948 0000 803f 0253 3044
00000020: 7f58 8847 af82 8748 0000 803f 6285 2f44
00000030: 31f2 6a47 62b8 8a48 0000 803f 1652 3044
00000040: a9cb 8e47 495e 8648 0000 803f 7441 2f44

network_body.observation_encoder.processors.2.normalizer.running_mean f4 [7]
0.75211686 0.04681663 0.1573046 0.32598796 0.9021617 0.10091549 0.0059551476
00000000: bb8a 403f cbc2 3f3d 7514 213e e5e7 a63e
00000010: 12f4 663f c8ac ce3d 6623 c33b

network_body.observation_encoder.processors.2.normalizer.running_variance f4 [7]
2.4618152e+06 28139.393 3.2644632 58874.1 70087.6 60348.438 7002.256
00000000: dd41 164a c9d6 db46 f7ec 5040 1afa 6547
00000010: cde3 8847 70bc 6b47 0cd2 da45

network_body.processors.0.normalizer.running_mean f4 [20]
0.090929314 0.90907234 0.0 0.274825 0.5624985 0.43750325 0.0 0.3358375
0.78393346 0.2160663 0.0 0.27592814 0.72066915 0.27932832 0.0 0.38927275
0.76408845 0.23591149 0.0 0.27870312
00000000: 2639 ba3d f7b8 683f 0000 0000 ddb5 8c3e
00000010: e7ff 0f3f 6d00 e03e 0000 0000 e5f2 ab3e
00000020: ddaf 483f 7c40 5d3e 0000 0000 7446 8d3e
00000030: c67d 383f 1f04 8f3e 0000 0000 c24e c73e
00000040: 4d9b 433f c892 713e 0000 0000 2db2 8e3e

network_body.processors.0.normalizer.running_variance f4 [20]
123991.71 123992.53 1.0 32754.799 369125.1 369125.03 1.0 36336.766
254065.58 254065.22 1.0 23823.238 301945.22 301944.5 1.0 34041.656
270379.3 270378.7 1.0 21060.023
00000000: db2b f247 442c f247 0000 803f 99e5 ff46
00000010: a33c b448 a13c b448 0000 803f c4f0 0d47
00000020: 651c 7848 4e1c 7848 0000 803f 7a1e ba46
00000030: 276f 9348 106f 9348 0000 803f a8f9 0447
00000040: 6a05 8448 5605 8448 0000 803f 0c88 a446

network_body.processors.1.normalizer.running_mean f4 [20]
0.04668096 0.24820355 0.0 0.017760487 0.04432502 0.25090766 0.0 0.017754361
0.048933987 0.24509534 0.0 0.017744172 0.041849773 0.2538415 0.0 0.017728936
0.051382728 0.24204758 0.0 0.017709536
00000000: 8934 3f3d 1229 7e3e 0000 0000 717e 913c
00000010: 278e 353d f876 803e 0000 0000 9871 913c
00000020: 016f 483d 46fa 7a3e 0000 0000 3a5c 913c
00000030: ab6a 2b3d 83f7 813e 0000 0000 463c 913c
00000040: b276 523d 52db 773e 0000 0000 9713 913c

network_body.processors.1.normalizer.running_variance f4 [20]
66751.04 279886.4 1.0 704.06665 63538.06 281918.44 1.0 705.297
69808.99 277525.47 1.0 702.0841 60146.19 284099.06 1.0 705.2826
73111.32 275186.28 1.0 701.0227
00000000: 855f 8247 cda9 8848 0000 803f 4404 3044
00000010: 0f32 7847 cea7 8948 0000 803f 0253 3044
00000020: 7f58 8847 af82 8748 0000 803f 6285 2f44
00000030: 31f2 6a47 62b8 8a48 0000 803f 1652 3044
00000040: a9cb 8e47 495e 8648 0000 803f 7441 2f44

network_body.processors.2.normalizer.running_mean f4 [7]
0.75211686 0.04681663 0.1573046 0.32598796 0.9021617 0.10091549 0.0059551476
00000000: bb8a 403f cbc2 3f3d 7514 213e e5e7 a63e
00000010: 12f4 663f c8ac ce3d 6623 c33b

network_body.processors.2.normalizer.running_variance f4 [7]
2.4618152e+06 28139.393 3.2644632 58874.1 70087.6 60348.438 7002.256
00000000: dd41 164a c9d6 db46 f7ec 5040 1afa 6547
00000010: cde3 8847 70bc 6b47 0cd2 da45

network_body._body_endoder.seq_layers.0.weight f4 [128, 47]
0.24837343 -0.0012729063 -0.041735064 -0.18054217 0.32486415 0.11975751 -0.019244999 0.0721407
-0.28905332 -0.0314908 0.038877055 0.004297939 -0.014033195 0.15332043 -0.02558097 -0.12742206
0.15374187 -0.013228485 -0.03887107 0.2109581 0.20299946 -0.26353163 0.003931576 0.046373434
-0.17693979 0.10037961 -0.06486374 0.10182891 -0.20276462 0.12065192 -0.23313424 0.026062598
0.35772154 -0.15050323 0.18228365 0.04730823 0.2702223 -0.15434341 0.056700286 0.064012095
0.12450305 0.28510162 -0.045336515 -0.024632122 0.01184486 0.069583155 0.021710671 -0.07149027
-0.020059364 -0.013189623 0.07847923 0.14645928 -0.032040462 0.06697372 0.118693754 0.10172216
0.059894502 0.04522265 0.002577196 0.113235116 0.14285427 -0.028748246 -0.026413018 0.37897184
0.34312633 0.1038577 0.19334131 -0.02040368 -0.098239735 -0.09686477 0.1764698 0.014144386
-0.05133592 0.23251344 -0.16174091 0.014344495 0.018372724 0.18761574 0.027186366 0.06878055
-0.021165714 -0.07586002 -0.14418581 -0.07748062 -0.070979856 0.017245637 0.07759956 -0.010279059
0.002365487 -0.06730027 -0.055105418 0.032464873 -0.11052542 0.3793646 -0.13248357 -0.05918623
0.045336537 0.061426155 0.13382028 -0.052743945 -0.007474612 0.16473243 0.112592846 0.12025908
0.17296532 0.015701259 0.059876375 0.08234744 0.02641579 -0.040106963 -0.08309037 0.057009093
-0.12611301 0.24562573 -0.31833953 0.17242941 0.005429934 -0.22631118 -0.0028934637 0.10393666
0.04358932 -0.246137 0.13324337 -0.11291033 -0.06403151 -0.11262397 0.21965781 -0.018373832
-0.014197264 -0.06797242 0.0189008 0.024215048 0.24911028 -0.12580228 0.052829344 -0.06585229
0.29127076 0.265214 0.05440175 0.17922021 -0.11176236 0.052886926 0.17335847 -0.043841492
0.031188637 0.09465204 -0.0632445 0.025639318 -0.2656464 0.34193528 -0.19026347 -0.0700718
-0.1648004 0.23318899 -0.14874928 0.056821343 -0.41579017 0.26605797 0.106023036 0.025459662
-0.036933955 0.008384804 0.07656144 0.042763464 0.051353425 -0.040212687 0.06219228 0.12960568
-0.041042596 -0.013910409 0.15075015 -0.0923003 0.33812416 -0.0773156 0.06827642 -0.08495627
0.11926379 -0.15593952 -0.09653076 0.18636343 0.010740378 0.016086187 0.18390298 -0.08449381
0.20536062 -0.06677209 0.1980762 -0.20868681 0.16687274 -0.0055008233 -0.07167387 0.1657097
0.0901262 0.17036846 0.059550207 -0.089974426 -0.12806879 -0.06815607 0.0035661545 -0.06692432
-0.22780786 0.013930152 0.17920099 0.21793737 0.030091207 0.2232572 -0.12430735 -0.17470933
0.28005856 -0.040030334 0.17006677 -0.08147767 -0.08348127 0.150049 0.23077443 -0.076397955
-0.06881861 0.2388909 -0.14861667 -0.169694 0.12988883 -0.16273968 -0.16532616 0.31719008
0.071169645 -0.18696308 0.006909736 0.1678024 -0.08420514 0.17598838 0.18163514 -0.25425473
-0.0020518373 -0.022300208 -0.13547504 -0.050481036 -0.06373661 0.040721085 -0.07721834 0.20983218
-0.058003753 0.036503993 -0.17609334 0.053390086 0.12894689 -0.06191391 -0.0019199627 9.446555e-05
-0.035105724 0.13614048 0.0007377304 -0.09000455 0.13796793 -0.1631357 0.14264776 -0.28962186
00000000: 9b55 7e3e a6d7 a6ba 63f2 2abd 0ce0 38be
00000010: 9854 a63e 6d43 f53d b0a7 9dbc 81be 933d
00000020: ccfe 93be 7ffc 00bd 8c3d 1f3d bad5 8c3b
00000030: 7ceb 65bc 0800 1d3e 2f8f d1bc ee7a 02be
00000040: 826e 1d3e 4abc 58bc 4537 1fbd 6605 583e
00000050: 17df 4f3e 9eed 86be 73d4 803b 12f2 3d3d
00000060: b42f 35be d393 cd3d 48d7 84bd ad8b d03d
00000070: 87a1 4fbe 5b18 f73d beba 6ebe 3b81 d53c
00000080: 4727 b73e 851d 1abe 91a8 3a3e 46c6 413d
00000090: 945a 8a3e 330c 1ebe 8f3e 683d c618 833d
000000a0: 75fb fe3d d7f8 913e c8b2 39bd 4ec9 c9bc
000000b0: f210 423c 9d81 8e3d 94da b13c 7e69 92bd
000000c0: 8953 a4bc 4a19 58bc b8b9 a03d 6cf9 153e
000000d0: dc3c 03bd 8529 893d b615 f33d b553 d03d
000000e0: f053 753d 633b 393d 2de6 283b d0e7 e73d
000000f0: 6448 123e 7181 ebbc 1d60 d8bc 9908 c23e
00000100: 41ae af3e 59b3 d43d 44fb 453e 9e25 a7bc
00000110: ea31 c9bd 0961 c6bd 80b4 343e dbbd 673c
00000120: 9d45 52bd 0118 6e3e 699f 25be 2c05 6b3c
00000130: 6582 963c 571e 403e f1b5 de3c d1dc 8c3d
00000140: b863 adbc 805c 9bbd 72a5 13be 29ae 9ebd
00000150: e35d 91bd b946 8d3c 85ec 9e3d 8069 28bc
00000160: 4906 1b3b b9d4 89bd 38b6 61bd e3f9 043d
00000170: 275b e2bd 143c c23e c6a9 07be 436d 72bd
00000180: ceb2 393d fe99 7b3d 2f08 093e 090a 58bd
00000190: 97ed f4bb 9eaf 283e 1497 e63d 644a f63d
000001a0: d21d 313e ed9f 803c ee40 753d c6a5 a83d
000001b0: ed65 d83c 3347 24bd 492b aabd 5e82 693d
000001c0: c523 01be 5085 7b3e 66fd a2be 5691 303e
000001d0: 96ed b13b 1ebe 67be 44a0 3dbb bedc d43d
000001e0: b78a 323d 560b 7cbe f370 083e 883d e7bd
000001f0: f422 83bd 65a7 e6bd faed 603e b884 96bc
00000200: a49b 68bc 2035 8bbd dad5 9a3c a35e c63c
00000210: c416 7f3e 50d2 00be 9563 583d 91dd 86bd
00000220: 7121 953e 21ca 873e 5fd4 5e3d 8185 373e
00000230: aae3 e4bd f69f 583d e284 313e 2393 33bd
00000240: 507f ff3c eed8 c13d 5586 81bd 8c09 d23c
00000250: ce02 88be 2412 af3e 6dd4 42be ce81 8fbd
00000260: 70c1 28be 18c9 6e3e bb51 18be 7fbd 683d
00000270: 73e2 d4be c038 883e 9b22 d93d c890 d03c
00000280: 0f48 17bd 6b60 093c 3fcc 9c3d be28 2f3d
00000290: f857 523d 0fb6 24bd 55bd 7e3d 5ab7 043e
000002a0: 481c 28bd 7ce8 63bc 3f5e 1a3e f107 bdbd
000002b0: 9c1e ad3e a457 9ebd 82d4 8b3d 8efd adbd
000002c0: 9340 f43d 9cae 1fbe ebb1 c5bd 0ed6 3e3e
000002d0: 69f8 2f3c 2ec7 833c 1051 3c3e 170b adbd
000002e0: 0e4a 523e cebf 88bd 7dd4 4a3e ffb1 55be
000002f0: b0e0 2a3e 4040 b4bb c0c9 92bd ceaf 293e
00000300: 1694 b83d 1275 2e3e ebea 733d 8344 b8bd
00000310: 7724 03be 6995 8bbd 25b6 693b 9e0f 89bd
00000320: 7746 69be 4b3b 643c 7780 373e f92a 5f3e
00000330: d681 f63c 899d 643e da94 febd 01e7 32be
00000340: d663 8f3e d9f6 23bd fc25 2e3e c4dd a6bd
00000350: 3af8 aabd 72a6 193e 2250 6c3e 8876 9cbd
00000360: c5f0 8cbd d19f 743e f82e 18be 44c4 2dbe
00000370: 9401 053e 3ba5 26be 434b 29be bd66 a23e
00000380: 64c1 913d 4073 3fbe 116b e23b 64d4 2b3e
00000390: bf73 acbd 4c36 343e 90fe 393e ad2d 82be
000003a0: 1e78 06bb edae b6bc f8b9 0abe 34c5 4ebd
000003b0: 5788 82bd 27cb 263d a624 9ebd 3fde 563e
000003c0: 5895 6dbd 3685 153d d051 34be 90af 5a3d
000003d0: a70a 043e 7199 7dbd 42a7 fbba ce1b c638
000003e0: 05cb 0fbd 6968 0b3e 4064 413a 4e54 b8bd
000003f0: 7747 0d3e 0c0d 27be 4112 123e 5149 94be

network_body._body_endoder.seq_layers.0.bias f4 [128]
0.0 0.0 0.0 0.0 0.0 0.0 0.0 0.0
0.0 0.0 0.0 0.0 0.0 0.0 0.0 0.0
0.0 0.0 0.0 0.0 0.0 0.0 0.0 0.0
0.0 0.0 0.0 0.0 0.0 0.0 0.0 0.0
0.0 0.0 0.0 0.0 0.0 0.0 0.0 0.0
0.0 0.0 0.0 0.0 0.0 0.0 0.0 0.0
0.0 0.0 0.0 0.0 0.0 0.0 0.0 0.0
0.0 0.0 0.0 0.0 0.0 0.0 0.0 0.0
0.0 0.0 0.0 0.0 0.0 0.0 0.0 0.0
0.0 0.0 0.0 0.0 0.0 0.0 0.0 0.0
0.0 0.0 0.0 0.0 0.0 0.0 0.0 0.0
0.0 0.0 0.0 0.0 0.0 0.0 0.0 0.0
0.0 0.0 0.0 0.0 0.0 0.0 0.0 0.0
0.0 0.0 0.0 0.0 0.0 0.0 0.0 0.0
0.0 0.0 0.0 0.0 0.0 0.0 0.0 0.0
0.0 0.0 0.0 0.0 0.0 0.0 0.0 0.0
00000000: 0000 0000 0000 0000 0000 0000 0000 0000
00000010: 0000 0000 0000 0000 0000 0000 0000 0000
00000020: 0000 0000 0000 0000 0000 0000 0000 0000
00000030: 0000 0000 0000 0000 0000 0000 0000 0000
00000040: 0000 0000 0000 0000 0000 0000 0000 0000
00000050: 0000 0000 0000 0000 0000 0000 0000 0000
00000060: 0000 0000 0000 0000 0000 0000 0000 0000
00000070: 0000 0000 0000 0000 0000 0000 0000 0000
00000080: 0000 0000 0000 0000 0000 0000 0000 0000
00000090: 0000 0000 0000 0000 0000 0000 0000 0000
000000a0: 0000 0000 0000 0000 0000 0000 0000 0000
000000b0: 0000 0000 0000 0000 0000 0000 0000 0000
000000c0: 0000 0000 0000 0000 0000 0000 0000 0000
000000d0: 0000 0000 0000 0000 0000 0000 0000 0000
000000e0: 0000 0000 0000 0000 0000 0000 0000 0000
000000f0: 0000 0000 0000 0000 0000 0000 0000 0000
00000100: 0000 0000 0000 0000 0000 0000 0000 0000
00000110: 0000 0000 0000 0000 0000 0000 0000 0000
00000120: 0000 0000 0000 0000 0000 0000 0000 0000
00000130: 0000 0000 0000 0000 0000 0000 0000 0000
00000140: 0000 0000 0000 0000 0000 0000 0000 0000
00000150: 0000 0000 0000 0000 0000 0000 0000 0000
00000160: 0000 0000 0000 0000 0000 0000 0000 0000
00000170: 0000 0000 0000 0000 0000 0000 0000 0000
00000180: 0000 0000 0000 0000 0000 0000 0000 0000
00000190: 0000 0000 0000 0000 0000 0000 0000 0000
000001a0: 0000 0000 0000 0000 0000 0000 0000 0000
000001b0: 0000 0000 0000 0000 0000 0000 0000 0000
000001c0: 0000 0000 0000 0000 0000 0000 0000 0000
000001d0: 0000 0000 0000 0000 0000 0000 0000 0000
000001e0: 0000 0000 0000 0000 0000 0000 0000 0000
000001f0: 0000 0000 0000 0000 0000 0000 0000 0000

network_body._body_endoder.seq_layers.2.weight f4 [128, 128]
-0.06713779 0.06889975 -0.048827086 -0.010920839 0.09227311 -0.035367467 -0.01206397 0.007822515
0.018392531 -0.08974668 -0.013304476 0.07481604 0.16037448 -0.030315312 -0.080272235 0.041973863
-0.14634173 0.0437204 0.1069277 0.008318302 -0.0128943985 -0.06660033 -0.015244387 -0.1197535
-0.03922685 -0.00024860163 0.02187203 0.06834627 -0.01557805 0.018105814 0.08362548 -0.033838004
-0.09538183 -0.10654364 -0.03517515 -0.011344301 -0.06508829 -0.13478862 0.06423804 -0.17295244
0.10919063 0.032741547 0.16607821 -6.328874e-05 0.14835027 -0.020035919 -0.06108973 -0.059949134
0.16235813 -0.10495222 0.1542736 0.05932446 -0.016813023 0.039634515 -0.0026331032 -0.08727991
-0.0031554778 0.042375203 -0.03983074 -0.08324607 -0.055191133 0.05587095 -0.018217156 0.017933242
-0.13227177 -0.23694703 0.028117461 -0.014958942 0.09590959 0.0052677994 0.10093847 -0.08949632
0.08057403 0.06266553 -0.006881341 -0.16589111 -0.12457247 0.021500913 0.0163042 -0.13472567
-0.0026937495 0.095549256 -0.045841455 -0.03447782 0.01668146 -0.03518232 -0.048523016 -0.083014205
-0.080003835 -0.026101852 -0.12654115 -0.21683235 -0.023893641 -0.114018396 -0.08239373 -0.016304774
0.10759294 -0.047287047 -0.05355779 -0.03369676 -0.051320784 -0.0323621 0.00718233 0.086858004
-0.08107629 0.06574527 -0.059418917 -0.10991949 -0.24500272 0.055181902 -0.11940021 -0.036443014
0.007976299 -0.012485062 0.053417847 -0.0010867929 -0.036541305 -0.07425826 -0.005781156 0.11318738
0.05199762 -0.08825094 0.040800046 0.10473948 0.16465941 -0.008496813 0.12238153 0.09807084
-0.2819586 -0.04595785 -0.031466004 0.16133879 -0.038280282 -0.117092416 0.09040921 0.12668076
0.002828527 -0.03524355 -0.100048 0.015732609 0.21007468 -0.070913784 -0.008189987 -0.031526025
0.09181345 -0.040669486 -0.013689296 -0.15746064 -0.008988185 -0.0016931394 0.051862996 -0.03469402
-0.12149628 -0.048852094 -0.10594808 -0.025797553 -0.0498757 -0.05353991 -0.01960163 -0.06543735
0.086714655 0.12692247 -0.02273447 -0.029641297 -0.12020146 -0.0531191 -0.10840713 -0.0265513
0.05052084 0.050053775 -0.106617376 0.09002217 0.065058894 0.031627875 -0.007830429 0.029309371
-0.14342514 -0.03243709 0.050418377 -0.101301014 0.226392 -0.033071227 0.1578406 -0.18071453
-0.17064568 0.09062136 -0.12774694 0.008163743 0.29611063 0.07165891 -0.021278476 0.068778574
0.054484926 -0.15090443 -0.16541381 0.0048971805 0.06647188 -0.046511166 0.026538013 0.07426581
-0.08994565 0.035259265 -0.11757442 0.054909267 0.030708984 -0.120317385 0.18205424 0.05442596
-0.062036745 -0.102130905 -0.10078394 -0.107888386 -0.005299452 0.029943649 0.15461662 0.065060616
-0.07767504 -0.042843882 -0.14995791 -0.06495437 0.008119101 0.003222721 -0.0607346 0.05963073
-0.03635105 0.08215415 -0.0022788872 0.0824769 -0.06218978 0.12048178 0.04747538 -0.00933137
0.08369377 0.10357527 0.092370205 -0.013058612 0.008848645 -0.15183471 -0.14415464 -0.060429722
-0.0787919 0.026618643 0.009839713 0.0019853967 0.10507391 0.04451133 -0.0038122477 -0.045763616
-0.052108236 -0.059623245 -0.002276599 0.10884538 -0.039219942 0.027552279 0.07309917 0.07870677
00000000: 8a7f 89bd 501b 8d3d e9fe 47bd 52ed 32bc
00000010: aff9 bc3d 7add 10bd f5a7 45bc 022a 003c
00000020: efab 963c 1bcd b7bd 04fb 59bc 2739 993d
00000030: 3539 243e d157 f8bc c565 a4bd c9ec 2b3d
00000040: 9bda 15be 2a14 333d e9fc da3d 7d49 083c
00000050: 0743 53bc c165 88bd 98c3 79bc 5341 f5bd
00000060: 55ac 20bd bf56 82b9 f92c b33c 21f9 8b3d
00000070: 143b 7fbc a552 943c d643 ab3d b899 0abd
00000080: 8d57 c3bd 8d33 dabd d113 10bd 72dd 39bc
00000090: 024d 85bd 0706 0abe 3c8f 833d 721a 31be
000000a0: 569f df3d 001c 063d 6810 2a3e e2b9 84b8
000000b0: 22e9 173e 5e22 a4bc 3a39 7abd 398d 75bd
000000c0: 3641 263e 31f1 d6bd e6f9 1d3e 34fe 723d
000000d0: 77bb 89bc cd57 223d 2490 2cbb cfbf b2bd
000000e0: 22cc 4ebb 9f91 2d3d 8f25 23bd ea7c aabd
000000f0: 1910 62bd f0d8 643d 253c 95bc bce8 923c
00000100: 4072 07be 3ea2 72be 9756 e63c 5a16 75bc
00000110: 3f6c c43d 819d ac3b d4b8 ce3d d949 b7bd
00000120: ff03 a53d c956 803d df7c e1bb 5cdf 29be
00000130: da1f ffbd af22 b03c 6390 853c 87f5 09be
00000140: 9e89 30bb 54af c33d 40c4 3bbd 9d38 0dbd
00000150: 8fa7 883c 561b 10bd 12c0 46bd 5a03 aabd
00000160: 0dd9 a3bd 8dd3 d5bc 0194 01be 4d09 5ebe
00000170: 99bc c3bc 7a82 e9bd 0bbe a8bd 9791 85bc
00000180: b059 dc3d 10b0 41bd 6a5f 5bbd 9d05 0abd
00000190: be35 52bd 1f8e 04bd c059 eb3b 9ce2 b13d
000001a0: 530b a6bd 75a5 863d 4061 73bd 781d e1bd
000001b0: fee1 7abe 6b06 623d 1988 f4bd 4545 15bd
000001c0: 06af 023c 258e 4cbc accc 5a3d b872 8eba
000001d0: 56ac 15bd b714 98bd da6f bdbb c9ce e73d
000001e0: 75fb 543d e9bc b4bd f31d 273d a781 d63d
000001f0: 7a9c 283e 3736 0bbc 2ba3 fa3d 5dd9 c83d
00000200: e15c 90be 4c3e 3cbd 7fe2 00bd ff35 253e
00000210: c9cb 1cbd 26ce efbd 7728 b93d 9ab8 013e
00000220: cf5e 393b 8a5b 10bd f7e5 ccbd ace1 803c
00000230: d11d 573e 3f3b 91bd 4c2f 06bc 6f21 01bd
00000240: b108 bc3d 0c95 26bd 1249 60bc 5d3d 21be
00000250: 2e43 13bc 55ec ddba 4b6e 543d 511b 0ebd
00000260: 0bd3 f8bd 2219 48bd 4ffb d8bd 6455 d3bc
00000270: 764a 4cbd aa4c 5bbd 9993 a0bc 0404 86bd
00000280: 7497 b13d f7f7 013e a43d babc 4ed2 f2bc
00000290: 2f2c f6bd 6a93 59bd 8f04 debd 1d82 d9bc
000002a0: f1ee 4e3d 3005 4d3d 365a dabd 8b5d b83d
000002b0: 993d 853d 3b8c 013d 334b 00bc 351a f03c
000002c0: 0ade 12be c1dc 04bd 8083 4e3d e876 cfbd
000002d0: 4ed3 673e b275 07bd f7a0 213e 3b0d 39be
000002e0: bebd 2ebe b197 b93d 18d0 02be 38c1 053c
000002f0: d09b 973e e8c1 923d 3350 aebc c8db 8c3d
00000300: 962b 5f3d b186 1abe 3d62 29be 8778 a03b
00000310: 6922 883d 7e82 3ebd 3f66 d93c ac18 983d
00000320: 6d35 b8bd 056c 103d dcca f0bd 8ae8 603d
00000330: 6891 fb3c f668 f6bd 6d6c 3a3e c1ed 5e3d
00000340: 3e1a 7ebd 022a d1bd cf67 cebd 96f4 dcbd
00000350: 07a7 adbb 624c f53c d253 1e3e 803e 853d
00000360: 1714 9fbd 117d 2fbd 918e 19be cc06 85bd
00000370: fa05 053c 4934 533b d8c4 78bd 5a3f 743d
00000380: d7e4 14bd 6f40 a83d 6259 15bb a6e9 a83d
00000390: b6ba 7ebd 27bf f63d 8b75 423d 9ae2 18bc
000003a0: a467 ab3d 451f d43d 972c bd3d caf3 55bc
000003b0: e8f9 103c 8f7a 1bbe 469d 13be 2885 77bd
000003c0: a65d a1bd 570f da3c bf36 213c 6e1d 023b
000003d0: fd30 d73d 8351 363d e7d6 79bb a172 3bbd
000003e0: 726f 55bd 8137 74bd fe32 15bb 54ea de3d
000003f0: 17a5 20bd 51b5 e13c 05b5 953d 0431 a13d

network_body._body_endoder.seq_layers.2.bias f4 [128]
0.0 0.0 0.0 0.0 0.0 0.0 0.0 0.0
0.0 0.0 0.0 0.0 0.0 0.0 0.0 0.0
0.0 0.0 0.0 0.0 0.0 0.0 0.0 0.0
0.0 0.0 0.0 0.0 0.0 0.0 0.0 0.0
0.0 0.0 0.0 0.0 0.0 0.0 0.0 0.0
0.0 0.0 0.0 0.0 0.0 0.0 0.0 0.0
0.0 0.0 0.0 0.0 0.0 0.0 0.0 0.0
0.0 0.0 0.0 0.0 0.0 0.0 0.0 0.0
0.0 0.0 0.0 0.0 0.0 0.0 0.0 0.0
0.0 0.0 0.0 0.0 0.0 0.0 0.0 0.0
0.0 0.0 0.0 0.0 0.0 0.0 0.0 0.0
0.0 0.0 0.0 0.0 0.0 0.0 0.0 0.0
0.0 0.0 0.0 0.0 0.0 0.0 0.0 0.0
0.0 0.0 0.0 0.0 0.0 0.0 0.0 0.0
0.0 0.0 0.0 0.0 0.0 0.0 0.0 0.0
0.0 0.0 0.0 0.0 0.0 0.0 0.0 0.0
00000000: 0000 0000 0000 0000 0000 0000 0000 0000
00000010: 0000 0000 0000 0000 0000 0000 0000 0000
00000020: 0000 0000 0000 0000 0000 0000 0000 0000
00000030: 0000 0000 0000 0000 0000 0000 0000 0000
00000040: 0000 0000 0000 0000 0000 0000 0000 0000
00000050: 0000 0000 0000 0000 0000 0000 0000 0000
00000060: 0000 0000 0000 0000 0000 0000 0000 0000
00000070: 0000 0000 0000 0000 0000 0000 0000 0000
00000080: 0000 0000 0000 0000 0000 0000 0000 0000
00000090: 0000 0000 0000 0000 0000 0000 0000 0000
000000a0: 0000 0000 0000 0000 0000 0000 0000 0000
000000b0: 0000 0000 0000 0000 0000 0000 0000 0000
000000c0: 0000 0000 0000 0000 0000 0000 0000 0000
000000d0: 0000 0000 0000 0000 0000 0000 0000 0000
000000e0: 0000 0000 0000 0000 0000 0000 0000 0000
000000f0: 0000 0000 0000 0000 0000 0000 0000 0000
00000100: 0000 0000 0000 0000 0000 0000 0000 0000
00000110: 0000 0000 0000 0000 0000 0000 0000 0000
00000120: 0000 0000 0000 0000 0000 0000 0000 0000
00000130: 0000 0000 0000 0000 0000 0000 0000 0000
00000140: 0000 0000 0000 0000 0000 0000 0000 0000
00000150: 0000 0000 0000 0000 0000 0000 0000 0000
00000160: 0000 0000 0000 0000 0000 0000 0000 0000
00000170: 0000 0000 0000 0000 0000 0000 0000 0000
00000180: 0000 0000 0000 0000 0000 0000 0000 0000
00000190: 0000 0000 0000 0000 0000 0000 0000 0000
000001a0: 0000 0000 0000 0000 0000 0000 0000 0000
000001b0: 0000 0000 0000 0000 0000 0000 0000 0000
000001c0: 0000 0000 0000 0000 0000 0000 0000 0000
000001d0: 0000 0000 0000 0000 0000 0000 0000 0000
000001e0: 0000 0000 0000 0000 0000 0000 0000 0000
000001f0: 0000 0000 0000 0000 0000 0000 0000 0000
