results - copia/PruebaAgenteRenovado/AgenteCoche/AgenteCoche-0.onnx (onnx, 85219 bytes, 9 tensors)

60 f4 [28]
0	0x3f800000	1.0
1	0x3f800000	1.0
2	0x3f800000	1.0
3	0x3f800000	1.0
4	0x3f800000	1.0
5	0x3f800000	1.0
6	0x3f800000	1.0
7	0x3f800000	1.0
8	0x3f800000	1.0
9	0x3f800000	1.0
10	0x3f800000	1.0
11	0x3f800000	1.0
12	0x3f800000	1.0
13	0x3f800000	1.0
14	0x3f800000	1.0
15	0x3f800000	1.0
16	0x3f800000	1.0
17	0x3f800000	1.0
18	0x3f800000	1.0
19	0x3f800000	1.0
20	0x3f800000	1.0
21	0x3f800000	1.0
22	0x3f800000	1.0
23	0x3f800000	1.0
24	0x3f800000	1.0
25	0x3f800000	1.0
26	0x3f800000	1.0
27	0x3f800000	1.0

action_model._continuous_distribution.log_sigma f4 [1, 2]
0	0x00000000	0.0
1	0x00000000	0.0

action_model._continuous_distribution.mu.bias f4 [2]
0	0x00000000	0.0
1	0x00000000	0.0

action_model._continuous_distribution.mu.weight f4 [2, 128]
0	0x3c6e1212	0.0145306755
1	0xbbcfda2a	-0.006343146
2	0x3c880f57	0.016608877
3	0xbccc3483	-0.024927383
4	0x3c1f1ec0	0.009711921
5	0xbc6014d5	-0.013676842
6	0x3b577b93	0.0032880052
7	0x3c8cf8ce	0.017208483
8	0x3cbea46e	0.023271766
9	0x3b4da4d8	0.0031378772
10	0xbbef109f	-0.0072956826
11	0xbc163abe	-0.009169279
12	0xbc68f365	-0.014218186
13	0xbc59e782	-0.013299825
14	0x3c6fcbbb	0.0146359755
15	0xbc3d3c80	-0.011550069
16	0xba0d12ac	-0.00053815055
17	0xb9ccf1a5	-0.0003908995
18	0xbc361828	-0.011114158
19	0xbc5ea6d2	-0.013589578
20	0xbbc109a3	-0.0058910414
21	0x3c073e9c	0.008254673
22	0xbcd781f0	-0.026307076
23	0xbc585bd3	-0.013205486
24	0x3b075045	0.002064721
25	0xbbd073db	-0.0063614673
26	0xbc886f35	-0.01665459
27	0x3cc94703	0.024569994
28	0xbcc60a8e	-0.024174955
29	0xbc4119ef	-0.011785968
30	0x3c80ecf5	0.01573799
31	0x3d197e5e	0.03747403
32	0x3cdb35fa	0.026759136
33	0x3bbfb5f4	0.005850548
34	0xbca8e230	-0.020615667
35	0xbd020903	-0.031746875
36	0xbc426d05	-0.011866813
37	0x3c97bc6e	0.018522467
38	0xbc8e9cf8	-0.017408833
39	0xbbacfef4	-0.005279416
40	0xbbb2a2e3	-0.0054515465
41	0x3c7ac332	0.015305327
42	0xbc4cb53a	-0.01249438
43	0xbc996b53	-0.018727934
44	0x3bec2b8a	0.0072073387
45	0x3c682b52	0.014170485
46	0xbb5ad203	-0.0033389337
47	0x3ca97717	0.02068667
48	0x3d1056ba	0.03523896
49	0x3cb55f03	0.022140032
50	0xba97ec65	-0.0011590837
51	0x3cf218f3	0.029552912
52	0xbbea0f7a	-0.007142958
53	0x3c0e3723	0.008680138
54	0x3d016208	0.03158763
55	0xba68d8f5	-0.0008882427
56	0xbabdf947	-0.0014493846
57	0xbc36df49	-0.011161634
58	0x390f9065	0.00013691334
59	0xbcdc606b	-0.026901444
60	0x3c252721	0.01008013
61	0x3c28de4f	0.010306909
62	0xbc6301df	-0.013855427
63	0xb9e7aee3	-0.00044190054
64	0x3c75d378	0.015004031
65	0x3c539bbb	0.012915547
66	0xbcc16e0c	-0.023612045
67	0xbc72c8bd	-0.014818368
68	0x3c265953	0.0101531325
69	0x3be0d62d	0.0068614692
70	0x3c2a2ec6	0.010387128
71	0xbc0d556c	-0.008626323
72	0x3c865da8	0.01640208
73	0xbb353cce	-0.002765465
74	0x3cd04418	0.025423095
75	0xbc96fee5	-0.01843209
76	0xb9e700d8	-0.00044060382
77	0x3b9aed79	0.004728016
78	0x3ca54fb4	0.020179607
79	0x3c310e29	0.010806599
80	0x3c88d042	0.016700868
81	0xba09ff5a	-0.00052641856
82	0x3cd827e0	0.026386201
83	0x3cb61a58	0.022229359
84	0x39972fc3	0.0002883655
85	0x3c4c69ff	0.012476443
86	0x3a9680e7	0.0011482508
87	0xbcacc27a	-0.021088827
88	0xb8bad40a	-8.9086665e-05
89	0x3c5d586a	0.013509849
90	0x3cae67bf	0.021289704
91	0xbcadad8e	-0.021200921
92	0x3ca319e9	0.019909816
93	0x39740c1b	0.00023274163
94	0x3c6c6162	0.014427515
95	0x3c85e912	0.016346488
96	0x3cccb7ae	0.024989929
97	0x3c0d2b19	0.008616232
98	0x3c94ceb3	0.018164968
99	0xba426527	-0.00074155856
100	0x3b35dcf4	0.0027750107
101	0xbbb2c3d3	-0.005455473
102	0xbc36f1a3	-0.011166009
103	0xbd0e4b72	-0.03473992
104	0x3c416873	0.011804688
105	0x3c40b2fb	0.011761422
106	0x3cf4e60d	0.029894853
107	0x3ce55b1d	0.027997548
108	0x3c864c37	0.016393764
109	0xbcc66416	-0.024217647
110	0xbc1451e5	-0.009052728
111	0xbb4974dc	-0.003073982
112	0x3bd0ff07	0.006378058
113	0x3c6c90ca	0.014438817
114	0x3d42badf	0.047541495
115	0xbcdbfa08	-0.026852623
116	0x3a49efc4	0.00077032694
117	0x3bc83e31	0.0061109294
118	0xbc1ac6e3	-0.009446832
119	0x3cd8fcd3	0.026487743
120	0x3cb0d403	0.02158547
121	0xbc75cfe2	-0.015003176
122	0x3c74d1dd	0.014942613
123	0x3c9888fb	0.018620005
124	0x3ba7eff7	0.0051250416
125	0x3ba1fb6f	0.0049433033
126	0xbcbe3d98	-0.02322273
127	0xbcd7f958	-0.026364014
128	0xbb87f551	-0.004149117
129	0xbcfe9b6d	-0.031079972
130	0xbcc435ab	-0.023951372
131	0xba9e3840	-0.0012071207
132	0x3c2375f3	0.009976852
133	0x3c450f43	0.012027564
134	0x3af3dfc8	0.0018606121
135	0x3b5e5d82	0.0033930247
136	0xba287865	-0.00064266316
137	0xbbec4380	-0.007210195
138	0x3cb2879a	0.021793175
139	0xb6b09ef4	-5.2637133e-06
140	0xbc172912	-0.0092261005
141	0xbc987144	-0.018608697
142	0xbc9e0891	-0.019291194
143	0x3b3f2b3f	0.0029170064
144	0x3c77cda5	0.015124713
145	0xbb182dd6	-0.002322068
146	0xbc8c43e6	-0.01712222
147	0x3c995a4c	0.018719815
148	0x3ce165a0	0.027514279
149	0x3ca2e770	0.019885749
150	0xb88d4bfe	-6.7375586e-05
151	0x3c4b4c7b	0.012408371
152	0x3a46a394	0.00075774756
153	0xba8d7b57	-0.0010794204
154	0xbcd2319d	-0.025658423
155	0x3cf5dc8d	0.030012393
156	0xbcd5427d	-0.02603268
157	0xbb803c71	-0.003913455
158	0x3b95dead	0.004573664
159	0x3c9b0343	0.018922454
160	0x3c48a12c	0.012245458
161	0xbbdfb8e0	-0.0068274587
162	0xbc8d5bc0	-0.017255664
163	0xbbe275e8	-0.006911028
164	0x3d44c8c7	0.04804304
165	0x3cef5ced	0.029219115
166	0xbd2ae658	-0.04172358
167	0xbc87c3cb	-0.016572854
168	0x3b8e4a00	0.0043423176
169	0x3c4ab676	0.012372604
170	0x3c8bdde3	0.017073577
171	0x3c3fc663	0.011705014
172	0xbc8f2baf	-0.017476885
173	0x3cb5488e	0.022129323
174	0xbc08bc80	-0.008345723
175	0xbc56f523	-0.013119969
176	0xba49f685	-0.0007704276
177	0x3cd77b00	0.026303768
178	0x3c3ace88	0.01140178
179	0xbcecaaf8	-0.028890118
180	0xbc32abcf	-0.01090522
181	0xbafaa62f	-0.0019123013
182	0x3c8ed8b5	0.017437318
183	0xbcca1d3a	-0.02467214
184	0xbcfbdb72	-0.030744288
185	0x3c4ffe60	0.012694925
186	0x3cb41e57	0.021987123
187	0x3c0e9ecc	0.008704852
188	0xbbfce67a	-0.0077179046
189	0x3d2b00ab	0.041748684
190	0x3bc1db92	0.0059160674
191	0x3b78fc67	0.003799224
192	0xbd212513	-0.039341997
193	0xbc0eec02	-0.008723261
194	0x3c8f8bc5	0.017522702
195	0xbb683318	-0.0035430845
196	0x3ca2e3cf	0.019884018
197	0xbbeb86fa	-0.0071877213
198	0x3be1bb50	0.0068887845
199	0xbc2afe28	-0.010436572
200	0xbbcc204b	-0.0062294356
201	0x3c9f3517	0.019434495
202	0x3cc0469e	0.023471173
203	0x3c60058b	0.013673197
204	0xbc8a3ef2	-0.016875718
205	0x3b90dd98	0.0044209473
206	0xbca3dae2	-0.020001832
207	0xbc886fa3	-0.016654795
208	0xbc6313c0	-0.013859689
209	0x3cf1ca15	0.029515306
210	0x3cbb806a	0.022888381
211	0xba69a355	-0.0008912583
212	0x3c8e9225	0.017403672
213	0xbc99ccf2	-0.018774483
214	0x3d1fb884	0.038994327
215	0xbce510cd	-0.027962113
216	0xbcaadb3f	-0.020856498
217	0x3cfd486b	0.03091832
218	0xbbe5ff72	-0.007018977
219	0x3be84472	0.0070882374
220	0x3d159d8c	0.0365272
221	0xbc5ed1f2	-0.01359986
222	0x3c4dea4d	0.012568069
223	0xbc63f60a	-0.013913641
224	0x3c166beb	0.009181003
225	0x3c754fd7	0.014972649
226	0x3ca44a6b	0.020055017
227	0xbc82b8b3	-0.015957212
228	0xbafd24c5	-0.0019313326
229	0xbcbaff3d	-0.022826785
230	0xbd18e783	-0.03733016
231	0x3b9e9009	0.0048389477
232	0xbb21d31d	-0.0024692484
233	0x3bea2370	0.0071453378
234	0xbbadacaa	-0.005300124
235	0x3b0e38a8	0.002170125
236	0xbaf656f5	-0.0018794226
237	0xbd4bc1af	-0.049745258
238	0x3cafcadf	0.021459041
239	0xbbe1bd82	-0.006889046
240	0xbc5ee2c2	-0.013603868
241	0xbc85a851	-0.016315611
242	0x3c21f9c6	0.009886211
243	0xbce010c3	-0.027351743
244	0xbc9010a6	-0.017586064
245	0x3cb40fb3	0.021980142
246	0x3bfec8fa	0.007775423
247	0xbcda4d40	-0.026648164
248	0x3c44ecf0	0.012019381
249	0x3a122d13	0.00055761746
250	0xb93dbee2	-0.00018095554
251	0x3c3ee85c	0.0116520785
252	0xbbf052cb	-0.0073340884
253	0x3cc38096	0.023865025
254	0x3b5180e3	0.0031967692
255	0xbc37b132	-0.01121168

network_body._body_endoder.seq_layers.0.bias f4 [128]
0	0x00000000	0.0
1	0x00000000	0.0
2	0x00000000	0.0
3	0x00000000	0.0
4	0x00000000	0.0
5	0x00000000	0.0
6	0x00000000	0.0
7	0x00000000	0.0
8	0x00000000	0.0
9	0x00000000	0.0
10	0x00000000	0.0
11	0x00000000	0.0
12	0x00000000	0.0
13	0x00000000	0.0
14	0x00000000	0.0
15	0x00000000	0.0
16	0x00000000	0.0
17	0x00000000	0.0
18	0x00000000	0.0
19	0x00000000	0.0
20	0x00000000	0.0
21	0x00000000	0.0
22	0x00000000	0.0
23	0x00000000	0.0
24	0x00000000	0.0
25	0x00000000	0.0
26	0x00000000	0.0
27	0x00000000	0.0
28	0x00000000	0.0
29	0x00000000	0.0
30	0x00000000	0.0
31	0x00000000	0.0
32	0x00000000	0.0
33	0x00000000	0.0
34	0x00000000	0.0
35	0x00000000	0.0
36	0x00000000	0.0
37	0x00000000	0.0
38	0x00000000	0.0
39	0x00000000	0.0
40	0x00000000	0.0
41	0x00000000	0.0
42	0x00000000	0.0
43	0x00000000	0.0
44	0x00000000	0.0
45	0x00000000	0.0
46	0x00000000	0.0
47	0x00000000	0.0
48	0x00000000	0.0
49	0x00000000	0.0
50	0x00000000	0.0
51	0x00000000	0.0
52	0x00000000	0.0
53	0x00000000	0.0
54	0x00000000	0.0
55	0x00000000	0.0
56	0x00000000	0.0
57	0x00000000	0.0
58	0x00000000	0.0
59	0x00000000	0.0
60	0x00000000	0.0
61	0x00000000	0.0
62	0x00000000	0.0
63	0x00000000	0.0
64	0x00000000	0.0
65	0x00000000	0.0
66	0x00000000	0.0
67	0x00000000	0.0
68	0x00000000	0.0
69	0x00000000	0.0
70	0x00000000	0.0
71	0x00000000	0.0
72	0x00000000	0.0
73	0x00000000	0.0
74	0x00000000	0.0
75	0x00000000	0.0
76	0x00000000	0.0
77	0x00000000	0.0
78	0x00000000	0.0
79	0x00000000	0.0
80	0x00000000	0.0
81	0x00000000	0.0
82	0x00000000	0.0
83	0x00000000	0.0
84	0x00000000	0.0
85	0x00000000	0.0
86	0x00000000	0.0
87	0x00000000	0.0
88	0x00000000	0.0
89	0x00000000	0.0
90	0x00000000	0.0
91	0x00000000	0.0
92	0x00000000	0.0
93	0x00000000	0.0
94	0x00000000	0.0
95	0x00000000	0.0
96	0x00000000	0.0
97	0x00000000	0.0
98	0x00000000	0.0
99	0x00000000	0.0
100	0x00000000	0.0
101	0x00000000	0.0
102	0x00000000	0.0
103	0x00000000	0.0
104	0x00000000	0.0
105	0x00000000	0.0
106	0x00000000	0.0
107	0x00000000	0.0
108	0x00000000	0.0
109	0x00000000	0.0
110	0x00000000	0.0
111	0x00000000	0.0
112	0x00000000	0.0
113	0x00000000	0.0
114	0x00000000	0.0
115	0x00000000	0.0
116	0x00000000	0.0
117	0x00000000	0.0
118	0x00000000	0.0
119	0x00000000	0.0
120	0x00000000	0.0
121	0x00000000	0.0
122	0x00000000	0.0
123	0x00000000	0.0
124	0x00000000	0.0
125	0x00000000	0.0
126	0x00000000	0.0
127	0x00000000	0.0

network_body._body_endoder.seq_layers.0.weight f4 [128, 29]
0	0xbcf78650	-0.030215412
1	0x3e5dc2ef	0.21656393
2	0xbe10e25b	-0.14148848
3	0x3e36c764	0.17849499
4	0x3e0c1d31	0.1368301
5	0xbdcb9b4d	-0.09941731
6	0x3e907e4c	0.28221357
7	0x3d2c2aed	0.042033125
8	0xbd91a5f2	-0.0711173
9	0xbd8f6114	-0.07000938
10	0x3e7d0fbe	0.24713036
11	0xbe331fc6	-0.1749259
12	0xbd9e15c7	-0.077189974
13	0x3d4b06ae	0.049566917
14	0xbe075b7b	-0.13218491
15	0xbcfccee4	-0.030860372
16	0x3e8673b1	0.2626014
17	0xbeab2785	-0.33428589
18	0x3d9272b9	0.07150788
19	0x3ed4b46b	0.41543898
20	0x3e7adc09	0.24497999
21	0x3d7e6a01	0.062112812
22	0xbeabc1de	-0.33546346
23	0x3ef069a5	0.469556
24	0x3d94a20f	0.07257473
25	0xbdd2c154	-0.10290781
26	0xbd1f0eab	-0.038832348
27	0xbde630bb	-0.11239763
28	0x3dbdfede	0.09277128
29	0x3c224dc3	0.009906235
30	0x3e09b1bc	0.13446707
31	0xbe3648fa	-0.17801276
32	0xbe9cfad5	-0.3066012
33	0x3e59c6c8	0.21267235
34	0xbe0cb12c	-0.1373946
35	0xbd38673c	-0.045020327
36	0x3e070450	0.13185239
37	0x3de6098a	0.11232288
38	0x3e83257e	0.25614542
39	0xbcbbbcc7	-0.022917164
40	0xbe5726ba	-0.21010867
41	0x3e6eda5f	0.2332549
42	0xbdaa1ce3	-0.08306291
43	0x3d223fe5	0.039611716
44	0x3cc9a3ea	0.024614293
45	0xbe40411e	-0.1877484
46	0xbded4089	-0.11584575
47	0xbcff869a	-0.031192113
48	0xbd160245	-0.03662326
49	0xbe1b9b2b	-0.1519591
50	0x3d30011d	0.04296981
51	0xbe8ca609	-0.27470425
52	0x3e19aec6	0.15008077
53	0x3ea6f79c	0.32610786
54	0x3893acba	7.041679e-05
55	0xbb9379d6	-0.004500608
56	0xbaf9f948	-0.0019071484
57	0xbe0c1083	-0.13678174
58	0x3c225d85	0.009909992
59	0x3d05f4d6	0.032704197
60	0xbe39ef42	-0.18157676
61	0x3e487617	0.19576298
62	0x3d746d83	0.05967475
63	0x3c6ecbf0	0.01457499
64	0x3dbb5b3c	0.09148261
65	0xbd9e5a4c	-0.077320665
66	0xbea1e148	-0.31617188
67	0x3d7547e0	0.059883
68	0xbd1da7e3	-0.038490187
69	0xbdbd2e66	-0.092373654
70	0xbea98745	-0.33111015
71	0xbc2eba37	-0.010664514
72	0xbea48f3b	-0.32140526
73	0x3e05d974	0.13071233
74	0xbefd6d74	-0.4949757
75	0x3d02735f	0.031848308
76	0x3e6c5cf7	0.23082338
77	0x3e1dd53f	0.15413378
78	0xbc854614	-0.016268767
79	0xbe43d381	-0.19123651
80	0x3e5d7a86	0.2162877
81	0xbcafbb55	-0.021451632
82	0xbd914910	-0.07094014
83	0xbafbb735	-0.001920438
84	0x3d21d688	0.039511234
85	0x3c6f6567	0.014611579
86	0xbc81fd55	-0.015867868
87	0x3e7f5015	0.24932893
88	0x3ddc1bda	0.107475
89	0x3e2114a5	0.15730532
90	0x3ecaef2d	0.39635602
91	0xbcd3a7cc	-0.025836848
92	0xbd76f730	-0.06029433
93	0xbe20a2c7	-0.15687095
94	0xbd8edfb9	-0.069762655
95	0xbeba4c60	-0.36386395
96	0xbd45600f	-0.04818731
97	0x3c8660f5	0.016403655
98	0x3dc6b153	0.09701791
99	0x3ce9429d	0.028474147
100	0x3c785141	0.015156091
101	0xbe21469c	-0.15749592
102	0x3d5b18df	0.053490516
103	0xbe08ed20	-0.13371706
104	0xbca9bdd6	-0.020720404
105	0x3e78884b	0.24270742
106	0x3db81c69	0.08989794
107	0x3eacd259	0.33754233
108	0x3da1cabe	0.07899998
109	0xbe11ad4b	-0.14226262
110	0x3e6bf876	0.23043999
111	0xba8ade9f	-0.0010594911
112	0xbd999dee	-0.07500826
113	0x3e0fd2cc	0.14045256
114	0x3cbf7c97	0.023374839
115	0x3ea9a71d	0.3313531
116	0xbddd5c4c	-0.1080862
117	0x3e2c0488	0.16798604
118	0xbd6a7c8c	-0.057247683
119	0xbe694431	-0.22779919
120	0x3ca80c17	0.020513577
121	0x3ce12c72	0.027487013
122	0xbdb7e350	-0.08978903
123	0xbd98d163	-0.07461812
124	0x3dd55219	0.104160495
125	0x3eb03ac0	0.34419823
126	0xbc362a7d	-0.011118528
127	0x3e6b7094	0.22992164
128	0x3d11c637	0.035589423
129	0xbe35f750	-0.17770123
130	0xbbd10ae5	-0.0063794726
131	0xbe59aaa9	-0.21256508
132	0x3dd12677	0.10212415
133	0x3e22a856	0.15884528
134	0x3e45b15c	0.19305938
135	0x3e22adb6	0.15886578
136	0xbe50fb22	-0.204083
137	0x3e898334	0.26857913
138	0xbdedaab2	-0.11604823
139	0xbe031d97	-0.12804256
140	0x3e7987e4	0.24368244
141	0xbc8fab75	-0.017537812
142	0x3d04aaaf	0.03238934
143	0x3e76af5d	0.24090333
144	0x3c24964e	0.010045601
145	0xbd19512b	-0.037430923
146	0xbd844c06	-0.06459813
147	0x3dd7ad2f	0.10531079
148	0xbd2472f1	-0.04014868
149	0x3e0630b4	0.13104516
150	0x3d380768	0.04492894
151	0xbe320028	-0.17382872
152	0x3e3825e6	0.17983207
153	0x3d4ccc7a	0.04999969
154	0xbea73ce7	-0.32663652
155	0x3d99d069	0.07510454
156	0x3ace7b1e	0.0015753245
157	0x3e36030e	0.17774603
158	0xbe670e59	-0.22564067
159	0x3d848f23	0.06472614
160	0x3daf969e	0.0857365
161	0x3cf4d492	0.029886518
162	0xbe2fbe18	-0.17162359
163	0xbdd1d6ea	-0.1024607
164	0x3e9aec20	0.30258274
165	0xbb0edee9	-0.0021800345
166	0xbe04ed20	-0.12981081
167	0x3e98aaae	0.29817718
168	0xbdac8680	-0.08424091
169	0x3e069e52	0.13146332
170	0xbe2194d6	-0.15779433
171	0x3be0a0e2	0.006855116
172	0x3e208835	0.15676959
173	0xbe32a831	-0.17446972
174	0xbdb57378	-0.088599145
175	0xbe821929	-0.2540982
176	0x3dda38d7	0.106553726
177	0xbdf068c3	-0.11738732
178	0x3ea06fad	0.31335202
179	0xbe2f2e78	-0.1710757
180	0xbe05df18	-0.13073385
181	0xbe154faa	-0.1458117
182	0x3e468513	0.19386701
183	0xbe74ab27	-0.23893414
184	0xbdc79ea4	-0.09747055
185	0x3da87939	0.082262464
186	0xbe91f6a1	-0.28508475
187	0xbe06eb6f	-0.13175748
188	0xbe3fa361	-0.18714668
189	0xbdb28931	-0.087175734
190	0xbe34b2f6	-0.17646393
191	0xbd9a1f4b	-0.075255
192	0xbda57385	-0.08078674
193	0x3ce112c1	0.027474763
194	0x3e6166ab	0.22011821
195	0xbec8f9fb	-0.3925322
196	0xbc9f5b0c	-0.019452594
197	0x3d971823	0.073776506
198	0xbdd45dfa	-0.10369487
199	0x3e097790	0.13424516
200	0x3ca54987	0.020176662
201	0x3ea0f96d	0.31440297
202	0xbd7d6c49	-0.061870847
203	0x3e027023	0.1273809
204	0x3df9db23	0.122
205	0xbe98bbcb	-0.29830775
206	0xbe984b83	-0.2974511
207	0xbd664826	-0.05622115
208	0xbe8ba524	-0.2727443
209	0x3cb2354e	0.021753933
210	0xbe993ab0	-0.29927588
211	0xbd97844b	-0.0739828
212	0x3c8adad9	0.016950058
213	0xbde5b21c	-0.11215612
214	0xbc9b7cdf	-0.018980442
215	0xbe02cf2c	-0.12774342
216	0x3e7044e0	0.23463774
217	0xbe07ed17	-0.13274036
218	0x3d21e43b	0.0395243
219	0xbdc22236	-0.094791815
220	0xbd6aca31	-0.05732173
221	0x3d90751a	0.07053585
222	0xbf059ea4	-0.5219519
223	0x3e22c84a	0.15896717
224	0x3e0727b6	0.13198742
225	0xbd938200	-0.0720253
226	0x3e545054	0.20733768
227	0xbd98187b	-0.07426544
228	0x3dfb6906	0.12275891
229	0xbe70c6d1	-0.23513342
230	0x3e752a65	0.23941953
231	0xbdd04e67	-0.10171204
232	0x3e662948	0.22476685
233	0xbdf8e7a3	-0.12153556
234	0xbc3006aa	-0.010743776
235	0x3deec946	0.116594836
236	0xbdab2338	-0.08356327
237	0xbe01b31a	-0.12665978
238	0x3d676fd6	0.05650314
239	0xbe8ce3bc	-0.27517498
240	0x3e0f949d	0.14021535
241	0x3e0e27e4	0.13882405
242	0x3a82e60f	0.0009986776
243	0x3dc20118	0.09472865
244	0xbe43e7b4	-0.19131356
245	0x3be53116	0.006994377
246	0xbe6f2228	-0.23352873
247	0x3dbdf8d5	0.092759766
248	0xbe179137	-0.14801489
249	0x3e84d59a	0.25944215
250	0x3e70d7fb	0.2351989
251	0xbe210a80	-0.15726662
252	0x3d90f2a6	0.070775315
253	0x3cb1077f	0.02161002
254	0xbe33275a	-0.1749548
255	0x3d093c47	0.03350475

network_body._body_endoder.seq_layers.2.bias f4 [128]
0	0x00000000	0.0
1	0x00000000	0.0
2	0x00000000	0.0
3	0x00000000	0.0
4	0x00000000	0.0
5	0x00000000	0.0
6	0x00000000	0.0
7	0x00000000	0.0
8	0x00000000	0.0
9	0x00000000	0.0
10	0x00000000	0.0
11	0x00000000	0.0
12	0x00000000	0.0
13	0x00000000	0.0
14	0x00000000	0.0
15	0x00000000	0.0
16	0x00000000	0.0
17	0x00000000	0.0
18	0x00000000	0.0
19	0x00000000	0.0
20	0x00000000	0.0
21	0x00000000	0.0
22	0x00000000	0.0
23	0x00000000	0.0
24	0x00000000	0.0
25	0x00000000	0.0
26	0x00000000	0.0
27	0x00000000	0.0
28	0x00000000	0.0
29	0x00000000	0.0
30	0x00000000	0.0
31	0x00000000	0.0
32	0x00000000	0.0
33	0x00000000	0.0
34	0x00000000	0.0
35	0x00000000	0.0
36	0x00000000	0.0
37	0x00000000	0.0
38	0x00000000	0.0
39	0x00000000	0.0
40	0x00000000	0.0
41	0x00000000	0.0
42	0x00000000	0.0
43	0x00000000	0.0
44	0x00000000	0.0
45	0x00000000	0.0
46	0x00000000	0.0
47	0x00000000	0.0
48	0x00000000	0.0
49	0x00000000	0.0
50	0x00000000	0.0
51	0x00000000	0.0
52	0x00000000	0.0
53	0x00000000	0.0
54	0x00000000	0.0
55	0x00000000	0.0
56	0x00000000	0.0
57	0x00000000	0.0
58	0x00000000	0.0
59	0x00000000	0.0
60	0x00000000	0.0
61	0x00000000	0.0
62	0x00000000	0.0
63	0x00000000	0.0
64	0x00000000	0.0
65	0x00000000	0.0
66	0x00000000	0.0
67	0x00000000	0.0
68	0x00000000	0.0
69	0x00000000	0.0
70	0x00000000	0.0
71	0x00000000	0.0
72	0x00000000	0.0
73	0x00000000	0.0
74	0x00000000	0.0
75	0x00000000	0.0
76	0x00000000	0.0
77	0x00000000	0.0
78	0x00000000	0.0
79	0x00000000	0.0
80	0x00000000	0.0
81	0x00000000	0.0
82	0x00000000	0.0
83	0x00000000	0.0
84	0x00000000	0.0
85	0x00000000	0.0
86	0x00000000	0.0
87	0x00000000	0.0
88	0x00000000	0.0
89	0x00000000	0.0
90	0x00000000	0.0
91	0x00000000	0.0
92	0x00000000	0.0
93	0x00000000	0.0
94	0x00000000	0.0
95	0x00000000	0.0
96	0x00000000	0.0
97	0x00000000	0.0
98	0x00000000	0.0
99	0x00000000	0.0
100	0x00000000	0.0
101	0x00000000	0.0
102	0x00000000	0.0
103	0x00000000	0.0
104	0x00000000	0.0
105	0x00000000	0.0
106	0x00000000	0.0
107	0x00000000	0.0
108	0x00000000	0.0
109	0x00000000	0.0
110	0x00000000	0.0
111	0x00000000	0.0
112	0x00000000	0.0
113	0x00000000	0.0
114	0x00000000	0.0
115	0x00000000	0.0
116	0x00000000	0.0
117	0x00000000	0.0
118	0x00000000	0.0
119	0x00000000	0.0
120	0x00000000	0.0
121	0x00000000	0.0
122	0x00000000	0.0
123	0x00000000	0.0
124	0x00000000	0.0
125	0x00000000	0.0
126	0x00000000	0.0
127	0x00000000	0.0

network_body._body_endoder.seq_layers.2.weight f4 [128, 128]
0	0xbd4c6c2a	-0.04990784
1	0x3a28e2b9	0.0006442476
2	0x3db9bef4	0.090696245
3	0xbd9febca	-0.07808645
4	0xbe15e73a	-0.14638987
5	0xbd3c7141	-0.046006445
6	0x3c946431	0.018114181
7	0xbd006517	-0.031346407
8	0xbd2b4469	-0.041813288
9	0x3d6b512c	0.05745046
10	0xbdf20916	-0.11818139
11	0xbd47e3f7	-0.04880139
12	0x3c99cdb3	0.018774843
13	0xbd6a6cb7	-0.057232585
14	0xbe3745a1	-0.17897655
15	0x3bc7d5fe	0.006098508
16	0x3dc42128	0.095766366
17	0xbc911566	-0.017710399
18	0xb97d79f6	-0.00024173394
19	0xbd820f32	-0.063505545
20	0xbdc05644	-0.09391454
21	0xbbd54e8c	-0.0065096077
22	0xbd70f3f8	-0.058826417
23	0x3ccd5a6f	0.025067536
24	0x3e0670e6	0.13129005
25	0xbad6b725	-0.0016381486
26	0x3d224eac	0.03962581
27	0xbd544017	-0.051818933
28	0x3e0ea759	0.13931026
29	0xbdc5efca	-0.09664877
30	0xbb37e156	-0.0028057895
31	0xbd96b98f	-0.07359611
32	0x3d171c2f	0.036892112
33	0x3d1e5563	0.03865565
34	0x3dec25cd	0.115306474
35	0xbd7772fa	-0.060412385
36	0xbd2a1dfb	-0.041532498
37	0xbb6695af	-0.0035184433
38	0xbc979746	-0.01850475
39	0xbce17f37	-0.027526481
40	0xbe1f4f49	-0.15557589
41	0xbd613626	-0.05498328
42	0xbc9d1c9f	-0.019178687
43	0xbd3af4fc	-0.04564379
44	0x3d9b3675	0.07578746
45	0xbd988dc2	-0.07448913
46	0xbda4a729	-0.08039696
47	0x3e28c2ec	0.16480607
48	0x3d8ee786	0.06977753
49	0x3d994c10	0.07485211
50	0xbdd5b0c9	-0.1043411
51	0xbd171fb8	-0.036895484
52	0x3c12e287	0.008965141
53	0xbdbec501	-0.09314919
54	0x3c7ea579	0.015542381
55	0x3c4d157b	0.012517328
56	0xbd183631	-0.037161056
57	0x3da9cec9	0.08291394
58	0x3dcc0db8	0.09963554
59	0xbdebd188	-0.11514574
60	0x3d00c67e	0.031439297
61	0x3da9c5a8	0.08289653
62	0xbca60840	-0.020267606
63	0x3db89117	0.09012049
64	0x3e061cc5	0.13096912
65	0x3dcd24e0	0.10016799
66	0x3dfba3d3	0.12287106
67	0x3dcd4f6f	0.100249164
68	0x3c7f56ac	0.015584629
69	0xbd942b70	-0.072348475
70	0xbd5384de	-0.051640384
71	0xbe162e35	-0.14666064
72	0x3d416f5b	0.047225337
73	0x3e453359	0.19257869
74	0xbaffc26b	-0.0019512897
75	0x3dd0f93b	0.10203787
76	0xbc703c97	-0.014662883
77	0x3c7100d4	0.01470967
78	0x3dfb2043	0.12262013
79	0x3bfb40b2	0.0076676244
80	0x3d70b417	0.058765497
81	0xbd818de5	-0.06325892
82	0x3e0019c5	0.1250983
83	0x3d45abf7	0.0482597
84	0xbcdefb2f	-0.027219383
85	0xbd28bbb2	-0.041194625
86	0x3d814c66	0.063134
87	0xbd39d14a	-0.04536561
88	0xbcf3ef63	-0.029777234
89	0xbc10b3d1	-0.008831934
90	0xbcd4e9b5	-0.025990346
91	0x3db9d00b	0.09072884
92	0xbd37a237	-0.044832435
93	0x3e1a12ae	0.15046188
94	0xbc89f54b	-0.016840598
95	0xbd3ffba8	-0.046870857
96	0x3b1dcbdc	0.0024077808
97	0x3db07d01	0.086175926
98	0xbde89678	-0.11356825
99	0x3d507a72	0.050898023
100	0xbd02164f	-0.031759556
101	0xbe30cf2a	-0.17266527
102	0xbd4ef2d2	-0.05052454
103	0xbd9b2228	-0.07574874
104	0x3d91fafe	0.07127951
105	0x3d2f9970	0.04287094
106	0xbe4add4a	-0.19810978
107	0xbdba29df	-0.090900175
108	0xbd37050d	-0.04468255
109	0x3cf2f9bf	0.029660104
110	0xbe034cf2	-0.12822321
111	0xbe026164	-0.12732464
112	0x3b8d6103	0.004314543
113	0xbd8bf8e1	-0.06834579
114	0xbd044289	-0.032290015
115	0xbc5c59ee	-0.013449175
116	0xbdc76038	-0.09735149
117	0x3d8139a9	0.06309826
118	0xbcf59878	-0.02997993
119	0x3d26c4f9	0.04071519
120	0x3cbcc9cb	0.023045441
121	0xbe340ae9	-0.17582287
122	0x3c08c28c	0.008347165
123	0x3d93d1e5	0.072177686
124	0xbcc5f8f3	-0.02416656
125	0xbd123fc2	-0.035705335
126	0xbd9d15b8	-0.07670158
127	0xbd873f97	-0.06603926
128	0xbce5bf75	-0.028045395
129	0xbe0693f1	-0.13142373
130	0xbdff0395	-0.12451855
131	0x3dbe4a03	0.0929146
132	0xbdb23573	-0.08701601
133	0x3de55c8b	0.11199292
134	0xbe0e3719	-0.13888206
135	0xbdda3f61	-0.1065662
136	0x3cad1ca8	0.021131828
137	0x3d913961	0.07091022
138	0xbd825ba1	-0.06365133
139	0x3d5943c9	0.05304316
140	0x3dbfdde7	0.093684964
141	0x3ddd77ad	0.10813842
142	0xbcd2fcb6	-0.025755268
143	0x3df3bf92	0.119017735
144	0x3bc72029	0.006076832
145	0x3c92b7f1	0.017909976
146	0xbc270771	-0.010194645
147	0x3d0831fc	0.033250794
148	0x3d1e57f0	0.038658082
149	0xbcdcd7f8	-0.02695845
150	0xbcc5071d	-0.024051243
151	0xbe02b4c1	-0.12764265
152	0xbe36a7a8	-0.17837393
153	0x3d7f5daf	0.062345203
154	0xbe5060f1	-0.2034948
155	0x3cf93303	0.030419832
156	0x3d83d53a	0.06437154
157	0xbdd39587	-0.103312545
158	0x3c80550c	0.015665554
159	0xbc9beaec	-0.019032918
160	0x3d9e36cc	0.077252954
161	0x3d8e037c	0.06934258
162	0x3df830a4	0.121186525
163	0x3e2f309b	0.17108385
164	0xbd22a30f	-0.039706286
165	0xbe13dcae	-0.14439651
166	0x3d8c2e12	0.06844725
167	0xbd83ddbd	-0.064387776
168	0xbdb14d02	-0.08657266
169	0x3d85ddcd	0.06536446
170	0x3dba0834	0.09083596
171	0xbd2c0d47	-0.04200485
172	0x3ae48691	0.0017435123
173	0xbdb08fb3	-0.086211585
174	0x3ab019f3	0.0013435468
175	0x3db40337	0.08789676
176	0x3dde8930	0.1086601
177	0x3d4d4715	0.050116617
178	0x3de1e3bc	0.11029765
179	0x3d07688b	0.033058684
180	0xbd97ad34	-0.07406083
181	0xbe576821	-0.21035816
182	0x389769bb	7.219935e-05
183	0xbcbdb357	-0.023156805
184	0x3c7d7161	0.015468926
185	0x3d81d15f	0.063387625
186	0x3d564932	0.0523159
187	0x3c73a259	0.01487025
188	0x3d8668ff	0.06562995
189	0x3d9d031d	0.076666094
190	0xbc2ac9ed	-0.010424119
191	0x3c2cf0ed	0.010555488
192	0x3ce0b494	0.027429856
193	0x3cc15075	0.023597935
194	0x3d0c6e5c	0.034284934
195	0xbd256721	-0.040381555
196	0x3d5a7a3a	0.05333922
197	0x3d82f280	0.063939095
198	0xbc26f12a	-0.010189334
199	0x3dd41926	0.10356359
200	0xbda6a304	-0.081365615
201	0x3e01585c	0.12631363
202	0x3d8fe7c3	0.07026627
203	0xbe723603	-0.23653416
204	0x3d8b695c	0.06807205
205	0xbc87c319	-0.016572522
206	0xbdc157ea	-0.094405964
207	0xbbf24502	-0.0073934803
208	0xbd9839ac	-0.07432875
209	0xbe145ee6	-0.14489326
210	0xbdde4e86	-0.10854821
211	0x3c68daa3	0.014212283
212	0xbd14084b	-0.03614072
213	0x3d26247c	0.040562138
214	0xbbb326ad	-0.005467257
215	0x3c43cd38	0.011950783
216	0x3b629a60	0.0034576878
217	0x3e1545fb	0.14577477
218	0x3e065f8f	0.1312239
219	0x3be39377	0.0069450694
220	0x3e02dde4	0.12779957
221	0xbdadc647	-0.08485084
222	0xbcb185aa	-0.021670181
223	0x3d1a465c	0.037664756
224	0x3db17b11	0.08666051
225	0xbd83f521	-0.06443239
226	0xbd6d7869	-0.05797616
227	0xbe81ed3b	-0.25376305
228	0xbe10e21a	-0.14148751
229	0xbd11d25e	-0.035601012
230	0xbd239eda	-0.039946415
231	0x3d5085e5	0.05090894
232	0xbde4be12	-0.111690655
233	0x3dec2ace	0.11531602
234	0x3d31de84	0.043425098
235	0xbdc4db2f	-0.096121185
236	0x3caff90b	0.021481058
237	0xbdd82772	-0.105543986
238	0xbdbf49f6	-0.09340279
239	0xbe3d8e42	-0.18511298
240	0xbdbe041a	-0.09278126
241	0xbd7eb136	-0.06218072
242	0xbe2dcdd9	-0.16973056
243	0xbe0395ee	-0.12850162
244	0x3d9bbf80	0.07604885
245	0xbe18cec2	-0.14922622
246	0xbad847e1	-0.0016500914
247	0x3bae30ad	0.005315861
248	0xbcb85ace	-0.022504237
249	0xbdb670ac	-0.08908209
250	0xbd417d32	-0.047238536
251	0x3d305d64	0.043057814
252	0xbdcf0acc	-0.10109481
253	0xbe11a4d9	-0.1422304
254	0xbd521563	-0.051289927
255	0x3e40d928	0.18832839

network_body.observation_encoder.processors.0.normalizer.running_mean f4 [28]
0	0x00000000	0.0
1	0x00000000	0.0
2	0x00000000	0.0
3	0x00000000	0.0
4	0x00000000	0.0
5	0x00000000	0.0
6	0x00000000	0.0
7	0x00000000	0.0
8	0x00000000	0.0
9	0x00000000	0.0
10	0x00000000	0.0
11	0x00000000	0.0
12	0x00000000	0.0
13	0x00000000	0.0
14	0x00000000	0.0
15	0x00000000	0.0
16	0x00000000	0.0
17	0x00000000	0.0
18	0x00000000	0.0
19	0x00000000	0.0
20	0x00000000	0.0
21	0x00000000	0.0
22	0x00000000	0.0
23	0x00000000	0.0
24	0x00000000	0.0
25	0x00000000	0.0
26	0x00000000	0.0
27	0x00000000	0.0
