results - copia/PruebaAgenteRenovado/AgenteCoche/AgenteCoche-129373.pt (torch, 180847 bytes, 28 tensors)

network_body.observation_encoder.processors.0.normalizer.running_mean f4 [28]
0.008193337 0.99176747 0.0 0.048775624 0.046477485 0.95330215 0.0 0.057306714
0.060320914 0.93966883 0.0 0.057408202 0.7980753 0.20175532 0.0 0.06583925
0.78858894 0.21140228 0.0 0.06350697 0.94702685 0.052962855 0.0 0.06691274
0.9468077 0.053171117 0.0 0.064833395
00000000: 593d 063c 79e4 7d3f 0000 0000 f3c8 473d
00000010: 2d5f 3e3d 9c0b 743f 0000 0000 72ba 6a3d
00000020: 1013 773d 238e 703f 0000 0000 dd24 6b3d
00000030: aa4e 4c3f f298 4e3e 0000 0000 bbd6 863d
00000040: f7e0 493f d779 583e 0000 0000 f10f 823d
00000050: 5a70 723f 94ef 583d 0000 0000 8c09 893d
00000060: fd61 723f f5c9 593d 0000 0000 5fc7 843d

network_body.observation_encoder.processors.0.normalizer.running_variance f4 [28]
1052.2812 1053.2698 1.0 58.29257 5734.533 5759.8833 1.0 81.87829
7334.4756 7335.353 1.0 80.56449 20849.408 20836.832 1.0 65.20522
21569.736 21569.152 1.0 59.583675 6491.088 6490.209 1.0 42.27875
6515.1353 6514.2637 1.0 41.3208
00000000: 0089 8344 a2a8 8344 0000 803f 972b 6942
00000010: 4434 b345 11ff b345 0000 803f afc1 a342
00000020: ce33 e545 d33a e545 0000 803f 0521 a142
00000030: d1e2 a246 aac9 a246 0000 803f 1369 8242
00000040: 7983 a846 4e82 a846 0000 803f af55 6e42
00000050: b4d8 ca45 acd1 ca45 0000 803f 711d 2942
00000060: 1599 cb45 1c92 cb45 0000 803f 8048 2542

network_body.observation_encoder.processors.1.normalizer.running_mean f4 [2]
0.99614227 1.008815
00000000: 2e03 7f3f da20 813f

network_body.observation_encoder.processors.1.normalizer.running_variance f4 [2]
17.343267 136229.36
00000000: 03bf 8a41 5709 0548

network_body.processors.0.normalizer.running_mean f4 [28]
0.008193337 0.99176747 0.0 0.048775624 0.046477485 0.95330215 0.0 0.057306714
0.060320914 0.93966883 0.0 0.057408202 0.7980753 0.20175532 0.0 0.06583925
0.78858894 0.21140228 0.0 0.06350697 0.94702685 0.052962855 0.0 0.06691274
0.9468077 0.053171117 0.0 0.064833395
00000000: 593d 063c 79e4 7d3f 0000 0000 f3c8 473d
00000010: 2d5f 3e3d 9c0b 743f 0000 0000 72ba 6a3d
00000020: 1013 773d 238e 703f 0000 0000 dd24 6b3d
00000030: aa4e 4c3f f298 4e3e 0000 0000 bbd6 863d
00000040: f7e0 493f d779 583e 0000 0000 f10f 823d
00000050: 5a70 723f 94ef 583d 0000 0000 8c09 893d
00000060: fd61 723f f5c9 593d 0000 0000 5fc7 843d

network_body.processors.0.normalizer.running_variance f4 [28]
1052.2812 1053.2698 1.0 58.29257 5734.533 5759.8833 1.0 81.87829
7334.4756 7335.353 1.0 80.56449 20849.408 20836.832 1.0 65.20522
21569.736 21569.152 1.0 59.583675 6491.088 6490.209 1.0 42.27875
6515.1353 6514.2637 1.0 41.3208
00000000: 0089 8344 a2a8 8344 0000 803f 972b 6942
00000010: 4434 b345 11ff b345 0000 803f afc1 a342
00000020: ce33 e545 d33a e545 0000 803f 0521 a142
00000030: d1e2 a246 aac9 a246 0000 803f 1369 8242
00000040: 7983 a846 4e82 a846 0000 803f af55 6e42
00000050: b4d8 ca45 acd1 ca45 0000 803f 711d 2942
00000060: 1599 cb45 1c92 cb45 0000 803f 8048 2542

network_body.processors.1.normalizer.running_mean f4 [2]
0.99614227 1.008815
00000000: 2e03 7f3f da20 813f

network_body.processors.1.normalizer.running_variance f4 [2]
17.343267 136229.36
00000000: 03bf 8a41 5709 0548

network_body._body_endoder.seq_layers.0.weight f4 [128, 30]
0.06630584 0.18725406 -0.09240764 0.061857708 -0.37498298 0.5836708 -0.07903402 -0.04135336
0.08991658 0.0992933 -0.2651283 0.27373615 -0.09658511 -0.05975107 -0.016543819 -0.021417854
-0.07436452 -0.028193958 0.045851197 0.17441823 -0.13118057 0.055887662 0.08292176 -0.050753444
-0.01447391 0.24293458 -0.14561838 0.23162808 0.40086594 -0.058045115 0.065413706 0.08006382
-0.08584482 -0.38893896 -0.2409965 0.03452971 0.029588716 -0.14188403 -0.2612821 -0.05980412
0.0610159 0.034322906 0.026189158 -0.01779094 -0.028401952 0.34999177 0.08613871 -0.07653652
-0.09745988 -0.043807816 0.039407413 0.06374288 -0.65127224 0.045247424 -0.19250016 0.02085714
0.027040888 0.20029736 0.17257337 -0.023957748 -0.09188681 0.16598512 -0.2871046 0.101830386
-0.13231616 0.0029517447 -0.2638523 -0.15865947 0.12497453 0.29846755 -0.0054318276 0.111923195
0.012644875 -0.3267223 -0.12019626 -0.091145895 -0.08181375 -0.26927888 0.1463009 -0.22881918
-0.06637179 0.047231246 -0.12782943 -0.3212486 0.006980746 0.30858114 0.061165 -0.2709799
0.1286967 0.30933756 -0.08291704 -0.31835356 -0.22719629 0.18324934 -0.06337559 -0.055122312
-0.04896006 0.0018034357 0.07711132 0.011192514 0.070619315 0.09084348 0.028303381 -0.1866405
0.20214894 0.03250708 -0.038146872 -0.2746747 -0.043346804 -0.09911745 -0.110943444 -0.18056956
-0.10537033 0.14250316 -0.057711728 -0.27419838 -0.1623965 -0.4473595 -0.20237948 0.028519114
-0.17311029 0.17171942 0.021679264 0.34657356 0.016372932 -0.014181663 0.19658089 -0.118343286
0.14468434 -0.17998812 0.22902508 0.0016016195 0.2789727 0.1817846 -0.21174616 0.2393566
-0.18530859 0.15909715 0.22402571 -0.19713351 -0.10851806 -0.08764656 -0.027120749 0.0762508
0.4418947 0.06815618 -0.3613036 0.099590145 0.2243794 0.17171426 0.300644 -0.0010563572
0.11638669 0.19851293 0.15440945 0.022948755 -0.07355404 -0.25398758 -0.101539105 0.19116378
-0.04054061 -0.17108534 0.1499115 -0.17694633 0.18947414 0.19252883 0.1330234 0.03803832
-0.06329612 -0.1830826 0.008146932 0.19645762 0.21473083 0.0780939 -0.40986457 0.07010805
0.036726978 -0.25624883 0.13757128 -0.08270936 -0.14913243 -0.0030559222 -0.10895427 0.31136933
-0.2117353 0.060598455 0.27426025 -0.2624662 -0.15678585 -0.5033512 0.47244933 -0.0025909983
0.10689936 0.19602118 -0.05275528 0.17853978 0.39590076 -0.27172163 -0.08139735 -0.10287188
-0.18957561 0.0696007 0.07591727 0.110782854 0.28266564 -0.04124377 -0.13653065 -0.30874407
-0.2308677 -0.10767747 -0.23320834 0.31123328 -0.063763104 0.17994852 -0.075601906 0.14356229
-0.28442368 -0.113627076 0.3894576 -0.03330705 0.011035602 -0.14983195 0.11620056 -0.091821335
-0.051708225 -0.051670447 0.19273995 0.17849004 -0.15152694 -0.12329973 -0.42633224 -0.29422462
-0.036167342 -0.16936062 -0.06867825 -0.06703932 0.04049585 -0.0015873279 0.1110341 -0.02671928
-0.17087448 -0.2651597 0.35085267 0.05915311 0.38571957 0.13894893 0.06282017 0.035445146
0.076744035 -0.19987431 -0.078063406 0.14921232 -0.35816857 0.04034223 0.46432292 0.07960527
00000000: 5bcb 873d 87bf 3f3e 3740 bdbd 825e 7d3d
00000010: c5fd bfbe 736b 153f 97dc a1bd 2462 29bd
00000020: 2f26 b83d 495a cb3d e6be 87be 2527 8c3e
00000030: 6ace c5bd 8abd 74bd e786 87bc 7f74 afbc
00000040: 6d4c 98bd 04f7 e6bc 77ce 3b3d b19a 323e
00000050: 3354 06be 76ea 643d e2d2 a93d d8e2 4fbd
00000060: fb23 6dbc d8c3 783e fc1c 15be e92f 6d3e
00000070: 4d3e cd3e b7c0 6dbd 9ff7 853d 80f8 a33d
00000080: 69cf afbd 0223 c7be c9c7 76be 066f 0d3d
00000090: 0964 f23c 0c4a 11be c4c6 85be 2af5 74bd
000000a0: cfeb 793d 2d96 0c3d a58a d63c 4ebe 91bc
000000b0: 36ab e8bc 1f32 b33e 7e69 b03d 2ebf 9cbd
000000c0: 0c99 c7bd d36f 33bd ab69 213d a18b 823d
000000d0: c7b9 26bf 5d55 393d c31e 45be 98dc aa3c
000000e0: da84 dd3c c01a 4d3e 13b7 303e 0a43 c4bc
000000f0: 272f bcbd 01f8 293e 60ff 92be 738c d03d
00000100: e37d 07be 0f72 413b a617 87be a177 22be
00000110: a5f2 ff3d bdd0 983e 79fd b1bb fd37 e53d
00000120: 732c 4f3c 2548 a7be 7529 f6bd b3aa babd
00000130: f88d a7bd ecde 89be e7cf 153e 934f 6abe
00000140: efed 87bd 8d75 413d b8e5 02be b27a a4be
00000150: bebe e43b 59fe 9d3e 2788 7a3d e1bd 8abe
00000160: 11c9 033e 7e61 9e3e 69d0 a9bd 3dff a2be
00000170: 25a6 68be b7a5 3b3e 10cb 81bd efc7 61bd
00000180: 588a 48bd 4361 ec3a 8aec 9d3d ce60 373c
00000190: dca0 903d 250c ba3d 7edc e73c b01e 3fbe
000001a0: 2200 4f3e 2526 053d e53f 1cbd 2aa2 8cbe
000001b0: 6b8c 31bd 17fe cabd 5136 e3bd 3ae7 38be
000001c0: 66cc d7bd 59ec 113e 2263 6cbd bb63 8cbe
000001d0: 454b 26be 4e0c e5be 913c 4fbe eba0 e93c
000001e0: d343 31be 37d7 2f3e b698 b13c 1772 b13e
000001f0: 8720 863c 355a 68bc 804c 493e f75d f2bd
00000200: 2228 143e ce4e 38be 8d85 6a3e 6fed d13a
00000210: 82d5 8e3e be25 3a3e fcd3 58be e619 753e
00000220: 89c1 3dbe 5dea 223e ff66 653e 5edd 49be
00000230: b73e debd 0a80 b3bd 552c debc 6129 9c3d
00000240: 0640 e23e 7895 8b3d c9fc b8be ebf5 cb3d
00000250: b7c3 653e ddd5 2f3e 03ee 993e 7775 8aba
00000260: 255c ee3d f946 4b3e 831d 1e3e 07ff bb3c
00000270: 80a3 96bd a90a 82be bcf3 cfbd 70c0 433e
00000280: e90d 26bd ff30 2fbe 6682 193e 6b31 35be
00000290: 8205 423e 4726 453e 4937 083e 12ce 1b3d
000002a0: 65a1 81bd 017a 3bbe b67a 053c 302c 493e
000002b0: 66e2 5b3e b2ef 9f3d c5d9 d1be cf94 8f3d
000002c0: 076f 163d 0c33 83be 7cdf 0c3e 8663 a9bd
000002d0: 2cb6 18be de45 48bb 6b23 dfbd cd6b 9f3e
000002e0: 23d1 58be 1636 783d d76b 8c3e f861 86be
000002f0: 788c 20be a0db 00bf e1e4 f13e bdcd 29bb
00000300: 0dee da3d c7b9 483e ec15 58bd 22d3 363e
00000310: 81b3 ca3e 191f 8bbe a7b3 a6bd 7eae d2bd
00000320: 1c20 42be d08a 8e3d 837a 9b3d 1fe2 e23d
00000330: 8db9 903e 3aef 28bd b1ce 0bbe b413 9ebe
00000340: 9568 6cbe 0186 dcbd 2bce 6ebe f859 9f3e
00000350: 3b96 82bd 6d44 383e 2cd5 9abd fe01 133e
00000360: fb9f 91be 50b5 e8bd fd66 c73e f96c 08bd
00000370: abce 343c 8c6d 19be 8ffa ed3d d30c bcbd
00000380: 01cc 53bd 64a4 53bd 9f5d 453e 18c6 363e
00000390: e129 1bbe 9284 fcbd 3848 dabe 9ca4 96be
000003a0: 3524 14bd df6c 2dbe 2fa7 8cbd e94b 89bd
000003b0: fade 253d e30d d0ba d965 e33d 64e2 dabc
000003c0: b8f9 2ebe 03c3 87be f6a2 b33e 884a 723d
000003d0: 097d c53e a148 0e3e dca7 803d ee2e 113d
000003e0: fa2b 9d3d daab 4cbe b5df 9fbd 1dcb 183e
000003f0: df61 b7be e53d 253d bcbb ed3e 1608 a33d

network_body._body_endoder.seq_layers.0.bias f4 [128]
0.0 0.0 0.0 0.0 0.0 0.0 0.0 0.0
0.0 0.0 0.0 0.0 0.0 0.0 0.0 0.0
0.0 0.0 0.0 0.0 0.0 0.0 0.0 0.0
0.0 0.0 0.0 0.0 0.0 0.0 0.0 0.0
0.0 0.0 0.0 0.0 0.0 0.0 0.0 0.0
0.0 0.0 0.0 0.0 0.0 0.0 0.0 0.0
0.0 0.0 0.0 0.0 0.0 0.0 0.0 0.0
0.0 0.0 0.0 0.0 0.0 0.0 0.0 0.0
0.0 0.0 0.0 0.0 0.0 0.0 0.0 0.0
0.0 0.0 0.0 0.0 0.0 0.0 0.0 0.0
0.0 0.0 0.0 0.0 0.0 0.0 0.0 0.0
0.0 0.0 0.0 0.0 0.0 0.0 0.0 0.0
0.0 0.0 0.0 0.0 0.0 0.0 0.0 0.0
0.0 0.0 0.0 0.0 0.0 0.0 0.0 0.0
0.0 0.0 0.0 0.0 0.0 0.0 0.0 0.0
0.0 0.0 0.0 0.0 0.0 0.0 0.0 0.0
00000000: 0000 0000 0000 0000 0000 0000 0000 0000
00000010: 0000 0000 0000 0000 0000 0000 0000 0000
00000020: 0000 0000 0000 0000 0000 0000 0000 0000
00000030: 0000 0000 0000 0000 0000 0000 0000 0000
00000040: 0000 0000 0000 0000 0000 0000 0000 0000
00000050: 0000 0000 0000 0000 0000 0000 0000 0000
00000060: 0000 0000 0000 0000 0000 0000 0000 0000
00000070: 0000 0000 0000 0000 0000 0000 0000 0000
00000080: 0000 0000 0000 0000 0000 0000 0000 0000
00000090: 0000 0000 0000 0000 0000 0000 0000 0000
000000a0: 0000 0000 0000 0000 0000 0000 0000 0000
000000b0: 0000 0000 0000 0000 0000 0000 0000 0000
000000c0: 0000 0000 0000 0000 0000 0000 0000 0000
000000d0: 0000 0000 0000 0000 0000 0000 0000 0000
000000e0: 0000 0000 0000 0000 0000 0000 0000 0000
000000f0: 0000 0000 0000 0000 0000 0000 0000 0000
00000100: 0000 0000 0000 0000 0000 0000 0000 0000
00000110: 0000 0000 0000 0000 0000 0000 0000 0000
00000120: 0000 0000 0000 0000 0000 0000 0000 0000
00000130: 0000 0000 0000 0000 0000 0000 0000 0000
00000140: 0000 0000 0000 0000 0000 0000 0000 0000
00000150: 0000 0000 0000 0000 0000 0000 0000 0000
00000160: 0000 0000 0000 0000 0000 0000 0000 0000
00000170: 0000 0000 0000 0000 0000 0000 0000 0000
00000180: 0000 0000 0000 0000 0000 0000 0000 0000
00000190: 0000 0000 0000 0000 0000 0000 0000 0000
000001a0: 0000 0000 0000 0000 0000 0000 0000 0000
000001b0: 0000 0000 0000 0000 0000 0000 0000 0000
000001c0: 0000 0000 0000 0000 0000 0000 0000 0000
000001d0: 0000 0000 0000 0000 0000 0000 0000 0000
000001e0: 0000 0000 0000 0000 0000 0000 0000 0000
000001f0: 0000 0000 0000 0000 0000 0000 0000 0000

network_body._body_endoder.seq_layers.2.weight f4 [128, 128]
0.15432587 0.0069318716 0.079983264 -0.08303219 -0.056169685 0.008280795 0.14722532 0.07103939
-0.004425683 -0.1124164 -0.07347209 0.02394447 -0.024175273 0.044435862 -0.00031743047 0.12519754
0.009073405 -0.027815884 -0.18468258 0.014313707 -0.075668976 0.05471677 0.05284494 0.020369157
0.03231158 0.051538777 0.022618279 -0.22726934 0.055822242 -0.06464086 0.041815933 -0.07029607
-0.05639574 0.06514877 -0.07573923 -0.019383904 -0.20384885 0.050724994 -0.060673874 0.0037027171
-0.058056377 -0.034566842 0.1927965 -0.07283328 0.062269527 -0.0708701 -0.16796574 -0.05191173
0.010480135 0.039082073 0.054400902 -0.03872653 0.044441916 -0.10200379 0.081730396 -0.17465006
0.00941447 0.05759066 -0.04499998 0.10113059 0.04906246 0.049863387 0.05769187 0.0068604643
0.10858546 -0.016223066 -0.013678525 0.04500679 -0.102849625 -0.02017981 -0.077332 0.020954376
-0.16117366 -0.17206605 -0.17556152 -0.22035497 -0.087100156 0.08528309 0.035210747 0.10129753
0.0041194013 -0.037285645 0.04746623 0.08547483 -0.054422427 0.02678875 -0.030110043 0.051601846
0.03205474 -0.00015317179 0.058296565 -0.087686025 -0.13408676 0.008323658 0.022407917 0.009290913
0.07046067 -0.06672504 0.17820168 0.22964193 0.082345866 -0.010075919 -0.081699006 -0.09130693
0.11670121 -0.008348074 -0.113115266 -0.008236053 0.21164052 0.030757437 0.1224524 -0.026964853
0.0039678756 0.14939015 -0.13939907 0.05664831 0.042758457 0.043980774 -0.07323079 -0.071255736
-0.01488044 0.15069892 0.064292155 -0.055800848 0.06503697 -0.099507906 0.05502086 -0.014573087
0.14732689 0.016158141 -0.055319253 0.11207686 0.08695204 -0.10247261 -0.058608014 0.14565738
0.040183555 -0.059556857 -0.13127282 0.11098776 0.05231678 0.043976314 0.055390857 0.0743173
0.04745565 -0.075058565 0.01649035 -0.068905905 0.10263165 -0.07341107 -0.01554582 0.04699371
-0.0693646 0.049535364 -0.050660964 0.14825994 0.117577374 -0.2140317 0.01452197 -0.059234113
-0.13458835 0.062248904 0.17699626 -0.014320723 0.09829073 -0.07796667 -0.08579612 -0.15378699
-0.0004993731 -0.082599185 0.08060103 -0.09264751 0.00023087634 -0.046300303 -0.11872903 0.044861738
-0.057391115 0.015589795 0.04792174 -0.004571108 -0.08179689 0.015605614 -0.12577714 -0.024996197
0.06665392 0.028702557 -0.033424646 0.049009986 0.04344064 0.031986937 -0.04384986 -0.051679064
0.065626636 0.012080055 0.12101131 -0.034375906 0.12181793 0.0008470651 0.04987282 0.15482831
0.022847582 -0.09102401 0.026538042 -0.027704688 -0.01181718 0.061411675 -0.0089963 -0.12747686
0.10100863 -0.06575036 -0.048716687 0.05722528 0.08130124 0.08132197 0.031456344 -0.08490009
0.024795357 0.12926333 -0.06921173 -0.058876798 -0.22276902 0.08138767 0.1056208 -0.1268023
0.17121992 0.062163677 -0.03601076 0.11527081 -0.0124757895 0.023277855 0.039513163 0.035596758
0.09278589 -0.03324942 -0.053568527 0.09529664 -0.16065781 0.079440355 0.06864469 0.12826365
0.045208085 0.065826796 -0.018791415 -0.06122193 -0.15273601 -0.013902527 -0.114418566 0.03743518
0.08325545 0.033091735 -0.08089017 -0.043991037 -0.057675052 -0.0122459 -0.076263145 0.037482545
00000000: 9a07 1e3e c124 e33b 44ce a33d c80c aabd
00000010: 2f12 66bd 2cac 073c 3cc2 163e 1a7d 913d
00000020: 5205 91bb 923a e6bd 8978 96bd 3127 c43c
00000030: 390b c6bc 6102 363d cc6c a6b9 c933 003e
00000040: 9ea8 143c 23de e3bc 6e1d 3dbe 0a84 6a3c
00000050: 56f8 9abd b11e 603d f073 583d 38dd a63c
00000060: 2659 043d 531a 533d f849 b93c 4bb9 68be
00000070: dda5 643d 6d62 84bd 2f47 2b3d 63f7 8fbd
00000080: 38ff 66bd b86c 853d 2b1d 9bbd feca 9ebc
00000090: c1bd 50be 03c5 4f3d 2b85 78bd 49a9 723b
000000a0: 86cc 6dbd f695 0dbd 726c 453e 9d29 95bd
000000b0: 550e 7f3d 5824 91bd 36ff 2bbe 65a1 54bd
000000c0: dfb4 2b3c 8614 203d 7bd3 5e3d b69f 1ebd
000000d0: ba08 363d 5de7 d0bd 4462 a73d 77d7 32be
000000e0: 263f 1a3c 2fe4 6b3d e651 38bd 8e1d cf3d
000000f0: b8f5 483d 8d3d 4c3d 4f4e 6c3d bfcd e03b
00000100: 0e62 de3d 3ce6 84bc e41b 60bc 0a59 383d
00000110: d3a2 d2bd 2150 a5bc 3d60 9ebd 83a8 ab3c
00000120: b50a 25be 1532 30be 66c6 33be bca4 61be
00000130: 9161 b2bd e7a8 ae3d 2539 103d 1475 cf3d
00000140: 0bfc 863b d5b8 18bd f36b 423d 6d0d af3d
00000150: 0dea 5ebd 1574 db3c 56a9 f6bc 755c 533d
00000160: d54b 033d bd9c 20b9 61c8 6e3d bb94 b3bd
00000170: 0a4e 09be f45f 083c cf90 b73c ea38 183c
00000180: af4d 903d 23a7 88bd 807a 363e 4127 6b3e
00000190: f3a4 a83d 7815 25bc cf51 a7bd 21ff babd
000001a0: 0b01 ef3d 5cc6 08bc faa8 e7bd 83f0 06bc
000001b0: 4bb8 583e 05f7 fb3c 53c8 fa3d 65e5 dcbc
000001c0: f404 823b bbf9 183e a1be 0ebe 0f08 683d
000001d0: 7e23 2f3d 2f25 343d 06fa 95bd 87ee 91bd
000001e0: 17cd 73bc d150 1a3e 9bab 833d 6e8f 64bd
000001f0: 1a32 853d cdca cbbd 8e5d 613d f5c3 6ebc
00000200: dcdc 163e 145e 843c 7196 62bd 8e88 e53d
00000210: e913 b23d 29dd d1bd f50e 70bd 3527 153e
00000220: 8397 243d e4f1 73bd 626c 06be 8d4d e33d
00000230: 1f4a 563d 8220 343d 86e1 623d ab33 983d
00000240: db60 423d 4eb8 99bd c516 873c 8a1e 8dbd
00000250: 8b30 d23d 8b58 96bd e5b3 7ebc 7a7c 403d
00000260: 070f 8ebd 98e5 4a3d df81 4fbd 74d1 173e
00000270: 68cc f03d 202b 5bbe 8fed 6d3c 789f 72bd
00000280: 87d1 09be b5f8 7e3d 823e 353e 77a1 6abc
00000290: a64c c93d fdac 9fbd e0b5 afbd 567a 1dbe
000002a0: 5de8 02ba c329 a9bd 2712 a53d fabd bdbd
000002b0: 6517 7239 63a5 3dbd 3528 f3bd f1c0 373d
000002c0: f212 6bbd 576c 7f3c 9649 443d 3cc9 95bb
000002d0: 2185 a7bd b0ae 7f3c b9cb 00be d3c4 ccbc
000002e0: da81 883d a021 eb3c 48e8 08bd b2be 483d
000002f0: d0ee 313d bc04 033d e99b 33bd 6dad 53bd
00000300: 4267 863d 6ceb 453c c7d4 f73d c0cd 0cbd
00000310: ae7b f93d 940d 5e3a 7147 4c3d 508b 1e3e
00000320: da2a bb3c cc6a babd 4f66 d93c f1f4 e2bc
00000330: d89c 41bc cf8a 7b3d 3865 13bc 4b89 02be
00000340: 9ddd ce3d 20a8 86bd 268b 47bd 0e65 6a3d
00000350: 4481 a63d 228c a63d 5ed8 003d 19e0 adbd
00000360: a21f cb3c 9b5d 043e e1be 8dbd cc28 71bd
00000370: 901d 64be 94ae a63d b84f d83d 76d8 01be
00000380: 4654 2f3e 579f 7e3d 0580 13bd 1a13 ec3d
00000390: 4167 4cbc 33b1 be3c 8ed8 213d e8cd 113d
000003a0: 8706 be3d 8b30 08bd ac6a 5bbd e32a c33d
000003b0: 7b83 24be a0b1 a23d 9695 8c3d 8c57 033e
000003c0: 1d2c 393d 33d0 863d 74f0 99bc d9c3 7abd
000003d0: d466 1cbe 6dc7 63bc 4854 eabd a255 193d
000003e0: d581 aa3d 338b 073d bfa9 a5bd f22f 34bd
000003f0: ad3c 6cbd 07a3 48bc da2f 9cbd 4c87 193d

network_body._body_endoder.seq_layers.2.bias f4 [128]
0.0 0.0 0.0 0.0 0.0 0.0 0.0 0.0
0.0 0.0 0.0 0.0 0.0 0.0 0.0 0.0
0.0 0.0 0.0 0.0 0.0 0.0 0.0 0.0
0.0 0.0 0.0 0.0 0.0 0.0 0.0 0.0
0.0 0.0 0.0 0.0 0.0 0.0 0.0 0.0
0.0 0.0 0.0 0.0 0.0 0.0 0.0 0.0
0.0 0.0 0.0 0.0 0.0 0.0 0.0 0.0
0.0 0.0 0.0 0.0 0.0 0.0 0.0 0.0
0.0 0.0 0.0 0.0 0.0 0.0 0.0 0.0
0.0 0.0 0.0 0.0 0.0 0.0 0.0 0.0
0.0 0.0 0.0 0.0 0.0 0.0 0.0 0.0
0.0 0.0 0.0 0.0 0.0 0.0 0.0 0.0
0.0 0.0 0.0 0.0 0.0 0.0 0.0 0.0
0.0 0.0 0.0 0.0 0.0 0.0 0.0 0.0
0.0 0.0 0.0 0.0 0.0 0.0 0.0 0.0
0.0 0.0 0.0 0.0 0.0 0.0 0.0 0.0
00000000: 0000 0000 0000 0000 0000 0000 0000 0000
00000010: 0000 0000 0000 0000 0000 0000 0000 0000
00000020: 0000 0000 0000 0000 0000 0000 0000 0000
00000030: 0000 0000 0000 0000 0000 0000 0000 0000
00000040: 0000 0000 0000 0000 0000 0000 0000 0000
00000050: 0000 0000 0000 0000 0000 0000 0000 0000
00000060: 0000 0000 0000 0000 0000 0000 0000 0000
00000070: 0000 0000 0000 0000 0000 0000 0000 0000
00000080: 0000 0000 0000 0000 0000 0000 0000 0000
00000090: 0000 0000 0000 0000 0000 0000 0000 0000
000000a0: 0000 0000 0000 0000 0000 0000 0000 0000
000000b0: 0000 0000 0000 0000 0000 0000 0000 0000
000000c0: 0000 0000 0000 0000 0000 0000 0000 0000
000000d0: 0000 0000 0000 0000 0000 0000 0000 0000
000000e0: 0000 0000 0000 0000 0000 0000 0000 0000
000000f0: 0000 0000 0000 0000 0000 0000 0000 0000
00000100: 0000 0000 0000 0000 0000 0000 0000 0000
00000110: 0000 0000 0000 0000 0000 0000 0000 0000
00000120: 0000 0000 0000 0000 0000 0000 0000 0000
00000130: 0000 0000 0000 0000 0000 0000 0000 0000
00000140: 0000 0000 0000 0000 0000 0000 0000 0000
00000150: 0000 0000 0000 0000 0000 0000 0000 0000
00000160: 0000 0000 0000 0000 0000 0000 0000 0000
00000170: 0000 0000 0000 0000 0000 0000 0000 0000
00000180: 0000 0000 0000 0000 0000 0000 0000 0000
00000190: 0000 0000 0000 0000 0000 0000 0000 0000
000001a0: 0000 0000 0000 0000 0000 0000 0000 0000
000001b0: 0000 0000 0000 0000 0000 0000 0000 0000
000001c0: 0000 0000 0000 0000 0000 0000 0000 0000
000001d0: 0000 0000 0000 0000 0000 0000 0000 0000
000001e0: 0000 0000 0000 0000 0000 0000 0000 0000
000001f0: 0000 0000 0000 0000 0000 0000 0000 0000

action_model._continuous_distribution.log_sigma f4 [1, 2]
0.0 0.0
00000000: 0000 0000 0000 0000

action_model._continuous_distribution.mu.weight f4 [2, 128]
0.008289197 -0.014282078 -0.006676499 0.0035253335 0.022118619 0.01406004 -0.010539851 0.015722578
0.0048751156 0.0199881 -0.02859442 0.06729836 0.015674338 -0.011581517 -0.033703905 0.026083885
-0.0010883802 0.0016474773 -0.01848906 0.025197769 -0.0023221434 -0.00015025696 -0.003908857 0.026567308
-0.012745598 0.0274174 0.0034322818 0.000952838 -0.0037421738 0.009235571 0.012386472 0.02416481
0.005214006 0.021923214 -0.02266674 0.0054718996 0.016916852 -0.020310594 -0.021177422 0.014085576
0.014015782 -0.018976972 -0.00021254348 0.016119469 0.020255255 -0.016135879 -0.019164808 0.02099895
0.015253191 -0.03932373 0.013967598 0.03495032 0.010509766 0.015899915 -0.003099319 0.026004175
-0.013721185 0.022842651 0.011207114 0.01792503 0.002208704 0.0011420912 0.00038693607 -0.018854974
0.0033783477 0.011775388 0.005648209 -2.8082277e-05 -0.0069294753 0.017959734 0.015095631 0.018706376
-0.0067715384 0.0057078823 -0.011767668 -0.02877064 0.014521076 -0.0021925762 -0.03606152 -0.003224061
-0.013364981 -0.0286732 0.0049947817 0.0054551507 0.0015101474 -0.003007684 -0.004486708 0.002236051
0.0018436387 -0.0023954825 0.012803088 -0.02491272 0.017488029 -0.007644016 -0.0302014 -0.013024158
0.017483495 -0.016185053 -0.008580558 -0.036698893 0.0076725557 0.0022099484 0.019214233 0.012009762
-0.007779676 -0.03446448 0.014175615 -0.0031811793 -0.0019837918 0.015738757 0.0015916091 0.020551778
-0.016865764 0.0074665546 -0.016999517 -0.018506473 0.012980677 -0.025325418 -0.023358583 0.0046986113
-0.018909367 0.028429095 -0.0036124792 -0.0019747477 -0.010164729 -0.00823061 0.007274107 -0.00033941888
-0.040499922 -0.011639743 -0.0016443189 0.016732717 -0.008541937 -0.023535049 -0.008125541 0.0045060334
-0.016070899 -0.010391968 -0.004289253 0.0024554406 0.0037021008 -0.033813234 0.0026375337 -0.0036167074
-0.0027399708 -0.004391035 0.020861307 0.00073205755 -0.027939564 -0.058470618 -0.0036304132 0.0016473493
-0.01600566 -0.03275709 0.011689876 0.0151214 0.02040053 -0.009519692 0.0075246445 0.03188807
-0.0061929515 0.010528759 0.03136276 0.0047771367 -0.011672805 0.006077547 -0.015655536 0.0071402784
-0.014830725 0.0035395843 0.00086687965 0.013363873 -0.0035350844 -0.02866125 -0.038147338 -0.013270098
-0.01919627 0.008455278 -0.026786447 -0.00742604 -0.012872382 0.008555326 -0.014388601 0.02837728
-0.032145806 -0.022600485 0.0040783575 -0.005137019 0.0081310505 -0.013625519 -0.03375804 -0.010247747
0.012936053 -0.008887115 -0.03014606 -0.0011860584 0.009918685 -0.023373796 -0.024703266 0.009343197
0.0007680887 -0.008740823 0.019840749 -0.004133185 0.016165314 -0.020027677 0.005358027 0.0036127858
-0.0189664 -0.0010789026 -0.0052053384 -0.007063014 -0.005316592 0.012050341 0.000620085 -0.015139768
-0.0039400943 -0.011032175 -0.015403474 -0.022296084 -0.012264455 0.031036897 0.013962238 -0.0091935145
-0.01789344 -0.0005689896 0.013163419 -0.010056019 -0.021378595 -0.021999067 0.016007591 -0.010559923
0.0130151585 0.025751928 0.004386339 0.0012790597 0.0339811 0.00016021426 -0.019955287 0.0065476336
-0.025657369 -0.013634491 0.017750777 -0.05566531 0.014295079 0.0067964504 1.850694e-05 -0.011691665
-0.0012309293 0.025167504 -0.03867364 0.016504016 0.003110621 0.008144875 -0.0052963397 0.016376777
00000000: 6acf 073c 60ff 69bc 88c6 dabb 4809 673b
00000010: 1b32 b53c 155c 663c 57af 2cbc a3cc 803c
00000020: 6fbf 9f3b 15be a33c d83e eabc b9d3 893d
00000030: 7867 803c 67c0 3dbc 1b0d 0abd dfad d53c
00000040: fba7 8eba 2af0 d73a 5f76 97bc 8d6b ce3c
00000050: 1a2f 18bb 4c8e 1db9 de15 80bb afa3 d93c
00000060: ead2 50bc 759a e03c 22f0 603b e0c7 793a
00000070: 423f 75bb cb50 173c a1f0 4a3c 48f5 c53c
00000080: 41da aa3b 5098 b33c 99af b9bc 9f4d b33b
00000090: 3695 8a3c 6762 a6bc 467c adbc 30c7 663c
000000a0: 73a2 653c 9875 9bbc 35de 5eb9 fa0c 843c
000000b0: 59ee a53c 642f 84bc 84ff 9cbc fd05 ac3c
000000c0: 85e8 793c eb11 21bd 5ad8 643c 1128 0f3d
000000d0: 2731 2c3c 8a40 823c f21d 4bbb b506 d53c
000000e0: d2ce 60bc 8320 bb3c 0b9e 373c 83d7 923c
000000f0: e7bf 103b 39b2 953a aedd ca39 bf75 9abc
00000100: 4567 5d3b 8fed 403c 9c14 b93b 3b92 ebb7
00000110: a710 e3bb 4b20 933c aa53 773c 1d3e 993c
00000120: c8e3 ddbb 3009 bb3b 2dcd 40bc 68b0 ebbc
00000130: cfe9 6d3c 53b1 0fbb 3fb5 13bd c54a 53bb
00000140: cbf8 5abc 0fe4 eabc 44ab a33b 1fc1 b23b
00000150: 23f0 c53a 901c 45bb 3c05 93bb b68a 123b
00000160: 40a6 f13a 87fd 1cbb 0bc4 513c c315 ccbc
00000170: 0e43 8f3c a77a fabb ed68 f7bc 4763 55bc
00000180: 8c39 8f3c 8496 84bc 7895 0cbc 9451 16bd
00000190: 106a fb3b c8d4 103b 2b67 9d3c 98c4 443c
000001a0: a7ec febb a02a 0dbd d740 683c 557b 50bb
000001b0: 8102 02bb 91ee 803c 8a9d d03a 345c a83c
000001c0: 122a 8abc 00aa f43b 9242 8bbc e39a 97bc
000001d0: e8ac 543c 4077 cfbc 805a bfbc cff6 993b
000001e0: d1e7 9abc 22e4 e83c 58bf 6cbb c56a 01bb
000001f0: f789 26bc aed9 06bc a25b ee3b 08f4 b1b9
00000200: 3fe3 25bd 9fb4 3ebc 3086 d7ba 0d13 893c
00000210: 7bf3 0bbc 93cc c0bc fd20 05bc 59a7 933b
00000220: 1ea7 83bc 1343 2abc dd8c 8cbb 75eb 203b
00000230: f29e 723b bf7f 0abd 79da 2c3b 4806 6dbb
00000240: 1591 33bb ace2 8fbb 55e5 aa3c 8de7 3f3a
00000250: 83e1 e4bc e37e 6fbd 3aec 6dbb dfeb d73a
00000260: 4d1e 83bc 4c2c 06bd e586 3f3c c0bf 773c
00000270: 031f a73c 7bf8 1bbc 4b91 f63b 119d 023d
00000280: 3eee cabb d180 2c3c 3d76 003d 8789 9c3b
00000290: 4b3f 3fbc 2926 c73b 0a40 80bc fff8 e93b
000002a0: 92fc 72bc 5ff8 673b 4f3f 633a 25f4 5a3c
000002b0: e0ac 67bb ffca eabc 6240 1cbd d36a 59bc
000002c0: 7f41 9dbc 0288 0a3c 406f dbbc 2356 f3bb
000002d0: afe6 52bc a32b 0c3c 2bbe 6bbc 7877 e83c
000002e0: 52ab 03bd a724 b9bc bea3 853b 7054 a8bb
000002f0: 1938 053c 923d 5fbc df45 0abd 2be6 27bc
00000300: bdf1 533c 439b 11bc dff4 f6bc 8475 9bba
00000310: fb81 223c 677a bfbc 815e cabc 3514 193c
00000320: 8f59 493a ab35 0fbc 1189 a23c ab6f 87bb
00000330: 1f6d 843c 1511 a4bc 6392 af3b 7dc4 6c3b
00000340: 6c5f 9bbc f769 8dba 8b91 aabb db70 e7bb
00000350: ce36 aebb cb6e 453c 338d 223a ca0c 78bc
00000360: e81b 81bb 4cc0 34bc da5e 7cbc 47a6 b6bc
00000370: daf0 48bc 1741 fe3c dfc1 643c 65a0 16bc
00000380: 4395 92bc 3f28 15ba 62ab 573c 00c2 24bc
00000390: 2a22 afbc 6337 b4bc 5a22 833c 8703 2dbc
000003a0: 883d 553c b5f5 d23c 47bb 8f3b 1fa6 a73a
000003b0: c42f 0b3d 30ff 2739 4579 a3bc 888d d63b
000003c0: 672f d2bc 3363 5fbc 146a 913c 4f01 64bd
000003d0: e835 6a3c c2b4 de3b 5a3f 9b37 668e 3fbc
000003e0: 2257 a1ba 152c ce3c 4068 1ebd 6e33 873c
000003f0: 8fdb 4b3b 1572 053c eb8c adbb 9728 863c

action_model._continuous_distribution.mu.bias f4 [2]
0.0 0.0
00000000: 0000 0000 0000 0000

network_body.observation_encoder.processors.0.normalizer.running_mean f4 [28]
0.008193337 0.99176747 0.0 0.048775624 0.046477485 0.95330215 0.0 0.057306714
0.060320914 0.93966883 0.0 0.057408202 0.7980753 0.20175532 0.0 0.06583925
0.78858894 0.21140228 0.0 0.06350697 0.94702685 0.052962855 0.0 0.06691274
0.9468077 0.053171117 0.0 0.064833395
00000000: 593d 063c 79e4 7d3f 0000 0000 f3c8 473d
00000010: 2d5f 3e3d 9c0b 743f 0000 0000 72ba 6a3d
00000020: 1013 773d 238e 703f 0000 0000 dd24 6b3d
00000030: aa4e 4c3f f298 4e3e 0000 0000 bbd6 863d
00000040: f7e0 493f d779 583e 0000 0000 f10f 823d
00000050: 5a70 723f 94ef 583d 0000 0000 8c09 893d
00000060: fd61 723f f5c9 593d 0000 0000 5fc7 843d

network_body.observation_encoder.processors.0.normalizer.running_variance f4 [28]
1052.2812 1053.2698 1.0 58.29257 5734.533 5759.8833 1.0 81.87829
7334.4756 7335.353 1.0 80.56449 20849.408 20836.832 1.0 65.20522
21569.736 21569.152 1.0 59.583675 6491.088 6490.209 1.0 42.27875
6515.1353 6514.2637 1.0 41.3208
00000000: 0089 8344 a2a8 8344 0000 803f 972b 6942
00000010: 4434 b345 11ff b345 0000 803f afc1 a342
00000020: ce33 e545 d33a e545 0000 803f 0521 a142
00000030: d1e2 a246 aac9 a246 0000 803f 1369 8242
00000040: 7983 a846 4e82 a846 0000 803f af55 6e42
00000050: b4d8 ca45 acd1 ca45 0000 803f 711d 2942
00000060: 1599 cb45 1c92 cb45 0000 803f 8048 2542

network_body.observation_encoder.processors.1.normalizer.running_mean f4 [2]
0.99614227 1.008815
00000000: 2e03 7f3f da20 813f

network_body.observation_encoder.processors.1.normalizer.running_variance f4 [2]
17.343267 136229.36
00000000: 03bf 8a41 5709 0548

network_body.processors.0.normalizer.running_mean f4 [28]
0.008193337 0.99176747 0.0 0.048775624 0.046477485 0.95330215 0.0 0.057306714
0.060320914 0.93966883 0.0 0.057408202 0.7980753 0.20175532 0.0 0.06583925
0.78858894 0.21140228 0.0 0.06350697 0.94702685 0.052962855 0.0 0.06691274
0.9468077 0.053171117 0.0 0.064833395
00000000: 593d 063c 79e4 7d3f 0000 0000 f3c8 473d
00000010: 2d5f 3e3d 9c0b 743f 0000 0000 72ba 6a3d
00000020: 1013 773d 238e 703f 0000 0000 dd24 6b3d
00000030: aa4e 4c3f f298 4e3e 0000 0000 bbd6 863d
00000040: f7e0 493f d779 583e 0000 0000 f10f 823d
00000050: 5a70 723f 94ef 583d 0000 0000 8c09 893d
00000060: fd61 723f f5c9 593d 0000 0000 5fc7 843d

network_body.processors.0.normalizer.running_variance f4 [28]
1052.2812 1053.2698 1.0 58.29257 5734.533 5759.8833 1.0 81.87829
7334.4756 7335.353 1.0 80.56449 20849.408 20836.832 1.0 65.20522
21569.736 21569.152 1.0 59.583675 6491.088 6490.209 1.0 42.27875
6515.1353 6514.2637 1.0 41.3208
00000000: 0089 8344 a2a8 8344 0000 803f 972b 6942
00000010: 4434 b345 11ff b345 0000 803f afc1 a342
00000020: ce33 e545 d33a e545 0000 803f 0521 a142
00000030: d1e2 a246 aac9 a246 0000 803f 1369 8242
00000040: 7983 a846 4e82 a846 0000 803f af55 6e42
00000050: b4d8 ca45 acd1 ca45 0000 803f 711d 2942
00000060: 1599 cb45 1c92 cb45 0000 803f 8048 2542

network_body.processors.1.normalizer.running_mean f4 [2]
0.99614227 1.008815
00000000: 2e03 7f3f da20 813f

network_body.processors.1.normalizer.running_variance f4 [2]
17.343267 136229.36
00000000: 03bf 8a41 5709 0548

network_body._body_endoder.seq_layers.0.weight f4 [128, 30]
-0.19144833 0.20229226 0.15178603 -0.06531398 0.10051272 0.027107153 -0.0025884423 0.011407155
-0.18548958 -0.09256347 -0.2751698 0.053500686 0.27904734 -0.1012379 -0.01287851 -0.09590324
-0.1799359 -0.24043441 -0.16107145 -0.34470728 0.1566762 -0.03822929 -0.026503798 0.15729702
-0.086980574 0.07612961 -0.2555709 -0.0573788 0.06017495 -0.052569456 0.112413526 0.03145364
-0.010901693 0.0761479 0.015318496 0.09087322 0.0744257 0.04991846 0.14767809 -0.29807934
0.052995358 0.18402714 0.02778973 0.00910262 -0.14811641 -0.029990867 -0.11039349 0.16192017
0.14741558 0.030624602 0.17668334 0.0028416163 0.12616871 -0.45938882 0.07308726 -0.013272714
0.21268392 0.2867066 -0.20668861 -0.3057842 -0.3568209 0.024011455 -0.16700852 -0.09260577
-0.004090758 0.115254916 -0.07019052 -0.1573375 -0.053295463 0.01849496 0.11594726 0.12815137
0.061876558 0.028815823 0.015742475 -0.021048203 0.016739495 -0.30198747 0.33437216 -0.036047112
-0.009813866 0.47869763 -0.11527466 0.17606588 -0.36683947 0.4658338 0.15399832 -0.106533356
-0.0081525585 0.010919421 0.075228825 0.06341184 -0.053651847 0.13194086 0.16097648 -0.1848704
-0.020149045 -0.10613107 -0.2623661 0.14275488 0.24737844 0.0028922483 0.13870059 0.29524916
-0.09493794 0.02977926 0.09309639 0.069727376 0.5396955 -0.17848063 0.40766364 -0.40991703
-0.15502597 -0.30640092 -0.11023565 0.298805 -0.31358847 -0.07967225 0.09252267 -0.3158836
0.3873556 0.09785871 -0.062964596 -0.027969794 0.24552888 -0.09612213 0.20542623 0.11007645
-0.120406955 0.18513334 0.15419236 0.061161704 0.17398934 -0.18387493 0.15875927 0.104856744
-0.13907632 -0.17735425 0.026265731 -0.035981026 0.20544244 0.1674003 -0.03427487 0.007982065
-0.03272461 -0.3727239 0.02518358 -0.16409475 -0.062169008 0.04863068 -0.06475551 -0.21452703
0.12363282 -0.0038412395 0.14412224 0.17434557 -0.009234613 0.0074125514 -0.27863368 0.118572615
-0.5380698 -0.15117042 -0.24052043 0.24305286 -0.013294058 0.08683457 0.106336005 -0.17264104
0.24377273 -0.19380836 0.11822568 -0.08911195 -0.17475174 -0.056580532 -0.0048877266 0.40738076
0.04186487 -0.06974496 -0.033085383 0.211687 0.16443667 -0.11749322 0.08388059 -0.07449279
0.00119537 -0.19812508 -0.15259646 -0.041511223 -0.05816748 0.053125452 0.35207295 0.26836342
-0.08608818 0.23272727 0.113979645 0.04558675 0.09562777 -0.064202875 -0.2493143 0.40987355
-0.052944537 0.19737217 0.16883959 0.04612988 -0.056740887 0.2308989 0.14041224 -0.0021097534
-0.2298383 0.044857077 -0.24269328 0.02348157 -0.22786053 0.014784282 0.03779312 0.05136235
-0.11661469 -0.07037734 -0.25441584 0.03546929 -0.008511673 -0.14532162 0.0360385 0.075118765
0.3722941 -0.107570626 0.12095072 -0.17372969 -0.22240399 0.034056313 0.086706705 -0.10613997
-0.1721647 0.09015279 0.031106554 -0.026968516 -0.10735291 -0.13682081 -0.27073392 0.07689345
-0.46089628 -0.050367728 0.1682108 -0.48770186 0.2982765 -0.17755939 0.011863993 0.015230515
-0.15528569 0.062385518 0.23347694 -0.008019241 -0.20014085 0.083391495 -0.022596767 -0.20547679
00000000: 080b 44be b425 4f3e cc6d 1b3e 56c3 85bd
00000010: 9dd9 cd3d d20f de3c dba2 29bb 13e5 3a3c
00000020: fbf0 3dbe eb91 bdbd 0ee3 8cbe 8923 5b3d
00000030: 4bdf 8e3e d155 cfbd 6300 53bc eb68 c4bd
00000040: 1e41 38be 7034 76be eaef 24be 797d b0be
00000050: ba6f 203e 5196 1cbd 7e1e d9bc 7812 213e
00000060: df22 b2bd d7e9 9b3d 30da 82be 0806 6bbd
00000070: 027a 763d 1253 57bd 1039 e63d 88d5 003d
00000080: 049d 32bc 6ef3 9b3d 6efa 7a3c bd1b ba3d
00000090: 806c 983d 4d77 4c3d ed38 173e db9d 98be
000000a0: a911 593d 9c71 3c3e 4aa7 e33c 2823 153c
000000b0: d4ab 17be 68af f5bc fb15 e2bd 67ce 253e
000000c0: 1cf4 163e 72e0 fa3c 7aec 343e 693a 3a3b
000000d0: 5f32 013e 0335 ebbe c6ae 953d cc75 59bc
000000e0: d0c9 593e 35cb 923e 2ea6 53be bf8f 9cbe
000000f0: 3bb1 b6be acb3 c43c 4804 2bbe 18a8 bdbd
00000100: c40b 86bb c50a ec3d 0cc0 8fbd 151d 21be
00000110: 584c 5abd be82 973c c275 ed3d 1d3a 033e
00000120: 4672 7d3d 290f ec3c 5df6 803c 486d acbc
00000130: 4421 893c 1a9e 9abe d432 ab3e 23a6 13bd
00000140: 56ca 20bc db17 f53e 1f15 ecbd 9d4a 343e
00000150: 62d2 bbbe c581 ee3e bcb1 1d3e 292e dabd
00000160: 4f92 05bc 5fe7 323c 9211 9a3d 11de 813d
00000170: 0ac2 5bbd 811b 073e 05d7 243e ab4e 3dbe
00000180: 9c0f a5bc 3f5b d9bd d954 86be 562e 123e
00000190: c650 7d3e e08b 3d3b 8707 0e3e e62a 973e
000001a0: d36e c2bd a2f3 f33c 52a9 be3d 3acd 8e3d
000001b0: 7c29 0a3f a0c3 36be 4ab9 d03e a5e0 d1be
000001c0: 21bf 1ebe 95e0 9cbe 3ac3 e1bd f8fc 983e
000001d0: ab8e a0be 342b a3bd 877c bd3d 7fbb a1be
000001e0: 7953 c63e 266a c83d 95f3 80bd e920 e5bc
000001f0: ec6b 7b3e aedb c4bd 415b 523e c36f e13d
00000200: ec97 f6bd 9893 3d3e 9ae4 1d3e b284 7a3d
00000210: 432a 323e b649 3cbe ca91 223e 22bf d63d
00000220: 066a 0ebe 5a9c 35be 3b2b d73c d760 13bd
00000230: 815f 523e fc6a 2b3e ce63 0cbd 35c7 023c
00000240: 3e0a 06bd abd5 bebe cc4d ce3c 7408 28be
00000250: eea4 7ebd f730 473d 899e 84bd f9ac 5bbe
00000260: 3433 fd3d 4ebd 7bbb c894 133e a587 323e
00000270: c64c 17bc fde4 f23b 13a9 8ebe 33d6 f23d
00000280: f1be 09bf 6bcc 1abe fd4a 76be d9e2 783e
00000290: 52cf 59bc 53d6 b13d b1c6 d93d d0c8 30be
000002a0: 8f9f 793e b375 46be 4e20 f23d 5380 b6bd
000002b0: 1ff2 32be fdc0 67bd 3929 a0bb 3694 d03e
000002c0: 7f7a 2b3d 72d6 8ebd 8a84 07bd 7ac4 583e
000002d0: 1662 283e 49a0 f0bd 96c9 ab3d ad8f 98bd
000002e0: f6ad 9c3a 4de1 4abe 3f42 1cbe ac07 2abd
000002f0: 0641 6ebd 139a 593d e842 b43e ee66 893e
00000300: 004f b0bd 0f50 6e3e 296e e93d 2cb9 3a3d
00000310: 7ed8 c33d cc7c 83bd 3f4c 7fbe f2da d13e
00000320: 5fdc 58bd ee1b 4a3e 49e4 2c3e aff2 3c3d
00000330: 2269 68bd c370 6c3e 3ac8 0f3e ca43 0abb
00000340: bb5a 6bbe 0ebc 373d 9684 78be 6c5c c03c
00000350: 4554 69be c639 723c f5cc 1a3d 5461 523d
00000360: afd3 eebd ff21 90bd cb42 82be 3f48 113d
00000370: 8b74 0bbc 31cf 14be 1b9d 133d ded7 993d
00000380: 559d be3e fd4d dcbd 03b5 f73d 32e6 31be
00000390: dfbd 63be a27e 0b3d 4993 b13d ea5f d9bd
000003a0: f14b 30be 07a2 b83d 2cd3 fe3c 14ed dcbc
000003b0: d8db dbbd c11a 0cbe a39d 8abe 507a 9d3d
000003c0: 99fa ebbe 644e 4ebd 743f 2c3e 0fb4 f9be
000003d0: b3b7 983e 21d2 35be 3161 423c 6989 793c
000003e0: 3603 1fbe f587 7f3d 9414 6f3e 2263 03bc
000003f0: b9f1 4cbe 29c9 aa3d db1c b9bc 8268 52be

network_body._body_endoder.seq_layers.0.bias f4 [128]
0.0 0.0 0.0 0.0 0.0 0.0 0.0 0.0
0.0 0.0 0.0 0.0 0.0 0.0 0.0 0.0
0.0 0.0 0.0 0.0 0.0 0.0 0.0 0.0
0.0 0.0 0.0 0.0 0.0 0.0 0.0 0.0
0.0 0.0 0.0 0.0 0.0 0.0 0.0 0.0
0.0 0.0 0.0 0.0 0.0 0.0 0.0 0.0
0.0 0.0 0.0 0.0 0.0 0.0 0.0 0.0
0.0 0.0 0.0 0.0 0.0 0.0 0.0 0.0
0.0 0.0 0.0 0.0 0.0 0.0 0.0 0.0
0.0 0.0 0.0 0.0 0.0 0.0 0.0 0.0
0.0 0.0 0.0 0.0 0.0 0.0 0.0 0.0
0.0 0.0 0.0 0.0 0.0 0.0 0.0 0.0
0.0 0.0 0.0 0.0 0.0 0.0 0.0 0.0
0.0 0.0 0.0 0.0 0.0 0.0 0.0 0.0
0.0 0.0 0.0 0.0 0.0 0.0 0.0 0.0
0.0 0.0 0.0 0.0 0.0 0.0 0.0 0.0
00000000: 0000 0000 0000 0000 0000 0000 0000 0000
00000010: 0000 0000 0000 0000 0000 0000 0000 0000
00000020: 0000 0000 0000 0000 0000 0000 0000 0000
00000030: 0000 0000 0000 0000 0000 0000 0000 0000
00000040: 0000 0000 0000 0000 0000 0000 0000 0000
00000050: 0000 0000 0000 0000 0000 0000 0000 0000
00000060: 0000 0000 0000 0000 0000 0000 0000 0000
00000070: 0000 0000 0000 0000 0000 0000 0000 0000
00000080: 0000 0000 0000 0000 0000 0000 0000 0000
00000090: 0000 0000 0000 0000 0000 0000 0000 0000
000000a0: 0000 0000 0000 0000 0000 0000 0000 0000
000000b0: 0000 0000 0000 0000 0000 0000 0000 0000
000000c0: 0000 0000 0000 0000 0000 0000 0000 0000
000000d0: 0000 0000 0000 0000 0000 0000 0000 0000
000000e0: 0000 0000 0000 0000 0000 0000 0000 0000
000000f0: 0000 0000 0000 0000 0000 0000 0000 0000
00000100: 0000 0000 0000 0000 0000 0000 0000 0000
00000110: 0000 0000 0000 0000 0000 0000 0000 0000
00000120: 0000 0000 0000 0000 0000 0000 0000 0000
00000130: 0000 0000 0000 0000 0000 0000 0000 0000
00000140: 0000 0000 0000 0000 0000 0000 0000 0000
00000150: 0000 0000 0000 0000 0000 0000 0000 0000
00000160: 0000 0000 0000 0000 0000 0000 0000 0000
00000170: 0000 0000 0000 0000 0000 0000 0000 0000
00000180: 0000 0000 0000 0000 0000 0000 0000 0000
00000190: 0000 0000 0000 0000 0000 0000 0000 0000
000001a0: 0000 0000 0000 0000 0000 0000 0000 0000
000001b0: 0000 0000 0000 0000 0000 0000 0000 0000
000001c0: 0000 0000 0000 0000 0000 0000 0000 0000
000001d0: 0000 0000 0000 0000 0000 0000 0000 0000
000001e0: 0000 0000 0000 0000 0000 0000 0000 0000
000001f0: 0000 0000 0000 0000 0000 0000 0000 0000

network_body._body_endoder.seq_layers.2.weight f4 [128, 128]
0.08114639 0.081542656 -0.08491835 0.0937307 0.102123864 -0.19169834 -0.076634265 -0.027480662
-0.055293605 0.04768786 0.033664823 -0.17955796 0.053082094 -0.14038709 -0.030184306 0.062849075
-0.05820336 -0.036948513 0.11616295 0.07698545 0.0052970117 -0.016940132 -0.12901153 0.14651471
0.07094672 0.12001772 0.13258506 0.049768705 -0.07409182 -0.06377386 0.046995874 0.053927213
-0.08411447 -0.07644719 -0.008490834 0.14499928 0.04550974 0.096270576 0.15853815 -0.044417713
0.09081695 -0.09649562 0.004743318 -0.02049135 0.05051355 -0.012033324 0.05146532 0.0698568
-0.03347743 0.024730986 -0.018081322 -0.069873445 -0.03470921 -0.012783674 -0.018874729 0.051131345
-0.090477094 0.063052535 -0.09562812 0.037374925 0.10565298 0.046037138 -0.08666404 -0.111095294
-0.01909231 0.085776165 -0.06102353 0.047620106 -0.040840436 0.018620325 -0.082534954 -0.07445136
-0.00018199459 -0.043264378 -0.027633091 0.07449997 0.029746834 0.119571924 -0.06709563 -0.034689732
0.04503844 -0.029237289 -0.08792108 -0.0655863 0.0365653 0.010808605 -0.019448724 0.012724348
-0.06280265 0.1521535 0.05623496 -0.054378796 -0.05811417 -0.04586174 0.015170388 0.02200231
0.06642328 0.014215908 0.102575965 0.1309417 0.113172926 0.055194095 -0.15522175 -0.033650804
-0.009516156 -0.029211791 -0.1576914 0.1438628 -0.0568252 -0.05615056 -0.14092372 -0.020065302
-0.10221068 0.022733115 -0.0017042672 0.024008818 0.030313864 -0.012022597 0.08488738 -0.025890145
-0.00074393227 0.006960682 0.20486106 0.057106044 -0.11841857 0.017979762 -0.052531946 0.0651713
-0.009459981 0.0064979475 -0.08879258 -0.09314171 0.05068965 -0.15898477 -0.15796696 -0.068341166
-0.069300435 0.068436675 -0.052864723 -0.04819357 -0.02674086 0.017749691 0.036547434 0.15216817
-0.05877563 0.088289104 0.026026132 -0.119365856 -0.009857446 -0.05808783 0.05204695 -0.14779115
-0.16616608 -0.04084194 0.09754407 -0.014373996 -0.10544747 0.07714757 -0.009745338 0.121055365
-0.05072823 0.14838071 -0.0700628 -0.013040676 0.11048742 0.121008165 -0.1021136 0.012420627
0.13026164 0.018300902 -0.013986649 0.16486934 0.039423518 -0.051790785 -0.0005490602 0.04463516
0.08150636 -0.114817426 -0.0687932 -0.12562118 -0.15541105 -0.0389945 -0.10432229 -0.07894868
-0.00045813422 -0.050781198 -0.013654368 -0.013997339 -0.046033423 0.043215085 0.03924041 -0.016563525
-0.113694295 -0.11507395 0.04442338 0.011234544 -0.049465653 -0.056517985 -0.16502346 -0.24197799
-0.01434009 0.08596162 0.04498731 -0.06011375 -0.06575479 0.01169959 -0.13299285 -0.016635813
0.047140695 0.113489985 -0.08315988 -0.090068474 -0.053426914 -0.046799567 0.010956976 0.12420284
-0.029128898 -0.010664232 -0.12578443 -0.016858447 -0.03178432 -0.12364844 -0.041458134 0.07706144
-0.0585411 0.20537628 0.0026073179 -0.0730422 0.02462586 -0.28332886 -0.06853164 -0.09255598
-0.077186644 -0.05501776 -0.09959538 -0.022571402 -0.005751747 -0.102535926 0.0013992011 0.16666183
-0.00088130176 -0.061512467 -0.20113818 0.15849435 -0.10693512 -0.14536439 -0.016793974 0.060233805
-0.023037694 -0.12410267 -0.023649056 0.0064863204 0.04472595 -0.016834555 -0.07401063 -0.023022002
00000000: 1430 a63d d6ff a63d ace9 adbd e2f5 bf3d
00000010: 5126 d13d 924c 44be 6df2 9cbd 201f e1bc
00000020: 8c7b 62bd 5854 433d 20e4 093d 0bde 37be
00000030: 9c6c 593d a2c1 0fbe 1445 f7bc 04b7 803d
00000040: a566 6ebd 5357 17bd d7e6 ed3d 8caa 9d3d
00000050: 8e92 ad3b 08c6 8abc 991b 04be f407 163e
00000060: 844c 913d dacb f53d 61c4 073e 45da 4b3d
00000070: 74bd 97bd df9b 82bd bf7e 403d c8e2 5c3d
00000080: 3544 acbd 5890 9cbd 241d 0bbc b17a 143e
00000090: 6c68 3a3d 8229 c53d d357 223e 59ef 35bd
000000a0: 3dfe b93d 7f9f c5bd d66d 9b3b 7add a7bc
000000b0: 4ce7 4e3d 6b27 45bc 4dcd 523d 1511 8f3d
000000c0: a11f 09bd a398 ca3c 481f 94bc cf19 8fbd
000000d0: 3f2b 0ebd 9d72 51bc 2d9f 9abc 1a6f 513d
000000e0: 0e4c b9bd b021 813d add8 c3bd 7316 193d
000000f0: 9760 d83d 7091 3c3d eb7c b1bd ee85 e3bd
00000100: 7a67 9cbc 6aab af3d cff3 79bd 4d0d 433d
00000110: 4d48 27bd a789 983c 1608 a9bd f479 98bd
00000120: cdd5 3eb9 fd35 31bd cb5e e2bc 7193 983d
00000130: a2af f33c 20e2 f43d 6f69 89bd d216 0ebd
00000140: 3a7a 383d 0a83 efbc f80f b4bd 1c52 86bd
00000150: 7fc5 153d 9316 313c ee52 9fbc c979 503c
00000160: ad9e 80bd 21ce 1b3e a156 663d 4dbc 5ebd
00000170: 2009 6ebd 85d9 3bbd 388d 783c 303e b43c
00000180: ee08 883d d7e9 683c 5913 d23d 9515 063e
00000190: 35c7 e73d 3413 623d 73f2 1ebe 6dd5 09bd
000001a0: a7e9 1bbc 914d efbc db79 21be c550 133e
000001b0: 8ac1 68bd 21fe 65bd 4f4e 10be fd5f a4bc
000001c0: d553 d1bd cc3a ba3c b861 dfba 24ae c43c
000001d0: c854 f83c 6dfa 44bc 6fd9 ad3d 9217 d4bc
000001e0: 7304 43ba 6f16 e43b 19c7 513e 07e8 693d
000001f0: 6f85 f2bd 4b4a 933c bd2b 57bd 8878 853d
00000200: 09fe 1abc bcec d43b e2d8 b5bd 15c1 bebd
00000210: f39f 4f3d e7cc 22be 17c2 21be 74f6 8bbd
00000220: 63ed 8dbd 8728 8c3d ae88 58bd 9f66 45bd
00000230: a60f dbbc cd67 913c c3b2 153d f9d1 1b3e
00000240: b7be 70bd ebd0 b43d c134 d53c 1676 f4bd
00000250: 2081 21bc 81ed 6dbd 2f2f 553d 9056 17be
00000260: 7127 2abe e149 27bd 2fc5 c73d e980 6bbc
00000270: d8f4 d7bd 8cff 9d3d e9aa 1fbc e0eb f73d
00000280: 68c8 4fbd 1df1 173e 167d 8fbd 8fa8 55bc
00000290: 3a47 e23d 21d3 f73d ef20 d1bd e37f 4b3c
000002a0: 4f63 053e c6eb 953c 4228 65bc 82d3 283e
000002b0: 8e7a 213d 9322 54bd ceee 0fba 5cd3 363d
000002c0: ceec a63d 6625 ebbd 73e3 8cbd d7a2 00be
000002d0: 1324 1fbe b2b8 1fbd eda6 d5bd d8af a1bd
000002e0: bc31 f0b9 f2ff 4fbd 92b6 5fbc 1855 65bc
000002f0: 8b8d 3cbd 4d02 313d 8dba 203d 3bb0 87bc
00000300: 8ed8 e8bd e4ab ebbd 4af5 353d 1811 383c
00000310: 7f9c 4abd 677f 67bd e9fb 28be 14c9 77be
00000320: b2f2 6abc a50c b03d 9d44 383d d639 76bd
00000330: 73aa 86bd a3af 3f3c 472f 08be d447 88bc
00000340: 9a16 413d 706d e83d ba4f aabd d275 b8bd
00000350: 2ed6 5abd e7b0 3fbd e384 333c 0f5e fe3d
00000360: ba9f eebc 08b9 2ebc a2cd 00be ba1a 8abc
00000370: 4630 02bd 653b fdbd 01d0 29bd 63d2 9d3d
00000380: cbc8 6fbd 294e 523e 89df 2a3b 2697 95bd
00000390: 2cbc c93c 7b10 91be 515a 8cbd fd8d bdbd
000003a0: 0814 9ebd 4d5a 61bd aaf8 cbbd a9e7 b8bc
000003b0: 2779 bcbb 5bfe d1bd 6665 b73a 66a9 2a3e
000003c0: 2907 67ba 7ff4 7bbd 2bf7 4dbe 584c 223e
000003d0: cd00 dbbd 67da 14be 8493 89bc b9b7 763d
000003e0: 8cb9 bcbc 8a29 febd aabb c1bc 338b d43b
000003f0: 8f32 373d 9fe8 89bc e392 97bd a398 bcbc

network_body._body_endoder.seq_layers.2.bias f4 [128]
0.0 0.0 0.0 0.0 0.0 0.0 0.0 0.0
0.0 0.0 0.0 0.0 0.0 0.0 0.0 0.0
0.0 0.0 0.0 0.0 0.0 0.0 0.0 0.0
0.0 0.0 0.0 0.0 0.0 0.0 0.0 0.0
0.0 0.0 0.0 0.0 0.0 0.0 0.0 0.0
0.0 0.0 0.0 0.0 0.0 0.0 0.0 0.0
0.0 0.0 0.0 0.0 0.0 0.0 0.0 0.0
0.0 0.0 0.0 0.0 0.0 0.0 0.0 0.0
0.0 0.0 0.0 0.0 0.0 0.0 0.0 0.0
0.0 0.0 0.0 0.0 0.0 0.0 0.0 0.0
0.0 0.0 0.0 0.0 0.0 0.0 0.0 0.0
0.0 0.0 0.0 0.0 0.0 0.0 0.0 0.0
0.0 0.0 0.0 0.0 0.0 0.0 0.0 0.0
0.0 0.0 0.0 0.0 0.0 0.0 0.0 0.0
0.0 0.0 0.0 0.0 0.0 0.0 0.0 0.0
0.0 0.0 0.0 0.0 0.0 0.0 0.0 0.0
00000000: 0000 0000 0000 0000 0000 0000 0000 0000
00000010: 0000 0000 0000 0000 0000 0000 0000 0000
00000020: 0000 0000 0000 0000 0000 0000 0000 0000
00000030: 0000 0000 0000 0000 0000 0000 0000 0000
00000040: 0000 0000 0000 0000 0000 0000 0000 0000
00000050: 0000 0000 0000 0000 0000 0000 0000 0000
00000060: 0000 0000 0000 0000 0000 0000 0000 0000
00000070: 0000 0000 0000 0000 0000 0000 0000 0000
00000080: 0000 0000 0000 0000 0000 0000 0000 0000
00000090: 0000 0000 0000 0000 0000 0000 0000 0000
000000a0: 0000 0000 0000 0000 0000 0000 0000 0000
000000b0: 0000 0000 0000 0000 0000 0000 0000 0000
000000c0: 0000 0000 0000 0000 0000 0000 0000 0000
000000d0: 0000 0000 0000 0000 0000 0000 0000 0000
000000e0: 0000 0000 0000 0000 0000 0000 0000 0000
000000f0: 0000 0000 0000 0000 0000 0000 0000 0000
00000100: 0000 0000 0000 0000 0000 0000 0000 0000
00000110: 0000 0000 0000 0000 0000 0000 0000 0000
00000120: 0000 0000 0000 0000 0000 0000 0000 0000
00000130: 0000 0000 0000 0000 0000 0000 0000 0000
00000140: 0000 0000 0000 0000 0000 0000 0000 0000
00000150: 0000 0000 0000 0000 0000 0000 0000 0000
00000160: 0000 0000 0000 0000 0000 0000 0000 0000
00000170: 0000 0000 0000 0000 0000 0000 0000 0000
00000180: 0000 0000 0000 0000 0000 0000 0000 0000
00000190: 0000 0000 0000 0000 0000 0000 0000 0000
000001a0: 0000 0000 0000 0000 0000 0000 0000 0000
000001b0: 0000 0000 0000 0000 0000 0000 0000 0000
000001c0: 0000 0000 0000 0000 0000 0000 0000 0000
000001d0: 0000 0000 0000 0000 0000 0000 0000 0000
000001e0: 0000 0000 0000 0000 0000 0000 0000 0000
000001f0: 0000 0000 0000 0000 0000 0000 0000 0000

value_heads.value_heads.extrinsic.weight f4 [1, 128]
-0.20436457 0.19932583 0.18758628 -0.106375314 0.12930307 -0.1773628 -0.10499097 -0.17899206
-0.094559714 0.0021203458 0.14691749 -0.08808376 0.16068473 0.13491687 0.08775216 0.08485669
-0.05914803 -0.16059905 0.11106399 0.20953661 -0.13473795 -0.0470967 0.04402417 -0.089052975
-0.2044693 0.12282345 -0.088747784 0.12617296 -0.03586632 -0.20974548 -0.10501238 -0.14209992
-0.20622873 -0.102305986 -0.07935202 -0.17683764 0.1285654 0.14930746 -0.09339755 0.1182048
-0.11343816 0.20462114 0.029427141 -0.17919706 0.053027064 0.1735456 -0.13391729 -0.019401014
0.029582933 -0.06776704 0.13156804 0.08133656 0.17944604 0.088172525 0.039643615 -0.13825859
0.20976418 0.124494046 -0.02167596 -0.004211113 -0.039686143 -0.10063704 -0.15275475 -0.08632614
-0.0125927925 0.0015798658 -0.05348535 0.023440003 0.18356884 0.068617016 -0.053346336 0.122373015
-0.1905164 0.11701578 -0.07550843 0.097982824 -0.21135548 0.18760899 -0.1255399 0.03814259
-0.07658361 0.1945729 -0.11428551 -0.1847831 -0.13663274 0.19378695 -0.18867457 0.12854096
0.07581073 -0.18112513 0.095642656 -0.051976442 0.04804516 -0.033104032 -0.049415246 -0.15716238
0.12553406 0.17142028 -0.026030853 -0.1291791 -0.18348458 -0.0021532923 0.12209833 0.06535402
0.1301068 0.20524365 0.21136513 0.16061169 -0.033542156 -0.19136287 -0.117021754 -0.10946195
-0.16629273 0.102700174 -0.05781333 -0.17144176 0.21498123 0.1540828 -0.017457798 0.20508587
-0.14363429 -0.06785998 0.028107226 0.015501261 -0.18259138 0.026080534 0.14536735 -0.09168721
00000000: f244 51be 121c 4c3e 9e16 403e 4ddb d9bd
00000010: 0668 043e 989e 35be 8105 d7bd b249 37be
00000020: 86a8 c1bd 80f5 0a3b 8a71 163e 4265 b4bd
00000030: 8a8a 243e a627 0a3e 68b7 b33d 58c9 ad3d
00000040: 3445 72bd 1474 24be 8475 e33d c490 563e
00000050: bff8 09be 78e8 40bd b052 343d 6861 b6bd
00000060: 6660 51be dc8a fb3d 66c1 b5bd 7c33 013e
00000070: 90e8 12bd 85c7 56be bb10 d7bd a482 11be
00000080: a02d 53be cd85 d1bd 5083 a2bd ed14 35be
00000090: a6a6 033e 0ee4 183e 3747 bfbd 5c15 f23d
000000a0: 4452 e8bd 3488 513e 3011 f13c 6f7f 37be
000000b0: e832 593d f0b5 313e 9d21 09be e0ee 9ebc
000000c0: e857 f23c 72c9 8abd c6b9 063e c893 a63d
000000d0: b4c0 373e cc93 b43d 5861 223d a993 0dbe
000000e0: 6ccc 563e bcf6 fe3d c891 b1bc 60fd 89bb
000000f0: f08d 22bd cb1a cebd be6b 1cbe c2cb b0bd
00000100: 0052 4ebc 8013 cf3a 7413 5bbd 4005 c03c
00000110: 78f9 3b3e 1487 8c3d b081 5abd b49e fa3d
00000120: bb16 43be f8a5 ef3d 2aa4 9abd 38ab c83d
00000130: 926d 58be 921c 403e 888d 00be 683b 1c3d
00000140: ded7 9cbd 1e3e 473e 850e eabd c837 3dbe
00000150: 74e9 0bbe 1670 463e e833 41be 3ea0 033e
00000160: a842 9b3d de78 39be 4ce0 c33d 40e5 54bd
00000170: 00cb 443d 1898 07bd a467 4abd 2def 20be
00000180: 008c 003e cc88 2f3e a83e d5bc 8747 04be
00000190: 62e3 3bbe 401e 0dbb b00e fa3d 54d8 853d
000001a0: b83a 053e 642b 523e 1a70 583e 6477 243e
000001b0: 8063 09bd a1f4 43be 1aa9 efbd 962d e0bd
000001c0: a448 2abe 7854 d23d accd 6cbd 6e8e 2fbe
000001d0: 0a24 5c3e e2c7 1d3e a803 8fbc 0802 523e
000001e0: de14 13be 2cfa 8abd 2041 e63c 00f9 7d3c
000001f0: 3cf9 3abe d8a6 d53c 2edb 143e 81c6 bbbd
