results - copia/PruebaAgenteRenovado/AgenteCoche/AgenteCoche-499982.pt (torch, 258959 bytes, 18 tensors)

network_body._body_endoder.seq_layers.0.weight f4 [128, 29]
0	0x3e81fd32	0.25388485
1	0x3e6c7ce1	0.23094513
2	0xbdac2a13	-0.084064625
3	0xbe7d23aa	-0.24720636
4	0x3dd19abc	0.10234591
5	0x3e87d7db	0.26531872
6	0x3d769917	0.06020459
7	0x3ed716e1	0.42009643
8	0x3d6d66c5	0.057959337
9	0x3e3e72c0	0.18598461
10	0x3dc8a32c	0.097967476
11	0xbeb5e9d3	-0.35529956
12	0xbbc98f27	-0.0061510983
13	0x3e269383	0.16267209
14	0xbe9a1512	-0.300942
15	0x3e20370a	0.15645996
16	0xbd1d1c2c	-0.038356945
17	0x3e3afb69	0.18259968
18	0xbd91a02d	-0.07110629
19	0xbdf2381a	-0.11827107
20	0x3e3a7701	0.18209459
21	0x3e1e59d2	0.15463951
22	0x3e936af0	0.28792524
23	0x3e632401	0.22181703
24	0xbd2dc782	-0.042426594
25	0xbe0f6a5d	-0.14005418
26	0x3c96c0c3	0.018402463
27	0x3dbf85d4	0.093516976
28	0x3deabf13	0.11462226
29	0xbc003f40	-0.00782758
30	0xbe8af6e6	-0.27141494
31	0xbde6694a	-0.11250551
32	0x3d8be84c	0.068314165
33	0x3dce4dcc	0.10073432
34	0xbe2978fa	-0.16550055
35	0xbe6877ea	-0.22701994
36	0x3e883bdd	0.26608172
37	0xbe06da15	-0.13169129
38	0x3e23e9ef	0.16007207
39	0x3edaff25	0.42772785
40	0xbe519b6c	-0.20469445
41	0xbe8c2114	-0.27368987
42	0xbbf13af6	-0.007361765
43	0xbe4baa84	-0.19889265
44	0x3dd5c19b	0.10437318
45	0x3c48a3b1	0.012246058
46	0xbe108698	-0.14113843
47	0xbd37b17f	-0.044847008
48	0xbe5bb860	-0.21457052
49	0xbe1d7a40	-0.15378666
50	0x3ee6c6ab	0.45073447
51	0xbd110acc	-0.035410687
52	0x3d06ae3c	0.032881007
53	0x3e2f5aea	0.17124525
54	0x3ede649f	0.43436143
55	0xbda74c99	-0.08168907
56	0x3d91ab51	0.07112754
57	0xbd030415	-0.031986315
58	0xbd03326d	-0.03203051
59	0xbe5ebd77	-0.21751963
60	0xbe13ab4a	-0.1442081
61	0xbd97b6da	-0.07407923
62	0x3cad4af2	0.0211539
63	0x3d4cc4d0	0.049992383
64	0xbe31d16b	-0.17365043
65	0xbc80caaf	-0.015721647
66	0x3e56b81f	0.20968674
67	0xbcb5d52d	-0.022196377
68	0x3d42f100	0.047593117
69	0xbe2dd673	-0.16976337
70	0x3d0c22b7	0.034212794
71	0xbdedf001	-0.11618043
72	0x3d1abc08	0.037776977
73	0xbdc06bb9	-0.093955465
74	0x3c937945	0.018002162
75	0x3e966b41	0.29378703
76	0xbd283179	-0.041062806
77	0x3dc1c96d	0.09462247
78	0x3c7572e0	0.014981002
79	0xbe10c9fe	-0.14139554
80	0x3e6bbf06	0.23022088
81	0x3e7c2cf3	0.24626522
82	0x3de3321d	0.11093543
83	0x3e8bb11a	0.27283555
84	0x3f0630d4	0.52418256
85	0x3f0e27ca	0.55529463
86	0xbdec73c8	-0.11545521
87	0x3dee98d2	0.11650242
88	0x3c3b04b1	0.011414693
89	0x3e595519	0.21223868
90	0xbdcecb8a	-0.10097416
91	0x3b39c205	0.0028344404
92	0xbdfd0058	-0.12353581
93	0xbe0e8ec5	-0.1392165
94	0xbe86acd2	-0.26303726
95	0xbe3de25e	-0.18543383
96	0xbe08ee37	-0.13372122
97	0xbede4f0c	-0.43419683
98	0x3e301193	0.17194204
99	0x3e1d03ee	0.1533353
100	0x3d5a475c	0.05329071
101	0xbd9521d4	-0.07281843
102	0x3eab992a	0.33515292
103	0x3d12d9ac	0.03585212
104	0x3d316a30	0.04331416
105	0x3dc873ba	0.09787698
106	0x3ea27348	0.31728578
107	0xbc6136a3	-0.013745937
108	0x3e170158	0.14746606
109	0x3d9f1f8b	0.07769688
110	0xbe1bca7c	-0.1521396
111	0xbd74b6e7	-0.05974474
112	0xbe80b3cc	-0.25137174
113	0x3d8f7060	0.07003856
114	0x3e5840ef	0.2111852
115	0xbe81c537	-0.25345775
116	0xbeabbfee	-0.33544868
117	0xbe47c02c	-0.19506902
118	0x3d7127b7	0.058875766
119	0x3dc7e7b1	0.097609885
120	0xbe1d890d	-0.15384312
121	0xbd4788fb	-0.04871462
122	0xbe5f9fbd	-0.21838279
123	0xbe25350b	-0.16133516
124	0xbeae2083	-0.3400918
125	0x3dba50c4	0.09097436
126	0x3d8eca4c	0.06972179
127	0xbe325d8e	-0.17418501
128	0x3e15b17f	0.1461849
129	0x3e9cb0bf	0.30603597
130	0xbd13d827	-0.03609481
131	0xbe770e44	-0.24126536
132	0xbe8efb1c	-0.27925956
133	0x3e742675	0.23842795
134	0xbdfe2748	-0.12409836
135	0x3d289f1b	0.04116736
136	0x3c0eeb47	0.008723087
137	0x3cd48c02	0.025945667
138	0xbe302a9b	-0.17203753
139	0x3b71c1fe	0.003688931
140	0xbd9687c3	-0.07350113
141	0x3c984410	0.018587142
142	0x3d840b1e	0.06447433
143	0x3d93998a	0.072070196
144	0xbd89bd18	-0.0672552
145	0xbe327103	-0.17425923
146	0xbe0835f7	-0.13301836
147	0xbe763346	-0.24042997
148	0xbdfc61de	-0.12323354
149	0xbce15e02	-0.027510647
150	0xbecda13f	-0.40162084
151	0x3d72f6b0	0.05931729
152	0x3d0d0d54	0.03443654
153	0x3e21b7b6	0.15792736
154	0x3e6cfcc7	0.23143302
155	0xbbbc9c5e	-0.005755945
156	0xbe044eec	-0.12920731
157	0xbe3e9893	-0.1861289
158	0x3e80d9f8	0.25166297
159	0x3e4a51c4	0.19757754
160	0xbdb64aa3	-0.089009546
161	0xbe429d60	-0.19005346
162	0xbd0f27f0	-0.034950197
163	0xbd95d473	-0.07315912
164	0xbd001682	-0.031271465
165	0xbcf9a62a	-0.030474741
166	0x3e287f00	0.16454697
167	0xbe9fc058	-0.31201434
168	0x3e98e2c9	0.29860523
169	0x3dd8eb1b	0.10591718
170	0xbde11126	-0.10989599
171	0xbd62841e	-0.055301778
172	0xbe606fbf	-0.21917628
173	0xbeb2887f	-0.34869763
174	0x3c2d8510	0.010590807
175	0x3d3a2d94	0.045453623
176	0xbdc77f56	-0.09741084
177	0xbda7f092	-0.08200182
178	0x3d588ede	0.052870624
179	0xbdff7f50	-0.12475455
180	0xbe692831	-0.22769238
181	0xbe7cdb04	-0.24692923
182	0xbd81c7b1	-0.06336916
183	0x3e25d531	0.16194607
184	0xbe68ca6a	-0.22733465
185	0xbe132ce2	-0.1437259
186	0x3ee7d649	0.45280674
187	0x3d98c534	0.074594885
188	0xbdca8a73	-0.09889688
189	0xbd28ac41	-0.0411799
190	0xbe23b5f1	-0.15987374
191	0xbe91bec2	-0.2846585
192	0x3ef00dc8	0.46885514
193	0x3de5e72f	0.112257354
194	0xbddcdbfa	-0.10784145
195	0xbe1747a1	-0.14773418
196	0x3e83f4ff	0.25772855
197	0x3e4648dd	0.19363733
198	0xbe5505ff	-0.20803069
199	0xbdd5ecf4	-0.10445586
200	0x3e80969b	0.25114903
201	0xbe8a5ea1	-0.2702532
202	0x3cfa8c34	0.030584432
203	0xbd8d9eb4	-0.06915036
204	0x3c0e0f0c	0.00867058
205	0xbc5861c3	-0.013206902
206	0x3e3e841c	0.18605083
207	0x3edebfa6	0.4350559
208	0x3dd57542	0.10422756
209	0xbe547067	-0.20746003
210	0x3d6f647f	0.05844545
211	0xbe185eb6	-0.1487988
212	0xbe89c5ee	-0.2690882
213	0xbc7658f9	-0.015035861
214	0x3e7cfae5	0.24705084
215	0xbcfb730d	-0.030694509
216	0xbee1caeb	-0.44100127
217	0xbcd24af4	-0.025670506
218	0x3d898152	0.06714119
219	0xbe9d0cdb	-0.3067387
220	0xbd8ddf52	-0.069273606
221	0x3df13a32	0.11778678
222	0xbe8f47d0	-0.27984476
223	0xbe9a9652	-0.3019281
224	0x3c55d03f	0.013050138
225	0x3e2598e2	0.16171601
226	0xbee794cc	-0.4523071
227	0xbe2aca4d	-0.16678734
228	0x3e57b4a7	0.21065007
229	0x3e32f9db	0.17478125
230	0xbe4185e3	-0.1889873
231	0xbec9ddd2	-0.39427048
232	0xbd04b995	-0.032403547
233	0x3e804ce6	0.2505867
234	0x3de3e46d	0.11127553
235	0x3ce5167d	0.027964825
236	0x3d7a21b2	0.06106729
237	0xbd7662b0	-0.06015271
238	0x3d8c34db	0.06846019
239	0x3e671e11	0.22570063
240	0xbe52c6bf	-0.20583628
241	0x3d053f52	0.03253109
242	0xbeac559f	-0.33659074
243	0xbda497b2	-0.08036746
244	0x3e08908b	0.13336389
245	0xbe5f990a	-0.21835724
246	0xbda941e5	-0.082645215
247	0x3cad49fa	0.021153439
248	0x3e2a5d97	0.16637264
249	0xbe55a54b	-0.20863836
250	0xbe8b5204	-0.2721101
251	0x3d1f9736	0.038962565
252	0x3d2575ed	0.040395666
253	0xbcbbe826	-0.022937845
254	0x3e497578	0.19673717
255	0x3c85306f	0.016258446

network_body._body_endoder.seq_layers.0.bias f4 [128]
0	0x00000000	0.0
1	0x00000000	0.0
2	0x00000000	0.0
3	0x00000000	0.0
4	0x00000000	0.0
5	0x00000000	0.0
6	0x00000000	0.0
7	0x00000000	0.0
8	0x00000000	0.0
9	0x00000000	0.0
10	0x00000000	0.0
11	0x00000000	0.0
12	0x00000000	0.0
13	0x00000000	0.0
14	0x00000000	0.0
15	0x00000000	0.0
16	0x00000000	0.0
17	0x00000000	0.0
18	0x00000000	0.0
19	0x00000000	0.0
20	0x00000000	0.0
21	0x00000000	0.0
22	0x00000000	0.0
23	0x00000000	0.0
24	0x00000000	0.0
25	0x00000000	0.0
26	0x00000000	0.0
27	0x00000000	0.0
28	0x00000000	0.0
29	0x00000000	0.0
30	0x00000000	0.0
31	0x00000000	0.0
32	0x00000000	0.0
33	0x00000000	0.0
34	0x00000000	0.0
35	0x00000000	0.0
36	0x00000000	0.0
37	0x00000000	0.0
38	0x00000000	0.0
39	0x00000000	0.0
40	0x00000000	0.0
41	0x00000000	0.0
42	0x00000000	0.0
43	0x00000000	0.0
44	0x00000000	0.0
45	0x00000000	0.0
46	0x00000000	0.0
47	0x00000000	0.0
48	0x00000000	0.0
49	0x00000000	0.0
50	0x00000000	0.0
51	0x00000000	0.0
52	0x00000000	0.0
53	0x00000000	0.0
54	0x00000000	0.0
55	0x00000000	0.0
56	0x00000000	0.0
57	0x00000000	0.0
58	0x00000000	0.0
59	0x00000000	0.0
60	0x00000000	0.0
61	0x00000000	0.0
62	0x00000000	0.0
63	0x00000000	0.0
64	0x00000000	0.0
65	0x00000000	0.0
66	0x00000000	0.0
67	0x00000000	0.0
68	0x00000000	0.0
69	0x00000000	0.0
70	0x00000000	0.0
71	0x00000000	0.0
72	0x00000000	0.0
73	0x00000000	0.0
74	0x00000000	0.0
75	0x00000000	0.0
76	0x00000000	0.0
77	0x00000000	0.0
78	0x00000000	0.0
79	0x00000000	0.0
80	0x00000000	0.0
81	0x00000000	0.0
82	0x00000000	0.0
83	0x00000000	0.0
84	0x00000000	0.0
85	0x00000000	0.0
86	0x00000000	0.0
87	0x00000000	0.0
88	0x00000000	0.0
89	0x00000000	0.0
90	0x00000000	0.0
91	0x00000000	0.0
92	0x00000000	0.0
93	0x00000000	0.0
94	0x00000000	0.0
95	0x00000000	0.0
96	0x00000000	0.0
97	0x00000000	0.0
98	0x00000000	0.0
99	0x00000000	0.0
100	0x00000000	0.0
101	0x00000000	0.0
102	0x00000000	0.0
103	0x00000000	0.0
104	0x00000000	0.0
105	0x00000000	0.0
106	0x00000000	0.0
107	0x00000000	0.0
108	0x00000000	0.0
109	0x00000000	0.0
110	0x00000000	0.0
111	0x00000000	0.0
112	0x00000000	0.0
113	0x00000000	0.0
114	0x00000000	0.0
115	0x00000000	0.0
116	0x00000000	0.0
117	0x00000000	0.0
118	0x00000000	0.0
119	0x00000000	0.0
120	0x00000000	0.0
121	0x00000000	0.0
122	0x00000000	0.0
123	0x00000000	0.0
124	0x00000000	0.0
125	0x00000000	0.0
126	0x00000000	0.0
127	0x00000000	0.0

network_body._body_endoder.seq_layers.2.weight f4 [128, 128]
0	0xbb9f96ad	-0.004870257
1	0x3d5af961	0.053460483
2	0x3e31718a	0.17328468
3	0x3e0b022c	0.13575047
4	0xbd7c6ab4	-0.061625198
5	0x3cc3a67d	0.023883099
6	0xbd060817	-0.03272256
7	0xbe08eb04	-0.13370901
8	0x3db447d3	0.08802762
9	0xbe0ce600	-0.13759613
10	0xbc34832c	-0.011017602
11	0xbda67239	-0.08127255
12	0x3c2f9cd6	0.010718545
13	0xbdb9d5c6	-0.09073977
14	0x3cb258b5	0.021770814
15	0x3dd09324	0.10184315
16	0x3d804ffd	0.062652566
17	0xbda75d69	-0.081721134
18	0x3d3eec38	0.046611995
19	0xbd94cea7	-0.07265978
20	0xbc98eafc	-0.018666737
21	0xbdb66eeb	-0.08907875
22	0xbbf2b892	-0.0074072564
23	0xbdb73567	-0.089457326
24	0xbcd84cfb	-0.026403895
25	0xbbe9e140	-0.0071374476
26	0x3cfdb1b1	0.030968519
27	0xbdfee473	-0.12445917
28	0x3dadbfae	0.084838256
29	0x3ccd26f7	0.025042994
30	0xbcab9c2c	-0.020948492
31	0x3d350d42	0.044202097
32	0xbd45a8e4	-0.04825677
33	0xbc3d4bfa	-0.011553759
34	0x3d07b5b2	0.033132263
35	0xbcf1968d	-0.029490734
36	0xbdacddf6	-0.08440773
37	0xbd43374f	-0.04766017
38	0x3db410a8	0.087922394
39	0x3df7a047	0.12091117
40	0xbd193f13	-0.037413668
41	0xbdb2374e	-0.08701955
42	0xbc165e43	-0.009177747
43	0x3dfb0e43	0.122585796
44	0x3ba71df4	0.0051000062
45	0x3d004dc5	0.031324167
46	0xbdb62c2f	-0.08895146
47	0x3db4c7ec	0.088271946
48	0xbcad9d8c	-0.021193288
49	0xbdde8655	-0.108654656
50	0x3e1e40b4	0.1545437
51	0x3d26af32	0.040694423
52	0x3b4adf7b	0.0030955959
53	0xbd6b96e0	-0.057516932
54	0x3e0f6690	0.14003968
55	0x3ae884e3	0.0017739799
56	0xbd87ae0c	-0.06624994
57	0x3cdc7c50	0.026914746
58	0xbc14623b	-0.009056623
59	0xbe03b132	-0.12860563
60	0xbe460e72	-0.19341448
61	0x3db33b99	0.08751602
62	0xbcfe1696	-0.03101663
63	0xbe09f216	-0.13471255
64	0x3d647a0e	0.055780463
65	0x3da2968b	0.0793887
66	0x3db3fd14	0.08788505
67	0xbd8ac5d5	-0.06776015
68	0x3d43b437	0.04777929
69	0x3d2afc28	0.04174438
70	0x3d5e864a	0.054327287
71	0x3db9cd58	0.09072369
72	0x3d287517	0.04112729
73	0x3da7280c	0.08161935
74	0x3e3fe8a4	0.18741089
75	0x3de6d0b1	0.112702735
76	0x3e1ecc78	0.15507686
77	0xbe66d3d0	-0.22541738
78	0x3dc1f28f	0.094700925
79	0xbc385a4d	-0.011251998
80	0xb925bc7c	-0.00015805842
81	0x3e33082e	0.17483589
82	0x3d73c5c9	0.059514794
83	0x3c16ed8b	0.009211908
84	0xbd27da9a	-0.04097996
85	0x3cd52204	0.026017196
86	0xbdedadc5	-0.116054095
87	0xbd93c929	-0.07216103
88	0xbd73cc70	-0.05952114
89	0xbd16cee3	-0.036818396
90	0x3e0df82f	0.13864206
91	0x3d1f8c3d	0.0389521
92	0xbd6f1aa9	-0.058375034
93	0x3dc9babd	0.098500706
94	0x3e153a81	0.14573099
95	0xbe26689d	-0.16250844
96	0xbda51ba8	-0.08061916
97	0x3d91bd2e	0.07116161
98	0x3d8ece6c	0.069729656
99	0x3b80babc	0.0039285105
100	0x3dfb86a9	0.12281544
101	0x3e0d6726	0.1380888
102	0xbe129188	-0.14313328
103	0xbdc80f47	-0.09768539
104	0xbdd2bc6b	-0.10289844
105	0xbc92c52d	-0.017916286
106	0x3e2702b4	0.16309625
107	0xbd291d26	-0.041287564
108	0x3dd3a836	0.10334818
109	0x3d489611	0.04897124
110	0x3e0c402e	0.13696358
111	0xbd998ad6	-0.07497184
112	0xbdaaf987	-0.08348375
113	0x3d28126b	0.04103319
114	0x3d0e1606	0.034688972
115	0xbdbbacd8	-0.09163827
116	0xbd09a485	-0.033604164
117	0xbd026a4f	-0.031839665
118	0xbcf8ab86	-0.030355226
119	0xbd600571	-0.05469269
120	0xbdf8a30e	-0.12140475
121	0x3cb6bdd9	0.022307323
122	0x3d38915c	0.0450605
123	0x3d114acc	0.035471722
124	0x3d3d628e	0.046236567
125	0xbdada557	-0.08478802
126	0x3db2acd6	0.08724372
127	0x3ced8c26	0.028997492
128	0x3d7148c5	0.05890729
129	0x3d7b0a9f	0.061289426
130	0x3e0789da	0.1323618
131	0xbe73dcd2	-0.23814705
132	0x3dd3d19b	0.103427134
133	0xbe258403	-0.1616364
134	0x3d3ac8d6	0.04560169
135	0xbc82aa5d	-0.015950376
136	0xbd08e7c4	-0.033424154
137	0xbda27061	-0.07931591
138	0x3e3aaf20	0.18230867
139	0xbdcb341f	-0.09922051
140	0xbc3e6bee	-0.011622412
141	0xbce1f2e6	-0.027581643
142	0x3e31ef02	0.1737633
143	0x3b0214c2	0.0019848798
144	0x3d0901d8	0.033449024
145	0xbd3574cb	-0.044300836
146	0xbd2b2c40	-0.041790247
147	0xbe15dbca	-0.14634624
148	0x3d1019d1	0.03518087
149	0xbd120dbd	-0.035657633
150	0xbc33af2f	-0.01096706
151	0xbc468f67	-0.012119151
152	0xbd5328ee	-0.051552705
153	0xbab69370	-0.0013929438
154	0x3d48a5d1	0.04898626
155	0x3d66a817	0.056312647
156	0x3d5ec25b	0.05438457
157	0x3e1d3dfa	0.15355673
158	0xbd467886	-0.048454784
159	0xbd4ecf8e	-0.05049091
160	0xba65c72e	-0.0008765337
161	0xbc0c4861	-0.008562178
162	0xbd2dfd5b	-0.042477947
163	0xbda0c386	-0.07849793
164	0x3ded63bd	0.11591289
165	0x3d81ab62	0.06331517
166	0x3db0a527	0.0862525
167	0x3db77cec	0.08959374
168	0xbdbb51f6	-0.09146492
169	0xbcefdcf1	-0.029280158
170	0x3d05b929	0.032647286
171	0xbdc5d8a2	-0.0966046
172	0xbc884eac	-0.016639076
173	0xbd4ed114	-0.05049236
174	0x3d830cbf	0.063989155
175	0xbd0019b2	-0.031274505
176	0x3b092521	0.0020926672
177	0x3d962870	0.073319316
178	0x3daaab2e	0.08333431
179	0xbb9b83db	-0.004745943
180	0xbe35f528	-0.17769301
181	0x3d031be9	0.03200904
182	0x3eaabeec	0.33348787
183	0x3d5a6111	0.053315226
184	0xbcd841f7	-0.026398642
185	0x3d2fa89e	0.042885415
186	0xbd7d02f9	-0.061770413
187	0xbe0b624a	-0.13611713
188	0xbd1ecca9	-0.038769398
189	0x3dd3fbc8	0.10350758
190	0xbc9a7996	-0.018856805
191	0x3d1474aa	0.036244072
192	0x3d8b2326	0.067938134
193	0xbde09e34	-0.10967675
194	0x3d5c186f	0.05373424
195	0x3c95d860	0.018291652
196	0xbde9465d	-0.11390374
197	0x3d063b5a	0.032771446
198	0x3e42b439	0.19014062
199	0xbc378e21	-0.01120332
200	0xbdc02352	-0.09381737
201	0xbda6b667	-0.08140259
202	0xbcedbb69	-0.029020028
203	0xbbc29ab4	-0.005938852
204	0x3c8e5230	0.017373174
205	0xbd9c7017	-0.07638567
206	0x3ceece29	0.02915104
207	0xbd5742f9	-0.052554104
208	0xbb709b7f	-0.0036713777
209	0x3d8ab279	0.06772322
210	0xbe0f4f3e	-0.13995072
211	0x3d40990b	0.047020953
212	0x3e9796db	0.2960728
213	0xbb87b641	-0.0041415994
214	0xbd8b956a	-0.06815608
215	0xbdcab5dd	-0.09897969
216	0x3e064857	0.13113533
217	0xbcb82558	-0.022478744
218	0xbcfe1617	-0.031016393
219	0xbe02559d	-0.12727971
220	0xbdc53e8d	-0.09631071
221	0x395c6247	0.00021017446
222	0xbca13aa2	-0.019681279
223	0x3e21ed5f	0.15813206
224	0xbd366fd0	-0.044540226
225	0xbd7723ad	-0.060336757
226	0xbb8ea824	-0.00435354
227	0x3c522aa9	0.012827554
228	0xbdf1df61	-0.11810184
229	0x3d894d28	0.067041695
230	0xbe2675fb	-0.16255943
231	0xbda75fdb	-0.0817258
232	0xbcb22f26	-0.021750998
233	0xbe192225	-0.14954431
234	0x3cc4a126	0.024002623
235	0xbd5695c3	-0.052388918
236	0xbc62b00f	-0.013835921
237	0xbce07ddf	-0.02740377
238	0xbd953e6c	-0.07287297
239	0x3df06aba	0.117391065
240	0xbc6bbc7c	-0.0143882
241	0xbe84c5a1	-0.2593203
242	0x3d7e2356	0.062045418
243	0x3df583e6	0.11988048
244	0x3c8c4955	0.017124811
245	0xbdce1019	-0.10061664
246	0x3d9d1e18	0.076717556
247	0xbd49e3d3	-0.049289536
248	0xbd0662c6	-0.03280904
249	0xbcffad77	-0.031210644
250	0x3b98e69f	0.004666164
251	0xbe7b0dd3	-0.24516992
252	0xbdc4a991	-0.09602655
253	0x3dec40f5	0.11535827
254	0xbdaaddd5	-0.08343092
255	0xbd15a024	-0.036529675

network_body._body_endoder.seq_layers.2.bias f4 [128]
0	0x00000000	0.0
1	0x00000000	0.0
2	0x00000000	0.0
3	0x00000000	0.0
4	0x00000000	0.0
5	0x00000000	0.0
6	0x00000000	0.0
7	0x00000000	0.0
8	0x00000000	0.0
9	0x00000000	0.0
10	0x00000000	0.0
11	0x00000000	0.0
12	0x00000000	0.0
13	0x00000000	0.0
14	0x00000000	0.0
15	0x00000000	0.0
16	0x00000000	0.0
17	0x00000000	0.0
18	0x00000000	0.0
19	0x00000000	0.0
20	0x00000000	0.0
21	0x00000000	0.0
22	0x00000000	0.0
23	0x00000000	0.0
24	0x00000000	0.0
25	0x00000000	0.0
26	0x00000000	0.0
27	0x00000000	0.0
28	0x00000000	0.0
29	0x00000000	0.0
30	0x00000000	0.0
31	0x00000000	0.0
32	0x00000000	0.0
33	0x00000000	0.0
34	0x00000000	0.0
35	0x00000000	0.0
36	0x00000000	0.0
37	0x00000000	0.0
38	0x00000000	0.0
39	0x00000000	0.0
40	0x00000000	0.0
41	0x00000000	0.0
42	0x00000000	0.0
43	0x00000000	0.0
44	0x00000000	0.0
45	0x00000000	0.0
46	0x00000000	0.0
47	0x00000000	0.0
48	0x00000000	0.0
49	0x00000000	0.0
50	0x00000000	0.0
51	0x00000000	0.0
52	0x00000000	0.0
53	0x00000000	0.0
54	0x00000000	0.0
55	0x00000000	0.0
56	0x00000000	0.0
57	0x00000000	0.0
58	0x00000000	0.0
59	0x00000000	0.0
60	0x00000000	0.0
61	0x00000000	0.0
62	0x00000000	0.0
63	0x00000000	0.0
64	0x00000000	0.0
65	0x00000000	0.0
66	0x00000000	0.0
67	0x00000000	0.0
68	0x00000000	0.0
69	0x00000000	0.0
70	0x00000000	0.0
71	0x00000000	0.0
72	0x00000000	0.0
73	0x00000000	0.0
74	0x00000000	0.0
75	0x00000000	0.0
76	0x00000000	0.0
77	0x00000000	0.0
78	0x00000000	0.0
79	0x00000000	0.0
80	0x00000000	0.0
81	0x00000000	0.0
82	0x00000000	0.0
83	0x00000000	0.0
84	0x00000000	0.0
85	0x00000000	0.0
86	0x00000000	0.0
87	0x00000000	0.0
88	0x00000000	0.0
89	0x00000000	0.0
90	0x00000000	0.0
91	0x00000000	0.0
92	0x00000000	0.0
93	0x00000000	0.0
94	0x00000000	0.0
95	0x00000000	0.0
96	0x00000000	0.0
97	0x00000000	0.0
98	0x00000000	0.0
99	0x00000000	0.0
100	0x00000000	0.0
101	0x00000000	0.0
102	0x00000000	0.0
103	0x00000000	0.0
104	0x00000000	0.0
105	0x00000000	0.0
106	0x00000000	0.0
107	0x00000000	0.0
108	0x00000000	0.0
109	0x00000000	0.0
110	0x00000000	0.0
111	0x00000000	0.0
112	0x00000000	0.0
113	0x00000000	0.0
114	0x00000000	0.0
115	0x00000000	0.0
116	0x00000000	0.0
117	0x00000000	0.0
118	0x00000000	0.0
119	0x00000000	0.0
120	0x00000000	0.0
121	0x00000000	0.0
122	0x00000000	0.0
123	0x00000000	0.0
124	0x00000000	0.0
125	0x00000000	0.0
126	0x00000000	0.0
127	0x00000000	0.0

action_model._continuous_distribution.log_sigma f4 [1, 2]
0	0x00000000	0.0
1	0x00000000	0.0

action_model._continuous_distribution.mu.weight f4 [2, 128]
0	0xbbe51925	-0.006991523
1	0x3c59ff53	0.013305503
2	0x3cd2d360	0.025735557
3	0xbca82d7e	-0.020529505
4	0x3bd022e2	0.0063518146
5	0xbca07dfc	-0.019591324
6	0x3ba5d236	0.0050604595
7	0x3cb2ad65	0.021811197
8	0xbcd20dd8	-0.025641367
9	0x3acc12fc	0.0015569623
10	0xbaceb75f	-0.0015771202
11	0xbbe17bcf	-0.006881214
12	0xbb36996e	-0.0027862447
13	0x3c01eeca	0.007930467
14	0xbc2c9245	-0.01053292
15	0x3c9afc8e	0.018919256
16	0xbcb1df54	-0.021712936
17	0xbb159cd0	-0.0022829063
18	0x3c3eee53	0.011653501
19	0xbcff0b53	-0.03113333
20	0x3c0fc4bf	0.008774935
21	0x3c02f992	0.0079940725
22	0x3c4a8286	0.012360221
23	0x3c18afa3	0.009319219
24	0xbbeaa947	-0.0071612927
25	0x3c4a7b02	0.012358429
26	0xbc02dc0a	-0.007987032
27	0x3cb4157d	0.021982903
28	0xbba2f4b0	-0.0049730167
29	0xbb9b2930	-0.0047351345
30	0xbbe9de87	-0.007137123
31	0xbc78988f	-0.015173092
32	0x381f3643	3.795909e-05
33	0xbc13669b	-0.008996631
34	0xbbb383ab	-0.0054783425
35	0x3d2680ec	0.040650293
36	0x3c5a7d27	0.013335503
37	0xbc07601d	-0.008262661
38	0x3be317b2	0.006930315
39	0xbcaeeca2	-0.02135307
40	0x3c83f74d	0.016109133
41	0x3c130868	0.008974172
42	0x3d075c62	0.033047087
43	0xbbd85e45	-0.0066030347
44	0xbb9a86b1	-0.0047157635
45	0xbc6b98bf	-0.014379679
46	0xbcb3e593	-0.021960055
47	0xbc00202a	-0.0078201685
48	0xbd2879c7	-0.04113176
49	0xbc1aa13f	-0.009437858
50	0x3c51016d	0.012756688
51	0xbc2620fc	-0.0101397
52	0xbd24a047	-0.040191915
53	0xbc9ae02d	-0.018905723
54	0x3b7e199f	0.0038772596
55	0x3cbba15c	0.02290409
56	0xb9d6ffe5	-0.00041007917
57	0xbc81ca2b	-0.015843472
58	0x3cafc9d3	0.021458542
59	0xbcade71b	-0.021228364
60	0xbb6457f2	-0.0034842459
61	0xbb68817a	-0.0035477565
62	0xbd01d29a	-0.031694986
63	0x3b3efb93	0.002914165
64	0x3c87090d	0.016483808
65	0xbc97d0c3	-0.018532163
66	0xbca6014c	-0.02026429
67	0xbc888637	-0.016665561
68	0x3bce5bff	0.006297588
69	0xbd1fab13	-0.03898151
70	0x3a8b0005	0.0010604864
71	0xbb7fc6b2	-0.0039028344
72	0x3ccd2c08	0.02504541
73	0x3afaae4b	0.001912543
74	0x3b8b0c3f	0.004243403
75	0x3cec1f78	0.0288236
76	0x3c34baf7	0.011030904
77	0xbbc17a9f	-0.00590451
78	0x3be19acd	0.006884909
79	0x3cb47cd8	0.022032186
80	0x3c30cd9d	0.0107912095
81	0x3c13281b	0.00898173
82	0x3ab372d6	0.001369084
83	0xbc9f9967	-0.019482328
84	0xbcddbbcd	-0.02706709
85	0xbb1cea0b	-0.0023943211
86	0x3ba3f229	0.005003233
87	0x3d0bb5cb	0.03410892
88	0xbc89e47c	-0.016832583
89	0xbc112737	-0.008859447
90	0x3c8db613	0.017298734
91	0x3cc99c4c	0.024610661
92	0x3c0e00bf	0.00866717
93	0x3cf5980f	0.029979734
94	0x39e67908	0.00043959194
95	0x3c928663	0.017886346
96	0x3ca7de15	0.02049164
97	0xbcf417e3	-0.029796546
98	0x3b77a517	0.003778761
99	0x3c8210ef	0.015877215
100	0x39d02960	0.00039703678
101	0x3d02355f	0.03178918
102	0x3c044f10	0.008075491
103	0x3bbb9291	0.005724259
104	0x3c5d3b73	0.013502943
105	0xbb2fb6aa	-0.0026811757
106	0xbc55ef52	-0.013057547
107	0x3b337cf9	0.0027387722
108	0xbcad65b5	-0.021166662
109	0x3c38c617	0.011277697
110	0xbb979f1b	-0.004627121
111	0xbbcef14f	-0.0063153873
112	0xbc4814f3	-0.012212026
113	0xbb5739fa	-0.0032840953
114	0x3beb68b5	0.007184113
115	0x3c6a50ef	0.014301523
116	0x3bf1f60f	0.007384069
117	0xbcedaafb	-0.029012194
118	0x3b45444c	0.0030100523
119	0x3bd6a34f	0.0065502296
120	0x3c49c6d8	0.012315474
121	0xbc95c080	-0.018280268
122	0xbb3b74f6	-0.002860365
123	0x3b27d1c1	0.00256072
124	0x3bf885bf	0.007584303
125	0xbb206ab3	-0.002447766
126	0xbbbe8251	-0.005813875
127	0xbc1dba4b	-0.009626935
128	0x3cd47dc2	0.025938872
129	0x3cc4fa92	0.024045262
130	0xbbd25647	-0.0064189765
131	0xbb948866	-0.0045328615
132	0x3c814967	0.015782071
133	0xbad60682	-0.0016328844
134	0xb8bb8a37	-8.9425994e-05
135	0x3cd59352	0.026071224
136	0x3b4cb1d6	0.0031233928
137	0x3cc2e7fb	0.023792258
138	0x3bd27a78	0.006423291
139	0x3b31c284	0.0027123997
140	0xbb410b9e	-0.0029456387
141	0x3cb55d6d	0.022139275
142	0xbcdd46f0	-0.027011365
143	0xba2131ca	-0.0006149082
144	0x3b9877ad	0.0046529383
145	0xbc6ae33a	-0.014336402
146	0x3b7a0d45	0.0038154882
147	0x3d346275	0.04403921
148	0xbc25de2f	-0.0101237735
149	0xbcdab43a	-0.026697267
150	0xba83dc29	-0.001006012
151	0x3b9989c7	0.004685614
152	0x3cc69253	0.024239695
153	0x3c11723d	0.008877334
154	0x3c2144af	0.009843036
155	0x3c1e317b	0.009655352
156	0x3c8f53ed	0.017496074
157	0x3b95eddd	0.0045754747
158	0x3c863a35	0.016385177
159	0xbb631043	-0.0034647144
160	0x3c9ad2bc	0.018899314
161	0xbc6365c7	-0.013879246
162	0xbc2ae55f	-0.010430663
163	0xbcac44a5	-0.021028826
164	0x3b2faf17	0.0026807243
165	0xbb88a1b6	-0.004169668
166	0x3c098bf9	0.0083951885
167	0xba612ed0	-0.00085900445
168	0xbaaee7a4	-0.0013344181
169	0x3c53b60b	0.01292182
170	0x3b98d683	0.0046642437
171	0x3c08661c	0.008325126
172	0x3cbc98b3	0.023022031
173	0xbcd5f2ba	-0.026116718
174	0xbbc5d87c	-0.00603777
175	0xbbd11efb	-0.006381867
176	0x3c2e267f	0.010629295
177	0x3badc1c0	0.005302638
178	0x3c9f8c1f	0.019475995
179	0x3bcd4722	0.006264583
180	0xbc978dc3	-0.018500214
181	0x3bca3d1b	0.006171835
182	0xb837a5bc	-4.3784952e-05
183	0xbc36d2cf	-0.011158659
184	0x3c906f14	0.017631091
185	0x3d396b78	0.045268506
186	0xbd4ead5a	-0.05045829
187	0xbc5514a3	-0.013005408
188	0xbc551d02	-0.013007404
189	0xb9f203cb	-0.00046160663
190	0x3c28e5d7	0.010308704
191	0x3c20b898	0.009809636
192	0xbd102f3f	-0.035201307
193	0xbba4049f	-0.0050054337
194	0xbbc6e690	-0.0060699657
195	0x3ca61987	0.020275844
196	0xbd20e7e1	-0.039283637
197	0xbc188fcb	-0.009311627
198	0x3bb49ea0	0.0055120736
199	0xbcf9fa9d	-0.03051501
200	0x3c8b4bc9	0.01700391
201	0x3be52ead	0.0069940896
202	0x3ca7aae1	0.020467224
203	0xbccdf503	-0.025141245
204	0xbb3786cf	-0.0028003936
205	0x3c25ac14	0.010111827
206	0x3c1cef7f	0.009578585
207	0xbcf13be8	-0.02944751
208	0x3cc13fc1	0.02358997
209	0x3d0d19d8	0.034448475
210	0xbccf4023	-0.025299137
211	0x3ce4d613	0.02793411
212	0x3b176663	0.0023101799
213	0x3cbb87bf	0.022891877
214	0x3be211e8	0.0068991072
215	0x3c759215	0.014988442
216	0x3c4d139d	0.012516883
217	0x3c2d757b	0.010587092
218	0x3bba36b7	0.005682792
219	0xbb8a0028	-0.0042114444
220	0xbb12ec37	-0.0022418627
221	0x3ac1621a	0.0014753968
222	0xbb564007	-0.0032691972
223	0x3b874317	0.004127871
224	0xbc6a5b87	-0.014304048
225	0x3c1aa4fe	0.009438751
226	0xbc12285c	-0.008920755
227	0x3a378f74	0.0007002272
228	0xbd2dc6ee	-0.042426042
229	0xbcba70c5	-0.02275885
230	0xbd450347	-0.04809883
231	0x3c7c8435	0.01541238
232	0x3bd9af17	0.006643187
233	0xbc37e9a2	-0.011225136
234	0x3b7c06db	0.0038456235
235	0xbc9f1cc4	-0.019422896
236	0x3c970bf1	0.018438311
237	0xbbb9357d	-0.0056521283
238	0x3bea4e52	0.00715045
239	0x3bab1f43	0.0052222325
240	0x3cde7f5f	0.027160345
241	0xbc63b9dd	-0.013899294
242	0x3bbbd79a	0.005732489
243	0xbd160bbb	-0.03663228
244	0xbc468dd8	-0.012118779
245	0x3c3dc81b	0.011583353
246	0xba8a5987	-0.0010555246
247	0x3bf96fe8	0.007612217
248	0xbc32a347	-0.010903186
249	0x3a19dec7	0.0005869683
250	0xbb07f9bc	-0.0020748219
251	0xbba204c3	-0.0049444153
252	0xbc048df7	-0.008090488
253	0xbcb703bb	-0.022340646
254	0xbae644e7	-0.0017568142
255	0xbbe5b32f	-0.0070098857

action_model._continuous_distribution.mu.bias f4 [2]
0	0x00000000	0.0
1	0x00000000	0.0

network_body._body_endoder.seq_layers.0.weight f4 [128, 29]
0	0xbde4f24e	-0.111790285
1	0xbc2aa495	-0.010415216
2	0xbdaa2d92	-0.08309473
3	0xbde999c4	-0.114062816
4	0x3ebae44c	0.36502302
5	0x3e12dc94	0.14341956
6	0x3e7c9784	0.24667174
7	0x3e09e8ff	0.13467787
8	0x3d204468	0.039127737
9	0x3c50c6ab	0.012742679
10	0x3e872e63	0.26402578
11	0x3e268aea	0.16263929
12	0xbe089ef5	-0.13341887
13	0xbd0c3442	-0.034229524
14	0xbddfe290	-0.10931885
15	0xbb2ea3b7	-0.0026647875
16	0xbee6f8d6	-0.45111722
17	0xbd25b22c	-0.04045312
18	0x3eb1c12e	0.34717697
19	0x3dc85e34	0.09783593
20	0x3ec42f3b	0.38317284
21	0x3d9c9e50	0.07647383
22	0x3ea1d4df	0.3160772
23	0xbcffa352	-0.031205807
24	0x3ebb3503	0.36563882
25	0x3e0d1cd9	0.13780536
26	0xbcd951e0	-0.026528299
27	0x3e2b7862	0.16745141
28	0x3de0f320	0.109838724
29	0xbe63326a	-0.221872
30	0x3cceaa40	0.025227666
31	0xbe539891	-0.20663668
32	0xbde0df09	-0.109800406
33	0xbe59066b	-0.21193855
34	0xbc9f6e79	-0.019461857
35	0x3d56c8d0	0.052437603
36	0xbd97de83	-0.074154876
37	0xbe7de69c	-0.24795002
38	0x3da24bfe	0.079246506
39	0xbc8b0ae4	-0.016972966
40	0xbca52143	-0.020157462
41	0x3e0660a6	0.13122806
42	0xbd7ac29c	-0.06122075
43	0xbdf621af	-0.120181434
44	0x3e1e1299	0.15436782
45	0x3c34ee0f	0.011043086
46	0x3e8f2f48	0.2796576
47	0x3da2aab7	0.079427175
48	0x3cac3e22	0.021025721
49	0x3c1b2fbc	0.00947183
50	0x3e7812b1	0.2422588
51	0xbe35fd89	-0.17772497
52	0xbda7b2d7	-0.08188408
53	0xbe1d0742	-0.153348
54	0x3e7f319b	0.24921267
55	0xbe30ed93	-0.17278127
56	0x3e743269	0.23847355
57	0x3e75169b	0.23934405
58	0xbea6066e	-0.3242678
59	0x38e27a58	0.00010799308
60	0xbec65a36	-0.387407
61	0x3e3c2bed	0.18376131
62	0x3e415a35	0.18882068
63	0x3e168bf2	0.14701822
64	0xbe6b3123	-0.22967963
65	0xbe2bb4d3	-0.16768198
66	0xbd2ea51a	-0.042637922
67	0xbdde3005	-0.10849003
68	0xbd8c66d5	-0.06855551
69	0xbdecae5e	-0.115566954
70	0xbea56a12	-0.32307488
71	0x3db50e58	0.088406265
72	0x3e3c6725	0.18398722
73	0x3eabda5a	0.33565027
74	0x3df75b8b	0.12078007
75	0x3e0c401b	0.1369633
76	0x3dd50f42	0.10403301
77	0xbddcb8a7	-0.10777407
78	0xbe8b758a	-0.27238113
79	0xbc59c577	-0.013291708
80	0x3dd7eecb	0.10543593
81	0xbdfbcc5a	-0.12294836
82	0x3e3c18f0	0.18368888
83	0xbea1dbc0	-0.31612968
84	0x3e908bad	0.28231564
85	0x3e18adac	0.1491
86	0xbdb6d57e	-0.08927439
87	0x3d3af4f8	0.045643777
88	0xbde18ac7	-0.11012798
89	0x3e2481a2	0.16065076
90	0xbde6bcb3	-0.1126646
91	0x3e33eb8a	0.1757032
92	0x3d38a5d1	0.04508001
93	0xbe9e1c09	-0.30880764
94	0x3df27526	0.118387505
95	0x3e363140	0.17792225
96	0x3e824b60	0.25448132
97	0x3e957188	0.2918818
98	0x3d486c45	0.04893138
99	0x3dd2e4ee	0.10297571
100	0xbe2f1949	-0.1709949
101	0x3df6f759	0.120588966
102	0x3c96bbc9	0.01840009
103	0x3e339e02	0.17540744
104	0x3e2025cd	0.1563942
105	0xbe18daf9	-0.14927281
106	0xbe94945a	-0.29019433
107	0x3e0d4e8f	0.13799499
108	0xbd6f4ac3	-0.058420908
109	0xbd7a13d2	-0.06105406
110	0x3e49e0a3	0.19714598
111	0xbe0c2172	-0.13684633
112	0x3e84fde3	0.2597495
113	0xbd84a7df	-0.06477331
114	0x3e29c884	0.16580397
115	0x3ab6b7e8	0.0013940306
116	0x3e784cae	0.24248001
117	0x3db106c7	0.08643871
118	0x3dd92bbf	0.10604047
119	0xbe876bf8	-0.2644956
120	0x3d2a1735	0.04152604
121	0xbcf2fab4	-0.02966056
122	0xbe198963	-0.14993815
123	0xbe337348	-0.17524445
124	0x3cd6a729	0.026202755
125	0xbd41860c	-0.047246978
126	0xbe725d5c	-0.23668426
127	0x3da1696e	0.07881437
128	0xbe937f89	-0.2880824
129	0x3b393761	0.0028261768
130	0xbda9e1b7	-0.08295005
131	0x3eb6e3c3	0.35720643
132	0xbeffa08d	-0.49927178
133	0x3de15902	0.11003305
134	0x3d8ff91e	0.07029937
135	0xbda2703c	-0.07931563
136	0x3dcc2472	0.09967889
137	0x3cd8191e	0.026379164
138	0x3e84257b	0.25809845
139	0xbd8299de	-0.06377004
140	0x3e643ba8	0.22288382
141	0xbda6b622	-0.08140208
142	0xbd16d0fc	-0.036820397
143	0x3e0b3d4a	0.13597599
144	0x3d8c7532	0.06858291
145	0xbe587f73	-0.21142368
146	0xbe40ca96	-0.1882728
147	0x3e443d67	0.19164048
148	0x3df6f973	0.120592974
149	0x3ed14843	0.40875444
150	0xbde66ae2	-0.11250855
151	0x3e4077b6	0.18795666
152	0x3e866649	0.26249912
153	0xbed39a63	-0.41328725
154	0x3cf641ed	0.030060733
155	0x3ea1140c	0.31460607
156	0x3d643663	0.05571593
157	0x3e1484e9	0.14503826
158	0x3e637d34	0.2221573
159	0x3da5efc6	0.08102374
160	0xbd7e1759	-0.062033985
161	0xbe2123d2	-0.1573632
162	0xbdbbb508	-0.09165388
163	0xbb2b6af4	-0.0026156278
164	0x3d9a7f98	0.07543868
165	0x3e278de3	0.16362719
166	0x3c10ec98	0.008845471
167	0x3d092350	0.033480942
168	0x3dde241a	0.108467296
169	0xbefab662	-0.48967272
170	0x3e2e5441	0.17024328
171	0xbeda6c37	-0.42660686
172	0x3c10efcf	0.008846237
173	0xbe287f07	-0.16454707
174	0x3d73c63a	0.059515215
175	0xbeedae6a	-0.4642213
176	0x3db7ca08	0.08974081
177	0x3ed91759	0.42400625
178	0xbec1caac	-0.3784994
179	0xbe80a3ff	-0.2512512
180	0xbda9961d	-0.08280585
181	0xbe150e4c	-0.14556235
182	0x39ac3dc1	0.00032852407
183	0xbe3f7646	-0.18697461
184	0x3e4e5b3c	0.2015199
185	0x3d4a6220	0.049409986
186	0x3e102375	0.14076026
187	0xbe49cca1	-0.19706966
188	0x3ca2fe43	0.019896632
189	0x3e2b0eac	0.16704816
190	0x3d9b3c13	0.075798176
191	0x3e82aa57	0.25520584
192	0x3eab1c6a	0.33420116
193	0xbc5d8c3f	-0.013522207
194	0x3e0bc981	0.13651086
195	0x3e2f63f8	0.17127979
196	0xbe55bea9	-0.20873512
197	0xbec26d74	-0.3797413
198	0x3e9a1192	0.3009153
199	0xbe76f503	-0.24116902
200	0xbe0688dd	-0.13138147
201	0xbcfba0dc	-0.030716352
202	0x3dc7325a	0.09726401
203	0x3e006653	0.12539034
204	0xbd29228a	-0.041292705
205	0x3dc1a01d	0.09454367
206	0xbe02c3e9	-0.12770046
207	0x3e0a1638	0.13485038
208	0x3dbf535f	0.09342074
209	0x3e80303a	0.25036794
210	0xbdb8c7fe	-0.090225205
211	0x3dc22558	0.09479779
212	0xbedcc4d8	-0.4311893
213	0x3decac8d	0.11556349
214	0xbdec1f2a	-0.115293816
215	0xbc8fe47b	-0.017565003
216	0x3d09fbdc	0.033687457
217	0xbdcd6e6c	-0.10030827
218	0x3ed1ed89	0.41001537
219	0x3d2b2b40	0.041789293
220	0xbe750a48	-0.23929703
221	0x3e2ab772	0.16671541
222	0xbc849fbb	-0.016189447
223	0x3e188f8b	0.14898507
224	0x3def5b7f	0.11687373
225	0xbccf8649	-0.025332587
226	0xbdb971d3	-0.09054913
227	0x3ec6e9d8	0.38850284
228	0x3d8d6e77	0.06905835
229	0xbe1f59c9	-0.15561594
230	0xbe4005d1	-0.18752219
231	0xbded2939	-0.11580128
232	0x3e840eb2	0.25792462
233	0xbdfa229c	-0.122136325
234	0xbe67584c	-0.22592276
235	0xbea56e82	-0.32310873
236	0xbdc6086f	-0.09669577
237	0xbe4c5cfc	-0.19957346
238	0xbf0b4930	-0.5440855
239	0x3bcdf1f4	0.0062849466
240	0x3db95657	0.09049671
241	0x3e47b880	0.19503975
242	0xbdea96be	-0.11454533
243	0x3e3aa90c	0.18228549
244	0x3e36bc3e	0.17845246
245	0xbd9646ae	-0.073377
246	0xbe0cc0c9	-0.13745417
247	0x3e137d36	0.14403233
248	0xbe1ff9f9	-0.15622701
249	0x3e4539de	0.19260356
250	0xbcf75322	-0.030191008
251	0xbcb5de85	-0.022200832
252	0xbe855f77	-0.26049396
253	0xbc9c1dbc	-0.019057147
254	0xba6d1b3e	-0.0009044892
255	0xbdb7c32d	-0.08972774

network_body._body_endoder.seq_layers.0.bias f4 [128]
0	0x00000000	0.0
1	0x00000000	0.0
2	0x00000000	0.0
3	0x00000000	0.0
4	0x00000000	0.0
5	0x00000000	0.0
6	0x00000000	0.0
7	0x00000000	0.0
8	0x00000000	0.0
9	0x00000000	0.0
10	0x00000000	0.0
11	0x00000000	0.0
12	0x00000000	0.0
13	0x00000000	0.0
14	0x00000000	0.0
15	0x00000000	0.0
16	0x00000000	0.0
17	0x00000000	0.0
18	0x00000000	0.0
19	0x00000000	0.0
20	0x00000000	0.0
21	0x00000000	0.0
22	0x00000000	0.0
23	0x00000000	0.0
24	0x00000000	0.0
25	0x00000000	0.0
26	0x00000000	0.0
27	0x00000000	0.0
28	0x00000000	0.0
29	0x00000000	0.0
30	0x00000000	0.0
31	0x00000000	0.0
32	0x00000000	0.0
33	0x00000000	0.0
34	0x00000000	0.0
35	0x00000000	0.0
36	0x00000000	0.0
37	0x00000000	0.0
38	0x00000000	0.0
39	0x00000000	0.0
40	0x00000000	0.0
41	0x00000000	0.0
42	0x00000000	0.0
43	0x00000000	0.0
44	0x00000000	0.0
45	0x00000000	0.0
46	0x00000000	0.0
47	0x00000000	0.0
48	0x00000000	0.0
49	0x00000000	0.0
50	0x00000000	0.0
51	0x00000000	0.0
52	0x00000000	0.0
53	0x00000000	0.0
54	0x00000000	0.0
55	0x00000000	0.0
56	0x00000000	0.0
57	0x00000000	0.0
58	0x00000000	0.0
59	0x00000000	0.0
60	0x00000000	0.0
61	0x00000000	0.0
62	0x00000000	0.0
63	0x00000000	0.0
64	0x00000000	0.0
65	0x00000000	0.0
66	0x00000000	0.0
67	0x00000000	0.0
68	0x00000000	0.0
69	0x00000000	0.0
70	0x00000000	0.0
71	0x00000000	0.0
72	0x00000000	0.0
73	0x00000000	0.0
74	0x00000000	0.0
75	0x00000000	0.0
76	0x00000000	0.0
77	0x00000000	0.0
78	0x00000000	0.0
79	0x00000000	0.0
80	0x00000000	0.0
81	0x00000000	0.0
82	0x00000000	0.0
83	0x00000000	0.0
84	0x00000000	0.0
85	0x00000000	0.0
86	0x00000000	0.0
87	0x00000000	0.0
88	0x00000000	0.0
89	0x00000000	0.0
90	0x00000000	0.0
91	0x00000000	0.0
92	0x00000000	0.0
93	0x00000000	0.0
94	0x00000000	0.0
95	0x00000000	0.0
96	0x00000000	0.0
97	0x00000000	0.0
98	0x00000000	0.0
99	0x00000000	0.0
100	0x00000000	0.0
101	0x00000000	0.0
102	0x00000000	0.0
103	0x00000000	0.0
104	0x00000000	0.0
105	0x00000000	0.0
106	0x00000000	0.0
107	0x00000000	0.0
108	0x00000000	0.0
109	0x00000000	0.0
110	0x00000000	0.0
111	0x00000000	0.0
112	0x00000000	0.0
113	0x00000000	0.0
114	0x00000000	0.0
115	0x00000000	0.0
116	0x00000000	0.0
117	0x00000000	0.0
118	0x00000000	0.0
119	0x00000000	0.0
120	0x00000000	0.0
121	0x00000000	0.0
122	0x00000000	0.0
123	0x00000000	0.0
124	0x00000000	0.0
125	0x00000000	0.0
126	0x00000000	0.0
127	0x00000000	0.0

network_body._body_endoder.seq_layers.2.weight f4 [128, 128]
0	0xbd742194	-0.059602335
1	0xbe1de833	-0.15420608
2	0xbd752105	-0.059845943
3	0xbd1ebd93	-0.03875501
4	0xbc07ed09	-0.00829626
5	0xbd26bf7f	-0.04070997
6	0x3e07c4e6	0.13258705
7	0x3d5d8594	0.05408247
8	0x3d738164	0.05944957
9	0x3daa1f4b	0.0830675
10	0x3d384b43	0.04499365
11	0x3d74f547	0.059804227
12	0xbd887766	-0.066633984
13	0x3e1101e5	0.14160879
14	0xbc0dd127	-0.008655823
15	0xbcd15e9e	-0.025557812
16	0xbde4e6bc	-0.111768216
17	0x3de7799a	0.113024905
18	0x3dea7748	0.11448532
19	0xbda57ea9	-0.08080799
20	0x3bbcadce	0.005758024
21	0x3ac6b959	0.0015161439
22	0x3db187dd	0.08668492
23	0x3dbcb9ce	0.09215127
24	0x3dbc56fe	0.0919628
25	0x3d4f689c	0.050636873
26	0xbdb8ccf2	-0.09023465
27	0xbe035979	-0.128271
28	0x3b513238	0.0031920802
29	0xbdd0bfc8	-0.10192829
30	0x3e3cfb36	0.18455204
31	0x3c87be40	0.01657021
32	0x3d512ce7	0.051068213
33	0x3d2460a9	0.040131245
34	0xbd223b12	-0.039607115
35	0x3e8d80b8	0.27637267
36	0x3dba10cb	0.09085234
37	0x3d2ad83f	0.041710135
38	0xbdaa6876	-0.083207056
39	0x3cb5e8c0	0.02220571
40	0xbd9d650c	-0.07685289
41	0xbc600b46	-0.013674563
42	0xbd8ee84d	-0.069779016
43	0xbe0a5707	-0.13509761
44	0xbda7677e	-0.081740364
45	0x3d4c4dfd	0.049879063
46	0x3d538c9d	0.05164777
47	0x3e07945e	0.13240191
48	0xbca569bd	-0.020192022
49	0xbd1c5409	-0.03816608
50	0x3de03ff6	0.109496996
51	0xbd52b73f	-0.05144429
52	0x3c0e9b90	0.008704081
53	0xbd177fa3	-0.03698696
54	0x3cc9e262	0.02464408
55	0x3cc35f37	0.023849113
56	0xbdb65680	-0.08903217
57	0xbdcc72e8	-0.09982854
58	0xbc2849bd	-0.010271487
59	0xbcf85ada	-0.030316759
60	0xbe306064	-0.1722427
61	0xbc29ae76	-0.010356536
62	0x3c480e3f	0.012210428
63	0x3e398c0d	0.18119831
64	0x3c59df43	0.013297859
65	0x3d692286	0.05691769
66	0xbb9dc3c7	-0.0048145982
67	0x3db8e8ca	0.09028776
68	0xbe45e89d	-0.19327016
69	0xbcafc955	-0.021458307
70	0xbdeb2a46	-0.114826724
71	0x3dcbf8bc	0.09959552
72	0x3dfa7dd3	0.1223103
73	0xbd91a152	-0.071108475
74	0x3de5d59c	0.112223834
75	0xbd849022	-0.06472804
76	0x3de9eee8	0.11422521
77	0x3d9c5731	0.07633818
78	0xbd174eda	-0.036940433
79	0xbda0d574	-0.07853213
80	0xbe35a66e	-0.17739269
81	0xbdd66226	-0.10467939
82	0x3d526b47	0.05137184
83	0x3dad90f8	0.08474916
84	0xbdee8489	-0.11646373
85	0x3e633116	0.22186694
86	0xbcce3706	-0.025172722
87	0x3bbf6097	0.005840372
88	0x3da592ef	0.08084666
89	0xbd7c6a51	-0.06162483
90	0xbd9499a0	-0.07255864
91	0xbe1477b7	-0.14498793
92	0x3e49113e	0.19635484
93	0xbdf5e0d8	-0.12005776
94	0x3e4573d1	0.19282462
95	0x3d77f47c	0.060535893
96	0xbd4f9c89	-0.050686393
97	0xbb384db9	-0.0028122498
98	0x3dd3b159	0.10336561
99	0xbdc79fe8	-0.097472966
100	0x3e4a0103	0.19726948
101	0xbd05feb3	-0.032713603
102	0xbdaad476	-0.08341305
103	0x3d74b9c2	0.059747465
104	0x3c3760de	0.0111925285
105	0x3df5492d	0.11976848
106	0xb92b5c82	-0.00016342293
107	0x3d9de1af	0.07709061
108	0xbc562e13	-0.013072508
109	0xbd20c019	-0.0392457
110	0xbc8b062a	-0.016970713
111	0x3d79bb78	0.0609698
112	0xbdc21873	-0.094773196
113	0xbe08b746	-0.13351163
114	0xbc8649a1	-0.01639253
115	0x3d694763	0.056952845
116	0xbdfe572e	-0.12418972
117	0xbd3fdb92	-0.046840258
118	0xbe112fff	-0.14178465
119	0x3c121e07	0.008918292
120	0x3dbf8598	0.09351653
121	0xbca621af	-0.020279733
122	0x3c6d1793	0.014470953
123	0x3d145ee2	0.0362233
124	0xbd90af06	-0.07064633
125	0xbe0167a0	-0.12637186
126	0x3cb8d5a1	0.022562804
127	0x3c3454dd	0.011006561
128	0x3e2431ef	0.16034673
129	0xbd2faaa8	-0.04288736
130	0x3dc69771	0.09696854
131	0xbce0ab7f	-0.027425526
132	0x3dd3bcf3	0.103387736
133	0xbcd04578	-0.02542375
134	0xbae3e665	-0.0017387389
135	0xbea41c28	-0.32052732
136	0x3d931f87	0.07183748
137	0x3dedfef9	0.11620898
138	0xbc9f081c	-0.019413047
139	0xbde548cb	-0.11195525
140	0xbd04ef3f	-0.032454725
141	0xbd1ddbcc	-0.038539693
142	0x3c45ad5e	0.01206526
143	0xbe3d198d	-0.18466778
144	0xbb3f0e56	-0.0029152832
145	0xbcded800	-0.027202606
146	0x3c8a5e98	0.016890809
147	0xbd110cc2	-0.035412557
148	0x3df6e27d	0.12054918
149	0x3d8085d4	0.06275526
150	0xbe1545fa	-0.14577475
151	0x3d451cfb	0.04812334
152	0x3dea3b7d	0.11437128
153	0xbb0383ff	-0.002006769
154	0xbd52ce00	-0.05146599
155	0xba91c1ae	-0.0011120343
156	0xbdf4d149	-0.119539805
157	0xbdd60f58	-0.10452145
158	0x3daede9b	0.085385524
159	0xbd90fe40	-0.07079744
160	0xbd460f9b	-0.048354726
161	0xbd9f358e	-0.077738866
162	0x3c999fb0	0.018752903
163	0x3c9456a9	0.018107729
164	0x3df6e86b	0.12056049
165	0xbe004123	-0.12524848
166	0xbdadbd0c	-0.084833235
167	0xbe0603fe	-0.1308746
168	0x3b38397a	0.002811043
169	0xbda2bdb6	-0.07946341
170	0xbd3c0e0e	-0.04591184
171	0xbd6c7713	-0.057730746
172	0x3cad5421	0.02115828
173	0x3afb3e3e	0.001916833
174	0xbe6281c0	-0.22119808
175	0x3d7830f9	0.06059358
176	0x3e397b0f	0.1811335
177	0x3d103f2c	0.035216495
178	0x3dd09b5f	0.10185885
179	0xba290146	-0.0006447028
180	0xbd6ffe29	-0.058591995
181	0xbdaf4fae	-0.085601196
182	0x3cbd3261	0.023095312
183	0xbd2e16b9	-0.04250214
184	0x3a9b3132	0.0011840223
185	0xbda11900	-0.078660965
186	0xbe7569a7	-0.23966084
187	0xbd10c55d	-0.03534447
188	0xbcd12cbd	-0.025534028
189	0xbd8b536d	-0.068030216
190	0x3d953824	0.072860986
191	0x3c1cb4c7	0.009564585
192	0xbcd625e6	-0.026141118
193	0xbda999f8	-0.0828132
194	0x3d461c05	0.048366565
195	0xbd12a4a8	-0.03580156
196	0x3d92f149	0.07174928
197	0xbdb9d9f9	-0.09074778
198	0x3e352f7c	0.17693895
199	0x3dc16287	0.09442621
200	0xbcceeaa2	-0.025258366
201	0x3d895c85	0.067071
202	0x3cd72456	0.026262444
203	0xbe01c8ed	-0.12674303
204	0xbd80795a	-0.06273146
205	0xbd0cc812	-0.03437049
206	0xbd18ebc9	-0.037334237
207	0x3d428be8	0.047496706
208	0xbe1ad508	-0.15120327
209	0x3d3b0d31	0.045666877
210	0x3d97d449	0.07413537
211	0x3e448371	0.19190766
212	0x3dc30eb0	0.09524286
213	0xbcc48d5a	-0.023993183
214	0xbdde3925	-0.10850743
215	0xbd0c1634	-0.034200862
216	0x3cb4c5b8	0.022066936
217	0xbdf0f39f	-0.11765217
218	0xbd1a44c1	-0.037663225
219	0x3d9b1ad1	0.07573474
220	0x3bd4338d	0.006475872
221	0xbd2d7df1	-0.042356435
222	0x3ca4fe19	0.020140694
223	0xbdeb52db	-0.11490413
224	0x3ba4d347	0.005030069
225	0x3c17d612	0.009267347
226	0x3d436452	0.047703095
227	0xbd287474	-0.041126683
228	0xbdd26ae1	-0.10274292
229	0x3da149a7	0.07875376
230	0x3c272ae9	0.010203102
231	0xbdddc6c9	-0.10828931
232	0xbcc7625a	-0.02433889
233	0x3dc08119	0.093996234
234	0xbb91fc8a	-0.004455154
235	0x3d270197	0.040773
236	0xbd365247	-0.04451206
237	0x3c9f1f01	0.019423964
238	0xbe26b90e	-0.1628153
239	0x3dcad457	0.09903782
240	0x3de4bf81	0.11169339
241	0xbdec09d6	-0.115253136
242	0x3bbbc119	0.005729806
243	0xbe1be703	-0.15224843
244	0x3e26b525	0.16280039
245	0xbc0e76ab	-0.008695285
246	0x3c03f327	0.0080535775
247	0xbe17f8db	-0.14841025
248	0x3e320f66	0.17388687
249	0xbdc8df23	-0.09808185
250	0xbd6e8bbb	-0.058238726
251	0xbc6fa727	-0.014627255
252	0xbd17f414	-0.037098005
253	0xbde11b2f	-0.10991513
254	0xbc9dc6b7	-0.019259794
255	0x3dd3f33b	0.10349127

network_body._body_endoder.seq_layers.2.bias f4 [128]
0	0x00000000	0.0
1	0x00000000	0.0
2	0x00000000	0.0
3	0x00000000	0.0
4	0x00000000	0.0
5	0x00000000	0.0
6	0x00000000	0.0
7	0x00000000	0.0
8	0x00000000	0.0
9	0x00000000	0.0
10	0x00000000	0.0
11	0x00000000	0.0
12	0x00000000	0.0
13	0x00000000	0.0
14	0x00000000	0.0
15	0x00000000	0.0
16	0x00000000	0.0
17	0x00000000	0.0
18	0x00000000	0.0
19	0x00000000	0.0
20	0x00000000	0.0
21	0x00000000	0.0
22	0x00000000	0.0
23	0x00000000	0.0
24	0x00000000	0.0
25	0x00000000	0.0
26	0x00000000	0.0
27	0x00000000	0.0
28	0x00000000	0.0
29	0x00000000	0.0
30	0x00000000	0.0
31	0x00000000	0.0
32	0x00000000	0.0
33	0x00000000	0.0
34	0x00000000	0.0
35	0x00000000	0.0
36	0x00000000	0.0
37	0x00000000	0.0
38	0x00000000	0.0
39	0x00000000	0.0
40	0x00000000	0.0
41	0x00000000	0.0
42	0x00000000	0.0
43	0x00000000	0.0
44	0x00000000	0.0
45	0x00000000	0.0
46	0x00000000	0.0
47	0x00000000	0.0
48	0x00000000	0.0
49	0x00000000	0.0
50	0x00000000	0.0
51	0x00000000	0.0
52	0x00000000	0.0
53	0x00000000	0.0
54	0x00000000	0.0
55	0x00000000	0.0
56	0x00000000	0.0
57	0x00000000	0.0
58	0x00000000	0.0
59	0x00000000	0.0
60	0x00000000	0.0
61	0x00000000	0.0
62	0x00000000	0.0
63	0x00000000	0.0
64	0x00000000	0.0
65	0x00000000	0.0
66	0x00000000	0.0
67	0x00000000	0.0
68	0x00000000	0.0
69	0x00000000	0.0
70	0x00000000	0.0
71	0x00000000	0.0
72	0x00000000	0.0
73	0x00000000	0.0
74	0x00000000	0.0
75	0x00000000	0.0
76	0x00000000	0.0
77	0x00000000	0.0
78	0x00000000	0.0
79	0x00000000	0.0
80	0x00000000	0.0
81	0x00000000	0.0
82	0x00000000	0.0
83	0x00000000	0.0
84	0x00000000	0.0
85	0x00000000	0.0
86	0x00000000	0.0
87	0x00000000	0.0
88	0x00000000	0.0
89	0x00000000	0.0
90	0x00000000	0.0
91	0x00000000	0.0
92	0x00000000	0.0
93	0x00000000	0.0
94	0x00000000	0.0
95	0x00000000	0.0
96	0x00000000	0.0
97	0x00000000	0.0
98	0x00000000	0.0
99	0x00000000	0.0
100	0x00000000	0.0
101	0x00000000	0.0
102	0x00000000	0.0
103	0x00000000	0.0
104	0x00000000	0.0
105	0x00000000	0.0
106	0x00000000	0.0
107	0x00000000	0.0
108	0x00000000	0.0
109	0x00000000	0.0
110	0x00000000	0.0
111	0x00000000	0.0
112	0x00000000	0.0
113	0x00000000	0.0
114	0x00000000	0.0
115	0x00000000	0.0
116	0x00000000	0.0
117	0x00000000	0.0
118	0x00000000	0.0
119	0x00000000	0.0
120	0x00000000	0.0
121	0x00000000	0.0
122	0x00000000	0.0
123	0x00000000	0.0
124	0x00000000	0.0
125	0x00000000	0.0
126	0x00000000	0.0
127	0x00000000	0.0

value_heads.value_heads.extrinsic.weight f4 [1, 128]
0	0xbd965988	-0.073412955
1	0xbe0258f2	-0.12729242
2	0xbd8d2938	-0.068926275
3	0xbe1451e2	-0.14484361
4	0xbe3fc282	-0.18726543
5	0xbc59fb20	-0.013304502
6	0x3e142f02	0.14471057
7	0xbe300fcc	-0.17193526
8	0x3ab95b80	0.0014141649
9	0xbdd7e9ef	-0.10542666
10	0x3d302e20	0.04301274
11	0x3e29cfdc	0.16583198
12	0x3e57620e	0.21033499
13	0xbe43f869	-0.1913773
14	0x3e549e10	0.20763421
15	0x3d38ea40	0.045145273
16	0x3e2eee0e	0.17082998
17	0x3db68d9c	0.089137286
18	0xbcd37488	-0.025812402
19	0xbcd08e80	-0.025458574
20	0xbdc9b6c5	-0.09849314
21	0xbbd50540	-0.00650087
22	0x3d4f8978	0.05066821
23	0x3e0233b2	0.12715033
24	0xbe0f5b3a	-0.13999644
25	0xbd903a1a	-0.07042332
26	0xbe01b00e	-0.12664816
27	0x3bfd47e0	0.0077295154
28	0x3e4b2d54	0.1984151
29	0x3dff4068	0.124634564
30	0xbdb35e82	-0.0875826
31	0xbce1e090	-0.0275729
32	0x3dca1770	0.098677516
33	0x3e19e63a	0.1502923
34	0x3d3a0338	0.045413226
35	0x3d9f8ea4	0.077908784
36	0x3cc3e930	0.023914903
37	0xbd22dd24	-0.039761677
38	0x3d335010	0.043777525
39	0xbe0ca54e	-0.13734934
40	0xbce32388	-0.027726904
41	0x3d63f4a0	0.055653214
42	0x3d431148	0.047623903
43	0x3d34fde8	0.044187456
44	0x3e099ae4	0.13437992
45	0xbe53222d	-0.20618506
46	0x3d5b7c50	0.05358535
47	0x3dffcd24	0.12490299
48	0xbd37be78	-0.04485938
49	0x3dd93acc	0.10606918
50	0x3d344e90	0.044020236
51	0x3db8dd58	0.09026593
52	0xbe188892	-0.14895847
53	0xbe2eb03a	-0.17059413
54	0x3daf5b4c	0.08562335
55	0x3e008ec4	0.12554461
56	0xbe0fb407	-0.14033519
57	0x3dd43850	0.10362303
58	0xbe2d937e	-0.16950795
59	0x3c2d2120	0.01056698
60	0xbd860328	-0.06543571
61	0xbe252f2e	-0.16131279
62	0x3df276e0	0.1183908
63	0x3e531866	0.20614776
64	0xbe49069b	-0.19631426
65	0xbdfe08b8	-0.12404007
66	0xbe58446a	-0.21119848
67	0xbe504c9d	-0.20341726
68	0x3dc53498	0.09629172
69	0xbe5aac9c	-0.21354908
70	0xbdfb0f95	-0.122588314
71	0x3e40c924	0.18826729
72	0x3e2472ec	0.16059464
73	0xbe0d408a	-0.13794151
74	0xbdb296f8	-0.08720201
75	0x3e49fdf0	0.19725776
76	0xbe2be72b	-0.16787402
77	0x3d942d9c	0.07235262
78	0xbcab06d8	-0.020877287
79	0x3e576128	0.21033156
80	0xbe23244b	-0.15931813
81	0xbd90f714	-0.070783764
82	0xbdfedcef	-0.124444835
83	0xbdcbb6ca	-0.099469736
84	0x3e514182	0.20435145
85	0x3e2dfec0	0.1699171
86	0x3db6e3c8	0.089301646
87	0x3a4c4f00	0.00077937543
88	0x3e56e0e0	0.2098422
89	0x3e54c5b0	0.20778537
90	0xbd24d0d0	-0.0402382
91	0x3c138250	0.009003237
92	0xbe4eb9ed	-0.20188113
93	0x3e11412c	0.14185017
94	0x3d3adff0	0.04562372
95	0x3e4173bc	0.18891805
96	0x3d0363e8	0.0320777
97	0xbd3a6608	-0.04550746
98	0xbe1c4380	-0.15260124
99	0xbe2e88e0	-0.17044401
100	0xbe269aff	-0.16270064
101	0xbe046b9b	-0.12931673
102	0xbe1708cf	-0.14749454
103	0xbe55bd8b	-0.20873086
104	0x3e054492	0.13014439
105	0x3d9772e8	0.073949635
106	0x3d332bb0	0.043742836
107	0xbe16f6f2	-0.1474264
108	0xbd1d7a8c	-0.038446948
109	0x3e075b84	0.13218504
110	0xbd587d40	-0.052853823
111	0xbcb7cd28	-0.022436693
112	0x3e232650	0.15932584
113	0xbd708ba8	-0.058726937
114	0xbe2dfa86	-0.16990098
115	0xbd24aa18	-0.040201277
116	0xbe5111f6	-0.20417008
117	0x3e02e638	0.12783134
118	0xbd98930e	-0.074499235
119	0x3d729918	0.059228033
120	0xbd07c924	-0.033150807
121	0x3de17770	0.11009109
122	0xbe49d121	-0.19708683
123	0x3ca5acd8	0.02022402
124	0x3e54443c	0.20729154
125	0x3e5630c6	0.20917043
126	0xbe045a36	-0.12925038
127	0xbdacd91c	-0.08439848
