results/PruebaLargaConRayCast/AgenteCoche/AgenteCoche-2499992.pt (torch, 564959 bytes, 36 tensors)

network_body._body_endoder.seq_layers.0.weight f4 [128, 47]
0.14424701 -0.07988947 -0.18809614 0.007708849 0.059444997 -0.0737901 -0.14684293 -0.123354554
-0.15803112 -0.061732862 0.15583567 0.100609995 0.12755063 -0.044183757 -0.27179426 0.17800061
-0.2469028 0.016890245 -0.012872027 -0.28052148 -0.110414475 0.08927901 -0.06731072 -0.043600038
0.037333038 0.13262369 -0.32873374 0.026000552 0.15664683 0.05701116 0.33138567 -0.016036069
0.18352619 -0.28329596 0.03258092 0.30342895 0.19834502 0.019527983 -0.19220293 -0.14458339
-0.09106392 -0.009879653 0.16826144 0.10351871 0.12464409 -0.20955864 0.31252483 -0.11034492
0.09934384 -0.15388209 -0.1259732 -0.16877876 -0.1040158 -0.18047412 -0.16325603 -0.012035239
-0.0009099017 0.20912187 0.12505156 -0.032339882 -0.28097054 0.07384504 0.012666219 -0.052461468
0.01761951 0.085879065 0.07127662 -0.10388678 0.07069132 0.09360954 -0.04263503 -0.022024324
0.095565185 -0.007219758 0.35697794 0.08458686 -0.4650883 -0.13525516 -0.08300856 -0.08693488
0.09967419 0.12421409 -0.013481615 -0.15009455 0.08658512 -0.008030339 -0.10036959 -0.22251584
-0.048298936 -0.11305876 -0.22065224 0.02726851 -0.017700743 0.2965604 0.039731752 0.11410769
0.1549146 -0.16313529 -0.2535507 -0.052782286 0.1959742 -0.043081485 -0.26527599 -0.08872671
0.124984786 0.45394763 -0.10827757 0.104309216 -0.02939887 0.12480769 -0.01566188 0.03791811
-0.04011288 0.12651196 0.17620105 0.06908648 -0.2251935 -0.35731462 0.19284168 -0.022700112
-0.07425987 -0.0032298751 -0.06313674 -0.09103269 -0.17335336 -0.13116479 -0.034379393 0.16844979
0.37915984 0.14328739 -0.15212534 -0.08321134 0.15571406 0.03269692 0.12226992 0.14598069
0.054825515 0.1480166 0.04699757 0.16698799 -0.03152275 0.1270758 0.06451429 0.064981304
0.14763503 0.08712167 -0.105737984 0.2617135 -0.1448611 -0.092358634 0.10165075 0.033233143
-0.033001937 0.13597187 0.24304189 0.037842903 -0.19151486 0.014711672 -0.17498162 -0.1642114
0.004869909 -0.004815731 0.040811278 0.1303699 -0.18614614 0.048511337 -0.024066499 0.00094097253
0.24257836 -0.16020894 -0.13033432 -0.17205976 -0.11848418 0.16168767 -0.21628836 0.029964108
0.21148585 0.14359999 -0.10170859 -0.16217536 0.14094266 0.0134673165 -0.19673325 0.05118003
0.08698291 -0.15543224 0.038367257 -0.029509047 0.077415965 0.38117543 0.13494512 0.074836634
-0.056787647 -0.024020983 -0.2280419 -0.2509359 -0.21366262 -0.0501381 -0.11857014 0.08830021
-0.14033547 0.06545698 -0.16901276 0.0025388768 -0.076053515 -0.17123549 -0.07421846 0.021590022
-0.048813995 -0.08590617 -0.014938525 0.05957149 0.071351595 -0.05588231 0.20564988 -0.19772808
0.23046832 0.027615814 -0.019759573 -0.30655724 0.15822259 0.17140013 0.21133792 0.2074004
0.003465445 0.02679032 -0.03182781 0.074955426 0.124809 -0.18373111 -0.22314778 -0.038911387
0.1700001 0.17668813 -0.05485641 -0.18720637 0.16329433 -0.18000732 0.11742551 -0.060149312
-0.17386658 -0.060665093 -0.29310033 -0.201616 -0.051137358 0.054202408 -0.061537664 -0.03689834
-0.20116691 0.10716099 0.18404005 -0.048628684 -0.17772606 -0.2597623 -0.107188076 -0.002151862
00000000: 7db5 133e 179d a3bd 469c 40be 839a fc3b
00000010: 997c 733d 441f 97bd fe5d 16be 50a1 fcbd
00000020: e9d2 21be 99db 7cbd 6393 1f3e 9d0c ce3d
00000030: a29c 023e 07fa 34bd 9e28 8bbe cb45 363e
00000040: 16d4 7cbe 695d 8a3c 32e5 52bc 83a0 8fbe
00000050: fc20 e2bd ead7 b63d 34da 89bd f495 32bd
00000060: 87ea 183d 81ce 073e ca4f a8be 1cff d43c
00000070: 0768 203e 8984 693d 62ab a93e 135e 83bc
00000080: 4aee 3b3e 2b0c 91be 9273 053d 0a5b 9b3e
00000090: f51a 4b3e 26f9 9f3c d8d0 44be ab0d 14be
000000a0: b87f babd 45de 21bc ba4c 2c3e 9e01 d43d
000000b0: 6745 ff3d 8a96 56be 4103 a03e 84fc e1bd
000000c0: c874 cb3d 4493 1dbe 1eff 00be 57d4 2cbe
000000d0: 3c06 d5bd 35ce 38be 972c 27be 732f 45bc
000000e0: 7886 6eba 0b24 563e 840d 003e d376 04bd
000000f0: 5fdb 8fbe 113c 973d f985 4f3c d6e1 56bd
00000100: ca56 903c 5de1 af3d 7af9 913d 98c2 d4bd
00000110: 9cc6 903d 5cb6 bf3d 12a2 2ebd 5b6c b4bc
00000120: aeb7 c33d b893 ecbb d0c5 b63e e03b ad3d
00000130: 0e20 eebe 5480 0abe 6400 aabd ea0a b2bd
00000140: fb21 cc3d f563 fe3d fee1 5cbc 63b2 19be
00000150: 8a53 b13d af91 03bc 928e cdbd 31db 63be
00000160: 1bd5 45bd 5a8b e7bd a9f2 61be 3662 df3c
00000170: 2601 91bc c4d6 973e c3bd 223d 4bb1 e93d
00000180: efa1 1e3e f00c 27be 66d1 81be 3d32 58bd
00000190: 76ad 483e 3676 30bd 41d2 87be 59b6 b5bd
000001a0: 06f8 ff3d d36b e83e a1c0 ddbd 12a0 d53d
000001b0: e6d5 f0bc 2d9b ff3d 584d 80bc 0550 1b3d
000001c0: 674d 24bd 5a8c 013e 0c6e 343e 367d 8d3d
000001d0: 2099 66be f1f1 b6be 4a78 453e 96f5 b9bc
000001e0: 8f15 98bd 50ac 53bb d64d 81bd 596f babd
000001f0: 8b83 31be 1050 06be 68d1 0cbd 1a7e 2c3e
00000200: 3d21 c23e eeb9 123e bfc6 1bbe b56a aabd
00000210: 8273 1f3e 35ed 053d a768 fa3d f67b 153e
00000220: b890 603d aa91 173e 8680 403d e6fe 2a3e
00000230: 001e 01bd 2920 023e 1120 843d eb14 853d
00000240: a32d 173e d96c b23d 288d d8bd 50ff 853e
00000250: 7856 14be 8626 bdbd 452e d03d 7a1f 083d
00000260: 0a2d 07bd 363c 0b3e f9df 783e 2901 1b3d
00000270: 791c 44be 3a09 713c 622e 33be 0927 28be
00000280: c293 9f3b 48cd 9dbb ba29 273d b07f 053e
00000290: 189d 3ebe d3b3 463d 1b27 c5bc 99ab 763a
000002a0: 7666 783e d00d 24be 5c76 05be 6f30 30be
000002b0: d5a7 f2bd 7491 253e b27a 5dbe 4a77 f53c
000002c0: bf8f 583e e00b 133e 984c d0bd 4c11 26be
000002d0: 4653 103e 05a6 5c3c 7174 49be 27a2 513d
000002e0: 1924 b23d a129 1fbe fc26 1d3d f5bc f1bc
000002f0: 438c 9e3d 6d29 c33e 0e2f 0a3e f343 993d
00000300: 2a9a 68bd a7c7 c4bc d183 69be ac7a 80be
00000310: 60ca 5abe 9c5d 4dbd e7d4 f2bd bed6 b43d
00000320: 1ab4 0fbe 4f0e 863d ae11 2dbe 4963 263b
00000330: f2c1 9bbd 5b58 2fbe d9ff 97bd 8fdd b03c
00000340: 2ff1 47bd 93ef afbd b7c0 74bc 3c01 743d
00000350: c920 923d d9e4 64bd e295 523e 3b79 4abe
00000360: e3ff 6b3e 8f3a e23c d4de a1bc 12f5 9cbe
00000370: 1a05 223e 8483 2f3e f868 583e c560 543e
00000380: 851c 633b 6077 db3c e15d 02bd 3b82 993d
00000390: dc9b ff3d 0224 3cbe da80 64be 8c61 1fbd
000003a0: 8214 2e3e bced 343e 1db1 60bd 07b3 3fbe
000003b0: a136 273e d753 38be c97c f03d 205f 76bd
000003c0: 150a 32be f67b 78bd 3f11 96be 6d74 4ebe
000003d0: 6875 51bd 5803 5e3d eb0e 7cbd b722 17bd
000003e0: b3fe 4dbe 3977 db3d ff74 3c3e df2e 47bd
000003f0: d2fd 35be 90ff 84be 6c85 dbbd 4106 0dbb

network_body._body_endoder.seq_layers.0.bias f4 [128]
-0.0008684091 0.003473653 0.0064436947 0.004792844 -0.00030134176 -0.00054892665 -0.013290142 0.0065942975
0.016509434 -0.0035632504 0.0023069556 -0.0062522185 0.012059012 -0.0047044675 -0.00404651 -0.009839945
-0.0058228066 -0.0038959081 -0.0012481647 -0.0052661197 0.008237267 0.0055062366 0.0007345745 -0.0069222446
0.00090586685 0.0019391059 -0.0062813894 -0.0033889539 -0.01448754 -0.008729784 -0.029382564 -0.0080030495
-0.008270786 -0.018124275 0.025191357 0.0015031685 -0.008915484 0.011616231 -0.0053607533 -0.0072288085
-0.022899108 0.0031633438 -0.0028480007 -0.0046896124 -0.0033303418 -0.0059627285 -0.0027038306 -0.006858349
0.005740863 -0.00082562846 -0.0003089317 -0.0042919894 -0.006393121 0.0041104974 -0.0055430313 0.0038997694
-0.004936315 0.0072889323 -0.005779777 -0.00032898746 -0.0049863085 -0.013154931 -0.008978242 -0.0031292203
0.003925931 -0.0017375187 0.0012786749 0.028428959 -0.0018048959 -0.03232632 -0.008584757 -0.004844563
0.004851265 -0.00042302586 -0.004418159 0.0018229256 -0.011280803 0.008437442 -0.0047993436 0.0014967616
-0.014004891 -0.0046377354 -0.013318028 -0.008905951 0.0074322214 0.00034476625 -0.008361434 0.012976443
-0.0038579465 -0.0061774277 0.0010983299 -0.023933498 0.0033440336 -0.011760326 -0.004668491 -0.015120354
-0.0038954853 0.0034494987 -0.00251057 -0.002632785 -0.0038595877 0.00025095447 -0.015656648 -0.0035677315
0.0016824936 -0.005694456 0.0022088964 -0.0020046427 -0.00019177006 0.003135579 0.0046412135 -0.0069704736
0.00025200323 -0.0046157665 0.001176289 -0.0022748795 0.0021761777 0.0010614133 -0.00096696086 -0.0097038755
-0.0016230237 -0.00456048 0.010463128 -0.013093539 0.004829843 -0.010890275 0.012739144 -0.0048349765
00000000: f3a5 63ba 3aa6 633b a125 d33b 4a0d 9d3b
00000010: 68fd 9db9 d8e5 0fba e5be 59bc fa14 d83b
00000020: cb3e 873c 6c85 69bb 4b30 173b 69df ccbb
00000030: 2a93 453c ef27 9abb 9698 84bb b837 21bc
00000040: 3ecd bebb 7e52 7fbb 7599 a3ba 6a8f acbb
00000050: 9af5 063c a96d b43b 7690 403a ffd3 e2bb
00000060: b277 6d3a 9929 fe3a 1dd4 cdbb 3619 5ebb
00000070: 265d 6dbc 5e07 0fbc b4b3 f0bc 391f 03bc
00000080: 3182 07bc 5c79 94bc 1b5e ce3c f705 c53a
00000090: 4012 12bc 0152 3e3c 42a9 afbb a4df ecbb
000000a0: e996 bbbc 1a50 4f3b 86a5 3abb 52ab 99bb
000000b0: dd41 5abb fe62 c3bb c032 31bb 00bc e0bb
000000c0: d91d bc3b fd6e 58ba 1cf8 a1b9 d1a3 8cbb
000000d0: 637d d1bb 5ab1 863b 51a2 b5bb 4693 7f3b
000000e0: d0c0 a1bb ffd7 ee3b 4964 bdbb f37b acb9
000000f0: 3064 a3bb c887 57bc 7a19 13bc 9b13 4dbb
00000100: 19a5 803b 74bd e3ba 3699 a73a d9e3 e83c
00000110: 4292 ecba 9a68 04bd 15a7 0cbc 24bf 9ebb
00000120: 5cf7 9e3b 92c9 ddb9 34c6 90bb 3cef ee3a
00000130: 1ed3 38bc 323d 0a3c d043 9dbb fc2e c43a
00000140: c574 65bc 25f8 97bb dc33 5abc 44ea 11bc
00000150: fe89 f33b bec1 b439 65fe 08bc 269b 543c
00000160: 9ad5 7cbb 056c cabb d6f5 8f3a 2f10 c4bc
00000170: 9327 5b3b 62ae 40bc 24fa 98bb 5cbb 77bc
00000180: 664b 7fbb fc10 623b 6088 24bb cd8a 2cbb
00000190: 23f1 7cbb 8a92 8339 5f42 80bc 9ad0 69bb
000001a0: 1e87 dc3a 8f98 babb 22c3 103b 5360 03bb
000001b0: e215 49b9 497e 4d3b 5215 983b 9268 e4bb
000001c0: 4d1f 8439 db3f 97bb b62d 9a3a 2516 15bb
000001d0: 349e 0e3b 1f1f 8b3a a57b 7dba 01fd 1ebc
000001e0: a3bb d4ba 1470 95bb 8a6d 2b3c 4886 56bc
000001f0: a943 9e3b 206d 32bc d8b7 503c b96e 9ebb

network_body._body_endoder.seq_layers.2.weight f4 [128, 128]
0.048205305 0.038388282 -0.124803096 -0.068292975 -0.0525322 0.08633949 -0.21994397 0.10771043
0.026118392 -0.046286713 -0.04682089 0.011177148 -0.08537043 0.14794038 0.007982212 -0.09574808
0.018998167 0.012079166 -0.10939267 0.072735846 -0.205787 -0.06863047 0.016002733 0.10186814
-0.14788793 0.06329518 0.12516277 -0.088744074 -0.14314747 -0.09495825 0.08224505 0.0919595
0.091776684 -0.0033288929 -0.078044385 -0.019063838 -0.007657595 0.03291895 0.06465176 -0.030082094
-0.018435571 -0.15265271 -0.023051448 0.12066815 -0.08272545 0.08253057 0.109761655 -0.0024608406
-0.09443487 -0.02872466 0.0033213266 0.057240807 0.10440488 -0.02054802 0.15517622 0.113724515
-0.12022675 -0.054477286 0.04516451 0.046872158 0.06046732 0.069323316 -0.098007485 0.056948774
0.022061577 0.13956706 -0.007805842 -0.015889296 0.10268824 0.12942788 -0.008161618 0.112040974
0.032454547 -0.070806 -0.049107853 0.062022224 0.03861701 0.030016383 -0.035652183 0.118700966
0.11051937 0.1543815 0.122225374 -0.111130744 -0.029559527 -0.027170736 -0.035729725 -0.065076016
-0.07853836 -0.07033169 0.018900812 -0.023332672 0.002035007 0.21534865 -0.0689811 0.04209395
0.08822466 -0.08376376 -0.029861791 0.016068347 0.024362529 0.009040123 -0.07402219 0.11250036
-0.0681487 0.13524422 0.0027016632 0.09282316 -0.044173185 0.12913026 -0.055383585 0.0656088
0.014259584 0.092189215 0.06579529 0.10409453 -0.026959835 -0.10299229 0.026347011 0.051633995
0.15280308 -0.047089394 0.019776318 0.049834955 0.04107661 -0.037688836 -0.03554623 -0.10323657
0.049317818 0.018042235 0.13455293 0.032663282 -0.006370591 0.15214464 -0.029413164 -0.03274195
0.07438561 -0.101702 0.028565293 0.07193362 0.03149129 -0.08422368 0.05654355 0.047408186
0.083916634 -0.05815233 0.14995068 -0.08660285 0.05027181 0.038525093 0.1530031 0.10982137
0.14105602 0.06452361 -0.07651991 0.0810477 0.053709943 -0.1577872 -0.092592165 -0.014603716
-0.0385231 -0.00194941 -0.009649324 -0.11737305 0.07750124 0.03242421 0.15245351 0.07676743
0.06249443 0.004762959 -0.12687148 -0.05700268 0.10163356 -0.07900556 -0.10181772 -0.044653337
0.016529921 0.06899306 -0.06538207 -0.13063934 0.021571351 0.094582066 -0.08582927 0.059248243
-0.020628383 -0.046132155 -0.07082932 0.034749035 -0.20580481 0.02487812 -0.08762238 0.034010258
0.03844764 -0.03634521 0.12490107 0.042688053 0.016136251 -0.054310188 -0.047825813 0.012484698
-0.08647189 -0.06547351 -0.00048287906 -0.10241974 -0.19412649 0.173392 -0.015526882 0.09171236
-0.10836119 0.10664407 -0.07909755 -0.015924761 -0.02578383 -0.0071241306 0.021500519 -0.09515929
-0.14591634 0.1833028 0.00970511 0.0922503 0.19581398 -0.059945695 0.084599495 -0.06962185
-0.15801238 0.044597182 0.026106076 -0.019620912 -0.019537 0.08628067 0.066246726 0.00055324077
-0.07357949 0.087818764 0.09425076 -0.067375675 -0.033449773 -0.07854858 0.03352743 0.17548044
0.06961218 0.027659893 -0.05595906 -0.08800761 0.05666132 0.061702054 0.15444513 -0.23458986
0.055574443 -0.06664396 -0.04657947 -0.026863355 -0.08442284 -0.017084723 -0.14276795 -0.011101024
00000000: ed72 453d 083d 1d3d c498 ffbd 30dd 8bbd
00000010: 012c 57bd c2d2 b03d fe38 61be 4997 dc3d
00000020: 3df6 d53c 2397 3dbd 43c7 3fbd 5b20 373c
00000030: b1d6 aebd af7d 173e d3c7 023c 9217 c4bd
00000040: 0ba2 9b3c b2e7 453c 4409 e0bd 88f6 943d
00000050: d4b9 52be 228e 8cbd 2a18 833c 3ea0 d03d
00000060: ef6f 17be e7a0 813d ab2a 003e 74bf b5bd
00000070: 4095 12be 7979 c2bd 1870 a83d 4355 bc3d
00000080: 6af5 bb3d 8e29 5abb bcd5 9fbd c42b 9cbc
00000090: 90ec fabb 05d6 063d 2468 843d b96e f6bc
000000a0: 3206 97bc fe50 1cbe 64d6 bcbc dd20 f73d
000000b0: f66b a9bd ca05 a93d b8ca e03d 0e46 21bb
000000c0: 1267 c1bd fa4f ebbc 9daa 593b 5675 6a3d
000000d0: 3ad2 d53d 5254 a8bc 84e6 1e3e 66e8 e83d
000000e0: 7139 f6bd 9323 5fbd 6cfe 383d 05fd 3f3d
000000f0: 95ac 773d 62f9 8d3d 26b8 c8bd 1e43 693d
00000100: 7bba b43c abea 0e3e 26c8 ffbb 452a 82bc
00000110: 364e d23d be88 043e 4fb8 05bc bd75 e53d
00000120: 0fef 043d bc02 91bd 5125 49bd 040b 7e3d
00000130: df2c 1e3d ebe4 f53c 0608 12bd 7e19 f33d
00000140: fb57 e23d 2f16 1e3e 4c51 fa3d 8498 e3bd
00000150: d226 f2bc 2a95 debc 5559 12bd 9346 85bd
00000160: b8d8 a0bd 100a 90bd e0d5 9a3c 2924 bfbc
00000170: c15d 053b 5b84 5c3e f745 8dbd b56a 2c3d
00000180: 21af b43d 568c abbd b7a0 f4bc c4a1 833c
00000190: ed93 c73c 061d 143c f298 97bd 9766 e63d
000001a0: 8c91 8bbd 767d 0a3e 630e 313b 121a be3d
000001b0: f1ee 34bd b93a 043e e6d9 62bd e85d 863d
000001c0: 08a1 693c b3cd bc3d aebf 863d 832f d53d
000001d0: dfda dcbc 9fed d2bd b0d5 d73c 2b7e 533d
000001e0: 6978 1c3e cfe0 40bd f201 a23c bd1f 4c3d
000001f0: f33f 283d 9c5f 1abd ec98 11bd b26d d3bd
00000200: 7b01 4a3d 4fcd 933c 3ec8 093e efc9 053d
00000210: 64c0 d0bb cecb 1b3e e0f3 f0bc 6c1c 06bd
00000220: 7c57 983d 2349 d0bd c301 ea3c ef51 933d
00000230: 03fd 003d 777d acbd 369a 673d 162f 423d
00000240: 7cdc ab3d 2331 6ebd ac8c 193e d65c b1bd
00000250: d0e9 4d3d 7dcc 1d3d d8ac 1c3e 07ea e03d
00000260: fd70 103e f424 843d 78b6 9cbd 56fc a53d
00000270: f5fe 5b3d f892 21be f6a0 bdbd 6d44 6fbc
00000280: 66ca 1dbd 5883 ffba 3318 1ebc 4861 f0bd
00000290: f8b8 9e3d 40cf 043d c61c 1c3e 3e38 9d3d
000002a0: 29fa 7f3d 9912 9c3b 99ea 01be a47b 69bd
000002b0: 4225 d03d abcd a1bd cf85 d0bd 6be6 36bd
000002c0: c269 873c 3c4c 8d3d 09e7 85bd 52c6 05be
000002d0: 67b6 b03c 3eb4 c13d 42c7 afbd 49ae 723d
000002e0: dbfc a8bc 12f5 3cbd f60e 91bd 0155 0e3d
000002f0: 7fbe 52be 33cd cb3c 5d73 b3bd 574e 0b3d
00000300: 467b 1d3d b7de 14bd 22cc ff3d abd9 2e3d
00000310: 2c30 843c 5c74 5ebd 00e5 43bd 9e8c 4c3c
00000320: 2d18 b1bd fa16 86bd ee2a fdb9 71c1 d1bd
00000330: 18c9 46be ac8d 313e 7764 7ebc b1d3 bb3d
00000340: 79ec ddbd 3568 da3d e5fd a1bd a574 82bc
00000350: 9c38 d3bc 8a71 e9bb db21 b03c e0e2 c2bd
00000360: 186b 15be bbb3 3b3e 2f02 1f3c baed bc3d
00000370: 7683 483e 9e89 75bd 8042 ad3d e795 8ebd
00000380: ffcd 21be 89ab 363d 69dc d53c 09bc a0bc
00000390: 0f0c a0bc ebb3 b03d 5dac 873d 5c07 113a
000003a0: d8b0 96bd 53da b33d 8b06 c13d 42fc 89bd
000003b0: a102 09bd 14de a0bd 0f54 093d 25b1 333e
000003c0: d590 8e3d 0097 e23c 5435 65bd 553d b4bd
000003d0: b315 683d 4bbb 7c3d dd26 1e3e 5338 70be
000003e0: 07a2 633d a17c 88bd 1dca 3ebd 8a10 dcbc
000003f0: e2e5 acbd 43f5 8bbc c331 12be 12e1 35bc

network_body._body_endoder.seq_layers.2.bias f4 [128]
-0.007521038 -0.00894262 0.0019923642 -0.0053169737 0.0018792584 0.0015977146 0.0023865516 0.0043240585
0.0034155266 -0.0048944117 -0.0028949913 0.0014781315 -0.004054875 -0.005022672 -0.006508081 0.009992595
-0.011864061 0.0010068218 0.0018792815 0.00783933 0.0017803393 -0.0055517703 -0.0035546753 -0.0022065009
-0.00034751894 0.0009639623 -0.005651351 -0.0051666643 0.0015114571 0.0017597014 -0.007637019 -0.01337445
-0.0043149064 -0.014571005 -0.008290383 7.481333e-05 -0.0018755113 -0.004308826 0.0017562337 -0.006405836
0.0015897839 -0.00036561946 -0.0064983354 -0.003935712 0.0050770356 -0.0071399803 -0.0050028 -0.00087522034
-0.005784731 0.006322775 -0.001969822 -0.0027695515 -0.00074850855 0.00028940398 -0.0049114837 -0.0056782435
0.0015328864 -0.0030966732 -0.0012054329 -0.0053149634 -0.004825458 -0.008484475 -0.0043642023 -0.013885646
0.0016110603 0.00010303948 0.0033691647 0.004331641 -0.0007586211 0.0018055645 -0.007756935 0.0044746255
-0.0050232774 0.0004755291 -0.0036566653 -0.0148355365 -0.0039425115 0.0018089112 -0.0018092921 0.0049004154
-0.0049539297 -0.00044059262 0.003535463 -0.0068319817 -0.006638078 0.0026685987 -0.0076107685 -0.008680545
-0.006881683 -0.0057545947 0.0022170139 -0.0016316234 0.00030976388 -0.0072834496 0.0037205091 0.0028389844
-0.0002639734 0.0018044958 -0.008675472 -0.0051881904 -0.007208606 -0.0041375477 0.0030248207 -0.0002606787
-0.005500322 -0.00672622 -0.00843921 -0.0026421845 -0.006823061 -0.0037416616 -0.0034281265 -0.0010504671
0.0046437643 0.0019294351 -0.0036526541 -0.006113512 -0.0010282234 -0.0016650296 -0.0025519265 -0.0057399734
0.0023199553 -0.004385946 -0.0053809984 -0.008829475 0.0048786076 -0.007884595 0.0017000107 -0.007356624
00000000: 0a73 f6bb 1184 12bc 5392 023b 023a aebb
00000010: 7351 f63a 686a d13a b167 1c3b d5b0 8d3b
00000020: 07d7 5f3b 4d61 a0bb e5b9 3dbb ddbd c13a
00000030: c2de 84bb 3a95 a4bb be41 d5bb fbb7 233c
00000040: 7a61 42bc 55f7 833a 3952 f63a 8870 003c
00000050: 465a e93a a0eb b5bb 8ef5 68bb f19a 10bb
00000060: 3433 b6b9 6ab2 7c3a f82e b9bb 1f4d a9bb
00000070: 161c c63a c8a5 e63a f53f fabb 8220 5bbc
00000080: 0f64 8dbb 39bb 6ebc 63d4 07bc 1ae5 9c38
00000090: b7d3 f5ba 0d31 8dbb 6d31 e63a 0ce8 d1bb
000000a0: 4c60 d03a 9db0 bfb9 fdef d4bb 25f7 80bb
000000b0: 435d a63b 7ff6 e9bb 87ee a3bb 0b6f 65ba
000000c0: d78d bdbb 482f cf3b 2118 01bb 5d81 35bb
000000d0: 8f37 44ba 25bb 9739 83f0 a0bb 8f10 babb
000000e0: 22eb c83a 8ef1 4abb 9eff 9dba 2529 aebb
000000f0: e01e 9ebb 7802 0bbc 9501 8fbb 9f80 63bc
00000100: 372a d33a e616 d838 34cd 5c3b 70f0 8d3b
00000110: 33de 46ba b1a8 ec3a e32d febb e19f 923b
00000120: 4e9a a4bb 6f50 f939 aaa4 6fbb c010 73bc
00000130: 2f30 81bb fd18 ed3a c525 edba aa93 a03b
00000140: 9354 a2bb 57ff e6b9 3ab3 673b d1de dfbb
00000150: 3c84 d9bb a8e3 2e3b c163 f9bb d838 0ebc
00000160: be7f e1bb 0a91 bcbb 524b 113b 32dc d5ba
00000170: ce67 a239 01aa eebb c9d3 733b 410e 3a3b
00000180: e965 8ab9 d584 ec3a 9123 0ebc b201 aabb
00000190: 2c36 ecbb 4494 87bb 123c 463b b4ab 88b9
000001a0: 0c3c b4bb 9f67 dcbb 9d44 0abc 8028 2dbb
000001b0: fc93 dfbb aa36 75bb 6baa 60bb d4af 89ba
000001c0: b82a 983b 19e5 fc3a 5e61 6fbb db53 c8bb
000001d0: 74c5 86ba 1f3d daba 393e 27bb 6316 bcbb
000001e0: 640a 183b fbb7 8fbb 1653 b0bb 81a9 10bc
000001f0: badc 9f3b 632e 01bc e5d2 de3a d60f f1bb

action_model._continuous_distribution.log_sigma f4 [1, 2]
-0.0030949644 -0.005509914
00000000: e3d4 4abb 828c b4bb

action_model._continuous_distribution.mu.weight f4 [2, 128]
-0.032177784 0.0022988757 0.02274486 -0.01615184 0.00051149394 0.017130835 0.01712256 0.030743198
0.013864241 0.008478948 0.011730457 0.02074452 -0.0031378062 -0.027177406 -0.01565693 0.026713042
-0.005395123 0.006936626 0.013066461 0.011704043 0.021165598 -0.030393718 -0.0019617616 -0.010228335
-0.0047138915 -0.008203002 -0.040511444 0.00146665 0.022599513 0.018591082 -0.04377574 -0.004930905
-0.005342706 -0.004532441 -0.009373348 0.0077777323 -0.006780564 -0.0062610526 -0.005030779 -0.014036072
0.009329557 -0.006777797 -0.011998577 0.007241933 0.0052268445 -0.01837763 -0.0073688943 -0.0029698058
-0.010012677 0.01669877 -0.011759965 -0.009906373 0.01560689 0.016160337 -0.0022736052 0.0007179167
-0.005141826 0.008140927 -0.018968664 0.0037028561 -0.023407528 -0.020868883 -0.0029434394 -0.005155231
0.006364197 0.00086669344 0.018821467 -0.002077842 -0.0051819696 0.02020096 -0.0020433224 0.026530862
-0.009329155 -0.0038195064 -0.023896739 -0.004023317 0.0017627759 0.0067914585 -0.020482497 0.003141695
-0.035769556 -0.014109801 0.018717209 -0.035699096 -0.05160423 0.016762635 -0.023160318 -0.009486118
-0.0022873473 -0.045256916 0.016082676 -0.0066068657 0.010253382 -0.0135733485 0.00073166046 0.02585377
0.0073847375 0.02207204 -0.004888698 0.0006207378 -0.0077572903 -0.016737146 0.028225556 0.0054585487
6.918083e-05 -0.023707394 -0.03440654 -0.013765716 -0.008898223 0.0009068561 0.005985021 0.005952049
0.019135347 0.015754396 -0.0069775344 -0.0049358862 -0.0127922185 -0.0005052901 -0.010949954 -0.0024782808
0.018389668 0.006625156 -0.00941854 -0.018503884 0.022056442 -0.004005402 -0.0026922435 -0.016230578
0.010646532 5.4704105e-05 -0.0037724995 0.002357413 -0.016998304 0.03134676 -0.0226097 0.008506461
0.013341372 0.01023684 0.013151073 0.0009825813 0.0012629828 -0.013616862 -0.011635336 -0.0102794375
0.004380583 -0.006391054 0.042587973 -0.012463815 -0.007002643 0.030775229 0.0010141226 -0.026794398
-0.017266024 0.02024656 -0.011280851 0.0013012022 0.00043593702 -0.03156483 0.022540344 0.0005504555
-0.01977166 0.0025721504 -0.0052695265 -0.00487105 0.0030096413 0.020990085 0.018053805 -0.003750496
-0.012661901 -0.020528635 0.0021566097 0.020988477 -0.016330069 0.01861786 -0.011612087 0.002874251
0.025830436 0.011952182 -0.015861917 0.009454067 0.028394492 0.0017705329 0.0047552628 0.0018948573
-0.0045152646 -0.0012814138 0.031942163 0.0038053168 0.02731572 0.018597566 0.013577875 0.0006264954
0.013358396 0.030864181 0.005728033 -0.0013618758 -0.02061543 0.0080643045 0.009725978 -0.008693767
-0.0024917098 -0.020423297 0.027724886 -0.0009092993 0.01119408 -0.004952833 0.034210946 -0.014745126
-0.02677014 0.021482285 -0.00841975 -0.011452075 0.010603495 -0.003270648 -0.003092806 -0.0083911875
0.008200586 -0.008401792 0.008331253 0.0032504792 0.00798776 -0.004953393 -0.00030360674 0.009521002
-0.01429243 0.020924812 0.0024775635 0.004541747 0.018262118 -0.0110736815 -0.009851152 -0.028260982
-0.00996386 -0.017571721 0.022776945 -0.019517915 0.0076701087 -0.0042621554 0.021343505 0.034543097
-0.00166398 -0.0017992178 0.03875723 0.01964917 -0.031867553 -0.008098189 0.012077934 0.01421805
0.0010568677 0.010004256 0.02533435 0.011241247 -0.0044861464 0.0115222735 -0.04353354 -0.00052886625
00000000: dacc 03bd bca8 163b 6e53 ba3c dd50 84bc
00000010: c715 063a f755 8c3c 9c44 8c3c 29d9 fb3c
00000020: d726 633c 49eb 0a3c 1a31 403c 69f0 a93c
00000030: a7a3 4dbb 27a3 debc f642 80bc 4fd5 da3c
00000040: 92c9 b0bb a34c e33b b614 563c 50c2 3f3c
00000050: 7a63 ad3c 3ffc f8bc e690 00bb bf94 27bc
00000060: fd76 9abb e265 06bc 54ef 25bd 9c3c c03a
00000070: 9d22 b93c 534c 983c 314e 33bd 6e93 a1bb
00000080: de11 afbb df84 94bb ac92 19bc 59dc fe3b
00000090: 7e2f debb 8429 cdbb 3cd9 a4bb 8ef7 65bc
000000a0: 00db 183c 4818 debb ae95 44bc bd4d ed3b
000000b0: f345 ab3b af8c 96bc c476 f1bb 13a1 42bb
000000c0: 360c 24bc dccb 883c deac 40bc 574e 22bc
000000d0: 0bb4 7f3c af62 843c c400 15bb 9332 3c3a
000000e0: c37c a8bb 8661 053c 2c64 9bbc 9eab 723b
000000f0: 25c1 bfbc 38f5 aabc b8e6 40bb 36ed a8bb
00000100: c18a d03b d032 633a 7a2f 9a3c 672c 08bb
00000110: 83cd a9bb 7c7c a53c 43e9 05bb 4057 d93c
00000120: 50d9 18bc af50 7abb 18c3 c3bc 07d6 83bb
00000130: f20c e73a e28a de3b e9ca a7bc e5e4 4d3b
00000140: 1983 12bd cb2c 67bc d554 993c 3739 12bd
00000150: f55e 53bd cb51 893c b5ba bdbc aa6b 1bbc
00000160: 52e7 15bb 515f 39bd d1bf 833c 687e d8bb
00000170: cdfd 273c c062 5ebc e7cc 3f3a 49cb d33c
00000180: abfb f13b 6cd0 b43c 5f31 a0bb 02b9 223a
00000190: de30 febb 571c 89bc 4839 e73c a0dd b23b
000001a0: 2d15 9138 0236 c2bc dfed 0cbd 9989 61bc
000001b0: dac9 11bc 15ba 6d3a ff1d c43b 6809 c33b
000001c0: bbc1 9c3c 5d0f 813c cda3 e4bb 37bd a1bb
000001d0: 7496 51bc 7275 04ba 7067 33bc a76a 22bb
000001e0: eea5 963c d617 d93b 3850 1abc 7595 97bc
000001f0: b6af b43c bf3f 83bb 5a70 30bb fdf5 84bc
00000200: cb6e 2e3c 1672 6538 0a3c 77bb d47e 1a3b
00000210: 0740 8bbc 7665 003d fa37 b9bc af5e 0b3c
00000220: c595 5a3c 6bb8 273c 9977 573c f5c9 803a
00000230: ac8a a53a 4219 5fbc 23a2 3ebc 166b 28bc
00000240: fe8a 8f3b 0c6c d1bb ba70 2e3d 0735 4cbc
00000250: 6d76 e5bb 551c fc3c 4fec 843a ed7f dbbc
00000260: 7a71 8dbc 1ddc a53c 52d3 38bc 1a8d aa3a
00000270: 7a8e e439 204a 01bd 87a6 b83c 714c 103a
00000280: 2df8 a1bc 8691 283b feab acbb 549d 9fbb
00000290: 673d 453b 66f3 ab3c 93e5 933c e2ca 75bb
000002a0: dd73 4fbc ab2b a8bc e855 0d3b 07f0 ab3c
000002b0: a3c6 85bc 7b84 983c 9f40 3ebc ee5d 3c3b
000002c0: 5a9a d33c 16d3 433c daf0 81bc 3be5 1a3c
000002d0: 919b e83c 3a11 e83a 09d2 9b3b dc5c f83a
000002e0: c9f4 93bb 1df5 a7ba c9d5 023d 9f62 793b
000002f0: 38c5 df3c ec59 983c bc75 5e3c 653b 243a
00000300: 2cdd 5a3c e1d6 fc3c 39b2 bb3b f880 b2ba
00000310: b1e1 a8bc 2520 043c b559 1f3c 4d70 0ebc
00000320: f44b 23bb c24e a7bc 4d1f e33c 0b5e 6eba
00000330: 6067 373c 604b a2bb c720 0c3d 8a95 71bc
00000340: 0d4d dbbc 9efb af3c fef2 09bc 7ca1 3bbc
00000350: 48ba 2d3c 5e58 56bb adb0 4abb 317b 09bc
00000360: c05b 063c aba7 09bc cf7f 083c fe05 553b
00000370: 18df 023c 1250 a2bb 682d 9fb9 fafd 1b3c
00000380: cc2a 6abc 836a ab3c 9e5e 223b efd2 943b
00000390: 709a 953c 636e 35bc ba66 21bc 9383 e7bc
000003a0: 753f 23bc 92f2 8fbc b796 ba3c 09e4 9fbc
000003b0: 8955 fb3b 8da9 8bbb 93d8 ae3c 107d 0d3d
000003c0: e719 daba bbd3 ebba e7bf 1e3d 4cf7 a03c
000003d0: 8d87 02bd 44ae 04bc 87e2 453c d3f2 683c
000003e0: 9886 8a3a e4e8 233c fc89 cf3c 352d 383c
000003f0: 8600 93bb ebc7 3c3c 3a50 32bd 9da3 0aba

action_model._continuous_distribution.mu.bias f4 [2]
0.0065033846 -0.0018954817
00000000: 581a d53b d071 f8ba

exp_avg f4 [128, 47]
7.3403174e-07 -2.1542096e-06 0.0 -6.665842e-07 -5.9284534e-06 4.5082757e-06 0.0 -2.7597798e-07
-1.9247368e-06 5.045605e-07 0.0 -2.1181831e-06 -4.8751963e-06 3.4550176e-06 3.2168753e-14 5.425068e-07
-3.6251865e-06 2.2050085e-06 0.0 -2.6864216e-06 -8.194079e-07 -3.0687593e-06 0.0 -9.364288e-08
-1.0844635e-06 -1.3193376e-06 0.0 -8.9892325e-08 5.190474e-07 -3.3090646e-06 0.0 -1.0317236e-07
-8.7996057e-07 -1.5458456e-06 0.0 -1.3813488e-07 8.822518e-08 -1.2289283e-06 0.0 -7.394115e-08
1.6677182e-05 1.9288861e-06 -2.3006805e-07 5.474391e-07 -2.62995e-06 -3.0411746e-07 -8.841505e-07 4.02171e-06
-1.3743049e-05 0.0 -3.1145057e-06 -1.52179255e-05 5.496586e-06 0.0 -1.7254281e-06 -8.300956e-06
-1.4203811e-06 0.0 -8.877345e-06 -2.1981843e-05 1.2260506e-05 2.669028e-14 1.9028539e-07 -1.5219346e-05
5.498002e-06 0.0 -1.1110864e-05 -7.0048134e-07 -6.915233e-06 0.0 -6.1140145e-07 -1.6483053e-06
-1.1929206e-06 0.0 -5.511028e-07 4.01387e-07 -7.872926e-06 0.0 -5.490223e-07 -1.1074912e-06
-3.500408e-06 0.0 -7.286345e-07 -1.0213732e-06 -5.7814373e-06 0.0 -4.952058e-07 4.8848888e-05
3.5422647e-06 -1.5375757e-06 -6.8203985e-07 -1.0245829e-05 -1.5712559e-06 -9.864285e-07 -5.229951e-06 8.756728e-06
0.0 1.0962736e-06 9.172568e-06 -5.6457848e-06 0.0 2.607311e-07 -1.6778488e-06 5.204629e-06
0.0 1.2638934e-06 1.0467012e-05 -6.94023e-06 -6.146584e-14 4.532817e-07 1.0312773e-05 -6.785991e-06
0.0 4.6066166e-06 1.3177977e-06 1.1253896e-06 0.0 -6.391746e-08 6.046783e-07 2.04736e-06
0.0 -2.98066e-08 1.4018826e-07 2.0463312e-06 0.0 1.7283377e-08 7.587811e-07 1.8106848e-06
0.0 -1.7108384e-08 1.5621995e-06 -1.0037738e-06 0.0 -1.1739303e-09 -1.395217e-05 -3.3588792e-06
5.6947107e-07 3.2343355e-06 7.201737e-06 -1.9859294e-06 8.1826374e-07 -8.580307e-07 -3.2367063e-06 0.0
-8.021759e-07 -1.6490081e-06 -2.4457281e-06 0.0 -7.251932e-07 -1.3883316e-06 -2.7064052e-06 0.0
-1.1246113e-06 -1.77494e-06 -2.3197952e-06 -1.4033203e-14 -1.1540164e-06 -2.2800134e-07 -3.8667345e-06 0.0
-1.0236688e-06 2.8306903e-07 -3.233285e-07 0.0 -3.8228897e-08 2.8049334e-07 -1.031236e-06 0.0
-4.527002e-08 -8.3305814e-08 -1.4942887e-07 0.0 -4.580997e-08 4.3963792e-07 -7.303467e-07 0.0
-2.2108047e-08 3.4276076e-07 -7.4357416e-07 0.0 -6.588672e-08 -1.6439157e-05 2.6715372e-07 -6.4685685e-07
-2.0692842e-06 -3.792326e-06 -2.3278866e-07 -1.893521e-08 -9.1371214e-07 5.595191e-05 0.0 9.966431e-06
3.935241e-05 1.5685786e-05 0.0 7.5949206e-06 1.3469382e-05 4.1568812e-05 0.0 1.7604667e-05
4.140409e-05 1.3634097e-05 -2.0074643e-15 9.850055e-06 3.0892814e-05 2.4145378e-05 0.0 2.5026637e-05
1.622166e-06 1.0840319e-05 0.0 1.3371722e-07 1.0191851e-06 1.6342743e-05 0.0 2.3278336e-07
1.6569347e-06 1.383573e-05 0.0 3.3488527e-07 1.3481645e-06 1.4209114e-05 0.0 1.529615e-07
3.2430457e-06 1.1142335e-05 0.0 3.7628504e-07 3.1600204e-05 -8.92815e-06 8.71056e-06 2.4688085e-05
5.0728682e-05 3.6516644e-06 7.0366355e-07 1.881402e-06 8.342488e-06 0.0 1.9380373e-06 3.2914018e-06
6.932487e-06 0.0 1.405872e-06 -2.9125763e-06 1.3136466e-05 0.0 2.9600478e-06 8.8055085e-06
1.4183778e-06 1.923241e-13 1.2270558e-06 1.8491812e-06 8.374707e-06 0.0 4.4241965e-06 -4.8135462e-08
00000000: 470a 4535 0a91 10b6 0000 0000 51ef 32b5
00000010: 07ed c6b6 cb45 9736 0000 0000 202a 94b4
00000020: ba2a 01b6 2271 0735 0000 0000 1c26 0eb6
00000030: 9e95 a3b6 c0dc 6736 0ce0 1029 c9a0 1135
00000040: 3b48 73b6 c2f9 1336 0000 0000 5f48 34b6
00000050: 48f5 5bb5 e2f0 4db6 0000 0000 b818 c9b3
00000060: e28d 91b5 1814 b1b5 0000 0000 d40a c1b3
00000070: aa54 0b35 4c11 5eb6 0000 0000 9b8f ddb3
00000080: 6e36 6cb5 da7a cfb5 0000 0000 3a52 14b4
00000090: 4e76 bd33 a8f1 a4b5 0000 0000 94c9 9eb3
000000a0: fae5 8b37 0372 0136 a008 77b4 baf3 1235
000000b0: 327e 30b6 9645 a3b4 5c56 6db5 3af2 8636
000000c0: f291 66b7 0000 0000 cd02 51b6 7e50 7fb7
000000d0: 506f b836 0000 0000 4295 e7b5 5644 0bb7
000000e0: eca3 beb5 0000 0000 e8ef 14b7 a665 b8b7
000000f0: 79b2 4d37 9867 f028 4051 4c34 9856 7fb7
00000100: 7a7b b836 0000 0000 cc68 3ab7 b608 3cb5
00000110: 6609 e8b6 0000 0000 301f 24b5 573b ddb5
00000120: 711c a0b5 0000 0000 7fef 13b5 367e d734
00000130: f615 04b7 0000 0000 8660 13b5 1ca5 94b5
00000140: 8de8 6ab6 0000 0000 6297 43b5 1e16 89b5
00000150: 2bfe c1b6 0000 0000 49ee 04b5 18e3 4c38
00000160: a5b7 6d36 b35e ceb5 6c15 37b5 80e5 2bb7
00000170: f1e3 d2b5 6d65 84b5 f07c afb6 dce9 1237
00000180: 0000 0000 ad23 9335 e1e3 1937 ec70 bdb6
00000190: 0000 0000 9cfa 8b34 7232 e1b5 6ca3 ae36
000001a0: 0000 0000 0ca3 a935 799b 2f37 1fe0 e8b6
000001b0: a568 8aa9 905a f334 0605 2d37 38b3 e3b6
000001c0: 0000 0000 8992 9a36 2fdf b035 180c 9735
000001d0: 0000 0000 ff42 89b3 2d51 2235 6165 0936
000001e0: 0000 0000 b404 00b3 a886 1634 b453 0936
000001f0: 0000 0000 8c76 9432 0aaf 4b35 a806 f335
00000200: 0000 0000 bcf5 92b2 c4ac d135 68b9 86b5
00000210: 0000 0000 0058 a1b0 1d14 6ab7 1b69 61b6
00000220: c1dd 1835 760d 5936 73a6 f136 0246 05b6
00000230: a8a6 5b35 6c53 66b5 3136 59b6 0000 0000
00000240: 1c55 57b5 7d53 ddb5 4a21 24b6 0000 0000
00000250: e6aa 42b5 b656 bab5 b09f 35b6 0000 0000
00000260: 5af1 96b5 793a eeb5 c7ad 1bb6 bacc 7ca8
00000270: b4e3 9ab5 88d0 74b4 ffbe 81b6 0000 0000
00000280: fe64 89b5 b6f8 9734 ee95 adb4 0000 0000
00000290: 1e31 24b3 b696 9634 0069 8ab5 0000 0000
000002a0: ea6e 42b3 dbe5 b2b3 b272 20b4 0000 0000
000002b0: 98c0 44b3 6007 ec34 0b0d 44b5 0000 0000
000002c0: 1ce8 bdb2 ae04 b834 079a 47b5 0000 0000
000002d0: 9b7d 8db3 d2e6 89b7 546d 8f34 aaa3 2db5
000002e0: 08de 0ab6 aa7f 7eb6 76f4 79b4 f8a6 a2b2
000002f0: d245 75b5 e8ad 6a38 0000 0000 7f35 2737
00000300: 540e 2538 f894 8337 0000 0000 dfd7 fe36
00000310: 8efa 6137 2c5a 2e38 0000 0000 bcad 9337
00000320: 4ea9 2d38 00be 6437 2ea7 10a7 aa41 2537
00000330: e892 0138 ce8b ca37 0000 0000 4bf0 d137
00000340: 33b9 d935 d1de 3537 0000 0000 e993 0f34
00000350: efca 8835 c617 8937 0000 0000 01f3 7934
00000360: d863 de35 0220 6837 0000 0000 48ca b334
00000370: 94f2 b435 ae63 6e37 0000 0000 bd3d 2434
00000380: 1aa3 5936 f7ef 3a37 0000 0000 3904 ca34
00000390: 768a 0438 1dca 15b7 9223 1237 4219 cf37
000003a0: 82c5 5438 1e0f 7536 64e3 3c35 7b84 fc35
000003b0: b7f6 0b37 0000 0000 3a0f 0236 dae1 5c36
000003c0: 9c9d e836 0000 0000 65b1 bc35 ae75 43b6
000003d0: b164 5c37 0000 0000 3ca5 4636 5fbb 1337
000003e0: 175f be35 a689 582a 51b1 a435 6231 f835
000003f0: 1881 0c37 0000 0000 8f73 9436 80bd 4eb3

exp_avg_sq f4 [128, 47]
9.744863e-11 1.3052235e-09 0.0 7.0894235e-11 9.737208e-10 3.63454e-10 0.0 6.2371275e-11
4.83171e-10 8.5542e-10 0.0 2.2541465e-10 1.1532706e-09 2.4482785e-10 7.834315e-17 8.0090753e-11
6.2109784e-10 6.9888856e-10 0.0 2.572044e-10 5.96988e-11 2.9744637e-10 0.0 5.8852527e-13
5.69628e-11 2.9610392e-10 0.0 5.959041e-13 5.9938235e-11 2.9522298e-10 0.0 5.843519e-13
5.588007e-11 2.8816322e-10 0.0 5.839899e-13 6.234125e-11 2.8684463e-10 0.0 5.7775177e-13
4.4327293e-09 5.1285278e-11 3.453232e-11 2.0860563e-10 1.222174e-09 5.983561e-11 5.0097947e-12 5.478129e-10
1.4288989e-08 0.0 8.6210195e-10 1.0611197e-08 3.4277494e-09 0.0 7.381004e-10 6.8855743e-09
7.231431e-09 0.0 2.6326388e-09 1.3000914e-08 1.9626332e-09 3.8966683e-15 9.452031e-10 9.813687e-09
4.442594e-09 0.0 3.219787e-09 1.2885595e-10 2.6688682e-09 0.0 4.1825293e-12 1.0650339e-10
2.6907272e-09 0.0 4.2501545e-12 1.4310556e-10 2.5629439e-09 0.0 4.140284e-12 9.489252e-11
2.6987665e-09 0.0 4.1880848e-12 1.7311177e-10 2.5263633e-09 0.0 4.1443017e-12 3.3743596e-08
4.5925405e-10 3.6774606e-10 2.4179683e-09 1.3172195e-08 5.7554306e-10 4.7924047e-11 2.7444105e-10 2.3565414e-09
0.0 1.0593832e-10 8.9544505e-10 1.5470333e-09 0.0 9.435155e-11 9.829453e-10 1.5472613e-09
0.0 2.7295124e-10 1.8195319e-09 7.3368495e-10 4.1178188e-14 2.0336036e-10 1.1281497e-09 1.3400855e-09
0.0 4.0328488e-10 8.85471e-11 7.367181e-10 0.0 1.7378723e-12 8.639656e-11 7.7602835e-10
0.0 1.7551196e-12 8.956169e-11 6.9687234e-10 0.0 1.7229317e-12 8.4078244e-11 7.893169e-10
0.0 1.728418e-12 9.127209e-11 6.719106e-10 0.0 1.7089371e-12 3.330462e-08 1.1023206e-10
6.455218e-11 2.9688224e-10 1.9982198e-09 1.9504767e-10 1.9568566e-11 5.6075315e-11 7.098759e-10 0.0
4.580082e-11 5.209374e-10 1.9646172e-10 0.0 3.943648e-11 3.561376e-10 3.751277e-10 0.0
1.267143e-10 5.595806e-10 1.8913679e-10 2.1865768e-16 4.5095823e-11 4.520716e-10 2.783303e-10 0.0
1.4694115e-10 2.1171042e-11 5.8101485e-11 0.0 2.3692105e-13 2.0043333e-11 5.850562e-11 0.0
2.4259192e-13 2.1373481e-11 5.4353345e-11 0.0 2.3338555e-13 1.9500936e-11 5.855033e-11 0.0
2.4289932e-13 2.235829e-11 5.242672e-11 0.0 2.2953463e-13 3.0070437e-09 2.3726852e-11 1.8916679e-11
1.0193308e-10 6.7109135e-10 2.9496794e-11 2.7356774e-12 8.944836e-10 1.3633045e-08 0.0 6.1718947e-10
6.6561374e-09 7.156323e-09 0.0 5.6887667e-10 5.165384e-09 8.998359e-09 0.0 1.692725e-09
1.0296424e-08 3.5732979e-09 1.2438808e-13 9.885017e-10 7.4613355e-09 6.432073e-09 0.0 2.5682785e-09
5.8317684e-10 3.7249162e-09 0.0 8.098424e-12 5.6404215e-10 3.8693764e-09 0.0 8.1726275e-12
6.0780136e-10 3.576498e-09 0.0 8.109687e-12 5.344733e-10 3.9640766e-09 0.0 8.0472495e-12
6.2574423e-10 3.4928038e-09 0.0 8.008749e-12 1.1086763e-07 5.464527e-10 3.623892e-10 1.882333e-09
1.2051013e-08 7.365771e-10 8.177955e-11 8.638728e-11 2.5143665e-09 0.0 9.3783085e-11 1.3246458e-09
1.1806878e-09 0.0 8.2997574e-11 5.4499755e-10 2.0186155e-09 0.0 2.7652194e-10 2.2365803e-09
2.9404282e-10 2.1718713e-14 1.7009211e-10 1.5679907e-09 9.749438e-10 0.0 5.540458e-10 4.377526e-11
00000000: b44a d62e 7863 b330 0000 0000 e8e5 9b2e
00000010: c1d3 8530 9acf c72f 0000 0000 e827 892e
00000020: 23d0 0430 d522 6b30 0000 0000 95d8 772f
00000030: 1a81 9e30 7598 862f a2a5 b424 161f b02e
00000040: e0b9 2a30 e91b 4030 0000 0000 4d66 8d2f
00000050: 7047 832e db85 a32f 0000 0000 b7a7 252b
00000060: 6986 7a2e ecc8 a22f 0000 0000 6abb 272b
00000070: 3ace 832e f14c a22f 0000 0000 fe7a 242b
00000080: 5ec3 752e 5e6b 9e2f 0000 0000 e860 242b
00000090: 0117 892e cbb1 9d2f 0000 0000 679f 222b
000000a0: b34e 9831 178e 612e f0df 172e 445d 652f
000000b0: 6df9 a730 7494 832e 3844 b02c e894 1630
000000c0: a37b 7532 0000 0000 08f9 6c30 8a4c 3632
000000d0: 9b8d 6b31 0000 0000 33e3 4a30 2796 ec31
000000e0: 5778 f831 0000 0000 dfe9 3431 a05a 5f32
000000f0: 02df 0631 6c64 8c27 61e8 8130 0d99 2832
00000100: 78a5 9831 0000 0000 1843 5d31 baad 0d2f
00000110: 3a67 3731 0000 0000 e028 932c 1434 ea2e
00000120: c6e7 3831 0000 0000 fd89 952c a258 1d2f
00000130: c91f 3031 0000 0000 5dac 912c bdab d02e
00000140: 3475 3931 0000 0000 ea5a 932c a256 3e2f
00000150: 419c 2d31 0000 0000 8dd0 912c 7aed 1033
00000160: 437a fc2f a82b ca2f 5929 2631 ed4b 6232
00000170: 3e34 1e30 aec5 522e 25e0 962f b7f0 2131
00000180: 0000 0000 f9f5 e82e 5823 7630 659f d430
00000190: 0000 0000 337b cf2e 5018 8730 6ba7 d430
000001a0: 0000 0000 790e 962f 1613 fa30 7dac 4930
000001b0: 3873 3929 da98 5f2f 3d0d 9b30 112e b830
000001c0: 0000 0000 4db5 dd2f 96b7 c22e ed81 4a30
000001d0: 0000 0000 7395 f42b f0fc bd2e 2450 5530
000001e0: 0000 0000 d902 f72b c0f2 c42e 088e 3f30
000001f0: 0000 0000 287b f22b d8e3 b82e 3df7 5830
00000200: 0000 0000 d240 f32b 9eb5 c82e 81b1 3830
00000210: 0000 0000 f382 f02b d10a 0f33 2267 f22e
00000220: a6f3 8d2e 7636 a32f 0e51 0931 0a75 562f
00000230: 7e20 ac2d 319f 762e 1321 4330 0000 0000
00000240: 246f 492e b631 0f30 0f03 582f 0000 0000
00000250: 8771 2d2e e9c9 c32f 883a ce2f 0000 0000
00000260: e852 0b2f fcd0 1930 46f5 4f2f 5b18 7c25
00000270: 6255 462e 6c87 f82f 8203 992f 0000 0000
00000280: 4290 212f f338 ba2d 7588 7f2e 0000 0000
00000290: ec5f 852a 934d b02d bca7 802e 0000 0000
000002a0: 2e91 882a cd00 bc2d 6d0c 6f2e 0000 0000
000002b0: 6762 832a 3488 ab2d e8c0 802e 0000 0000
000002c0: 7bbd 882a 65aa c42d 3d93 662e 0000 0000
000002d0: 6d37 812a 79a4 4e31 1fb4 d02d 9364 a62d
000002e0: 3927 e02e db77 3830 70ba 012e 9581 402c
000002f0: b0df 7530 c436 6a32 0000 0000 d9a6 2930
00000300: 01b4 e431 afe3 f531 0000 0000 235f 1c30
00000310: 337b b131 3497 1a32 0000 0000 77a5 e830
00000320: 27e4 3032 1f8e 7531 6c0c 0c2a d0db 8730
00000330: 4d2f 0032 1d01 dd31 0000 0000 a27d 3031
00000340: 6c4d 2030 6bf9 7f31 0000 0000 0f78 0e2d
00000350: f00a 1b30 65f3 8431 0000 0000 3ec6 0f2d
00000360: 3812 2730 6bc6 7531 0000 0000 c9aa 0e2d
00000370: 37ea 1230 6334 8831 0000 0000 9791 0d2d
00000380: d600 2c30 0e06 7031 0000 0000 33e4 0c2d
00000390: 2016 ee33 3135 1630 bf39 c72f 5a5a 0131
000003a0: ea08 4f32 0178 4a30 cbd5 b32e b7f7 bd2e
000003b0: 34c9 2c31 0000 0000 2f3b ce2e d50e b630
000003c0: c245 a230 0000 0000 7b83 b62e cbce 1530
000003d0: dcb7 0a31 0000 0000 0105 982f 56b2 1931
000003e0: d9a6 a12f f19f c328 ac04 3b2f c580 d730
000003f0: c9fe 8530 0000 0000 824b 1830 9086 402e

exp_avg f4 [128]
-1.420178e-06 -9.72135e-06 3.5267776e-06 -4.0947375e-06 5.5038192e-05 1.022389e-05 1.738473e-05 -1.01600845e-05
-6.998828e-06 1.1409442e-05 -9.0847125e-06 1.6917915e-05 -2.1692606e-05 8.3052055e-06 8.826282e-07 -5.8294013e-06
-6.139498e-05 7.9094425e-06 -1.5266523e-05 4.0169198e-08 -2.3519053e-05 2.2065674e-06 3.1767882e-05 3.0864644e-06
-4.5115074e-05 2.0511841e-05 1.5722437e-05 1.7309358e-06 9.883011e-06 -4.837517e-06 9.25482e-06 -2.00249e-05
1.0935726e-05 7.880758e-06 -1.0456847e-06 -1.0404564e-05 1.3335632e-05 -7.891411e-06 -5.2102885e-05 5.542337e-06
-1.4402261e-05 -8.537089e-06 8.486873e-06 -3.370344e-05 9.678366e-06 -3.4151878e-06 4.2429117e-05 -3.867626e-05
1.2266668e-05 1.006241e-05 3.7965627e-05 -4.639037e-05 -9.046937e-06 -6.9966304e-06 2.5381091e-06 -1.520835e-05
5.477002e-06 3.0107387e-06 2.2604067e-05 1.26841915e-05 3.447376e-06 2.5006742e-05 3.8279377e-05 1.6899052e-05
1.8127885e-05 3.8921768e-05 1.9121133e-05 -3.5476514e-06 1.0829472e-05 1.6452275e-05 4.384556e-05 1.1940552e-05
7.014688e-06 3.1117543e-05 -1.5864262e-05 1.0986455e-05 -4.506438e-06 1.1178686e-05 9.87314e-06 -5.8103997e-05
-1.1997816e-05 1.523362e-05 -2.5504346e-07 3.8202e-05 1.7639673e-05 2.5608501e-06 2.9746878e-05 1.17186155e-05
3.6042447e-06 -2.2152262e-05 1.2391404e-05 -9.625832e-06 7.2988814e-06 1.703919e-05 -1.8749257e-05 1.8281447e-05
5.39105e-06 -3.630959e-05 -1.1214129e-05 1.6031156e-05 2.574801e-05 -1.1606009e-05 5.7500747e-06 -1.0843067e-05
4.960377e-05 2.214522e-05 1.6451406e-05 6.376099e-07 -1.8498447e-05 -1.2668449e-05 1.4761564e-05 3.7915248e-05
-4.5829192e-06 2.0400621e-05 1.1587327e-05 2.533165e-05 9.235265e-06 3.9900988e-05 -2.6143372e-05 -6.452601e-07
-5.8800388e-06 8.209405e-06 8.842461e-07 2.2576829e-05 -7.848656e-06 1.7305247e-05 -1.1408855e-05 -9.648227e-06
00000000: f29c beb5 e118 23b7 94ad 6c36 8765 89b6
00000010: cfd8 6638 4687 2b37 6cd5 9137 3b75 2ab7
00000020: 7ad7 eab6 2e6b 3f37 8b6a 18b7 f2ea 8d37
00000030: 84f8 b5b7 9656 0b37 c0ed 6c35 2d9a c3b6
00000040: 2ec1 80b8 ccb2 0437 9c10 80b7 8086 2c33
00000050: c84a c5b7 8a14 1436 813e 0538 0e21 4f36
00000060: f139 3db8 d810 ac37 ade3 8337 8052 e835
00000070: 36cf 2537 f451 a2b6 2645 1b37 25fb a7b7
00000080: 9678 3737 9937 0437 7459 8cb5 438f 2eb7
00000090: 1abc 5f37 5a65 04b7 0c89 5ab8 50f8 b936
000000a0: 3da1 71b7 853a 0fb7 d862 0e37 cb5c 0db8
000000b0: 4460 2237 7b30 65b6 ebf5 3138 5138 22b8
000000c0: f0cc 4d37 b9d1 2837 483d 1f38 4893 42b8
000000d0: 4cc8 17b7 99c4 eab6 6254 2a36 5e27 7fb7
000000e0: 17c7 b736 190c 4a36 dd9d bd37 30ce 5437
000000f0: 7859 6736 92c5 d137 2b8e 2038 70c2 8d37
00000100: 5611 9837 ee3f 2338 5266 a037 3014 6eb6
00000110: 3ab0 3537 fe02 8a37 d0e6 3738 4854 4837
00000120: b65f eb36 3584 0238 3e14 85b7 7752 3837
00000130: 0236 97b6 178c 3b37 d0a4 2537 b1b4 73b8
00000140: 3a4a 49b7 e693 7f37 e8ec 88b4 163b 2038
00000150: e9f8 9337 12db 2b36 ef88 f937 129b 4437
00000160: 74e0 7136 9fd3 b9b7 ade4 4f37 a27e 21b7
00000170: eae8 f436 62ef 8e37 b947 9db7 1c5b 9937
00000180: c4e4 b436 204b 18b8 5124 3cb7 a57a 8637
00000190: 6efd d737 6eb7 42b7 c4f0 c036 9eea 35b7
000001a0: a40d 5038 7fc4 b937 2001 8a37 3828 2b35
000001b0: 1d2d 9bb7 938a 54b7 6fa8 7737 3007 1f38
000001c0: fac6 99b6 0022 ab37 3167 4237 4e7f d437
000001d0: 29f1 1a37 5c5b 2738 774e dbb7 f035 2db5
000001e0: 264d c5b6 20bb 0937 ee5c 6d35 5f63 bd37
000001f0: b9ad 03b7 bc2a 9137 a968 3fb7 d2de 21b7

exp_avg_sq f4 [128]
1.3846108e-09 1.4775197e-08 2.5945002e-09 7.608668e-10 1.4557777e-08 2.5937335e-09 2.348266e-09 1.300868e-09
1.8828496e-10 3.302215e-09 3.8770853e-09 1.2398701e-08 2.5896703e-09 1.4128336e-08 2.8528715e-09 1.5452569e-09
1.4748287e-08 5.543905e-09 1.368764e-08 1.5411656e-09 7.281728e-09 1.385393e-10 9.6669e-09 1.9233397e-09
1.0786338e-08 9.718934e-09 6.5063688e-09 3.0317013e-09 4.033347e-09 4.698316e-09 6.20556e-10 3.0139962e-09
3.2632408e-09 6.1523546e-09 1.3305237e-10 2.7063656e-08 1.5799873e-09 3.503569e-10 1.2571076e-08 2.3804014e-09
9.486675e-10 1.6668185e-09 9.33633e-09 6.558204e-09 4.025477e-09 1.0892337e-08 8.891483e-09 9.86874e-09
1.1481031e-08 1.5010307e-09 1.25026e-08 2.7725463e-08 3.680767e-09 2.708179e-09 3.4923486e-09 3.4520746e-09
6.2132024e-09 5.4901766e-10 1.2939858e-08 2.5157205e-09 6.1731327e-09 5.900694e-09 1.210947e-08 8.18483e-09
1.7350015e-08 1.3194892e-08 7.510893e-09 1.8351021e-10 2.7718088e-09 1.8407041e-09 1.1809252e-08 5.0683457e-09
1.8726856e-09 8.033955e-09 5.6403486e-09 3.7829837e-09 4.6906954e-09 2.4579068e-09 3.79427e-10 2.4800098e-08
2.067573e-09 9.482054e-09 1.9354551e-09 9.855315e-09 1.8475278e-09 3.954719e-09 3.55144e-09 1.232158e-09
4.7966653e-10 8.264529e-09 1.5738507e-08 1.9277508e-09 3.3240375e-09 8.9745855e-10 4.1027937e-09 8.858761e-09
3.4033751e-09 7.96761e-09 4.094879e-09 4.38039e-09 7.0681114e-09 3.4385856e-09 8.0234275e-10 1.7818723e-09
1.1223706e-08 3.4324508e-09 2.79436e-09 2.8390728e-09 4.690911e-09 2.7565829e-08 1.3062126e-09 5.82809e-09
2.5709737e-09 3.1741454e-09 2.062531e-09 6.132351e-09 1.4452644e-08 1.0607311e-08 4.198513e-09 2.9255318e-10
1.2233899e-08 6.26296e-09 3.4125442e-09 7.84788e-09 7.096324e-10 1.4634604e-09 4.670052e-10 3.6761931e-09
00000000: a94c be30 01d6 7d32 ee4a 3231 3e25 5130
00000010: c819 7a32 713d 3231 225f 2131 39ca b230
00000020: 8105 4f2f 2eed 6231 3437 8531 1002 5532
00000030: f6f5 3131 14b9 7232 3f0c 4431 e560 d430
00000040: a75f 7d32 b47c be31 e126 6b32 f2d0 d330
00000050: c232 fa31 5953 182f 7a13 2632 c02b 0431
00000060: d14e 3932 53f8 2632 a08e df31 4156 5031
00000070: b295 8a31 d36e a131 bf93 2a30 c81e 4f31
00000080: 8a3f 6031 af64 d331 ea4a 122f 9c79 e832
00000090: dc26 d930 5a9c c02f 2df8 5732 7794 2331
000000a0: 4562 8230 f615 e530 9d65 2032 9356 e131
000000b0: 7850 8a31 0121 3b32 28c1 1832 2d8b 2932
000000c0: 1c3e 4532 d34c ce30 04cb 5632 f028 ee32
000000d0: bdf0 7c31 ca1a 3a31 0cfe 6f31 8a39 6d31
000000e0: e87b d531 afe9 1630 194e 5e32 06e1 2c31
000000f0: 731b d431 0ebf ca31 030a 5032 439d 0c32
00000100: 1609 9532 c0af 6232 4209 0132 88c5 492f
00000110: 2d7a 3e31 05fc fc30 a4e1 4a32 a425 ae31
00000120: a2b0 0031 b505 0a32 08cd c131 7afb 8131
00000130: cb2b a131 f4e7 2831 9a97 d02f fe07 d532
00000140: 2115 0e31 84e6 2232 e300 0531 2250 2932
00000150: 1bec fd30 14e2 8731 980d 7431 b558 a930
00000160: 88d9 0330 c8fb 0d32 5831 8732 5a79 0431
00000170: 166d 6431 08b1 7630 8ef8 8c31 3e31 1832
00000180: cfe0 6931 ebe1 0832 f0b2 8c31 5182 9631
00000190: c4db f231 3d4c 6c31 da8b 5c30 0fe6 f430
000001a0: 62d2 4032 50e0 6b31 e706 4031 7f19 4331
000001b0: b12d a131 e6c9 ec32 4586 b330 6c40 c831
000001c0: 0cad 3031 2820 5a31 6ebc 0d31 bbb4 d231
000001d0: 674b 7832 723b 3632 8342 9031 33d5 a02f
000001e0: 422d 5232 9431 d731 1d82 6a31 57d3 0632
000001f0: f10f 4330 ef22 c930 925e 0030 46a0 7c31
