results/PruebaLarga/AgenteCoche/AgenteCoche-499983.onnx (onnx, 92171 bytes, 7 tensors)

action_model._continuous_distribution.log_sigma f4 [1, 2]
000000 00 00 00 00 00 00 00 00
       0.0 0.0

action_model._continuous_distribution.mu.bias f4 [2]
000000 00 00 00 00 00 00 00 00
       0.0 0.0

action_model._continuous_distribution.mu.weight f4 [2, 128]
000000 dd cb 94 3c af 07 82 3b 0b 3c 19 ba 1f ac 99 3c
       0.018163616 0.003968201 -0.0005845434 0.018758832
000010 7a f6 fa 3a 52 15 ff bc 80 d8 6f bb 70 e9 9a 3c
       0.0019146942 -0.031138096 -0.003659755 0.01891014
000020 d9 2d ca 3c cf 4d bb 3b 7d 5a c0 3b bd a2 84 3b
       0.024680065 0.0057160626 0.005870162 0.00404772
000030 86 a6 15 bc c7 90 6c bc 7b 33 9f 3c 2f a6 d5 3c
       -0.009133941 -0.0144388145 0.019433727 0.02608022
000040 32 ed 49 bd 62 56 44 bc f0 29 79 bb 17 f4 98 bc
       -0.049298473 -0.011983486 -0.0038019381 -0.018671079
000050 92 b6 7e bb 64 3b 93 bb b0 f6 ca ba 17 c5 43 3c
       -0.0038866145 -0.004493164 -0.0015484896 0.011948845
000060 ff 28 8b 3b 52 69 87 3c b1 2a 94 bc 16 20 89 bc
       0.0042468305 0.016529713 -0.018086763 -0.016738933
000070 95 15 83 bb 27 36 d1 3c a6 e8 29 3d 56 97 c0 bb
       -0.0040003755 0.025538517 0.041481636 -0.0058774156
000080 ca 4c 34 bc 84 be 2f 3d cb bb a1 3c 8a 28 2d 3c
       -0.011004636 0.0429063 0.019742867 0.010568747
000090 fa 7c 13 bb f3 c5 59 bc 9f ba 86 bc 77 14 7c 3c
       -0.0022504912 -0.013291824 -0.01644641 0.015385739
0000a0 4e 4b ba bb dd e2 c0 bc e7 33 d9 3b 33 2b b4 bc
       -0.0056852465 -0.023545677 0.0066285017 -0.021993255
0000b0 4e 88 9c bc fb a4 89 3c 45 47 23 bc 6a 22 4b bc
       -0.019107964 0.016802302 -0.009965722 -0.012398342
0000c0 1b dd f6 ba 74 36 12 bc d2 8b 61 3c 8b f0 81 3b
       -0.0018834205 -0.008924115 0.013766246 0.0039654425
0000d0 91 8d 07 bd b7 fa a7 bb 2f 17 c9 3c 73 c5 94 bc
       -0.033093993 -0.005126323 0.024547188 -0.018160557
0000e0 6f 66 32 3a ea 62 1c 3d e5 2f 22 3c e5 05 73 3c
       0.0006805425 0.03818027 0.009899114 0.014832948
0000f0 69 b3 a2 bc 6a 91 67 bb 0f c0 90 bb ea 0a 53 3c
       -0.01986094 -0.0035334476 -0.0044174264 0.01288102
000100 7e 8c 93 bc 24 2e 93 bc 42 aa 64 bc ef 00 22 3c
       -0.018011328 -0.017966338 -0.013956608 0.009887918
000110 df 80 a8 3c 01 8e 1a bc 33 06 62 3c 4b c5 6a bc
       0.020569263 -0.00943327 0.013795423 -0.014329265
000120 df 3b 8a 3b b2 15 75 bb 8e 4c 8e bc 69 d7 33 3c
       0.004218563 -0.0037396965 -0.017370488 0.010976651
000130 37 5f a0 3c 0b 4e c1 3c db 5f 91 3b 7d 90 1b bb
       0.019576652 0.023596784 0.0044364757 -0.0023737245
000140 64 1d ac 3b 7a 06 b0 bb c2 f0 83 3b c3 e3 e3 3b
       0.005252527 -0.005371866 0.0040265033 0.0069546415
000150 82 83 36 3c 97 8e fc 3b aa 06 77 bb ca d3 1f 3a
       0.011139752 0.0077074277 -0.003769318 0.00060969277
000160 73 01 a8 bc 47 57 35 bd cf 88 1e bc cb 0e a4 3c
       -0.020508504 -0.044272687 -0.009676172 0.020026585
000170 ee 34 4a 3b da d2 7b bc 90 44 60 bc 05 df 99 3a
       0.0030854302 -0.015370095 -0.013688222 0.0011739439
000180 07 1b 56 3c b2 13 5d bc 6f f6 a9 3b 4c 9f 8d bc
       0.013067967 -0.013493465 0.005186848 -0.017287873
000190 23 4a 05 3a 76 39 0b bc 7b b0 b0 bb 3b bf 89 3a
       0.00050845946 -0.0084975865 -0.005392132 0.0010509262
0001a0 ba a2 e9 3c bf 5b 94 bc a1 cf 2a 39 91 1a 19 3d
       0.028519977 -0.018110154 0.00016289811 0.03737885
0001b0 59 ac c0 ba af f2 85 3c 1f 30 8a bc c3 db 36 3c
       -0.0014699801 0.016351072 -0.016868649 0.011160794
0001c0 3d 76 0a bc 58 3f 20 3c 02 fe 1b 3b d8 87 a3 bc
       -0.008451042 0.009780727 0.0023802524 -0.019962236
0001d0 3b 9e a9 bc 15 64 ca bc b7 7f 04 bb cd b6 d7 bb
       -0.020705333 -0.024705926 -0.0020217726 -0.006583071
0001e0 29 66 2b bc 67 72 07 3c 05 7b d2 3b 4e cd c5 bc
       -0.010461369 0.008267022 0.0064233565 -0.024145748
0001f0 0f 52 2e bc 55 6b fc bc 8b f7 f2 3b 77 66 2c bd
       -0.0106396815 -0.030812899 0.0074147633 -0.042089906
000200 fd ae 55 bc 5f f6 11 bc c2 e8 c6 3b 5f 7f 01 bd
       -0.013042209 -0.008908837 0.0060702274 -0.03161561
000210 20 02 bb 3b 8b b3 fe bb 55 6e e7 bc 75 a9 d4 3c
       0.0057070404 -0.007772868 -0.028250853 0.02595971
000220 d3 e9 02 bc cf 82 8e bb ef c1 c2 3b 3d af 54 3c
       -0.007990318 -0.0043490897 0.005943529 0.012981233
000230 58 1e 03 3c 35 76 67 3b da 31 3f bc a5 a7 fc 3c
       0.00800284 0.003531826 -0.0116696 0.030841658
000240 af ac 50 bc fb 65 27 bc 05 37 cf 3c 37 56 a3 bb
       -0.0127364835 -0.010217185 0.02529479 -0.004984643
000250 5b 1e dd bb ea f6 6d 3c 85 03 13 bc e1 7c 40 bc
       -0.0067480034 0.014524201 -0.008973007 -0.011748523
000260 72 69 43 3c 7b 9a a4 3c 52 1f c6 bc 23 27 24 bc
       0.011926996 0.020093193 -0.024184857 -0.010019097
000270 3c 63 14 3b 77 12 32 bc 73 68 ac 3b e9 4d a5 3c
       0.0022642156 -0.01086866 0.0052614748 0.020178752
000280 21 63 c0 bb 01 b8 a8 3b 45 8c 5d bc 6c ca 0f 3b
       -0.005871192 0.005148888 -0.013522212 0.0021940721
000290 00 a9 44 bb b7 8a 46 bc 95 7d 07 3c a0 e3 c6 ba
       -0.0030007958 -0.012118033 0.008269687 -0.0015174039
0002a0 fc 95 81 3c d7 20 ae 3c df 33 d4 bb 00 07 31 bc
       0.015818588 0.021255894 -0.00647591 -0.010804892
0002b0 61 2f 02 bb 88 00 70 3c 80 54 c2 bc 3d 8d 70 bc
       -0.0019864666 0.014648564 -0.023721933 -0.014682111
0002c0 3f c2 0c ba fd f9 f4 3c fe d4 22 bc 33 b3 03 bc
       -0.0005369521 0.02990436 -0.009938477 -0.00803833
0002d0 38 07 e9 bc 3b 84 bc 3a 35 0b 41 3b 58 f0 47 3d
       -0.028445825 0.001438267 0.0029456143 0.048813194
0002e0 d4 8f 17 bc cf 85 6c 3b 72 8d 87 bb 1b 93 a6 bc
       -0.0092506 0.0036090498 -0.0041367346 -0.020333817
0002f0 af c2 2f bb a9 de 07 bb f3 9d 3e 3c e7 b0 35 bb
       -0.0026818921 -0.002073208 0.011634338 -0.002772385
000300 49 84 93 bc 10 88 d5 3b 83 ad 3c bc 8a 1a ee bb
       -0.018007414 0.006516464 -0.011515978 -0.0072663473
000310 c0 7c fa 3c ca 35 97 bc 49 f9 48 bc 5f 1d 7a 3c
       0.030577064 -0.018458266 -0.012266465 0.015265792
000320 5f b3 00 bd 78 ee e3 bc af ce 9f bc 50 42 e3 3c
       -0.03142106 -0.027823672 -0.019507734 0.027741581
000330 6e e8 8b ba df a3 ff bb bb 05 ee 3c 87 8f 27 3c
       -0.0010674128 -0.0078015174 0.029055467 0.010227091
000340 1f df 57 bc 0a a4 88 bc 1a 14 f7 3c 83 3e 44 38
       -0.013175755 -0.016679782 0.030160952 4.678826e-05
000350 ba c8 2e 3c 82 8c a5 3a 14 c2 2a 3c c0 67 15 bc
       0.010667974 0.0012630376 0.010422248 -0.009118974
000360 1a cd f8 3b 8f c0 7d b9 eb b2 3a bc 1f 14 9d ba
       0.0075928094 -0.00024199694 -0.011395196 -0.0011984146
000370 bc 9e be 3b ff 43 da 3a 7e d0 30 bd ff db 64 bc
       0.0058172625 0.0016652344 -0.043167584 -0.013968467
000380 00 9d eb bc e8 05 8d 3c 23 76 12 bc ab 80 36 3d
       -0.028761387 0.01721473 -0.008939299 0.0445563
000390 7e 86 16 bd 94 df 33 ba 21 f2 07 3c 4b d7 d4 3c
       -0.036749355 -0.0006861624 0.008297474 0.025981566
0003a0 87 3d b9 3c 5b 24 e9 b9 f0 14 c0 bb 8f 5e 97 bb
       0.022612346 -0.0004446831 -0.005861871 -0.0046194266
0003b0 93 4c 53 bc 73 02 04 bc 12 74 de 3b 03 9a 6a 3c
       -0.012896675 -0.008057225 0.006788739 0.014318946
0003c0 68 7a f1 3a 3f a8 6f bc 5e 9d a4 3c 5b 24 01 3b
       0.0018423321 -0.014627515 0.02009457 0.0019705507
0003d0 3e d8 9d 3b 10 51 7a 3b 6c 70 33 bc 82 34 d7 3b
       0.004817038 0.003819529 -0.010952096 0.0065675387
0003e0 81 cb bb 3c 33 09 ad 3b 52 14 72 3c e0 ee ef bb
       0.022924187 0.0052806376 0.014775353 -0.0073221773
0003f0 b0 f3 85 bc fd 81 4b ba 9a c2 9f bc e0 cc 7a bc
       -0.01635155 -0.0007763205 -0.019501973 -0.015307635

network_body._body_endoder.seq_layers.0.bias f4 [128]
000000 00 00 00 00 00 00 00 00 00 00 00 00 00 00 00 00
       0.0 0.0 0.0 0.0
000010 00 00 00 00 00 00 00 00 00 00 00 00 00 00 00 00
       0.0 0.0 0.0 0.0
000020 00 00 00 00 00 00 00 00 00 00 00 00 00 00 00 00
       0.0 0.0 0.0 0.0
000030 00 00 00 00 00 00 00 00 00 00 00 00 00 00 00 00
       0.0 0.0 0.0 0.0
000040 00 00 00 00 00 00 00 00 00 00 00 00 00 00 00 00
       0.0 0.0 0.0 0.0
000050 00 00 00 00 00 00 00 00 00 00 00 00 00 00 00 00
       0.0 0.0 0.0 0.0
000060 00 00 00 00 00 00 00 00 00 00 00 00 00 00 00 00
       0.0 0.0 0.0 0.0
000070 00 00 00 00 00 00 00 00 00 00 00 00 00 00 00 00
       0.0 0.0 0.0 0.0
000080 00 00 00 00 00 00 00 00 00 00 00 00 00 00 00 00
       0.0 0.0 0.0 0.0
000090 00 00 00 00 00 00 00 00 00 00 00 00 00 00 00 00
       0.0 0.0 0.0 0.0
0000a0 00 00 00 00 00 00 00 00 00 00 00 00 00 00 00 00
       0.0 0.0 0.0 0.0
0000b0 00 00 00 00 00 00 00 00 00 00 00 00 00 00 00 00
       0.0 0.0 0.0 0.0
0000c0 00 00 00 00 00 00 00 00 00 00 00 00 00 00 00 00
       0.0 0.0 0.0 0.0
0000d0 00 00 00 00 00 00 00 00 00 00 00 00 00 00 00 00
       0.0 0.0 0.0 0.0
0000e0 00 00 00 00 00 00 00 00 00 00 00 00 00 00 00 00
       0.0 0.0 0.0 0.0
0000f0 00 00 00 00 00 00 00 00 00 00 00 00 00 00 00 00
       0.0 0.0 0.0 0.0
000100 00 00 00 00 00 00 00 00 00 00 00 00 00 00 00 00
       0.0 0.0 0.0 0.0
000110 00 00 00 00 00 00 00 00 00 00 00 00 00 00 00 00
       0.0 0.0 0.0 0.0
000120 00 00 00 00 00 00 00 00 00 00 00 00 00 00 00 00
       0.0 0.0 0.0 0.0
000130 00 00 00 00 00 00 00 00 00 00 00 00 00 00 00 00
       0.0 0.0 0.0 0.0
000140 00 00 00 00 00 00 00 00 00 00 00 00 00 00 00 00
       0.0 0.0 0.0 0.0
000150 00 00 00 00 00 00 00 00 00 00 00 00 00 00 00 00
       0.0 0.0 0.0 0.0
000160 00 00 00 00 00 00 00 00 00 00 00 00 00 00 00 00
       0.0 0.0 0.0 0.0
000170 00 00 00 00 00 00 00 00 00 00 00 00 00 00 00 00
       0.0 0.0 0.0 0.0
000180 00 00 00 00 00 00 00 00 00 00 00 00 00 00 00 00
       0.0 0.0 0.0 0.0
000190 00 00 00 00 00 00 00 00 00 00 00 00 00 00 00 00
       0.0 0.0 0.0 0.0
0001a0 00 00 00 00 00 00 00 00 00 00 00 00 00 00 00 00
       0.0 0.0 0.0 0.0
0001b0 00 00 00 00 00 00 00 00 00 00 00 00 00 00 00 00
       0.0 0.0 0.0 0.0
0001c0 00 00 00 00 00 00 00 00 00 00 00 00 00 00 00 00
       0.0 0.0 0.0 0.0
0001d0 00 00 00 00 00 00 00 00 00 00 00 00 00 00 00 00
       0.0 0.0 0.0 0.0
0001e0 00 00 00 00 00 00 00 00 00 00 00 00 00 00 00 00
       0.0 0.0 0.0 0.0
0001f0 00 00 00 00 00 00 00 00 00 00 00 00 00 00 00 00
       0.0 0.0 0.0 0.0

network_body._body_endoder.seq_layers.0.weight f4 [128, 44]
000000 c4 49 9a 3d 9b a5 e7 3d af 70 a8 be 41 bc 57 3c
       0.07533601 0.113108836 -0.3289847 0.013167442
000010 74 83 7b 3e fe de 43 be b5 19 c2 3d 1e fb a4 3d
       0.24561864 -0.19128034 0.094775595 0.08055709
000020 03 39 31 3e c6 bf b9 bd b4 fb 38 bb 70 62 a3 3e
       0.17306904 -0.09069781 -0.0028226199 0.3191104
000030 9e 1e 6b 3e 0d 8f c4 3d 73 3a 8f 3d f3 46 1a 3d
       0.22960898 0.09597597 0.0699357 0.03766532
000040 58 aa 13 3e 89 bf 67 be 9d 65 e9 3d a2 2c 48 be
       0.1442045 -0.22631659 0.11396334 -0.19548276
000050 b9 c2 30 be b1 4e a7 bc 54 bf 26 3e fb 0f 18 3e
       -0.17261781 -0.020423265 0.16283923 0.14849846
000060 ed ea d5 bd b3 19 a2 be 04 30 76 3d 27 7c 0a be
       -0.10445199 -0.31660232 0.060104385 -0.13523923
000070 81 16 07 be 76 a1 b5 3e ae 30 95 3d 63 b8 36 be
       -0.13192178 0.35474747 0.072846755 -0.17843775
000080 58 bf 82 3e 8c a3 f6 3d 02 8d a2 bd 34 c0 10 bc
       0.2553661 0.12042913 -0.07937051 -0.008834887
000090 2e c6 5d be 06 d6 1c be 80 5f 6e bd ab da 3f 3d
       -0.21657631 -0.15316018 -0.058196545 0.046839397
0000a0 e8 61 8d bd 8d ad 70 3e 78 85 26 3d 2e e9 98 3e
       -0.0690344 0.23503704 0.04065463 0.29865402
0000b0 67 42 cf 3d f3 11 4b 3e 61 39 e6 3d 18 4c 22 3e
       0.10120087 0.19831066 0.11241413 0.1584934
0000c0 3f 61 4d 3e 23 2c 40 bc 47 fc 9b 3e 91 e1 04 bd
       0.20056628 -0.011729273 0.3046591 -0.03244168
0000d0 ec 90 84 3d 51 c7 1a 3e 5c 19 d9 bc 7e 4f 66 3e
       0.06472954 0.15115096 -0.02650135 0.22491261
0000e0 3b 40 3c be b2 19 00 bd 16 f7 d9 3b 27 ec 06 3e
       -0.18383877 -0.031274505 0.0066517694 0.13176022
0000f0 70 b6 46 be f3 0a 33 3c bb b0 a4 3d 94 3a 20 bd
       -0.19405532 0.0109279035 0.08041521 -0.039118364
000100 2c 7b 9a 3d 07 66 a2 3d 3f ca b4 3b a6 10 38 bd
       0.075430244 0.079296164 0.0055172737 -0.044937752
000110 db 0a 30 be 53 4f a5 bd 72 f0 0b bd f8 1b dc 3d
       -0.17191641 -0.080717705 -0.034164853 0.10747522
000120 c8 a3 0a 3e b3 7a 8a be 36 32 d6 bb 11 4b 79 be
       0.1353904 -0.27046737 -0.0065367473 -0.24345042
000130 5d 53 21 be bb c5 f5 3d 82 7f 15 be e2 1e 33 3e
       -0.15754457 0.12000605 -0.14599422 0.1749225
000140 00 ce 21 3e 6c a3 bc 3e 00 79 77 bd bd a2 af 3d
       0.15801239 0.3684343 -0.06041813 0.08575962
000150 e2 e2 45 3d 4a b9 33 be e1 5f 35 3e 9d 9a 48 3e
       0.048312075 -0.17551151 0.17712356 0.1959023
000160 ec f0 25 be 56 22 2f 3d a9 6e 46 3d 5b b1 4d be
       -0.16205186 0.042757355 0.048445377 -0.20087187
000170 4d b0 4b 3e 4b ea f3 bd 71 b1 46 3e a1 79 b2 bb
       0.19891472 -0.11909922 0.19403626 -0.005446628
000180 65 29 37 be 74 52 30 be 22 10 1c bd 8b a3 60 3d
       -0.17886885 -0.17218953 -0.038101323 0.054843467
000190 80 4a e6 3b 17 af 03 bd b5 3d 84 3d 6e 60 36 3c
       0.007027924 -0.0321494 0.06457082 0.011131389
0001a0 19 e5 6f 3d b4 5f 8f bc 3d c0 05 3d 56 5a 6c bd
       0.058568094 -0.01750169 0.032654036 -0.05770334
0001b0 a2 c1 d0 3e d4 0f 85 bd 39 b9 b3 3d 9f 8e 6f bd
       0.4077273 -0.064971596 0.08775563 -0.058485623
0001c0 2f c6 62 be 77 aa 4c be f8 51 8e bd b1 0d 56 be
       -0.22145914 -0.19986902 -0.06949228 -0.2090366
0001d0 70 91 c2 be 61 24 e7 3d 6b 22 09 be 5b 45 8f 3d
       -0.38001585 0.112862356 -0.13392036 0.069956504
0001e0 eb f5 e2 bd 1b 93 9b 3d d6 1d 9c be 99 ca dd bd
       -0.110820614 0.075964175 -0.30491513 -0.10829658
0001f0 6b 3f 29 bd 80 72 3d 3d 00 1d 0f bd 2a ef 41 3e
       -0.041320246 0.046251774 -0.034939766 0.1893889
000200 30 5f 98 bd 43 4f bf bd 81 e5 95 be 89 e6 28 be
       -0.074400306 -0.0934129 -0.2927666 -0.16494192
000210 3b 77 6e 3d c3 4b a1 bc bd 66 a2 bd 5c 0b 48 3e
       0.058219176 -0.019689446 -0.07929752 0.19535583
000220 44 ee ee bb 25 e5 33 be 8f ed e9 bd 7c e3 73 3e
       -0.007291587 -0.1756788 -0.11422264 0.23817247
000230 01 73 92 3d d4 d8 0e be f3 51 da bd e7 e6 5b 3e
       0.071508415 -0.13949901 -0.10660162 0.21474801
000240 75 2b dc 3d 45 14 d8 3d 40 bd 51 3e b7 34 f1 3d
       0.10750476 0.10550741 0.2048235 0.11777633
000250 ba d6 6b bc 68 d9 2a 3d 54 7e 63 be 8c e7 9f 3e
       -0.0143944565 0.04171124 -0.22216159 0.31231344
000260 60 2e 96 bd be c9 23 3b 27 b8 32 bd a9 f7 e3 bc
       -0.07333064 0.0024992074 -0.043632653 -0.027828055
000270 b2 8a fc bd ff 0b 63 be dd 26 fb bd a6 33 b5 bd
       -0.123311415 -0.22172545 -0.12263272 -0.08847742
000280 17 ea 04 3e f5 a3 3c bd fb 46 b9 bd f5 9b 03 3e
       0.12979923 -0.0460548 -0.090467416 0.12852462
000290 b3 4d ba bd e4 bd 45 be 11 d3 81 b9 d0 29 31 3e
       -0.09096851 -0.19310719 -0.00024762054 0.17301106
0002a0 a0 19 76 be 6b ee 14 3e 1f 66 37 3d 7d 2a c3 bd
       -0.24033213 0.14544074 0.044775125 -0.09529588
0002b0 96 a8 72 3e 80 1a 3d 3e 55 b9 18 3e 68 ac 92 3e
       0.23697123 0.1846714 0.14914449 0.2864716
0002c0 68 ec 59 3c e2 fb 22 3e fb 84 47 3e 25 b7 29 3e
       0.013300993 0.15916398 0.19484322 0.1657377
0002d0 bf 27 17 3e b4 c7 65 3d a5 e9 47 be dc dc 23 be
       0.14761256 0.056098655 -0.19522722 -0.1600222
0002e0 f7 14 0f 3d 47 7c 3c 3d 2c d3 84 3d 7b 61 71 3e
       0.034932103 0.046016958 0.0648559 0.23572342
0002f0 f1 a9 cd 3e 84 52 45 be d1 6e 8f bd 00 0a 6d 3d
       0.40168718 -0.19269758 -0.070035584 0.057870865
000300 13 d9 90 3e 8e d5 1b 3b a1 f9 3b 3d 48 f9 76 3d
       0.28290614 0.0023778412 0.04589236 0.060296327
000310 28 dc 30 3d c6 83 3e be 02 b4 a5 bd c4 42 02 bd
       0.043178707 -0.18604955 -0.080909744 -0.031801954
000320 a9 26 b5 3c cf 81 2d bd cc 0a 85 bd a3 d0 18 bd
       0.022113161 -0.042360123 -0.064962 -0.037308346
000330 50 3d e1 bd cc f4 ed bd 3d 41 7e 3c 9c 02 91 3c
       -0.109980226 -0.11618957 0.015518484 0.01770144
000340 c9 b0 3a 3c c0 6a 38 3e c8 bf a7 be bc 29 04 bd
       0.011394688 0.18009472 -0.32763505 -0.032266364
000350 e3 09 04 be 38 40 aa 3d 72 9a 9d bc 29 dc 57 bc
       -0.12894396 0.0831303 -0.019238684 -0.013175049
000360 68 41 a0 3d f3 a5 c9 bc 7e dc da 3c 36 58 93 3d
       0.07824975 -0.024615264 0.026716467 0.07194559
000370 5b a4 a1 bd 34 dc a5 3c ee f7 90 be a8 c4 49 3e
       -0.078926764 0.020246603 -0.28314155 0.19703925
000380 49 1f 1e be 0c e9 6b 3e 51 c4 56 be 51 bd d8 bd
       -0.15441622 0.23038119 -0.20973326 -0.10582984
000390 6d 71 dd bd 98 17 32 3e 09 51 0a 3e 5a 45 fd bd
       -0.1081265 0.17391813 0.13507475 -0.123667434
0003a0 4f 09 d2 3d 46 a5 10 3e 94 13 11 bb 37 01 6c 3d
       0.10255682 0.14125547 -0.0022136914 0.057618346
0003b0 2e fd 02 3e cf 51 15 bd af 62 13 3e d2 6f b8 3d
       0.12791893 -0.036454972 0.14393114 0.09005703
0003c0 c3 25 15 3e 67 fa 5d be 1f 4a 24 be 95 8e 3e be
       0.14565186 -0.21677552 -0.160439 -0.18609078
0003d0 5b b6 e1 bd 35 cf d7 3d 31 d2 7b 3b e3 76 13 3e
       -0.1102111 0.105375685 0.0038424844 0.1440082
0003e0 9b ce c0 bd 15 17 eb bd d8 c3 33 3d d5 ac f6 3d
       -0.09414407 -0.11479012 0.043887943 0.12044684
0003f0 12 86 39 3b 50 95 28 be ad d6 3c bb 3c 0c 5e be
       0.0028308672 -0.16463208 -0.002881448 -0.21684355

network_body._body_endoder.seq_layers.2.bias f4 [128]
000000 00 00 00 00 00 00 00 00 00 00 00 00 00 00 00 00
       0.0 0.0 0.0 0.0
000010 00 00 00 00 00 00 00 00 00 00 00 00 00 00 00 00
       0.0 0.0 0.0 0.0
000020 00 00 00 00 00 00 00 00 00 00 00 00 00 00 00 00
       0.0 0.0 0.0 0.0
000030 00 00 00 00 00 00 00 00 00 00 00 00 00 00 00 00
       0.0 0.0 0.0 0.0
000040 00 00 00 00 00 00 00 00 00 00 00 00 00 00 00 00
       0.0 0.0 0.0 0.0
000050 00 00 00 00 00 00 00 00 00 00 00 00 00 00 00 00
       0.0 0.0 0.0 0.0
000060 00 00 00 00 00 00 00 00 00 00 00 00 00 00 00 00
       0.0 0.0 0.0 0.0
000070 00 00 00 00 00 00 00 00 00 00 00 00 00 00 00 00
       0.0 0.0 0.0 0.0
000080 00 00 00 00 00 00 00 00 00 00 00 00 00 00 00 00
       0.0 0.0 0.0 0.0
000090 00 00 00 00 00 00 00 00 00 00 00 00 00 00 00 00
       0.0 0.0 0.0 0.0
0000a0 00 00 00 00 00 00 00 00 00 00 00 00 00 00 00 00
       0.0 0.0 0.0 0.0
0000b0 00 00 00 00 00 00 00 00 00 00 00 00 00 00 00 00
       0.0 0.0 0.0 0.0
0000c0 00 00 00 00 00 00 00 00 00 00 00 00 00 00 00 00
       0.0 0.0 0.0 0.0
0000d0 00 00 00 00 00 00 00 00 00 00 00 00 00 00 00 00
       0.0 0.0 0.0 0.0
0000e0 00 00 00 00 00 00 00 00 00 00 00 00 00 00 00 00
       0.0 0.0 0.0 0.0
0000f0 00 00 00 00 00 00 00 00 00 00 00 00 00 00 00 00
       0.0 0.0 0.0 0.0
000100 00 00 00 00 00 00 00 00 00 00 00 00 00 00 00 00
       0.0 0.0 0.0 0.0
000110 00 00 00 00 00 00 00 00 00 00 00 00 00 00 00 00
       0.0 0.0 0.0 0.0
000120 00 00 00 00 00 00 00 00 00 00 00 00 00 00 00 00
       0.0 0.0 0.0 0.0
000130 00 00 00 00 00 00 00 00 00 00 00 00 00 00 00 00
       0.0 0.0 0.0 0.0
000140 00 00 00 00 00 00 00 00 00 00 00 00 00 00 00 00
       0.0 0.0 0.0 0.0
000150 00 00 00 00 00 00 00 00 00 00 00 00 00 00 00 00
       0.0 0.0 0.0 0.0
000160 00 00 00 00 00 00 00 00 00 00 00 00 00 00 00 00
       0.0 0.0 0.0 0.0
000170 00 00 00 00 00 00 00 00 00 00 00 00 00 00 00 00
       0.0 0.0 0.0 0.0
000180 00 00 00 00 00 00 00 00 00 00 00 00 00 00 00 00
       0.0 0.0 0.0 0.0
000190 00 00 00 00 00 00 00 00 00 00 00 00 00 00 00 00
       0.0 0.0 0.0 0.0
0001a0 00 00 00 00 00 00 00 00 00 00 00 00 00 00 00 00
       0.0 0.0 0.0 0.0
0001b0 00 00 00 00 00 00 00 00 00 00 00 00 00 00 00 00
       0.0 0.0 0.0 0.0
0001c0 00 00 00 00 00 00 00 00 00 00 00 00 00 00 00 00
       0.0 0.0 0.0 0.0
0001d0 00 00 00 00 00 00 00 00 00 00 00 00 00 00 00 00
       0.0 0.0 0.0 0.0
0001e0 00 00 00 00 00 00 00 00 00 00 00 00 00 00 00 00
       0.0 0.0 0.0 0.0
0001f0 00 00 00 00 00 00 00 00 00 00 00 00 00 00 00 00
       0.0 0.0 0.0 0.0

network_body._body_endoder.seq_layers.2.weight f4 [128, 128]
000000 49 ad 2d be d3 5e a1 bc 71 2c 84 3c 01 e3 83 be
       -0.16960634 -0.019698536 0.016134473 -0.25759128
000010 8c df 6d 3d 92 1e 72 3d 71 c7 c9 ba bd d1 eb bb
       0.05807452 0.059111185 -0.0015394521 -0.0071966336
000020 1e c0 a1 bd b0 0f 7e 3b a8 1e 87 3d fd 70 81 3d
       -0.078979716 0.0038766675 0.06597644 0.06320379
000030 e8 9e d3 bc a4 96 84 bb c5 fe 21 3d a7 03 07 3e
       -0.025832608 -0.004046278 0.039549608 0.13184987
000040 6f df f6 3d d3 00 bd 3d f4 f1 b0 3d 3b 5a d6 3d
       0.12054335 0.09228673 0.08639899 0.10466429
000050 10 57 82 3b ae 2e ac 3d 86 99 44 3b 29 99 0c bc
       0.003977664 0.08407341 0.0029998734 -0.008581438
000060 16 bd 84 bc ed 55 16 3c b6 b8 15 bc 1f 35 1b 3d
       -0.016203444 0.00917576 -0.009138277 0.037892457
000070 02 00 c0 bc a9 5f 74 3d cf fb 61 bc 22 e7 e3 bd
       -0.023437504 0.05966154 -0.013792946 -0.111280695
000080 90 50 86 3d 25 c5 88 3d 61 69 1b 3d 31 71 ef bc
       0.06558335 0.06678227 0.037942294 -0.029228779
000090 18 c4 e8 3c 56 25 c8 3c 1c ed 05 bd a4 c7 d8 bd
       0.028413817 0.024431866 -0.03269683 -0.105849534
0000a0 1f 84 16 bd b1 8c 2e bd 7b b0 3a be f4 68 48 3c
       -0.036747094 -0.042614643 -0.18231384 0.012232054
0000b0 fc 72 85 3c 2f 67 aa 3d ce 3d 59 3c c9 34 7a bd
       0.01629018 0.08320462 0.013259364 -0.061085496
0000c0 a0 e7 0d 3e fd 2d 0b be 22 cc 07 be 1c 2a 13 3c
       0.13857889 -0.13591762 -0.13261464 0.008982208
0000d0 88 d0 e6 bc d0 c6 4a bb a2 48 8a bd 8d 24 cf 3d
       -0.028175607 -0.0030941255 -0.06752135 0.101143934
0000e0 5c d3 af 3d 36 c3 05 be c7 91 32 3d 5c a7 9c bd
       0.085852355 -0.13062748 0.043596055 -0.07649109
0000f0 77 54 b5 ba 9f 28 e1 3c d6 67 a3 bd af 99 72 bd
       -0.0013834377 0.02748519 -0.079787895 -0.059228595
000100 74 9d 92 3c 9a b6 0d 3d 6c 72 1c 3d 1e e9 9b bb
       0.017897345 0.03459797 0.03819506 -0.0047580143
000110 9a e4 d4 3b 40 f0 f9 3d 5e 70 cb 3c af 4e 07 3c
       0.006496978 0.12204027 0.024833854 0.008258506
000120 77 01 c1 3a 5f f2 cb 3b ab c0 d2 3c de a3 b8 bd
       0.0014725168 0.0062239612 0.025726637 -0.0901563
000130 7d 21 2c 3d 21 ab 24 be cf 66 d7 3c d1 b4 20 3b
       0.042024124 -0.16080905 0.02629414 0.0024521837
000140 9a b4 89 3d 81 97 c9 bd b4 53 0f 3c 69 d1 ad bc
       0.067239 -0.0984335 0.008747984 -0.021218019
000150 a4 c0 ed bc 3f 1c 7b 3d 92 80 7e 3c 10 0a bf bb
       -0.029022522 0.061306234 0.015533583 -0.005830057
000160 21 e5 35 bc 04 e1 2a be 00 a6 2d 3c 69 c4 08 bd
       -0.011101992 -0.16687399 0.0105986595 -0.033390436
000170 6f b9 da bd 5d ab b6 bd 3b 89 1d 3d 54 6e 57 be
       -0.106799 -0.08919404 0.03846095 -0.2103818
000180 02 3d d2 3c 95 a5 93 bd b3 07 ef bd d4 9f b8 b9
       0.025663856 -0.07209317 -0.116713904 -0.00035214296
000190 b0 97 e2 bd c3 f1 2a 3e c3 da 25 bd e6 0f 92 bd
       -0.11064088 0.16693787 -0.04049183 -0.07131939
0001a0 f9 81 1b 3e 07 a5 bf 3d bd c6 0f 3d 7e 17 68 bd
       0.151863 0.09357648 0.03510164 -0.05666303
0001b0 b3 39 b6 bc 2c 14 41 3d b5 fb 39 be 2d cf a1 3d
       -0.02224431 0.047138378 -0.18162425 0.07900844
0001c0 e1 82 fa bc ad 11 00 3e 55 ac b9 bd ef 21 5f bd
       -0.030579986 0.12506743 -0.09066073 -0.05447572
0001d0 e4 9f fe 3d 7c 78 3d 3d 09 19 72 bd eb 03 20 bd
       0.124328405 0.04625748 -0.059105907 -0.039066236
0001e0 5a a4 c6 3c 04 b9 27 bc 65 32 1e 3e 6c 89 e5 bc
       0.02424829 -0.010236982 0.15448911 -0.02801963
0001f0 bc 59 1e 3e fa b0 12 bd de 1f e8 bb 7e 04 e9 bc
       0.15463918 -0.03581331 -0.007083877 -0.028444525
000200 c1 47 93 3d 9c 16 7f bc 1f 9d f5 3d 29 b5 09 bd
       0.0719142 -0.015569355 0.11992859 -0.033620033
000210 4c 27 ee bd 22 c1 b0 bc 2d 76 03 bd d5 ca ac 3d
       -0.11628589 -0.021576468 -0.032095123 0.08437125
000220 31 ae 35 3e b3 d5 7e bc c3 07 4c 3c 6b b9 1a be
       0.1774223 -0.01555388 0.012453022 -0.15109794
000230 13 2a 1a 3e 5d a0 f7 3d a1 e3 9f 3d fb bc 00 bd
       0.15055113 0.12091134 0.07807089 -0.031430226
000240 97 21 02 3d 4b ad 0d 3e 6a a7 23 bd 8c a2 5d 3d
       0.031770315 0.13835637 -0.03995458 0.054110095
000250 fe e2 99 3c d4 69 32 be 65 ea 3b be 9d ff 03 3d
       0.018784996 -0.17423183 -0.18351133 0.032226194
000260 37 8e b3 bc 77 e6 ca 3c 0e ff 00 3e d1 4a a0 3c
       -0.0219184 0.024768097 0.12597296 0.019566925
000270 7d 66 2d 3d 97 b2 d5 bd 63 35 bc bc 84 fa 3a 3e
       0.04233407 -0.10434454 -0.022974676 0.18259627
000280 fc 03 36 3e 0b 10 a6 3d 0f 7e 0b be 81 bd cc bd
       0.17774957 0.08108529 -0.13622306 -0.099970825
000290 9f 5d 23 bc e3 4c 66 3c 3e 00 ca bd 5f 95 f3 bd
       -0.0099710515 0.014056417 -0.098633274 -0.11893725
0002a0 56 f3 12 3d 71 19 4f bc ca 6a ed bd a3 04 3a 3e
       0.035876594 -0.012640343 -0.11592634 0.18165831
0002b0 0b a1 2e bd 28 3f cf 3c e7 82 b4 bd cd f0 de bd
       -0.04263405 0.02529867 -0.0881403 -0.10885773
0002c0 c7 4c 2b bd f0 9e 1c 3d 13 e6 c2 bd 0c cb 45 bd
       -0.041821267 0.038237512 -0.095165394 -0.048289344
0002d0 22 25 9d 3d 0c f1 01 3e e6 ae 89 3d c8 e8 58 3d
       0.07673098 0.12689608 0.06722812 0.052956372
0002e0 07 83 3f bd f8 2d 34 bd 1c 20 8e bd 7f 10 32 bd
       -0.046755817 -0.04398915 -0.06939718 -0.043472763
0002f0 d7 17 a6 bc 7a 5e 35 bd 6a f1 a2 3d a2 1f 67 be
       -0.02027504 -0.044279553 0.07956202 -0.2257066
000300 74 7e 53 3c ab 10 3c 3e 1a 2c d7 3a dd ef 6b 3d
       0.012908567 0.18365733 0.0016416342 0.0576018
000310 52 1d c7 bd c6 7b 7e 3c 3a 3f 62 3c 2b c8 86 3d
       -0.09722389 0.01553244 0.01380902 0.06581148
000320 81 f4 14 3d 2e 77 3a 3d c1 f5 00 3c 44 1a 88 3d
       0.03636599 0.045523815 0.007871092 0.06645635
000330 c0 fb 0d 3d 0e c8 84 bc 40 21 eb bb b6 b3 f4 bc
       0.034663916 -0.016208675 -0.0071755946 -0.02987085
000340 d8 87 8d 3d 5d 86 b1 bc d2 41 b2 bd 79 22 37 be
       0.06910676 -0.021670515 -0.087039605 -0.17884244
000350 63 c8 2b 3d 9c 1c 5a 3c 37 42 e8 3c 29 7c fa 3c
       0.04193915 0.013312485 0.028351886 0.030576782
000360 0b e5 bd bb e1 3e c2 bd 45 96 dc bc 7e 4f 8b bd
       -0.0057951263 -0.094846494 -0.026927123 -0.06802271
000370 a4 95 cf bd 7c 20 65 3c 11 55 96 3d 31 b4 d4 3d
       -0.101359636 0.013984796 0.07340444 0.10385931
000380 20 4b a3 3d e8 81 c3 ba 56 9f 5b bd b7 ce 94 3c
       0.07973313 -0.0014916034 -0.05361875 0.018164976
000390 73 c4 77 bc bd a6 c4 3d be 89 38 be 9e 9a 93 3c
       -0.015122521 0.09602115 -0.18021294 0.018018063
0003a0 d0 53 f1 bc e6 75 4b 3d 54 21 0e 3e 3f 60 8e 3d
       -0.02945891 0.049672984 0.13879901 0.06951951
0003b0 ef da 18 be 21 47 a0 bd 6b 77 29 bc 9e 02 15 bd
       -0.14927267 -0.07826067 -0.010343413 -0.03637945
0003c0 6c 57 c8 3d b2 01 26 3b 63 ce b1 bd 83 6c 8d 3d
       0.097822994 0.00253306 -0.08681943 0.069054626
0003d0 c5 fa 76 3c 92 7e 11 be 4c 57 d4 bd b9 ca df 3d
       0.015074437 -0.14208439 -0.10368213 0.10927338
0003e0 d0 79 87 bc 14 6b ac 3d 7b 96 e2 3c 5d 9c c0 3d
       -0.016537577 0.08418861 0.027659645 0.09404824
0003f0 fb 2d 86 bd 3b 1e 2c 3e 6f 67 cf bd bf d8 bf 3c
       -0.06551739 0.16808407 -0.1012715 0.023418782
