results/Prueba13/AgenteCoche/AgenteCoche-2113939.onnx (onnx, 92171 bytes, 7 tensors)

action_model._continuous_distribution.log_sigma f4 [1, 2]
0.0030132544 0.22747919
00000000: 057a 453b 4ef0 683e

action_model._continuous_distribution.mu.bias f4 [2]
0.0003707813 0.13621433
00000000: 6c65 c239 c57b 0b3e

action_model._continuous_distribution.mu.weight f4 [2, 128]
0.024515346 0.02852254 0.03525834 0.041371744 0.0034195017 -0.010182395 -0.0038162847 -0.01438708
0.010034636 0.03185365 -0.023064017 -0.016783558 0.0022391295 -0.023803597 -0.0011406153 -0.0026041165
0.012394488 0.03008543 0.014812305 -0.009916484 -0.00839134 0.013139158 -0.014453652 -0.0038509376
-0.0028339287 -0.01118615 0.01735649 -0.006979452 0.0104806125 0.013671509 -0.01510856 0.002874776
-0.008855442 0.0010418715 -0.007863937 0.009065496 -0.013647287 0.03199331 -0.026380524 -0.0060976115
-0.03717956 -0.0018666865 0.010801611 0.019334959 0.00063045084 0.015129949 -0.012379832 -0.03964603
-0.022901697 -0.040215865 -0.0073688827 -0.0035072681 0.022632994 -0.011390709 -0.0026487762 -0.007886636
0.009172463 -0.007903396 -0.019870892 0.022759221 -0.04281516 0.008349308 -0.022771684 0.0016223027
-0.024065228 0.013360563 -0.023741646 0.0055503817 0.029275049 -0.010469204 0.011246816 -0.017200196
0.018439023 0.030888027 0.017427152 0.03312191 0.0075888126 0.02146131 -0.023492381 0.011882631
-0.0054936497 -0.0071050273 0.03560696 -0.020057818 -0.0034973081 0.0044133104 -0.0039566937 0.002213556
-0.011655171 0.011955565 -0.026696017 0.0071451566 -0.015962237 -0.014915759 0.010492052 -0.0034266058
-0.010958842 -0.0065474757 0.04087236 -0.03649196 -0.005751738 -0.009811143 -0.01654149 0.0059151705
-0.0093522165 -0.0022533587 -0.012785107 0.011504418 0.004661882 0.013264622 -0.005350772 0.0011360642
0.021148046 0.00013093585 0.014845385 0.0057311016 -0.008491714 0.0022899252 0.019627823 0.0036748324
0.008933328 -0.001806429 -0.030854518 0.014899718 -0.006476313 0.005438211 -0.009735375 0.0250386
0.00076241366 0.009862429 0.012675456 0.0081540225 0.0061127604 0.0012372661 -0.0048565506 0.0071215206
-0.0034138614 -0.01441884 0.030597273 0.042249665 0.0005176045 0.014394494 -0.0020374996 -0.0034553409
0.0053618713 -0.03171808 0.005667727 0.0012133172 -0.015652686 -0.018714335 0.00697427 0.004861023
-0.020853044 0.018011337 0.010524407 -0.0067385486 -0.024981217 0.038786426 0.022756035 0.020861229
0.005917367 0.012865101 0.016526097 0.02201582 -0.02466785 0.013541679 0.025249127 0.02071742
0.017756445 0.012721709 0.023147933 0.017710282 0.008331271 0.01248639 0.0077631148 -0.0049918904
0.00946271 -0.0030834079 -0.013203415 0.0043326733 0.0020934688 0.018208781 0.026077954 -0.0014957819
0.02446774 -0.03062453 -0.03707157 0.00313426 -0.00553227 0.03586283 0.0031839423 0.0212972
0.01690854 -0.037238646 -0.01613316 -0.0066729086 0.010379325 0.0057220296 0.0065054013 0.028890818
0.01078266 0.017069494 -0.02893646 0.03104548 -0.010595126 -0.014617622 0.012553096 -0.0151209785
-0.0022202132 0.0065785884 -0.024228131 -0.024102714 0.001213139 0.011483204 0.016479922 0.0066152527
-0.00012959613 0.0052608135 -0.011563513 -0.011163889 -0.005572768 0.015944788 0.026297152 -0.014053163
-0.016885184 -0.00011296287 0.017774317 -0.0053281724 -0.0047352402 -0.0021866804 -0.006488052 0.031269778
0.0087742815 -0.006832191 0.010347021 0.011555682 0.013178489 -0.0024329433 -0.008450668 -0.02861744
-0.007906685 0.035157744 -0.018487822 -0.0033865988 0.0074463906 0.0042633666 0.031282164 -0.008488397
0.0209675 -0.005959291 -0.013672367 -0.00978627 0.0121105695 -0.021127416 -0.017643355 0.011708441
00000000: 68d4 c83c 1aa8 e93c 0d6b 103d 6b75 293d
00000010: b819 603b 0fd4 26bc a21a 7abb cab7 6bbc
00000020: 5068 243c f978 023d c0f0 bcbc ac7d 89bc
00000030: 5cbe 123b c3ff c2bc b380 95ba d3a9 2abb
00000040: 4012 4b3c b875 f63c 4faf 723c c078 22bc
00000050: d57b 09bc 9f45 573c 03cf 6cbc 0360 7cbb
00000060: 6fb9 39bb 1d46 37bc 332f 8e3c e3b3 e4bb
00000070: e0b6 2b3c 77fe 5f3c e589 77bc bd66 3c3b
00000080: 6a16 11bc 688f 883a bed7 00bc 7287 143c
00000090: df98 5fbc 6b0b 033d f81b d8bc 79ce c7bb
000000a0: 9849 18bd 9bab f4ba 3df9 303c 5964 9e3c
000000b0: d744 253a 9be3 773c c7d4 4abc e063 22bd
000000c0: 579c bbbc 64b9 24bd ab76 f1bb 32da 65bb
000000d0: d468 b93c 19a0 3abc 1797 2dbb f336 01bc
000000e0: 1948 163c 3f7d 01bc 48c8 a2bc 8c71 ba3c
000000f0: f35e 2fbd 89cb 083c af8b babc 72a3 d43a
00000100: 7124 c5bc 43e6 5a3c d77d c2bc fadf b53b
00000110: 3ad2 ef3c 0687 2bbc 9144 383c 6de7 8cbc
00000120: 6f0d 973c e308 fd3c 63c3 8e3c d7aa 073d
00000130: 93ab f83b a1cf af3c 1873 c0bc 5eaf 423c
00000140: 1304 b4bb 4ad1 e8bb 9bd8 113d 4b50 a4bc
00000150: 1833 65bb 889d 903b 27a7 81bb 4f11 113b
00000160: 55f5 3ebc 46e1 433c 9bb1 dabc eb21 ea3b
00000170: 3dc3 82bc 3a61 74bc dbe6 2b3c e890 60bb
00000180: b78c 33bc 358c d6bb c769 273d 9878 15bd
00000190: 1379 bcbb ebbe 20bc 0582 87bc 0cd4 c13b
000001a0: 0a3a 19bc 16ad 13bb a078 51bc 077d 3c3c
000001b0: b3c2 983b db53 593c 8755 afbb fde7 943a
000001c0: ab3e ad3c d34b 0939 0f3a 733c f7cb bb3b
000001d0: d420 0bbc 9212 163b 87ca a03c 75d5 703b
000001e0: 185d 123c b3c5 ecba 9dc2 fcbc f21d 743c
000001f0: 4037 d4bb 0533 b23b 1f81 1fbc c01d cd3c
00000200: b7dc 473a 0796 213c b7ac 4f3c 7398 053c
00000210: 8d4d c83b c32b a23a b323 9fbb a55b e93b
00000220: 17bb 5fbb 003d 6cbc 22a7 fa3c fc0d 2d3d
00000230: daaf 073a e2d6 6b3c 9287 05bb 0073 62bb
00000240: a3b2 af3b d1ea 01bd 57b8 b93b 2b08 9f3a
00000250: 103a 80bc ce4e 99bc 6b88 e43b 3749 9f3b
00000260: 01d4 aabc 838c 933c 906e 2c3c 0bcf dcbb
00000270: 69a5 ccbc 84de 1e3d dd6a ba3c 2be5 aa3c
00000280: 79e6 c13b 25c8 523c bd61 873c 855a b43c
00000290: 3b14 cabc ebdd 5d3c 42d7 ce3c 94b7 a93c
000002a0: f775 913c b76e 503c bca0 bd3c 2715 913c
000002b0: e27f 083c b793 4c3c ba61 fe3b 0393 a3bb
000002c0: 7b09 1b3c 0013 4abb 2353 58bc 19f9 8d3b
000002d0: 9432 093b 952a 953c 6fa1 d53c 1d0e c4ba
000002e0: 9270 c83c 4be0 fabc 5cd8 17bd 2868 4d3b
000002f0: 0b48 b5bb e7e4 123d b0a9 503b 7777 ae3c
00000300: c783 8a3c 8d87 18bd b029 84bc 6aa8 dabb
00000310: 0b0e 2a3c dd7f bb3b 432b d53b 70ac ec3c
00000320: c1a9 303c 53d5 8b3c 280c edbc 1753 fe3c
00000330: 2e97 2dbc c07e 6fbc 80ab 4d3c fbbd 77bc
00000340: ff80 11bb 3391 d73b 137a c6bc 0e73 c5bc
00000350: 3102 9f3a 0c24 3c3c e700 873c c3c4 d83b
00000360: 32e4 07b9 e762 ac3b e474 3dbc bfe8 36bc
00000370: c49b b6bb a59e 823c 206d d73c 3d3f 66bc
00000380: cc52 8abc 7be6 ecb8 729b 913c f397 aebb
00000390: 132a 9bbb 694e 0fbb ba99 d4bb bd14 003d
000003a0: 01c2 0f3c 92e0 dfbb 8d86 293c 0b54 3d3c
000003b0: 97ea 573c 0472 1fbb ac74 0abc 1f6f eabc
000003c0: 0a8b 01bc 9101 103d c673 97bc b3f1 5dbb
000003d0: da00 f43b b6b3 8b3b ba21 003d eb12 0bbc
000003e0: 09c4 ab3c 2846 c3bb 1002 60bc 9756 20bc
000003f0: 696b 463c 6713 adbc cc88 90bc c3d4 3f3c

network_body._body_endoder.seq_layers.0.bias f4 [128]
0.0 0.0 0.0 0.0 0.0 0.0 0.0 0.0
0.0 0.0 0.0 0.0 0.0 0.0 0.0 0.0
0.0 0.0 0.0 0.0 0.0 0.0 0.0 0.0
0.0 0.0 0.0 0.0 0.0 0.0 0.0 0.0
0.0 0.0 0.0 0.0 0.0 0.0 0.0 0.0
0.0 0.0 0.0 0.0 0.0 0.0 0.0 0.0
0.0 0.0 0.0 0.0 0.0 0.0 0.0 0.0
0.0 0.0 0.0 0.0 0.0 0.0 0.0 0.0
0.0 0.0 0.0 0.0 0.0 0.0 0.0 0.0
0.0 0.0 0.0 0.0 0.0 0.0 0.0 0.0
0.0 0.0 0.0 0.0 0.0 0.0 0.0 0.0
0.0 0.0 0.0 0.0 0.0 0.0 0.0 0.0
0.0 0.0 0.0 0.0 0.0 0.0 0.0 0.0
0.0 0.0 0.0 0.0 0.0 0.0 0.0 0.0
0.0 0.0 0.0 0.0 0.0 0.0 0.0 0.0
0.0 0.0 0.0 0.0 0.0 0.0 0.0 0.0
00000000: 0000 0000 0000 0000 0000 0000 0000 0000
00000010: 0000 0000 0000 0000 0000 0000 0000 0000
00000020: 0000 0000 0000 0000 0000 0000 0000 0000
00000030: 0000 0000 0000 0000 0000 0000 0000 0000
00000040: 0000 0000 0000 0000 0000 0000 0000 0000
00000050: 0000 0000 0000 0000 0000 0000 0000 0000
00000060: 0000 0000 0000 0000 0000 0000 0000 0000
00000070: 0000 0000 0000 0000 0000 0000 0000 0000
00000080: 0000 0000 0000 0000 0000 0000 0000 0000
00000090: 0000 0000 0000 0000 0000 0000 0000 0000
000000a0: 0000 0000 0000 0000 0000 0000 0000 0000
000000b0: 0000 0000 0000 0000 0000 0000 0000 0000
000000c0: 0000 0000 0000 0000 0000 0000 0000 0000
000000d0: 0000 0000 0000 0000 0000 0000 0000 0000
000000e0: 0000 0000 0000 0000 0000 0000 0000 0000
000000f0: 0000 0000 0000 0000 0000 0000 0000 0000
00000100: 0000 0000 0000 0000 0000 0000 0000 0000
00000110: 0000 0000 0000 0000 0000 0000 0000 0000
00000120: 0000 0000 0000 0000 0000 0000 0000 0000
00000130: 0000 0000 0000 0000 0000 0000 0000 0000
00000140: 0000 0000 0000 0000 0000 0000 0000 0000
00000150: 0000 0000 0000 0000 0000 0000 0000 0000
00000160: 0000 0000 0000 0000 0000 0000 0000 0000
00000170: 0000 0000 0000 0000 0000 0000 0000 0000
00000180: 0000 0000 0000 0000 0000 0000 0000 0000
00000190: 0000 0000 0000 0000 0000 0000 0000 0000
000001a0: 0000 0000 0000 0000 0000 0000 0000 0000
000001b0: 0000 0000 0000 0000 0000 0000 0000 0000
000001c0: 0000 0000 0000 0000 0000 0000 0000 0000
000001d0: 0000 0000 0000 0000 0000 0000 0000 0000
000001e0: 0000 0000 0000 0000 0000 0000 0000 0000
000001f0: 0000 0000 0000 0000 0000 0000 0000 0000

network_body._body_endoder.seq_layers.0.weight f4 [128, 44]
-0.090497844 -0.058867913 -0.15465267 0.08191165 0.078072004 0.13539952 0.09840246 -0.16917115
0.38883469 -0.14680094 0.20538098 0.0017046013 -0.20430687 0.24805564 0.050038792 -0.1504997
-0.03485944 -0.15019043 -0.044218045 0.09467062 0.1871824 -0.13747983 -0.22947034 0.06406744
0.10248907 0.040021747 0.036608204 -0.11477296 0.099774376 -0.2680974 0.054403313 0.10780865
-0.037761718 -0.24537332 0.23854339 -0.058401812 -0.25730473 0.07689753 -0.2029533 -0.100178696
-0.1637088 0.070384994 0.16692364 0.11227574 0.22113357 0.011843576 0.38192433 -0.08885259
0.24093503 -0.06357176 -0.010392378 0.06585363 -0.07627773 -0.23245455 -0.18222132 0.1295447
-0.15267025 -0.09771556 0.040081155 0.33136952 0.18995337 0.132457 -0.083777875 -0.00025991315
-0.07641108 -0.10874392 0.0947016 0.17814228 -0.23246887 -0.029121477 -0.06690082 -0.23203373
-0.112157494 -0.04760381 0.25110045 -0.26861206 0.043280754 -0.10604574 0.23939423 -0.1730615
0.13467275 -0.20318924 0.014580176 -0.012852151 0.0055211713 0.028450832 0.010356764 -0.08379706
-0.010206769 0.026674554 -0.103608064 0.23955835 -0.32990387 0.054102965 0.07943081 0.072160766
0.26522928 0.08811532 0.2692161 0.11909613 -0.19862695 0.035816796 -0.23570514 -0.16364972
-0.0069672083 0.15253766 -0.082372494 -0.064386524 0.17545393 -0.04719385 0.08465778 0.08383007
-0.101401605 -0.026249079 -0.13119905 -0.041310553 -0.15052482 -0.08673662 -0.25379202 0.23931278
-0.07919903 0.02392771 0.072155625 -0.21047214 0.009045167 -0.07881856 0.23783879 -0.036014512
-0.057992652 0.042888567 -0.026435256 -0.08566501 -0.07699109 0.07241174 -0.3095859 0.44219795
0.057414748 0.12650523 0.035275094 -0.03505206 0.09626234 -0.061119832 0.08095425 -0.25093386
-0.12064075 -0.14125589 -0.2092826 0.016027274 -0.14689529 0.12401967 -0.18326242 0.048885677
0.0043722093 -0.08545132 0.024308601 -0.17720388 0.2058828 -0.057732318 -0.06125194 -0.35216245
0.018161321 0.10449221 0.06774865 0.18820398 0.022837726 0.036650464 -0.052085962 0.10759041
-0.16343626 -0.31032935 -0.21619828 -0.09143134 0.09845109 0.41984043 0.25464153 0.21348044
0.20095189 -0.120787516 0.13500854 0.005079666 -0.12444151 0.016776228 -0.10901904 -0.16736947
0.006499505 -0.22708933 0.099525325 0.10184473 0.08303984 0.032920364 -0.014170459 -0.04139668
0.034476243 0.13134658 -0.05772205 0.17736092 0.066715665 0.018036183 0.081964254 0.2143338
-0.046965778 0.06446513 -0.11061486 0.0082756495 0.111360766 0.008632121 -0.018635936 -0.026764562
0.16395971 0.08325344 -0.050964974 -0.18444295 0.0047296276 -0.043386184 -0.10627889 0.0660812
-0.10971528 -0.0945498 0.3523913 0.048120253 -0.022547914 -0.14118102 0.0799912 0.26596564
-0.31973192 -0.05778222 0.07731345 -0.004871946 0.0023361428 -0.124112345 0.019090815 0.09287129
-0.14549156 -0.26376462 0.028911294 -0.019345976 0.16251604 0.059585024 0.18899642 -0.20744921
0.2392844 -0.21951817 -0.32601342 0.07166088 -0.23513213 0.13805358 0.092472404 -0.07867828
-0.033380613 0.1281963 0.012191793 -0.08844786 0.14105275 -0.18100777 -0.08025361 0.1372805
00000000: ef56 b9bd 7b1f 71bd 455d 1ebe 4cc1 a73d
00000010: 37e4 9f3d 2ca6 0a3e 3b87 c93d 343b 2dbe
00000020: 5715 c73e fc52 16be 644f 523e ee6c df3a
00000030: d235 51be 4c02 7e3e 7af5 4c3d 981c 1abe
00000040: c6c8 0ebd 85cb 19be fb1d 35bd ace2 c13d
00000050: beac 3f3e 83c7 0cbe 46fa 6abe ca35 833d
00000060: cae5 d13d d8ed 233d 7cf2 153d 160e ebbd
00000070: 8256 cc3d 1044 89be 02d6 5e3d c8ca dc3d
00000080: 08ac 1abd 2543 7bbe b844 743e bd36 6fbd
00000090: 72bd 83be 747c 9d3d fdd2 4fbe 7d2a cdbd
000000a0: 48a3 27be 0226 903d 08ee 2a3e d3f0 e53d
000000b0: d770 623e 8f0b 423c 968b c33e 59f8 b5bd
000000c0: acb7 763e e931 82bd cb44 2abc 45de 863d
000000d0: 8037 9cbd 9108 6ebe 3a98 3abe 5ea7 043e
000000e0: 9755 1cbe 181f c8bd 232c 243d 44a9 a93e
000000f0: 2383 423e cfa2 073e bc93 abbd f444 88b9
00000100: 6a7d 9cbd 22b5 debd eaf2 c13d ee6a 363e
00000110: 520c 6ebe 2a90 eebc 4c03 89bd 409a 6dbe
00000120: d4b2 e5bd 36fc 42bd 3d90 803e 8587 89be
00000130: 2947 313d 822e d9bd c323 753e 0937 31be
00000140: a7e7 093e d710 50be b1e1 6e3c d491 52bc
00000150: f1ea b43b b811 e93c 6baf 293c cb9d abbd
00000160: 4b3a 27bc 9884 da3c 7730 d4bd c94e 753e
00000170: 29e9 a8be 129b 5d3d 9fac a23d 06c9 933d
00000180: 22cc 873e ce75 b43d b1d6 893e ace8 f33d
00000190: dd64 4bbe a2b4 123d b05c 71be cb93 27be
000001a0: 2e4d e4bb d532 1c3e e9b2 a8bd 15dd 83bd
000001b0: 32aa 333e 574e 41bd 0f61 ad3d 1aaf ab3d
000001c0: a5ab cfbd 4f08 d7bc 0b59 06be 4135 29bd
000001d0: 2e23 1abe f8a2 b1bd 07f1 81be 690e 753e
000001e0: 1a33 a2bd 0b04 c43c 54c6 933d 0286 57be
000001f0: 2e32 143c a06b a1bd 038c 733e f483 13bd
00000200: b489 6dbd ecab 2f3d c08e d8bc 2371 afbd
00000210: 81ad 9dbd 9b4c 943d 0b82 9ebe c567 e23e
00000220: ba2b 6b3d 968a 013e 9e7c 103d c092 0fbd
00000230: 3125 c53d ca58 7abd 58cb a53d 677a 80be
00000240: 7f12 f7bd 62a5 10be 2e4e 56be a14b 833c
00000250: b86b 16be 06fe fd3d 25a9 3bbe 593c 483d
00000260: c044 8f3b 1a01 afbd d522 c73c ef74 35be
00000270: f1d2 523e b978 6cbd 50e3 7abd a34e b4be
00000280: 0dc7 943c 0300 d63d cebf 8a3d 8bb8 403e
00000290: 2f16 bb3c cc1e 163d 1758 55bd 5c58 dc3d
000002a0: d65b 27be 7de3 9ebe 1563 5dbe 5b40 bbbd
000002b0: baa0 c93d 53f5 d63e 6060 823e 9e9a 5a3e
000002c0: 55c6 4d3e 725f f7bd ae3f 0a3e 5473 a63b
000002d0: 31db febd 4d6e 893c 6045 dfbd e762 2bbe
000002e0: cdf9 d43b 1b8a 68be efd3 cb3d f893 d03d
000002f0: cb10 aa3d 81d7 063d 362b 68bc 918f 29bd
00000300: f636 0d3d b87f 063e f56d 6cbd 1a9e 353e
00000310: 39a2 883d 9ec0 933c e0dc a73d 527a 5b3e
00000320: 305f 40bd 4b06 843d 0b8a e2bd 9796 073c
00000330: 1d11 e43d bd6d 0d3c 64aa 98bc 5b41 dbbc
00000340: 0ee5 273e c880 aa3d a6c0 50bd 9dde 3cbe
00000350: fefa 9a3b b6b5 31bd bfa8 d9bd 9555 873d
00000360: 68b2 e0bd 53a3 c1bd a26c b43e be19 453d
00000370: 67b6 b8bc c291 10be 6dd2 a33d a62c 883e
00000380: e7b3 a3be 0dad 6cbd 8456 9e3d d8a4 9fbb
00000390: f919 193b 9d2e febd 5764 9c3c 4e33 be3d
000003a0: bdfb 14be 280c 87be 61d7 ec3c 747b 9ebc
000003b0: 9b6a 263e 6d0f 743d 4788 413e 916d 54be
000003c0: f806 753e 5fc9 60be 3beb a6be f1c2 923d
000003d0: 7ac6 70be eb5d 0d3e 2c62 bd3d 1422 a1bd
000003e0: 1cba 08bd e445 033e 16c0 473c 2724 b5bd
000003f0: 2270 103e 1a5a 39be 015c a4bd 4293 0c3e

network_body._body_endoder.seq_layers.2.bias f4 [128]
0.0 0.0 0.0 0.0 0.0 0.0 0.0 0.0
0.0 0.0 0.0 0.0 0.0 0.0 0.0 0.0
0.0 0.0 0.0 0.0 0.0 0.0 0.0 0.0
0.0 0.0 0.0 0.0 0.0 0.0 0.0 0.0
0.0 0.0 0.0 0.0 0.0 0.0 0.0 0.0
0.0 0.0 0.0 0.0 0.0 0.0 0.0 0.0
0.0 0.0 0.0 0.0 0.0 0.0 0.0 0.0
0.0 0.0 0.0 0.0 0.0 0.0 0.0 0.0
0.0 0.0 0.0 0.0 0.0 0.0 0.0 0.0
0.0 0.0 0.0 0.0 0.0 0.0 0.0 0.0
0.0 0.0 0.0 0.0 0.0 0.0 0.0 0.0
0.0 0.0 0.0 0.0 0.0 0.0 0.0 0.0
0.0 0.0 0.0 0.0 0.0 0.0 0.0 0.0
0.0 0.0 0.0 0.0 0.0 0.0 0.0 0.0
0.0 0.0 0.0 0.0 0.0 0.0 0.0 0.0
0.0 0.0 0.0 0.0 0.0 0.0 0.0 0.0
00000000: 0000 0000 0000 0000 0000 0000 0000 0000
00000010: 0000 0000 0000 0000 0000 0000 0000 0000
00000020: 0000 0000 0000 0000 0000 0000 0000 0000
00000030: 0000 0000 0000 0000 0000 0000 0000 0000
00000040: 0000 0000 0000 0000 0000 0000 0000 0000
00000050: 0000 0000 0000 0000 0000 0000 0000 0000
00000060: 0000 0000 0000 0000 0000 0000 0000 0000
00000070: 0000 0000 0000 0000 0000 0000 0000 0000
00000080: 0000 0000 0000 0000 0000 0000 0000 0000
00000090: 0000 0000 0000 0000 0000 0000 0000 0000
000000a0: 0000 0000 0000 0000 0000 0000 0000 0000
000000b0: 0000 0000 0000 0000 0000 0000 0000 0000
000000c0: 0000 0000 0000 0000 0000 0000 0000 0000
000000d0: 0000 0000 0000 0000 0000 0000 0000 0000
000000e0: 0000 0000 0000 0000 0000 0000 0000 0000
000000f0: 0000 0000 0000 0000 0000 0000 0000 0000
00000100: 0000 0000 0000 0000 0000 0000 0000 0000
00000110: 0000 0000 0000 0000 0000 0000 0000 0000
00000120: 0000 0000 0000 0000 0000 0000 0000 0000
00000130: 0000 0000 0000 0000 0000 0000 0000 0000
00000140: 0000 0000 0000 0000 0000 0000 0000 0000
00000150: 0000 0000 0000 0000 0000 0000 0000 0000
00000160: 0000 0000 0000 0000 0000 0000 0000 0000
00000170: 0000 0000 0000 0000 0000 0000 0000 0000
00000180: 0000 0000 0000 0000 0000 0000 0000 0000
00000190: 0000 0000 0000 0000 0000 0000 0000 0000
000001a0: 0000 0000 0000 0000 0000 0000 0000 0000
000001b0: 0000 0000 0000 0000 0000 0000 0000 0000
000001c0: 0000 0000 0000 0000 0000 0000 0000 0000
000001d0: 0000 0000 0000 0000 0000 0000 0000 0000
000001e0: 0000 0000 0000 0000 0000 0000 0000 0000
000001f0: 0000 0000 0000 0000 0000 0000 0000 0000

network_body._body_endoder.seq_layers.2.weight f4 [128, 128]
-0.2589627 -0.00843825 -0.14020106 0.12199882 -0.13128148 -0.15350029 -0.17229725 0.015762562
-0.005885311 0.096264295 0.07818661 0.106850155 -0.016014485 -0.07813443 0.078959525 -0.0892655
0.16620721 -0.07842048 -0.08336782 0.11043354 0.05216852 -0.024175245 -0.03953067 0.057514865
0.08049372 0.00016319862 0.18090159 0.17539097 -0.053836375 0.06366234 0.012505011 0.20013145
0.080981925 -0.036873333 -0.1584042 0.08695947 0.053068787 -0.076506235 -0.06584294 0.012688462
0.011841149 -0.11126546 0.16042656 0.06995084 -0.14174362 0.009428017 -0.026690537 0.08206329
-0.105557084 0.15223524 0.04531606 -0.039876286 -0.14895558 0.13416415 -0.01947819 0.07770538
0.023755966 0.016936246 0.13239941 -0.0104961125 -0.10872246 -0.019474262 -0.03689532 0.108614236
0.015371046 -0.12596503 0.08093406 -0.04782889 0.04950348 -0.0679448 -0.088385694 0.13567722
0.025626762 0.06669018 0.14244713 0.13089858 0.1146393 0.04657756 -0.033555225 -0.06558579
0.03830961 0.0042279195 0.03914087 -0.097321704 0.15378316 -0.13240679 0.07639773 -0.019689813
0.0577144 -0.05812664 0.035106488 -0.0032507696 -0.031535514 -0.051332507 -0.12279386 -0.0012860682
0.031750042 0.09629022 0.00431022 -0.010251882 0.050178126 0.011300899 -0.10145763 0.08086152
-0.0202388 -0.017443264 0.1010738 -0.0031557796 -0.08420919 -0.10622281 0.037053082 0.18996187
-0.11385608 -0.15329325 0.11573039 0.053508997 0.043671742 -0.00699328 0.06657858 -0.094421595
0.02971014 -0.046103448 -0.060590856 0.039874718 -0.108584106 0.14788355 0.05109279 -0.002003009
-0.046034325 0.05161986 -0.16969468 -0.063248694 0.009319456 -0.025634145 0.086134925 0.1290328
0.116056025 0.2276252 0.011562544 -0.06364702 -0.056278408 -0.024157517 0.097045645 0.0040012277
0.06443036 -0.07198412 -0.045827884 -0.113055244 0.079632185 -0.014931337 -0.008955015 0.053691518
0.08441301 0.0034223907 -0.086113594 0.03359007 -0.010038657 -0.067198135 0.02834367 0.0056859166
-0.033802494 0.00791287 0.116062135 -0.00218605 0.06022382 -0.061094172 -0.13104497 -0.0053573586
0.0606378 0.19091325 0.04516088 0.086970665 0.12187523 -0.008591768 0.06738824 0.070025414
-0.04158406 -0.09103502 0.060564503 0.10055685 -0.03470268 -0.07102055 0.03725147 -0.01580235
0.094211556 0.16143161 0.060229022 -0.06421786 0.032427408 0.10453751 0.03322408 0.07441499
0.09415275 -0.00074449246 0.13497023 0.09187553 0.083552144 -0.043938793 -0.10843145 -0.0030608855
0.017688692 0.013467965 0.09071638 -0.15278202 -0.012760258 0.02379217 -0.04345168 0.011373537
0.042040132 -0.053881053 0.07564731 0.007242349 0.103651226 -0.061852865 0.08093325 0.13515349
0.094569676 -0.069088235 0.005739933 0.019167498 -0.045545712 -0.061451707 -0.25690043 0.091921896
-0.073362686 -0.089978054 -0.1011878 -0.036381334 -0.09650343 0.04526689 -0.05828403 0.07910308
-0.18481538 0.007681469 0.11730121 0.049966436 0.016038101 0.072300926 0.18073437 0.016344622
-0.10025333 -0.07802746 -0.016819743 -0.053992357 -0.112962276 0.07760025 -0.020363916 -0.20493951
0.026843363 -0.084446 0.055476345 -0.020707894 0.2758725 -0.1005606 0.005130608 -0.04242089
00000000: c296 84be 9640 0abc de90 0fbe 84da f93d
00000010: a76e 06be 2e2f 1dbe b16e 30be 7d20 813c
00000020: 91d9 c0bb 3726 c53d 4d20 a03d 41d4 da3d
00000030: cf30 83bc f204 a0bd 88b5 a13d d5d0 b6bd
00000040: 3932 2a3e eb9a a0bd bfbc aabd fb2a e23d
00000050: a8ae 553d 2a0b c6bc e9ea 21bd b594 6b3d
00000060: e4d9 a43d 4c20 2b39 443e 393e b199 333e
00000070: 8883 5cbd 6761 823d d1e1 4c3c 42ef 4c3e
00000080: dad9 a53d 7e08 17bd b634 22be ce17 b23d
00000090: a85e 593d 4daf 9cbd aad8 86bd 44e3 4f3c
000000a0: 6101 423c 25df e3bd dc46 243e 6342 8f3d
000000b0: 3d25 11be f877 1a3c 1da6 dabc cc10 a83d
000000c0: 502e d8bd 8ee3 1b3e 559d 393d 5155 23bd
000000d0: d087 18be 5462 093e ba90 9fbc 0024 9f3d
000000e0: df9b c23c e2bd 8a3c b693 073e e3f7 2bbc
000000f0: e2a9 debd 7d88 9fbc 8c1f 17bd 2471 de3d
00000100: d7d6 7b3c fafc 00be c2c0 a53d 3ae8 43bd
00000110: 29c4 4a3d a526 8bbd 8f03 b5bd f8ee 0a3e
00000120: 37ef d13c dc94 883d a9dd 113e 470a 063e
00000130: 02c8 ea3d 1dc8 3e3d 3471 09bd d851 86bd
00000140: 8aea 1c3d 5c8a 8a3b 2d52 203d 9a50 c7bd
00000150: 5579 1d3e a595 07be 6a76 9c3d 884c a1bc
00000160: ef65 6c3d 3316 6ebd d2cb 0f3d dd0a 55bb
00000170: 622b 01bd 0942 52bd 597b fbbd 4a91 a8ba
00000180: 550c 023d cf33 c53d bf3c 8d3b 82f7 27bc
00000190: 9487 4d3d 6827 393c 05c9 cfbd b99a a53d
000001a0: d7cb a5bc 2de5 8ebc c8ff ce3d 32d1 4ebb
000001b0: de75 acbd 588b d9bd f9c4 173d 5d85 423e
000001c0: 602d e9bd e8f8 1cbe 0e04 ed3d 402c 5b3d
000001d0: 24e1 323d e227 e5bb 5a5a 883d 1c60 c1bd
000001e0: ae62 f33c f8d6 3cbd 1e2e 78bd ac53 233d
000001f0: 5861 debd c96e 173e ac46 513d ea44 03bb
00000200: 7d8e 3cbd 596f 533d 71c4 2dbe 8888 81bd
00000210: a2b0 183c b3fe d1bc 8267 b03d 2d21 043e
00000220: c8ae ed3d 9516 693e d370 3d3c 5e59 82bd
00000230: 3084 66bd fce5 c5bc debf c63d bb1c 833b
00000240: 11f4 833d 696c 93bd 05b6 3bbd 8289 e7bd
00000250: 3316 a33d 91a2 74bc 0eb8 12bc a3eb 5b3d
00000260: bae0 ac3d 304a 603b 535c b0bd be95 093d
00000270: 2e79 24bc 2d9f 89bd fc30 e83c ed50 ba3b
00000280: 7c74 0abd fba4 013c fcb1 ed3d d543 0fbb
00000290: 41ad 763d e23d 7abd a730 06be c88c afbb
000002a0: 575f 783d c37e 433e 9dfa 383d ad1d b23d
000002b0: b899 f93d 7dc4 0cbc d802 8a3d 7c69 8f3d
000002c0: 0c54 2abd 9270 babd 7c12 783d c0f0 cd3d
000002d0: 6624 0ebd 3973 91bd ff94 183d ee73 81bc
000002e0: fdf1 c03d 544e 253e b5b2 763d a784 83bd
000002f0: 9ad2 043d c317 d63d f915 083d e366 983d
00000300: 28d3 c03d 0b2a 43ba a335 0a3e 3d29 bc3d
00000310: 631d ab3d 2af9 33bd 4f11 debd 2399 48bb
00000320: e0e7 903c bda8 5c3c 82c9 b93d e472 1cbe
00000330: 6710 51bc cce7 c23c 64fa 31bd 1258 3a3c
00000340: 4632 2c3d 61b2 5cbd faec 9a3d 3a51 ed3b
00000350: 1847 d43d 6e59 7dbd 55c0 a53d ad65 0a3e
00000360: bfad c13d 227e 8dbd 0c16 bc3b 2805 9d3c
00000370: 248e 3abd c9b4 7bbd 7488 83be 8c41 bc3d
00000380: 2d3f 96bd 6a46 b8bd 8d3b cfbd 9804 15bd
00000390: 97a3 c5bd c669 393d 3cbb 6ebd cc00 a23d
000003a0: 3e40 3dbe d5b4 fb3b 9e3b f03d 9ba9 4c3d
000003b0: 5662 833c 8212 943d 6e12 393e 28e5 853c
000003c0: 9e51 cdbd dccc 9fbd 8fc9 89bc 1727 5dbd
000003d0: c458 e7bd e1ec 9e3d 3ad2 a6bc aadb 51be
000003e0: 9de6 db3c 06f2 acbd 2a3b 633d 9aa3 a9bc
000003f0: 293f 8d3e b7f2 cdbd a91e a83b 87c1 2dbd
