results - copia/PruebaDemoCarrera1/AgenteCoche/AgenteCoche-500480.onnx (onnx, 87559 bytes, 9 tensors)

action_model._discrete_distribution.branches.0.bias f4 [3]
00000000: 0000 0000 0000 0000 0000 0000
0.0 0.0 0.0

action_model._discrete_distribution.branches.0.weight f4 [3, 128]
00000000: 6be5 463b ef67 863b 8f42 3bbb 973e 1b3b
00000010: b47c 9337 2b02 fd3b aa1e 083c c277 173c
00000020: 2228 f139 3bac 3dbc b939 163a 10e4 633b
00000030: 7fc6 3f3b 309d 50bb eea5 2c3b bd13 77bc
00000040: e697 373c e032 b23b c307 603a a87d 5bbb
00000050: df50 a43a bec9 92bb 5e2b 09bc 374d 293c
00000060: 22d4 c9ba d9b2 c8bc 1439 2fbc 4d6f c9bb
00000070: 7aeb d13a 22a5 bbbb 1b27 043b 3010 da3a
00000080: baa7 5dbc 487a 453b ade4 eabb 9770 693c
00000090: 90d4 55bc a766 19bc eb47 e23b 827c b73b
000000a0: 6784 903c bb30 f03a 989e 373b ca8d dfbb
000000b0: a241 453c e826 69bb 7b0f 13ba cff3 4b3b
000000c0: 7fd5 95bb 7bfe 13bb 40c1 e13b 85ac f6bb
000000d0: 09e2 15bc 5e35 073b 55cf edbb c841 73bc
000000e0: 2fed 48bc cb2f 31bb 9f84 163c a7d9 d03a
000000f0: dbc8 15bb 230f 8db8 0af7 8dba 02f7 3a3c
00000100: fbcb 0bbc 515a 843b a390 63bb c31f baba
00000110: dfcb 76bc fb2c 5bba 3627 ba3b d76c 993c
00000120: 359b d3bb 9813 68ba c281 84ba 6e2c 3bbc
00000130: 067f 1abc 626c e83a 2828 83bc e423 2ebc
00000140: f7de 9bbb f837 0b3c ad7c 763b a7eb 8abb
00000150: 5a32 893b b3d6 7b3b 73df b9bb f5ac de3b
00000160: 7116 3bbb a782 2c3c cdef 13bc 4d76 553c
00000170: fa77 47bb 3bfc 4f3b f454 30bc 1fab d3ba
00000180: 1ebf cc3a a34d 363c e1b6 13ba e1f9 333c
00000190: eced 0fbb 25eb 153a efb7 2c3c 8b5d 1fbb
000001a0: 1a85 c53b d27f 9f3b e6d8 223b 92e6 27bc
000001b0: 9d93 ec3b 3238 ff3a 9c6d 31bc 3071 53bb
000001c0: 0d9d 463c 50ce e13b 6768 d13b 7ff2 8639
000001d0: df4e f7bb 3a12 113a dd91 a0bb 53f6 adba
000001e0: 34b1 b2ba 2632 9ebc 23f5 4bbc 477f 663b
000001f0: e821 d1bb 789e 133c 4b0a 8c3c 4a96 2ebb
00000200: cb1b acba c2ee 53bb 2ed1 c2ba 8be7 d5b7
00000210: 5be6 01bc 2d73 29bb 3a14 5fbc c3ca bfba
00000220: f818 1abb 17f5 1fbc c67d 3fbc 2512 29bb
00000230: 073a 92b9 b1d3 22bc 5741 cd3b a8e3 7b3b
00000240: 1bf0 173c 0d21 823b c26e fdbb 9b0c e73c
00000250: ac1e 27ba d226 3abb 1dfd b7bb 308f 763c
00000260: 8b5a 803b 2abe 863a fa36 433c 359b ecbb
00000270: 5f81 80bc fa6c e13b 7214 6f3a 53e3 203c
00000280: c209 6d3c ea83 04bd d047 5b3c 944d 3a3c
00000290: aeba a93b f326 a6bb bf9f 933b b0f3 18bb
000002a0: 984e bc3b 3c72 b4bb 9f26 84bc 4305 2a3c
000002b0: 0011 453b cba2 193c b0a3 3fbb 031c a0bb
000002c0: 03b7 bebb 9343 613b c092 253c b871 7e3b
000002d0: cd26 a43b af80 563c 7388 053c 7609 a73b
000002e0: b3cf 28bb a7ed a83a 7fcc 96bb 051a 24bc
000002f0: a725 f1bb c62c 95bb 4070 023c 57cd a9bb
00000300: 6df8 5abc b038 afbc 271e 0e3c 47d3 b9bb
00000310: ef48 133c c1fb 2dbb e289 ed3b 988f 76bb
00000320: 7b0a 683b c3c3 11bc f7f3 813b 9c65 8e3c
00000330: b89c 9739 f5bf a1ba 0ff0 47bc 4355 e33a
00000340: 7f44 aa3b dae4 15bc c4ce b73a 53b4 3fbc
00000350: 08b5 533b d8fa f93b d574 053c c80f 513a
00000360: 36cd 9dba 91d3 3e3c 43b4 f8ba 7bf8 f8ba
00000370: 4e51 b03c ea80 d938 3125 94ba dba2 6a3b
00000380: 6f8d 263c 0c3e 353b 28f9 93ba 887f b93b
00000390: f285 b9bb 2348 3d3a c1fa aa3c 173b 2fbc
000003a0: d982 a83b 1da1 203c 671a 323c bdcd dc3b
000003b0: 254d 683c 1b71 29bc cd75 bdba d65d 1d3c
000003c0: 5f14 47bc 99ce 223c abdb 7dbc f523 713b
000003d0: 7b1c 55bb 37b8 dabb f504 73bb a327 8bbb
000003e0: f0fb c63b 631c 603c 8fe6 8c3a 4828 3c3c
000003f0: 9b53 b13b f71d ea3b 0df2 0dbc ca66 9d3c
0.0030349146 0.0041017453 -0.0028573608 0.002368843 1.7581835e-05 0.0077212057 0.008308092 0.009244861
0.00045997003 -0.0115767075 0.0005730647 0.0034773387 0.00292626 -0.0031831972 0.002634402 -0.01508039
0.011205649 0.0054381937 0.00085460785 -0.0033491645 0.0012536308 -0.004479616 -0.008372156 0.010333351
-0.0015398304 -0.024499344 -0.010694761 -0.0061473013 0.0016015612 -0.0057264725 0.002016491 0.0016636904
-0.013528759 0.00301327 -0.0071683736 0.014248035 -0.013051167 -0.009362853 0.006905546 0.0055995593
0.01764126 0.001832507 0.0028018113 -0.0068223225 0.012039574 -0.0035576168 -0.0005609912 0.0031120663
-0.00457257 -0.0022582102 0.0068894923 -0.00752789 -0.009148129 0.0020631175 -0.007257382 -0.014847226
-0.01226358 -0.0027036543 0.009186893 0.0015934006 -0.0022855315 -6.7262234e-05 -0.001083107 0.01141143
-0.008532519 0.004039087 -0.0034723661 -0.001420014 -0.015063255 -0.00083608896 0.005680944 0.018728657
-0.006457711 -0.00088530174 -0.0010109472 -0.011424167 -0.009429699 0.0017732496 -0.016010359 -0.010628674
-0.004756804 0.008497231 0.0037610934 -0.0042395177 0.0041869106 0.0038427531 -0.005672389 0.0067955204
-0.0028547312 0.010529197 -0.009029341 0.013028693 -0.0030436502 0.0031736034 -0.010762442 -0.001614902
0.0015620922 0.0111269085 -0.0005634856 0.010984869 -0.002196188 0.0005718938 0.0105419 -0.002431723
0.00602783 0.0048675323 0.002484852 -0.010247843 0.0072197453 0.0019471704 -0.010829356 -0.003226351
0.012122405 0.0068910494 0.0063906196 0.00025739145 -0.007547244 0.0005534027 -0.0049002008 -0.0013272263
-0.0013633133 -0.019311022 -0.012448582 0.0035171078 -0.006382216 0.00900995 0.017094752 -0.0026639872
-0.0013130842 -0.0032338356 -0.0014863366 -2.54994e-05 -0.007928456 -0.0025856004 -0.013615662 -0.0014632571
-0.0023513418 -0.009763024 -0.011687702 -0.0025798168 -0.00027890524 -0.0099381665 0.0062638926 0.0038435254
0.009273554 0.003971225 -0.0077341506 0.028204253 -0.0006375115 -0.0028404486 -0.0056148903 0.015048787
0.0039170436 0.0010280062 0.011914963 -0.0072206506 -0.015686689 0.006879446 0.0009120173 0.009819823
0.0144676585 -0.032352366 0.013383821 0.011371035 0.0051797247 -0.005070561 0.004505127 -0.0023338608
0.005746674 -0.005506782 -0.016131697 0.010377231 0.0030069947 0.009377192 -0.0029241852 -0.0048861518
-0.0058201565 0.0034372553 0.010105789 0.0038825106 0.005009508 0.013092204 0.008150208 0.0050975634
-0.0025758564 0.0012888209 -0.0046020146 -0.010015969 -0.007359225 -0.0045524566 0.007961333 -0.005181949
-0.013364893 -0.021389335 0.008674181 -0.005670938 0.008989557 -0.0026547762 0.007249103 -0.003762221
0.0035406637 -0.008896771 0.0039658505 0.017382436 0.0002891773 -0.0012340533 -0.0122032305 0.0017344136
0.0051961537 -0.009148801 0.0014023413 -0.0117007075 0.0032303948 0.00762878 0.008145531 0.0007975069
-0.0012039307 0.011647121 -0.0018974621 -0.0018994951 0.021523144 0.000103713784 -0.0011302588 0.0035802636
0.010165556 0.002765539 -0.0011289464 0.005660955 -0.0056617195 0.0007220527 0.020871522 -0.01069524
0.0051425514 0.009804037 0.010870553 0.006738393 0.014178549 -0.010341908 -0.0014454663 0.009604892
-0.012150853 0.009936952 -0.015494267 0.0036795114 -0.0032518196 -0.006674792 -0.0037081812 -0.0042466684
0.0060725138 0.013678643 0.0010749864 0.011484213 0.005411578 0.0071446854 -0.008663666 0.019214053

action_model._discrete_distribution.branches.1.bias f4 [3]
00000000: 0000 0000 0000 0000 0000 0000
0.0 0.0 0.0

action_model._discrete_distribution.branches.1.weight f4 [3, 128]
00000000: 3796 ab3b e5f1 d13b adfd 083a 8194 463b
00000010: 0fdb 2c3b 9bb5 c03b ff11 b0bb 9dc8 febb
00000020: ef35 3ebc d243 313c 984f 82bb da75 6f3b
00000030: 1700 013b 001c 25ba 8f66 ef3b 09fd 8e3b
00000040: 8df2 72bc e8d8 2f39 c069 1cbb 5bfc 5d3c
00000050: 8f07 873b 6ddd 6438 ef5f 123c f340 c5bb
00000060: 2f00 e23b 0fa0 c9bb cdeb 9cbb 81dc 8a3b
00000070: e354 1a3c 1245 5ebc 160a ac3b 9850 eebb
00000080: 60b5 55bc 2720 31bc 1772 ec3b 6a56 b0bb
00000090: 5757 e738 08b8 bbbb 3040 86bb 9fce d0b9
000000a0: d004 6c3b 378d 9f3a 0aa1 593c fd76 80bc
000000b0: dc66 023c 2a18 beba de0c 93bc 0b03 5dbc
000000c0: 4f37 7e3c 20f7 5fbc 070b 00ba ecf1 ab3b
000000d0: 93b5 feba 8f95 a6bb 6dd9 fd3b 2a1a c13b
000000e0: a815 c93a 0daa d93b ce83 42bc 82e0 383c
000000f0: 0da4 3eba b729 8d39 2179 95bc 3015 883b
00000100: 89cf 0dbc 1375 d43b 7696 333b 4629 143b
00000110: 9163 8ab9 6f85 8a3a fd78 02bc 93ab 33bc
00000120: a457 41bc 2718 323b 0bf5 933b 4354 17bc
00000130: 208c ce3b 8574 a2bc 77e7 e53b 1a39 4e3b
00000140: 5969 9ebb 81f5 aa3b 5199 903a 20c4 3ebc
00000150: 47b9 21bc 20de 7bba c786 0fbc 443e 303c
00000160: 0d70 3f3b 9baf a13c 5b27 5c3c 2323 46bc
00000170: fb27 97bb c7bd 873b 7d22 75bb cb74 c53b
00000180: 0bea abbb 7a23 cebb a7a1 bf3a fb33 013c
00000190: 0d4f b33b ef70 03bc 2894 c03c c3fb e03b
000001a0: aaf8 54bc 507d 583a 9744 febb 7115 1d3c
000001b0: 57c1 e63a d0f0 a63c 4582 733b 462a 3f3a
000001c0: aa67 d8bb e674 c03b ac8d 80bb 56e6 a0ba
000001d0: bf5c 623c 2d5c 7dbc 070a 92bc 001f 1b3c
000001e0: 0f24 113c b717 43bb 830c 9fb8 8c82 b73a
000001f0: 9589 0b3b b646 0bbc 8f76 203c 7b6b 813a
00000200: 727e e73b 8356 f53a 7ae0 96bb 6318 163c
00000210: 44fe 24bb ab43 0dbc 7816 863c 03fc d0ba
00000220: 2289 f7bb 45c7 76b9 1358 c9bb b5c1 9c3a
00000230: ef64 e13a 8dbc e139 6ee6 af3b 9fcf 413c
00000240: d9b1 94bb d715 a33b 00e2 5cbb 94a6 b2bb
00000250: 47d3 113c 426e 233c b7a4 76b9 ff9e 893c
00000260: b22b 453c a55a 8f3a 3a1d 173c f33d 2ebb
00000270: 4054 c8bb 3f14 1cba b330 a13b d059 383b
00000280: b221 443c 1dd6 70bb 4b37 bcbc 8bb5 cabb
00000290: 7b30 f13b 53cb 3cbc 4db2 003c e8f3 a7bc
000002a0: 9b7b fcbb 339d c73a 4b53 e0bb 7ce8 873b
000002b0: 1a47 cabc d258 e9bb a3ad 363c 7212 123c
000002c0: 1c73 92bb c560 943b 52f1 373c c30f 203c
000002d0: 08ea 8aba ddff 94bb f7f2 52bc 6f35 85ba
000002e0: 6c5f a0bc da32 c33c 8705 a3bb 71d7 8e3b
000002f0: 6239 7f3b edab ea3b b83a e43b cff7 243c
00000300: 4143 87bb 1e30 a23c 6531 963b 87de c23a
00000310: fc03 25bc 4f79 8b3c a3e8 8fbb 2120 1fbc
00000320: 1187 91ba 97a2 0f3c 15e5 e23b 8b1e 273c
00000330: c049 acbc 6577 0e3c 078e b8bc 7e12 3bbb
00000340: e7a6 7a3c b79a 6fbc be0e 1dbc d761 0f3c
00000350: 6b13 03bb afec fb3b f01d 703c 3766 0d3c
00000360: 27fe 63bc 27f1 3a3c 2b74 b63a 2987 1b3c
00000370: 73d6 debb aa44 c03b e367 343b 2cfd b23b
00000380: 12c8 04bb e3f9 223c da9b 3b3c 9ff9 3c3b
00000390: 9b2d 59bb 078f 63bc 1cc9 b6bb 52f1 293b
000003a0: 87b2 093c ac38 8ebb 7fbd 50bc bfd0 aebc
000003b0: 1389 19bc bdf7 f03b 4fbb e83c 15ec 2bbc
000003c0: e7fe d6b9 d592 dfb9 a48e 0cbc eff8 3dbc
000003d0: c3c6 a8bc dc0d 093c a9d4 bf3b ab61 523b
000003e0: 0f76 cabb 47e0 c0bb 07c8 143c 08ca d5bb
000003f0: 8d18 c83a 98aa 9b39 b1f0 84bb 191a 3b3b
0.005236413 0.00640701 0.0005225789 0.0030300918 0.0026375686 0.005881024 -0.005373239 -0.00777538
-0.011609538 0.010819392 -0.0039767735 0.003653875 0.0019683891 -0.0006298423 0.007305927 0.0043636602
-0.014828336 0.00016770104 -0.0023866743 0.013548936 0.004120774 5.4565655e-05 0.008934005 -0.0060197054
0.0068969945 -0.0061531137 -0.004788852 0.004237712 0.009419653 -0.013566272 0.005250226 -0.007272791
-0.013043731 -0.010810888 0.007215749 -0.005381395 0.00011031207 -0.0057287253 -0.004097007 -0.00039826796
0.003601361 0.0012172823 0.013283024 -0.015681738 0.007959094 -0.0014503051 -0.017950471 -0.013489495
0.015516116 -0.013669759 -0.00048844557 0.005247345 -0.0019432775 -0.0050837467 0.0077468664 0.0058930116
0.0015341537 0.006642586 -0.011872245 0.011283996 -0.000727237 0.00026924696 -0.018246235 0.0041529164
-0.008655437 0.006483683 0.0027402914 0.0022607609 -0.00026395594 0.0010568331 -0.007963416 -0.010966199
-0.01180068 0.002717504 0.0045152954 -0.009236398 0.0063033253 -0.019830951 0.007016118 0.003146714
-0.0048343358 0.0052172546 0.001103202 -0.0116434395 -0.009870834 -0.00096079893 -0.008760161 0.010757033
0.0029211075 0.019737056 0.013437117 -0.012093338 -0.0046129203 0.0041424963 -0.003740459 0.0060258857
-0.005246406 -0.00629085 0.001462032 0.007885928 0.00547207 -0.008022531 0.023508146 0.00686595
-0.012998739 0.0008258419 -0.0077596414 0.009587632 0.0017605227 0.0203785 0.0037156504 0.0007292371
-0.0066041546 0.0058733104 -0.0039231386 -0.0012275677 0.013816058 -0.015463871 -0.017827047 0.00946784
0.008858695 -0.0029768774 -7.584041e-05 0.0014000698 0.0021291722 -0.0085007455 0.009793892 0.0009873951
0.007064634 0.0018717799 -0.0046043964 0.009161088 -0.0025175968 -0.00862209 0.016368136 -0.0015944246
-0.0075541893 -0.00023534622 -0.0061445325 0.0011959585 0.0017196218 0.00043055826 0.0053680455 0.011829286
-0.0045378027 0.0049769687 -0.0033704042 -0.0054519866 0.00890047 0.009975018 -0.00023521749 0.016799448
0.012034344 0.0010937048 0.009223277 -0.0026587218 -0.006113559 -0.00059539446 0.0049191355 0.0028129704
0.011970924 -0.0036748715 -0.022975584 -0.0061861924 0.0073605157 -0.011523086 0.00785501 -0.020502046
-0.0077051646 0.0015229344 -0.006845867 0.0041475873 -0.024692107 -0.007121184 0.011149797 0.0089155305
-0.0044692885 0.0045281374 0.011226969 0.009769383 -0.0010598311 -0.004547103 -0.01287531 -0.0010163019
-0.01957675 0.023827959 -0.004975024 0.0043591787 0.0038944115 0.0071616084 0.0069650076 0.010068848
-0.0041278903 0.019798335 0.004583525 0.0014867344 -0.010071751 0.017025618 -0.004391746 -0.00971225
-0.0011102875 0.008766792 0.0069242814 0.010200153 -0.02103126 0.008695458 -0.022528661 -0.0028544958
0.015298582 -0.014624289 -0.009586034 0.008751354 -0.0020000588 0.007688127 0.014655575 0.008630327
-0.013915575 0.011410034 0.0013920119 0.009492674 -0.0068004667 0.0058675604 0.0027527742 0.0054623093
-0.0020260853 0.009947273 0.011450732 0.002883531 -0.0033138755 -0.013889081 -0.0055781733 0.0025931192
0.008404381 -0.004340252 -0.012740492 -0.021339772 -0.00937106 0.0073537515 0.028409628 -0.010493298
-0.00041007178 -0.00042643273 -0.00857893 -0.011594995 -0.02060259 0.008365121 0.0058542085 0.0032101672
-0.0061786245 -0.005886111 0.009080893 -0.006524328 0.0015266106 0.00029691006 -0.004057013 0.002854949

discrete_action_output_shape f4 [1, 2]
00000000: 0000 4040 0000 4040
3.0 3.0

network_body._body_endoder.seq_layers.0.bias f4 [128]
00000000: 0000 0000 0000 0000 0000 0000 0000 0000
00000010: 0000 0000 0000 0000 0000 0000 0000 0000
00000020: 0000 0000 0000 0000 0000 0000 0000 0000
00000030: 0000 0000 0000 0000 0000 0000 0000 0000
00000040: 0000 0000 0000 0000 0000 0000 0000 0000
00000050: 0000 0000 0000 0000 0000 0000 0000 0000
00000060: 0000 0000 0000 0000 0000 0000 0000 0000
00000070: 0000 0000 0000 0000 0000 0000 0000 0000
00000080: 0000 0000 0000 0000 0000 0000 0000 0000
00000090: 0000 0000 0000 0000 0000 0000 0000 0000
000000a0: 0000 0000 0000 0000 0000 0000 0000 0000
000000b0: 0000 0000 0000 0000 0000 0000 0000 0000
000000c0: 0000 0000 0000 0000 0000 0000 0000 0000
000000d0: 0000 0000 0000 0000 0000 0000 0000 0000
000000e0: 0000 0000 0000 0000 0000 0000 0000 0000
000000f0: 0000 0000 0000 0000 0000 0000 0000 0000
00000100: 0000 0000 0000 0000 0000 0000 0000 0000
00000110: 0000 0000 0000 0000 0000 0000 0000 0000
00000120: 0000 0000 0000 0000 0000 0000 0000 0000
00000130: 0000 0000 0000 0000 0000 0000 0000 0000
00000140: 0000 0000 0000 0000 0000 0000 0000 0000
00000150: 0000 0000 0000 0000 0000 0000 0000 0000
00000160: 0000 0000 0000 0000 0000 0000 0000 0000
00000170: 0000 0000 0000 0000 0000 0000 0000 0000
00000180: 0000 0000 0000 0000 0000 0000 0000 0000
00000190: 0000 0000 0000 0000 0000 0000 0000 0000
000001a0: 0000 0000 0000 0000 0000 0000 0000 0000
000001b0: 0000 0000 0000 0000 0000 0000 0000 0000
000001c0: 0000 0000 0000 0000 0000 0000 0000 0000
000001d0: 0000 0000 0000 0000 0000 0000 0000 0000
000001e0: 0000 0000 0000 0000 0000 0000 0000 0000
000001f0: 0000 0000 0000 0000 0000 0000 0000 0000
0.0 0.0 0.0 0.0 0.0 0.0 0.0 0.0
0.0 0.0 0.0 0.0 0.0 0.0 0.0 0.0
0.0 0.0 0.0 0.0 0.0 0.0 0.0 0.0
0.0 0.0 0.0 0.0 0.0 0.0 0.0 0.0
0.0 0.0 0.0 0.0 0.0 0.0 0.0 0.0
0.0 0.0 0.0 0.0 0.0 0.0 0.0 0.0
0.0 0.0 0.0 0.0 0.0 0.0 0.0 0.0
0.0 0.0 0.0 0.0 0.0 0.0 0.0 0.0
0.0 0.0 0.0 0.0 0.0 0.0 0.0 0.0
0.0 0.0 0.0 0.0 0.0 0.0 0.0 0.0
0.0 0.0 0.0 0.0 0.0 0.0 0.0 0.0
0.0 0.0 0.0 0.0 0.0 0.0 0.0 0.0
0.0 0.0 0.0 0.0 0.0 0.0 0.0 0.0
0.0 0.0 0.0 0.0 0.0 0.0 0.0 0.0
0.0 0.0 0.0 0.0 0.0 0.0 0.0 0.0
0.0 0.0 0.0 0.0 0.0 0.0 0.0 0.0

network_body._body_endoder.seq_layers.0.weight f4 [128, 29]
00000000: 074a b53d 09a6 c13e 1911 793e 75e2 abbd
00000010: c26a 8fbc 63c5 9c3d b59c cabd bbad de3b
00000020: 7a85 9fbe 89a1 ef3a ff76 e9bd 7516 93bc
00000030: e036 3a3e 877f d53d 3a3f 53be 5c30 253e
00000040: 7ce8 2cbe e7ee a4bd 5721 a7bc 8d4b 97bd
00000050: 85bb d23c 9f28 023e d7ce 2f3e b448 cabd
00000060: 8d3f 5c3e c286 8b3d 194a 95be 19f2 e73d
00000070: 0bbb bd3d ecd2 ce3d 9937 43bd 82f1 0abd
00000080: 2a08 01bd 375f 2e3e 2196 863d e737 84bd
00000090: a2b7 963c 67e3 5ebe 12c1 a8bd 14c3 443d
000000a0: 11c9 5ebd 85c8 393e 1ccb 063d 0466 a3be
000000b0: 3a6e b1bd a45b 4b3e e389 efbd 010e 043f
000000c0: f619 1fbe d732 f7bd 8ca0 fe3d cabc 393d
000000d0: 994d 56be 9da8 cd3c 5710 403e 9fd3 5b3e
000000e0: a734 9b3d 09d4 a63d bdd2 9bbd de5f 4ebe
000000f0: 5dcc 97bc 91c5 9dbc e629 873e 61d4 643e
00000100: 9e08 5ebd fd91 793e 48e7 fc3d 8322 30bc
00000110: cd3d 8a3e 1137 833e 2c40 dfbd 42ea a3be
00000120: 7bc3 46be 5160 293e 4241 d13d 41d2 83be
00000130: 75a7 36be e0cc 21bd 6795 98bc 8ec1 f3bd
00000140: c8cb 003e 92b6 71bc 8d7d fa3c bf2e 863e
00000150: 9de4 11be 1e4c 17ba 892e 9abe efec 2a3e
00000160: 7f38 423e fa4f 293e 4d87 4bbe e817 b1bd
00000170: c066 b6bd 5c2a 073d 93a1 60bd e25f e1be
00000180: 84de 27be 352c aebe dcf0 923e d60e 143d
00000190: 7105 103e 8cc7 11bd c213 83be 6189 96bd
000001a0: 5030 29be 641c 923d 19d8 893e 090e 6fbc
000001b0: d641 073e 8b1e 04be 85ef 813e 46fa c6bc
000001c0: 0c1e 993d 795f c5be 0a41 cb3c b885 96be
000001d0: 73da 1dbd 55fc 603c 9d00 853d 4de9 093d
000001e0: 2d9f a93c ee86 df3d 212f ccbe 4de0 9fbd
000001f0: aaad 27be 98f3 493b 38be 84bd 31e4 aabe
00000200: fd9b b2bc dbef 643e bb22 2c3e d176 cb3e
00000210: dd2a c53d 4c03 dc3d ecaa 16bd 04c3 97bd
00000220: 9ef6 47be 9da2 89be 5ae1 5ebe 95c7 803d
00000230: 9a18 ad3d 6dd8 a23e b3f6 113d 1edc 283e
00000240: 6d7a 413e 9cce efbe 8bae 153e b4e2 c03d
00000250: 83bd 29bd e3a1 b6be 5834 223e 9e94 193e
00000260: 0c3f 7dbe cd3a 45be 0db8 2ebe 3845 e83c
00000270: bc88 973d 566b b8bd 69d2 d33a c8c5 5cbd
00000280: 5cfb ebbc 7470 1bbd fef1 1fbe 7188 56be
00000290: f1ff fa39 aa2a 48bd 1fa3 923e 376c a13e
000002a0: be9b 2fbe a2f6 6dbd 3421 cfbd 09c8 1d3e
000002b0: 50b1 043e f079 6a3e ab22 80be 6573 87bc
000002c0: 1e8f 8c3d 365a afbe 4a43 2a3e b59c a73d
000002d0: 8941 a6be b294 363d 7f15 a6be 21f9 6cbe
000002e0: 9f8d 153e 4bb3 723d 23ae 193e 2841 4cbd
000002f0: 14f5 903e 027c 23be f5b7 03bd a36c 973d
00000300: a275 9dbe 6e22 bf3e 4e58 523d 3e39 513e
00000310: fdf7 9f3e 1039 35bd 02a7 25be 417c e8bd
00000320: 89dd 8cbe efcd 8ebd 6e29 b03e fea0 cb3d
00000330: 5e91 3abe dfe2 ed3b fa51 f53d 2abc 9c3e
00000340: 9efc 9c3d fd92 ed3c 8b56 60bd 9288 b2bd
00000350: d005 383e 60eb 7b3d 10d6 af3e c2bf b9bc
00000360: 8be1 b1bd 010f 9abe 3b65 acbd 2578 adbe
00000370: db6a 77bd 76cb 143d 7560 843d a11c a33e
00000380: 8ecc cbbd b73f 663d f097 0fbe 7b35 cfbd
00000390: 798f 1a3e 7498 02be a9d6 4abd 6ce8 b0bd
000003a0: 055b 683e 8d2e 95bd 8b75 63be 8264 4a3d
000003b0: 4883 cebd ede7 213d 8307 49be 83a3 8f3d
000003c0: 2290 13be 9d26 0c3e 45d6 bbbe 64cd 863e
000003d0: 0611 cd3d bc8f cfbd 8bb2 8a3e 2ded c6bd
000003e0: 13c5 113d e7e6 9e3e 47da 143c 2721 193e
000003f0: 9921 c9bd 976c 27be df36 7fbd b9ba 8b3e
0.0885201 0.37821987 0.24322928 -0.083928026 -0.01750696 0.07654836 -0.09893171 0.0067956126
-0.31156522 0.0018282394 -0.1139965 -0.017955044 0.18184996 0.104247145 -0.20629588 0.16131729
-0.16885561 -0.080533795 -0.02040164 -0.07387457 0.025724182 0.12710808 0.17168747 -0.09877148
0.21508618 0.068128124 -0.29158095 0.11325473 0.09264191 0.10098824 -0.047660444 -0.033921726
-0.031501926 0.17028509 0.065716036 -0.06455975 0.01839811 -0.21766435 -0.0823995 0.048037603
-0.05439097 0.18142898 0.032908544 -0.3191377 -0.08663602 0.19859177 -0.11696222 0.5158387
-0.15537247 -0.12070244 0.12432966 0.04534606 -0.20928039 0.025104815 0.18756233 0.21467446
0.07578402 0.08145911 -0.076085545 -0.20153758 -0.018530065 -0.019259246 0.26399153 0.22346641
-0.054207437 0.24372096 0.12348801 -0.010750416 0.27000275 0.2562795 -0.10900912 -0.32014662
-0.19410507 0.16540648 0.10217525 -0.25746349 -0.17837317 -0.039502025 -0.018625928 -0.11902152
0.12577736 -0.014753001 0.030577445 0.2620754 -0.14247365 -0.0005771535 -0.30113629 0.16691945
0.18966864 0.16534415 -0.19875832 -0.08647138 -0.08906317 0.03299938 -0.05484159 -0.44018465
-0.16393477 -0.34018102 0.28699386 0.03614696 0.14064576 -0.035590693 -0.25601012 -0.07350422
-0.16522336 0.07134321 0.26922682 -0.014590749 0.13208708 -0.12902276 0.2537805 -0.024289262
0.07476434 -0.38549402 0.024811286 -0.29398894 -0.038538408 0.013732036 0.064942576 0.03366976
0.020705784 0.10914408 -0.39879707 -0.07806454 -0.16374841 0.003081536 -0.06481594 -0.3337722
-0.021802897 0.22357123 0.16810124 0.39739087 0.09627316 0.10742816 -0.036784098 -0.07410243
-0.1952767 -0.26881877 -0.21765652 0.06288067 0.08451958 0.31805745 0.03563566 0.16490218
0.18894358 -0.46837318 0.14617364 0.0941824 -0.041440498 -0.35670385 0.1584028 0.14998099
-0.24731082 -0.19260712 -0.17062397 0.028353319 0.07399127 -0.09004848 0.001616073 -0.053899556
-0.02880638 -0.03794904 -0.15619656 -0.20950486 0.00047874407 -0.048868813 0.28640077 0.31527874
-0.17149255 -0.058096536 -0.10113755 0.15408339 0.12958264 0.22898078 -0.2502645 -0.016534517
0.06863235 -0.34248513 0.16627231 0.08184186 -0.32471874 0.0445754 -0.32438275 -0.2314191
0.14604805 0.05925302 0.15007834 -0.049866825 0.2831198 -0.15965274 -0.032157857 0.07393768
-0.3075381 0.37330955 0.051353745 0.20431992 0.31243888 -0.044243872 -0.1617699 -0.113518246
-0.27512768 -0.069728725 0.34406608 0.09942816 -0.18219516 0.007259711 0.119785264 0.30612308
0.076653704 0.029000754 -0.054770034 -0.08717455 0.17970967 0.061503768 0.34343004 -0.022674445
-0.08685597 -0.30089572 -0.08417746 -0.33880726 -0.06040464 0.036326848 0.0646371 0.3185778
-0.09951125 0.056213107 -0.14022803 -0.101176225 0.15093793 -0.12753469 -0.049521122 -0.08638081
0.22690971 -0.072842695 -0.22212808 0.049412258 -0.10083634 0.039527822 -0.19631772 0.07013609
-0.14410451 0.13686605 -0.36686912 0.26328576 0.100130126 -0.10134837 0.27089342 -0.097132064
0.035588335 0.3103554 0.0090852445 0.14954053 -0.09820861 -0.16350017 -0.06230819 0.27290896

network_body._body_endoder.seq_layers.2.bias f4 [128]
00000000: 0000 0000 0000 0000 0000 0000 0000 0000
00000010: 0000 0000 0000 0000 0000 0000 0000 0000
00000020: 0000 0000 0000 0000 0000 0000 0000 0000
00000030: 0000 0000 0000 0000 0000 0000 0000 0000
00000040: 0000 0000 0000 0000 0000 0000 0000 0000
00000050: 0000 0000 0000 0000 0000 0000 0000 0000
00000060: 0000 0000 0000 0000 0000 0000 0000 0000
00000070: 0000 0000 0000 0000 0000 0000 0000 0000
00000080: 0000 0000 0000 0000 0000 0000 0000 0000
00000090: 0000 0000 0000 0000 0000 0000 0000 0000
000000a0: 0000 0000 0000 0000 0000 0000 0000 0000
000000b0: 0000 0000 0000 0000 0000 0000 0000 0000
000000c0: 0000 0000 0000 0000 0000 0000 0000 0000
000000d0: 0000 0000 0000 0000 0000 0000 0000 0000
000000e0: 0000 0000 0000 0000 0000 0000 0000 0000
000000f0: 0000 0000 0000 0000 0000 0000 0000 0000
00000100: 0000 0000 0000 0000 0000 0000 0000 0000
00000110: 0000 0000 0000 0000 0000 0000 0000 0000
00000120: 0000 0000 0000 0000 0000 0000 0000 0000
00000130: 0000 0000 0000 0000 0000 0000 0000 0000
00000140: 0000 0000 0000 0000 0000 0000 0000 0000
00000150: 0000 0000 0000 0000 0000 0000 0000 0000
00000160: 0000 0000 0000 0000 0000 0000 0000 0000
00000170: 0000 0000 0000 0000 0000 0000 0000 0000
00000180: 0000 0000 0000 0000 0000 0000 0000 0000
00000190: 0000 0000 0000 0000 0000 0000 0000 0000
000001a0: 0000 0000 0000 0000 0000 0000 0000 0000
000001b0: 0000 0000 0000 0000 0000 0000 0000 0000
000001c0: 0000 0000 0000 0000 0000 0000 0000 0000
000001d0: 0000 0000 0000 0000 0000 0000 0000 0000
000001e0: 0000 0000 0000 0000 0000 0000 0000 0000
000001f0: 0000 0000 0000 0000 0000 0000 0000 0000
0.0 0.0 0.0 0.0 0.0 0.0 0.0 0.0
0.0 0.0 0.0 0.0 0.0 0.0 0.0 0.0
0.0 0.0 0.0 0.0 0.0 0.0 0.0 0.0
0.0 0.0 0.0 0.0 0.0 0.0 0.0 0.0
0.0 0.0 0.0 0.0 0.0 0.0 0.0 0.0
0.0 0.0 0.0 0.0 0.0 0.0 0.0 0.0
0.0 0.0 0.0 0.0 0.0 0.0 0.0 0.0
0.0 0.0 0.0 0.0 0.0 0.0 0.0 0.0
0.0 0.0 0.0 0.0 0.0 0.0 0.0 0.0
0.0 0.0 0.0 0.0 0.0 0.0 0.0 0.0
0.0 0.0 0.0 0.0 0.0 0.0 0.0 0.0
0.0 0.0 0.0 0.0 0.0 0.0 0.0 0.0
0.0 0.0 0.0 0.0 0.0 0.0 0.0 0.0
0.0 0.0 0.0 0.0 0.0 0.0 0.0 0.0
0.0 0.0 0.0 0.0 0.0 0.0 0.0 0.0
0.0 0.0 0.0 0.0 0.0 0.0 0.0 0.0

network_body._body_endoder.seq_layers.2.weight f4 [128, 128]
00000000: 9159 d03c fa82 e53d 7fa9 ccbd 6530 453d
00000010: bf12 4e3d f0e5 fb3c 474c 1bbe c7e8 f83d
00000020: 0f01 ff3c 84fd e3bd a5c3 d03d 11fb a43d
00000030: 6b5b d13c bf83 0cbd 1ebd 36bb d55a 30bd
00000040: 12e9 793d d8a0 333e 3efc 18be 1bdb e8bd
00000050: 2480 cfbd 6fe1 1c3c b7fe a4bb f890 07be
00000060: 3f3c 8a3d bb9d ebbb 2406 5b3d 735e 0cbc
00000070: 1e30 223d cd2e e03d b0d5 e4bd b03e c63c
00000080: e44b 433d 67b9 03bd 1bef 453a 783b 88bd
00000090: 4d47 6b3d 3666 4d3d 5e2c ebbd 279a 8f3d
000000a0: 02e8 22be f45a d33d e249 683e 242d afbc
000000b0: 6f0a 55bd 43b0 853c 5cd2 773d 8bfc 94bd
000000c0: 8b20 9fbc cbd5 723d 8f92 debd 6b6c aebb
000000d0: ea8c 48bd b463 e1bc 04ad 4cbe c8ef 9d3d
000000e0: db4c 53bc 8710 453d b6dc f83c 17b8 5b3c
000000f0: 239c cc3b 5f08 f7bc 0dda 633c a6d1 823c
00000100: bd23 adbd 26d1 f0bc e268 6ebe cf8a 133b
00000110: 82f1 33bc d58c 90bc f39a 17bd 76e4 9a3d
00000120: c944 1e3e c226 c3bd 55e5 a6bd 1d23 0dbe
00000130: 9293 963d a57c a13d 3032 a8bd bd49 35bd
00000140: 5fe1 f9bd a67f 1b3d 59e3 f9bd b90f 4d3c
00000150: 88e0 50bd b782 08bc 9899 66bd b1ef 2cbc
00000160: 4895 5e3d ed72 7f3d fa46 dd3d 9b86 c23d
00000170: eea0 e73a fe5f bd3b e020 00bd 1ea7 2bbe
00000180: 263a 5ebd 0f80 e33d d92a debc 85f6 8e3e
00000190: 0245 61bd 1a3a c7bc c94d 3e3d 1e74 123d
000001a0: f42b d1bd 4d71 a63c 5139 63bd b1e4 c7bd
000001b0: 2690 7b3c 22dd 053e fa65 9aba 6309 7a3d
000001c0: 2076 b93d 9c76 dcbd 039c 313c 146d 26be
000001d0: 5065 7fbd 096e 093d 38c7 65bd 9cb1 e9bd
000001e0: 5267 5cbb 613d 27be ad00 123e 8f4f 493e
000001f0: f4ea b33d 3c44 73bd 0f07 153e 0f55 b9bc
00000200: ea4c 27bc e75d 80bc bd22 0ebc 343f bdbd
00000210: e8fb cb3d 3178 703d 2a2d a7bd 1f75 2cbe
00000220: 2ab5 d4bd b420 b9bd 7b67 033c 1ab9 2b3d
00000230: 96eb 0bbc 3795 033d 7cbb 18be fab0 063d
00000240: 25b1 a13c f6f9 6ebd 1046 c43d 8ab8 0d3e
00000250: e62f 9f3d e019 8abd 5e17 993b ba30 0f3d
00000260: a89f 483e 9957 a7bc b67e 76bc c8f6 af3d
00000270: a3f1 dcbd d6ef de3d 4066 b93d 3cc0 0b3c
00000280: c151 a6bc add9 11bd 9510 2b3b abbc db3c
00000290: b873 b03c 2fd8 a2bc 3493 0a3e 14de 1b3e
000002a0: 85c4 b1bd 7997 57be 383d b5bd f47a 873e
000002b0: 27fd a53c adae 3e3d 728d d3bd 15d1 2abd
000002c0: 50e9 a03d bf72 863d 4774 63bc 1f0b fc3d
000002d0: 0eef 80bd 2e00 a93d 1f7f 813d f7b6 a33d
000002e0: 9c12 3f3d b3ae 183e a3df aa3c b579 7dbc
000002f0: be32 913d 71e4 e53d cad0 aabd abbc 2cbb
00000300: f135 85bd 1f1f dcbd cb7d edbd 5433 30bd
00000310: 1481 a6bd 0420 a3bb e69d 443e 90e8 83bd
00000320: ad74 c8bd ffc5 dc3d a998 babd b366 283e
00000330: efc8 25be c59d 2e3d 921c 06be e42d 4b3d
00000340: 11d5 963d fb32 e9bd 3bcd a6bc 4da1 41be
00000350: df78 b8bd 9614 3cbd cf19 9e3d 0ce2 9a3d
00000360: 2ce0 d73d 2cb1 5c39 77b4 1fbe 4fd6 34be
00000370: b32c 34bd 3ad0 083e a38c 1ebe 9ef4 bdbd
00000380: e49f 17be cac2 293a f3ef 883c 255f ce3d
00000390: 05df 06be 4848 a43d 908b 053d f4f9 103d
000003a0: 1841 23bd ef17 a63d a7bc 36bd 70ef 5c3c
000003b0: f2c6 a2bd 65f5 8b3d 0736 ce3c 4118 64bd
000003c0: 47f5 0bbe e015 383d 3f0a 37bd 07f1 d43d
000003d0: 9329 84bd a327 a33d c711 9f3d 03bf 17bd
000003e0: 0e0e 1cbd 501c 303d 049f 643d 9d59 03bc
000003f0: fd68 cd3d d234 79bd fd24 2abe cdb8 09bd
0.025433334 0.112066224 -0.09993266 0.048141856 0.050310846 0.030749291 -0.15165816 0.12153774
0.031128434 -0.11132339 0.10193566 0.080556996 0.025556287 -0.03430533 -0.0027883719 -0.043055374
0.06101329 0.17541826 -0.14939973 -0.11369916 -0.10131863 0.009575232 -0.005035247 -0.13238895
0.06749772 -0.007190434 0.053472653 -0.00856744 0.03959667 0.109464265 -0.1117357 0.024199814
0.047679797 -0.032159235 0.0007550583 -0.06651968 0.057441045 0.050146304 -0.11483072 0.07011824
-0.15908816 0.10320082 0.22684434 -0.02138383 -0.052011903 0.0163194 0.06050335 -0.07274731
-0.019424697 0.05928592 -0.108677976 -0.005322983 -0.04896251 -0.027513362 -0.19987875 0.0771175
-0.012896742 0.048111465 0.03037868 0.01341059 0.006244199 -0.030155359 0.013906968 0.015969109
-0.08454082 -0.029396605 -0.23282197 0.0022513156 -0.010982873 -0.017645279 -0.037013005 0.07563107
0.15455927 -0.09528877 -0.0814921 -0.13782926 0.073523656 0.07885102 -0.082126975 -0.044259775
-0.12201189 0.037963532 -0.12201566 0.012515956 -0.05099538 -0.008331946 -0.056298822 -0.010555194
0.054341584 0.06236546 0.10804553 0.0949833 0.0017671862 0.0057792654 -0.031281352 -0.16762969
-0.054254673 0.111084096 -0.02712004 0.27922454 -0.05499745 -0.024319697 0.0464609 0.03575527
-0.102134615 0.020317698 -0.055474583 -0.09760416 0.015354192 0.13072637 -0.0011779659 0.061044108
0.09055734 -0.107648104 0.010840419 -0.16252548 -0.06235248 0.033552203 -0.056098193 -0.114108294
-0.003363092 -0.16332008 0.1425807 0.19659255 0.08785048 -0.059391245 0.14553474 -0.022623567
-0.010211209 -0.015669776 -0.008675274 -0.09240571 0.09960157 0.058708373 -0.08162911 -0.16841553
-0.10386117 -0.09039441 0.008020277 0.041924573 -0.008540055 0.032124724 -0.1491527 0.03288362
0.01973779 -0.05834385 0.09583676 0.13839927 0.07772808 -0.067432165 0.004671975 0.03495858
0.19592154 -0.020427512 -0.015044859 0.08591992 -0.10788276 0.10885589 0.09052706 0.008529719
-0.020302655 -0.035607982 0.0026102413 0.026823362 0.021539554 -0.019878475 0.13532716 0.15221435
-0.08680061 -0.21053876 -0.08849567 0.26460993 0.020262314 0.046553303 -0.10329713 -0.041703302
0.07857001 0.06564855 -0.013882703 0.12306809 -0.06295596 0.082519874 0.063230745 0.07993882
0.046648607 0.14910392 0.020858591 -0.015470912 0.070897564 0.11225212 -0.083406046 -0.0026357572
-0.06504429 -0.107481234 -0.11596259 -0.0430177 -0.081300884 -0.004978182 0.19200858 -0.06440842
-0.09787879 0.10779952 -0.09111149 0.16445427 -0.16189931 0.04263093 -0.13096836 0.04960431
0.07364858 -0.11386677 -0.020361533 -0.18909188 -0.09007429 -0.04591807 0.07719766 0.07562646
0.10540804 0.00021046837 -0.15596186 -0.17659877 -0.04398794 0.13360682 -0.15483336 -0.09275173
-0.14807087 0.0006475864 0.01671598 0.10076741 -0.13171013 0.08021599 0.0326038 0.035394624
-0.039857 0.08110034 -0.044613507 0.013484821 -0.07948102 0.06833915 0.025172247 -0.055687193
-0.13667785 0.044942737 -0.044687506 0.10397535 -0.06453242 0.079665445 0.07767063 -0.037047397
-0.03809934 0.04299575 0.05581571 -0.008016971 0.100297906 -0.06084139 -0.16615672 -0.033623505
