results/PruebaCircuitoCompleto/AgenteCoche/AgenteCoche-3477.pt (torch, 258959 bytes, 18 tensors)

network_body._body_endoder.seq_layers.0.weight f4 [128, 29]
0	0xbe4a0ac1	-0.19730665
1	0xbf0e6ac2	-0.5563165
2	0x3de0f598	0.10984343
3	0xbdb5ed57	-0.088831596
4	0x3ecf4f8c	0.40490377
5	0xbd7ccf8c	-0.06172137
6	0xbe3f2e30	-0.18669963
7	0x3e91ee62	0.28502184
8	0x3e631bf5	0.22178634
9	0x3e8d197f	0.27558514
10	0xbdc8b770	-0.09800613
11	0x3e8bd5db	0.27311596
12	0xbe6b3b96	-0.22971949
13	0x3e407204	0.18793494
14	0x3e61a0be	0.22033975
15	0xbdee7404	-0.11643222
16	0xbc8c7ad6	-0.017148416
17	0x3d737e18	0.059446424
18	0x3e1b8f72	0.15191439
19	0xbdf2c4bb	-0.118539296
20	0x3ed4ad8e	0.41538662
21	0x3da98c34	0.08278695
22	0xbe01a423	-0.1266027
23	0xbd44231c	-0.047885045
24	0xbdd6ea3a	-0.10493894
25	0x3dd2a35b	0.10285064
26	0x3e3d3418	0.18476903
27	0x3d34542c	0.044025585
28	0xbeaa2ad8	-0.33235812
29	0x3ea33e92	0.31883675
30	0x3c414d9d	0.01179829
31	0xbe78b4de	-0.24287745
32	0xbe8d39ad	-0.27583066
33	0xbe30cf0a	-0.17266479
34	0xbdec49ff	-0.11537551
35	0xbe299e4c	-0.16564292
36	0xbd8ec7e6	-0.06971721
37	0x3d7acdac	0.0612313
38	0x3e481417	0.19538914
39	0x3b585058	0.0033006873
40	0x3e5cd9a8	0.21567404
41	0xbe8a012c	-0.2695402
42	0xbdb79bba	-0.08965249
43	0xbe0455c1	-0.12923338
44	0x3cc6e26f	0.024277894
45	0xbd028e1b	-0.031873804
46	0x3e9497db	0.29022107
47	0x3ec6d41a	0.38833696
48	0x3dd238a2	0.10264708
49	0xbe207dac	-0.1567294
50	0x3dfa7f8d	0.1223136
51	0x3d528caf	0.051403698
52	0xbd90ba1f	-0.0706675
53	0xbd41640c	-0.047214553
54	0xbe86a758	-0.26299548
55	0x3eb30e52	0.34971863
56	0xbe724583	-0.23659329
57	0xbd5e61b1	-0.054292385
58	0x3ebe5130	0.37171316
59	0x3cbfe6cf	0.023425488
60	0x3e8890f9	0.26673105
61	0xba96d2c7	-0.0011506908
62	0x3e6206ac	0.22072858
63	0x3cddc1ea	0.027070004
64	0x3d701fd7	0.058624115
65	0xbd08502c	-0.033279583
66	0x3e437e87	0.19091235
67	0xbd5330ab	-0.051560085
68	0x3e01a735	0.1266144
69	0x3e3178bc	0.17331213
70	0x3e21527d	0.15754123
71	0xbe9744c0	-0.2954464
72	0xbe0c2734	-0.1368683
73	0xbed6e1df	-0.419692
74	0xbe13ff13	-0.14452772
75	0x3dad0aae	0.084493026
76	0x3d851de9	0.064998455
77	0xbe5b05c3	-0.21388917
78	0xbeb2866b	-0.34868178
79	0xbeb2c1eb	-0.34913573
80	0x3e7fe8de	0.24991176
81	0x3e9f31b2	0.31092602
82	0xbd234076	-0.039856397
83	0xbeacfd26	-0.33786887
84	0xbe30141f	-0.17195176
85	0x3e87e84e	0.26544422
86	0xbe495b4f	-0.19663738
87	0x3df094ba	0.11747117
88	0xbc62ff3e	-0.0138548
89	0x3dd48fe2	0.10379006
90	0xbe4a2c44	-0.19743448
91	0xbc62b1cf	-0.013836338
92	0xbdf47102	-0.11935617
93	0xbe29e0ff	-0.16589735
94	0x3e8874f1	0.2665172
95	0x3e85d2f8	0.2613752
96	0x3dc7b1e4	0.09750727
97	0x3e0bbc31	0.13646008
98	0x3e41cefb	0.18926613
99	0x3dc26e45	0.094936885
100	0x3d141e56	0.036161743
101	0xbb80d830	-0.0039320216
102	0x3de52fac	0.11190733
103	0xbcb3a131	-0.021927448
104	0xbe97b3b6	-0.29629296
105	0x3e33af43	0.17547326
106	0x3c62f800	0.013853073
107	0xbe4d61cd	-0.2005684
108	0xbeb22a55	-0.34797922
109	0xbe87315e	-0.26404852
110	0x3da21216	0.07913606
111	0xbeb8cf98	-0.3609588
112	0xbeda26e1	-0.42607787
113	0x3da0e2cb	0.07855757
114	0x3ddf9b1d	0.109182574
115	0x3d8b8895	0.0681316
116	0xbe37d9ab	-0.17954127
117	0x3df264af	0.1183561
118	0x3d86bdf4	0.065791994
119	0x3d2a91bf	0.0416429
120	0xbe6fd8e8	-0.23422587
121	0xbe5c834e	-0.21534464
122	0xbdc8d2a6	-0.09805803
123	0x3e6a0118	0.2285198
124	0x3def1930	0.11674726
125	0x3c376c2c	0.011195224
126	0x3ccfa5cd	0.025347615
127	0x3e066fc5	0.13128574
128	0x3e109a80	0.14121437
129	0x3ce31817	0.027721448
130	0xbeac56ea	-0.3366006
131	0xbe58c750	-0.21169782
132	0x3d94f231	0.07272757
133	0x3edbd5d1	0.42936566
134	0x3d86e1fe	0.06586073
135	0x3e03fb45	0.1288882
136	0x3cdad458	0.026712582
137	0x3b31ad14	0.002711122
138	0x3e8580f9	0.2607496
139	0xbe1411ca	-0.14459911
140	0xbe035698	-0.12826002
141	0xbe1df244	-0.15424448
142	0x3ea5babe	0.32369035
143	0xbe81aec4	-0.25328648
144	0x3eb02924	0.34406388
145	0x3bd8423d	0.006599693
146	0x3ec90f14	0.39269316
147	0x3e2f8b1f	0.17142914
148	0x3ed4a16d	0.41529408
149	0xbcfb5484	-0.030679949
150	0xbb36d392	-0.0027897102
151	0x3cc3ba7e	0.023892637
152	0xbd342c8f	-0.043987807
153	0xbd9df9a2	-0.07713629
154	0xbe38b515	-0.18037827
155	0xbec9c4ce	-0.39407963
156	0xbdbcc41a	-0.09217091
157	0xbe6bc2c3	-0.23023514
158	0xbe0b8606	-0.13625345
159	0xbe0dc4a6	-0.13844547
160	0x3eac00ae	0.3359427
161	0xbde9a404	-0.114082366
162	0x3e07828f	0.13233398
163	0xbe810a5e	-0.25203222
164	0xbd99d512	-0.07511343
165	0xbe31e822	-0.17373708
166	0xbdf72d0b	-0.12069138
167	0x3d1c4e18	0.038160414
168	0x3f0ba205	0.545441
169	0x3dad146d	0.084511615
170	0xbe429db6	-0.19005474
171	0x3dc5a1db	0.09650012
172	0x3d064cf6	0.03278824
173	0xbcb58135	-0.022156337
174	0x3daab5c1	0.08335448
175	0x3e211d4f	0.15733837
176	0xbd00828f	-0.03137451
177	0xbd75e763	-0.06003512
178	0xbe711c82	-0.23546031
179	0x3e8ab415	0.27090517
180	0x3e8a18be	0.26972002
181	0x3e8c1173	0.27357063
182	0xbe0c799a	-0.13718262
183	0xbe6e0428	-0.23243773
184	0x3dfa38b5	0.12217847
185	0xbe32ea6b	-0.17472236
186	0xbdd2c353	-0.102911614
187	0xbea220db	-0.31665692
188	0x3e8125b8	0.2522409
189	0xbdd6f902	-0.10496713
190	0x3e797652	0.24361542
191	0xbebf45f6	-0.37358063
192	0xbde7ba27	-0.113148026
193	0x3ed13f62	0.4086867
194	0xbe120c2a	-0.14262453
195	0xbe4dae55	-0.20086034
196	0xbd5fd39f	-0.054645177
197	0x3e916934	0.28400576
198	0xbc136e64	-0.008998487
199	0xbe75881a	-0.239777
200	0x3f0031dd	0.50076085
201	0xbcea05ab	-0.028567156
202	0xbd998991	-0.07496942
203	0x3e6a9e2a	0.22911897
204	0xbdb25216	-0.08707063
205	0x3dd7aa0b	0.1053048
206	0xbe1da3aa	-0.15394464
207	0x3dad3297	0.08456915
208	0xbcf44c05	-0.029821405
209	0xb83e6d9b	-4.5401608e-05
210	0x3d13350a	0.035939254
211	0xbdcca1cf	-0.099918
212	0xbea6ef68	-0.32604527
213	0xbca9225c	-0.020646267
214	0x3e2abda0	0.16673899
215	0xbec6f4be	-0.38858598
216	0x3e351524	0.17683846
217	0x3e8dfc56	0.2773158
218	0x3eeb63b3	0.45974502
219	0xbdd5f6fd	-0.104475
220	0x3dee1ad3	0.1162621
221	0x3e32521f	0.17414139
222	0xbdbe9abd	-0.09306858
223	0xbeaaf2bc	-0.33388317
224	0xbe2b0dd6	-0.16704497
225	0xbf021690	-0.5081568
226	0x3e5e043e	0.21681306
227	0xbe16ac0a	-0.14714065
228	0x3e9ae734	0.3025452
229	0xbe0132ce	-0.12617037
230	0x3c8ba993	0.017048633
231	0x3e4746e8	0.19460642
232	0x3e2e1767	0.17001115
233	0xbdb6f6e4	-0.089338094
234	0x3e2084ee	0.15675709
235	0xbcb99c08	-0.02265741
236	0x3eac8814	0.3369757
237	0xbe0f3efe	-0.13988873
238	0x3d5c95b5	0.05385371
239	0x3e6d27d3	0.23159723
240	0xbd6eb780	-0.058280468
241	0xbe392c83	-0.18083386
242	0x3c816ac8	0.015797988
243	0x3df3fc8d	0.119134046
244	0x3ec77a61	0.38960555
245	0xbd43cc46	-0.047802232
246	0xbecf53dd	-0.4049367
247	0x3e9f6d0c	0.31137884
248	0x3ee52d15	0.44760957
249	0x3d8a7dce	0.067622766
250	0xbdad39d2	-0.08458294
251	0xbe217691	-0.15767886
252	0xbd88f6a6	-0.066876695
253	0x3e83cb3e	0.25741
254	0x3e6d1c1c	0.23155254
255	0x3d899717	0.06718271

network_body._body_endoder.seq_layers.0.bias f4 [128]
0	0x00000000	0.0
1	0x00000000	0.0
2	0x00000000	0.0
3	0x00000000	0.0
4	0x00000000	0.0
5	0x00000000	0.0
6	0x00000000	0.0
7	0x00000000	0.0
8	0x00000000	0.0
9	0x00000000	0.0
10	0x00000000	0.0
11	0x00000000	0.0
12	0x00000000	0.0
13	0x00000000	0.0
14	0x00000000	0.0
15	0x00000000	0.0
16	0x00000000	0.0
17	0x00000000	0.0
18	0x00000000	0.0
19	0x00000000	0.0
20	0x00000000	0.0
21	0x00000000	0.0
22	0x00000000	0.0
23	0x00000000	0.0
24	0x00000000	0.0
25	0x00000000	0.0
26	0x00000000	0.0
27	0x00000000	0.0
28	0x00000000	0.0
29	0x00000000	0.0
30	0x00000000	0.0
31	0x00000000	0.0
32	0x00000000	0.0
33	0x00000000	0.0
34	0x00000000	0.0
35	0x00000000	0.0
36	0x00000000	0.0
37	0x00000000	0.0
38	0x00000000	0.0
39	0x00000000	0.0
40	0x00000000	0.0
41	0x00000000	0.0
42	0x00000000	0.0
43	0x00000000	0.0
44	0x00000000	0.0
45	0x00000000	0.0
46	0x00000000	0.0
47	0x00000000	0.0
48	0x00000000	0.0
49	0x00000000	0.0
50	0x00000000	0.0
51	0x00000000	0.0
52	0x00000000	0.0
53	0x00000000	0.0
54	0x00000000	0.0
55	0x00000000	0.0
56	0x00000000	0.0
57	0x00000000	0.0
58	0x00000000	0.0
59	0x00000000	0.0
60	0x00000000	0.0
61	0x00000000	0.0
62	0x00000000	0.0
63	0x00000000	0.0
64	0x00000000	0.0
65	0x00000000	0.0
66	0x00000000	0.0
67	0x00000000	0.0
68	0x00000000	0.0
69	0x00000000	0.0
70	0x00000000	0.0
71	0x00000000	0.0
72	0x00000000	0.0
73	0x00000000	0.0
74	0x00000000	0.0
75	0x00000000	0.0
76	0x00000000	0.0
77	0x00000000	0.0
78	0x00000000	0.0
79	0x00000000	0.0
80	0x00000000	0.0
81	0x00000000	0.0
82	0x00000000	0.0
83	0x00000000	0.0
84	0x00000000	0.0
85	0x00000000	0.0
86	0x00000000	0.0
87	0x00000000	0.0
88	0x00000000	0.0
89	0x00000000	0.0
90	0x00000000	0.0
91	0x00000000	0.0
92	0x00000000	0.0
93	0x00000000	0.0
94	0x00000000	0.0
95	0x00000000	0.0
96	0x00000000	0.0
97	0x00000000	0.0
98	0x00000000	0.0
99	0x00000000	0.0
100	0x00000000	0.0
101	0x00000000	0.0
102	0x00000000	0.0
103	0x00000000	0.0
104	0x00000000	0.0
105	0x00000000	0.0
106	0x00000000	0.0
107	0x00000000	0.0
108	0x00000000	0.0
109	0x00000000	0.0
110	0x00000000	0.0
111	0x00000000	0.0
112	0x00000000	0.0
113	0x00000000	0.0
114	0x00000000	0.0
115	0x00000000	0.0
116	0x00000000	0.0
117	0x00000000	0.0
118	0x00000000	0.0
119	0x00000000	0.0
120	0x00000000	0.0
121	0x00000000	0.0
122	0x00000000	0.0
123	0x00000000	0.0
124	0x00000000	0.0
125	0x00000000	0.0
126	0x00000000	0.0
127	0x00000000	0.0

network_body._body_endoder.seq_layers.2.weight f4 [128, 128]
0	0x3d69b626	0.057058476
1	0xbd03ffd7	-0.03222641
2	0x3e7aa6ee	0.24477741
3	0xbdecae96	-0.11556737
4	0xbcd667bd	-0.026172513
5	0x3d13552b	0.035969894
6	0xbdc00cfd	-0.09377477
7	0x3de2d0ec	0.11075005
8	0x3dc8acb0	0.097985625
9	0xbc1bad6e	-0.009501798
10	0x3e445a11	0.19174983
11	0x3d937365	0.07199744
12	0xbdc6b658	-0.09702748
13	0x3dae2b0b	0.085043035
14	0xbda2aa91	-0.07942689
15	0x3d984d77	0.0743665
16	0xbcd6dc69	-0.026228147
17	0xbd53d792	-0.051719256
18	0x3e010c23	0.12602286
19	0xbcc60fb7	-0.024177415
20	0x3d5f4b2e	0.054515056
21	0xbdf84cde	-0.12124036
22	0xbe11625e	-0.1419768
23	0x3d845f76	0.0646352
24	0xbda8abce	-0.08235894
25	0xbda62c3d	-0.081139065
26	0x3dc340fe	0.09533881
27	0x3de95ae8	0.11394292
28	0xbe4e7188	-0.20160496
29	0xbda84b0d	-0.0821744
30	0xbdd88a34	-0.10573235
31	0xbde7e3e9	-0.11322767
32	0xbe0a1ec2	-0.13488296
33	0x3df0ef7b	0.11764427
34	0xbdc38578	-0.095469415
35	0xbdb0e723	-0.08637836
36	0xbc008946	-0.007845229
37	0x3c3b4272	0.011429416
38	0xbdfc3227	-0.12314253
39	0x3d4e842d	0.05041902
40	0xbd3a5031	-0.045486633
41	0x3e27001f	0.1630864
42	0xbd66efdf	-0.056381103
43	0x3ce2bb13	0.027677095
44	0xbd66873e	-0.05628132
45	0x3d7461f3	0.059663724
46	0x3c429ad4	0.011877734
47	0xbe4222f2	-0.18958643
48	0xbd3e64fe	-0.046483032
49	0xbd7806b2	-0.06055326
50	0x3dc931de	0.098239645
51	0x3e3535da	0.17696324
52	0xbd143e3f	-0.036192175
53	0xbd9f3dcd	-0.077754594
54	0x3df6c9f5	0.12050239
55	0xbde4e629	-0.11176712
56	0x3bfef459	0.0077805934
57	0x3c10190e	0.008795036
58	0x3dbc0471	0.09180535
59	0xbd4d8754	-0.050177887
60	0x3d9aa05b	0.07550117
61	0xbdf047eb	-0.11732467
62	0x3c1e59af	0.009664937
63	0xbdcd161a	-0.10013981
64	0x3da21e46	0.079159304
65	0xbe4907a5	-0.19631822
66	0xbc88aec7	-0.016684903
67	0x3aa2e4b7	0.0012427781
68	0xbcfb5019	-0.030677842
69	0x3e2b6b1e	0.1674008
70	0xbcc7ceb9	-0.024390565
71	0x3daf522a	0.085605934
72	0xbe1bb82c	-0.15206975
73	0x3c51857d	0.012788174
74	0x3d8e45d4	0.069469124
75	0xbe1acf8a	-0.15118232
76	0xbdb32ebd	-0.08749149
77	0x3d9269d5	0.07149092
78	0x3dca6738	0.09882969
79	0xbaef272c	-0.0018245927
80	0xbcc4ea6c	-0.024037562
81	0x3bedd891	0.0072584827
82	0x3d5d1ac4	0.053980604
83	0x3da45e6c	0.08025822
84	0x3d12e843	0.035866033
85	0xbcfcb29b	-0.030846884
86	0xbc270e41	-0.0101962695
87	0x3c4f3b23	0.012648377
88	0x3d2fce25	0.042921204
89	0x3cbc1159	0.02295749
90	0x3d406886	0.04697468
91	0xbd59d8bd	-0.053185213
92	0x3d93217c	0.07184121
93	0x3d7d5cad	0.06185596
94	0x3dfcff1d	0.123533465
95	0xbdcbf4b7	-0.09958785
96	0xbd6851e3	-0.05671872
97	0x3ce136f5	0.027492026
98	0x3abf4a30	0.0014594253
99	0xbdac4733	-0.08412018
100	0xbca18127	-0.019714905
101	0x3d2005a9	0.039067898
102	0x3d0e5fce	0.034759335
103	0xbc1ae343	-0.0094535975
104	0xbcc57132	-0.024101827
105	0xbdc5b593	-0.09653773
106	0xbddb13af	-0.10697114
107	0xbd2ca5f0	-0.042150438
108	0x3e2d5746	0.16927823
109	0x3d9327da	0.071853355
110	0x3d476a1f	0.04868519
111	0xbd0109f9	-0.03150365
112	0x3c91b4c7	0.017786397
113	0xbb225870	-0.002477195
114	0xbb9629a2	-0.0045825997
115	0xbd9b2672	-0.07575692
116	0xbda2cf23	-0.079496644
117	0x3d92159f	0.0713303
118	0x3d29f34a	0.041491784
119	0xbda63216	-0.08115022
120	0x3e207ccc	0.15672606
121	0x3de3b476	0.111184046
122	0xbd841fcc	-0.06451377
123	0x3d704597	0.058660116
124	0x3e109e09	0.14122786
125	0xbdd42405	-0.10358433
126	0xbd8e5f23	-0.0695174
127	0xbe166a87	-0.14689074
128	0xbd23c84a	-0.039985932
129	0x3d9d55bc	0.07682368
130	0x3cfdf385	0.030999908
131	0x3e1a1be4	0.15049702
132	0xbdb7b7c7	-0.089705996
133	0x3cbfa1a4	0.023392506
134	0xbd42a3fe	-0.047519676
135	0x3d529fd4	0.051421955
136	0x3e1c7485	0.15278824
137	0xbc32e2a7	-0.010918296
138	0x3d4c2d3a	0.04984782
139	0x3d128290	0.035769045
140	0xbd8eacf3	-0.06966581
141	0xbd7f551f	-0.062337037
142	0x3c4c8372	0.012482511
143	0xbafe4833	-0.0019400179
144	0x3dc24c3e	0.09487198
145	0xbe519b52	-0.20469406
146	0xbdf434d4	-0.11924139
147	0x3e0bbec6	0.13646993
148	0xbc326450	-0.010888174
149	0x3d99eade	0.075155005
150	0xbc7c7ea8	-0.015411057
151	0xbcf9fdfc	-0.030516617
152	0xbcc0530b	-0.023477098
153	0xbdd91d22	-0.1060126
154	0xbd028961	-0.031869296
155	0x3e0ee52f	0.13954614
156	0xbd87d194	-0.06631771
157	0x3d08e3c1	0.033420328
158	0xbc54f124	-0.0129969455
159	0x3e225252	0.15851715
160	0xbde66d2b	-0.11251291
161	0xbd94af77	-0.0726003
162	0x3d980c93	0.07424273
163	0x3c065649	0.008199283
164	0x3caba5a5	0.020953009
165	0x3d8673f9	0.06565089
166	0xbbea1165	-0.007143187
167	0xbdae4c2c	-0.085106224
168	0x3c9ac926	0.018894743
169	0xbc1ece73	-0.009692776
170	0xbdab107a	-0.08352752
171	0xbdb096f0	-0.08622539
172	0xbd3d839b	-0.046268087
173	0x3c2db3db	0.010601963
174	0x3cdef99a	0.027218629
175	0x3c89be89	0.016814487
176	0xbe74f0cb	-0.2391998
177	0x3de0c722	0.109754816
178	0x3e056240	0.1302576
179	0x3d21b37c	0.03947781
180	0xbd52a3ff	-0.05142593
181	0xbdd33a6c	-0.103138775
182	0xbbb2ad8b	-0.005452817
183	0x3ddb8fc9	0.10720784
184	0xbd936594	-0.07197109
185	0x3d913e68	0.07091981
186	0x3dcbb8fb	0.099473916
187	0xbd03fb92	-0.032222338
188	0xbded1e15	-0.11578003
189	0x3df88ec1	0.12136603
190	0x3de5cb65	0.11220435
191	0xbdc4c8ce	-0.09608613
192	0x3c3603bf	0.011109292
193	0xbdf3f7b1	-0.11912478
194	0x3ca0df21	0.019637646
195	0x3d1b2037	0.03787252
196	0xbdd4539a	-0.10367508
197	0xbdba2325	-0.090887345
198	0x3d8f3c1f	0.06993889
199	0x3d66df39	0.056365225
200	0xbd71b539	-0.059010718
201	0xbd63880b	-0.055549663
202	0xbddede97	-0.108822994
203	0xbe220bba	-0.15824786
204	0x3db3c82f	0.08778416
205	0xbdf57b83	-0.119864486
206	0x3d0ca416	0.034336172
207	0xbda014e9	-0.07816488
208	0x3d010f93	0.031508993
209	0xbd7839fa	-0.060602166
210	0x3e1c5138	0.15265357
211	0xbdd0d640	-0.10197115
212	0xbd49152f	-0.049092468
213	0x3bf7fdba	0.0075680884
214	0xbd4d1ddf	-0.050077315
215	0xbe3db045	-0.18524273
216	0xbd78aa04	-0.060709015
217	0xbc997601	-0.018733026
218	0x3bb63660	0.005560681
219	0x3d9dc50e	0.07703601
220	0xbc056ec9	-0.008144089
221	0xbe230761	-0.15920784
222	0xbd1712aa	-0.036883034
223	0x3e08960a	0.13338485
224	0x3df298ac	0.11845526
225	0x39e5fe68	0.0004386783
226	0xbe0555ab	-0.13020961
227	0x3c9c32df	0.019067226
228	0x3d9de3e2	0.07709481
229	0x3cd6cb68	0.026220039
230	0xbe004264	-0.12525326
231	0xbd925870	-0.07145774
232	0x3818c343	3.6421476e-05
233	0x3e09312c	0.13397664
234	0x3cfe5edc	0.031051092
235	0x3d03e621	0.03220189
236	0x3dbf4334	0.0933899
237	0xbe4386f3	-0.19094448
238	0xbcb1e42b	-0.021715244
239	0x3d9ab319	0.075536914
240	0xbdd0569a	-0.10172768
241	0x3cf60a52	0.030034218
242	0xbe60e8ce	-0.21963808
243	0xbdb44ae1	-0.088033445
244	0x3d0625df	0.03275096
245	0xbcd640e0	-0.026153982
246	0x3ce3eaf3	0.027821993
247	0x3df46973	0.11934175
248	0xbd81c538	-0.063364446
249	0xbe0cf75b	-0.13766234
250	0xbe0aab57	-0.13541923
251	0x3c927a77	0.017880661
252	0xbd2930b0	-0.041306198
253	0xbcfb92ca	-0.030709643
254	0xbdb95de0	-0.09051108
255	0xbd8119fa	-0.06303783

network_body._body_endoder.seq_layers.2.bias f4 [128]
0	0x00000000	0.0
1	0x00000000	0.0
2	0x00000000	0.0
3	0x00000000	0.0
4	0x00000000	0.0
5	0x00000000	0.0
6	0x00000000	0.0
7	0x00000000	0.0
8	0x00000000	0.0
9	0x00000000	0.0
10	0x00000000	0.0
11	0x00000000	0.0
12	0x00000000	0.0
13	0x00000000	0.0
14	0x00000000	0.0
15	0x00000000	0.0
16	0x00000000	0.0
17	0x00000000	0.0
18	0x00000000	0.0
19	0x00000000	0.0
20	0x00000000	0.0
21	0x00000000	0.0
22	0x00000000	0.0
23	0x00000000	0.0
24	0x00000000	0.0
25	0x00000000	0.0
26	0x00000000	0.0
27	0x00000000	0.0
28	0x00000000	0.0
29	0x00000000	0.0
30	0x00000000	0.0
31	0x00000000	0.0
32	0x00000000	0.0
33	0x00000000	0.0
34	0x00000000	0.0
35	0x00000000	0.0
36	0x00000000	0.0
37	0x00000000	0.0
38	0x00000000	0.0
39	0x00000000	0.0
40	0x00000000	0.0
41	0x00000000	0.0
42	0x00000000	0.0
43	0x00000000	0.0
44	0x00000000	0.0
45	0x00000000	0.0
46	0x00000000	0.0
47	0x00000000	0.0
48	0x00000000	0.0
49	0x00000000	0.0
50	0x00000000	0.0
51	0x00000000	0.0
52	0x00000000	0.0
53	0x00000000	0.0
54	0x00000000	0.0
55	0x00000000	0.0
56	0x00000000	0.0
57	0x00000000	0.0
58	0x00000000	0.0
59	0x00000000	0.0
60	0x00000000	0.0
61	0x00000000	0.0
62	0x00000000	0.0
63	0x00000000	0.0
64	0x00000000	0.0
65	0x00000000	0.0
66	0x00000000	0.0
67	0x00000000	0.0
68	0x00000000	0.0
69	0x00000000	0.0
70	0x00000000	0.0
71	0x00000000	0.0
72	0x00000000	0.0
73	0x00000000	0.0
74	0x00000000	0.0
75	0x00000000	0.0
76	0x00000000	0.0
77	0x00000000	0.0
78	0x00000000	0.0
79	0x00000000	0.0
80	0x00000000	0.0
81	0x00000000	0.0
82	0x00000000	0.0
83	0x00000000	0.0
84	0x00000000	0.0
85	0x00000000	0.0
86	0x00000000	0.0
87	0x00000000	0.0
88	0x00000000	0.0
89	0x00000000	0.0
90	0x00000000	0.0
91	0x00000000	0.0
92	0x00000000	0.0
93	0x00000000	0.0
94	0x00000000	0.0
95	0x00000000	0.0
96	0x00000000	0.0
97	0x00000000	0.0
98	0x00000000	0.0
99	0x00000000	0.0
100	0x00000000	0.0
101	0x00000000	0.0
102	0x00000000	0.0
103	0x00000000	0.0
104	0x00000000	0.0
105	0x00000000	0.0
106	0x00000000	0.0
107	0x00000000	0.0
108	0x00000000	0.0
109	0x00000000	0.0
110	0x00000000	0.0
111	0x00000000	0.0
112	0x00000000	0.0
113	0x00000000	0.0
114	0x00000000	0.0
115	0x00000000	0.0
116	0x00000000	0.0
117	0x00000000	0.0
118	0x00000000	0.0
119	0x00000000	0.0
120	0x00000000	0.0
121	0x00000000	0.0
122	0x00000000	0.0
123	0x00000000	0.0
124	0x00000000	0.0
125	0x00000000	0.0
126	0x00000000	0.0
127	0x00000000	0.0

action_model._continuous_distribution.log_sigma f4 [1, 2]
0	0x00000000	0.0
1	0x00000000	0.0

action_model._continuous_distribution.mu.weight f4 [2, 128]
0	0x3c7b80d3	0.015350538
1	0x3c49b298	0.0123106465
2	0xbcadd6d3	-0.0212206
3	0x3d0adb0f	0.033900317
4	0xbd384fdc	-0.044998035
5	0x3ccf53cd	0.025308514
6	0xbc159128	-0.009128846
7	0xbc1b204f	-0.009468152
8	0x3b7f5070	0.0038957857
9	0xbcbf3aa9	-0.023343401
10	0x3c80e83a	0.015735734
11	0x3cdf8c05	0.027288446
12	0xbc092d5e	-0.008372633
13	0xbc525a0b	-0.012838851
14	0x3cc5d473	0.024149155
15	0x3b70036f	0.003662314
16	0xbd28afdf	-0.04118335
17	0xb9212ac2	-0.00015370085
18	0xba197a42	-0.00058547047
19	0xbbd00f17	-0.006349455
20	0x3a184873	0.00058091356
21	0xbc41cc72	-0.011828529
22	0x3beeb2db	0.007284505
23	0x3c641eff	0.013923406
24	0x3cdba612	0.026812587
25	0xbc18c095	-0.009323259
26	0x3cf7e18a	0.030258913
27	0xbbe8060d	-0.0070807994
28	0xbcb898af	-0.022533743
29	0xbc84c83d	-0.016208762
30	0xbc4c51ca	-0.012470672
31	0xbc97435c	-0.018464737
32	0x3c8d3ef7	0.017241938
33	0xbc7a7b4b	-0.015288184
34	0x3c82a9e0	0.015950143
35	0xbcb26c7b	-0.021780243
36	0xbc858df6	-0.016303044
37	0xbc6d8153	-0.014496165
38	0xbc5e06d0	-0.013551429
39	0xbb56642d	-0.0032713518
40	0x3c340baf	0.010989114
41	0x3c5a4955	0.013323148
42	0xbc30fd95	-0.010802646
43	0x3c6f3517	0.01460006
44	0xbc1d7748	-0.009610958
45	0x3bef5cb3	0.007304752
46	0xbca7be6c	-0.020476542
47	0x3d817604	0.06321338
48	0xbd2d1743	-0.042258512
49	0x3b895e18	0.004192125
50	0xbd173b15	-0.03692158
51	0xbd2515a4	-0.04030384
52	0xbc8f52de	-0.017495569
53	0xbc2ca63d	-0.010537681
54	0xbc98f067	-0.01866932
55	0x3cfee223	0.03111369
56	0x3cba13a5	0.022714445
57	0xbba7b403	-0.0051178946
58	0x3ce27937	0.02764569
59	0xbc3dc96f	-0.01158367
60	0xbc935ce2	-0.017988626
61	0x3c4070cf	0.011745646
62	0x3ccb9824	0.02485282
63	0xbc259049	-0.010105201
64	0x3c483e34	0.012221862
65	0xbd2ebd49	-0.042660985
66	0xbb3f0b90	-0.002915118
67	0xbc5b5e60	-0.0133892
68	0x3b22e9fb	0.0024858702
69	0x3c7891e0	0.015171498
70	0xbc8c872b	-0.017154297
71	0xbcfb8208	-0.030701652
72	0x3cffc438	0.031221494
73	0xbc44f6ae	-0.012021704
74	0xbb9ebe0d	-0.004844433
75	0x3c163f48	0.009170361
76	0xbcc0518f	-0.02347639
77	0x3c927a50	0.017880589
78	0xbc25f6b3	-0.010129618
79	0x3bf0ede5	0.007352578
80	0xbce4d2ca	-0.027932543
81	0xbbe1d0c0	-0.00689134
82	0x3c73782d	0.014860195
83	0x3c47cb6b	0.012194495
84	0xbabe1fd6	-0.0014505337
85	0xbbc22a75	-0.0059254714
86	0x3bcbeb12	0.006223091
87	0x3ba76088	0.005107943
88	0xbbd7c475	-0.006584699
89	0x3cfefddd	0.03112691
90	0xbc69d417	-0.014271758
91	0xbc69518d	-0.014240635
92	0xbc897a57	-0.016781969
93	0xbc3095ff	-0.010777949
94	0x3cbc1fe7	0.022964431
95	0xbca0a49c	-0.019609742
96	0x3cb4a597	0.022051616
97	0xbc4fca62	-0.012682529
98	0xbd6e1c87	-0.058132675
99	0xbaa8ad93	-0.0012869112
100	0x3c8fa44b	0.017534396
101	0x3b3c3fe0	0.0028724596
102	0xbd0e23b6	-0.034702025
103	0xbbd1a392	-0.006397673
104	0x3c5cb65d	0.013471213
105	0xbc9bb09b	-0.01900511
106	0x3bb3571d	0.005473031
107	0xbb39d529	-0.0028355813
108	0xbc70e933	-0.0147040365
109	0x3bc4c1bf	0.0060045416
110	0xba9e0ce3	-0.0012058284
111	0xbc40e76f	-0.011773928
112	0xbd0af25b	-0.033922534
113	0xbb6ff9e7	-0.003661746
114	0xbc9b3643	-0.018946772
115	0x3ca3cd7f	0.01999545
116	0x3d072888	0.032997638
117	0xbc19a387	-0.009377367
118	0x3c29d1bf	0.010364949
119	0x3caf5823	0.021404332
120	0x3c63fb73	0.013914931
121	0x3ca37eff	0.019958017
122	0x3c75db62	0.015005918
123	0x3c63d907	0.013906724
124	0x3cbbbbf7	0.022916777
125	0x3c2e0099	0.01062026
126	0x3b5d368b	0.0033754434
127	0x3cb4e073	0.022079682
128	0xbc2d7a8f	-0.010588302
129	0xbcf6a75d	-0.030109102
130	0xbb52237a	-0.0032064603
131	0xbd2e52a4	-0.04255928
132	0x3c281ca0	0.010260731
133	0xbcb1f8be	-0.021725055
134	0xbb651c28	-0.003495941
135	0xbbfd00d5	-0.0077210465
136	0x3cb3222a	0.021866877
137	0xbc8ad193	-0.016945636
138	0xbcc1c54e	-0.023653653
139	0x3bc1349d	0.0058961646
140	0xbc71f002	-0.014766695
141	0x3d0e9306	0.03480818
142	0x3c986b5c	0.01860588
143	0xbc603ef0	-0.0136868805
144	0x3c6df93f	0.014524757
145	0xbcb5fbe3	-0.022214836
146	0x3b381f34	0.002809477
147	0x3cbb94f6	0.022898179
148	0xba482ace	-0.0007635773
149	0xbc3933b2	-0.011303829
150	0x3c9df483	0.019281631
151	0x3cf0251f	0.029314576
152	0xbca11b54	-0.019666351
153	0xbc364657	-0.011125169
154	0x3cd67d32	0.026182745
155	0x3cba53c4	0.02274502
156	0x3c568e57	0.01309546
157	0x3c4a1e71	0.012336359
158	0x3cd32e08	0.025778785
159	0x3ce50daa	0.027960617
160	0xbc8ff37f	-0.017572163
161	0x3d2ca5ec	0.042150423
162	0xbcbca38f	-0.02302721
163	0xbc79e94a	-0.015253374
164	0xbc8b4ff9	-0.017005907
165	0xbbc79709	-0.006091003
166	0xbc66e590	-0.014092818
167	0x3c0ff02f	0.008785292
168	0x3caee375	0.021348694
169	0xbcebb6bb	-0.028773656
170	0xbc60b397	-0.013714693
171	0x3cd7e17d	0.026352638
172	0x3d0a8260	0.03381574
173	0xbc7ad03b	-0.015308435
174	0x3cdfd55b	0.027323416
175	0x3b376a92	0.0027987105
176	0xbd03ea53	-0.03220589
177	0x3d5b480a	0.0535355
178	0x3c62d772	0.0138453115
179	0xba9c0483	-0.00119032
180	0x3bba4335	0.0056842812
181	0x3d2daa7b	0.04239891
182	0x3cc39aa1	0.023877444
183	0x3c1a6717	0.009423993
184	0xbc30601e	-0.010765104
185	0xbcd40adf	-0.02588409
186	0x3b4f22d7	0.003160646
187	0xbb5620c2	-0.0032673334
188	0xbd09fc87	-0.033688094
189	0x3ba83072	0.0051327283
190	0xbc509c53	-0.012732583
191	0xbd1b2f35	-0.037886817
192	0xbd2411c3	-0.040056
193	0x3c128cef	0.008944734
194	0x3ca87bc3	0.020566827
195	0xbc8a8986	-0.01691128
196	0xbc2aea2f	-0.01043181
197	0xbbb65afb	-0.005565045
198	0x3c2ca599	0.010537528
199	0xbb509753	-0.0031828478
200	0x38892a20	6.5405155e-05
201	0xbd11c9b1	-0.03559274
202	0x3bb232bb	0.0054381764
203	0x3b4cf318	0.0031272825
204	0xbcb0d445	-0.021585593
205	0x3c619245	0.0137677835
206	0x3c8f3d65	0.01748533
207	0x3c684ae3	0.014178011
208	0xbc156ece	-0.009120656
209	0x3cfb9cf3	0.030714488
210	0xbbe7002f	-0.0070495824
211	0x3d2f8c25	0.04285826
212	0xbba13da7	-0.0049206796
213	0x3cbadd23	0.022810524
214	0xbb6537ca	-0.003497588
215	0xbc0f5c9d	-0.008750108
216	0xbc2f4287	-0.010697014
217	0xbd02efdf	-0.03196704
218	0xbd1448c0	-0.036202192
219	0xbcb340de	-0.021881517
220	0xbc442b0a	-0.011973152
221	0xbc0c1e1a	-0.008552099
222	0x3c6d81a7	0.014496244
223	0x3cf0b0c0	0.029381156
224	0xbcce89a0	-0.02521211
225	0x3be9174f	0.0071133743
226	0x3cf04477	0.029329522
227	0x3c78b408	0.015179642
228	0x3c0c1177	0.008549086
229	0xbc0bc646	-0.008531159
230	0x3be80fd7	0.0070819664
231	0xbc0b7c04	-0.008513454
232	0x3c7d7ddb	0.015471901
233	0xbb346b2f	-0.0027529707
234	0xb9c91008	-0.00038349652
235	0xbc920b8c	-0.017827772
236	0x3ce1650f	0.027514009
237	0xbbfee752	-0.0077790404
238	0x3cd3ce6d	0.025855267
239	0x3c95c98c	0.018284582
240	0xbca91492	-0.020639692
241	0xbb7732c3	-0.0037719465
242	0xba899a3d	-0.0010498237
243	0xbc51effa	-0.0128135625
244	0xbc8b2dd7	-0.016989632
245	0xbd027d71	-0.03185791
246	0x3c046532	0.0080807675
247	0xbcad8609	-0.021182077
248	0x3cc5f754	0.024165787
249	0x3ceb626f	0.02873346
250	0x3a7acc5f	0.0009567197
251	0xbc468cbf	-0.012118517
252	0x3aa44661	0.0012533182
253	0x3ce43900	0.027859211
254	0x3ca7fe2b	0.020506939
255	0x3c7ceef7	0.015437833

action_model._continuous_distribution.mu.bias f4 [2]
0	0x00000000	0.0
1	0x00000000	0.0

network_body._body_endoder.seq_layers.0.weight f4 [128, 29]
0	0xbe11eca9	-0.14250435
1	0xbe07d62c	-0.13265294
2	0x3e50da23	0.20395713
3	0x3daca3ce	0.08429681
4	0x3e78a0ed	0.24280138
5	0x3d96dc0a	0.07366188
6	0x3e2df290	0.16987062
7	0xbde7ee84	-0.1132479
8	0x3e20eba0	0.15714884
9	0x3eb805ac	0.35941827
10	0x3e0cff14	0.1376918
11	0x3c936a7d	0.017995114
12	0xbcfa989c	-0.030590348
13	0x3d9d78e8	0.07689077
14	0x3e7c09c4	0.246131
15	0x3b8fe1ab	0.0043909154
16	0xbbdc94fb	-0.006731627
17	0xbca83e4e	-0.020537522
18	0xbed4cf12	-0.41564232
19	0x3dc4ded0	0.096128106
20	0x3d320b60	0.04346788
21	0x3e6a660d	0.22890492
22	0x3d80b8db	0.062852584
23	0x3da08757	0.07838314
24	0xbdeb820c	-0.11499414
25	0xbd609d17	-0.054837313
26	0xbe494991	-0.1965697
27	0x3e11992d	0.14218588
28	0x3d3ffa50	0.046869576
29	0xbdf77d60	-0.1208446
30	0x3e1158be	0.14194009
31	0x3e20cb78	0.15702617
32	0xbc8cf282	-0.01720548
33	0xbd61e59b	-0.05515061
34	0xbe204b93	-0.1565383
35	0x3e398cce	0.18120119
36	0xbe806deb	-0.2508386
37	0x3e0f9983	0.14023404
38	0x3d999aac	0.075002044
39	0x3dcfbd83	0.10143568
40	0x3e1821a1	0.14856578
41	0xbb135b3d	-0.0022484802
42	0x3dd7388a	0.10508831
43	0x3e3ef8e5	0.18649633
44	0xbe186b0e	-0.14884588
45	0xbe04b596	-0.12959895
46	0xbcf132d2	-0.029443178
47	0xbd82c672	-0.06385507
48	0xbe9d2d50	-0.30698633
49	0xbdac0859	-0.0840003
50	0xbd8170c9	-0.0632034
51	0x3e50defc	0.20397562
52	0x3e5f1ba9	0.21787895
53	0xbdeb935e	-0.115027174
54	0x3e4ceb42	0.20011619
55	0x3ddf4d88	0.1090346
56	0xbe84eeb7	-0.25963375
57	0xbe8e5093	-0.27795848
58	0xbdf062a2	-0.11737563
59	0xbe17a770	-0.14809966
60	0xbd62467b	-0.055242997
61	0xbe72f5c7	-0.23726569
62	0x3d056613	0.03256805
63	0x3e4c81b0	0.19971347
64	0x3ca06d73	0.01958344
65	0x3d90b68b	0.07066067
66	0x3ead0fe8	0.33801198
67	0x3dd972d3	0.10617604
68	0x3e5c405e	0.21508929
69	0x3d88399d	0.06651614
70	0xbe040acd	-0.12894745
71	0x3db88e61	0.090115316
72	0x3ec5c6c3	0.38628206
73	0xbe766f61	-0.24065925
74	0xbe36d20c	-0.17853564
75	0xbe967064	-0.29382622
76	0x3d4891c1	0.048967127
77	0x3dd17e70	0.10229194
78	0xbdc45cca	-0.095880106
79	0xbebaa63c	-0.36454952
80	0x3e621ab7	0.22080503
81	0x3e2b0cea	0.16704145
82	0x3eb8eb4b	0.36117014
83	0xbd94ca7e	-0.07265185
84	0x3edc1dfd	0.4299163
85	0xbe8617ee	-0.26190132
86	0x3e0e3c3b	0.13890164
87	0x39bc33db	0.0003589679
88	0xbdd94733	-0.10609283
89	0xbe138875	-0.14407523
90	0x3e49ab3a	0.19694224
91	0x3e194721	0.1496854
92	0x3e489dc1	0.19591428
93	0x3e28b0de	0.1647372
94	0x3e89d516	0.26920384
95	0x3e8729b8	0.26399016
96	0xbc75137f	-0.0149582615
97	0x3e477c4a	0.19481006
98	0x3d16cc27	0.03681579
99	0x3e5960bb	0.21228306
100	0x3e275ed0	0.16344762
101	0x3d35b6b9	0.04436371
102	0xbd4eba8a	-0.050470866
103	0xbdf8371f	-0.121198885
104	0x3e2bb80c	0.16769427
105	0xbdcdd429	-0.10050232
106	0xbef88204	-0.48536694
107	0xbd6811c8	-0.056657583
108	0x3e57cad0	0.2107346
109	0x3d0028b3	0.031288814
110	0xba5872f3	-0.0008256875
111	0xbeb11b6c	-0.34591234
112	0xbe62ff1f	-0.22167633
113	0xbe430544	-0.19044977
114	0xbdabe933	-0.083940886
115	0x3d9cf65b	0.07664176
116	0xbe09717b	-0.13422196
117	0xbdac0d26	-0.08400945
118	0xbd4d8cc3	-0.05018307
119	0xbea51496	-0.32242268
120	0xbe2e60e6	-0.17029151
121	0x3e765377	0.24055277
122	0x3d34944b	0.044086736
123	0xbe67f548	-0.22652161
124	0x3d8915fa	0.06693645
125	0x3eb3f377	0.35146686
126	0x3c2a66a5	0.010400449
127	0x3e627001	0.22113039
128	0x3def18c3	0.11674645
129	0xbe177cf3	-0.14793758
130	0x3cba74d7	0.022760792
131	0x3e427dd4	0.18993312
132	0xbcfc8f1a	-0.030829955
133	0xbe3e5efe	-0.18590924
134	0x3e51e613	0.20497923
135	0xbe9febe3	-0.31234655
136	0x3d9811fe	0.07425307
137	0x3d9e9557	0.07743328
138	0x3d2f6784	0.04282333
139	0x3c2d8131	0.010589884
140	0x3e0e155c	0.13875335
141	0xbd9486b9	-0.07252259
142	0x3e4f62f5	0.20252593
143	0xbdf57dcc	-0.119868845
144	0xbd1c0048	-0.038086206
145	0x3dd8d82d	0.10588107
146	0xbddbad0f	-0.10726368
147	0xbd2d93e8	-0.042377383
148	0xbd25ecb3	-0.040508937
149	0xbd62947b	-0.055317383
150	0x3efc7046	0.49304408
151	0x3e1decbc	0.15422338
152	0xbde6aaa8	-0.11263019
153	0xbe6f71d8	-0.23383272
154	0x3eb8e1db	0.36109814
155	0x3cc7b75a	0.024379421
156	0xbe53ba3f	-0.20676516
157	0xbe64d9da	-0.22348729
158	0x3e813a9a	0.25240022
159	0x3eae9aa9	0.3410237
160	0xbecf38a2	-0.40472895
161	0xbed0e4ff	-0.4079971
162	0xbeb356a8	-0.3502705
163	0xbecb8d00	-0.39756012
164	0x3dbec6e6	0.093152806
165	0x3e706e48	0.23479569
166	0x3e0adf3a	0.13561717
167	0xbd9fba32	-0.07799186
168	0xbeae4389	-0.340359
169	0x3e05fa2a	0.13083711
170	0x3d344f2a	0.04402081
171	0x3bb2401e	0.0054397723
172	0xbe3c0b6b	-0.1836373
173	0x3ec87a4b	0.39155802
174	0x3dca6116	0.09881799
175	0xbe279001	-0.16363527
176	0xbe5dad28	-0.21648085
177	0x3d36e593	0.044652533
178	0xbea5594c	-0.3229469
179	0xbee3dee1	-0.4450598
180	0xbdeafedc	-0.11474392
181	0xbdb7643c	-0.08954665
182	0xbf00a606	-0.5025333
183	0x3df5d1fc	0.12002942
184	0xbdd8b180	-0.105807304
185	0x3c203f09	0.009780654
186	0xbb0442ab	-0.0020181339
187	0xbe0c35d3	-0.13692407
188	0xbbbc5720	-0.005747691
189	0x3da2fa1a	0.07957859
190	0x3d1a93f5	0.03773876
191	0x3ead05f0	0.33793592
192	0x3dae7041	0.085175045
193	0xbd95ba90	-0.073109746
194	0xbd2c9e38	-0.042143077
195	0x3e1ed395	0.155104
196	0xbdddb0ac	-0.10824713
197	0x3e087b5b	0.13328306
198	0xbd9305ad	-0.07178817
199	0x3d9563be	0.07294415
200	0x3db97cd5	0.09057013
201	0x3de57b5f	0.11205172
202	0x3e817ea3	0.2529193
203	0x3e9cfe6d	0.3066286
204	0x3e347464	0.17622524
205	0xbe2b8af2	-0.16752222
206	0xbe8cc42e	-0.27493423
207	0xbe3ee63a	-0.18642512
208	0x3eccd267	0.40004274
209	0xbc802d9d	-0.01564675
210	0xbe882670	-0.26591825
211	0xbd3e18c5	-0.04641034
212	0x3d161f1e	0.03665077
213	0xbc28ce48	-0.0103030875
214	0x3e31b69b	0.17354815
215	0x3e655751	0.2239659
216	0x3ec58156	0.38575238
217	0x3b2e6dc3	0.0026615716
218	0xbd5c212e	-0.05374258
219	0x3dc2e7a5	0.09516839
220	0xbe0a1437	-0.13484274
221	0x3e30ba57	0.17258583
222	0x3ebd1b95	0.36935106
223	0xbce691ff	-0.028145788
224	0x3d024055	0.031799633
225	0x3e0a79db	0.13523047
226	0xbe50e378	-0.20399272
227	0xbd22c987	-0.039742973
228	0xbe4d6f77	-0.20062052
229	0x3d6dc425	0.058048386
230	0x3e00fa43	0.12595467
231	0x3dc79e29	0.097469635
232	0xbd93a072	-0.07208337
233	0xbe05397d	-0.13010211
234	0x3de811e4	0.11331537
235	0x3ec9c9db	0.39411816
236	0x3ed63c8c	0.4184307
237	0x3e60d95a	0.21957913
238	0x3e78d4b7	0.24299894
239	0x3e0c289b	0.13687365
240	0xbedf10da	-0.43567544
241	0xbdb3e1f9	-0.08783335
242	0x3b49ffbb	0.0030822593
243	0x3d77f072	0.06053204
244	0xbdf5e24d	-0.12006054
245	0x3e01d835	0.12680133
246	0x3e47755c	0.19478363
247	0xbd98538b	-0.074378096
248	0x3e0f60fb	0.14001839
249	0x3e784731	0.24245907
250	0xbdd2a472	-0.10285272
251	0x3e806642	0.25078017
252	0x3e8f9b2e	0.2804808
253	0xbd25763c	-0.04039596
254	0xbda8a5da	-0.08234759
255	0x3e0b29e9	0.13590206

network_body._body_endoder.seq_layers.0.bias f4 [128]
0	0x00000000	0.0
1	0x00000000	0.0
2	0x00000000	0.0
3	0x00000000	0.0
4	0x00000000	0.0
5	0x00000000	0.0
6	0x00000000	0.0
7	0x00000000	0.0
8	0x00000000	0.0
9	0x00000000	0.0
10	0x00000000	0.0
11	0x00000000	0.0
12	0x00000000	0.0
13	0x00000000	0.0
14	0x00000000	0.0
15	0x00000000	0.0
16	0x00000000	0.0
17	0x00000000	0.0
18	0x00000000	0.0
19	0x00000000	0.0
20	0x00000000	0.0
21	0x00000000	0.0
22	0x00000000	0.0
23	0x00000000	0.0
24	0x00000000	0.0
25	0x00000000	0.0
26	0x00000000	0.0
27	0x00000000	0.0
28	0x00000000	0.0
29	0x00000000	0.0
30	0x00000000	0.0
31	0x00000000	0.0
32	0x00000000	0.0
33	0x00000000	0.0
34	0x00000000	0.0
35	0x00000000	0.0
36	0x00000000	0.0
37	0x00000000	0.0
38	0x00000000	0.0
39	0x00000000	0.0
40	0x00000000	0.0
41	0x00000000	0.0
42	0x00000000	0.0
43	0x00000000	0.0
44	0x00000000	0.0
45	0x00000000	0.0
46	0x00000000	0.0
47	0x00000000	0.0
48	0x00000000	0.0
49	0x00000000	0.0
50	0x00000000	0.0
51	0x00000000	0.0
52	0x00000000	0.0
53	0x00000000	0.0
54	0x00000000	0.0
55	0x00000000	0.0
56	0x00000000	0.0
57	0x00000000	0.0
58	0x00000000	0.0
59	0x00000000	0.0
60	0x00000000	0.0
61	0x00000000	0.0
62	0x00000000	0.0
63	0x00000000	0.0
64	0x00000000	0.0
65	0x00000000	0.0
66	0x00000000	0.0
67	0x00000000	0.0
68	0x00000000	0.0
69	0x00000000	0.0
70	0x00000000	0.0
71	0x00000000	0.0
72	0x00000000	0.0
73	0x00000000	0.0
74	0x00000000	0.0
75	0x00000000	0.0
76	0x00000000	0.0
77	0x00000000	0.0
78	0x00000000	0.0
79	0x00000000	0.0
80	0x00000000	0.0
81	0x00000000	0.0
82	0x00000000	0.0
83	0x00000000	0.0
84	0x00000000	0.0
85	0x00000000	0.0
86	0x00000000	0.0
87	0x00000000	0.0
88	0x00000000	0.0
89	0x00000000	0.0
90	0x00000000	0.0
91	0x00000000	0.0
92	0x00000000	0.0
93	0x00000000	0.0
94	0x00000000	0.0
95	0x00000000	0.0
96	0x00000000	0.0
97	0x00000000	0.0
98	0x00000000	0.0
99	0x00000000	0.0
100	0x00000000	0.0
101	0x00000000	0.0
102	0x00000000	0.0
103	0x00000000	0.0
104	0x00000000	0.0
105	0x00000000	0.0
106	0x00000000	0.0
107	0x00000000	0.0
108	0x00000000	0.0
109	0x00000000	0.0
110	0x00000000	0.0
111	0x00000000	0.0
112	0x00000000	0.0
113	0x00000000	0.0
114	0x00000000	0.0
115	0x00000000	0.0
116	0x00000000	0.0
117	0x00000000	0.0
118	0x00000000	0.0
119	0x00000000	0.0
120	0x00000000	0.0
121	0x00000000	0.0
122	0x00000000	0.0
123	0x00000000	0.0
124	0x00000000	0.0
125	0x00000000	0.0
126	0x00000000	0.0
127	0x00000000	0.0

network_body._body_endoder.seq_layers.2.weight f4 [128, 128]
0	0x3d4253e2	0.047443278
1	0xbcc9d1de	-0.024636205
2	0x3e3f4a2c	0.18680638
3	0xbcc291dc	-0.023751192
4	0x3d590dce	0.05299168
5	0x3db6f788	0.089339316
6	0xba902414	-0.001099708
7	0xbb979fcb	-0.004627203
8	0xbc9229c6	-0.017842185
9	0xbc02338f	-0.007946863
10	0xbdb332de	-0.087499365
11	0x3da578ef	0.08079707
12	0xbc047c4e	-0.008086277
13	0x3e070752	0.13186386
14	0xbdda105f	-0.10647654
15	0xbcb02ff6	-0.021507245
16	0x3d061012	0.03273017
17	0x3c774a00	0.015093327
18	0x3d6b904b	0.057510655
19	0xbb41b8d0	-0.002955962
20	0x3d9560ea	0.072938755
21	0xbce344bc	-0.027742736
22	0x3d5a2778	0.053260297
23	0xbd9a49dd	-0.075336196
24	0xbd58769c	-0.05284749
25	0xbb4e43ca	-0.003147351
26	0xbdd6b240	-0.10483217
27	0xbc9b953b	-0.018992057
28	0xbd1381ff	-0.036012646
29	0x3dbfdb29	0.09367973
30	0xbde8eaaa	-0.113728836
31	0x3d2b6c48	0.041851312
32	0xbe091b46	-0.1338931
33	0x3e0363ca	0.12831035
34	0xbd167642	-0.036733873
35	0xbe075631	-0.13216473
36	0xbc40d6d9	-0.011769974
37	0x3e191538	0.149495
38	0x3d87a68a	0.06623562
39	0xbdcea5c9	-0.10090215
40	0xbe15ed04	-0.14641196
41	0x3e7cb007	0.24676524
42	0xbdbde68a	-0.092724875
43	0x3d631d0c	0.055447623
44	0x3ca0d3b8	0.019632205
45	0x3debb9f7	0.11510079
46	0x3c59f726	0.013303554
47	0xbdd00e5f	-0.10158991
48	0xbc7906f9	-0.015199416
49	0xbde38999	-0.11110229
50	0xbd8dc61a	-0.069225505
51	0xbd822d2d	-0.06356273
52	0xbced693f	-0.02898085
53	0xbc697b89	-0.0142506445
54	0x3e043147	0.12909423
55	0xbbfc5cc3	-0.0077014877
56	0xbc8e75c5	-0.017390141
57	0xbb245230	-0.0025073402
58	0x3e14914b	0.1450855
59	0xbd7cfb37	-0.061763015
60	0x3d5d7d69	0.05407468
61	0x3c9283a0	0.01788503
62	0x3e49c08e	0.1970236
63	0x3bee0d65	0.0072647803
64	0x3b967dfb	0.0045926548
65	0x3e69d4f0	0.22835135
66	0x3e490d07	0.19633876
67	0x3d7d2ad4	0.061808422
68	0x3df4ba3c	0.11949584
69	0xbd2b9d57	-0.041898098
70	0x3ca4cd09	0.0201173
71	0xbde083b9	-0.10962624
72	0xbc497448	-0.01229579
73	0x3db04ebc	0.086087674
74	0xbdf3890a	-0.118913725
75	0x3e460213	0.19336729
76	0xbd5fd6ae	-0.054648094
77	0xbd4c09c9	-0.04981402
78	0xbd8e81ed	-0.06958375
79	0x3d2e69d4	0.042581394
80	0x3e5c3416	0.21504244
81	0x3d3555f5	0.04427143
82	0x3c38cf3a	0.011279875
83	0x3e3612e3	0.17780642
84	0xbcdaffdc	-0.026733331
85	0x3d0133b5	0.031543452
86	0x3d960775	0.07325641
87	0x3c246e48	0.010036059
88	0x3cacd9df	0.021099983
89	0xba8a8cf5	-0.0010570573
90	0xbd9418b5	-0.07231275
91	0xbd7ef05c	-0.062240943
92	0xbc1e3f5c	-0.009658661
93	0x3d2d2958	0.042275757
94	0xbae5b374	-0.0017524795
95	0x3cc81f1d	0.024428898
96	0x3dd50800	0.104019165
97	0x3d30b70a	0.04314331
98	0xbd3ebbe2	-0.046565898
99	0x3cad19b5	0.021130422
100	0x3bc54149	0.0060197455
101	0x3da88c9e	0.082299456
102	0x3ddcf7d4	0.10789457
103	0xbd84f208	-0.06491476
104	0xbd8bebed	-0.06832109
105	0xbce2ebb6	-0.027700286
106	0xbddb365a	-0.10703726
107	0xbd024207	-0.03180125
108	0xbc94eca2	-0.018179242
109	0x3cb08365	0.021547029
110	0x3d5a0c0f	0.053234156
111	0xbd83335b	-0.0640628
112	0x3e183593	0.14864187
113	0xbe348a5a	-0.17630902
114	0x3d3d6922	0.04624284
115	0xbc2b4c51	-0.010455207
116	0x3dec0c7a	0.11525817
117	0x3ce890d6	0.028389376
118	0xbd91e566	-0.071238324
119	0x3e3498cc	0.17636412
120	0xbd943978	-0.07237524
121	0x3e04901b	0.12945597
122	0xbe0379ba	-0.12839404
123	0x3cff3457	0.031152887
124	0x3e53d136	0.20685276
125	0x3cd76680	0.026293993
126	0xbe06120c	-0.13092822
127	0xbdae11d6	-0.08499496
128	0xbd84d4f7	-0.06485932
129	0x3d38f549	0.045155797
130	0xbdca0991	-0.09865106
131	0xbc915e25	-0.017745087
132	0xbc6e6b39	-0.014551931
133	0x3e72cf9e	0.23712012
134	0x3e2dddb7	0.16979109
135	0xbd4dfec5	-0.050291795
136	0xbdd7d705	-0.105390586
137	0xbd31c73e	-0.043402903
138	0x3dccac83	0.099938415
139	0x3dbf4037	0.0933842
140	0xbde0eb05	-0.109823264
141	0xbc0ad448	-0.008473463
142	0xbc462dc9	-0.012095877
143	0xbd2292e2	-0.03969086
144	0x3c944705	0.018100271
145	0x3c2005be	0.009766994
146	0x3e20bd35	0.15697177
147	0xbca51bff	-0.020154951
148	0x3d3362f7	0.043795552
149	0xbcf04417	-0.029329343
150	0xbd2bc796	-0.041938387
151	0x3e214317	0.15748249
152	0x3d50c179	0.05096576
153	0xbc429479	-0.011876219
154	0x3e0882b9	0.13331117
155	0xbb8a14b7	-0.004213895
156	0xbda31e21	-0.07964731
157	0xbdc72e07	-0.09725576
158	0xbdc95670	-0.0983094
159	0x3e4ac01d	0.19799848
160	0x3d88a97f	0.06672954
161	0xbd68dd3c	-0.05685161
162	0x3ccded2f	0.025137512
163	0x3ba3b4e9	0.0049959314
164	0xbd3ffb79	-0.046870682
165	0x3e161173	0.14655094
166	0xbe1dfd83	-0.15428738
167	0xbd8c1def	-0.06841647
168	0xbd023531	-0.03178901
169	0xbd1a0b76	-0.037608586
170	0xbb19a554	-0.002344449
171	0xbd3b4991	-0.045724455
172	0xbd2dc3e7	-0.042423155
173	0xbcdebbda	-0.027189184
174	0xbda89d9a	-0.08233185
175	0x3d2000d3	0.039063286
176	0xbc52aff3	-0.012859332
177	0xbe2d6ec1	-0.1693678
178	0x3dd319f3	0.10307684
179	0x3cf919ed	0.03040787
180	0xbabd416c	-0.0014439053
181	0xbd32d472	-0.043659635
182	0xbdd0ed09	-0.10201461
183	0xbd4044e2	-0.04694069
184	0x3db2676b	0.08711132
185	0x3d597972	0.053094335
186	0x3de894b0	0.11356485
187	0xbd9ca2a2	-0.07648207
188	0xbd718fd9	-0.058975074
189	0x3b429593	0.0029691204
190	0xbe1a2941	-0.150548
191	0xbd2db2f1	-0.04240698
192	0x3e4597ea	0.19296232
193	0xbde7d476	-0.113198206
194	0x3d423bc1	0.047420267
195	0xbe725500	-0.23665237
196	0x3da19098	0.07888907
197	0xbca66746	-0.020312916
198	0xbc37aaa2	-0.011210116
199	0x3dca72cb	0.09885176
200	0x3d6694ad	0.056294132
201	0xbd9eed11	-0.077600606
202	0xbda4afca	-0.080413416
203	0x3aba0f60	0.0014195256
204	0x3d3aef42	0.04563833
205	0x3cecdfc6	0.028915297
206	0xbd40f923	-0.047112595
207	0xbcf30df0	-0.029669732
208	0xbd167a01	-0.036737446
209	0xbbedefe2	-0.0072612623
210	0xbd189157	-0.037247982
211	0x3dc3f1f5	0.09567634
212	0xbe0d72ed	-0.13813372
213	0xbe2d457c	-0.16921037
214	0x3cded648	0.027201787
215	0x3c3b61e3	0.011436912
216	0xbd3fa6b4	-0.04678984
217	0xbe488765	-0.19582899
218	0xbc18a24b	-0.009316037
219	0x3de261c1	0.11053801
220	0xbdd19270	-0.10233009
221	0x3c1a70d5	0.009426315
222	0xbddad834	-0.10685769
223	0xbd8c6727	-0.06855612
224	0xbd3b3873	-0.04570813
225	0xbd2fa7b3	-0.04288454
226	0x3d32bae0	0.04363525
227	0xbd375568	-0.044759184
228	0xbe1df664	-0.15426022
229	0xbdd81bd4	-0.10552183
230	0xbc2b330d	-0.010449183
231	0x3e028bdb	0.12748663
232	0xbcf50239	-0.029908286
233	0xbc945d09	-0.018110769
234	0x3da9f2ec	0.08298287
235	0xbdb1b29c	-0.08676645
236	0xbde606bc	-0.11231753
237	0xbe1d0701	-0.15334703
238	0x3dd24e16	0.102688
239	0xbd78b808	-0.06072238
240	0xbd059cbe	-0.032620184
241	0xbd54996c	-0.051904127
242	0x3c494cd0	0.01228638
243	0xbd3704f0	-0.044682443
244	0x3cb27d50	0.02178827
245	0xbd3dab5c	-0.046306
246	0x3c3ca3c5	0.011513655
247	0xbe058cfb	-0.13042061
248	0x3c840829	0.016117172
249	0x3d107620	0.035268903
250	0x3d4cc511	0.049992625
251	0xbda094c0	-0.07840872
252	0xbd95985b	-0.0730445
253	0xbd62799f	-0.05529177
254	0xbc422e75	-0.0118518965
255	0x3d644f18	0.055739492

network_body._body_endoder.seq_layers.2.bias f4 [128]
0	0x00000000	0.0
1	0x00000000	0.0
2	0x00000000	0.0
3	0x00000000	0.0
4	0x00000000	0.0
5	0x00000000	0.0
6	0x00000000	0.0
7	0x00000000	0.0
8	0x00000000	0.0
9	0x00000000	0.0
10	0x00000000	0.0
11	0x00000000	0.0
12	0x00000000	0.0
13	0x00000000	0.0
14	0x00000000	0.0
15	0x00000000	0.0
16	0x00000000	0.0
17	0x00000000	0.0
18	0x00000000	0.0
19	0x00000000	0.0
20	0x00000000	0.0
21	0x00000000	0.0
22	0x00000000	0.0
23	0x00000000	0.0
24	0x00000000	0.0
25	0x00000000	0.0
26	0x00000000	0.0
27	0x00000000	0.0
28	0x00000000	0.0
29	0x00000000	0.0
30	0x00000000	0.0
31	0x00000000	0.0
32	0x00000000	0.0
33	0x00000000	0.0
34	0x00000000	0.0
35	0x00000000	0.0
36	0x00000000	0.0
37	0x00000000	0.0
38	0x00000000	0.0
39	0x00000000	0.0
40	0x00000000	0.0
41	0x00000000	0.0
42	0x00000000	0.0
43	0x00000000	0.0
44	0x00000000	0.0
45	0x00000000	0.0
46	0x00000000	0.0
47	0x00000000	0.0
48	0x00000000	0.0
49	0x00000000	0.0
50	0x00000000	0.0
51	0x00000000	0.0
52	0x00000000	0.0
53	0x00000000	0.0
54	0x00000000	0.0
55	0x00000000	0.0
56	0x00000000	0.0
57	0x00000000	0.0
58	0x00000000	0.0
59	0x00000000	0.0
60	0x00000000	0.0
61	0x00000000	0.0
62	0x00000000	0.0
63	0x00000000	0.0
64	0x00000000	0.0
65	0x00000000	0.0
66	0x00000000	0.0
67	0x00000000	0.0
68	0x00000000	0.0
69	0x00000000	0.0
70	0x00000000	0.0
71	0x00000000	0.0
72	0x00000000	0.0
73	0x00000000	0.0
74	0x00000000	0.0
75	0x00000000	0.0
76	0x00000000	0.0
77	0x00000000	0.0
78	0x00000000	0.0
79	0x00000000	0.0
80	0x00000000	0.0
81	0x00000000	0.0
82	0x00000000	0.0
83	0x00000000	0.0
84	0x00000000	0.0
85	0x00000000	0.0
86	0x00000000	0.0
87	0x00000000	0.0
88	0x00000000	0.0
89	0x00000000	0.0
90	0x00000000	0.0
91	0x00000000	0.0
92	0x00000000	0.0
93	0x00000000	0.0
94	0x00000000	0.0
95	0x00000000	0.0
96	0x00000000	0.0
97	0x00000000	0.0
98	0x00000000	0.0
99	0x00000000	0.0
100	0x00000000	0.0
101	0x00000000	0.0
102	0x00000000	0.0
103	0x00000000	0.0
104	0x00000000	0.0
105	0x00000000	0.0
106	0x00000000	0.0
107	0x00000000	0.0
108	0x00000000	0.0
109	0x00000000	0.0
110	0x00000000	0.0
111	0x00000000	0.0
112	0x00000000	0.0
113	0x00000000	0.0
114	0x00000000	0.0
115	0x00000000	0.0
116	0x00000000	0.0
117	0x00000000	0.0
118	0x00000000	0.0
119	0x00000000	0.0
120	0x00000000	0.0
121	0x00000000	0.0
122	0x00000000	0.0
123	0x00000000	0.0
124	0x00000000	0.0
125	0x00000000	0.0
126	0x00000000	0.0
127	0x00000000	0.0

value_heads.value_heads.extrinsic.weight f4 [1, 128]
0	0x3d63bc38	0.05559942
1	0x3e10b868	0.14132845
2	0xbcd97d90	-0.02654913
3	0xbd329d5c	-0.0436071
4	0x3e43de6a	0.19127813
5	0x3c83c878	0.016086802
6	0x3e29cf5e	0.1658301
7	0x3e1bfe48	0.1523372
8	0xbd996f66	-0.07491951
9	0x3de1625c	0.11005089
10	0x3d6a7ea8	0.057249695
11	0x3e1a0c5c	0.15043777
12	0x3e0532b0	0.13007617
13	0x3dc219fc	0.094776124
14	0xbe092032	-0.13391188
15	0xbbe5cbc0	-0.0070128143
16	0x3c5710f0	0.013126597
17	0x3ddbac84	0.10726264
18	0xbe4cc139	-0.19995584
19	0x3dce8278	0.10083479
20	0xbd9de7bc	-0.077102154
21	0xbde40fac	-0.11135802
22	0xbe0991dc	-0.13434547
23	0x3e295c06	0.1653901
24	0xbda782ae	-0.08179222
25	0x3d9a3a1c	0.07530615
26	0x3da83118	0.08212489
27	0xbb5ab640	-0.003337279
28	0xbba11aa0	-0.004916504
29	0x3e06db2a	0.13169542
30	0xbddc3b24	-0.10753468
31	0x3e122130	0.14270473
32	0x3e33617a	0.17517653
33	0xbe1b4e26	-0.1516653
34	0xbe3262fa	-0.17420569
35	0x3e1c0d4e	0.1523945
36	0xbd1b0ab4	-0.037852004
37	0xbd203cf0	-0.039120615
38	0xbdf51b2d	-0.11968074
39	0xbd4cac00	-0.04996872
40	0xbdf7a806	-0.12092595
41	0x3d1b1118	0.0378581
42	0x3cdbc388	0.026826635
43	0x3e2543da	0.16139165
44	0xbe4d2b21	-0.20035984
45	0x3e432dca	0.19060436
46	0x3da3aec4	0.07992318
47	0x3cbf0878	0.023319468
48	0x3d680ec8	0.05665472
49	0xbe112f5b	-0.14178221
50	0xbe003339	-0.1251954
51	0xbd87f2f6	-0.06638138
52	0x3df40a70	0.11916053
53	0x3c282bd0	0.010264352
54	0xbdb88280	-0.09009266
55	0xbc3d16b0	-0.011541054
56	0x3db25098	0.08706778
57	0x3dc030d8	0.09384316
58	0x3e4703a8	0.19434988
59	0x3d4ba3e0	0.04971683
60	0xbd5c93c4	-0.053851858
61	0xbe325116	-0.17413744
62	0x3df26dd0	0.11837351
63	0xbe3f52c7	-0.18683921
64	0xbe2b1ae8	-0.16709483
65	0x3e53230c	0.20618838
66	0x3e52170c	0.20516604
67	0x3e551020	0.20806932
68	0xbe4acedc	-0.19805473
69	0xbc9729d8	-0.01845257
70	0xbde09e1c	-0.10967657
71	0x3d2c8198	0.042115778
72	0x3df2fc00	0.118644714
73	0x3c052490	0.008126393
74	0xbe570dd4	-0.21001369
75	0x3e415358	0.1887945
76	0x3e29ebf4	0.16593915
77	0x3e029f70	0.12756133
78	0x3b0fd640	0.0021947771
79	0x3d89249c	0.06696436
80	0xbd90ac5e	-0.070641264
81	0x3e257c8c	0.16160792
82	0xbccc3680	-0.024928331
83	0xbe2fb2a2	-0.17157987
84	0x3e1a825c	0.1508879
85	0xbd622734	-0.05521317
86	0xbdcaebf1	-0.099082835
87	0x3e002452	0.12513855
88	0x3d941818	0.07231158
89	0x3e157a3c	0.1459741
90	0x3e5be8f0	0.21475577
91	0x3d99ce30	0.0751003
92	0x3cbd6108	0.023117557
93	0x3de3c3d8	0.111213386
94	0x3d5fc488	0.054630786
95	0xbda81f5a	-0.08209105
96	0xbdfb3358	-0.122656524
97	0xbe4b04fa	-0.19826117
98	0xbe58fb8f	-0.21189712
99	0x3e362452	0.17787293
100	0x3ccc9590	0.02497366
101	0xbe0288f9	-0.12747563
102	0xbe4b4e3e	-0.19854066
103	0x3e5a1d10	0.21300149
104	0x3dac6160	0.0841701
105	0xbe079a76	-0.13242516
106	0xbc8118a8	-0.015758827
107	0xbd0b4aec	-0.034006998
108	0xbe21bb1a	-0.1579403
109	0x3e292868	0.1651932
110	0xbe11cf3a	-0.14239207
111	0x3d2139b0	0.039361656
112	0x3cc534d0	0.024073035
113	0x3dc8fb88	0.09813601
114	0xbe4f3f81	-0.20239069
115	0x3d044f40	0.03230214
116	0x3c82a090	0.015945703
117	0x3ca09800	0.01960373
118	0x3d380868	0.04492989
119	0xbe26f206	-0.16303262
120	0xbdb2b618	-0.08726138
121	0x3d95c598	0.07313079
122	0x3d7acf78	0.061233014
123	0xbe12ec16	-0.14347872
124	0x3cc37ec0	0.02386415
125	0xbe18cc10	-0.14921594
126	0xbdae5164	-0.08511618
127	0x3dc9fa04	0.0986214

value_heads.value_heads.gail.weight f4 [1, 128]
0	0x3dfcc198	0.123416126
1	0xbe078a72	-0.13236406
2	0xbdc9af62	-0.09847905
3	0x3e51b772	0.20480135
4	0x3d5f75d0	0.054555714
5	0xbd31c6d4	-0.043402508
6	0x3d328260	0.043581367
7	0xbda124f0	-0.078683734
8	0xbe12976a	-0.14315572
9	0xbb373080	-0.0027952492
10	0x3e341330	0.17585444
11	0xbe1d07a6	-0.15334949
12	0xbe3bbf47	-0.18334685
13	0xbe52bff2	-0.20581034
14	0x3d9399a4	0.07207039
15	0xbd241adc	-0.040064678
16	0x3db64270	0.08899391
17	0xbe5938ca	-0.2121307
18	0xbd767264	-0.060167685
19	0xbd850a9a	-0.06496163
20	0xbe37336b	-0.17890708
21	0xbdc5c5ff	-0.096569054
22	0x3d3d7530	0.046254337
23	0xbe022fe2	-0.12713578
24	0xbcc36360	-0.023851097
25	0xbc15f4e0	-0.009152621
26	0xbd379d80	-0.044827938
27	0xbe5b45cd	-0.21413346
28	0x3df01138	0.11722034
29	0x3e3934a2	0.18086484
30	0xbe22a856	-0.15884528
31	0x3e5b852e	0.21437523
32	0x3da79590	0.08182824
33	0xbd7268d8	-0.059182018
34	0x3c335f60	0.010948032
35	0x3dd6d830	0.10490453
36	0xbce35db8	-0.02775465
37	0x3e082350	0.1329472
38	0x3e0b61e4	0.13611561
39	0xbe0f45a9	-0.13991417
40	0x3b9f8b20	0.00486888
41	0xbde84431	-0.113411315
42	0xbdf0ad3c	-0.11751792
43	0xbd0e7a2c	-0.03478448
44	0x3e22a622	0.15883687
45	0xbe3211ec	-0.17389649
46	0xbd4171cc	-0.047227666
47	0xbd4b240c	-0.049594924
48	0xbc326420	-0.0108881295
49	0xbc5bd540	-0.013417542
50	0x3df86d64	0.121302396
51	0x3e2919d8	0.16513765
52	0xbd8ffea6	-0.07030992
53	0x3e244d3a	0.16045085
54	0x3d43b170	0.04777664
55	0xba3a8b00	-0.00071160495
56	0x3c34c8a0	0.011034161
57	0xbda21286	-0.07913689
58	0xbe06d63e	-0.13167664
59	0xbdff963b	-0.12479826
60	0xbdc05426	-0.0939105
61	0x3e28b860	0.16476583
62	0x3c8fe548	0.017565385
63	0x3e0a898c	0.13529032
64	0xbd94efe8	-0.07272321
65	0xbdd2b816	-0.10289018
66	0xbe52f3ea	-0.20600858
67	0x3e18b788	0.14913762
68	0x3dae77b8	0.08518928
69	0xbd1b6c1c	-0.037944898
70	0xbe36a354	-0.17835742
71	0xbe2d8c74	-0.1694811
72	0x3e241a5a	0.16025677
73	0x3e1815a2	0.14852002
74	0xbda08fca	-0.078399256
75	0x3dba5008	0.09097296
76	0x3e3f7e0a	0.18700424
77	0xbc6e34a0	-0.014538914
78	0xbe331c46	-0.17491254
79	0xbe414d0a	-0.18877044
80	0x3e5c0680	0.21486855
81	0x3d9060c0	0.070497036
82	0xbdad9c62	-0.08477093
83	0xbe5a6b8a	-0.21330085
84	0xbded91fb	-0.11600109
85	0xbde78549	-0.11304719
86	0x3e5792b0	0.2105205
87	0x3de2c4ac	0.110726684
88	0xbdfb6a22	-0.122761026
89	0xbe450249	-0.19239153
90	0x3e04b47c	0.12959474
91	0xbdc400b8	-0.095704496
92	0xbdfe1dcd	-0.12408028
93	0x3e063c78	0.13109004
94	0xbbd07c40	-0.006362468
95	0xbe40381d	-0.18771406
96	0x3e0f67a8	0.14004385
97	0xbcd465c0	-0.025927424
98	0x3e485bcc	0.19566268
99	0x3d3af1c8	0.045640737
100	0xbe2b8f5f	-0.1675391
101	0xbdc73f13	-0.09728827
102	0x3e23d55a	0.15999356
103	0x3e59121c	0.21198314
104	0xbd920eca	-0.07131727
105	0xbcfe3990	-0.031033307
106	0xb9a5f400	-0.00031653047
107	0x3e388e68	0.18023074
108	0xbe40c5d3	-0.18825464
109	0x3d8dce40	0.06924105
110	0xbc65c160	-0.014023155
111	0xbdef6200	-0.11688614
112	0xbe23a001	-0.15979005
113	0xbd0aeb08	-0.03391555
114	0x3e31bbbe	0.17356774
115	0x3da22dd8	0.079189
116	0xbdfdedbf	-0.12398862
117	0xbe43b024	-0.19110161
118	0xbdc1dda1	-0.094661005
119	0xbc16d660	-0.009206384
120	0xbe0a12a9	-0.13483681
121	0xbe1ceb73	-0.15324192
122	0xbe5a27b8	-0.21304214
123	0xbc69fff0	-0.014282212
124	0xbdc36a93	-0.09541812
125	0x3d5fdf68	0.054656416
126	0x3e451a4c	0.19248313
127	0xbde97f93	-0.11401286
