results/MejorandoCerebro/AgenteCoche/AgenteCoche-499992.onnx (onnx, 91659 bytes, 7 tensors)

action_model._continuous_distribution.log_sigma f4 [1, 2]
00000000: 789a a03c 813f a939
0.019604906 0.00032281506

action_model._continuous_distribution.mu.bias f4 [2]
00000000: ab56 163b 76e1 f4ba
0.0022939842 -0.0018682915

action_model._continuous_distribution.mu.weight f4 [2, 128]
00000000: 482d bf3a b716 3a3c 963d 0a3c 981f 4fbd
00000010: c601 193a b2ea cfbb e4c1 243d 5de8 23bd
00000020: c4f3 563b a5aa 97bc 2b44 40bd 01de 373d
00000030: 8978 333c 4c11 3e3d ccd4 07bd e465 19ba
00000040: 912f b6bb f94e 39bc f450 10bc b5b9 3f3b
00000050: 9e1b 343d efeb 48bd 1011 83bc af39 aabc
00000060: bae5 2d3d f83e bcbc 75d5 c53c e64c 55bc
00000070: e28d 90bc 18ed 003d 3e7a 883b d9a9 333c
00000080: f438 74bc 0fff f13c d990 a03b 5df5 c0bb
00000090: 1fa3 48bc c2b8 13bc 02ee 153d 79f5 813c
000000a0: 7ff9 3a3d 3a20 673c e5be 523d 8d87 56bd
000000b0: 2d00 f73c f1b0 113d fe41 f33b eef4 0b3d
000000c0: 0da3 1e3d 7e6f 47bc 5d8b cc3c b07c 5cbb
000000d0: d385 1d3d 1337 07bd eaad 633c a4d8 03bd
000000e0: e23b efbc 6144 c03c 185f d63c f931 013d
000000f0: d9ca 5cbd 166f 593c 5bf4 6a3d da5a f939
00000100: 14f5 ea3c 0a7d 2fbd 92f3 37bd 50e9 87bb
00000110: 2f2a 05bd 8b03 75bc 359e cbbb 9abb b9bc
00000120: b995 903c 17a9 6fbd b413 7d3d f780 b43c
00000130: 3bb6 883d c44a ca3a fcec 10ba 06c4 273c
00000140: 2ed1 2ebd 2b43 bcbc 9091 babc 4cb3 093d
00000150: 23e6 7cbd d5eb ab3c 8179 2ebc fc55 11bc
00000160: b9f2 20bd f7fd fbbc 06cd d23b 04d7 81bd
00000170: d783 dcbc d72c e93c fda3 9e3c daea 3d3d
00000180: 6f31 39bd 027d 4fbd 6511 2b3c e3c7 f83c
00000190: b001 a3bd 1294 46bd 2725 633c 57fa a83b
000001a0: 5f19 883c 7c05 323d df50 51bd 8b3c 08bc
000001b0: 5810 99bd b890 63bc 7d36 eebc f459 01bd
000001c0: 73a8 b53c 3015 e13c 4dc8 03bd 7186 bb3c
000001d0: cb18 213d 949e 4fbc 78a7 c03c 854b 2f3c
000001e0: e063 403d 9d9c c43c 37a6 273c b11c 02bd
000001f0: d548 d43a 8930 d93b 173b 0d3d bc5a bfb8
00000200: 085d e33c 4ae5 41bc f515 d03b 1cce 5f3b
00000210: 2515 103d c288 2bbc 8fee f0bc d364 373a
00000220: a07f 38bc b478 a53a 315f 013d 7cc3 3739
00000230: 89a2 4a3d 4f3a a53c 65c6 b33b 9fae 73ba
00000240: 23af 8abc 531f 53bb 0eae a8bc 9edf 023c
00000250: b1c1 f73c fcaa 3dbd 15a3 25bc 1d08 aabc
00000260: 00ea e43c c4ba 9e3b 81db 61bc cf8f 863b
00000270: af50 b93b ffe7 3ebd 9761 903b d5a3 bbbb
00000280: 9587 9cbc 3b3a 0f3c 53c6 a4bc b8a0 df3b
00000290: 8267 e3bc 3628 8f3c e13f c0bc 5c15 dc3b
000002a0: a670 c9bb 86e6 3fbd 58cb d3bc 04b0 1abc
000002b0: f1e5 4abc 9292 d33c 7b9f f5bc 04d3 31bc
000002c0: 0331 22bc 998a 63bc 8e41 dc3b ca7c 6b3c
000002d0: 5064 8a3b e68b 58bc aa13 1fbc cde9 54bc
000002e0: c748 5abb e1d9 39bc ea1c 13bd c98b 773b
000002f0: 7fe7 1cbb be2f 233d 6fad 28bd 514c 353d
00000300: 0731 823c 48c1 c639 99a3 c4bb 0d03 a8ba
00000310: 55c9 6abc fb66 62ba 0214 d13c fe14 d13b
00000320: 5001 bebb ba7d 8a3c 7c76 3ebb e5bc a23c
00000330: e17a 013c 92ca bb3c dbed ab3c f7f8 0cbc
00000340: 7718 e4bb ec5a 93bb 7cfd 4fbc 9004 d2bc
00000350: 3e61 babc e033 453c 89fa 283c 0d41 a9bc
00000360: 62a4 06bd 3d34 10bc 9949 703b 22c8 49bc
00000370: d576 053d 03ac 033c 844c ab3b ad04 1f3c
00000380: 9191 a43c 833a e7bc c39b 4bbc e23c b93b
00000390: 36d8 9b3c a29b d8bc d7ab 85bb 26a1 a13c
000003a0: 4f85 3b3d 0e1d b73c cfc4 6abc 244f d3bc
000003b0: 401e 8c3c a2e8 2bbd db96 acbc 6776 953b
000003c0: 76e0 963c 9b81 ef3b 9c29 423c 9498 35bc
000003d0: 4fc5 3439 d2e4 9a3c 486a 1b3d 9d03 6e3c
000003e0: 50e7 3abc 0a65 82b9 ebb8 523c 2543 73bc
000003f0: d9de bebc 7ab6 03bd 7182 8b3b 1fe9 e3bc
0.0014585638 0.011357955 0.008437535 -0.05056724 0.0005836751 -0.0063451165 0.04022397 -0.04001652
0.0032799104 -0.018513987 -0.04694001 0.044889454 0.010954031 0.046403214 -0.033161923 -0.00058516697
-0.0055598696 -0.011310332 -0.008808363 0.0029254977 0.04397165 -0.04905313 -0.015999347 -0.020779459
0.042455412 -0.022979245 0.024149636 -0.013018822 -0.01764578 0.03147611 0.004164963 0.010965788
-0.014906157 0.029540567 0.0049000797 -0.0058886246 -0.012245922 -0.009016218 0.036603935 0.01586412
0.045648094 0.0141068045 0.051451582 -0.052375365 0.030151451 0.035569135 0.0074236384 0.03416913
0.038729716 -0.012172578 0.024968797 -0.0033643655 0.038457703 -0.033011507 0.013896445 -0.032189026
-0.029203359 0.023470106 0.026168391 0.0315418 -0.053904388 0.013271114 0.05736194 0.0004756067
0.028681315 -0.042843856 -0.04491002 -0.004147686 -0.032510933 -0.014954458 -0.006213928 -0.022672463
0.017649518 -0.058510866 0.06178637 0.022034151 0.06675383 0.0015433659 -0.00055284775 0.010239607
-0.042679958 -0.022981247 -0.022774488 0.033618256 -0.061742913 0.020986477 -0.010649086 -0.008870598
-0.03929398 -0.030760748 0.006433132 -0.06339839 -0.026918335 0.028463764 0.019365305 0.04636655
-0.04521316 -0.050656326 0.010441159 0.03036875 -0.07959306 -0.048481055 0.013863838 0.005156796
0.01661366 0.04346226 -0.051102515 -0.008315216 -0.074738204 -0.013889484 -0.029078716 -0.031579927
0.02217505 0.027475923 -0.032173444 0.022891255 0.039330285 -0.012672085 0.023517355 0.010699158
0.04697025 0.02400046 0.0102325 -0.031765644 0.0016196022 0.0066281003 0.03448018 -9.12449e-05
0.027754322 -0.011834452 0.0063502737 0.003414995 0.035176415 -0.010469617 -0.029410629 0.000699592
-0.011260897 0.0012624473 0.031584922 0.00017525064 0.04947141 0.020169405 0.005486297 -0.0009295735
-0.016929215 -0.0032214716 -0.020590808 0.007987885 0.030243726 -0.04630564 -0.010109683 -0.020755822
0.027943611 0.0048440415 -0.013785244 0.004106499 0.00565537 -0.046607967 0.004406165 -0.0057263174
-0.01910762 0.008741911 -0.0201141 0.006824579 -0.027759317 0.017475229 -0.02346796 0.0067164134
-0.006147462 -0.046850704 -0.025853798 -0.009441379 -0.012383924 0.025826726 -0.029983273 -0.010853533
-0.009899381 -0.013888025 0.006721682 0.014373014 0.004223384 -0.013216948 -0.009709278 -0.012995196
-0.0033307539 -0.01134345 -0.035916246 0.0037772527 -0.0023941693 0.039840452 -0.041181024 0.044262234
0.015892519 0.0003790951 -0.0060009477 -0.0012818292 -0.014330228 -0.0008636561 0.025522236 0.0063806763
-0.0057984963 0.016905654 -0.0029062321 0.019865463 0.007902832 0.022923741 0.020987442 -0.00860428
-0.0069609242 -0.0044969227 -0.012694713 -0.025636941 -0.022751447 0.012036294 0.0103136385 -0.020660901
-0.03287161 -0.008801517 0.0036664961 -0.012315782 0.03258403 0.008036616 0.005227627 0.009705705
0.020088943 -0.028226143 -0.012427273 0.0056530097 0.019023996 -0.026441399 -0.004079323 0.019730162
0.04578143 0.022352722 -0.014329149 -0.025794573 0.017104268 -0.041969903 -0.021068027 0.004561234
0.018417578 0.0073091513 0.011850741 -0.011083741 0.00017239641 0.018907938 0.037943155 0.014527229
-0.011407688 -0.00024870812 0.012861471 -0.0148475515 -0.023299621 -0.032156445 0.004257493 -0.027821122

network_body._body_endoder.seq_layers.0.bias f4 [128]
00000000: 8ab8 963b 3848 b83b aa1a f23b 4701 893c
00000010: 27fb 373b 7cc8 963b c8a3 c73c 2ff5 62bb
00000020: b890 113c 35a1 8abb 158f 553b 6067 98bb
00000030: 1fb0 12bb 1fcf 933b 8c26 b83b 2ed6 7a3b
00000040: fa45 f63b 1676 063c 606b df3b 255d 49bc
00000050: 6a73 a53b 766d 933c cab4 8ebc 93f3 593b
00000060: e7a6 be3b 6bf4 503b c734 993b 38d8 8fba
00000070: 028c 07bb a9df 75bb 5a49 fd3b 17a6 f13b
00000080: b9a3 fb3b c53d a93a a02c 823c 21b8 073c
00000090: bc38 f13b 25d8 413c 191e aeba 73ce 603c
000000a0: c757 1e3c 9134 f239 824f 9c3b a3cb 46bb
000000b0: 76fc 543c 56f2 a0bb 2015 493a 336a 493b
000000c0: 2220 83bb 8c78 843b cd72 553c 456d 173c
000000d0: 0cfc 9b3b d736 1bba 0a07 ad3b d87a a7bb
000000e0: bd89 273c d2c9 1c3b cb60 f13b ef09 d4bb
000000f0: 6a98 d6ba fe9c 943b 8447 513b 6c4a 4b3b
00000100: c8a0 a53b d59c 383b 156e 0b3c 2993 223c
00000110: a2ac cd39 22a5 1a3c a384 bd3b fec8 3c3c
00000120: 9fdb 1f3c 4525 cd3c f202 0a3c 9932 113c
00000130: abab 06bc 0a65 843c a620 673a 2dda 3639
00000140: c39c 3c3b 3322 74b9 9e1a 64ba b54b 2039
00000150: e52f 293c e2b5 08bb 8319 043c e1b1 f63a
00000160: ae58 e3b9 c448 743c 003b 41bc 7e54 863b
00000170: f574 fb3b 2eee 033c b6c1 e43b e1e8 bf3b
00000180: 7300 2c3c 579b c43c 3bc7 79bb 4aa0 7c3b
00000190: 5509 46bb 6ee6 a93c f8bc 1fba f7bd 33bc
000001a0: 72e7 a3ba 8ea1 783b 6aba c03c bc1f 313b
000001b0: 1975 d5bb cfb4 003b 7975 a63b 8ff0 843b
000001c0: 7454 093b e9a2 973c 8b57 153c 93ba 12bc
000001d0: 01e9 82ba 35d2 ff38 9fea 133c fd42 9ebc
000001e0: 89e4 bd3b 626a 253c acdb 7f3c 8d5e 70bb
000001f0: 83ce f93b 6a2a c43c 515b c138 5dad fa3c
0.0045996355 0.0056238435 0.0073884325 0.016724242 0.0028073282 0.0046015363 0.02437009 -0.0034631004
0.008884601 -0.004230643 0.0032586504 -0.004650995 -0.0022382808 0.0045107747 0.0056198295 0.0038274634
0.007515666 0.008206865 0.00681822 -0.012290274 0.005049159 0.017996531 -0.017420191 0.0033256754
0.005818236 0.0031883966 0.004675481 -0.0010974472 -0.0020682816 -0.0037517345 0.0077296915 0.007374536
0.0076794294 0.0012912086 0.01589042 0.008283646 0.0073614996 0.011831318 -0.0013284116 0.013721096
0.009664482 0.00046197002 0.0047702203 -0.003033378 0.0129996445 -0.004911701 0.00076706894 0.0030733466
-0.0040016333 0.0040426906 0.013027859 0.0092423605 0.004760271 -0.00059209525 0.00528038 -0.0051110797
0.01022571 0.0023924005 0.007366275 -0.0064709107 -0.0016372327 0.0045353165 0.0031933496 0.00310197
0.005054567 0.002816965 0.008510132 0.009922781 0.00039229268 0.009438785 0.005783634 0.01152253
0.009756952 0.025042186 0.008423554 0.008862161 -0.00821964 0.01616146 0.00088168157 0.0001743815
0.002877996 -0.00023282394 -0.0008701476 0.00015286992 0.01032636 -0.0020860364 0.008062723 0.0018821323
-0.00043362885 0.014909927 -0.011793852 0.0040994277 0.0076738545 0.008052392 0.0069811 0.0058566188
0.010498154 0.023999853 -0.0038113135 0.0038547688 -0.0030217965 0.02073976 -0.0006093527 -0.010970584
-0.0012504889 0.003793809 0.02352639 0.0027026972 -0.0065142033 0.001963902 0.005079922 0.004056997
0.002095488 0.018510299 0.00911511 -0.008955616 -0.0009987653 0.00012198502 0.009028106 -0.019319052
0.005795066 0.010096164 0.015616339 -0.003667745 0.007623495 0.023946006 9.219966e-05 0.030600244

network_body._body_endoder.seq_layers.0.weight f4 [128, 43]
00000000: 5da3 353e 39f9 b63d d222 283e d055 603c
00000010: 0ec6 82bd 46d5 e03d 129b d0bd c04d 0a3e
00000020: c5da eebc f104 3e3e 40c9 9dbe 0c3c 6dbc
00000030: 010a 343c 6edc 4cbc 09f5 af3d 6930 733c
00000040: d92a 3cbe 4872 90be 514c a33d d433 b13d
00000050: bacc b8bd 93e6 d33d 70b8 0f3e 4fa3 813b
00000060: 6e62 cf3c 10e0 e7bd a7a0 913d 5987 23be
00000070: 1b4a 2cbe 9b6e edbd 8adc c13d 61e8 0cbe
00000080: db44 10be 7dc1 583d c087 b43d 7486 07be
00000090: 1bb7 9dbe 9820 4abe 2140 f3bd 6454 883d
000000a0: acd3 48be 6129 9e3d 58e2 ffbc a74f ccbd
000000b0: b506 f2bd 88b3 46be 0776 a73d 8609 623e
000000c0: 9813 ecbd 07a2 4d3d 8d53 b23d 19c5 833e
000000d0: 9ded 76bd 54b2 583e ebb5 72be 5d78 91bc
000000e0: 634d ad3d b9fa a03e 5200 233d 7d7c 05bd
000000f0: 8e63 7fbe b673 2b3e 97d8 7f3e a37d 18bc
00000100: 4809 0b3d 7c22 17be ea7b d0bd 9aed 4cbe
00000110: b2b9 c13d cb1a 563e ce16 0c3e bd65 8bbe
00000120: 6d1d 183e ed96 203e d65c 1fbd 5341 1ebd
00000130: 5b80 41bd c888 a2bd f937 333e b106 bfbe
00000140: 6864 843d c033 e33e 7ce8 103e 3c93 b7be
00000150: e4a0 20bd 5c41 b83d b87d 683d d3e5 88bc
00000160: ddc5 33bc 6bbf 073e dac1 ac3e 522f 12be
00000170: 431a abbd bb54 d4bb de3b 193e 51ac ebbc
00000180: f175 2fbe c647 3dbe af37 253d 2152 d9be
00000190: c92c 11bd c4a9 523d 557d 85be b91d 10be
000001a0: 945b 313e 6101 4a3e 2d34 f9bd 8e03 89bd
000001b0: ff57 9b3d dc2d c7be 6e51 f2bd 0667 d93e
000001c0: 9fa5 e8bd 4a41 ccbd 30ad 983d ed92 7abd
000001d0: 0f80 f7bd ee7c 503e c21c 0b3e ffab cbbd
000001e0: 0e50 9abe 2c96 c53d 8473 07bd c28a c83c
000001f0: 24b9 cdbd 53ae efbd 0c8b 433c bd1a 263d
00000200: b0d6 7c3e b8b2 11be 1abd 023e 37ab 1d3e
00000210: 6c28 50be 852e 46bd 2f6c a63c f2be 9dbd
00000220: c781 163e c030 883b 925e b73b e110 cdbd
00000230: a7c4 473d 7a56 99bd e8d9 62bd b624 d23d
00000240: dbcf 9d3e ca01 34be 47cd 04bd ffba 85be
00000250: 3953 123d d661 da3d aaa9 7abe 66e0 3a3e
00000260: c24a 90bd c622 6a3d edab 56be a130 573c
00000270: eca8 143e 2402 d8bc 2c9e cebd 8be1 42be
00000280: d076 e4bd 3812 693e 3573 7d3e 3032 ab3d
00000290: 3982 073e febb a3bd 860c 433e be7a b0bd
000002a0: 550a ffbc 8930 993d c6b9 a5be fe50 8bbe
000002b0: 2f78 4e3e 0a5e 9ebd 72e1 24bd 1f2d 553e
000002c0: 67f8 c93c bc7a 983e e090 163d a798 a2bd
000002d0: 54c3 c03e 757a a43b ded3 f93c 5da9 16be
000002e0: 7acb 543e 22dd 233d 21b7 773c a39e e0bd
000002f0: e6a7 85bc e016 e13c 93f3 94bd 45f9 983e
00000300: 12d1 673e 607c bebd fba8 c83d 59d6 efbb
00000310: 6b6a b4bd ae20 4d3e b90a c9be b7ef 86bb
00000320: 4989 0c3d 21c5 a0bd 2038 60bd b358 dabd
00000330: 952e 933d 6b90 d3bd 3667 213e a790 0dbd
00000340: d59b 9abe 2aff 0bbe f5aa 2d3e 3649 483d
00000350: b5ed 91bd 9811 3ebe f4f1 1dbe c184 bebc
00000360: fc33 2d3d fb70 523e 1d9c 1cbe 363c 6fbe
00000370: 7184 49be 3568 cb3d b9a3 7b3a 1824 f63d
00000380: 9f64 2dbe 66e7 03be 98c2 693e d785 57be
00000390: 1fd1 aa3d 5ad2 02be b41e 173e 0c16 1e3e
000003a0: d078 88bd f18c 88be 32f3 24be 01a7 12bd
000003b0: b6b6 8f3d a18c c53d 8784 6fbd 657e 0ebe
000003c0: 109d abbd b6f2 08bb a332 a3bc 5ac9 913a
000003d0: 096f 8abe 685c 273e b535 3ebe 81ff 83be
000003e0: 6a61 f23d 2067 6cbe 63d3 7c3e d491 a0bd
000003f0: ba18 68bd 35d0 d9bc b84b 36be a05d 13be
0.177381 0.08934254 0.16419533 0.013692334 -0.06385432 0.10978179 -0.10185827 0.13506222
-0.029157052 0.18556572 -0.30817604 -0.014479648 0.010988713 -0.012503726 0.085916586 0.014843085
-0.1837572 -0.2821219 0.079735406 0.086524636 -0.090234235 0.10346713 0.14035201 0.0039562355
0.02531549 -0.113220334 0.0711072 -0.159696 -0.16825144 -0.11593362 0.094658926 -0.1376052
-0.14088766 0.0529189 0.08814955 -0.13234884 -0.3080376 -0.19738996 -0.11877466 0.06656721
-0.19611996 0.07722736 -0.031235859 -0.0997613 -0.118176855 -0.19404423 0.08176809 0.22073945
-0.11527175 0.05020335 0.08707342 0.2573631 -0.0602852 0.21161777 -0.23702209 -0.017757589
0.08462026 0.31441286 0.039795227 -0.032589424 -0.24940321 0.16743359 0.24984966 -0.009307298
0.0339444 -0.14759248 -0.10179885 -0.20012513 0.09459247 0.20908658 0.13680574 -0.27226058
0.14854975 0.15682574 -0.038906895 -0.038636517 -0.04724155 -0.07936245 0.1750182 -0.37309793
0.064644635 0.4437542 0.14151186 -0.35854518 -0.039215937 0.08996841 0.05676052 -0.016711151
-0.010972467 0.13256614 0.33741647 -0.14275864 -0.083546184 -0.006479827 0.14964244 -0.02876869
-0.17134835 -0.1848441 0.040336307 -0.42445472 -0.0354431 0.051431432 -0.26072183 -0.14073838
0.1732009 0.19727089 -0.12168155 -0.06690131 0.07585143 -0.38902175 -0.11831938 0.42461413
-0.11359715 -0.099733904 0.07454908 -0.061175276 -0.12084972 0.20360157 0.13585189 -0.09944915
-0.30139202 0.09647784 -0.03306915 0.024480227 -0.100450784 -0.117031716 0.011935007 0.040552843
0.24691272 -0.14228332 0.12767449 0.15397345 -0.2032792 -0.04838421 0.020315258 -0.077024356
0.14697944 0.004156202 0.0055959905 -0.10012985 0.048771527 -0.07487197 -0.055383593 0.10260908
0.30822644 -0.17578807 -0.03242233 -0.2611923 0.0357239 0.10663192 -0.24478784 0.18249664
-0.07045509 0.05716207 -0.20964022 0.013134153 0.14517564 -0.026368208 -0.10088763 -0.1903135
-0.11155474 0.22760856 0.24750979 0.08359182 0.1323327 -0.07994841 0.19047746 -0.08617161
-0.031132856 0.074799605 -0.32368296 -0.2721023 0.20163034 -0.0773278 -0.040254064 0.20817994
0.02465458 0.2978114 0.036759257 -0.079392724 0.37649024 0.005019481 0.030496534 -0.14713044
0.20780745 0.04000581 0.015119345 -0.109677576 -0.016315412 0.027476728 -0.072730206 0.29877678
0.22638348 -0.093010664 0.097978555 -0.0073192534 -0.0880936 0.20031998 -0.39265993 -0.0041179317
0.034310613 -0.07850099 -0.054741025 -0.10661449 0.07186619 -0.1033028 0.15762028 -0.03456178
-0.30197015 -0.13671556 0.16959746 0.048897944 -0.07125417 -0.18561399 -0.15424329 -0.023256661
0.042285904 0.20550911 -0.15293927 -0.23362812 -0.19679429 0.09931985 0.0009599287 0.12018603
-0.16932915 -0.1288124 0.22828138 -0.2104715 0.08340668 -0.12775555 0.14757806 0.15438098
-0.06663668 -0.2667003 -0.16108397 -0.0358038 0.07017271 0.096459635 -0.058475997 -0.13915403
-0.08379567 -0.002089662 -0.019921606 0.001112263 -0.27037838 0.16343844 -0.18575175 -0.25780872
0.118349865 -0.23086214 0.24690013 -0.078403145 -0.056664206 -0.026588539 -0.17802322 -0.14391184

network_body._body_endoder.seq_layers.2.bias f4 [128]
00000000: 521a 2ebb 4758 403b 8d11 97bb 5e48 443c
00000010: bfcb 8bbb 7b99 a13b aff6 063c a7d3 493c
00000020: 9821 bbb9 7cb7 f83a cf6a 703b 0d33 343c
00000030: d712 a3ba b907 993b 9644 323c 854e e4ba
00000040: e13c 943b a39a 37bb 11a2 843b 59a4 68bb
00000050: 5356 163b 913e 2f3c b26c 8a3b b0c7 213b
00000060: 52ed 893b 3898 953c 6a2e fc3b f32a 71ba
00000070: 996a 3c3c e3b5 d13b 2bfa b8bb 9e35 263b
00000080: 96d6 9f3a 1881 233a 60d1 c03b 0484 b9bb
00000090: cd56 a43a 04d8 053b 1573 de3b 5c28 88bb
000000a0: a6a6 283c ab0c f73a e84d ff3b 415e 9c3a
000000b0: dc95 a83b 0f79 f23a d508 823b 8204 b63b
000000c0: a198 843b ce71 193c 04be a43b 159b 5dbb
000000d0: 1b0d fe3b d3ea b73b 1edf 9d3b b2ef f13b
000000e0: 29ad 4c3c 776f e63b bd54 083b ad32 633a
000000f0: 7508 76ba bfe1 11bb 1c15 b23b 4d4e bcbb
00000100: eb83 9839 4284 533b 59e8 9f3b 7798 053c
00000110: d25a 043c 1644 2cbb 6173 8abb ba31 bd3b
00000120: 6b31 263b d362 303c e9b0 1c3c 6a46 f3ba
00000130: e80a b53b 1060 3abb 4f6f 0dbb 3820 13ba
00000140: a2a6 373c 9ab0 c4b9 9e0c 083b 270a 6bbb
00000150: e08b 133c f59d 59ba 6c92 513c 4631 7e3b
00000160: 7585 ea3b c4d8 a43b 5549 c0bb 86ab 893c
00000170: 974e fd3a b3ba 273b e6b1 833a c1c1 ce3b
00000180: 4814 c13b 5444 b83b ef6c f03b a54b a33a
00000190: 11ad 3c3c 313a b03b c0a6 a33b 9541 42ba
000001a0: ec14 b8ba 673f 8f3b 6d09 e23b df1f 8f3b
000001b0: be8c 783b 16e7 e03a c349 9e3b e0e7 353c
000001c0: c9a6 a8b9 e652 f73a 0920 9eba aa26 0d3c
000001d0: a1c3 4e3c 78e2 5a39 1290 e4ba 8b81 beba
000001e0: 29c8 f83b d97b 353b 1b21 90bb f5e3 1b3c
000001f0: a79c 513b d146 a13a 28b4 7e39 0c6e 9a3a
-0.002656598 0.0029349492 -0.0046102465 0.011980144 -0.004266232 0.0049316264 0.008237525 0.012318528
-0.0003569245 0.0018975581 0.0036684757 0.0109985 -0.0012441528 0.00467011 0.01088061 -0.001741842
0.004523859 -0.0028015755 0.00404764 -0.003549835 0.0022939637 0.010696069 0.0042243833 0.0024685673
0.004209199 0.01826106 0.0076959627 -0.00091998203 0.011500024 0.0063998564 -0.0056450567 0.0025361548
0.0012194689 0.0006237193 0.0058843344 -0.0056614894 0.0012538076 0.0020422945 0.006788621 -0.004155202
0.010293638 0.001884838 0.0077912696 0.0011929945 0.0051448178 0.0018499213 0.003968338 0.0055547366
0.004046515 0.009365512 0.0050275344 -0.003381436 0.007753027 0.00561271 0.0048178574 0.0073833102
0.0124924565 0.0070323306 0.002080246 0.0008666914 -0.00093854155 -0.00222598 0.0054346453 -0.005746639
0.00029089986 0.0032274877 0.004879993 0.008154026 0.008078294 -0.00262857 -0.00422518 0.00577375
0.0025359045 0.010765749 0.009563663 -0.0018560414 0.0055249818 -0.0028438605 -0.0021581238 -0.0005612406
0.011209162 -0.00037515612 0.0020759474 -0.0035864206 0.009005517 -0.00083014305 0.012791257 0.0038786693
0.0071570226 0.0050307233 -0.005868117 0.016805422 0.001932579 0.002559346 0.0010047525 0.0063097184
0.0058923103 0.0056233797 0.0073372046 0.0012458457 0.011515872 0.0053780307 0.0049942434 -0.0007410285
-0.0014044321 0.004371572 0.0068980963 0.004367813 0.0037925686 0.0017158713 0.0048305704 0.011102647
-0.00032167722 0.001886931 -0.001206399 0.008615175 0.012619884 0.00020874466 -0.0017437956 -0.0014534456
0.0075922203 0.0027692227 -0.0043984777 0.009514798 0.0031984241 0.001230443 0.00024290441 0.0011782064

network_body._body_endoder.seq_layers.2.weight f4 [128, 128]
00000000: 7dbc 16be e461 ef3d 1ce4 bc3d 4477 01be
00000010: 6e51 7dbc 9429 d53d 6e93 593e b3f9 d93d
00000020: f8af a6bd 2108 1a3d 69b4 4dbd 7361 0fbd
00000030: 477a ad3d cc0a 44bd 155c db3d 4602 7cbe
00000040: 08d5 31be 5a03 793e 4d31 42be c04b 90bd
00000050: 2109 4f3d 620e 51be 9326 b4bb f881 b13d
00000060: a375 d0bd 8bf7 41bc 3f81 02bd 0ff6 053e
00000070: 90b5 2fbc 7cdd 413d 9f2d 4d3e 54fd e3bc
00000080: debb 3d3d 39c7 053e ff1e fa3d b5d2 35bc
00000090: 697d 8e3d 4786 f9bd 5498 243c de03 e83d
000000a0: ffc1 313d 31dc 96bd 7b73 d1bd 7931 b23c
000000b0: b9f9 21be 2c32 1f3e 4fe1 b03d 2b0d 333e
000000c0: 7465 8cbd 602e b2bd 306a 31bd 6fa9 15be
000000d0: 0233 b03d b7ba a2bd 7f0c cfb9 1538 853d
000000e0: 8001 19bd a6f1 1cbd 47d3 afbc e3d5 503d
000000f0: e6da 13be 7f7a 6b3d 6352 25bd 5abc ff3d
00000100: 95ae 89bd 4f92 eabb e6ff eabd 0ad4 bcbc
00000110: 0ab9 28bb fbe7 97bd 646a b0bd bf0a b8bc
00000120: 59a4 b7bd aa97 43be 5a67 74be c701 16bc
00000130: 9dc8 1f3d 3d78 6c3d 98a4 243a 5b17 b5bd
00000140: a773 8bbd 076c cfbb ef81 63be 3fa1 c93d
00000150: 3123 ad3c 2eb3 71be 2870 c33d 01e4 c13b
00000160: 288f bc3c 98e2 85bc d13f 28bd 5488 2cbd
00000170: 6871 9f3c acd2 2b3c 10ed b5bd 3b0b a23d
00000180: ed99 cebd 5d3a d0bd 910f 05bd 09d4 be3d
00000190: d445 ccbd 633f 87bd bd21 76bc 8183 4b3d
000001a0: e4fd 4f3e 11c1 653d 248c 75bc 11d7 f7bd
000001b0: c0af f63c 7f05 c4bd 308f 0b3d d9fa a6bd
000001c0: c1a4 093e 5001 16be 1ded 383d 01d9 2b3e
000001d0: b087 2d3c 7c49 0cbd 9f8e 05bd a097 413d
000001e0: a323 ee3c db67 32be d715 f23d 2d1a 1a3e
000001f0: b0ae f4bd fed2 c13a c7db c73a 363d 7d3d
00000200: e101 f6bd 86b9 573c 37ff 9a3d d4d4 a2bd
00000210: ef08 86bd d731 bd3d 224e 99bd ff5e 093e
00000220: 76be 843c 314e c93d a28f f43b 1ee8 8cbd
00000230: 6d8f 1a3b 5711 693c 6937 683b bbce 05bd
00000240: 1bb7 d43d 04fc 37bd 74c4 c5bc 397a 21be
00000250: 42f9 4d3d d8b1 bbbc 0ed2 213e 2213 92bd
00000260: 0fbd da3d 91df 86bd 05f7 653d f1da fcbc
00000270: 0e0d 78bd bbd8 e33d 5348 4b3c 71f4 a93d
00000280: 1260 373d 8746 a9bd e2c8 f13b a99b a2bc
00000290: 78f5 fabc d840 9f3c e3f6 abba b716 053e
000002a0: 0ccb 1b3d 4dc1 c73b e742 a9bb 6453 a03c
000002b0: 26c6 b8bd 2124 ee3d 6a23 b2bc 8ac5 133b
000002c0: 46ec c53c 0bf3 79bd c651 263c 2969 59bd
000002d0: d30c 5c3e 5be7 50bd 8357 e7bc 55e0 043c
000002e0: dc15 17bd 4fc7 843d 6769 b73d 927d 72bc
000002f0: 04ef 0a3e 9399 113e 1122 10bd 931d e73d
00000300: cc86 743c 0790 3b3d c7af 353e d4f4 b73c
00000310: fcf6 8e3c 14b8 763c a8bf b53d ccc8 693d
00000320: 08b6 a93d 4d8e f43d 09db 323d d125 b2bd
00000330: 9d97 cfbd 50b1 a7bb 669e dd3d a15a f43d
00000340: 3bc8 8ebd 54e7 6f3d aa29 913d 7af1 353d
00000350: 3b78 383d 64dc 113c 3c30 c23c 3ac2 bb3c
00000360: e6f6 0d3e 9c9a 0f3e de6d 2dbe 17b6 8f3d
00000370: 9c91 86bb 7e3b c4bd 0753 f33b 8026 883d
00000380: 1419 9c3d 3da7 8ebd 34d6 823d a5d0 903d
00000390: 4fba a0bc 6336 d0bd a6b9 eb3c 0510 d63d
000003a0: 5bfa 05be eff8 43bd 07a8 06be 937e 95bd
000003b0: 5ca4 1a3e 5823 e6bd 632e 9bbd fbe2 8cbd
000003c0: c7b0 98bd e90b 62bd 8c88 343d 62f3 06bb
000003d0: ce7d abbd cf1d 7b3b 839a ab3c 8962 75bd
000003e0: 6741 e33d 39c6 f03d d41c 19be 869d c63c
000003f0: c863 ebbd 79e8 fd3d 274b b0bd 36ed c93d
-0.1472034 0.11688593 0.09223196 -0.12643152 -0.015461309 0.10408321 0.21247646 0.106433295
-0.08139032 0.03760541 -0.05022088 -0.035005044 0.08470588 -0.04786186 0.10710923 -0.24610242
-0.17366421 0.24317685 -0.1896412 -0.07045698 0.050545815 -0.20415643 -0.0054977625 0.08667368
-0.101786874 -0.011838804 -0.03186154 0.13082145 -0.01072444 0.047330365 0.20036934 -0.027830757
0.046321742 0.13064279 0.12212943 -0.0110976 0.06957514 -0.121838145 0.0100460835 0.113288626
0.0433979 -0.07366217 -0.10227104 0.021752106 -0.15817918 0.15546483 0.08636724 0.17485492
-0.06855288 -0.087002516 -0.04331416 -0.14615415 0.08603479 -0.07945769 -0.00039491427 0.065048374
-0.037354946 -0.03831639 -0.02146305 0.05098523 -0.14438972 0.05748987 -0.040361773 0.12487097
-0.06722752 -0.0071585546 -0.1147459 -0.023050327 -0.0025745058 -0.07417294 -0.086140424 -0.022466062
-0.08966894 -0.19100824 -0.2386755 -0.009155697 0.03900968 0.057731856 0.000628063 -0.08842345
-0.06809168 -0.0063300165 -0.22217534 0.098452084 0.021134945 -0.23603508 0.095428765 0.0059170728
0.023017481 -0.0163434 -0.041076485 -0.0421222 0.019463256 0.01048724 -0.08883107 0.07912298
-0.10087953 -0.10167382 -0.03248555 0.09317786 -0.09974256 -0.06603887 -0.015022692 0.04968596
0.20311695 0.056092326 -0.014987025 -0.121015675 0.030113101 -0.09571361 0.0340721 -0.08153314
0.13441755 -0.14648938 0.045148004 0.16781999 0.010591432 -0.034249768 -0.032606717 0.04726374
0.029069727 -0.1742243 0.11820572 0.15049048 -0.119473815 0.0014787612 0.0015247994 0.061825953
-0.12012077 0.013166791 0.075682096 -0.0795075 -0.06544673 0.09238022 -0.07485606 0.13415144
0.0162041 0.09829367 0.0074634114 -0.0688021 0.0023584024 0.014225326 0.0035433418 -0.032667857
0.10386487 -0.044918075 -0.024141528 -0.1576928 0.05028654 -0.022911951 0.15802786 -0.071325555
0.10680591 -0.06585611 0.05614378 -0.030866118 -0.060559325 0.111253224 0.01240738 0.082985766
0.044769354 -0.08265405 0.0073786834 -0.019849615 -0.030634627 0.0194401 -0.0013119843 0.12996946
0.038035437 0.0060960413 -0.005165446 0.019571014 -0.09022169 0.11627985 -0.021745402 0.0022548162
0.024160516 -0.0610228 0.010151332 -0.053078804 0.21489267 -0.051001888 -0.028239971 0.008110126
-0.03688608 0.064833276 0.08955651 -0.014800446 0.1356774 0.1421874 -0.03518874 0.11284938
0.014924716 0.045791652 0.17742835 0.02245561 0.017451756 0.015058536 0.08874446 0.05707626
0.08286673 0.11941204 0.04366592 -0.08698619 -0.1013634 -0.005117573 0.10821228 0.119313486
-0.06971785 0.05857022 0.07088025 0.044419743 0.045036536 0.008902643 0.02370464 0.022919763
0.13863716 0.14023823 -0.16936442 0.07017153 -0.0041067135 -0.0958166 0.007425669 0.06647968
0.07621971 -0.06965492 0.06388512 0.07071046 -0.019620089 -0.101666234 0.028775048 0.10452274
-0.13083784 -0.047844823 -0.13150035 -0.07299533 0.1510176 -0.1123721 -0.07577207 -0.068792306
-0.074555926 -0.05518714 0.044075534 -0.0020591845 -0.08373605 0.0038317328 0.0209477 -0.059908424
0.11096459 0.11756558 -0.14952403 0.024245035 -0.11493641 0.12397856 -0.08608084 0.098596975
