results/idPruebaRectaDemo/AgenteCoche/AgenteCoche-499936.pt (torch, 280783 bytes, 18 tensors)

network_body._body_endoder.seq_layers.0.weight f4 [128, 43]
0	0xbe26c261	-0.16285087
1	0xbdcf2889	-0.10115153
2	0x3ebd521c	0.36976707
3	0xbd9cff18	-0.07665843
4	0x3e48e39c	0.19618076
5	0x3e1df8f2	0.15426996
6	0xbe1d8399	-0.15382232
7	0xbdfb8fee	-0.12283312
8	0xbda8e557	-0.08246868
9	0xbdf15d51	-0.11785377
10	0xbe25f174	-0.16205388
11	0x3d390b6b	0.045176905
12	0x3e123593	0.1427825
13	0x3dd83166	0.10556297
14	0xbdf19725	-0.11796407
15	0x3d89ff0e	0.06738101
16	0xbdce25f1	-0.100658305
17	0xbe69c1c1	-0.22827817
18	0xbe50c78d	-0.20388623
19	0xbe6cee78	-0.23137844
20	0x3dc26baa	0.094931915
21	0xbe69fa07	-0.22849284
22	0x3e170e33	0.1475151
23	0x3daf693d	0.085649945
24	0x3cd441cf	0.025910286
25	0xbe179550	-0.14803052
26	0x3e12892d	0.14310141
27	0xbccb7374	-0.024835326
28	0x3e4af0be	0.19818398
29	0x3e22ca7f	0.15897559
30	0xbd5e4901	-0.05426884
31	0x3e41db10	0.18931222
32	0x3e1c1f7f	0.1524639
33	0x3da5b59a	0.080912784
34	0x3d70d0ac	0.058792755
35	0xbd43ff36	-0.04785081
36	0xbcf6fe85	-0.030150661
37	0xbdd31882	-0.10307409
38	0x3d4cbd13	0.049985003
39	0xbc3a8267	-0.011383629
40	0xbbbd5b63	-0.0057787164
41	0xbdde15a0	-0.108439684
42	0xbd0e4b08	-0.034739524
43	0xbd52999d	-0.05141603
44	0x3cac58ff	0.02103853
45	0x3b0258a9	0.0019889271
46	0xbeb34316	-0.3501212
47	0xbe023ac4	-0.1271773
48	0x3e04b152	0.12958267
49	0xbde38ae4	-0.11110476
50	0x3dfeaa1d	0.1243479
51	0xbd4f50c9	-0.050614152
52	0x3d18ee0f	0.037336405
53	0x3d9d9283	0.076939605
54	0xbe1b15c1	-0.15145017
55	0xbdc88a1c	-0.09791967
56	0xbcfc8467	-0.030824853
57	0x3ca2d363	0.019876188
58	0x3e51d03e	0.20489594
59	0xbe1b1785	-0.1514569
60	0x3e9552bb	0.2916468
61	0xbe05783a	-0.13034144
62	0xbb594808	-0.0033154506
63	0xbe08e426	-0.13368282
64	0x3d813266	0.06308441
65	0x3e84c9df	0.25935265
66	0x3d57cb53	0.05268414
67	0xbe1ef25a	-0.15522137
68	0x3d972e0f	0.07381832
69	0x3cba4f3a	0.022742856
70	0x3eb5a1db	0.35475048
71	0xbdbeafeb	-0.093108974
72	0xbc9a9cf6	-0.018873673
73	0xbd8b4bc3	-0.0680156
74	0xbe93bd5b	-0.28855404
75	0xbdff6c3d	-0.12471817
76	0x3e2894fb	0.16463082
77	0xbcb1deb7	-0.021712644
78	0xbe384da8	-0.17998374
79	0xbe396941	-0.18106557
80	0x3e32c2c0	0.17457104
81	0x3d0d9ed4	0.0345753
82	0x3dc1fa4c	0.094715685
83	0x3e0934ab	0.13398997
84	0xbeda5464	-0.4264251
85	0xbd20ff62	-0.039306052
86	0x3e1871d7	0.14887176
87	0xbdbb9b96	-0.09160535
88	0xbd66efbb	-0.05638097
89	0xbc92b2ea	-0.017907578
90	0xbc78b55c	-0.015179958
91	0xbdc84733	-0.09779205
92	0x3ce4a374	0.027909972
93	0xbdc050c2	-0.09390403
94	0xbd5dcecc	-0.054152295
95	0xbe52123b	-0.20514767
96	0xbe04801d	-0.12939496
97	0x3d4523b1	0.04812974
98	0xbdbe3f74	-0.092894465
99	0x3e35554a	0.17708316
100	0x3c101b44	0.008795563
101	0xbd9c2537	-0.07624286
102	0x3e79e6d8	0.24404466
103	0xbe771add	-0.24131341
104	0xbd5ec300	-0.054385185
105	0xbda126ef	-0.07868754
106	0x3d034c8e	0.03205543
107	0xbd8df704	-0.0693188
108	0xbe0a3d09	-0.13499846
109	0x3e56e055	0.20984013
110	0xbe5ec9db	-0.21756689
111	0x3e128a38	0.14310539
112	0xbe0509fe	-0.12992093
113	0x3e38d557	0.18050133
114	0x3e2ee2c5	0.17078693
115	0xbc82b517	-0.015955491
116	0xbe71aaf9	-0.23600377
117	0x3e725281	0.23664285
118	0xbd3c24df	-0.0459336
119	0xbc1ae988	-0.009455092
120	0x3e4bcc13	0.19902067
121	0xbd3a8735	-0.0455391
122	0x3dc516c2	0.09623481
123	0x3ca4f895	0.020138064
124	0x3e64491c	0.22293514
125	0xbdf5993f	-0.1199212
126	0x3da1372d	0.07871852
127	0x3dab3c77	0.08361142
128	0x3db61110	0.08889973
129	0x3d9e7414	0.07736984
130	0x3d6b4f47	0.05744865
131	0xbc92756c	-0.017878257
132	0x3e493010	0.1964724
133	0xbe064094	-0.13110572
134	0x3e341d9b	0.17589419
135	0x3c1d1a2b	0.009588758
136	0xbd66cb4b	-0.05634622
137	0xbdcac262	-0.09900357
138	0x3db9c684	0.09071067
139	0x3c4f284f	0.012643888
140	0xbe2cda56	-0.16880164
141	0xbea49124	-0.32141984
142	0xbc88d8e3	-0.016704982
143	0x3e60a1b8	0.21936691
144	0x3c217851	0.009855346
145	0x3e1ad315	0.15119584
146	0x3ea77899	0.32709196
147	0xbdcc5e62	-0.099789396
148	0xbc3ca46f	-0.011513813
149	0x3d273b7e	0.04082822
150	0xbe222912	-0.1583598
151	0x3ea08116	0.31348485
152	0x3e6ff058	0.23431528
153	0xbcac2731	-0.021014782
154	0x3caf7f5b	0.021423033
155	0x3d24fdc5	0.040281076
156	0xbda704d6	-0.08155219
157	0x3dbbd429	0.09171326
158	0xbddecb81	-0.10878659
159	0xbd759722	-0.059958585
160	0xbe52249b	-0.20521776
161	0xbe84ef11	-0.25963643
162	0xbbec252e	-0.0072065806
163	0xbe6c8c1c	-0.23100322
164	0x3e9de2ba	0.3083704
165	0xbddae1d6	-0.10687606
166	0x3d037ab4	0.03209944
167	0xbe2f50d2	-0.17120674
168	0x3cea7ebb	0.028624883
169	0xbe210835	-0.15725787
170	0xbe27ebe2	-0.16398576
171	0x3db052d4	0.08609548
172	0x3cb3b7b2	0.021938179
173	0xbec04e2f	-0.3755965
174	0xbd87e579	-0.06635565
175	0xbe0fe530	-0.14052272
176	0x3db462ef	0.088079326
177	0xbcabbc32	-0.020963762
178	0x3ea02d1c	0.31284416
179	0xbe20e0b2	-0.15710714
180	0xbc99dd0a	-0.018782157
181	0xbdec7187	-0.11545091
182	0xbe1ed1db	-0.15509741
183	0xbc0f07fc	-0.008729931
184	0x3e9c20ce	0.30493778
185	0x3d92fa68	0.071766675
186	0xbd0f5c92	-0.03500039
187	0x3e0ba3ef	0.13636754
188	0x3d25c7c4	0.040473714
189	0x3e802aec	0.25032747
190	0x3c0b67c5	0.008508627
191	0xbe3a3586	-0.1818448
192	0xbd568c52	-0.052379914
193	0x3e9ff95c	0.31244934
194	0xbd84555a	-0.06461592
195	0xbc9c889f	-0.019108115
196	0x3e062998	0.13101804
197	0x3df96c33	0.121788405
198	0xbe387681	-0.18013956
199	0x3dd1bfa5	0.102416314
200	0x3e6de07f	0.2323017
201	0x38900c52	6.86875e-05
202	0x3d7394df	0.059468146
203	0xbe97eb09	-0.29671505
204	0xbe06fbf1	-0.13182046
205	0xbeae8598	-0.340863
206	0x3d597748	0.05309227
207	0xbdda0491	-0.10645402
208	0xbdbc80ce	-0.09204255
209	0x3e2da6db	0.16958182
210	0xbd969edc	-0.07354519
211	0x3e9ca65e	0.30595678
212	0xbd235e76	-0.039885007
213	0xbdd67b57	-0.10472744
214	0xbb8027b1	-0.0039109816
215	0x3e1791d7	0.14801727
216	0xbd71b5b5	-0.05901118
217	0xbe5b08e5	-0.21390112
218	0x3e46aeea	0.19402662
219	0x3d1ec42f	0.038761314
220	0xbd4ee015	-0.05050667
221	0x3de8cafd	0.11366842
222	0xbb5ba2b5	-0.003351373
223	0x3d61be21	0.05511296
224	0xbda160a8	-0.07879764
225	0xbdf823dd	-0.121162154
226	0x3d11d541	0.035603765
227	0x3ea8c818	0.3296516
228	0xbe0a5dac	-0.13512295
229	0xbe850d8c	-0.25986898
230	0xbe842042	-0.2580586
231	0x3e0c3565	0.13692243
232	0x3c8bc9a4	0.017063923
233	0xbe87b7b7	-0.2650735
234	0x3d2f7d9a	0.042844392
235	0x3daeea28	0.085407555
236	0xbd9ae94d	-0.0756403
237	0xbe2d5e30	-0.16930461
238	0xbda70aa5	-0.08156327
239	0xbdb1e3c3	-0.0868602
240	0xbe9a8ae0	-0.30184078
241	0xbd683e06	-0.056699775
242	0xbe54aed1	-0.20769812
243	0x3e97cb94	0.29647505
244	0x3d95269c	0.07282755
245	0x3d777479	0.06041381
246	0xbdd23d78	-0.102656305
247	0x3d920a7c	0.07130906
248	0x3e4abbdc	0.19798225
249	0x3ae447d6	0.0017416428
250	0xbc1994c9	-0.009373852
251	0xbea4808b	-0.3212932
252	0xbcd8e3e5	-0.026475856
253	0x3c60fd9a	0.013732338
254	0xbbac9f49	-0.0052680117
255	0xbd9067fb	-0.07051083

network_body._body_endoder.seq_layers.0.bias f4 [128]
0	0x00000000	0.0
1	0x00000000	0.0
2	0x00000000	0.0
3	0x00000000	0.0
4	0x00000000	0.0
5	0x00000000	0.0
6	0x00000000	0.0
7	0x00000000	0.0
8	0x00000000	0.0
9	0x00000000	0.0
10	0x00000000	0.0
11	0x00000000	0.0
12	0x00000000	0.0
13	0x00000000	0.0
14	0x00000000	0.0
15	0x00000000	0.0
16	0x00000000	0.0
17	0x00000000	0.0
18	0x00000000	0.0
19	0x00000000	0.0
20	0x00000000	0.0
21	0x00000000	0.0
22	0x00000000	0.0
23	0x00000000	0.0
24	0x00000000	0.0
25	0x00000000	0.0
26	0x00000000	0.0
27	0x00000000	0.0
28	0x00000000	0.0
29	0x00000000	0.0
30	0x00000000	0.0
31	0x00000000	0.0
32	0x00000000	0.0
33	0x00000000	0.0
34	0x00000000	0.0
35	0x00000000	0.0
36	0x00000000	0.0
37	0x00000000	0.0
38	0x00000000	0.0
39	0x00000000	0.0
40	0x00000000	0.0
41	0x00000000	0.0
42	0x00000000	0.0
43	0x00000000	0.0
44	0x00000000	0.0
45	0x00000000	0.0
46	0x00000000	0.0
47	0x00000000	0.0
48	0x00000000	0.0
49	0x00000000	0.0
50	0x00000000	0.0
51	0x00000000	0.0
52	0x00000000	0.0
53	0x00000000	0.0
54	0x00000000	0.0
55	0x00000000	0.0
56	0x00000000	0.0
57	0x00000000	0.0
58	0x00000000	0.0
59	0x00000000	0.0
60	0x00000000	0.0
61	0x00000000	0.0
62	0x00000000	0.0
63	0x00000000	0.0
64	0x00000000	0.0
65	0x00000000	0.0
66	0x00000000	0.0
67	0x00000000	0.0
68	0x00000000	0.0
69	0x00000000	0.0
70	0x00000000	0.0
71	0x00000000	0.0
72	0x00000000	0.0
73	0x00000000	0.0
74	0x00000000	0.0
75	0x00000000	0.0
76	0x00000000	0.0
77	0x00000000	0.0
78	0x00000000	0.0
79	0x00000000	0.0
80	0x00000000	0.0
81	0x00000000	0.0
82	0x00000000	0.0
83	0x00000000	0.0
84	0x00000000	0.0
85	0x00000000	0.0
86	0x00000000	0.0
87	0x00000000	0.0
88	0x00000000	0.0
89	0x00000000	0.0
90	0x00000000	0.0
91	0x00000000	0.0
92	0x00000000	0.0
93	0x00000000	0.0
94	0x00000000	0.0
95	0x00000000	0.0
96	0x00000000	0.0
97	0x00000000	0.0
98	0x00000000	0.0
99	0x00000000	0.0
100	0x00000000	0.0
101	0x00000000	0.0
102	0x00000000	0.0
103	0x00000000	0.0
104	0x00000000	0.0
105	0x00000000	0.0
106	0x00000000	0.0
107	0x00000000	0.0
108	0x00000000	0.0
109	0x00000000	0.0
110	0x00000000	0.0
111	0x00000000	0.0
112	0x00000000	0.0
113	0x00000000	0.0
114	0x00000000	0.0
115	0x00000000	0.0
116	0x00000000	0.0
117	0x00000000	0.0
118	0x00000000	0.0
119	0x00000000	0.0
120	0x00000000	0.0
121	0x00000000	0.0
122	0x00000000	0.0
123	0x00000000	0.0
124	0x00000000	0.0
125	0x00000000	0.0
126	0x00000000	0.0
127	0x00000000	0.0

network_body._body_endoder.seq_layers.2.weight f4 [128, 128]
0	0xbc80d4ea	-0.015726525
1	0x3e255c00	0.16148376
2	0xbd576056	-0.052582107
3	0x3dae8079	0.08520598
4	0xbe21516d	-0.15753718
5	0xbe141d2e	-0.14464256
6	0x3d5ef8c5	0.054436464
7	0xbd8d0c48	-0.06887108
8	0x3d44a913	0.048012804
9	0x3defb05e	0.11703561
10	0xbdfc9ac1	-0.123342045
11	0xbd604b2f	-0.0547592
12	0x3d2e6841	0.042579893
13	0x3d98b164	0.074557096
14	0x3e384b1d	0.17997403
15	0xbe289ad4	-0.16465312
16	0xbc31cbc7	-0.010851807
17	0x3db550b7	0.08853286
18	0x3d07a7f0	0.033119142
19	0xbd2f7166	-0.042832755
20	0x3db85257	0.0900008
21	0x3e118e61	0.1421447
22	0x3b503530	0.0031769983
23	0x3c3caf5f	0.011516421
24	0xbbd969cd	-0.006634927
25	0x3d24f1e3	0.040269744
26	0xbd7f73a2	-0.062366135
27	0x3d7f0861	0.06226385
28	0x3d1362fb	0.035983067
29	0xbd61131c	-0.054949865
30	0x3d61fb93	0.05517156
31	0x3dedfd1d	0.11620543
32	0xbd1671a1	-0.03672946
33	0x3dd940df	0.10608076
34	0x3d8f18e7	0.069871716
35	0xbe5663d5	-0.2093652
36	0xbc4e5db0	-0.012595579
37	0x3ce2ff4b	0.027709624
38	0xbd4cfede	-0.050047748
39	0x3df73a2a	0.12071641
40	0x3e3d8152	0.18506363
41	0xbd62cf9a	-0.055373766
42	0x3da06f09	0.07833678
43	0xbe336ab0	-0.17521167
44	0x3da7be7a	0.081906274
45	0xbd547f48	-0.051879197
46	0xbd2ee8e6	-0.042702578
47	0x3da88ac2	0.08229591
48	0x3d69a040	0.057037592
49	0x3b32de50	0.0027293153
50	0x3ddf2558	0.10895795
51	0x3ba16733	0.0049256324
52	0x3d5d4da0	0.054029107
53	0x3dd9a4be	0.10627125
54	0xbe2bdfa4	-0.16784531
55	0xbe07a064	-0.13244778
56	0xbc268b1d	-0.010165003
57	0x3d0e93d5	0.034808952
58	0x3ce9197c	0.028454535
59	0x3d467145	0.048447866
60	0xbbc9f641	-0.006163389
61	0xbd5cd41d	-0.053913224
62	0x3d946418	0.07245654
63	0x3de1e01c	0.110290736
64	0xbb405aa1	-0.0029350894
65	0xbdc59f54	-0.0964953
66	0xbce9cc2d	-0.028539741
67	0x3cb50366	0.022096347
68	0x3d89ee56	0.06734912
69	0x3cb35311	0.021890195
70	0x3ac265d2	0.001483137
71	0xbdb4debe	-0.08831547
72	0x3c61a737	0.013772777
73	0x3e3908ca	0.18069759
74	0xbd41c3d7	-0.047305908
75	0xbe45b88f	-0.19308685
76	0x3e0d720c	0.13813037
77	0x3d92a498	0.071603
78	0xbe16d42e	-0.14729378
79	0xbcbebd23	-0.023283547
80	0x3d805d3f	0.06267785
81	0x3ddc6264	0.10760954
82	0xbd8d5a0c	-0.06901941
83	0x3d11f398	0.0356327
84	0xbda4cee7	-0.08047276
85	0x3d69b9a7	0.057061817
86	0x3d851f1b	0.065000735
87	0xbd9bd3ff	-0.076087944
88	0x3bd79494	0.006578991
89	0xbb8d879d	-0.004319145
90	0xbe2bf5c3	-0.1679297
91	0x3e3c3c6a	0.18382421
92	0xbd7a1e71	-0.061064187
93	0x3e05f68f	0.13082336
94	0xbe0ad06f	-0.13556074
95	0xbd7f785b	-0.06237064
96	0xbcfa6243	-0.030564433
97	0x3d5c5d2d	0.053799797
98	0x3da40de8	0.08010465
99	0xbd446b46	-0.047953866
100	0x3b954367	0.004555154
101	0xbd8569f4	-0.065143496
102	0x3d926b5d	0.07149384
103	0xbdfb28b0	-0.1226362
104	0x39d79cf5	0.00041124938
105	0xbd4271a0	-0.047471642
106	0x3e7f1bb5	0.24912913
107	0x3d1d9a29	0.038477097
108	0xbe26b008	-0.16278088
109	0x3d10fd60	0.035397887
110	0xbd6dd073	-0.05806012
111	0xbcdc36ac	-0.026881538
112	0xbd602121	-0.054719094
113	0x3d9cd1fd	0.076572396
114	0x3acfc533	0.0015851617
115	0xbd7a7b86	-0.061152957
116	0xbcd2f7f5	-0.025753
117	0x3d6b531f	0.057452317
118	0x3daed488	0.08536631
119	0x3e1457e0	0.14486647
120	0x3de4dd83	0.111750625
121	0x3d01afe9	0.0316619
122	0xbda8cded	-0.08242402
123	0x3dbf1406	0.09329991
124	0x3d128c84	0.035778537
125	0xbda2b3c7	-0.07944446
126	0x3c5cf2ec	0.013485651
127	0x3cb3847e	0.021913763
128	0x3e2094d6	0.15681776
129	0xbd81b3ce	-0.06333123
130	0x3af88335	0.0018960001
131	0xbbbb7dcd	-0.0057217837
132	0x3dd65757	0.104658775
133	0x3d6203ab	0.05517928
134	0x3e0fcdec	0.14043397
135	0x3a986809	0.0011627685
136	0x3dcb90e0	0.09939742
137	0xbe1fc1f5	-0.15601332
138	0x3d2f94c0	0.04286647
139	0x3e570bf1	0.21000649
140	0x3d7c3216	0.061571203
141	0xbd84283b	-0.06452986
142	0x3b1ddd1a	0.0024088086
143	0x3e2b52e6	0.16730842
144	0x3cb80877	0.022464974
145	0x3d92589d	0.07145808
146	0x3c2d4186	0.010574704
147	0xbd61d5ef	-0.055135664
148	0x3e358b9c	0.17729038
149	0xbd6f6915	-0.058449823
150	0xbba4d3af	-0.0050301175
151	0x3d54bd63	0.051938426
152	0xbd9f8d62	-0.077906385
153	0xbc959e09	-0.018263834
154	0xbe271dfe	-0.16320035
155	0xbb42c4b6	-0.00297193
156	0x3d9c4bfb	0.076316796
157	0xbc8447a4	-0.016147442
158	0xbd0a10ab	-0.033707302
159	0x3d831970	0.06401336
160	0x3e142295	0.14466317
161	0xbd87c356	-0.06629054
162	0x3c9c332b	0.019067368
163	0x3e047368	0.12934649
164	0x3e3317c7	0.17489539
165	0xbd292db6	-0.04130336
166	0x3d6a58c0	0.057213545
167	0x3c034cb0	0.008013889
168	0xbc1087dc	-0.008821454
169	0xbdcaeca6	-0.09908418
170	0x3e036d28	0.12834609
171	0x3d219ee1	0.03945816
172	0x3d2988c7	0.041390207
173	0xbdf5f621	-0.12009836
174	0xbd67e078	-0.056610554
175	0xbe2dc077	-0.16967951
176	0xbc9c3b17	-0.019071145
177	0xbdca95bf	-0.09891843
178	0xbd4149c3	-0.047189485
179	0xbc58f34b	-0.013241599
180	0xbdd84687	-0.10560327
181	0x3d234d5a	0.03986869
182	0x3d5589fe	0.052133553
183	0x3ea76bba	0.32699376
184	0x3c66ebbf	0.014094292
185	0x3e3cbe58	0.18431985
186	0x3c661c4d	0.014044833
187	0xbd6988bf	-0.057015177
188	0x3e04cf06	0.12969598
189	0x3990e6fd	0.0002763792
190	0xbda9f03e	-0.08297776
191	0xbd51d685	-0.051229972
192	0x3b89c3e8	0.004204262
193	0xbce27b29	-0.027646618
194	0xbd10a3d3	-0.035312485
195	0x3cb92b5b	0.022603681
196	0xbd1a4f03	-0.037673008
197	0xbd80bef6	-0.06286423
198	0x3d9240a8	0.071412385
199	0xbd367e04	-0.04455377
200	0x3d9f46b6	0.07777159
201	0x3d74050d	0.05957513
202	0xbd63030e	-0.055422835
203	0x3e299140	0.16559315
204	0xbd4364a5	-0.047703404
205	0x3d7ef6f7	0.062247243
206	0x3e10f3da	0.14155522
207	0xbe2f60ae	-0.17126724
208	0xbc8ccb71	-0.017186852
209	0x3d6a5c5d	0.05721699
210	0x3da79258	0.0818221
211	0x3d784a9b	0.060618024
212	0xbd816107	-0.063173346
213	0xbd168f0e	-0.03675752
214	0xbd12f28d	-0.035875846
215	0x3d848c49	0.0647207
216	0x3da6ec12	0.081504956
217	0x3e367a3c	0.17820066
218	0x3dde6c45	0.108604945
219	0xbd95f4b7	-0.07322066
220	0x3d3334ab	0.0437514
221	0xbdf1eb49	-0.11812455
222	0xbe00452e	-0.1252639
223	0x3cf4c42c	0.029878698
224	0xbe12acaf	-0.14323686
225	0x3dc94f2a	0.098295525
226	0xbd8cee2e	-0.06881367
227	0xbe0d6ea0	-0.13811731
228	0xbdf21769	-0.118208714
229	0xbd667069	-0.056259546
230	0xbd33c6dd	-0.043890823
231	0xbcc46add	-0.023976738
232	0xbc895fc5	-0.0167693
233	0x3c46f096	0.012142321
234	0x3e425df6	0.18981156
235	0x3c9e369f	0.019313155
236	0x3dd119a0	0.10209966
237	0xbd92676f	-0.07148635
238	0x3e10adc3	0.14128785
239	0x3daaaf69	0.08334238
240	0x3d30a7a7	0.043128636
241	0xbdf1f1f6	-0.118137285
242	0xbdf67256	-0.120335266
243	0xbc19b8e6	-0.009382462
244	0xbe36df46	-0.1785861
245	0xbce12055	-0.027481237
246	0xbd323622	-0.043508656
247	0x3e07be9a	0.13256302
248	0xbe35647a	-0.1771411
249	0xbddea0fd	-0.1087055
250	0xbdd5ec2f	-0.10445439
251	0xbd253655	-0.04033502
252	0xbe0878c2	-0.13327315
253	0x3d48ec98	0.04905376
254	0xbcab3f22	-0.020904128
255	0xbd095979	-0.033532593

network_body._body_endoder.seq_layers.2.bias f4 [128]
0	0x00000000	0.0
1	0x00000000	0.0
2	0x00000000	0.0
3	0x00000000	0.0
4	0x00000000	0.0
5	0x00000000	0.0
6	0x00000000	0.0
7	0x00000000	0.0
8	0x00000000	0.0
9	0x00000000	0.0
10	0x00000000	0.0
11	0x00000000	0.0
12	0x00000000	0.0
13	0x00000000	0.0
14	0x00000000	0.0
15	0x00000000	0.0
16	0x00000000	0.0
17	0x00000000	0.0
18	0x00000000	0.0
19	0x00000000	0.0
20	0x00000000	0.0
21	0x00000000	0.0
22	0x00000000	0.0
23	0x00000000	0.0
24	0x00000000	0.0
25	0x00000000	0.0
26	0x00000000	0.0
27	0x00000000	0.0
28	0x00000000	0.0
29	0x00000000	0.0
30	0x00000000	0.0
31	0x00000000	0.0
32	0x00000000	0.0
33	0x00000000	0.0
34	0x00000000	0.0
35	0x00000000	0.0
36	0x00000000	0.0
37	0x00000000	0.0
38	0x00000000	0.0
39	0x00000000	0.0
40	0x00000000	0.0
41	0x00000000	0.0
42	0x00000000	0.0
43	0x00000000	0.0
44	0x00000000	0.0
45	0x00000000	0.0
46	0x00000000	0.0
47	0x00000000	0.0
48	0x00000000	0.0
49	0x00000000	0.0
50	0x00000000	0.0
51	0x00000000	0.0
52	0x00000000	0.0
53	0x00000000	0.0
54	0x00000000	0.0
55	0x00000000	0.0
56	0x00000000	0.0
57	0x00000000	0.0
58	0x00000000	0.0
59	0x00000000	0.0
60	0x00000000	0.0
61	0x00000000	0.0
62	0x00000000	0.0
63	0x00000000	0.0
64	0x00000000	0.0
65	0x00000000	0.0
66	0x00000000	0.0
67	0x00000000	0.0
68	0x00000000	0.0
69	0x00000000	0.0
70	0x00000000	0.0
71	0x00000000	0.0
72	0x00000000	0.0
73	0x00000000	0.0
74	0x00000000	0.0
75	0x00000000	0.0
76	0x00000000	0.0
77	0x00000000	0.0
78	0x00000000	0.0
79	0x00000000	0.0
80	0x00000000	0.0
81	0x00000000	0.0
82	0x00000000	0.0
83	0x00000000	0.0
84	0x00000000	0.0
85	0x00000000	0.0
86	0x00000000	0.0
87	0x00000000	0.0
88	0x00000000	0.0
89	0x00000000	0.0
90	0x00000000	0.0
91	0x00000000	0.0
92	0x00000000	0.0
93	0x00000000	0.0
94	0x00000000	0.0
95	0x00000000	0.0
96	0x00000000	0.0
97	0x00000000	0.0
98	0x00000000	0.0
99	0x00000000	0.0
100	0x00000000	0.0
101	0x00000000	0.0
102	0x00000000	0.0
103	0x00000000	0.0
104	0x00000000	0.0
105	0x00000000	0.0
106	0x00000000	0.0
107	0x00000000	0.0
108	0x00000000	0.0
109	0x00000000	0.0
110	0x00000000	0.0
111	0x00000000	0.0
112	0x00000000	0.0
113	0x00000000	0.0
114	0x00000000	0.0
115	0x00000000	0.0
116	0x00000000	0.0
117	0x00000000	0.0
118	0x00000000	0.0
119	0x00000000	0.0
120	0x00000000	0.0
121	0x00000000	0.0
122	0x00000000	0.0
123	0x00000000	0.0
124	0x00000000	0.0
125	0x00000000	0.0
126	0x00000000	0.0
127	0x00000000	0.0

action_model._continuous_distribution.log_sigma f4 [1, 2]
0	0x00000000	0.0
1	0x00000000	0.0

action_model._continuous_distribution.mu.weight f4 [2, 128]
0	0xbc8444b5	-0.016146043
1	0x3c06a970	0.008219108
2	0xbd19defb	-0.037566166
3	0x3bab7535	0.005232478
4	0x3ba9188f	0.0051603983
5	0xbd3678c9	-0.044548783
6	0xbce7e2d3	-0.0283064
7	0xbbbe8675	-0.0058143684
8	0x3c0e88db	0.008699621
9	0xbc1ddd77	-0.009635321
10	0x3c2bdd5f	0.010489791
11	0x3c3d4600	0.011552334
12	0x3d3aaeb4	0.045576766
13	0x3d1b4103	0.037903797
14	0xbc83946c	-0.016061984
15	0xbc09078d	-0.008363617
16	0x3bace3cd	0.0052761794
17	0x3c1e75c1	0.009671629
18	0xb997e30b	-0.00028970125
19	0x3a803a14	0.0009782934
20	0x3a9bd6aa	0.0011889536
21	0xbc841a09	-0.016125696
22	0xbcc332dc	-0.023827963
23	0x3b8562e3	0.004070626
24	0x3cf9c4bf	0.030489324
25	0x3b93af13	0.0045069545
26	0xbccd413a	-0.025055517
27	0xbaebb7f3	-0.0017983898
28	0x3cb6bd7b	0.022307148
29	0xbc00ce7a	-0.007861728
30	0x3c352786	0.011056786
31	0xbb4b0613	-0.0030978962
32	0xbbe952db	-0.007120473
33	0xbbe05273	-0.006845766
34	0x3c4aee53	0.0123859225
35	0xbc1fcaed	-0.009752971
36	0xbc8410e3	-0.016121333
37	0x3c69041a	0.014222169
38	0xbc1ba987	-0.009500868
39	0x3bbd979f	0.005785897
40	0xbc3642f7	-0.011124364
41	0xbb8bc2eb	-0.0042651794
42	0x3cf49a1a	0.029858638
43	0x3b9bc183	0.004753293
44	0x3d0e1dd9	0.034696434
45	0x3d17b01b	0.03703318
46	0xbc0a6472	-0.0084468
47	0xbcfd2432	-0.030901048
48	0x3cbc6689	0.022998111
49	0x3b239799	0.0024962185
50	0x3c72708a	0.014797339
51	0x3c4b2fb5	0.012401511
52	0x3c9b18ae	0.018932667
53	0xba34b65c	-0.0006893629
54	0xbb6991da	-0.0035639913
55	0xbca1a17a	-0.019730318
56	0xbc8d7edf	-0.01727241
57	0xbc3fe140	-0.011711419
58	0xbba5adb9	-0.0050561097
59	0xbbbb0ebd	-0.005708544
60	0x3bc9987a	0.00615221
61	0x3ad8a38b	0.0016528232
62	0x3c8d225f	0.017228303
63	0xbad0c64b	-0.0015928237
64	0x3c0ff1a6	0.008785641
65	0x3c7674f2	0.01504253
66	0x3be566b3	0.007000768
67	0xbcb4185f	-0.021984277
68	0xbc55bf80	-0.013046145
69	0xbc76c220	-0.015060931
70	0xbba209fe	-0.004945039
71	0x3b2a5432	0.0025990126
72	0xbc2a025f	-0.010376542
73	0xbcb01fac	-0.021499477
74	0xbc37bb86	-0.011214143
75	0xbb11ce47	-0.0022248195
76	0xbd171d2c	-0.036893055
77	0xbc5053a3	-0.012715253
78	0x3caf3305	0.021386633
79	0xbd09ba15	-0.033624727
80	0x3bf1991b	0.007372988
81	0xbcb2c3da	-0.021821905
82	0x3a6ea49d	0.0009103509
83	0x3c204ba3	0.009783658
84	0xbc363acf	-0.0111224195
85	0x3cd485b8	0.025942668
86	0x3b25ab3f	0.0025279073
87	0xbc890aca	-0.016728777
88	0x3cd96f7a	0.026542414
89	0xbc30d21e	-0.010792283
90	0x3c89f51f	0.016840516
91	0x3c132deb	0.008983116
92	0xbbb1288a	-0.005406444
93	0xbc7c8e1a	-0.015414739
94	0x3c2a7277	0.010403267
95	0xbc5e3203	-0.013561728
96	0x3a42d248	0.0007431847
97	0x3cd58e38	0.026068792
98	0x3c201ee7	0.009772993
99	0x3c4cdb22	0.012503417
100	0x3d066eba	0.03282044
101	0x3bc89e90	0.0061224177
102	0xbcea99e2	-0.02863783
103	0xbb8fb24d	-0.004385269
104	0xbc4b3782	-0.012403371
105	0x3cae7137	0.02129422
106	0xbcb46167	-0.022019101
107	0xbce44c03	-0.027868276
108	0x3c82ef5d	0.015983278
109	0xbd0146f4	-0.031561807
110	0xb8a8186c	-8.015413e-05
111	0xbc733677	-0.014844528
112	0x3ca29a8b	0.019849082
113	0xbc46b079	-0.012127035
114	0xbb81801b	-0.003952039
115	0x39a69a4c	0.00031776947
116	0xbb80ab11	-0.0039266427
117	0x3c3782ce	0.01120062
118	0xbbc15588	-0.0059000887
119	0xbc6f461b	-0.014604117
120	0x3cf12517	0.029436631
121	0x3bd1ba9d	0.00640042
122	0xbbb9e8b8	-0.005673494
123	0x3c9b686c	0.01897069
124	0xbc9d30e8	-0.01918836
125	0x3d29f7ef	0.041496214
126	0xba51348b	-0.0007980547
127	0x3b395550	0.002827961
128	0x3c851eb3	0.01624999
129	0x3b04774f	0.0020212715
130	0xbc74db3a	-0.014944846
131	0x3c5ac945	0.01335365
132	0x3c44b72d	0.012006563
133	0x3bfeb663	0.007773207
134	0x3a497b25	0.00076858915
135	0x3c902163	0.017594045
136	0xbcb01e8f	-0.021498946
137	0x38679abd	5.5218803e-05
138	0x3c529455	0.012852748
139	0x3cc5160a	0.02405836
140	0x3c88363b	0.016627422
141	0x3caaff26	0.020873617
142	0x3bdf6c75	0.006818349
143	0xbc5c0185	-0.013428097
144	0x3b26de27	0.0025462003
145	0x3a4f14aa	0.00078995025
146	0xbc3eb4ba	-0.011639768
147	0xbc64c2a3	-0.013962421
148	0x3ca63df4	0.020293213
149	0x3cb5c843	0.022190219
150	0xbc3bd2c5	-0.011463826
151	0xbc95a90c	-0.018269084
152	0xbc98f9f6	-0.018673878
153	0xbc73f868	-0.014890768
154	0xbbc57f4c	-0.006027138
155	0xbd0ffdc0	-0.035154104
156	0x3c7c22bf	0.0153891435
157	0x3b30e597	0.0026992315
158	0xbb586a2d	-0.003302227
159	0xbc8510ff	-0.016243456
160	0x3bba116f	0.005678348
161	0x3a0a1363	0.0005267171
162	0x3cd1b125	0.025597164
163	0x3be58067	0.007003832
164	0xbb695d27	-0.0035608502
165	0xbc0c9307	-0.008579976
166	0x3cf2d3f7	0.029642088
167	0x3c1bebe8	0.009516694
168	0x3af10e63	0.0018391128
169	0xbc690e63	-0.0142246215
170	0x3bbf54b2	0.005838954
171	0x3cafcda8	0.02146037
172	0xbb1006a7	-0.0021976621
173	0x3ca5b59f	0.020228205
174	0xbc51854b	-0.012788127
175	0x3d003217	0.03129777
176	0xbc30c117	-0.010788224
177	0x3c7b8cc8	0.015353389
178	0x3c84a8b4	0.016193725
179	0x3be94c78	0.0071197115
180	0x3c213557	0.009839377
181	0xbc8f930f	-0.017526178
182	0x3cf35a73	0.029706215
183	0x3caf2a53	0.021382486
184	0xbcb504d3	-0.022097027
185	0x3b878b62	0.004136489
186	0xbc888ccf	-0.016668705
187	0x3c2c5200	0.010517597
188	0x3c783e12	0.0151515175
189	0xbc735e55	-0.0148540335
190	0xbb3f0297	-0.002914583
191	0xbd1812b4	-0.03712721
192	0xbcaf1a67	-0.021374894
193	0x3c2e7573	0.010648119
194	0x3c7c56f5	0.015401592
195	0x3cdddda3	0.027083224
196	0x3cad10d5	0.02112619
197	0xbbe224ff	-0.006901383
198	0xbb5b63ca	-0.0033476227
199	0xbd23a58f	-0.03995281
200	0x3c467d5a	0.012114847
201	0xbc8a0897	-0.0168498
202	0x3bcd0130	0.006256245
203	0xbd3c6c9f	-0.046002027
204	0xbb884bf0	-0.004159443
205	0xbc56e148	-0.013115235
206	0xbd0420f1	-0.032257978
207	0xbc441bf2	-0.011969553
208	0xbc208e68	-0.009799577
209	0xba968a29	-0.0011485267
210	0x3c1c9dde	0.009559123
211	0x3c09aebb	0.008403475
212	0x3cac708b	0.021049758
213	0x3b7bb9dd	0.0038410344
214	0xbbe03b5d	-0.006843014
215	0xbc09d5c2	-0.00841278
216	0x3bdbb10d	0.0067044557
217	0xbbc64c40	-0.00605157
218	0xbc1be48e	-0.009514941
219	0x3c19f9c4	0.009397928
220	0xbc609917	-0.013708374
221	0xbb235c49	-0.0024926832
222	0x3cefc337	0.02926789
223	0x3c819e3f	0.015822528
224	0x3ccb4f98	0.024818227
225	0xbb8b22ad	-0.004246077
226	0xbcb88200	-0.022522926
227	0x3ce8c932	0.02841625
228	0xbabb6ab9	-0.0014298774
229	0x3bdb8d28	0.0067001767
230	0x3bfbe5c5	0.007687303
231	0xbc021b27	-0.007941044
232	0xbcb6b26e	-0.022301879
233	0xbb7e9720	-0.0038847402
234	0x3c47245b	0.012154664
235	0xbc1f046b	-0.009705643
236	0xbc41402c	-0.011795085
237	0xbbc2092a	-0.0059215026
238	0xbc4e7bdb	-0.012602772
239	0x3cbbc037	0.022918804
240	0x3ba100df	0.004913434
241	0xbcbc6008	-0.02299501
242	0xbc0342ed	-0.008011562
243	0xbc1ff144	-0.009762112
244	0xbb482566	-0.003053987
245	0xbc3e1547	-0.011601753
246	0x3c538525	0.012910162
247	0xbc5035c3	-0.01270813
248	0x3c50c563	0.012742373
249	0xbc507717	-0.012723706
250	0xbcaed47b	-0.021341553
251	0xbc6f8b4f	-0.014620616
252	0xbc079be5	-0.008276914
253	0xbbe47387	-0.0069717797
254	0x3c20d7a7	0.0098170405
255	0xbcc1210f	-0.023575334

action_model._continuous_distribution.mu.bias f4 [2]
0	0x00000000	0.0
1	0x00000000	0.0

network_body._body_endoder.seq_layers.0.weight f4 [128, 43]
0	0xbcdccf35	-0.026954273
1	0x3d51f23f	0.051256415
2	0xbe2932d0	-0.1652329
3	0x3e4654fe	0.1936836
4	0x3d0de89a	0.034645654
5	0xbe469663	-0.19393305
6	0x3dd1ffd2	0.10253872
7	0x3dd27a8a	0.10277279
8	0xbe158c8d	-0.14604397
9	0x3ee4f483	0.44717798
10	0x3da003fe	0.078132614
11	0xbe47bad6	-0.19504866
12	0x3e17202c	0.14758366
13	0x3dcfa795	0.101393856
14	0xbda7901d	-0.08181784
15	0xbe170e82	-0.14751628
16	0x3dab1bbf	0.083549015
17	0x3dab45f2	0.083629504
18	0x3d8c7a4d	0.068592645
19	0x3e4ccf27	0.20000897
20	0x3dd1f257	0.10251301
21	0xbdf94538	-0.121714056
22	0xbe01be46	-0.1267024
23	0xbe0a65e8	-0.13515437
24	0xbe2da125	-0.16956003
25	0xbc25d0f8	-0.010120623
26	0x3d1cb22e	0.038255863
27	0x3e242a90	0.16031861
28	0xbd7bb7d7	-0.06145462
29	0xbe11d078	-0.14239681
30	0xbc156003	-0.009117129
31	0xbd1bd9c3	-0.03804947
32	0xbd3e8a51	-0.046518628
33	0x3d40f95b	0.047112804
34	0xbe5e26ed	-0.21694537
35	0xbd08ffba	-0.033447005
36	0x3d3d9334	0.046282962
37	0xbd194689	-0.037420783
38	0x3df56ec5	0.11984018
39	0x3ceaf424	0.028680868
40	0x3e5b35b6	0.21407208
41	0x3a3df9c0	0.00072469935
42	0xbdc9fb30	-0.09862363
43	0xbe28f514	-0.1649974
44	0xbe82a84e	-0.2551903
45	0xbd9ecb03	-0.07753565
46	0x3e85183e	0.25995058
47	0x3e1203a1	0.14259197
48	0x3cc97d76	0.024595957
49	0x3de5191d	0.111864306
50	0x3e3066fa	0.17226782
51	0x3e03c8ef	0.12869619
52	0x3dee7196	0.116427585
53	0x3e6db83d	0.23214813
54	0x3ddf4f29	0.109037705
55	0x3e677b78	0.22605693
56	0xbe273eba	-0.16332522
57	0xbd508322	-0.050906308
58	0x3e2d84a3	0.16945128
59	0xbd07ddc6	-0.033170484
60	0x3b0cb023	0.002146729
61	0x3e22b4ee	0.15889332
62	0x3d7998ae	0.060936622
63	0x3e9040fd	0.28174582
64	0x3e2235d3	0.15840845
65	0x3e3daf58	0.1852392
66	0x3d10ba3c	0.035333857
67	0x3df13e9a	0.117795184
68	0x3da1d981	0.07902814
69	0xbe6bef00	-0.2304039
70	0x3dd89933	0.105760954
71	0x3cc293fc	0.023752205
72	0xbdc20554	-0.094736725
73	0xbe1a8ac3	-0.15091996
74	0xbda343ae	-0.07971893
75	0x3d24a063	0.04019202
76	0xbd45443b	-0.048160773
77	0x3db9f3b7	0.09079688
78	0xbdf126e4	-0.11774996
79	0x3e8024d6	0.25028104
80	0x3d8853b0	0.06656587
81	0xbdb3e044	-0.0878301
82	0xbd3beb12	-0.045878477
83	0xbd5fbb36	-0.054621898
84	0x3db990f9	0.090608545
85	0xbe824de2	-0.25450045
86	0x3e1220a0	0.14270258
87	0xbda6bc6c	-0.08141407
88	0x3d0b48b2	0.034004875
89	0xbc2110e9	-0.009830692
90	0xbde17e3d	-0.11010406
91	0x3e100e92	0.14068058
92	0xbd18f6cd	-0.037344743
93	0xbdd2ed63	-0.10299184
94	0x3cc85a37	0.02445708
95	0xbd94c1a3	-0.07263496
96	0xbe36ba25	-0.17844446
97	0xbd1c75c1	-0.038198236
98	0x3da46676	0.080273554
99	0xbd7458db	-0.05965505
100	0xbe061196	-0.13092646
101	0x3e12a11c	0.14319271
102	0x3e741ce0	0.2383914
103	0xbd5745d6	-0.052556835
104	0x3d6daf55	0.058028538
105	0xbdf57928	-0.11985999
106	0xbdcf2a30	-0.101154685
107	0xbdfd3a39	-0.12364621
108	0x3df41224	0.119175225
109	0x3dfa5a24	0.12224224
110	0x3ee43221	0.44569495
111	0x3d8052e1	0.06265808
112	0x3ce86a77	0.028371079
113	0xbe142fbf	-0.14471339
114	0x3df10344	0.11768201
115	0x3e472108	0.19446194
116	0x3cc4f5c0	0.024042964
117	0xbe4afb5c	-0.19822448
118	0x3d1a445f	0.03766286
119	0xbc6900a7	-0.014221347
120	0x3cb55b08	0.022138134
121	0x3c17b609	0.009259709
122	0x3cf0b220	0.029381812
123	0x3e8ad2db	0.27113995
124	0xbe0fe0b3	-0.1405056
125	0x3d96489f	0.0733807
126	0x3e5396a8	0.2066294
127	0xbd9e6af5	-0.07735244
128	0x3e00f252	0.12592438
129	0x3d4eeb60	0.05051744
130	0x3db76d3a	0.0895638
131	0xbe629fa7	-0.22131215
132	0x3e86a732	0.26299435
133	0x3d58aa81	0.05289698
134	0xbd85decb	-0.06536635
135	0xbdfc07e0	-0.123061895
136	0x3ea39247	0.31947538
137	0x3db705a4	0.08936623
138	0x3d8ba33b	0.06818243
139	0xbccb2212	-0.02479652
140	0x3e7aea0a	0.24503341
141	0x3dca4d7f	0.098780625
142	0x3e53dd74	0.20689946
143	0x3e6cbe0a	0.23119369
144	0xbd83c176	-0.06433384
145	0x3c5cbf6e	0.013473375
146	0xbeb4e3b3	-0.3532997
147	0x3dc711ac	0.097201675
148	0x3cf01d16	0.029310744
149	0xbc440200	-0.011963367
150	0x3e016cda	0.1263918
151	0xbe21fc73	-0.15818958
152	0x3e7156f1	0.23568322
153	0x3deea6ea	0.1165293
154	0xbdb1998e	-0.08671866
155	0x3d573f7d	0.05255078
156	0x3d71df12	0.059050627
157	0x3e1966c4	0.14980608
158	0x3c03c1c9	0.008041807
159	0xbe6dc988	-0.2322141
160	0xbdf66d94	-0.12032619
161	0x3dcdccc7	0.10048824
162	0xbda19192	-0.078890935
163	0x3e1dd8ad	0.15414687
164	0xbd939ea1	-0.072079904
165	0xbe006e22	-0.12542012
166	0xbd2ab7d9	-0.041679237
167	0x3ebaa63c	0.36454952
168	0xbe10c036	-0.14135823
169	0xbd7782b3	-0.06042738
170	0xbd89b117	-0.0672323
171	0xbda6cf24	-0.08144978
172	0xbe47b142	-0.19501212
173	0xbd342d34	-0.04398842
174	0xbe149d1a	-0.14513054
175	0xbe469688	-0.1939336
176	0xbda6fb6f	-0.08153426
177	0xbe033ac0	-0.1281538
178	0xbe7a8650	-0.24465299
179	0xbc48851a	-0.012238765
180	0x3e2213fe	0.15827939
181	0xbe8df162	-0.27723223
182	0x3db79d72	0.08965577
183	0xbd18775d	-0.03722321
184	0x3daf3177	0.085543565
185	0xbe295e29	-0.16539825
186	0xbd83e1da	-0.06439562
187	0xbc8308e8	-0.015995458
188	0xbe130fb0	-0.14361453
189	0x3d962f6e	0.07333265
190	0x3d4d4ad6	0.050120197
191	0xbc8c20ff	-0.017105578
192	0xbdeb36ff	-0.11485099
193	0x3e0b335c	0.13593811
194	0x3e818afb	0.25301346
195	0x3e2807d8	0.16409242
196	0x3e270ebe	0.16314217
197	0xbe50916e	-0.20367977
198	0xbe936d9f	-0.28794572
199	0xbd9326c0	-0.07185125
200	0xbe8b3790	-0.27190828
201	0xbe720e75	-0.23638327
202	0xbe55299f	-0.20816658
203	0xbe96f314	-0.2948233
204	0xbe0da3e3	-0.13832049
205	0xbe35f95c	-0.17770904
206	0xbe291ab7	-0.16514097
207	0x3abd74c1	0.0014454351
208	0x3e0f0f69	0.13970722
209	0xbafd68dd	-0.001933362
210	0x3df1b672	0.11802377
211	0x3d7041a6	0.058656357
212	0xbd41c54a	-0.04730729
213	0x3d663f01	0.05621243
214	0xbe27177a	-0.1631755
215	0x3c1132a8	0.008862175
216	0x3d8c787c	0.06858918
217	0xbe6f727c	-0.23383516
218	0x3dbc7bfd	0.092033364
219	0x3e18e508	0.14931118
220	0x3e040969	0.12894215
221	0xbe093cfe	-0.13402173
222	0xbe1b816e	-0.15186092
223	0xbead0eca	-0.33800346
224	0xbc0954ac	-0.008382004
225	0xbb8106c0	-0.0039375722
226	0xb95019f7	-0.00019846098
227	0xbd26dd32	-0.040738292
228	0x3d97cbda	0.074119285
229	0xbe486c9f	-0.19572686
230	0xbdb2dbea	-0.087333515
231	0x3df01c30	0.11724126
232	0x3e02b20d	0.12763233
233	0xbe4a5be4	-0.19761616
234	0x3e0fb333	0.14033203
235	0xbe6cb368	-0.23115313
236	0x3decca07	0.11561971
237	0x3ee982a4	0.45607483
238	0x3e030578	0.12795055
239	0x3d95555b	0.07291671
240	0x3db7cf6d	0.0897511
241	0xbdfd3fdf	-0.12365698
242	0xbea34618	-0.31889415
243	0xbe03f711	-0.12887217
244	0xbd921956	-0.07133739
245	0x3eaec052	0.34131104
246	0xbe473509	-0.19453825
247	0x3da3fd7a	0.08007331
248	0x3e0bd97e	0.13657185
249	0x3d079767	0.033103373
250	0x3e2fbf21	0.17162754
251	0x3dc460dc	0.09588787
252	0xbf0c42c0	-0.5478935
253	0x3d10fdd7	0.03539833
254	0x3c5d7b9c	0.01351824
255	0xbdf1663c	-0.11787078

network_body._body_endoder.seq_layers.0.bias f4 [128]
0	0x00000000	0.0
1	0x00000000	0.0
2	0x00000000	0.0
3	0x00000000	0.0
4	0x00000000	0.0
5	0x00000000	0.0
6	0x00000000	0.0
7	0x00000000	0.0
8	0x00000000	0.0
9	0x00000000	0.0
10	0x00000000	0.0
11	0x00000000	0.0
12	0x00000000	0.0
13	0x00000000	0.0
14	0x00000000	0.0
15	0x00000000	0.0
16	0x00000000	0.0
17	0x00000000	0.0
18	0x00000000	0.0
19	0x00000000	0.0
20	0x00000000	0.0
21	0x00000000	0.0
22	0x00000000	0.0
23	0x00000000	0.0
24	0x00000000	0.0
25	0x00000000	0.0
26	0x00000000	0.0
27	0x00000000	0.0
28	0x00000000	0.0
29	0x00000000	0.0
30	0x00000000	0.0
31	0x00000000	0.0
32	0x00000000	0.0
33	0x00000000	0.0
34	0x00000000	0.0
35	0x00000000	0.0
36	0x00000000	0.0
37	0x00000000	0.0
38	0x00000000	0.0
39	0x00000000	0.0
40	0x00000000	0.0
41	0x00000000	0.0
42	0x00000000	0.0
43	0x00000000	0.0
44	0x00000000	0.0
45	0x00000000	0.0
46	0x00000000	0.0
47	0x00000000	0.0
48	0x00000000	0.0
49	0x00000000	0.0
50	0x00000000	0.0
51	0x00000000	0.0
52	0x00000000	0.0
53	0x00000000	0.0
54	0x00000000	0.0
55	0x00000000	0.0
56	0x00000000	0.0
57	0x00000000	0.0
58	0x00000000	0.0
59	0x00000000	0.0
60	0x00000000	0.0
61	0x00000000	0.0
62	0x00000000	0.0
63	0x00000000	0.0
64	0x00000000	0.0
65	0x00000000	0.0
66	0x00000000	0.0
67	0x00000000	0.0
68	0x00000000	0.0
69	0x00000000	0.0
70	0x00000000	0.0
71	0x00000000	0.0
72	0x00000000	0.0
73	0x00000000	0.0
74	0x00000000	0.0
75	0x00000000	0.0
76	0x00000000	0.0
77	0x00000000	0.0
78	0x00000000	0.0
79	0x00000000	0.0
80	0x00000000	0.0
81	0x00000000	0.0
82	0x00000000	0.0
83	0x00000000	0.0
84	0x00000000	0.0
85	0x00000000	0.0
86	0x00000000	0.0
87	0x00000000	0.0
88	0x00000000	0.0
89	0x00000000	0.0
90	0x00000000	0.0
91	0x00000000	0.0
92	0x00000000	0.0
93	0x00000000	0.0
94	0x00000000	0.0
95	0x00000000	0.0
96	0x00000000	0.0
97	0x00000000	0.0
98	0x00000000	0.0
99	0x00000000	0.0
100	0x00000000	0.0
101	0x00000000	0.0
102	0x00000000	0.0
103	0x00000000	0.0
104	0x00000000	0.0
105	0x00000000	0.0
106	0x00000000	0.0
107	0x00000000	0.0
108	0x00000000	0.0
109	0x00000000	0.0
110	0x00000000	0.0
111	0x00000000	0.0
112	0x00000000	0.0
113	0x00000000	0.0
114	0x00000000	0.0
115	0x00000000	0.0
116	0x00000000	0.0
117	0x00000000	0.0
118	0x00000000	0.0
119	0x00000000	0.0
120	0x00000000	0.0
121	0x00000000	0.0
122	0x00000000	0.0
123	0x00000000	0.0
124	0x00000000	0.0
125	0x00000000	0.0
126	0x00000000	0.0
127	0x00000000	0.0

network_body._body_endoder.seq_layers.2.weight f4 [128, 128]
0	0x3d7c173d	0.0615456
1	0xbda06bcf	-0.07833063
2	0x3c9ef192	0.0194023
3	0x3e011269	0.12604679
4	0xbe3373d8	-0.1752466
5	0xbcca2f00	-0.024680614
6	0xbd8a9368	-0.06766397
7	0xbd830a3f	-0.06398439
8	0x3ca38115	0.019959012
9	0x3bab462e	0.005226872
10	0x3c99a894	0.018757142
11	0xbdbbeced	-0.091760494
12	0xbd151420	-0.036396146
13	0x3d1595c1	0.03651977
14	0x3dd4468f	0.103650205
15	0xbc8ce3df	-0.017198501
16	0x3d0d4ac5	0.034495134
17	0x3ceb918e	0.02875593
18	0x3d965b26	0.07341604
19	0xbe063524	-0.13106209
20	0xbd16ff6a	-0.036864676
21	0x3d4d1835	0.050071914
22	0xbdeb2e8e	-0.11483489
23	0xbd9a759d	-0.07541964
24	0x3e11f2e6	0.14252815
25	0x3d616a48	0.055033
26	0x3d53c424	0.051700726
27	0x3d54b090	0.051926196
28	0x3d805595	0.062663235
29	0xbdb17da9	-0.08666546
30	0x3db6b0f1	0.08920468
31	0x3d790a04	0.060800567
32	0xbd0e3e91	-0.034727637
33	0xbde0d7f0	-0.10978687
34	0xbe5a387b	-0.21310608
35	0xbddb71ab	-0.1071504
36	0xbbd55589	-0.0065104407
37	0xbe1e5c4b	-0.15464894
38	0x3d8b767c	0.068097085
39	0xbdf15238	-0.1178326
40	0xbe0442ba	-0.12916079
41	0x3decabef	0.11556231
42	0xbe1f1dfb	-0.1553878
43	0xba63be02	-0.0008687676
44	0xbd7cce5f	-0.06172025
45	0x3d72c51e	0.059270017
46	0x3dfab215	0.12240998
47	0xbdb45023	-0.08804347
48	0xbe911ae0	-0.28340816
49	0x3dd05e4a	0.10174234
50	0xbdfc3b06	-0.12315945
51	0x3dd808b4	0.10548535
52	0x3cfce941	0.030872943
53	0x3db4d2b8	0.08829254
54	0x3dd5da99	0.10442085
55	0x3dc4e379	0.096136995
56	0xbcc3da77	-0.023907883
57	0xb88cc62c	-6.7126326e-05
58	0x3d5daee2	0.05412186
59	0xbd8010e6	-0.06253223
60	0x3d427306	0.047472976
61	0xbbbc5b67	-0.0057482007
62	0x3db52c5c	0.088463515
63	0xbbe69851	-0.0070372005
64	0xbc219d55	-0.009864171
65	0xbdc5e3d2	-0.09662594
66	0xbd2758da	-0.04085622
67	0xbd5ad5a3	-0.053426396
68	0xbdcfcb63	-0.10146215
69	0x3cd36f02	0.025809769
70	0xbe04347c	-0.12910646
71	0x3dd3a371	0.10333908
72	0xbda55a00	-0.08073807
73	0xbdcf76c6	-0.10130076
74	0x3cfb7ff2	0.030700658
75	0x3e1c6995	0.15274651
76	0x3c88eb63	0.016713804
77	0xbde5293f	-0.11189508
78	0xbd7ba2e4	-0.06143464
79	0xbdcc56eb	-0.09977516
80	0xbbd6a5fe	-0.0065505495
81	0xb9aa24ef	-0.00032452444
82	0x3cff21cd	0.031144047
83	0x3dcaae7f	0.09896564
84	0xbd93d5fe	-0.0721855
85	0x3d6152fa	0.055010773
86	0xbe29d61f	-0.16585587
87	0xbd9ea697	-0.07746618
88	0x3c467384	0.012112502
89	0x3da75f81	0.08172513
90	0xbdf19d18	-0.117975414
91	0x3cea2e41	0.028586509
92	0x3c13755e	0.0090001505
93	0x3e0a7d80	0.13524437
94	0xbba68971	-0.0050823023
95	0xbe0a8d64	-0.13530499
96	0xbe196190	-0.14978623
97	0xbc069193	-0.008213419
98	0x3d8f8dff	0.070095055
99	0xbd34d53c	-0.04414867
100	0x3d1032da	0.035204746
101	0xbd172a1f	-0.036905404
102	0x3dbb66c3	0.091504596
103	0x3d090eea	0.03346149
104	0xbdb3d689	-0.08781154
105	0xbcbe02ed	-0.023194754
106	0x3d3ac4e0	0.04559791
107	0xbd2d1b4b	-0.042262357
108	0x3b8d70fe	0.0043164482
109	0x3d8cea80	0.06880665
110	0xbe0cd46d	-0.13752909
111	0xbc027eae	-0.007964773
112	0x3dc64125	0.09680394
113	0x3da86c55	0.08223788
114	0xbca3ef26	-0.020011496
115	0xbc2972fa	-0.010342354
116	0xbce251e3	-0.027626937
117	0x3dbd914e	0.0925623
118	0x3d571aad	0.052515674
119	0xbce07188	-0.027397886
120	0xbe231840	-0.1592722
121	0xbb0d222e	-0.0021535265
122	0xbd2cc875	-0.04218336
123	0xbd87055d	-0.0659282
124	0xbd080b93	-0.033214163
125	0x3d02e35b	0.031955104
126	0xb991b6e5	-0.00027792822
127	0x3d63bb6b	0.055598658
128	0xbdd3bcfa	-0.10338779
129	0xbdb88484	-0.0900965
130	0x3d6a0f6f	0.057143625
131	0xbd25fc68	-0.040523916
132	0x3d8d76d2	0.06907429
133	0x3db20fb7	0.086944036
134	0xbe062333	-0.13099365
135	0x3e0ddd5d	0.13853975
136	0xbd337284	-0.043810382
137	0xbdd41900	-0.10356331
138	0xbdba79a0	-0.091052294
139	0xbdf9a4e7	-0.12189656
140	0xbd95badc	-0.07311031
141	0x3dcb8124	0.09936741
142	0xbd13c395	-0.036075193
143	0xbce384fb	-0.027773371
144	0x3ac218f8	0.0014808467
145	0x3d7fd932	0.062462993
146	0xbdb82150	-0.08990729
147	0x3e06712d	0.1312911
148	0xbd4169e9	-0.047220144
149	0xbe5094fe	-0.20369336
150	0x3d8fce2f	0.07021748
151	0xbe0668e2	-0.13125947
152	0xbd6a25f0	-0.057165086
153	0xbc0ccf48	-0.008594342
154	0xbd6bb574	-0.057546094
155	0xbdd78ddf	-0.10525107
156	0x3d5ec455	0.054386456
157	0x3deca61e	0.11555122
158	0xbd8c2702	-0.06843378
159	0x3d2bcfbd	0.04194616
160	0x3debcbac	0.11513457
161	0x3cae88f5	0.02130554
162	0xbbc48899	-0.005997729
163	0xbe4e1787	-0.20126162
164	0x3e0071a4	0.1254335
165	0x3d3c81d7	0.046022262
166	0xbd2f12b4	-0.042742446
167	0xbe1f8157	-0.15576683
168	0x3d99e459	0.07514257
169	0x3e1fb965	0.15598066
170	0xbdb5e16b	-0.08880886
171	0x3cd1df42	0.025619153
172	0xbe3342cb	-0.17505948
173	0x3cc731a9	0.024315672
174	0xbdc84ea9	-0.09780628
175	0xbd1c8382	-0.038211353
176	0x3cd20ba3	0.025640314
177	0x3dcb91ba	0.099399045
178	0xbd262fc3	-0.040572893
179	0x3e8e4908	0.27790093
180	0xbcdefc62	-0.027219955
181	0xbbe0b5a9	-0.006857593
182	0x3a329479	0.0006812285
183	0x3d7684b7	0.06018516
184	0x3dbf39cf	0.09337198
185	0xbce514f9	-0.027964102
186	0xbc8ecdd3	-0.017432129
187	0x3e5c455e	0.21510836
188	0x3e12a1fe	0.14319608
189	0xbd05458a	-0.03253702
190	0x3e52c883	0.20584302
191	0xbdbeb6da	-0.0931222
192	0xbc28567f	-0.0102745285
193	0x3d8cfdf7	0.068843774
194	0x3cb918cd	0.022594834
195	0x3dbbc51b	0.09168454
196	0xbdb6a1ac	-0.08917555
197	0xbd72195b	-0.059106212
198	0xbca6bf04	-0.020354755
199	0xbaee9e65	-0.0018205164
200	0xbdf440e2	-0.11926438
201	0xbd15ca45	-0.036569852
202	0xbcbbfdf4	-0.022948243
203	0xbdbfe11f	-0.0936911
204	0x3c7f7a14	0.015593071
205	0xbd82041d	-0.06348441
206	0x3cd68a37	0.026188953
207	0xbdaa38fb	-0.083116494
208	0xbdb51d84	-0.0884352
209	0x3d8b8a18	0.06813449
210	0xbd1300ea	-0.035889544
211	0x3c0b9d10	0.008521333
212	0x3d428869	0.047493372
213	0x3cbd1427	0.023080898
214	0xbe106e4c	-0.14104575
215	0x3c812c6b	0.01576825
216	0xbdb9825e	-0.09058069
217	0xbe01129b	-0.12604754
218	0xbd6997f4	-0.05702968
219	0x3c52e679	0.012872332
220	0xbe12851d	-0.14308591
221	0xbd9eae98	-0.07748145
222	0xbe492f31	-0.19646908
223	0x3d008e13	0.031385493
224	0xbd8d67af	-0.06904542
225	0xbde36270	-0.1110276
226	0x3c88f36e	0.016717639
227	0x3b88765a	0.004164499
228	0xbcfcdb66	-0.030866336
229	0x3c45ee22	0.012080701
230	0xbce71ef2	-0.028212998
231	0x3a8da6ef	0.0010807196
232	0x3c7c9da2	0.015418442
233	0xbdc5b1c8	-0.0965305
234	0xbe015588	-0.12630284
235	0x3d85db57	0.065359764
236	0xbd2709ad	-0.040780712
237	0xbd86fd07	-0.0659123
238	0x3e1d2e31	0.15349652
239	0x3ccd42d7	0.025056286
240	0x3e2628d1	0.16226508
241	0xbcf9a79d	-0.030475432
242	0xbdd37632	-0.10325278
243	0x3d88fcb7	0.066888265
244	0x3e00ae12	0.12566403
245	0xbe01c490	-0.12672639
246	0x3ce80ae3	0.028325504
247	0xbe023f76	-0.12719521
248	0xbc8b6b29	-0.017018871
249	0x3e474601	0.19460298
250	0xbcd74458	-0.026277706
251	0x3d9510f8	0.07278627
252	0x3dc0c531	0.09412611
253	0x3d88de62	0.06683041
254	0xbd797453	-0.06090195
255	0x3c7e5eaf	0.015525504

network_body._body_endoder.seq_layers.2.bias f4 [128]
0	0x00000000	0.0
1	0x00000000	0.0
2	0x00000000	0.0
3	0x00000000	0.0
4	0x00000000	0.0
5	0x00000000	0.0
6	0x00000000	0.0
7	0x00000000	0.0
8	0x00000000	0.0
9	0x00000000	0.0
10	0x00000000	0.0
11	0x00000000	0.0
12	0x00000000	0.0
13	0x00000000	0.0
14	0x00000000	0.0
15	0x00000000	0.0
16	0x00000000	0.0
17	0x00000000	0.0
18	0x00000000	0.0
19	0x00000000	0.0
20	0x00000000	0.0
21	0x00000000	0.0
22	0x00000000	0.0
23	0x00000000	0.0
24	0x00000000	0.0
25	0x00000000	0.0
26	0x00000000	0.0
27	0x00000000	0.0
28	0x00000000	0.0
29	0x00000000	0.0
30	0x00000000	0.0
31	0x00000000	0.0
32	0x00000000	0.0
33	0x00000000	0.0
34	0x00000000	0.0
35	0x00000000	0.0
36	0x00000000	0.0
37	0x00000000	0.0
38	0x00000000	0.0
39	0x00000000	0.0
40	0x00000000	0.0
41	0x00000000	0.0
42	0x00000000	0.0
43	0x00000000	0.0
44	0x00000000	0.0
45	0x00000000	0.0
46	0x00000000	0.0
47	0x00000000	0.0
48	0x00000000	0.0
49	0x00000000	0.0
50	0x00000000	0.0
51	0x00000000	0.0
52	0x00000000	0.0
53	0x00000000	0.0
54	0x00000000	0.0
55	0x00000000	0.0
56	0x00000000	0.0
57	0x00000000	0.0
58	0x00000000	0.0
59	0x00000000	0.0
60	0x00000000	0.0
61	0x00000000	0.0
62	0x00000000	0.0
63	0x00000000	0.0
64	0x00000000	0.0
65	0x00000000	0.0
66	0x00000000	0.0
67	0x00000000	0.0
68	0x00000000	0.0
69	0x00000000	0.0
70	0x00000000	0.0
71	0x00000000	0.0
72	0x00000000	0.0
73	0x00000000	0.0
74	0x00000000	0.0
75	0x00000000	0.0
76	0x00000000	0.0
77	0x00000000	0.0
78	0x00000000	0.0
79	0x00000000	0.0
80	0x00000000	0.0
81	0x00000000	0.0
82	0x00000000	0.0
83	0x00000000	0.0
84	0x00000000	0.0
85	0x00000000	0.0
86	0x00000000	0.0
87	0x00000000	0.0
88	0x00000000	0.0
89	0x00000000	0.0
90	0x00000000	0.0
91	0x00000000	0.0
92	0x00000000	0.0
93	0x00000000	0.0
94	0x00000000	0.0
95	0x00000000	0.0
96	0x00000000	0.0
97	0x00000000	0.0
98	0x00000000	0.0
99	0x00000000	0.0
100	0x00000000	0.0
101	0x00000000	0.0
102	0x00000000	0.0
103	0x00000000	0.0
104	0x00000000	0.0
105	0x00000000	0.0
106	0x00000000	0.0
107	0x00000000	0.0
108	0x00000000	0.0
109	0x00000000	0.0
110	0x00000000	0.0
111	0x00000000	0.0
112	0x00000000	0.0
113	0x00000000	0.0
114	0x00000000	0.0
115	0x00000000	0.0
116	0x00000000	0.0
117	0x00000000	0.0
118	0x00000000	0.0
119	0x00000000	0.0
120	0x00000000	0.0
121	0x00000000	0.0
122	0x00000000	0.0
123	0x00000000	0.0
124	0x00000000	0.0
125	0x00000000	0.0
126	0x00000000	0.0
127	0x00000000	0.0

value_heads.value_heads.extrinsic.weight f4 [1, 128]
0	0xbdaeb0fc	-0.08529851
1	0x3e258466	0.16163787
2	0x3c90a710	0.017657787
3	0xbde47573	-0.11155214
4	0x3e4cd696	0.20003733
5	0x3d567cb0	0.052365005
6	0x3e31ebb2	0.17375067
7	0xbe3cefe6	-0.18450889
8	0x3e56cd5c	0.20976776
9	0x3a886880	0.001040712
10	0x3cc3b658	0.02389066
11	0xbdf9e9f1	-0.12202824
12	0xbd453494	-0.048145846
13	0xbe009194	-0.12555534
14	0xbe509533	-0.20369415
15	0x3bf2e0c0	0.007412046
16	0xbe459451	-0.1929486
17	0x3da17708	0.078840315
18	0xbe265d43	-0.16246514
19	0xbe562571	-0.2091272
20	0xbe27b174	-0.16376287
21	0x3e3f39ce	0.18674394
22	0xbd818aaa	-0.06325276
23	0x3e313008	0.17303479
24	0xbdeaca61	-0.11464382
25	0xbe3050a6	-0.17218265
26	0x3e037442	0.12837318
27	0x3c909688	0.017649904
28	0x3e546e24	0.2074514
29	0xbe405c9b	-0.18785326
30	0x3dce94bc	0.100869626
31	0x3d1123c0	0.035434484
32	0x3d254e70	0.040358007
33	0xbde536d6	-0.111921
34	0xbe44f8c8	-0.19235528
35	0x3e425a7a	0.18979827
36	0xbd3e59a8	-0.04647222
37	0xbdac86a2	-0.08424117
38	0xbe55372e	-0.2082183
39	0x3e199d22	0.15001348
40	0x3e27d7ae	0.16390869
41	0xbe1df984	-0.15427214
42	0xbe50fcae	-0.2040889
43	0xbe0dfc10	-0.13865685
44	0xbe4da33c	-0.200818
45	0xbe47a639	-0.19497003
46	0xbcb813d8	-0.0224704
47	0x3dd9b71c	0.106306285
48	0x3cb1f530	0.02172336
49	0xbe4ccddc	-0.20000404
50	0xbdc4d809	-0.09611518
51	0xbde7fb37	-0.11327212
52	0x3e58cff8	0.21173084
53	0xbde0098b	-0.1093932
54	0x3dad92d8	0.08475274
55	0x3e4128aa	0.18863168
56	0xbdd10914	-0.1020681
57	0x3dba141c	0.09085867
58	0xbdbdf4e3	-0.09275224
59	0x3e025d88	0.12730992
60	0xbddb0f80	-0.10696316
61	0xbd3c9b20	-0.046046376
62	0xbdb506ca	-0.088391855
63	0x3d1933e8	0.037403017
64	0x3e1171de	0.14203593
65	0x3d510060	0.05102575
66	0xbdfb777e	-0.12278651
67	0x3a6bbc00	0.0008992553
68	0xbe4ef12f	-0.20209192
69	0xbe2ab78f	-0.16671585
70	0xbe424858	-0.1897291
71	0xbe56098a	-0.20902076
72	0x3caad110	0.020851642
73	0x3e01a7fe	0.1266174
74	0x3d2c3b90	0.04204899
75	0x3df0b0b8	0.117524564
76	0x3c9765c8	0.01848115
77	0xbda42e0c	-0.08016595
78	0xbe09cbde	-0.13456675
79	0x3d1b1bd0	0.03786832
80	0xbc8eaf50	-0.01741758
81	0x3d81f74c	0.06345996
82	0x3ce9f310	0.028558284
83	0x3db30cdc	0.08742687
84	0xbdfb16f5	-0.12260238
85	0xbe3438e0	-0.17599821
86	0x3cd54a00	0.026036263
87	0x3dbab904	0.0911732
88	0xbc97a040	-0.01850903
89	0x3b2a3280	0.0025970042
90	0x3e50e42e	0.20399544
91	0xbe1c0f7a	-0.15240279
92	0xbd6c4dec	-0.0576915
93	0x3d7fd258	0.06245646
94	0xbe1ca813	-0.1529849
95	0xbd387810	-0.045036376
96	0x3e1baec8	0.15203393
97	0xbe02c66c	-0.12771004
98	0xbe563f4f	-0.20922588
99	0x3de31d84	0.11089614
100	0xbbd8ada0	-0.0066124946
101	0xbbffd2c0	-0.007807106
102	0x3de22efc	0.11044118
103	0x3e1fc258	0.1560148
104	0xbe1dac37	-0.15397726
105	0x3d4d9f28	0.05020061
106	0x3e38a92e	0.18033287
107	0x3dcba0c4	0.09942773
108	0x3e17f25c	0.14838547
109	0xbdb3fc7c	-0.08788392
110	0xbe1511e8	-0.14557612
111	0xbddb12f7	-0.10696977
112	0xbe4bdbea	-0.1990811
113	0x3d502038	0.050811976
114	0x3da00624	0.07813671
115	0xbc657ee0	-0.0140073
116	0x3c94e510	0.018175632
117	0xbd5b7f20	-0.053588033
118	0x3e28c4da	0.16481343
119	0xbd997600	-0.0749321
120	0x3d1978f0	0.03746885
121	0xbe55666e	-0.20839855
122	0xbdee209e	-0.11627315
123	0x3d904148	0.070437014
124	0x3e4f37c8	0.20236123
125	0x3e150b74	0.1455515
126	0x3da2204c	0.079163164
127	0x3ddb7cc8	0.107171595

value_heads.value_heads.gail.weight f4 [1, 128]
0	0xbe1c11d6	-0.15241179
1	0x3db007e8	0.08595258
2	0x3db20b70	0.08693588
3	0x3da66a5c	0.08125755
4	0x3e15996e	0.1460931
5	0xbdec90bc	-0.115510434
6	0xbdbe5334	-0.092932135
7	0x3e3f7f1a	0.18700829
8	0x3d5fd598	0.05464706
9	0x3dda39f8	0.10655588
10	0xbe27af17	-0.16375385
11	0xbe511064	-0.20416409
12	0xbe484cd3	-0.19560556
13	0xbd2f2e8c	-0.042769
14	0xbdada37a	-0.08478446
15	0xbdd592fa	-0.10428424
16	0x3d08465c	0.033270225
17	0xbe4b37ae	-0.19845459
18	0x3bafc180	0.005363643
19	0x3e4c996c	0.19980401
20	0xbda54d5a	-0.08071394
21	0x3c3caaa0	0.01151529
22	0x3e4953fe	0.19660947
23	0xbd47bb18	-0.04876241
24	0xbe3fd742	-0.18734458
25	0xbda2f640	-0.07957125
26	0x3e3d23d8	0.18470705
27	0x3cfe6d40	0.031057954
28	0xbe55fb23	-0.20896582
29	0x3e0e1086	0.1387349
30	0x3d86a1f4	0.06573859
31	0xbd2ccf6c	-0.04219
32	0x3d881024	0.066437036
33	0xbba57260	-0.005049035
34	0xbda0e9d8	-0.07857102
35	0xbc27f1b0	-0.010250494
36	0x3b335700	0.0027365088
37	0x3e5ba782	0.21450618
38	0xbe216e13	-0.15764646
39	0xbe3672e9	-0.17817272
40	0xbd3f717c	-0.046739087
41	0x3e2c0472	0.16798571
42	0x3d689528	0.05678287
43	0x3d929564	0.071574
44	0xbe589cb9	-0.21153535
45	0xbe472db6	-0.19451031
46	0x3e381262	0.17975762
47	0x3d2a0a68	0.04151383
48	0x3c2e8150	0.010650948
49	0x3dbc4f34	0.09194794
50	0x3e333c7e	0.17503545
51	0xbe19b450	-0.1501019
52	0x3dd67f40	0.1047349
53	0xbd32858c	-0.04358439
54	0xbd222710	-0.039588034
55	0x3e0088da	0.12552205
56	0x3b933000	0.004491806
57	0xbd96250c	-0.07331285
58	0x3e3a32ac	0.18183392
59	0x3c9f0da8	0.019415691
60	0x3e30f48a	0.17280784
61	0xbe565fb6	-0.20934948
62	0xbca08f10	-0.019599468
63	0x3d96d5b0	0.073649764
64	0xbe222f76	-0.15838417
65	0x3e34123a	0.17585078
66	0xbd8b3bd8	-0.06798524
67	0xbe221b5b	-0.15830748
68	0xbe00c5b1	-0.12575413
69	0xbdefbe10	-0.117061734
70	0x3d77b000	0.06047058
71	0xbd926d4a	-0.071497515
72	0xbc9d4090	-0.019195825
73	0xbddfe484	-0.10932258
74	0xbd315c88	-0.043301135
75	0xbe4bbd45	-0.1989642
76	0xbc121070	-0.008915052
77	0x3d77f7f0	0.060539186
78	0xbe5cbad5	-0.21555646
79	0x3e328fa0	0.17437601
80	0xbc8e22b8	-0.01735054
81	0x3d1cc270	0.038271368
82	0xbe13ce4c	-0.14434165
83	0xbe552ff4	-0.20819074
84	0xbdbd3705	-0.0923901
85	0xbe3f5c65	-0.1868759
86	0x3de27e7c	0.11059281
87	0xbe1dce70	-0.15410781
88	0xbe285fff	-0.1644287
89	0x3e53d4ca	0.20686641
90	0x36350000	2.6971102e-06
91	0xbddbeb1d	-0.10738204
92	0xbd138a0c	-0.036020324
93	0x3e1272ec	0.14301652
94	0xbcb5fe58	-0.022216007
95	0x3e197380	0.14985466
96	0x3d8f3314	0.06992164
97	0xbe59dceb	-0.2127568
98	0x3d123558	0.035695404
99	0xbe412510	-0.18861794
100	0x3c6f0f70	0.014591083
101	0x3d61eed8	0.05515942
102	0xbe5bd2b8	-0.21467102
103	0x3e386660	0.18007803
104	0xbdd8fb21	-0.10594774
105	0x3dc5e514	0.09662834
106	0xbde32a0e	-0.11092006
107	0x3e341942	0.1758776
108	0xbc78ac60	-0.015177816
109	0x3e3940e2	0.18091157
110	0xbe3640cf	-0.1779816
111	0x3e500418	0.20314062
112	0xbe21e876	-0.15811333
113	0x3e1b5086	0.15167436
114	0xbcaa1858	-0.020763561
115	0xbe0b253c	-0.13588423
116	0x3dfb4898	0.122697055
117	0x3dfa0950	0.122088075
118	0x3e1aa9b0	0.15103793
119	0xbd2cad00	-0.042157173
120	0xbe3830d7	-0.17987381
121	0xbe4a18c7	-0.19736014
122	0x3da78308	0.08179289
123	0xbdf13e9b	-0.11779519
124	0x3e146fac	0.14495724
125	0x3db70aa4	0.089375764
126	0xbd8c6a9c	-0.068562716
127	0x3d9e8bf4	0.07741538
