results - copia/PruebaLargaNoRayCast/AgenteCoche/AgenteCoche-499978.pt (torch, 194263 bytes, 14 tensors)

discrete_act_size_vector f4 [1, 2]
3.0 3.0
00000000: 0000 4040 0000 4040

network_body._body_endoder.seq_layers.0.weight f4 [128, 47]
-0.3770644 -0.09965263 -0.036715653 0.17154405 0.075151004 0.25659776 -0.025643446 0.061166607
0.033222366 -0.21118255 -0.05838333 0.09750642 -0.07506815 -0.12849428 0.11060684 -0.031125909
-0.25958365 0.2139542 -0.019713715 0.20569408 -0.14978045 0.09379788 0.07987508 0.18424092
0.1138975 -0.24074458 -0.047778834 -0.101901196 0.07921003 0.11818288 -0.32538223 0.053949825
0.22297218 -0.28058586 0.07384555 0.16968131 0.16820218 0.014700562 0.1180368 -0.10236353
0.015738545 -0.07600958 0.06462823 0.062007234 0.015211788 -0.21959421 -0.21647839 0.0004945697
0.09926889 0.14450647 -0.022070905 -0.12663583 -0.014213883 0.05210571 0.038306717 -0.037977792
-0.18756492 -0.057732016 0.057957195 0.17625937 0.3978205 0.08899483 0.055897634 -0.0065880497
0.08035109 0.0021590495 -0.023330728 0.16772476 -0.2964974 -0.06034629 -0.19229758 0.16032055
0.031524446 0.047634844 0.06584732 -0.21041514 0.23722818 -0.021860829 -0.0018233733 -0.12514511
0.022577347 0.18945815 -0.088120274 0.21952574 -0.090089776 0.10009524 0.015928173 0.05439123
-0.2782549 0.18679632 0.18386242 0.03389374 0.13657941 0.0003189726 0.20181394 -0.0037449205
0.24636295 0.06436011 -0.011248821 0.10929087 0.059347596 0.14684293 0.047565475 0.21194138
-0.14940874 0.059091747 0.02950474 -0.1513336 0.059280694 -0.25431004 -0.15950704 -0.11594406
-0.0048575536 0.041315664 0.045616783 -0.04647587 0.045420617 0.102224536 -0.27158645 -0.22888328
0.3758032 0.04273762 0.27362686 0.0440822 0.14142866 0.05669682 0.18437587 0.12823324
-0.06546761 0.023869416 -0.10442132 0.035673108 -0.2143148 0.015547326 -0.06232553 0.021140385
0.32600257 -0.36056557 0.3063112 -0.10529251 0.13965063 0.103519514 -0.049928613 -0.024708645
0.06799987 0.09414756 -0.14343797 0.00111489 -0.086353436 0.07705051 0.06313444 -0.12995112
0.019573163 -0.10696569 -0.25074443 0.16959785 0.2350505 -0.21733262 -0.15884887 -0.06605972
-0.36764756 -0.0011822938 0.22187647 0.038712133 0.031232646 0.028686637 -0.017598188 0.017347109
0.109475985 -0.0111383675 -0.08922342 -0.056948826 0.1640402 0.12526123 -0.03713978 0.14389157
-0.02243418 -0.2773713 -0.042440724 -0.20784785 0.06678232 -0.22254136 -0.15232565 0.004015081
-0.10022688 0.029114595 0.027656635 -0.23349665 -0.2525881 -0.11145408 -0.061789997 0.2627821
-0.307898 0.043775946 0.05217492 0.033488877 0.0056066294 -0.21693069 0.10028742 -0.2904437
-0.09425817 0.07763189 -0.04795607 0.16892996 -0.02088821 -0.18282525 0.089557804 0.070737846
-0.12232582 -0.07073522 0.17802176 -0.12184722 -0.02738906 -0.033972748 -0.20995578 0.08994084
-0.019841935 -0.120861925 0.023147225 -0.3056941 -0.05581393 0.0064287926 -0.00637067 0.048967645
0.055448294 -0.20573767 -0.05492719 0.22080977 0.21693361 -0.15458392 -0.04729919 0.0030090488
-0.027303612 0.24785712 0.10091937 -0.073635645 0.08760525 0.12443694 0.053338565 0.010338696
0.15663986 -0.06774175 -0.04548998 0.118682355 0.24346074 0.007566788 -0.23315696 0.07893688
-0.017892808 -0.10085282 -0.16666354 0.014431993 0.06985386 -0.13100073 -0.06424242 0.011202162
00000000: 960e c1be ae16 ccbd 2763 16bd 3ea9 2f3e
00000010: c5e8 993d c860 833e 3412 d2bc d689 7a3d
00000020: 2d14 083d 3d40 58be 5c23 6fbd 72b1 c73d
00000030: 55bd 99bd 0194 03be d785 e23d c3fb febc
00000040: 26e8 84be cf16 5b3e a87e a1bc 78a1 523e
00000050: 0c60 19be 1a19 c03d 8c95 a33d a7a9 3c3e
00000060: 1843 e93d bf85 76be bdb3 43bd 93b1 d0bd
00000070: de38 a23d de09 f23d 8098 a6be 7efa 5c3d
00000080: d252 643e f3a8 8fbe 563c 973d f0c0 2d3e
00000090: 313d 2c3e a0da 703c 47bd f13d f8a3 d1bd
000000a0: 1fee 803c e9aa 9bbd ce5b 843d 4cfb 7d3d
000000b0: dd3a 793c 4edd 60be 83ac 5dbe 03a6 013a
000000c0: 7d4d cb3d 81f9 133e 0bce b4bc d3ac 01be
000000d0: 59e1 68bc cc6c 553d 81e7 1c3d 9a8e 1bbd
000000e0: 0511 40be 6878 6cbd 8664 6d3d 567d 343e
000000f0: 21af cb3e ec42 b63d ebf4 643d 91e0 d7bb
00000100: 1d8f a43d d77e 0d3b 1520 bfbc 0ac0 2b3e
00000110: 82ce 97be ac2d 77bd a8e9 44be 122b 243e
00000120: c71f 013d c11c 433d f6da 863d 1177 57be
00000130: f2eb 723e 7b15 b3bc 41fe eeba 0a26 00be
00000140: 21f4 b83c 5101 423e 6778 b4bd 5bcb 603e
00000150: fd80 b8bd bcfe cc3d cd7b 823c 57c9 5e3d
00000160: 6d77 8ebe 8947 3f3e 6e46 3c3e 2ad4 0a3d
00000170: 79db 0b3e c73b a739 50a8 4e3e 576d 75bb
00000180: 9246 7c3e 3ccf 833d fa4c 38bc e4d3 df3d
00000190: 7716 733d fe5d 163e 04d4 423d 2907 593e
000001a0: 9bfe 18be 300a 723d edb3 f13c 32f7 1abe
000001b0: 50d0 723d ed34 82be d055 23be 1474 edbd
000001c0: 1d2c 9fbb 9d3a 293d aad8 3a3d 7b5d 3ebd
000001d0: f80a 3a3d 195b d13d 610d 8bbe 6160 6abe
000001e0: 4769 c03e a50d 2f3d d218 8c3e 898f 343d
000001f0: add2 103e ed3a 683d 07cd 3c3e 934f 033e
00000200: e213 86bd cb89 c33c d8da d5bd f71d 123d
00000210: 5775 5bbe 36ba 7e3c 0e49 7fbd 9a2e ad3c
00000220: cfe9 a63e 0d9c b8be d2d4 9c3e 99a3 d7bd
00000230: 9300 0f3e 0a02 d43d f281 4cbd c969 cabc
00000240: 8443 8b3d 70d0 c03d 67e1 12be 8021 923a
00000250: 12da b0bd a8cc 9d3d a14c 813d e811 05be
00000260: e657 a03c d410 dbbd 9361 80be 0fab 2d3e
00000270: 14b1 703e 718c 5ebe 47a9 22be 524a 87bd
00000280: 4d3c bcbe 32f7 9aba 9633 633e 9d90 1e3d
00000290: 9bdb ff3c 3d00 eb3c 132a 90bc 861b 8e3c
000002a0: f234 e03d b37d 36bc c5ba b6bd 2c43 69bd
000002b0: 27fa 273e 7b44 003e e21f 18bd 5058 133e
000002c0: e3c7 b7bc 9c03 8ebe 53d6 2dbd 11d6 54be
000002d0: 2bc5 883d e2e1 63be 41fb 1bbe f190 833b
000002e0: c043 cdbd bb81 ee3c 2b90 e23c bf19 6fbe
000002f0: 3a53 81be 0942 e4bd 8217 7dbd 608b 863e
00000300: cfa4 9dbe 684e 333d 5eb5 553d a22b 093d
00000310: d1b7 b73b 1423 5ebe 7e63 cd3d 09b5 94be
00000320: 6d0a c1bd 78fd 9e3d 966d 44bd fafb 2c3e
00000330: c01d abbc 8b36 3bbe 156a b73d 01df 903d
00000340: f685 fabd a1dd 90bd 564b 363e 098b f9bd
00000350: 065f e0bc 0227 0bbd a6fe 56be e732 b83d
00000360: 8e8b a2bc 7586 f7bd 409f bd3c f083 9cbe
00000370: 269d 64bd 9fa8 d23b 0ec1 d0bb 4c92 483d
00000380: c01d 633d e5ac 52be 55fb 60bd f51b 623e
00000390: d823 5e3e 3f4b 1ebe ccbc 41bd 7633 453b
000003a0: d3ab dfbc 42ce 7d3e d1ae ce3d 49ce 96bd
000003b0: 626a b33d cbd8 fe3d 8a79 5a3d a263 293c
000003c0: 3366 203e 30bc 8abd b453 3abd bc0f f33d
000003d0: c64d 793e d1f2 f73b b3c0 6ebe a9a9 a13d
000003e0: f093 92bc ec8b cebd d9a9 2abe 2a74 6c3c
000003f0: 8a0f 8f3d 0e25 06be 8891 83bd 4689 373c

network_body._body_endoder.seq_layers.0.bias f4 [128]
0.0 0.0 0.0 0.0 0.0 0.0 0.0 0.0
0.0 0.0 0.0 0.0 0.0 0.0 0.0 0.0
0.0 0.0 0.0 0.0 0.0 0.0 0.0 0.0
0.0 0.0 0.0 0.0 0.0 0.0 0.0 0.0
0.0 0.0 0.0 0.0 0.0 0.0 0.0 0.0
0.0 0.0 0.0 0.0 0.0 0.0 0.0 0.0
0.0 0.0 0.0 0.0 0.0 0.0 0.0 0.0
0.0 0.0 0.0 0.0 0.0 0.0 0.0 0.0
0.0 0.0 0.0 0.0 0.0 0.0 0.0 0.0
0.0 0.0 0.0 0.0 0.0 0.0 0.0 0.0
0.0 0.0 0.0 0.0 0.0 0.0 0.0 0.0
0.0 0.0 0.0 0.0 0.0 0.0 0.0 0.0
0.0 0.0 0.0 0.0 0.0 0.0 0.0 0.0
0.0 0.0 0.0 0.0 0.0 0.0 0.0 0.0
0.0 0.0 0.0 0.0 0.0 0.0 0.0 0.0
0.0 0.0 0.0 0.0 0.0 0.0 0.0 0.0
00000000: 0000 0000 0000 0000 0000 0000 0000 0000
00000010: 0000 0000 0000 0000 0000 0000 0000 0000
00000020: 0000 0000 0000 0000 0000 0000 0000 0000
00000030: 0000 0000 0000 0000 0000 0000 0000 0000
00000040: 0000 0000 0000 0000 0000 0000 0000 0000
00000050: 0000 0000 0000 0000 0000 0000 0000 0000
00000060: 0000 0000 0000 0000 0000 0000 0000 0000
00000070: 0000 0000 0000 0000 0000 0000 0000 0000
00000080: 0000 0000 0000 0000 0000 0000 0000 0000
00000090: 0000 0000 0000 0000 0000 0000 0000 0000
000000a0: 0000 0000 0000 0000 0000 0000 0000 0000
000000b0: 0000 0000 0000 0000 0000 0000 0000 0000
000000c0: 0000 0000 0000 0000 0000 0000 0000 0000
000000d0: 0000 0000 0000 0000 0000 0000 0000 0000
000000e0: 0000 0000 0000 0000 0000 0000 0000 0000
000000f0: 0000 0000 0000 0000 0000 0000 0000 0000
00000100: 0000 0000 0000 0000 0000 0000 0000 0000
00000110: 0000 0000 0000 0000 0000 0000 0000 0000
00000120: 0000 0000 0000 0000 0000 0000 0000 0000
00000130: 0000 0000 0000 0000 0000 0000 0000 0000
00000140: 0000 0000 0000 0000 0000 0000 0000 0000
00000150: 0000 0000 0000 0000 0000 0000 0000 0000
00000160: 0000 0000 0000 0000 0000 0000 0000 0000
00000170: 0000 0000 0000 0000 0000 0000 0000 0000
00000180: 0000 0000 0000 0000 0000 0000 0000 0000
00000190: 0000 0000 0000 0000 0000 0000 0000 0000
000001a0: 0000 0000 0000 0000 0000 0000 0000 0000
000001b0: 0000 0000 0000 0000 0000 0000 0000 0000
000001c0: 0000 0000 0000 0000 0000 0000 0000 0000
000001d0: 0000 0000 0000 0000 0000 0000 0000 0000
000001e0: 0000 0000 0000 0000 0000 0000 0000 0000
000001f0: 0000 0000 0000 0000 0000 0000 0000 0000

network_body._body_endoder.seq_layers.2.weight f4 [128, 128]
0.03720431 -0.11410491 -0.08804515 0.019643554 0.06187736 -0.036089085 0.06504715 -0.22613074
-0.0443648 -0.10266364 -0.054084305 -0.035528112 -0.020061662 0.03771807 -0.055219725 -0.01463459
-0.05083972 -0.09523429 0.11477467 -0.00036490275 -0.07911443 -0.10094848 -0.00041338755 0.0061844992
-0.053838003 -0.17094152 -0.070674054 -0.024144098 0.16253848 0.1337793 0.13527153 0.044397753
0.13767716 -0.044113766 -0.14030084 -0.026788047 0.06891033 -0.109469734 0.12022239 -0.097399056
-0.032110855 -0.09406237 -0.10433734 -0.0027541355 -0.12805869 0.04551304 -0.0448014 0.10571064
-0.0036213032 0.0039498094 0.039299294 0.048777 -0.01919587 0.13320968 0.08495514 -0.01669878
-0.01954797 0.025555482 0.116906844 -0.105049424 0.050289612 -0.11714775 0.001023357 -0.026964637
-0.037226945 0.06899496 -0.14542988 0.025236718 0.0016094404 0.033024974 -0.010976191 -0.026965382
0.05750382 -0.049134806 -0.025700856 -0.024097241 0.099949904 -0.009877452 -0.03350345 -0.074213505
0.11272483 -0.06290366 -0.11032093 0.121136345 0.02642024 0.12481177 -0.04616742 -0.049278107
0.09968007 0.04521576 -0.03300155 0.15590994 -0.07022263 0.010377363 -0.08320344 -0.08550798
-0.07088537 -0.028147595 0.1434972 0.120705076 -0.019947786 0.034697276 0.090054356 0.14591454
-0.03144188 0.0018572996 -0.025279112 0.036334783 0.1060447 -0.034349147 0.14350086 -0.01718975
-0.030634863 -0.03155217 -0.048520282 0.14209677 0.1681886 0.11141243 -0.07075535 0.056498434
-0.07693202 -0.14615452 0.086943835 0.07915487 -0.035551827 -0.09635898 -0.121522225 -0.015760625
0.0929463 -0.1756657 0.11072553 -0.05953732 -0.13733087 -0.05120998 0.013643957 -0.040141147
-0.04064253 -0.030461323 0.091301255 0.048006307 0.10057482 0.05806508 -0.030028133 0.07469017
0.13695072 -0.07836215 -0.18644924 0.04377644 0.09157829 0.037815016 0.045438375 -0.031506624
-0.113729015 0.034186076 -0.20493174 -0.115501866 0.18501745 -0.009575219 0.08793836 -0.026764123
-0.069569185 -0.00035270816 -0.008328234 -0.012795938 0.15337323 -0.137886 0.16482276 -0.025580803
-0.07022356 0.1300974 0.018088842 0.0056367246 0.05665544 -0.08975065 -0.0945423 0.050052464
0.036219794 0.05300509 -0.120980166 -0.118418805 -0.009320148 0.019208059 -0.010594924 -0.010706684
0.17173192 -0.05196094 0.0030470416 0.033851143 0.07837173 -0.034629706 0.03944574 0.19500089
-0.0009040824 -0.016071938 -0.1045041 -0.019569023 -0.1026175 -0.082711846 -0.13520944 0.07081628
-0.1063232 0.017654745 0.00062266696 0.054333966 -0.00062064355 0.018406747 0.07172194 -0.10186958
-0.04623494 -0.029524367 0.01113885 -0.2079914 -0.02626896 0.05646043 -0.11449655 0.098932005
0.0064979224 -0.18722464 -0.0290471 -0.03078339 -0.06978128 -0.1328139 0.032480765 0.10542126
-0.13962395 0.06064066 -0.0004950006 -0.09406027 0.031826332 0.021650624 -0.056842905 -0.040546034
-0.17775026 -0.025462555 -0.04936082 0.00756724 -0.11391432 -0.003834874 -0.09315642 0.114147805
-0.13633974 0.026591131 0.087478794 -0.03222317 -0.09840459 -0.051179532 0.032992207 -0.0043889764
-0.019493159 0.016969573 0.07446829 -0.02174058 0.0077591212 0.116922975 -0.031182667 0.16573869
00000000: 8c63 183d d6af e9bd 0451 b4bd 85eb a03c
00000010: 1d73 7d3d 26d2 13bd 7137 853d d18e 67be
00000020: ddb7 35bd 5141 d2bd 8187 5dbd ed85 11bd
00000030: 5b58 a4bc 437e 1a3d 142e 62bd ebc5 6fbc
00000040: 4f3d 50bd 320a c3bd fb0e eb3d 6b50 bfb9
00000050: bf06 a2bd 14be cebd f0bb d8b9 57a7 ca3b
00000060: 3d85 5cbd 4b0b 2fbe 8fbd 90bd d8c9 c5bc
00000070: 7d70 263e 71fd 083e 9f84 0a3e 6bda 353d
00000080: 3efb 0c3e a3b0 34bd 06ab 0fbe 9b72 dbbc
00000090: dc20 8d3d ab31 e0bd 2837 f63d 2879 c7bd
000000a0: ac86 03bd c6a3 c0bd d1ae d5bd ba7e 34bb
000000b0: d121 03be e26b 3a3d ac81 37bd d27e d83d
000000c0: 6353 6dbb 676d 813b 4cf8 203d 64ca 473d
000000d0: a840 9dbc 1e68 083e f6fc ad3d e1cb 88bc
000000e0: 1023 a0bc bb59 d13c db6c ef3d 2724 d7bd
000000f0: 7bfc 4d3d 29eb efbd 2a22 863a f1e4 dcbc
00000100: 487b 18bd 3b4d 8d3d 92eb 14be 3cbd ce3c
00000110: dcf3 d23a 3245 073d 7bd5 33bc 81e6 dcbc
00000120: 2089 6b3d 9441 49bd 9a8a d2bc 9467 c5bc
00000130: 89b2 cc3d 09d5 21bc ea3a 09bd 40fd 97bd
00000140: 47dc e63d a2d3 80bd f1ef e1bd 5516 f83d
00000150: 426f d83c 509d ff3d 0c1a 3dbd d7d7 49bd
00000160: 1125 cc3d 2934 393d a22c 07bd dba6 1f3e
00000170: e2d0 8fbd d105 2a3c 9166 aabd cf1e afbd
00000180: 592c 91bd c995 e6bc eef0 123e 3934 f73d
00000190: 8a69 a3bc bb1e 0e3d 6b6e b83d 9f6a 153e
000001a0: 33c9 00bd a270 f33a 2416 cfbc c8d3 143d
000001b0: f72d d93d b1b1 0cbd e4f1 123e 85d1 8cbc
000001c0: f7f5 fabc d93c 01bd 34bd 46bd d181 113e
000001d0: a239 2c3e 332c e43d 2ee8 90bd e76a 673d
000001e0: 898e 9dbd 88a9 15be 9c0f b23d f31b a23d
000001f0: cb9e 11bd db57 c5bd a5e0 f8bd 6d1c 81bc
00000200: a15a be3d b6e1 33be 11c4 e23d 68dd 73bd
00000210: 77a0 0cbe 8ec1 51bd e78a 5f3c 0b6b 24bd
00000220: c878 26bd 068a f9bc 27fc ba3d 43a2 443d
00000230: 2cfa cd3d a6d5 6d3d 8ffd f5bc 29f7 983d
00000240: cf3c 0c3e 567c a0bd 8dec 3ebe ed4e 333d
00000250: 668d bb3d ebe3 1a3d 971d 3a3d 170d 01bd
00000260: c2ea e8bd b306 0c3d a0d9 51be 3e8c ecbd
00000270: 3775 3d3e 61e1 1cbc 0719 b43d 6f40 dbbc
00000280: 4a7a 8ebd b0eb b8b9 2573 08bc 0ea6 51bc
00000290: df0d 1d3e fd31 0dbe 4cc7 283e d58e d1bc
000002a0: 5fd1 8fbd 4138 053e 0d2f 943c 46b4 b83b
000002b0: 890f 683d 30cf b7bd 659f c1bd d003 4d3d
000002c0: 355b 143d de1b 593d 73c4 f7bd 8f85 f2bd
000002d0: 89b3 18bc 385a 9d3c 5596 2dbc 166b 2fbc
000002e0: 7eda 2f3e ffd4 54bd e0b0 473b 7fa7 0a3d
000002f0: 5c81 a03d e1d7 0dbd db91 213d 50ae 473e
00000300: f1ff 6cba 4ca9 83bc 3f06 d6bd 374f a0bc
00000310: 2029 d2bd d464 a9bd 5874 0abe 2008 913d
00000320: fabf d9bd afa0 903c 793a 233a 4b8d 5e3d
00000330: afb2 22ba bfc9 963c f4e2 923d 00a1 d0bd
00000340: d960 3dbd 16dd f1bc b97f 363c b3fb 54be
00000350: 0132 d7bc 0d43 673d 2b7d eabd dd9c ca3d
00000360: 86ec d43b d1b7 3fbe 2ff4 edbc 732d fcbc
00000370: 7de9 8ebd 5e00 08be 8d0a 053d 1ae7 d73d
00000380: 95f9 0ebe 5762 783d eec2 01ba aca2 c0bd
00000390: 545c 023d a65c b13c 1bd4 68bd 9913 26bd
000003a0: 2a04 36be d996 d0bc 922e 4abd 9cf6 f73b
000003b0: e94b e9bd 8252 7bbb cbc8 bebd 53c6 e93d
000003c0: a59c 0bbe a5d5 d93c 1528 b33d 71fc 03bd
000003d0: 5888 c9bd a1a1 51bd d622 073d 67d1 8fbb
000003e0: 1eb0 9fbc c603 8b3c d582 983d 4d19 b2bc
000003f0: 3a40 fe3b 5075 ef3d cb72 ffbc 67b7 293e

network_body._body_endoder.seq_layers.2.bias f4 [128]
0.0 0.0 0.0 0.0 0.0 0.0 0.0 0.0
0.0 0.0 0.0 0.0 0.0 0.0 0.0 0.0
0.0 0.0 0.0 0.0 0.0 0.0 0.0 0.0
0.0 0.0 0.0 0.0 0.0 0.0 0.0 0.0
0.0 0.0 0.0 0.0 0.0 0.0 0.0 0.0
0.0 0.0 0.0 0.0 0.0 0.0 0.0 0.0
0.0 0.0 0.0 0.0 0.0 0.0 0.0 0.0
0.0 0.0 0.0 0.0 0.0 0.0 0.0 0.0
0.0 0.0 0.0 0.0 0.0 0.0 0.0 0.0
0.0 0.0 0.0 0.0 0.0 0.0 0.0 0.0
0.0 0.0 0.0 0.0 0.0 0.0 0.0 0.0
0.0 0.0 0.0 0.0 0.0 0.0 0.0 0.0
0.0 0.0 0.0 0.0 0.0 0.0 0.0 0.0
0.0 0.0 0.0 0.0 0.0 0.0 0.0 0.0
0.0 0.0 0.0 0.0 0.0 0.0 0.0 0.0
0.0 0.0 0.0 0.0 0.0 0.0 0.0 0.0
00000000: 0000 0000 0000 0000 0000 0000 0000 0000
00000010: 0000 0000 0000 0000 0000 0000 0000 0000
00000020: 0000 0000 0000 0000 0000 0000 0000 0000
00000030: 0000 0000 0000 0000 0000 0000 0000 0000
00000040: 0000 0000 0000 0000 0000 0000 0000 0000
00000050: 0000 0000 0000 0000 0000 0000 0000 0000
00000060: 0000 0000 0000 0000 0000 0000 0000 0000
00000070: 0000 0000 0000 0000 0000 0000 0000 0000
00000080: 0000 0000 0000 0000 0000 0000 0000 0000
00000090: 0000 0000 0000 0000 0000 0000 0000 0000
000000a0: 0000 0000 0000 0000 0000 0000 0000 0000
000000b0: 0000 0000 0000 0000 0000 0000 0000 0000
000000c0: 0000 0000 0000 0000 0000 0000 0000 0000
000000d0: 0000 0000 0000 0000 0000 0000 0000 0000
000000e0: 0000 0000 0000 0000 0000 0000 0000 0000
000000f0: 0000 0000 0000 0000 0000 0000 0000 0000
00000100: 0000 0000 0000 0000 0000 0000 0000 0000
00000110: 0000 0000 0000 0000 0000 0000 0000 0000
00000120: 0000 0000 0000 0000 0000 0000 0000 0000
00000130: 0000 0000 0000 0000 0000 0000 0000 0000
00000140: 0000 0000 0000 0000 0000 0000 0000 0000
00000150: 0000 0000 0000 0000 0000 0000 0000 0000
00000160: 0000 0000 0000 0000 0000 0000 0000 0000
00000170: 0000 0000 0000 0000 0000 0000 0000 0000
00000180: 0000 0000 0000 0000 0000 0000 0000 0000
00000190: 0000 0000 0000 0000 0000 0000 0000 0000
000001a0: 0000 0000 0000 0000 0000 0000 0000 0000
000001b0: 0000 0000 0000 0000 0000 0000 0000 0000
000001c0: 0000 0000 0000 0000 0000 0000 0000 0000
000001d0: 0000 0000 0000 0000 0000 0000 0000 0000
000001e0: 0000 0000 0000 0000 0000 0000 0000 0000
000001f0: 0000 0000 0000 0000 0000 0000 0000 0000

action_model._discrete_distribution.branches.0.weight f4 [3, 128]
-0.002329588 -0.0048815184 -0.0045172223 0.008791654 0.00029650633 -0.012675257 0.009420145 -0.0021254348
0.008511424 -0.011070223 0.0038548696 -0.0018242399 0.0031893842 -0.0017659394 -0.0039369306 0.006659812
0.016473053 0.0027414518 0.0065594553 -0.0061832173 0.010191188 0.0074320906 -0.008637621 -0.0028559228
0.006570212 0.0027889742 -0.008558126 -0.0034276508 0.0004467295 0.010441973 0.003279967 0.016026074
-0.018573591 0.013945525 -0.013472914 0.012199313 -0.00040957818 0.006186791 0.005785731 -0.010056687
0.005738215 0.0044061146 0.0027428444 -0.009862394 0.010191848 0.010498585 -0.0019364794 -0.0045094984
-0.009483721 -0.0044502364 0.0067698867 -0.01096857 0.0034618012 -0.0026183801 -0.001098392 -0.023635855
0.0016064522 -0.010869486 0.0022211727 0.0054806066 -0.012255801 -0.0019618894 -0.0039284243 -0.0010335916
-0.012499167 0.008103934 0.0034883076 -0.01916666 -0.0044943513 -0.006118813 -0.0065086386 -0.0020388227
0.0005667452 -0.015251207 -0.005386652 0.0047937366 0.0041839564 -0.0005202202 -0.008710016 -0.014851915
0.007519025 0.01858716 -0.0031302448 -0.005289438 -0.0044345874 0.01461869 0.0015123686 -0.0011549962
0.012430831 0.003552159 -0.003743782 -0.013612832 0.011330922 0.013342994 -0.011969696 0.011186457
-0.005377207 0.013992863 0.015651053 0.005283005 0.00156162 0.016628126 -0.0017967686 0.0053081024
0.0077340715 -0.020651525 0.0008631367 0.019035324 -0.002363163 0.018941607 0.002032682 -0.009254759
-0.0029330086 0.009599766 -0.0017485606 0.0011799885 0.000837577 -0.0011470543 0.006336176 0.005207704
0.006651702 -0.025737537 0.007108307 -0.0012624528 -0.009675565 0.008414177 0.006563101 -0.015901504
-0.0068207355 -0.0033151065 -0.009730532 0.014970235 0.0022290058 -0.005390253 -0.006696979 -0.0033607476
-0.002481092 0.00567175 -0.00606453 0.008780064 0.0055528167 -0.0046137585 0.0025219053 0.006361687
0.0024752058 -0.0005412423 -0.021101935 -0.013872862 0.005742951 0.008354309 0.012143449 0.0028775535
-0.0052305846 0.0067344033 0.00029188555 0.0019952392 -0.00682631 -0.001969245 0.0103338165 -0.008120299
-0.01733828 -0.00037900728 0.0037779901 -0.019862141 -0.005808145 -0.00947015 -0.007918143 -0.00082445564
0.005342985 0.0027227923 -0.014230511 0.004998296 -0.001079874 0.0070757396 -0.004153947 0.0011410041
0.005715943 0.0236495 0.01348757 -0.007439282 -0.0011216722 1.961748e-05 -0.013789904 0.009259677
0.0049044895 0.005883763 0.0026489599 0.016011057 0.010449694 -0.010381158 -0.000851624 0.0010957482
0.016943973 0.006206645 -0.033895236 -0.0070594484 -0.0111912275 0.009165002 -0.004344722 0.0026312193
-0.004924369 -0.015803127 0.0015110116 -0.0015797549 -0.010000946 7.103063e-05 0.0019576224 0.00086072274
0.0025459745 -0.0046663205 0.0028277703 -0.002792698 0.018899027 -0.0013981519 0.0053534177 -0.0056867055
-0.008279637 0.0064803096 0.002773823 0.01626816 0.0109521225 -0.0017245319 -0.012273922 0.0029459686
0.015053647 0.017106596 0.012639239 0.0026910682 -0.0021267287 0.0016124713 -0.012680811 -0.002844582
0.0038248848 0.0072627435 0.011096663 0.0016817044 0.00141863 -0.01355359 0.0013806705 0.0008781147
0.003145941 0.003133225 0.008434537 -3.1402695e-05 0.0013868723 -0.0048308684 0.017987778 -0.004094939
-0.0032700773 -0.0007304139 -0.0019174063 -0.0015320746 -0.00028472464 0.0037034717 0.01277919 0.0123695
00000000: 00ac 18bb 25f5 9fbb 3505 94bb df0a 103c
00000010: 6874 9b39 e2ab 4fbc f456 1a3c e14a 0bbb
00000020: 8073 0b3c e15f 35bc fba1 7c3b 551b efba
00000030: fd04 513b 1877 e7ba 5e01 81bb 8d3a da3b
00000040: 7ff2 863c eea9 333b b3f0 d63b 969c cabb
00000050: f1f8 263c e588 f33b cf84 0dbc 6f2a 3bbb
00000060: ef4a d73b 39c7 363b 6237 0cbc 70a2 60bb
00000070: 0537 ea39 cf14 2b3c b7f4 563b 1d49 833c
00000080: a527 98bc c57b 643c 7fbd 5cbc a1df 473c
00000090: a7bc d6b9 91ba ca3b 3b96 bd3b cdc4 24bc
000000a0: a307 bc3b 2b61 903b 4bc1 333b e195 21bc
000000b0: b5fb 263c 4202 2c3c 77d1 fdba 6ac4 93bb
000000c0: 9c61 1bbc 4ad3 91bb edd5 dd3b 84b5 33bc
000000d0: 63df 623b 2199 2bbb ebf7 8fba fb9f c1bc
000000e0: 978f d23a ee15 32bc 1891 113b a996 b33b
000000f0: 8ecc 48bc 0b93 00bb 03ba 80bb 9479 87ba
00000100: 4ec9 4cbc 5dc6 043c 179c 643b 6603 9dbc
00000110: 5a45 93bb 5380 c8bb 6b46 d5bb c59d 05bb
00000120: a091 143a 33e0 79bc 8382 b0bb c714 9d3b
00000130: 9219 893b 635f 08ba 74b4 0ebc 7255 73bc
00000140: 2762 f63b 1a44 983c cb24 4dbb 0653 adbb
00000150: 0450 91bb 3b83 6f3c ab3a c63a 3e63 97ba
00000160: afaa 4b3c 57cb 683b 3d5a 75bb 5b08 5fbc
00000170: 55a5 393c 939c 5a3c 8b1c 44bc 6747 373c
00000180: 4833 b0bb 5242 653c a336 803c 0f1d ad3b
00000190: 46af cc3a b537 883c 8d81 ebba 97ef ad3b
000001a0: 186e fd3b 632d a9bc 2044 623a f8ef 9b3c
000001b0: 4cdf 1abb 6e2b 9b3c bf36 053b 46a1 17bc
000001c0: b837 40bb 5648 1d3c f52f e5ba d8a9 9a3a
000001d0: d790 5b3a c158 96ba b29f cf3b 63a5 aa3b
000001e0: 85f6 d93b 87d7 d2bc cdec e83b e378 a5ba
000001f0: 4386 1ebc 9edb 093c 480f d73b df43 82bc
00000200: 7a80 dfbb 4242 59bb cf6c 1fbc b745 753c
00000210: 8314 123b b8a0 b0bb 5572 dbbb fd3f 5cbb
00000220: d199 22bb 16da b93b f7b8 c6bb 42da 0f3c
00000230: 67f4 b53b 032f 97bb 8d46 253b b375 d03b
00000240: 1037 223b 28e2 0dba f7dd acbc 004b 63bc
00000250: 5d2f bc3b 83e0 083c 51f5 463c 5695 3c3b
00000260: 5365 abbb 45ac dc3b 3708 9939 8fc2 023b
00000270: 3daf dfbb 730e 01bb 2b4f 293c 010b 05bc
00000280: 0209 8ebc 7fb5 c6b9 2898 773b eeb5 a2bc
00000290: 4052 bebb b028 1bbc 19bb 01bc 4820 58ba
000002a0: 3514 af3b e070 323b 1727 69bc bfc8 a33b
000002b0: 8f8a 8dba 9bdb e73b d51d 88bb bf8d 953a
000002c0: ce4c bb3b 99bc c13c f8fa 5c3c 38c5 f3bb
000002d0: 1305 93ba 3890 a437 0def 61bc e6b5 173c
000002e0: d7b5 a03b 95cc c03b 2c9a 2d3b 9f29 833c
000002f0: 3135 2b3c bc15 2abc 853f 5fba 359f 8f3a
00000300: 16ce 8a3c 1d61 cb3b bbd5 0abd f252 e7bb
00000310: 695b 37bc ce28 163c 2b5e 8ebb 8970 2c3b
00000320: 9a5c a1bb 8f75 81bc 230d c63a c70f cfba
00000330: 02db 23bc 47f6 9438 744b 003b 20a2 613a
00000340: 5dda 263b efe7 98bb 1d52 393b b305 37bb
00000350: 22d2 9a3c 3142 b7ba b96b af3b 8b57 babb
00000360: 51a7 07bc c758 d43b 07c9 353b ce44 853c
00000370: 8870 333c b009 e2ba 8f18 49bc 2711 413b
00000380: 92a3 763c 2223 8c3c d014 4f3c a25c 303b
00000390: 9660 0bbb 8f59 d33a 2dc3 4fbc 2b6c 3abb
000003a0: ebaa 7a3b 4ffc ed3b c7ce 353c a36c dc3a
000003b0: 53f1 b93a e00f 5ebc 9df7 b43a 4831 663a
000003c0: 222c 4e3b cb56 4d3b 0331 0a3c 63b6 03b8
000003d0: b6c7 b53a 434c 9ebb 1b5b 933c d72e 86bb
000003e0: cb4e 56bb 3f79 3fba 7b51 fbba e5cf c8ba
000003f0: 1847 95b9 f2b5 723b cf5f 513c 71a9 4a3c

action_model._discrete_distribution.branches.0.bias f4 [3]
0.0 0.0 0.0
00000000: 0000 0000 0000 0000 0000 0000

action_model._discrete_distribution.branches.1.weight f4 [3, 128]
0.007325937 0.001984731 -0.004262108 -0.005603917 -0.0130201 -0.0070679532 -0.0022722562 0.0013132818
-0.0005272737 0.0143732345 0.0070810774 0.0014246185 -0.0021017077 0.0039764196 0.007887318 -0.00028693714
-0.007800277 0.014492151 -0.0027500691 -0.0029247305 0.0126397135 -0.001046273 -0.0015679182 -0.006417818
-0.010118072 0.01718731 -0.0015984847 -0.0059816553 0.0034386215 0.010738413 -0.010636191 0.0011141293
0.0046653803 -0.0032648698 0.009506648 -0.005164298 0.002019542 0.0021684717 0.0021502075 0.0004640867
-0.0065968544 0.008591129 -0.009744202 -0.0043622893 0.003369068 -0.0075985487 -0.009193405 -0.0021407718
0.00020428693 -0.0014479146 0.005870465 -0.008776624 0.012275222 0.007841348 -0.0039759446 -0.004863626
-0.009452388 -0.003879831 -0.003592165 -0.0035804373 0.004515842 0.0076563023 -0.0017046117 -0.009074293
-0.0031998416 0.004366989 -0.0031912967 0.0031705305 0.0005842102 0.0023205038 0.0007010339 -0.015242765
0.010341613 -0.011383815 -0.006058934 -0.0014233798 0.0061894106 0.0027396583 -0.0120281195 0.009196508
0.010709366 0.0041557504 -0.023538245 0.010156857 -0.0057712104 0.0069472776 0.009222517 0.009532445
0.021796718 -0.00864807 0.0040038982 0.013503683 -0.003701929 0.011040671 0.005301151 -0.009995187
-0.005588112 0.005062867 0.003069797 -0.010065578 0.012798381 0.015113108 -0.0068024355 -0.0028615112
-0.0026777652 -0.00016349716 -0.0037039903 0.008487201 0.0010801202 0.006893718 0.0044643814 0.005464431
-0.0032974312 -0.0018854825 -0.011122435 -0.014813214 0.0025880127 0.005457984 -0.0042566205 -0.009568127
-0.011421164 -0.013789899 -0.009248932 0.0033491272 0.0016791163 0.0030841948 0.0066149156 -0.011214087
0.012062518 -0.009329657 -0.0027641507 0.0055949828 0.009343596 0.0025310104 -0.004222892 0.0018392084
-0.0034360958 0.012134271 -0.0044076326 0.010634988 -0.0021031636 0.006083499 0.004451729 -0.005334367
0.009623321 -0.015570665 0.0011568383 0.01701629 0.007983341 -0.0016439519 -0.010535248 -0.011383816
0.0029326517 0.004666539 -0.0056306273 0.0019661826 0.010411031 0.008014928 -0.001606657 0.0044427193
-0.0026231785 0.0017609074 0.0082291905 -0.008131635 -0.010935045 -0.00946702 0.017170163 0.002458383
0.0060519804 -0.0022523482 0.007860864 0.008618283 0.012906335 -0.021679409 0.010365484 0.0018427679
-0.007990651 -0.0078176595 -0.00191152 0.008783647 -0.012420034 0.0065631266 0.0031058856 -0.0070008575
0.0025794304 -0.00028858686 0.0027971393 -0.006110484 0.0076949894 0.006892589 -0.0125039015 0.0018556312
0.008461959 -0.0067163906 -0.005878938 -0.009388737 0.004544418 -0.004998698 0.0009914518 0.0007469787
0.0029784783 -0.005068808 -0.0013032648 -0.0066473014 -0.009838185 0.0068814843 0.008661975 -0.0063720136
-0.010350284 0.009842993 -0.010800498 -0.004831717 -0.0053121033 -0.016779713 -0.007945762 0.014171216
0.004558475 -0.006939216 0.0071369484 -0.013822137 0.0054069813 -0.0029217794 -0.0024803625 0.0059104725
0.0017338444 -0.003668191 0.00011820903 0.0075885826 -0.0009149134 0.0038369352 0.019752469 0.002660747
0.005975203 -0.012097082 0.0057459283 -0.0129663935 0.011291125 0.0038954434 0.009123118 -0.00031539585
0.007121999 0.00483742 -0.0056326487 0.016399704 0.0057424223 -0.007468653 0.0075710425 0.0011217762
0.0015276589 -0.009701685 0.0027851644 0.014682687 -0.009818312 -0.0030123198 0.0012137381 -0.0040831896
00000000: 6a0e f03b 4312 023b 27a9 8bbb 10a1 b7bb
00000010: 4252 55bc 4a9a e7bb 22ea 14bb 6d22 ac3a
00000020: bd38 0aba b77d 6b3c 6208 e83b 44ba ba3a
00000030: cebc 09bb a04c 823b cf39 013c 0d70 96b9
00000040: 7799 ffbb 7d70 6d3c 813a 34bb d6ac 3fbb
00000050: cd16 4f3c 1923 89ba 9b82 cdba 8f4c d2bb
00000060: 45c6 25bc 67cc 8c3c 3f84 d1ba c301 c4bb
00000070: 7f5a 613b 2bf0 2f3c 6b43 2ebc fa07 923a
00000080: 0ce0 983b 6df7 55bb c6c1 1b3c 4639 a9bb
00000090: 4b5a 043b eb1c 0e3b 7fea 0c3b aa50 f339
000000a0: 6d2a d8bb cfc1 0c3c 25a6 1fbc 89f1 8ebb
000000b0: 95cb 5c3b 3ffd f8bb ef9f 16bc 314c 0cbb
000000c0: db35 5639 f4c7 bdba 085d c03b d4cb 0fbc
000000d0: 031e 493c ff78 003c a448 82bb 0d5f 9fbb
000000e0: 30de 1abc c344 7ebb 876a 6bbb c5a5 6abb
000000f0: a1f9 933b b8e1 fa3b 476d dfba 58ac 14bc
00000100: 6fb4 51bb f518 8f3b 1325 51bb adc8 4f3b
00000110: af25 193a 9813 183b 97c5 373a cabc 79bc
00000120: de6f 293c 2e83 3abc 068a c6bb b390 baba
00000130: 8ad0 ca3b d78b 333b 9711 45bc f3ac 163c
00000140: 5676 2f3c f62c 883b 47d3 c0bc f268 263c
00000150: 6c1c bdbb fda5 e33b 0a1a 173c f92d 1c3c
00000160: 088f b23c a2b0 0dbc 2233 833b 8d3e 5d3c
00000170: 109c 72bb eee3 343c 47b5 ad3b dac2 23bc
00000180: 7b1c b7bb 68e6 a53b a62e 493b 18ea 24bc
00000190: 4db0 513c f89c 773c f7e6 debb 3188 3bbb
000001a0: 727d 2fbb 6f70 2bb9 a5be 72bb e70d 0b3c
000001b0: d292 8d3a b3e4 e13b f249 923b f80e b33b
000001c0: b719 58bb 4b22 f7ba e03a 36bc 1fb3 72bc
000001d0: a69b 293b e3d8 b23b 1f7b 8bbb a2c3 1cbc
000001e0: d51f 3bbc 07ef 61bc d588 17bc 087d 5b3b
000001f0: cb15 dc3a 3420 4a3b efc1 d83b 4abb 37bc
00000200: dea1 453c 6bdb 18bc c126 35bb 1e56 b73b
00000210: e215 193c 4fdf 253b 3060 8abb 9811 f13a
00000220: 1f30 61bb d2ce 463c e76d 90bb 5f3e 2e3c
00000230: 3bd5 09bb 1758 c73b cfdf 913b eacb aebb
00000240: 22ab 1d3c 1a1c 7fbc 0da1 973a bf65 8b3c
00000250: 8fcc 023c df79 d7ba 089c 2cbc 2f83 3abc
00000260: bb31 403b c4e9 983b 2081 b8bb 12db 003b
00000270: 0793 2a3c 0b51 033c 7796 d2ba 3b94 913b
00000280: a2e9 2bbb 3fce e63a bad3 063c 8d3a 05bc
00000290: e728 33bc 8f1b 1bbc 71a8 8c3c d31c 213b
000002a0: b14f c63b 229c 13bb daca 003c b333 0d3c
000002b0: 1875 533c 0499 b1bc fed3 293c 0889 f13a
000002c0: 38eb 02bc a415 00bc f88b faba 49e9 0f3c
000002d0: 667d 4bbc 7f0f d73b 1d8c 4b3b 7367 e5bb
000002e0: a90b 293b 794d 97b9 3650 373b 743a c8bb
000002f0: 4026 fc3b 3adb e13b 2add 4cbc a738 f33a
00000300: 07a4 0a3c 2b15 dcbb 1ba4 c0bb 38d3 19bc
00000310: 57e9 943b 1ecc a3bb 9af3 813a e4d0 433a
00000320: 9332 433b 3e18 a6bb 4fd2 aaba 9bd1 d9bb
00000330: 5730 21bc 137e e13b f5ea 0d3c 53cc d0bb
00000340: 3d94 29bc 8144 213c 92f4 30bc 6153 9ebb
00000350: 2711 aebb 9c75 89bc f12e 02bc 632e 683c
00000360: 435f 953b 5d62 e3bb 10dd e93b 3f76 62bc
00000370: 0c2d b13b 537b 3fbb 948d 22bb a3ac c13b
00000380: 2a42 e33a 0866 70bb fde6 f738 a5a9 f83b
00000390: cdd6 6fba 1775 7b3b eecf a13c ed5f 2e3b
000003a0: a3cb c33b d732 46bc 5748 bc3b ff70 54bc
000003b0: 69fe 383c b24a 7f3b 2179 153c b75b a5b9
000003c0: a85f e93b 3883 9e3b 1592 b8bb ac58 863c
000003d0: ee2a bc3b 9abb f4bb 8216 f83b 9008 933a
000003e0: ba3b c83a d1f3 1ebc 4e87 363b a78f 703c
000003f0: fcdc 20bc 576a 45bb 4b16 9f3a 47cc 85bb

action_model._discrete_distribution.branches.1.bias f4 [3]
0.0 0.0 0.0
00000000: 0000 0000 0000 0000 0000 0000

network_body._body_endoder.seq_layers.0.weight f4 [128, 47]
0.15328144 0.13041691 0.15801077 -0.17060456 -0.1127721 0.022613168 0.02202713 -0.26183912
-0.08912652 0.17572895 0.3344771 0.08829901 0.09544214 0.030250842 -0.19139846 0.062772095
-0.12475871 -0.20770772 0.04874081 -0.04588997 0.05875817 0.08269894 0.30274472 0.12268934
-0.1327598 0.012232356 -0.0038911726 0.07528785 -0.1438562 0.1727221 -0.081784874 0.03533033
-0.108272225 0.10391882 0.08105472 -0.20120785 -0.14926198 -0.15923354 -0.11577868 0.15092124
0.24210137 0.3049584 -0.27207106 -0.050989866 0.09001245 0.048289455 -0.107083105 0.14906795
-0.30024707 0.14757392 -0.03998239 0.089596614 0.05069991 -0.14645447 -0.06788913 -0.18737112
0.18639217 -0.25868207 -0.06779044 -0.121921435 0.018411478 -0.04738613 -0.037087798 -0.14761809
0.025232833 -0.16252682 0.07717227 -0.050841153 -0.07583497 -0.009982783 0.025290942 -0.0170264
-0.14347054 0.00011600154 0.05421174 -0.21016313 -0.009025964 -0.3791361 -0.30268338 0.028169693
0.07075832 0.12651798 -0.16052547 0.25868192 0.105351895 -0.04150044 -0.1482071 0.022923058
-0.07562693 -0.14234331 0.3645523 -0.013304511 -0.13393886 -0.110123925 -0.020284206 -0.10053761
-0.049540985 0.016767342 -0.04738525 0.07292378 8.967506e-05 0.09240599 0.14588504 0.052431412
-0.093333155 0.06713832 0.06315899 -0.19570388 0.10129068 0.04757859 0.1393969 -0.11063141
0.0336271 -0.23321879 0.06572117 -0.22404838 0.074310146 -0.09404804 -0.11301255 -0.064008676
0.07175979 -0.016965738 0.045205977 -0.018794352 -0.10075646 0.051268578 -0.0474995 -0.06984374
-0.13315512 -0.26779708 -0.18650086 -0.0063846647 -0.124500714 0.0010421928 0.06270559 0.10707582
-0.20067297 0.05600527 -0.033216037 -0.15043433 -0.123700045 -0.14086969 0.3416179 0.09033142
0.24661413 0.01837499 -0.1132514 0.1601233 0.31011307 0.21387528 0.040225267 0.107936315
-0.22597088 0.14508523 -0.0463918 -0.115093134 -0.059411176 -0.01912645 -0.114986524 -0.11536972
0.0014340867 -0.06358835 0.022390932 -0.17486213 0.030900445 -0.102757245 0.07098081 -0.074619666
0.4214433 0.02882854 -0.2283159 -0.00659685 -0.17518117 -0.20188959 0.038634513 -0.060547125
-0.13028875 -0.19513063 -0.07147831 0.016686762 0.010697965 -0.09331151 0.08959873 -0.13816938
0.15493591 0.15066546 0.11034562 -0.19120416 0.111825354 -0.113163725 -0.09074223 0.0047199624
0.08810787 -0.25675923 -0.1436885 0.10927152 -0.16544735 0.12184355 0.081700474 0.2973315
0.21951461 0.04627801 0.061194733 0.23804104 0.14227465 0.17322068 0.12560222 -0.121607184
0.2589082 -0.0879748 -0.1346846 -0.014588683 0.0043197703 -0.096362114 -0.063593015 0.11816403
-0.14464678 -0.09647919 -0.03592631 -0.06594362 -0.16721803 0.08159624 -0.17995848 -0.29205063
-0.10101689 0.104365975 0.20963493 0.21287979 0.13742894 -0.03700865 0.07829307 -0.1268884
0.06139949 0.024344983 0.017987195 0.043150768 0.18278435 0.06216327 0.052727953 0.010246386
-0.14305224 0.03010467 0.048542645 0.035438728 -0.16739777 0.011796936 0.05246642 -0.2578566
-0.14643058 0.03306731 0.019125141 0.10587009 0.1041589 0.06898442 0.03133653 0.010930386
00000000: cff5 1c3e 038c 053e 93cd 213e f6b2 2ebe
00000010: 0ff5 e6bd 403f b93c 3d72 b43c c70f 86be
00000020: f787 b6bd 4af2 333e 9540 ab3e 1dd6 b43d
00000030: 2b77 c33d 9dd0 f73c f5fd 43be a88e 803d
00000040: 7f81 ffbd 55b1 54be 72a4 473d 1ff7 3bbd
00000050: 68ac 703d 105e a93d 5b01 9b3e 8c44 fb3d
00000060: 2ff2 07be 386a 483c 0b03 7fbb 8430 9a3d
00000070: 0a4f 13be 10de 303e d47e a7bd 89b6 103d
00000080: d4bd ddbd 64d3 d43d 0400 a63d 6e09 4ebe
00000090: 22d8 18be 1e0e 23be 5f1d edbd 198b 1a3e
000000a0: 6ce9 773e 8223 9c3e e64c 8bbe c0da 50bd
000000b0: 7358 b83d 2acb 453d 634e dbbd 45a5 183e
000000c0: fcb9 99be 9e1d 173e 93c4 23bd 6e7e b73d
000000d0: b5aa 4f3d 29f8 15be 7509 8bbd 37de 3fbe
000000e0: 97dd 3e3e fa71 84be b7d5 8abd f2b1 f9bd
000000f0: abd3 963c f517 42bd 60e9 17bd 3229 17be
00000100: 16b5 ce3c 6e6d 26be 7f0c 9e3d d03e 50bd
00000110: 5d4f 9bbd d48e 23bc f32e cf3c f37a 8bbc
00000120: f1e9 12be da45 f338 210d 5e3d 0135 57be
00000130: a3e1 13bc 201e c2be 51f9 9abe 21c4 e63c
00000140: bde9 903d ee8d 013e ca60 24be f571 843e
00000150: bcc2 d73d 5efc 29bd 9ac3 17be 23c9 bb3c
00000160: 4be2 9abd 72c2 11be 99a6 ba3e 2afb 59bc
00000170: 4527 09be a788 e1bd 102b a6bc aae6 cdbd
00000180: 7deb 4abd aa5b 893c 0917 42bd 1059 953d
00000190: ee0f bc38 5a3f bd3d e362 153e 52c2 563d
000001a0: 7425 bfbd d17f 893d 8059 813d 9966 48be
000001b0: 7d71 cf3d c5e1 423d 10be 0e3e b892 e2bd
000001c0: 92bc 093d e8d0 6ebe d298 863d f06c 65be
000001d0: eb2f 983d 429c c0bd 2073 e7bd fb16 83bd
000001e0: ccf6 923d bbfb 8abc e729 393d 9df6 99bc
000001f0: 6759 cebd 00ff 513d d68e 42bd 3c0a 8fbd
00000200: d159 08be b31c 89be 15fa 3ebe 7336 d1bb
00000210: 3bfa febd 309a 883a ca6b 803d 914a db3d
00000220: 377d 4dbe c865 653d 8a0d 08bd 750b 1abe
00000230: 7356 fdbd 2540 10be 8be8 ae3e aeff b83d
00000240: 6a88 7c3e 2687 963c 5af0 e7bd 5df7 233e
00000250: 24c7 9e3e 1f02 5b3e 40c3 243d b70d dd3d
00000260: e964 67be 3991 143e 5405 3ebd f3b5 ebbd
00000270: 2259 73bd 13af 9cbc 0e7e ebbd f646 ecbd
00000280: f7f7 bb3a 9c3a 82bd 306d b73c 0f0f 33be
00000290: ee22 fd3c 6472 d2bd 635e 913d 32d2 98bd
000002a0: 6bc7 d73e d529 ec3c a5cb 69be 642a d8bb
000002b0: b162 33be 25bc 4ebe 393f 1e3d 4300 78bd
000002c0: 6a6a 05be 53d0 47be 3863 92bd adb2 883c
000002d0: 8446 2f3c 1b1a bfbd 8a7f b73d 467c 0dbe
000002e0: 85a7 1e3e 0c48 1a3e e2fc e13d 06cb 43be
000002f0: b104 e53d 62c2 e7bd 10d7 b9bd eaa9 9a3b
00000300: e671 b43d f275 83be 1423 13be bfc9 df3d
00000310: 086b 29be 1c89 f93d 9452 a73d d63b 983e
00000320: 70c8 603e 038e 3d3d 54a7 7a3d 08c1 733e
00000330: 72b0 113e c360 313e de9d 003e 300d f9bd
00000340: 9e8f 843e 222c b4bd c3ea 09be 5f05 6fbc
00000350: dc8c 8d3b 8059 c5bd 0e3d 82bd fcff f13d
00000360: 491e 14be e296 c5bd 7727 13bd 730d 87bd
00000370: 343b 2bbe ee1b a73d 0947 38be a987 95be
00000380: f1e1 cebd d4bd d53d 8aaa 563e 29fd 593e
00000390: 2cba 0c3e 6296 17bd 1e58 a03d 08ef 01be
000003a0: 087e 7b3d 216f c73c e259 933c dcbe 303d
000003b0: d22b 3b3e ea9e 7e3d 44f9 573d 75e0 273c
000003c0: 497c 12be 129e f63c a7d4 463d 3328 113d
000003d0: 526a 2bbe f047 413c 07e7 563d c805 84be
000003e0: e6f1 15be 9671 073d 54ac 9c3c 6bd2 d83d
000003f0: 4351 d53d b447 8d3d bc5a 003d 5d15 333c

network_body._body_endoder.seq_layers.0.bias f4 [128]
0.0 0.0 0.0 0.0 0.0 0.0 0.0 0.0
0.0 0.0 0.0 0.0 0.0 0.0 0.0 0.0
0.0 0.0 0.0 0.0 0.0 0.0 0.0 0.0
0.0 0.0 0.0 0.0 0.0 0.0 0.0 0.0
0.0 0.0 0.0 0.0 0.0 0.0 0.0 0.0
0.0 0.0 0.0 0.0 0.0 0.0 0.0 0.0
0.0 0.0 0.0 0.0 0.0 0.0 0.0 0.0
0.0 0.0 0.0 0.0 0.0 0.0 0.0 0.0
0.0 0.0 0.0 0.0 0.0 0.0 0.0 0.0
0.0 0.0 0.0 0.0 0.0 0.0 0.0 0.0
0.0 0.0 0.0 0.0 0.0 0.0 0.0 0.0
0.0 0.0 0.0 0.0 0.0 0.0 0.0 0.0
0.0 0.0 0.0 0.0 0.0 0.0 0.0 0.0
0.0 0.0 0.0 0.0 0.0 0.0 0.0 0.0
0.0 0.0 0.0 0.0 0.0 0.0 0.0 0.0
0.0 0.0 0.0 0.0 0.0 0.0 0.0 0.0
00000000: 0000 0000 0000 0000 0000 0000 0000 0000
00000010: 0000 0000 0000 0000 0000 0000 0000 0000
00000020: 0000 0000 0000 0000 0000 0000 0000 0000
00000030: 0000 0000 0000 0000 0000 0000 0000 0000
00000040: 0000 0000 0000 0000 0000 0000 0000 0000
00000050: 0000 0000 0000 0000 0000 0000 0000 0000
00000060: 0000 0000 0000 0000 0000 0000 0000 0000
00000070: 0000 0000 0000 0000 0000 0000 0000 0000
00000080: 0000 0000 0000 0000 0000 0000 0000 0000
00000090: 0000 0000 0000 0000 0000 0000 0000 0000
000000a0: 0000 0000 0000 0000 0000 0000 0000 0000
000000b0: 0000 0000 0000 0000 0000 0000 0000 0000
000000c0: 0000 0000 0000 0000 0000 0000 0000 0000
000000d0: 0000 0000 0000 0000 0000 0000 0000 0000
000000e0: 0000 0000 0000 0000 0000 0000 0000 0000
000000f0: 0000 0000 0000 0000 0000 0000 0000 0000
00000100: 0000 0000 0000 0000 0000 0000 0000 0000
00000110: 0000 0000 0000 0000 0000 0000 0000 0000
00000120: 0000 0000 0000 0000 0000 0000 0000 0000
00000130: 0000 0000 0000 0000 0000 0000 0000 0000
00000140: 0000 0000 0000 0000 0000 0000 0000 0000
00000150: 0000 0000 0000 0000 0000 0000 0000 0000
00000160: 0000 0000 0000 0000 0000 0000 0000 0000
00000170: 0000 0000 0000 0000 0000 0000 0000 0000
00000180: 0000 0000 0000 0000 0000 0000 0000 0000
00000190: 0000 0000 0000 0000 0000 0000 0000 0000
000001a0: 0000 0000 0000 0000 0000 0000 0000 0000
000001b0: 0000 0000 0000 0000 0000 0000 0000 0000
000001c0: 0000 0000 0000 0000 0000 0000 0000 0000
000001d0: 0000 0000 0000 0000 0000 0000 0000 0000
000001e0: 0000 0000 0000 0000 0000 0000 0000 0000
000001f0: 0000 0000 0000 0000 0000 0000 0000 0000

network_body._body_endoder.seq_layers.2.weight f4 [128, 128]
-0.061358735 0.08013339 0.025914548 -0.028951682 0.030762339 0.10297631 0.06594921 0.05778952
-0.04078788 -0.122328706 0.016852042 0.014756623 -0.03731144 0.07684044 -0.14678228 0.1472988
-0.20132163 0.0333489 0.03467031 -0.08502904 0.060803074 0.062371884 0.047311608 -0.10425005
-0.06081742 -0.09581359 0.007510772 -0.12643194 0.06379187 0.050633505 0.025365999 0.02017923
-0.009517794 0.01050595 -0.13457902 0.06723877 0.026553199 0.0560614 -0.11888027 -0.14429285
-0.09155015 0.14202267 -0.04907402 -0.020702226 0.107378945 0.16072182 0.036559816 0.047455642
0.012951692 0.041840512 -0.14462516 -0.11919366 -0.08722731 0.023789432 -0.119380936 -0.057330377
-0.02628912 -0.1354962 0.047205143 -0.13871166 -0.015245433 0.0012360209 0.062610045 -0.23271538
-0.12098282 -0.08048802 0.13042188 0.026957776 0.05033395 0.013737088 -0.045924053 0.15367523
0.07858086 0.0038147732 0.1417868 -0.123433396 0.086007416 -0.15497278 0.041605834 -0.13000737
-0.0674918 -0.074172065 0.08339106 -0.008063691 -0.14087221 0.06045504 -0.033276476 0.18464327
0.02204748 -0.06301318 -0.020023571 -0.11463575 0.08803361 0.05039508 -0.047744565 0.12571278
-0.18520959 -0.028345812 0.07043292 0.044556715 0.05710588 0.07860379 0.024361974 -0.076962195
0.064333156 0.06520721 -0.035149023 -0.04329431 -0.17772518 0.022827134 0.10713606 0.083861515
-0.026391832 0.09365729 -0.04681892 0.076170646 -0.010545808 0.050298326 0.08913974 -0.0066196313
-0.004767139 -0.11100986 0.032499228 0.006323719 -0.16608651 0.11418128 0.07076341 0.01105916
0.10479978 -0.07912577 -0.16115436 -0.06257927 -0.062026616 0.056639105 0.1262283 0.0017117349
-0.06376551 0.021732524 -0.053254407 0.118638456 0.011311384 -0.034865417 -0.14530158 0.033531375
-0.06973625 -0.053669885 -0.03087676 -0.035678748 0.07669998 -0.007656797 -0.06538491 0.1064408
-0.10167697 0.15020135 -0.014378304 -0.08107233 0.037727926 -0.034990583 0.042257782 -0.026461741
0.081871055 0.12547821 0.03307572 0.037038375 0.0067450674 -0.041170973 -0.11202215 -0.12537745
0.050426148 0.20630682 -0.13344339 0.15158875 0.057488963 -0.007056261 -0.019179072 0.10947553
-0.02287911 0.1570348 0.021746544 -0.06418542 -0.1648589 -0.15022077 0.040135715 -0.07176286
-0.10439749 0.0783154 -0.05358509 -0.10438753 -0.023027977 0.10686976 -0.0820292 0.09585169
-0.019386267 -0.09400251 -0.13092126 -0.08534552 0.111737356 0.06506586 0.065046504 -0.038230166
-0.025190871 0.060096707 0.088042475 0.1522721 -0.046274886 -0.09125914 -0.13962218 -0.08885509
-0.08491958 0.14922625 -0.02360575 -0.053640082 0.079731196 -0.10438088 -0.03280041 0.009973791
-0.013121815 0.025844567 0.016718974 -0.037499163 -0.077979825 0.14532891 0.03915946 -0.06329565
-0.027889235 0.10598953 0.09357267 0.02700708 -0.040582456 -0.012783937 0.014150087 -0.09034706
0.05633414 -0.0007114403 0.09843728 -0.048421755 -0.048232198 -0.107002325 0.06060301 -0.06841196
0.09935082 0.03090623 -0.0012314955 -0.090786025 0.0011550222 -0.2214419 -0.14775094 0.18681224
0.06801986 -0.055963192 -0.001591645 -0.08905899 -0.032787457 0.040651184 0.049018122 -0.008483889
00000000: 4c53 7bbd fa1c a43d bf4a d43c 142c edbc
00000010: 4d01 fc3c 3ee5 d23d 6110 873d b4b4 6c3d
00000020: 3111 27bd 7987 fabd 4b0d 8a3c c3c5 713c
00000030: e1d3 18bd 855e 9d3d 184e 16be 7fd5 163e
00000040: 4227 4ebe db98 083d 7402 0e3d b523 aebd
00000050: a50c 793d a979 7f3d d1c9 413d 0d81 d5bd
00000060: b01b 79bd ea39 c4bd ec1c f63b 6077 01be
00000070: 50a5 823d 1465 4f3d 5bcc cf3c ea4e a53c
00000080: 85f0 1bbc 2621 2c3c 15cf 09be 7bb4 893d
00000090: 1886 d93c a3a0 653d 8077 f3bd 81c1 13be
000000a0: a57e bbbd 646e 113e d701 49bd b797 a9bc
000000b0: 7ee9 db3d 4394 243e bfbf 153d d960 423d
000000c0: 5533 543c f560 2b3d 9e18 14be ce1b f4bd
000000d0: 3ba4 b2bd 0ee2 c23c fe7d f4bd 42d3 6abd
000000e0: 485c d7bc 84bf 0abe 2e5a 413d 6e0a 0ebe
000000f0: fbc7 79bc fb01 a23a b239 803d f14c 6ebe
00000100: d7c5 f7bd e7d6 a4bd 508d 053e 8ed6 dc3c
00000110: f92a 4e3d 8611 613c dc1a 3cbd 0a5d 1d3e
00000120: 00ef a03d 4601 7a3b 8f30 113e a6ca fcbd
00000130: a824 b03d 2fb1 1ebe e16a 2a3d a720 05be
00000140: 2439 8abd 86e7 97bd efc8 aa3d 921d 04bc
00000150: ce40 10be b49f 773d ea4c 08bd 2013 3d3e
00000160: eb9c b43c 0e0d 81bd 7908 a4bc 26c6 eabd
00000170: f74a b43d 126b 4e3d ce8f 43bd daba 003e
00000180: 95a7 3dbe 7a35 e8bc 223f 903d 1a81 363d
00000190: dbe7 693d 06fb a03d c392 c73c 5b9e 9dbd
000001a0: 1ac1 833d 5c8b 853d 6cf8 0fbd 6055 31bd
000001b0: 97fd 35be f8ff ba3c 276a db3d 96bf ab3d
000001c0: af33 d8bc 65cf bf3d 32c5 3fbd 5bff 9b3d
000001d0: 53c8 2cbc 9e05 4e3d e58e b63d 7ee9 d8bb
000001e0: a935 9cbb 2359 e3bd e91d 053d 3337 cf3b
000001f0: 9512 2abe e0d7 e93d 68ec 903d 7b31 353c
00000200: 44a1 d63d b10c a2bd a605 25be 8f29 80bd
00000210: 9f0f 7ebd 68fe 673d fe41 013e 4b5c e03a
00000220: 7e97 82bd 6808 b23c 4b21 5abd b8f8 f23d
00000230: 6253 393c 0acf 0ebd f0c9 14be 3258 093d
00000240: e1d1 8ebd f4d4 5bbd 42f1 fcbc e123 12bd
00000250: e114 9d3d dee5 fabb 86e8 85bd a2fd d93d
00000260: 043c d0bd 62ce 193e fa92 6bbc 4009 a6bd
00000270: 9988 1a3d 4952 0fbd 7f16 2d3d 4bc6 d8bc
00000280: 03ac a73d 5c7d 003e 687a 073d 8db5 173d
00000290: ba05 dd3b e5a2 28bd de6b e5bd f262 00be
000002a0: a68b 4e3d 1842 533e 62a5 08be 153a 1b3e
000002b0: 8c79 6b3d 3538 e7bb 6e1d 9dbc b534 e03d
000002c0: f96c bbbc bbcd 203e cf25 b23c a573 83bd
000002d0: c5d0 28be 79d3 19be 5965 243d 68f8 92bd
000002e0: 5ace d5bd d363 a03d 0a7c 5bbd 21c9 d5bd
000002f0: 2ba5 bcbc 88de da3d edfe a7bd e44d c43d
00000300: f3cf 9ebc 6384 c0bd 3910 06be a2c9 aebd
00000310: 8ed6 e43d 4041 853d 1a37 853d 3c97 1cbd
00000320: 165d cebc f727 763d 9d4f b43d 38ed 1b3e
00000330: bc8a 3dbd 12e6 babd 1ef9 0ebe a8f9 b5bd
00000340: 51ea adbd c4ce 183e d960 c1bc b4b5 5bbd
00000350: 1c4a a33d a5c5 d5bd b959 06bd 1d69 233c
00000360: e2fc 56bc fcb7 d33c 3bf6 883c b998 19bd
00000370: e3b3 9fbd 1ad1 143e ac65 203d 26a1 81bd
00000380: f777 e4bc 0a11 d93d 07a3 bf3d f43d dd3c
00000390: ca39 26bd b873 51bc c4d5 673c e107 b9bd
000003a0: a1be 663d f37f 3aba 7c99 c93d e455 46bd
000003b0: 208f 45bd 0924 dbbd dd3a 783d 921b 8cbd
000003c0: 7178 cb3d 102f fd3c 226a a1ba 06ee b9bd
000003d0: 1d64 973a aac1 62be 064c 17be b54b 3f3e
000003e0: ff4d 8b3d a939 65bd be9e d0ba 8f64 b6bd
000003f0: 244c 06bd db81 263d 3ac7 483d 0200 0bbc

network_body._body_endoder.seq_layers.2.bias f4 [128]
0.0 0.0 0.0 0.0 0.0 0.0 0.0 0.0
0.0 0.0 0.0 0.0 0.0 0.0 0.0 0.0
0.0 0.0 0.0 0.0 0.0 0.0 0.0 0.0
0.0 0.0 0.0 0.0 0.0 0.0 0.0 0.0
0.0 0.0 0.0 0.0 0.0 0.0 0.0 0.0
0.0 0.0 0.0 0.0 0.0 0.0 0.0 0.0
0.0 0.0 0.0 0.0 0.0 0.0 0.0 0.0
0.0 0.0 0.0 0.0 0.0 0.0 0.0 0.0
0.0 0.0 0.0 0.0 0.0 0.0 0.0 0.0
0.0 0.0 0.0 0.0 0.0 0.0 0.0 0.0
0.0 0.0 0.0 0.0 0.0 0.0 0.0 0.0
0.0 0.0 0.0 0.0 0.0 0.0 0.0 0.0
0.0 0.0 0.0 0.0 0.0 0.0 0.0 0.0
0.0 0.0 0.0 0.0 0.0 0.0 0.0 0.0
0.0 0.0 0.0 0.0 0.0 0.0 0.0 0.0
0.0 0.0 0.0 0.0 0.0 0.0 0.0 0.0
00000000: 0000 0000 0000 0000 0000 0000 0000 0000
00000010: 0000 0000 0000 0000 0000 0000 0000 0000
00000020: 0000 0000 0000 0000 0000 0000 0000 0000
00000030: 0000 0000 0000 0000 0000 0000 0000 0000
00000040: 0000 0000 0000 0000 0000 0000 0000 0000
00000050: 0000 0000 0000 0000 0000 0000 0000 0000
00000060: 0000 0000 0000 0000 0000 0000 0000 0000
00000070: 0000 0000 0000 0000 0000 0000 0000 0000
00000080: 0000 0000 0000 0000 0000 0000 0000 0000
00000090: 0000 0000 0000 0000 0000 0000 0000 0000
000000a0: 0000 0000 0000 0000 0000 0000 0000 0000
000000b0: 0000 0000 0000 0000 0000 0000 0000 0000
000000c0: 0000 0000 0000 0000 0000 0000 0000 0000
000000d0: 0000 0000 0000 0000 0000 0000 0000 0000
000000e0: 0000 0000 0000 0000 0000 0000 0000 0000
000000f0: 0000 0000 0000 0000 0000 0000 0000 0000
00000100: 0000 0000 0000 0000 0000 0000 0000 0000
00000110: 0000 0000 0000 0000 0000 0000 0000 0000
00000120: 0000 0000 0000 0000 0000 0000 0000 0000
00000130: 0000 0000 0000 0000 0000 0000 0000 0000
00000140: 0000 0000 0000 0000 0000 0000 0000 0000
00000150: 0000 0000 0000 0000 0000 0000 0000 0000
00000160: 0000 0000 0000 0000 0000 0000 0000 0000
00000170: 0000 0000 0000 0000 0000 0000 0000 0000
00000180: 0000 0000 0000 0000 0000 0000 0000 0000
00000190: 0000 0000 0000 0000 0000 0000 0000 0000
000001a0: 0000 0000 0000 0000 0000 0000 0000 0000
000001b0: 0000 0000 0000 0000 0000 0000 0000 0000
000001c0: 0000 0000 0000 0000 0000 0000 0000 0000
000001d0: 0000 0000 0000 0000 0000 0000 0000 0000
000001e0: 0000 0000 0000 0000 0000 0000 0000 0000
000001f0: 0000 0000 0000 0000 0000 0000 0000 0000

value_heads.value_heads.extrinsic.weight f4 [1, 128]
0.15661016 -0.13705808 -0.053965956 0.001842171 0.12450844 0.06793612 -0.016138703 0.17700395
-0.124201186 -0.06563164 -0.095933385 -0.19487505 0.0849531 0.14245936 -0.16471691 -0.147897
0.17158318 0.1915003 -0.08953279 -0.14355192 0.08584607 -0.11653569 0.1323261 0.20193514
0.17645669 0.21479517 0.08117744 -0.08581178 -0.048040494 -0.20696571 -0.13218603 0.043157965
-0.038833722 -0.069254994 -0.1963592 -0.13289672 -0.12680459 -0.07393831 0.108721435 -0.0120435655
0.17367393 -0.007337004 0.1041556 -0.027796194 -0.1308108 0.060938478 -0.0063469857 0.1102964
0.11690357 -0.13630188 0.0011081547 -0.21361433 0.15707752 0.046459228 0.016836628 0.13953441
0.16511327 -0.11180499 0.11838943 -0.030424684 -0.13462278 -0.08531572 -0.17154449 0.06204468
-0.15628634 -0.11530882 0.13508385 0.15084007 -0.0386934 0.16368085 0.20747608 0.043200046
-0.0117818415 0.0206393 0.08897954 0.032229587 -0.20728068 0.091189474 -0.04285489 -0.04612021
0.04672405 0.031278595 -0.113044724 0.048567772 -0.100545384 -0.18417588 -0.0020215511 -0.09661857
-0.12861602 -0.1702893 -0.123500995 -0.09310384 0.04781857 0.17573398 -0.0015652925 -0.11034535
-0.08173978 -0.14437637 -0.026502341 -0.17984404 0.08761504 -0.06298916 -0.055560827 0.08295137
-0.07858279 0.19877985 0.14701816 -0.06393069 0.11085236 0.10035965 0.06842893 -0.020372361
-0.14481944 0.055255443 0.030894682 -0.098981336 0.02486591 -0.18832316 0.1944241 -0.16060323
-0.1097229 -0.19876431 -0.1767179 0.07190931 0.18243524 -0.077133104 -0.036860168 -0.02006352
00000000: 6a5e 203e f458 0cbe 680b 5dbd 0075 f13a
00000010: 48fe fe3d 1822 8b3d 5035 84bc 8640 353e
00000020: 315d febd e269 86bd b978 c4bd 538d 47be
00000030: e4fb ad3d dee0 113e 8dab 28be 5072 17be
00000040: 80b3 2f3e a818 443e f85c b7bd 46ff 12be
00000050: 10d0 af3d 44aa eebd 7e80 073e 16c8 4e3e
00000060: 10b1 343e 44f3 5b3e 5c40 a63d 16be afbd
00000070: 1cc6 44bd d2ee 53be c65b 07be 68c6 303d
00000080: 1c10 1fbd 90d5 8dbd 6312 49be 1416 08be
00000090: 10d9 01be f86c 97bd 58a9 de3d 6052 45bc
000000a0: 94d7 313e 406b f0bb 884f d53d d8b4 e3bc
000000b0: 44f3 05be a09a 793d 60fa cfbb 14e3 e13d
000000c0: 246b ef3d b892 0bbe 803f 913a b7bd 5abe
000000d0: eed8 203e 084c 3e3d f8ec 893c 1ce2 0e3e
000000e0: 7413 293e 04fa e4bd 2876 f23d 303d f9bc
000000f0: 8eda 09be 02ba aebd 5ca9 2fbe 9022 7e3d
00000100: 8709 20be 0827 ecbd 6c53 0a3e d275 1a3e
00000110: f87c 1ebd f49b 273e 9c74 543e 88f2 303d
00000120: a008 41bc c013 a93c e83a b63d 2c03 043d
00000130: 6341 54be 8cc1 ba3d 9c88 2fbd 8ce8 3cbd
00000140: b861 3f3d fc1d 003d fe83 e7bd 00ef 463d
00000150: bdea cdbd 9a98 3cbe 007c 04bb f5df c5bd
00000160: ebb3 03be 5160 2ebe 17ee fcbd 3aad bebd
00000170: 68dd 433d 9cf3 333e 802a cdba befc e1bd
00000180: 3067 a7bd 66d7 13be 701b d9bc 0929 38be
00000190: 846f b33d 7600 81bd c093 63bd 68e2 a93d
000001a0: 04f0 a0bd f28c 4b3e ee8b 163e 18ee 82bd
000001b0: 9006 e33d 5c89 cd3d 7824 8c3d f0e3 a6bc
000001c0: 8c4b 14be 8853 623d d816 fd3c bab6 cabd
000001d0: 98b3 cb3c c9d7 40be 1c17 473e 2c75 24be
000001e0: 66b6 e0bd df88 4bbe 8af5 34be 3045 933d
000001f0: 4ed0 3a3e f6f7 9dbd b0fa 16bd 405c a4bc
