results - copia/PruebaNuevoPythonAmRecta/AgenteCoche/AgenteCoche-432992.onnx (onnx, 94886 bytes, 13 tensors)

70 f4 [20]
0	0x3d75d9a4	0.06002201
1	0x3d75ec98	0.060040087
2	0x3ac730df	0.001519706
3	0x3de88784	0.113539726
4	0x3ef63a51	0.48091367
5	0x3ef63a3c	0.48091304
6	0x3ac730df	0.001519706
7	0x3e098777	0.13430582
8	0x3eed301d	0.4632577
9	0x3eed2ffe	0.46325678
10	0x3ac730df	0.001519706
11	0x3dfd6bbf	0.123740666
12	0x3ed136dc	0.40862167
13	0x3ed136a5	0.40862003
14	0x3ac730df	0.001519706
15	0x3e080fa3	0.13287215
16	0x3ec6c7a4	0.3882419
17	0x3ec6c75b	0.3882397
18	0x3ac730df	0.001519706
19	0x3df611e6	0.120151326

73 f4 [20]
0	0x3da9282f	0.082596175
1	0x3ed25cfb	0.41086563
2	0x3ac730df	0.001519706
3	0x3c970cb0	0.018438667
4	0x3da937e7	0.08262616
5	0x3ed289a7	0.41120645
6	0x3ac730df	0.001519706
7	0x3c974e93	0.018470084
8	0x3daab4fd	0.08335302
9	0x3ed241d6	0.41065854
10	0x3ac730df	0.001519706
11	0x3c96cd66	0.018408488
12	0x3daf5d02	0.08562662
13	0x3ed24661	0.4106932
14	0x3ac730df	0.001519706
15	0x3c976e32	0.018485162
16	0x3db11e78	0.086483896
17	0x3ed17a56	0.40913647
18	0x3ac730df	0.001519706
19	0x3c95d2d7	0.018289013

76 f4 [7]
0	0x3f89a446	1.0753257
1	0x3dae2a40	0.08504152
2	0x3ad0aeab	0.0015921196
3	0x3dcc056b	0.09961971
4	0x3c3f277b	0.011667128
5	0x3ac730df	0.001519706
6	0x3d422c7f	0.047405716

action_model._continuous_distribution.log_sigma f4 [1, 2]
0	0x00000000	0.0
1	0x00000000	0.0

action_model._continuous_distribution.mu.bias f4 [2]
0	0x00000000	0.0
1	0x00000000	0.0

action_model._continuous_distribution.mu.weight f4 [2, 128]
0	0xbc6b2bea	-0.014353732
1	0xbc7e6473	-0.015526879
2	0x3c251d44	0.010077778
3	0x3b83665a	0.004010004
4	0xbbf56048	-0.0074882843
5	0xbc1fd56b	-0.009755473
6	0x3b96577c	0.0045880657
7	0xbb0af3f1	-0.002120253
8	0xbca59f9b	-0.020217707
9	0x3c60420a	0.01368762
10	0x3c73ba90	0.014876023
11	0x3c51849a	0.012787962
12	0x3ba997d7	0.0051755714
13	0xbc7c1d0f	-0.0153877875
14	0xbcd3f7e0	-0.025875032
15	0xbbff5405	-0.0077919983
16	0x3aaf768f	0.0013386774
17	0x3cbbf869	0.0229456
18	0xbc188d6f	-0.009311064
19	0x3acd0c97	0.0015644011
20	0x3ca714ed	0.02039572
21	0x3b558e62	0.0032586087
22	0x3cab7253	0.020928537
23	0xbbfced03	-0.0077186837
24	0xbac5c55a	-0.0015088723
25	0x3a9de2ec	0.0012045777
26	0xbb9d7cc9	-0.0048061353
27	0xbcb7d005	-0.022438059
28	0xbc83fbac	-0.016111217
29	0x3bdfb4b2	0.0068269605
30	0xbbdbe1dd	-0.0067102746
31	0xbd1f4020	-0.038879514
32	0x3c4a36db	0.01234218
33	0x3c6fe1da	0.01464125
34	0x3c4615a4	0.01209012
35	0xbd5340f8	-0.05157563
36	0xbbd6d947	-0.006556663
37	0x3c0dfb7b	0.008665915
38	0x3c4a4311	0.012345091
39	0xbd00d7ff	-0.03145599
40	0x3c81c74f	0.015842108
41	0x3ae57503	0.0017506186
42	0x3c0b28ff	0.008493661
43	0x3d05e73d	0.03269123
44	0xbbe18bba	-0.006883112
45	0xbb6626af	-0.0035118272
46	0x3b9403ab	0.004517039
47	0x3a26b816	0.00063598284
48	0xbc87501b	-0.01651769
49	0xbcabaff7	-0.02095793
50	0xbcc42ebe	-0.02394807
51	0x3b5a07bf	0.0033268777
52	0xbc8f8df6	-0.017523747
53	0x3ce5427d	0.027985806
54	0xbc71baa7	-0.014753974
55	0xbcb3d1a7	-0.021950556
56	0x3ca1b1f0	0.019738168
57	0x3cf6be5a	0.030120064
58	0x3c9f8f27	0.01947744
59	0x3b856923	0.004071371
60	0xbbe6cab5	-0.0070432075
61	0xbb886e37	-0.0041635293
62	0xbc238126	-0.009979522
63	0xbca7a90d	-0.020466352
64	0x390781b7	0.00012922926
65	0x39c3c16d	0.00037337412
66	0x3c53691f	0.012903481
67	0xbb1e85dc	-0.0024188673
68	0xbc55d632	-0.013051556
69	0xbc932467	-0.017961694
70	0x3c90bd21	0.017668309
71	0xbb87eb6c	-0.0041479375
72	0xbc12ce17	-0.008960268
73	0x3c880260	0.016602695
74	0x3c61323b	0.013744886
75	0xbb6eac05	-0.003641845
76	0xbc8e305a	-0.01735704
77	0x3b65dc83	0.0035074062
78	0x3ce43695	0.027858058
79	0xbd15baa9	-0.036554966
80	0xbad04920	-0.0015890934
81	0x3c6eba8a	0.014570842
82	0x3ca85a32	0.020550821
83	0xbcb38d81	-0.02191806
84	0xbc1257eb	-0.008932094
85	0xbcc13d80	-0.023588896
86	0xbcc8b7c7	-0.024501694
87	0x3cd1865f	0.025576768
88	0xbc508000	-0.01272583
89	0x3cf92def	0.03041741
90	0xbc7f043f	-0.015564977
91	0xbcf40fdf	-0.029792724
92	0x3b5b55a5	0.0033467796
93	0xbc24fbd1	-0.010069803
94	0xbcf28baa	-0.029607613
95	0xbc45ab5f	-0.012064784
96	0x3b536f9d	0.0032262572
97	0x3c4c5eb2	0.012473749
98	0x3cdda94d	0.027058268
99	0x3c2dca31	0.010607288
100	0xbcfc9712	-0.030833755
101	0x3af69820	0.0018813647
102	0xba144677	-0.0005656252
103	0xbce2009b	-0.02758818
104	0x39528c43	0.00020079412
105	0xbc0aed0e	-0.00847937
106	0xbaa7ac1b	-0.001279238
107	0xbc8fa86f	-0.01753637
108	0x3c3b2ceb	0.0114242835
109	0xbc5fdc4b	-0.013663362
110	0x3c987397	0.018609805
111	0xbc9366bf	-0.01799333
112	0xbcb5a2bb	-0.022172322
113	0xbcb1546f	-0.021646706
114	0x3cf11bcf	0.029432205
115	0x3c492ff3	0.012279498
116	0xbc1ea5b3	-0.00968306
117	0x3bea7cbd	0.0071559832
118	0xbcb8467d	-0.022494549
119	0xbcb6f33a	-0.022332776
120	0x3c556d0f	0.01302649
121	0xbc53c45b	-0.012925233
122	0x3d32742b	0.043567818
123	0x3c33f648	0.010984011
124	0xbb83becb	-0.004020547
125	0xbcaa1138	-0.020760164
126	0xbb56ebca	-0.003279435
127	0x3c0dacbf	0.008647143
128	0xbc43e143	-0.011955562
129	0x3c584ebf	0.013202368
130	0x3d31ef42	0.043441065
131	0x3d125fef	0.03573602
132	0xbc5afe12	-0.013366239
133	0x3c42cf32	0.0118902195
134	0xbca61b4c	-0.020276688
135	0xbd01eaed	-0.031718183
136	0x3c39cb2e	0.011339946
137	0xbc382599	-0.011239433
138	0xbcf78a97	-0.030217452
139	0xbb9fabe8	-0.0048727877
140	0x3cc22b7f	0.023702381
141	0x3c55d543	0.013051334
142	0x3c5e7bf3	0.0135793565
143	0x3c16473f	0.00917226
144	0x3c267f75	0.010162224
145	0x3c98064d	0.018557692
146	0x3c117881	0.008878828
147	0x3b48731b	0.0030586186
148	0x3cb261eb	0.021775207
149	0x3d1ee4ce	0.038792424
150	0xbc5e15af	-0.013554974
151	0x3baa53aa	0.005197962
152	0xbd09e5e7	-0.033666518
153	0x3c0576a9	0.008145967
154	0x3bca7d8f	0.0061795185
155	0xba97937b	-0.0011564338
156	0x3c51c5b8	0.0128034875
157	0xbc1a10d9	-0.009403431
158	0xbbcb8977	-0.0062114554
159	0x3bef6eaf	0.0073068957
160	0x3c96d21b	0.018410733
161	0xbc201046	-0.009769505
162	0x3c0ef2b1	0.008724854
163	0xbcaa1a34	-0.020764448
164	0x3c725058	0.014789663
165	0xbbfbda40	-0.0076859295
166	0xbc0cd51f	-0.008595734
167	0xbc8a5a56	-0.016888779
168	0x3c9806df	0.018557964
169	0xbc04eb47	-0.008112735
170	0xbc3056e8	-0.010762908
171	0xbc8c8f08	-0.017158046
172	0x3b65979f	0.0035033
173	0x3ba1ac83	0.004933895
174	0xbbd55cef	-0.0065113227
175	0xbc227cbb	-0.009917433
176	0x3be30f5f	0.0069293226
177	0xbb683c95	-0.00354365
178	0xbcaa057f	-0.020754574
179	0x3b905460	0.0044045895
180	0xbc842542	-0.016131047
181	0xbba18ab6	-0.0049298657
182	0xbba06e02	-0.0048959265
183	0x3c9c50af	0.019081442
184	0xba00a62d	-0.00049075746
185	0xbb534cfa	-0.0032241927
186	0xbcf0f272	-0.029412482
187	0xbaa61067	-0.0012669683
188	0x3c606912	0.013696926
189	0xbc8c72f5	-0.01714466
190	0x3c1acde6	0.009448504
191	0x3c7b990f	0.015356316
192	0x3c627263	0.013821217
193	0x3b29dd2e	0.0025919187
194	0x381667da	3.5859506e-05
195	0xbacdb5e5	-0.0015694468
196	0xbcb7e057	-0.02244584
197	0x3b86a9e4	0.004109608
198	0x3bf8e84a	0.0075960504
199	0x3ce9651a	0.028490592
200	0x3d4e84ca	0.050419606
201	0xbc67e76a	-0.0141542945
202	0xbbad3e23	-0.0052869483
203	0xbcf7dbc8	-0.030256167
204	0x3b1993b6	0.002343399
205	0x3af9429d	0.0019017045
206	0xbc9abbe0	-0.018888414
207	0xbba314de	-0.004976853
208	0x3b9c1444	0.004763158
209	0xbc89ed1c	-0.016836695
210	0xbd279726	-0.04091563
211	0xbbc2b1ba	-0.005941597
212	0xbc67171d	-0.014104632
213	0xbbb9699d	-0.005658342
214	0xbcaa914b	-0.020821234
215	0x3cbeba7f	0.023282288
216	0xbb6ec65f	-0.0036434156
217	0x3b704cb2	0.0036666808
218	0xbcbbe59a	-0.022936631
219	0xbb8e41c3	-0.0043413355
220	0xbd2ca063	-0.042145144
221	0xbc433bc4	-0.011916105
222	0xbb694afa	-0.0035597668
223	0x3c205e72	0.0097881425
224	0xbc4fc720	-0.012681752
225	0xbcf39037	-0.029731853
226	0x3ca068ca	0.019581217
227	0xbbac0445	-0.0052495324
228	0xbd274555	-0.040837605
229	0xbc801850	-0.015636593
230	0x3a8ed738	0.001089788
231	0x3d317d98	0.043332666
232	0x3d1d8603	0.03845788
233	0x3ba1d953	0.004939237
234	0x3b556560	0.0032561645
235	0xbc0e90f4	-0.008701552
236	0x3b61bc50	0.0034444518
237	0x3bd65e58	0.0065420084
238	0xbc6296a5	-0.013829862
239	0xbbef92fd	-0.0073112235
240	0xbae564da	-0.001750137
241	0xbc0cf2a8	-0.008602776
242	0xbbfeb16f	-0.0077726166
243	0x3ba826fb	0.0051316
244	0xbc26481f	-0.010149031
245	0x3c83a52a	0.016069967
246	0xbc853124	-0.016258784
247	0x3c022e35	0.007945587
248	0xb9322306	-0.0001698845
249	0xbbf944cd	-0.0076070786
250	0x3cbc571f	0.022990761
251	0x3b402296	0.002931749
252	0xbc4f9657	-0.012670121
253	0x3c93c6eb	0.018039187
254	0x3c71601a	0.014732385
255	0xbc3e83a8	-0.011628069

network_body._body_endoder.seq_layers.0.bias f4 [128]
0	0x00000000	0.0
1	0x00000000	0.0
2	0x00000000	0.0
3	0x00000000	0.0
4	0x00000000	0.0
5	0x00000000	0.0
6	0x00000000	0.0
7	0x00000000	0.0
8	0x00000000	0.0
9	0x00000000	0.0
10	0x00000000	0.0
11	0x00000000	0.0
12	0x00000000	0.0
13	0x00000000	0.0
14	0x00000000	0.0
15	0x00000000	0.0
16	0x00000000	0.0
17	0x00000000	0.0
18	0x00000000	0.0
19	0x00000000	0.0
20	0x00000000	0.0
21	0x00000000	0.0
22	0x00000000	0.0
23	0x00000000	0.0
24	0x00000000	0.0
25	0x00000000	0.0
26	0x00000000	0.0
27	0x00000000	0.0
28	0x00000000	0.0
29	0x00000000	0.0
30	0x00000000	0.0
31	0x00000000	0.0
32	0x00000000	0.0
33	0x00000000	0.0
34	0x00000000	0.0
35	0x00000000	0.0
36	0x00000000	0.0
37	0x00000000	0.0
38	0x00000000	0.0
39	0x00000000	0.0
40	0x00000000	0.0
41	0x00000000	0.0
42	0x00000000	0.0
43	0x00000000	0.0
44	0x00000000	0.0
45	0x00000000	0.0
46	0x00000000	0.0
47	0x00000000	0.0
48	0x00000000	0.0
49	0x00000000	0.0
50	0x00000000	0.0
51	0x00000000	0.0
52	0x00000000	0.0
53	0x00000000	0.0
54	0x00000000	0.0
55	0x00000000	0.0
56	0x00000000	0.0
57	0x00000000	0.0
58	0x00000000	0.0
59	0x00000000	0.0
60	0x00000000	0.0
61	0x00000000	0.0
62	0x00000000	0.0
63	0x00000000	0.0
64	0x00000000	0.0
65	0x00000000	0.0
66	0x00000000	0.0
67	0x00000000	0.0
68	0x00000000	0.0
69	0x00000000	0.0
70	0x00000000	0.0
71	0x00000000	0.0
72	0x00000000	0.0
73	0x00000000	0.0
74	0x00000000	0.0
75	0x00000000	0.0
76	0x00000000	0.0
77	0x00000000	0.0
78	0x00000000	0.0
79	0x00000000	0.0
80	0x00000000	0.0
81	0x00000000	0.0
82	0x00000000	0.0
83	0x00000000	0.0
84	0x00000000	0.0
85	0x00000000	0.0
86	0x00000000	0.0
87	0x00000000	0.0
88	0x00000000	0.0
89	0x00000000	0.0
90	0x00000000	0.0
91	0x00000000	0.0
92	0x00000000	0.0
93	0x00000000	0.0
94	0x00000000	0.0
95	0x00000000	0.0
96	0x00000000	0.0
97	0x00000000	0.0
98	0x00000000	0.0
99	0x00000000	0.0
100	0x00000000	0.0
101	0x00000000	0.0
102	0x00000000	0.0
103	0x00000000	0.0
104	0x00000000	0.0
105	0x00000000	0.0
106	0x00000000	0.0
107	0x00000000	0.0
108	0x00000000	0.0
109	0x00000000	0.0
110	0x00000000	0.0
111	0x00000000	0.0
112	0x00000000	0.0
113	0x00000000	0.0
114	0x00000000	0.0
115	0x00000000	0.0
116	0x00000000	0.0
117	0x00000000	0.0
118	0x00000000	0.0
119	0x00000000	0.0
120	0x00000000	0.0
121	0x00000000	0.0
122	0x00000000	0.0
123	0x00000000	0.0
124	0x00000000	0.0
125	0x00000000	0.0
126	0x00000000	0.0
127	0x00000000	0.0

network_body._body_endoder.seq_layers.0.weight f4 [128, 47]
0	0xbe0d669f	-0.13808678
1	0xbd66175b	-0.056174617
2	0xbdfc71df	-0.12326407
3	0x3ddd3632	0.108013526
4	0xbd9c87be	-0.07643078
5	0x3e495b4f	0.19663738
6	0x3e161e99	0.1466011
7	0x3e15a458	0.14613473
8	0x3d78fcb8	0.060787886
9	0xbe7fe961	-0.2499137
10	0xbe08536f	-0.13313077
11	0xbbf1ba1f	-0.0073769237
12	0x3e4170fe	0.1889076
13	0xbd82511a	-0.06363125
14	0xbd581830	-0.052757442
15	0x3e3f8e07	0.18706523
16	0xbd941af8	-0.072317064
17	0x3cb85952	0.022503529
18	0x3e1d8326	0.1538206
19	0xbd859618	-0.06522769
20	0x3d00efb7	0.03147861
21	0x3e0f8fa8	0.14019644
22	0x3ddbd5ad	0.10734115
23	0xbc5b8dc4	-0.013400499
24	0xbde7d082	-0.113190666
25	0x3e8b5df8	0.2722013
26	0xbdb830f6	-0.089937136
27	0xbc7dfe4e	-0.0155025255
28	0xbec3bba6	-0.38229102
29	0x3e815b36	0.252649
30	0x3e25ac25	0.16178949
31	0xbe03ccb0	-0.12871051
32	0x3cf44793	0.029819285
33	0xbb1f4028	-0.0024299715
34	0xbe880fc4	-0.26574528
35	0x3c977ea0	0.018492997
36	0xbc049817	-0.008092902
37	0x3e331691	0.17489077
38	0x3d6ae842	0.057350405
39	0xbcc65d76	-0.024214488
40	0x3d89e6c2	0.06733467
41	0xbdd3e4f3	-0.10346403
42	0x3e2157db	0.1575617
43	0xbe8f9954	-0.28046668
44	0x3e1d9b37	0.15391241
45	0x3e680108	0.22656643
46	0x3e98a2f2	0.29811817
47	0xbec18ac7	-0.3780119
48	0xbcfd909f	-0.03095275
49	0xbe6a0034	-0.2285164
50	0xbe3f25d3	-0.18666773
51	0xbe1aca8c	-0.15116328
52	0x3d9d30ea	0.07675345
53	0x3e00f855	0.12594731
54	0x3e09d27d	0.13459201
55	0x3c8b4c5b	0.017004183
56	0x3ddba775	0.10725299
57	0xbec0afc2	-0.37634093
58	0x3e4343df	0.1906886
59	0x3cae6529	0.021288471
60	0xbe573902	-0.2101784
61	0xbe112bcd	-0.14176865
62	0xbb90909f	-0.0044117714
63	0xbd25b039	-0.040451262
64	0xbdac2aaa	-0.08406575
65	0x3dda86ad	0.106702186
66	0x3cc0b130	0.02352199
67	0x3dd10d5b	0.102076255
68	0x3c63b478	0.013898008
69	0xbd721313	-0.05910022
70	0x3d22f4cf	0.03978425
71	0x3b515261	0.003193997
72	0x3ddf73d2	0.10910763
73	0x3c088c4c	0.008334231
74	0xbe4f0d72	-0.20219973
75	0x3d9c079c	0.07618639
76	0xbacde809	-0.0015709411
77	0x3e54ba5a	0.20774212
78	0x3d88c074	0.066773325
79	0xbd93e958	-0.07222241
80	0x3e497f6f	0.19677518
81	0xbeaecda5	-0.3414127
82	0x3d36748b	0.044544738
83	0x3c93066c	0.017947398
84	0xbd8ffde2	-0.07030846
85	0x3c533944	0.012892071
86	0xbda00ce8	-0.07814962
87	0x3d9f2a2f	0.07771718
88	0xbdc2b874	-0.09507838
89	0x3e14690b	0.14493196
90	0xbde6d759	-0.11271543
91	0xbe518566	-0.20461044
92	0x3cbf0e3e	0.02332222
93	0xbde20d24	-0.110376626
94	0xbc9addba	-0.018904556
95	0xbc82c52e	-0.015963163
96	0x3ce08443	0.027406817
97	0x3c3cfe0a	0.011535177
98	0x3d8c9462	0.06864239
99	0xbe38a700	-0.18032455
100	0xbe8c577b	-0.27410492
101	0xbe2d2fae	-0.1691272
102	0xbcce4ef9	-0.025184141
103	0x3b33340a	0.002734425
104	0xbe09d3c6	-0.13459691
105	0x3d1e2690	0.038610995
106	0xbde22a2c	-0.110432
107	0x3d935cdb	0.07195445
108	0xbe013ba0	-0.12620401
109	0xbe3d5365	-0.18488844
110	0x3d2ff717	0.042960253
111	0x3d60213e	0.054719202
112	0x3dd6d202	0.104892746
113	0xbe13a02e	-0.14416572
114	0xbe330325	-0.17481668
115	0xbe284d94	-0.16435844
116	0xbc9ab1c7	-0.018883599
117	0x3dbd0d55	0.092310585
118	0x3e4f6e2b	0.2025687
119	0x3e3652d5	0.17805035
120	0x3d2f62c9	0.04281882
121	0xbd85b640	-0.06528902
122	0xbe5c48b9	-0.21512116
123	0x3e610c06	0.21977243
124	0xbdb4238b	-0.08795842
125	0xbe168398	-0.14698637
126	0x3d161f0e	0.03665071
127	0xbdfa5341	-0.12222911
128	0xbe0683b6	-0.13136181
129	0x3d721c75	0.05910917
130	0x3e2db9dd	0.16965432
131	0x3df92fbd	0.121673085
132	0x3ca61dd6	0.020277899
133	0x3e449136	0.19196019
134	0xbcca2408	-0.024675384
135	0x3e08eb8d	0.13371105
136	0x3cfc7bd0	0.030820757
137	0xbca5ad92	-0.020224366
138	0xbc3c5741	-0.011495412
139	0x3d654272	0.05597157
140	0x3d686b58	0.056742996
141	0xbe1d4156	-0.15356955
142	0xbdc4fdba	-0.09618707
143	0xbd5da213	-0.054109644
144	0xbc984759	-0.018588709
145	0xbe0c82df	-0.13721798
146	0x3dbe331d	0.09287093
147	0xbb8a3a65	-0.004218387
148	0xbe9feafe	-0.31233972
149	0xbadeab25	-0.0016988261
150	0xbd0b7e25	-0.034055848
151	0x3e949cce	0.29025882
152	0x3e181a8b	0.14853875
153	0xbd86d87c	-0.0658426
154	0xbe431c07	-0.1905366
155	0x3c923cf2	0.017851327
156	0x3d2441e3	0.040101897
157	0xbe9fc15f	-0.31202218
158	0xbd165186	-0.03669884
159	0x3d79dd0d	0.061001826
160	0x3e667c53	0.22508363
161	0x3d6bac93	0.057537626
162	0x3eb0bb3a	0.34517843
163	0x3de367f4	0.11103812
164	0x3dd64d23	0.104639314
165	0xbeaa35fc	-0.33244312
166	0xbe3414fb	-0.17586128
167	0xbd8366a6	-0.06416063
168	0x3e17b6c2	0.1481581
169	0x3dbf30d9	0.09335489
170	0x3eaa6917	0.33283302
171	0xbdfca1a5	-0.12335519
172	0x3e010c15	0.12602265
173	0xbdf79cb5	-0.12090436
174	0xbe34245e	-0.17591998
175	0xbcff6dc6	-0.031180274
176	0x3e299396	0.16560206
177	0xbdb881b1	-0.09009112
178	0xbe9a5cf0	-0.3014903
179	0x3e3ff23b	0.18744747
180	0xbe637df6	-0.22216019
181	0xbd848643	-0.06470921
182	0x3d99163e	0.074749455
183	0x3d6bcd9f	0.057569142
184	0xbe7d2c75	-0.2472399
185	0x3e78f873	0.24313526
186	0xbe835705	-0.25652328
187	0xbe849f82	-0.25902945
188	0x3cbdba09	0.023159998
189	0xbe0bad3a	-0.136403
190	0x3c8e2325	0.017350743
191	0x3dd10275	0.10205547
192	0x3e75613e	0.23962876
193	0x3e6f1830	0.2334907
194	0x3d1f3dd4	0.038877323
195	0xbd319bcc	-0.04336147
196	0x3d1e89e7	0.038705733
197	0x3e05b633	0.13057785
198	0x3cff9ab2	0.031201694
199	0xbb7c1437	-0.0038464197
200	0x3ad103f0	0.0015946608
201	0xbdda7131	-0.10666121
202	0xbe6f88ba	-0.23392001
203	0xbd666ced	-0.056256223
204	0xbbac708e	-0.005262441
205	0x3c8baec3	0.017051106
206	0x3e126e06	0.14299783
207	0xbe6b8471	-0.22999741
208	0x3dfbc95e	0.12294267
209	0xb8f198b4	-0.00011520219
210	0x3e2f73ee	0.17134067
211	0x3cde1b88	0.027112737
212	0x3d012729	0.031531487
213	0x3d4bd17d	0.04976033
214	0xbe1f800a	-0.15576187
215	0x3dd3bb56	0.10338466
216	0x3dcc8a67	0.09987336
217	0x3e33298d	0.17496319
218	0x3e9cbadf	0.3061132
219	0xbe5a219d	-0.21301885
220	0x3df1931b	0.11795636
221	0xbda4825e	-0.08032678
222	0xbd92be2c	-0.07165179
223	0xbd7f32cd	-0.062304307
224	0xbe07c5fb	-0.13259117
225	0xbe55a520	-0.20863771
226	0xbe2a092f	-0.16605066
227	0xbdd063d9	-0.101752944
228	0xbe2d7230	-0.1693809
229	0x3e639a85	0.22226913
230	0xbe489bfd	-0.19590755
231	0xbe4a6266	-0.19764099
232	0x3e01cde0	0.12676191
233	0xbe5ce11d	-0.21570249
234	0x3e0fa055	0.14026006
235	0xbe106c01	-0.141037
236	0xbd4db77b	-0.05022381
237	0x3e917e59	0.28416708
238	0x3e4e4189	0.20142187
239	0x3deff824	0.11717251
240	0x3eb4526e	0.3521914
241	0xbbb42a25	-0.005498188
242	0x3e6a8e8b	0.22905938
243	0x3dc3814a	0.09546144
244	0x3c9abb99	0.018888282
245	0x3dc4efe0	0.09616065
246	0x3d897247	0.0671125
247	0x3e4efdf2	0.2021406
248	0xbd8d91ef	-0.069126
249	0xbc83c53d	-0.016085261
250	0xbd3ce0db	-0.046112876
251	0x3dfacf2a	0.12246545
252	0x3eb7868b	0.35844836
253	0xbe27b5e6	-0.16377982
254	0x3d09d91f	0.03365433
255	0x3ca78f34	0.020454027

network_body._body_endoder.seq_layers.2.bias f4 [128]
0	0x00000000	0.0
1	0x00000000	0.0
2	0x00000000	0.0
3	0x00000000	0.0
4	0x00000000	0.0
5	0x00000000	0.0
6	0x00000000	0.0
7	0x00000000	0.0
8	0x00000000	0.0
9	0x00000000	0.0
10	0x00000000	0.0
11	0x00000000	0.0
12	0x00000000	0.0
13	0x00000000	0.0
14	0x00000000	0.0
15	0x00000000	0.0
16	0x00000000	0.0
17	0x00000000	0.0
18	0x00000000	0.0
19	0x00000000	0.0
20	0x00000000	0.0
21	0x00000000	0.0
22	0x00000000	0.0
23	0x00000000	0.0
24	0x00000000	0.0
25	0x00000000	0.0
26	0x00000000	0.0
27	0x00000000	0.0
28	0x00000000	0.0
29	0x00000000	0.0
30	0x00000000	0.0
31	0x00000000	0.0
32	0x00000000	0.0
33	0x00000000	0.0
34	0x00000000	0.0
35	0x00000000	0.0
36	0x00000000	0.0
37	0x00000000	0.0
38	0x00000000	0.0
39	0x00000000	0.0
40	0x00000000	0.0
41	0x00000000	0.0
42	0x00000000	0.0
43	0x00000000	0.0
44	0x00000000	0.0
45	0x00000000	0.0
46	0x00000000	0.0
47	0x00000000	0.0
48	0x00000000	0.0
49	0x00000000	0.0
50	0x00000000	0.0
51	0x00000000	0.0
52	0x00000000	0.0
53	0x00000000	0.0
54	0x00000000	0.0
55	0x00000000	0.0
56	0x00000000	0.0
57	0x00000000	0.0
58	0x00000000	0.0
59	0x00000000	0.0
60	0x00000000	0.0
61	0x00000000	0.0
62	0x00000000	0.0
63	0x00000000	0.0
64	0x00000000	0.0
65	0x00000000	0.0
66	0x00000000	0.0
67	0x00000000	0.0
68	0x00000000	0.0
69	0x00000000	0.0
70	0x00000000	0.0
71	0x00000000	0.0
72	0x00000000	0.0
73	0x00000000	0.0
74	0x00000000	0.0
75	0x00000000	0.0
76	0x00000000	0.0
77	0x00000000	0.0
78	0x00000000	0.0
79	0x00000000	0.0
80	0x00000000	0.0
81	0x00000000	0.0
82	0x00000000	0.0
83	0x00000000	0.0
84	0x00000000	0.0
85	0x00000000	0.0
86	0x00000000	0.0
87	0x00000000	0.0
88	0x00000000	0.0
89	0x00000000	0.0
90	0x00000000	0.0
91	0x00000000	0.0
92	0x00000000	0.0
93	0x00000000	0.0
94	0x00000000	0.0
95	0x00000000	0.0
96	0x00000000	0.0
97	0x00000000	0.0
98	0x00000000	0.0
99	0x00000000	0.0
100	0x00000000	0.0
101	0x00000000	0.0
102	0x00000000	0.0
103	0x00000000	0.0
104	0x00000000	0.0
105	0x00000000	0.0
106	0x00000000	0.0
107	0x00000000	0.0
108	0x00000000	0.0
109	0x00000000	0.0
110	0x00000000	0.0
111	0x00000000	0.0
112	0x00000000	0.0
113	0x00000000	0.0
114	0x00000000	0.0
115	0x00000000	0.0
116	0x00000000	0.0
117	0x00000000	0.0
118	0x00000000	0.0
119	0x00000000	0.0
120	0x00000000	0.0
121	0x00000000	0.0
122	0x00000000	0.0
123	0x00000000	0.0
124	0x00000000	0.0
125	0x00000000	0.0
126	0x00000000	0.0
127	0x00000000	0.0

network_body._body_endoder.seq_layers.2.weight f4 [128, 128]
0	0xbd90d36b	-0.07071575
1	0x3d908a63	0.07057645
2	0xbe14aa5f	-0.14518116
3	0x3e777017	0.24163853
4	0xbd77c60a	-0.0604916
5	0x3d53d835	0.051719863
6	0x3bd43086	0.006475511
7	0x3da28dc0	0.07937193
8	0xbdf9131c	-0.12161848
9	0x3d81303b	0.06308027
10	0xbe147ce1	-0.14500763
11	0x3c8c3fec	0.017120324
12	0xbd80453c	-0.062632054
13	0x3c834a26	0.016026568
14	0x3cf3346d	0.029688084
15	0xbde88f32	-0.11355437
16	0xbe1db5f5	-0.15401442
17	0xbd3a8579	-0.045537446
18	0xbe3a35ef	-0.18184637
19	0xbdf24367	-0.11829262
20	0xbe2c7659	-0.16842021
21	0x3db10bad	0.08644805
22	0xbe12fac6	-0.14353475
23	0x3e8828ad	0.26593533
24	0x3d109dc0	0.035306692
25	0x3cad695f	0.021168409
26	0x3cb24f6e	0.02176639
27	0xbe46a09c	-0.19397205
28	0x3c76463a	0.015031392
29	0xbd0937c3	-0.033500444
30	0x3c611caa	0.013739744
31	0x3dafd4c2	0.08585502
32	0xbdad001e	-0.08447288
33	0x3de48cea	0.1115969
34	0xbe0cbcd2	-0.13743904
35	0x3d8aac58	0.06771153
36	0x3db2bda2	0.08727576
37	0x3d490d35	0.04908486
38	0x3d77b4f1	0.060475294
39	0x3d0a73ce	0.033801846
40	0xbdc5b5d6	-0.09653823
41	0xbd5e0d63	-0.054211985
42	0xbd80ed7b	-0.06295296
43	0xbd36ab27	-0.044596817
44	0xbd42d357	-0.04756483
45	0xbd42da00	-0.047571182
46	0xbe05dad4	-0.13071758
47	0x3d971250	0.0737654
48	0xbcab8668	-0.020938113
49	0xbd290f09	-0.041274104
50	0x3de37177	0.11105626
51	0xbe453234	-0.19257432
52	0xbde29765	-0.110640325
53	0xbcc58903	-0.024113184
54	0x3dd33705	0.103132285
55	0xbda5f362	-0.08103062
56	0xbd39166b	-0.045187395
57	0xbd910142	-0.07080318
58	0xbd21dacd	-0.039515305
59	0x3dd274e5	0.10276202
60	0xbb29441f	-0.0025827957
61	0x3d42773c	0.047476992
62	0x3d8cb0bb	0.06869646
63	0x3e67af92	0.22625569
64	0x3e7ad2e8	0.24494517
65	0x3cd23bda	0.025663305
66	0xbd01fa1e	-0.03173267
67	0xbd933116	-0.07187097
68	0xbdeb8e64	-0.11501768
69	0xbc1ee49f	-0.009698062
70	0xbc938889	-0.018009441
71	0xbcd1bb6a	-0.025602061
72	0x3e189997	0.1490234
73	0xbd614467	-0.054996874
74	0x3d4857db	0.04891191
75	0xbce030e0	-0.027367055
76	0xbd8a8066	-0.06762771
77	0x3c0e512e	0.008686347
78	0xbd28c63e	-0.041204683
79	0xbd7ed6f9	-0.062216733
80	0xbce0b209	-0.027428644
81	0x3de1a8cb	0.11018523
82	0xbe2298ed	-0.15878649
83	0xbd7e2d3f	-0.06205487
84	0x3d8aff80	0.06787014
85	0x3ce2b61c	0.027674727
86	0xbd93a445	-0.07209066
87	0xbdd28611	-0.102794774
88	0x3d186275	0.03720327
89	0x3d452245	0.048128385
90	0x3c45302e	0.012035413
91	0xbdddbd93	-0.10827174
92	0x3dd31f86	0.10308747
93	0xbd549969	-0.051904116
94	0xbe004a23	-0.12528281
95	0xbc903e57	-0.017607851
96	0xbd873aa5	-0.066029824
97	0x3e5e74e6	0.2172428
98	0xbd90383f	-0.07041978
99	0x3c51072f	0.01275806
100	0xbd80b824	-0.06285122
101	0x3d518c8b	0.051159423
102	0xbc989c91	-0.018629344
103	0x3d5b6b15	0.05356892
104	0xbc18f1b8	-0.009334974
105	0x3d9f0f2d	0.077665664
106	0x3d8051df	0.06265616
107	0xbcb8346d	-0.022485936
108	0x3d27e9bf	0.040994402
109	0xbbffd28e	-0.0078070825
110	0x3db2ef7b	0.087370835
111	0x3d3e86b8	0.046515197
112	0xbe391ba5	-0.18076952
113	0xbceb964a	-0.028758187
114	0xbcb4cf99	-0.022071647
115	0x3de27926	0.110582635
116	0x3dedcb16	0.11611001
117	0xbcb9cd11	-0.022680791
118	0xbda8253e	-0.082102284
119	0xbcdd259d	-0.026995474
120	0xbb55c808	-0.0032620449
121	0x3d382046	0.044952653
122	0x3d579cc7	0.05263975
123	0x3d8d26e3	0.06892183
124	0x3b5cd6d9	0.0033697395
125	0xbd84f1d1	-0.06491435
126	0xbdb798de	-0.08964704
127	0xbe06ba97	-0.13157116
128	0x3da8e934	0.08247605
129	0x3c935542	0.01798499
130	0xbd121c9f	-0.035671826
131	0x3dee0157	0.11621349
132	0x3d3bdc6e	0.045864515
133	0x3c5ad758	0.013357006
134	0xbe29f981	-0.16599084
135	0xbd4b75b7	-0.04967281
136	0x3d372f47	0.04472282
137	0x3d17fbc0	0.037105322
138	0x3d4e3c8b	0.050350707
139	0xbd756cbd	-0.059918154
140	0xbd394e08	-0.045240432
141	0xbd984ce6	-0.07436542
142	0x38bb3510	8.9267385e-05
143	0xbd88e9e6	-0.066852376
144	0xbb96b9cc	-0.0045997854
145	0x3e09c7a6	0.13455066
146	0x3dca7045	0.09884695
147	0xbde186a9	-0.110120125
148	0x3b2b962f	0.0026182046
149	0x3e3beb64	0.18351513
150	0xbdb02812	-0.08601393
151	0x3d9fab53	0.077963494
152	0x3dab7930	0.08372724
153	0xbc7e0858	-0.015504919
154	0xbe3b14a0	-0.18269587
155	0x3e27c799	0.16384734
156	0xbd3c6cea	-0.046002306
157	0x3cb2cee3	0.021827167
158	0x3c86d9da	0.016461302
159	0xbe0b128b	-0.13581292
160	0x3deba28d	0.115056135
161	0xbcf4e9a3	-0.029896563
162	0x3d10de6a	0.03536836
163	0x3d75dda1	0.060025815
164	0xbc2f3704	-0.010694269
165	0x3b3f27dc	0.0029168045
166	0xbca90385	-0.020631561
167	0x3d1d15b1	0.038350765
168	0xbdc3ae68	-0.0955475
169	0x3d1bb72f	0.038016494
170	0xbe6673d7	-0.22505127
171	0xbd8af5aa	-0.06785138
172	0x3de3a16c	0.11114773
173	0xbc4dc51b	-0.012559201
174	0x3c671bab	0.014105718
175	0xbdedb14b	-0.116060816
176	0xbd27adbe	-0.040937178
177	0xbd171d22	-0.036893018
178	0xbc07ad59	-0.008281075
179	0x3a3d4a52	0.00072208524
180	0xba923997	-0.0011156079
181	0xbea99c5f	-0.33127114
182	0xbc58ff43	-0.013244453
183	0xbcbbfa28	-0.022946432
184	0xbc38ab08	-0.011271246
185	0x3c2a4af4	0.010393847
186	0x3d8e9075	0.06961147
187	0xbdb3ddd2	-0.08782543
188	0x3cf8cb98	0.030370519
189	0xbddf69bd	-0.1090884
190	0x3d07a469	0.033115778
191	0xbd45fe1d	-0.048338044
192	0xbc9af034	-0.018913366
193	0x3d1b48f1	0.03791136
194	0xbd2a4788	-0.041572124
195	0xbd1ef408	-0.038806945
196	0xbe6775bf	-0.2260351
197	0x3d542175	0.05178972
198	0x3e3e3cdd	0.18577905
199	0xbd8f0a88	-0.069844306
200	0xbc148600	-0.009065151
201	0xbd8b86a2	-0.068127885
202	0xbe29f564	-0.16597515
203	0xbd989137	-0.074495725
204	0xbd0546be	-0.032538168
205	0x3d000e58	0.03126368
206	0xbc5b0794	-0.013368506
207	0x3ca676d1	0.020320328
208	0xbc4ebe31	-0.012618587
209	0x3d3ac6e6	0.04559984
210	0xbd332b53	-0.04374249
211	0xbc887ff4	-0.016662575
212	0xbbae2dc0	-0.0053155124
213	0xbd379bae	-0.044826202
214	0x3dbd836f	0.092535846
215	0xbe08e401	-0.13368227
216	0xbd178727	-0.036994126
217	0x3d3901ee	0.045167856
218	0xbd836c03	-0.06417086
219	0xbd4f2197	-0.050569143
220	0x3de1877c	0.1101217
221	0x3dd92045	0.10601858
222	0x3e186af5	0.14884551
223	0xbdb4c8b4	-0.088273436
224	0x3d0e2a57	0.034708347
225	0xbe02f727	-0.12789594
226	0x3d023063	0.031784426
227	0x3d83a757	0.06428402
228	0xbd931b5c	-0.07182953
229	0xbc93e74c	-0.018054627
230	0xbddf3c0f	-0.10900127
231	0x3c113543	0.008862796
232	0xbe353e89	-0.17699637
233	0xbe4dd1d1	-0.2009957
234	0x3db7f163	0.08981588
235	0xbc3d3d07	-0.011550195
236	0xbc3a5565	-0.011372899
237	0xbc9cee2a	-0.019156534
238	0x3cc7b0cc	0.024376296
239	0x3d5aae4d	0.053388882
240	0x3d4653a8	0.048419625
241	0xbd2b2f84	-0.04179336
242	0x3dc018ad	0.093797065
243	0x3c556261	0.013023944
244	0xbd9376f3	-0.07200422
245	0x3dc3d8dc	0.09562847
246	0xbdde71ed	-0.10861573
247	0xbdcd60e0	-0.10028243
248	0x3cc7d6a9	0.02439435
249	0x3d89c3d9	0.06726808
250	0x3e11ec60	0.14250326
251	0xbe21c451	-0.15797545
252	0x3b7fcf43	0.003903345
253	0x3da5c630	0.08094442
254	0x3e102d18	0.14079702
255	0xbc5b45d9	-0.013383352

network_body.observation_encoder.processors.0.normalizer.running_mean f4 [20]
0	0x3b6cdfb1	0.0036144073
1	0x3f7f025b	0.9961297
2	0x00000000	0.0
3	0x3e818faa	0.2530492
4	0x3f2314e1	0.63703734
5	0x3eb9d6f0	0.36296797
6	0x00000000	0.0
7	0x3eb70bca	0.35751182
8	0x3f301fc3	0.68798465
9	0x3e9fbe06	0.31199664
10	0x00000000	0.0
11	0x3ea799b8	0.32734466
12	0x3f49c4b8	0.78815794
13	0x3e58eaa3	0.21183257
14	0x00000000	0.0
15	0x3ec62f9c	0.38708198
16	0x3f50a8e1	0.8150769
17	0x3e3d5396	0.18488917
18	0x00000000	0.0
19	0x3eb2cc13	0.3492132

network_body.observation_encoder.processors.1.normalizer.running_mean f4 [20]
0	0x3be111dd	0.0068685845
1	0x3e5c3889	0.21505941
2	0x00000000	0.0
3	0x3c49c3a1	0.012314708
4	0x3be1368a	0.0068729566
5	0x3e5cbb85	0.21555908
6	0x00000000	0.0
7	0x3c49b9f9	0.012312406
8	0x3be53b41	0.006995589
9	0x3e5be83e	0.21475312
10	0x00000000	0.0
11	0x3c495217	0.012287638
12	0x3bf2028f	0.007385559
13	0x3e5bf676	0.21480736
14	0x00000000	0.0
15	0x3c495d3d	0.012290296
16	0x3bf6f409	0.0075364155
17	0x3e59ab84	0.21256834
18	0x00000000	0.0
19	0x3c47e950	0.012201622

network_body.observation_encoder.processors.2.normalizer.running_mean f4 [7]
0	0x3f939e87	1.1532754
1	0xbb8d4d0e	-0.004312164
2	0x3e216fec	0.15765351
3	0x3ea8e660	0.32988262
4	0x3f7ecaf9	0.9952846
5	0x00000000	0.0
6	0x3ab19458	0.0013548238
