results/PruebaPequeña/AgenteCoche/AgenteCoche-24574.onnx (onnx, 87559 bytes, 9 tensors)

action_model._discrete_distribution.branches.0.bias f4 [3]
00000000: 0000 0000 0000 0000 0000 0000
0.0 0.0 0.0

action_model._discrete_distribution.branches.0.weight f4 [3, 128]
00000000: 731f 003c 1a6c 023c f762 d9bb 430f a63c
00000010: 12f2 71bc c3ec c43a e753 2ebc aa63 aa3a
00000020: 2c5a 483c 812a 04bc 0b61 b4bb 8781 c5ba
00000030: 07a7 91bc b2a7 66bc d750 a03c 4dec a639
00000040: d4b4 0abb a9f8 383c 0b31 22bb 4e89 023b
00000050: ebe3 0c3c 73c3 23bc 741a 36bc ebd3 0bbc
00000060: f487 2aba 57e0 d3bb f5b6 023b a29b 02bc
00000070: 0564 4e3b 6f5c 15bb 819b 913b 4869 083c
00000080: ce5e a63c 081c 693b 6b3d 613c 1923 3cbc
00000090: 79c2 113c 6703 8abb f7ab 18bb 4e8b 8a3a
000000a0: c11b 2cbc 2f89 8bbc cdf9 e6bb bd14 94bc
000000b0: 6525 8abb 7de8 4abc 6755 a1bb cc62 9a3c
000000c0: 812f 03bb 67ad 3f3c dd70 e83b cb8b 443c
000000d0: 231c eabb 1afc d4ba eb49 d13b f21e e7b8
000000e0: 0345 a13b c827 96ba d768 8d3b e330 113c
000000f0: 8dac 06bc ccca 2dbc 202c fcbb 98c8 b5bb
00000100: 3dcb 643c 1b11 e23a 1798 8bbb d422 803c
00000110: fb55 cd3b 49e0 4b3c 738a 3bbc e37d 6fbc
00000120: 9362 e33b 9bfb f4bb 5b0e 8c3b 5b46 b7bb
00000130: c297 a2b8 5245 d9bb efb1 383c 82f1 df39
00000140: 6aec e6ba a9e9 883c fd70 24bb a7a2 823c
00000150: ffcf c63b 9096 efbb b288 9939 dfc7 60bc
00000160: e561 9bbc f7ed 9aba a2b0 ae3b ed9c f73b
00000170: 0d1d 3abc 83e4 22bc 4cca 253b 7cb8 13bc
00000180: afe2 9fba f6cc 093c 109c de3a 6730 26bb
00000190: 07a1 50bb cf4b eabb 5d0a 6cbc 8bbf 37bb
000001a0: 0ecc 05bc ba9b 8e3b 7e7c abbb cb77 6c3b
000001b0: 3003 e03b eb84 ad3b 2556 66bc fb6f 033b
000001c0: f2d2 eabb d57b f539 290b 8abb 9aa4 f0ba
000001d0: 0feb 66bb cd2f 2c3c 9b87 013c b1f2 a53b
000001e0: 5b61 4cbc aea6 39bc 97fc 693c f7e9 3c3a
000001f0: 3612 2f3c a3b8 9fbb 4756 0abc 7bbf 103c
00000200: 9280 97bc 3f11 583c d2e9 6cbc 4ecc 163c
00000210: 6fff 2ebb aac4 363b 660a 10bc e777 933b
00000220: 42e2 4c3a 73cf 29bc 9c42 a6bb cc2f 3abc
00000230: 9f26 3dbb 6532 b73b 9aa1 36bc 1301 90bc
00000240: 10cb 00bc 0567 8f3b 4610 9a3c b078 d53b
00000250: b382 d13a 1281 eebb 0b3b 10bc a09a f4b9
00000260: 3dea 783b 4ac5 5e3c e0b0 7b39 7dd1 83b9
00000270: 1de2 a23b 4722 e03b 3b1a b93b 28d8 74bb
00000280: 1a14 a83c 51c8 a23b 5d26 64bb 0f60 6d3b
00000290: 3e0b 49ba 37bc 55bc cbb8 133c eb32 96bc
000002a0: 0972 0c3c 613c b8bb cbe5 2dbb dd20 143c
000002b0: abd3 0ebc f674 153c 0a0b 433c 48b7 30bc
000002c0: 889d 3c3b 583e f8bb 3b7e a63c 0775 16bc
000002d0: 5147 bfbb 6d15 0c3c 4ca9 37ba c349 793c
000002e0: 693b ca3b d7d4 80bc 8789 123c f88f 943b
000002f0: c5d0 353c a7e2 953b 5018 9dba e4d8 403b
00000300: 2320 773c 2212 c63b 74ba 2c3c 337e c93a
00000310: 7963 3b3c 7d6e e83b ef33 1c3c 5135 c6bb
00000320: 7b3e 2a3c 527c fcb8 a50b 18bc 90e5 62bb
00000330: 9e55 bdb6 1b25 9a3b 8b64 83bb 0032 9a3c
00000340: fb20 abba a356 7fb8 d083 dd3b 6928 b0bb
00000350: 73f2 983c b88c c3bb 4aca fa3b 73a6 ca3b
00000360: 69a1 b4b9 f377 503a 1b70 bfbb 7b27 88bc
00000370: f288 1fba 1146 ad3c 2089 fdbb 384e ccbb
00000380: ef9f bfbc 651a 253c af8e 3b3c cbaf 3f3c
00000390: 7384 39bc 1aa7 e03b 046b 86bc 411f 1bba
000003a0: 9435 443c a417 22bc 6228 bc3b 1823 013c
000003b0: b82b 82bc 0d60 473c 4ab1 63bb d75f 5fbb
000003c0: 3569 3bbb 2b0d 173c 77fd 05bc d7ed 8bbb
000003d0: 6701 1a3c 68f7 efbb 0341 acbb 82cb 37bc
000003e0: 8d3f b23b 2d7e 66bb 3da6 793b fb0f 913b
000003f0: 2b1e a23b 4894 aeba b9a2 b23b 38db bdba
0.007819998 0.007960344 -0.006634112 0.02027095 -0.014767187 0.0015024174 -0.010640121 0.0012999673
0.01222853 -0.008066774 -0.0055047325 -0.0015068509 -0.01777984 -0.014078068 0.019569797 0.00031838045
-0.002116491 0.011289754 -0.002474847 0.0019918266 0.008599262 -0.009995329 -0.011114705 -0.008534412
-0.0006505244 -0.0064659524 0.0019945477 -0.007971676 0.0031492722 -0.002279069 0.0044435863 0.008325882
0.020308878 0.0035569686 0.013747553 -0.011482977 0.008896464 -0.0042118314 -0.0023295858 0.001057008
-0.010504664 -0.017033188 -0.0070488215 -0.018076295 -0.0042158836 -0.012384531 -0.004923511 0.018845938
-0.0020017328 0.011699057 0.0070935325 0.01199622 -0.0071444674 -0.0016249449 0.0063869855 -0.000110207024
0.004921557 -0.0011455948 0.0043154764 0.008861753 -0.00821985 -0.010607433 -0.00769569 -0.0055475943
0.013964471 0.001724753 -0.004260074 0.015641607 0.006266353 0.0124436105 -0.011446583 -0.014617416
0.006939241 -0.007476283 0.0042741722 -0.005593104 -7.753029e-05 -0.006630578 0.011272891 0.00042713812
-0.0017618064 0.01671298 -0.002509176 0.0159467 0.0060672755 -0.0073116496 0.0002928428 -0.013719528
-0.018967578 -0.0011820187 0.005331115 0.007556549 -0.011359465 -0.009942177 0.002529758 -0.0090161525
-0.0012198294 0.008410683 0.0016983766 -0.002535844 -0.003183426 -0.0071501504 -0.014406768 -0.0028037752
-0.008166326 0.00435206 -0.0052333465 0.0036082144 0.0068363175 0.005295386 -0.014058624 0.002005576
-0.00716626 0.00046822304 -0.004212756 -0.0018359602 -0.003523532 0.0105094435 0.007905866 0.0050643315
-0.012474383 -0.011331243 0.0142814135 0.00072064943 0.010685494 -0.0048743053 -0.008443422 0.008834715
-0.018493924 0.013187706 -0.014460044 0.0092039835 -0.0026702543 0.0027888217 -0.008791542 0.0045003775
0.00078156975 -0.010364401 -0.0050738584 -0.011363935 -0.0028862131 0.0055907243 -0.011146927 -0.017578637
-0.007860914 0.0043762946 0.018806588 0.006514631 0.0015984386 -0.00727857 -0.008803139 -0.0004665451
0.0037981414 0.013596842 0.00024003116 -0.00025142348 0.0049708025 0.0068400237 0.005648879 -0.0037360284
0.020517398 0.004967727 -0.0034812905 0.0036220585 -0.0007669217 -0.013045362 0.009016226 -0.018334826
0.00857211 -0.005622432 -0.0026534672 0.009041038 -0.008717458 0.009122124 0.011904487 -0.010785885
0.002878042 -0.0075757913 0.020323863 -0.009183175 -0.005837359 0.00855003 -0.0007006123 0.01521534
0.006171633 -0.01572649 0.008943922 0.004533764 0.011097138 0.004574138 -0.0011985395 0.0029426152
0.015083346 0.006044642 0.010542501 0.0015372693 0.01143729 0.0070932494 0.009533866 -0.0060488363
0.010390873 -0.00012039453 -0.00928012 -0.0034621693 -5.642606e-06 0.0047041303 -0.0040097884 0.01882267
-0.0013056094 -6.0877424e-05 0.006760098 -0.005375911 0.018670296 -0.0059677027 0.0076535093 0.006184393
-0.00034452535 0.0007952444 -0.0058422214 -0.016620388 -0.0006085775 0.021151574 -0.007737294 -0.0062349103
-0.023391692 0.010077094 0.011447593 0.011699627 -0.011323082 0.0068558576 -0.01640845 -0.0005917438
0.011975665 -0.009893332 0.0057421187 0.007881902 -0.015889987 0.012168896 -0.0034743124 -0.0034084225
-0.0028596644 0.009219448 -0.0081781065 -0.004270296 0.009399748 -0.0073231943 -0.0052567734 -0.011217954
0.0054397047 -0.0035170421 0.003809347 0.004426954 0.004947444 -0.0013319338 0.005451527 -0.0014484888

action_model._discrete_distribution.branches.1.bias f4 [3]
00000000: 0000 0000 0000 0000 0000 0000
0.0 0.0 0.0

action_model._discrete_distribution.branches.1.weight f4 [3, 128]
00000000: f599 1dbc 23b8 64bc 73e4 a9bb 6dbb f43a
00000010: 8399 1fbc a108 c83a e3c9 993c 9898 e23c
00000020: e526 693c 0485 13bc 0842 283c b73f f1bb
00000030: 1423 93bb 8b65 3a3a 4711 35b9 da62 0d3c
00000040: 2813 c1bc 7da1 643c 0249 173c 15c4 ff3b
00000050: 4a03 6d3c 58ba d93c a3da 3dbc 704a 2c3c
00000060: 17ab d93c bfea 10bc 0283 813b b2ab 66bc
00000070: a2ca f4bb 2bc0 24ba 48b0 60ba 7d4a 27bb
00000080: 28b2 20bb 9b1e 163c df98 48bc d2a1 34bc
00000090: d2e8 aa3c 4a02 92bc 6011 69bb 6ad6 6fbc
000000a0: c39a 9a3b b30a 663c aa80 563a 47eb c73b
000000b0: 933a 743b 236b 1fbc bd72 e2bb ec81 913a
000000c0: 33f9 1bbc 6d4d 8abc f773 3e3c 8038 4bbc
000000d0: 8ce3 00bc 82d4 d3bb a69c 4a3b 4a58 c7bb
000000e0: c3ac 3539 b7d9 09bc db85 7939 acc0 c2ba
000000f0: 8b4f 59bb 1fec 43ba 3eb2 3e3b e87f ecbb
00000100: 0066 50bc 345c 023c af89 0c3c 86b3 c93a
00000110: 9918 383b d7be 873c 8f2a 313a 9d51 0aba
00000120: 0cc5 80bb 7a50 113c 3a43 5bbc 0cd1 963c
00000130: 9c2b aab9 4f5b 75bc b366 64bb 1b62 673b
00000140: 4bf8 cebb 778d 74bc e83c c33c 1eb8 273c
00000150: dd3e 81bc 9ab4 7c3c d583 2a3b cba7 86bb
00000160: 03bb f0bb 1617 2c3b 73fd fa3b 15dc c63b
00000170: a573 ebba df7f 32bc d028 ba3b 6641 02bb
00000180: 5a24 b0ba 84e3 c63b e5c7 9a3c 6b62 bf3a
00000190: 3673 c63a 7b15 aabb 93e0 503c 4236 113c
000001a0: 92df ef37 1849 acbb 53dc 95bb ef23 6d3b
000001b0: 47f0 223c 0731 af3a 4cb5 c43b d70f 0abc
000001c0: e300 473c 6967 cc3b e96f 1ebc 3739 833c
000001d0: 5646 113b 8ed4 c43b 83ec 8e3b 0705 fd3b
000001e0: 6733 55bb d28d 713b facb ffbb 50af d63a
000001f0: 7a29 abbc dd6b 5a3b 7b70 76ba ce42 1c3c
00000200: f33d c93b a27e 48b9 df35 2b3a 87f0 133c
00000210: 2e4b 463c 97ab ee3b 2a8c 47bb 6327 59bc
00000220: 7296 ea3b bf9f fe3b 5ec7 1a3b 2336 b4ba
00000230: 7542 123b b35d d13b 7f99 58bc 8f41 f83b
00000240: 9394 d8bb 2d06 d1ba 2611 96bc 4b27 8e3c
00000250: 66ba 3f3c 6346 6d3c c431 323c 6012 8f3b
00000260: 534b 813a 1d7e 5d3c 5da7 123c 4fe7 1dbb
00000270: c2c9 6dbb 7e0b 9bbb 56db 1bbc 8090 eb3a
00000280: 2dde 6dbc 226f a5bb 57e7 17bc 5bda 2f3c
00000290: 9508 fdbb 3656 bb3a e847 a33c b4d3 b039
000002a0: 1a06 5abc 6fc2 3e3b e896 0fbb b74f 11bc
000002b0: e56b 8e3a cd75 133a 0aa0 c33a 73a1 2a3c
000002c0: 3c45 29bc f88e febb 5b38 e93b cb83 9cbc
000002d0: 5f0f d1bb 73a5 373c bf7b cf3a 62d2 503c
000002e0: 7519 bb3b 66ed 2abb 4816 c5bb 30e2 503c
000002f0: d47d c7ba d247 593a b5a6 b23b aa02 5a3c
00000300: 45de 69bb 5706 e239 4c71 013c 189a 59bc
00000310: 9f4b f0bb 508c 5bbc 80ab 533c 97bb 84bb
00000320: 032e bf3b d8a9 993b 2b2f 8ebc 3a38 d13b
00000330: 8f65 1f3a c002 49bc a904 c8bb bbd7 5d3c
00000340: f3dc 193c 58bc e53b 5547 3739 5d22 5abb
00000350: 8ba6 743a 0fc1 70bb 05b8 db3a 349f 883a
00000360: 373f cd3c 0b85 de3a 17f5 84bb 3fbb 553b
00000370: 5c7f a9bb d868 4b3b 6847 793b c0ce a43b
00000380: ad69 793c 8267 6ebb 2b65 f1bb 4a58 e7bb
00000390: 6cc9 04bc 11a6 c6bb 8f39 79bb 5704 623a
000003a0: 2006 e6b9 45f7 2c3b 9ada 97bb 76c6 9fbb
000003b0: e619 1fbc f7db 423b 232c 0cbc 3810 afbb
000003c0: 0bbd 72bc 62ce 78ba c774 113a dfdf b13b
000003d0: a3cf 503c 7bdd 1dbc aa58 95bc a531 f9bb
000003e0: a75f 4cbb 8a8c 2eba e08d c53b 6d8b 24bc
000003f0: 02b9 053c de1c 28bc 83dc 8a3c 0529 2bbc
-0.009619226 -0.013959917 -0.005184704 0.001867158 -0.00974119 0.0015261361 0.018773025 0.027660653
0.014230465 -0.009003881 0.010269649 -0.0073623317 -0.0044902656 0.0007110468 -0.00017267941 0.008629525
-0.023568705 0.013954517 0.009233715 0.007805357 0.014466116 0.026578113 -0.011587772 0.010515794
0.02657084 -0.00884503 0.003952385 -0.014079021 -0.007470445 -0.0006284739 -0.000857119 -0.0025526576
-0.0024520252 0.00916257 -0.012243479 -0.011024909 0.02086297 -0.017823357 -0.0035563335 -0.014638523
0.004718156 0.014040637 0.00081826246 0.0061010453 0.0037266358 -0.009730133 -0.0069106505 0.0011101342
-0.009519863 -0.016882623 0.011624328 -0.012403607 -0.007866751 -0.006464542 0.0030916124 -0.006083523
0.00017325864 -0.008413724 0.00023796356 -0.0014858446 -0.0033158984 -0.00074738445 0.002909794 -0.007217396
-0.012719631 0.007956553 0.008577748 0.0015388585 0.0028090833 0.016570492 0.0006758356 -0.00052764436
-0.00392974 0.008869285 -0.013382727 0.018410228 -0.00032457418 -0.014975383 -0.0034851253 0.0035306278
-0.00631622 -0.014926306 0.023832753 0.010236768 -0.015777046 0.015423918 0.002601852 -0.004109358
-0.0073465123 0.0026258877 0.007659608 0.0060687163 -0.0017963542 -0.010894745 0.0056811348 -0.0019875406
-0.0013438568 0.0060696024 0.018894145 0.0014601474 0.0015140537 -0.005190549 0.012748855 0.008863034
2.8595128e-05 -0.005257737 -0.004573384 0.0036184748 0.009944982 0.0013366052 0.0060030576 -0.008426628
0.0121462075 0.0062379134 -0.009670236 0.016018493 0.0022167168 0.006006784 0.0043616905 0.0077215466
-0.003253186 0.0036858213 -0.0078062983 0.0016379151 -0.020893801 0.0033328452 -0.0009400916 0.009537412
0.006141418 -0.0001912066 0.000653116 0.009029514 0.012102885 0.0072836387 -0.0030448535 -0.013254019
0.0071590478 0.007770508 0.0023617367 -0.0013749044 0.0022317444 0.0063893436 -0.01322019 0.0075761746
-0.0066095083 -0.0015947275 -0.018318724 0.01735272 0.011702156 0.0144821135 0.010876123 0.004366204
0.0009864367 0.013518837 0.008951035 -0.002409417 -0.0036283587 -0.0047315946 -0.009512743 0.0017972142
-0.014518303 -0.0050486485 -0.009271464 0.010733212 -0.0077219703 0.0014292661 0.019931749 0.00033727067
-0.013307119 0.002910759 -0.0021910015 -0.008869103 0.0010865895 0.00056251587 0.0014925015 0.010414469
-0.010331448 -0.007768508 0.007117314 -0.019105813 -0.006380006 0.01120888 0.0015829726 0.012745472
0.005709822 -0.0026081442 -0.006014619 0.01274924 -0.0015219995 0.0008288595 0.005452002 0.013306299
-0.0035685461 0.00043110803 0.007900547 -0.013281368 -0.0073332335 -0.013400152 0.012919307 -0.0040506828
0.0058343424 0.0046894364 -0.017356476 0.0063848766 0.0006080502 -0.012268722 -0.006104071 0.013540204
0.009391057 0.0070109777 0.00017478813 -0.0033284642 0.0009332678 -0.0036736166 0.0016763216 0.0010423423
0.025054557 0.0016976906 -0.0040575373 0.0032612828 -0.005172653 0.0031037834 0.0038036946 0.0050295293
0.015222949 -0.0036377613 -0.0073667965 -0.0070600854 -0.008104663 -0.006062277 -0.0038028692 0.00086218625
-0.00043873582 0.0026392501 -0.0046342136 -0.0048759533 -0.0097107645 0.002973316 -0.008555445 -0.0053425096
-0.014815579 -0.00094912027 0.0005548712 0.005428299 0.012744817 -0.009635325 -0.018230755 -0.007604795
-0.0031184943 -0.0006658515 0.0060288757 -0.010043007 0.008161785 -0.010260789 0.016950851 -0.010446792

discrete_action_output_shape f4 [1, 2]
00000000: 0000 4040 0000 4040
3.0 3.0

network_body._body_endoder.seq_layers.0.bias f4 [128]
00000000: 0000 0000 0000 0000 0000 0000 0000 0000
00000010: 0000 0000 0000 0000 0000 0000 0000 0000
00000020: 0000 0000 0000 0000 0000 0000 0000 0000
00000030: 0000 0000 0000 0000 0000 0000 0000 0000
00000040: 0000 0000 0000 0000 0000 0000 0000 0000
00000050: 0000 0000 0000 0000 0000 0000 0000 0000
00000060: 0000 0000 0000 0000 0000 0000 0000 0000
00000070: 0000 0000 0000 0000 0000 0000 0000 0000
00000080: 0000 0000 0000 0000 0000 0000 0000 0000
00000090: 0000 0000 0000 0000 0000 0000 0000 0000
000000a0: 0000 0000 0000 0000 0000 0000 0000 0000
000000b0: 0000 0000 0000 0000 0000 0000 0000 0000
000000c0: 0000 0000 0000 0000 0000 0000 0000 0000
000000d0: 0000 0000 0000 0000 0000 0000 0000 0000
000000e0: 0000 0000 0000 0000 0000 0000 0000 0000
000000f0: 0000 0000 0000 0000 0000 0000 0000 0000
00000100: 0000 0000 0000 0000 0000 0000 0000 0000
00000110: 0000 0000 0000 0000 0000 0000 0000 0000
00000120: 0000 0000 0000 0000 0000 0000 0000 0000
00000130: 0000 0000 0000 0000 0000 0000 0000 0000
00000140: 0000 0000 0000 0000 0000 0000 0000 0000
00000150: 0000 0000 0000 0000 0000 0000 0000 0000
00000160: 0000 0000 0000 0000 0000 0000 0000 0000
00000170: 0000 0000 0000 0000 0000 0000 0000 0000
00000180: 0000 0000 0000 0000 0000 0000 0000 0000
00000190: 0000 0000 0000 0000 0000 0000 0000 0000
000001a0: 0000 0000 0000 0000 0000 0000 0000 0000
000001b0: 0000 0000 0000 0000 0000 0000 0000 0000
000001c0: 0000 0000 0000 0000 0000 0000 0000 0000
000001d0: 0000 0000 0000 0000 0000 0000 0000 0000
000001e0: 0000 0000 0000 0000 0000 0000 0000 0000
000001f0: 0000 0000 0000 0000 0000 0000 0000 0000
0.0 0.0 0.0 0.0 0.0 0.0 0.0 0.0
0.0 0.0 0.0 0.0 0.0 0.0 0.0 0.0
0.0 0.0 0.0 0.0 0.0 0.0 0.0 0.0
0.0 0.0 0.0 0.0 0.0 0.0 0.0 0.0
0.0 0.0 0.0 0.0 0.0 0.0 0.0 0.0
0.0 0.0 0.0 0.0 0.0 0.0 0.0 0.0
0.0 0.0 0.0 0.0 0.0 0.0 0.0 0.0
0.0 0.0 0.0 0.0 0.0 0.0 0.0 0.0
0.0 0.0 0.0 0.0 0.0 0.0 0.0 0.0
0.0 0.0 0.0 0.0 0.0 0.0 0.0 0.0
0.0 0.0 0.0 0.0 0.0 0.0 0.0 0.0
0.0 0.0 0.0 0.0 0.0 0.0 0.0 0.0
0.0 0.0 0.0 0.0 0.0 0.0 0.0 0.0
0.0 0.0 0.0 0.0 0.0 0.0 0.0 0.0
0.0 0.0 0.0 0.0 0.0 0.0 0.0 0.0
0.0 0.0 0.0 0.0 0.0 0.0 0.0 0.0

network_body._body_endoder.seq_layers.0.weight f4 [128, 29]
00000000: 5a5d c8bd 0747 a6bd bf2b 8f3e 311b 23be
00000010: c84f f5bd 74c9 9a3c 5f04 7b3e 6a27 2dbe
00000020: 306e 443e 4ac0 55bd 31ba dd3d 866b 503e
00000030: 2fa7 dabd 92c4 6b3e f2c4 763d ff81 6abd
00000040: c296 59be 64ce 1f3e cfee 2f3b 3ba4 bd3d
00000050: bd12 d33d 7aed 653e 4a25 37bd e538 3b3b
00000060: 7834 5b3d 8138 a83e 111c bd3d 07df 763e
00000070: 53d8 8ebe f572 a33d c04b bbbe 88f7 61be
00000080: 17c7 563e 58c0 1e3d 999d 3b3d 4acc 0ebf
00000090: 9c67 b3bd 783b 133e 22b3 adbd 7e9f 353e
000000a0: 3dd8 293c b263 edbd 8950 39be e03d 16bd
000000b0: 1bbc 183e 9f9a 153e 9fc3 383d b43f 893e
000000c0: 6fbd 21be 04cc 443e aa3b db3e dc2a 373e
000000d0: f066 413d 2315 a7bd 4f0e debd b503 f93e
000000e0: 8796 24be 24ad aabd bc9f 9c3e d0de bd3e
000000f0: 5842 f0bd af59 fd3d aac1 a6bd 2d13 0fbe
00000100: 8777 22bc 0cb6 11be 94d4 07bc f0ce ee3d
00000110: c02d 563e 1ef1 21be de22 0bbe 24f6 cb3d
00000120: 2bcb 9fbe d201 b53c 183c d3be 458d 9ebe
00000130: b462 fb3d bbf9 483d 9395 6bbd 811f e6bd
00000140: 8159 833e 8b7c debe 945d 0cbd 349a 943d
00000150: 8b07 62be 8f30 8fbe de9f 853c f10c 87be
00000160: 48c8 51be 3190 583e 7131 113e 2697 85bc
00000170: 54a9 d53d d678 d13d 97c8 29be 4458 853d
00000180: 7d4b c6bd 66d0 f6bd 81bf 343d 35b5 8bbe
00000190: 653b 193e 98db cd3c 54c1 0bbe afcd 28bd
000001a0: 01e6 623e 9078 ab3d 90d6 cc3c e3ec a23e
000001b0: aa45 e23d 4c35 ba3e 9e69 0fbc cce0 07be
000001c0: ed8e 053e 9889 c7bd 87e6 b7bb 5fed ecbc
000001d0: c270 9cbd 8007 883d 565d 483d 5c8b f63d
000001e0: c23d 4d3e f225 99be 85ba b93d dc58 14be
000001f0: 588d babd 32a1 773e 5053 c03d a577 1b3e
00000200: 8942 ebbd 36a0 26be 4b9a 57be 45de 1f3e
00000210: 49bf b4bd 2781 213e e0f1 1dbd cbdb 8b3e
00000220: b8c3 ac3e 8b54 99bc e6ff 93bd 1477 b93e
00000230: 1dc9 273a 092a 7f3d 5023 813e a47a 903d
00000240: 709a 10bd bd33 223e c426 8bbc ed41 a33c
00000250: 2d90 c23e e4d2 d63e f0ea 36bd 7b1f b53c
00000260: c737 9d3d 58d8 913e 6316 2f3e fa61 1bbc
00000270: 7971 a03e 7e2a 42be 6a13 fd3c 2202 58bd
00000280: 541e 763e 07d1 873e c5c4 77be e19c 03bb
00000290: 58bd 003e f4ce a83e 1565 9ebb 25e0 cbbd
000002a0: dada 1b3d 85ee 8abe e715 15be 99da 06be
000002b0: 8734 19bf 5867 9e3e 2dac b33d ad02 a03c
000002c0: 1da7 70be 2356 38be 2cd3 283e 0322 3abe
000002d0: 972e 8f3c 2889 16be abd0 333e 7345 243e
000002e0: 24be 003e 453d 973d dfad 88be 9771 853d
000002f0: 5a23 083e 66b6 68be 889a 813c db30 8b3e
00000300: dd0b cdbd fdea 583e b7eb 7fbe 7e9f 463e
00000310: e79f 2d3e 5057 2abe 6bd4 0fbe 8b75 b73e
00000320: da97 47be c4cb b3be ef71 4d3e 1dfc dcbd
00000330: ac60 bdbe 3dd7 953d fd2a 2dbe 9587 51be
00000340: 6a96 693e 59e8 bfbd a289 6abc 0e52 00bf
00000350: fc0e 193e f953 943e 8e20 c8be cdca 66bc
00000360: dcb6 8f3e 2f59 303e dde6 0b3e 2007 83bd
00000370: 2401 803d 3e94 94bd e775 a5be 9128 a33d
00000380: 6d66 25be 1dc8 063d 2261 553d e62e b23e
00000390: d464 36bb c789 85be 10f6 f83c 77ae 243e
000003a0: a8b7 053e 0b9e 0e3f 1195 dfbd 9d0b 043d
000003b0: 769c 14be b56e 87bd f3f3 0bbd aa8b afbe
000003c0: 89de acbe c022 d63e b146 3cbd 3b77 ea3d
000003d0: 0763 2abe 0164 c2bd 60c1 20be 271d fd3d
000003e0: 5052 fdbc bc8f d93d d974 d4bd 8223 013e
000003f0: 6936 cabe 9291 a2be 3954 74be 585b 74be
-0.097834304 -0.08119016 0.27963063 -0.15928341 -0.11978108 0.018894888 0.24513386 -0.16909567
0.19182658 -0.052185334 0.10826529 0.20353517 -0.10676419 0.23024204 0.060246415 -0.05725288
-0.21248916 0.15606076 0.0026845222 0.0925984 0.103063084 0.22453871 -0.044713296 0.0028567847
0.053516835 0.3285561 0.09233869 0.24108516 -0.27899417 0.07980911 -0.3658123 -0.22067082
0.20974384 0.038757652 0.045804594 -0.5578047 -0.08759996 0.14378154 -0.084814325 0.17736623
0.010366497 -0.11591281 -0.18097128 -0.036680102 0.14915507 0.14609765 0.045108434 0.26806414
-0.1579492 0.19218451 0.42818958 0.17887443 0.04721731 -0.081583284 -0.10842573 0.4863564
-0.16073047 -0.08333805 0.30590618 0.37084055 -0.11731404 0.123706214 -0.08142407 -0.13972159
-0.009916193 -0.14229602 -0.008290429 0.11660564 0.2091589 -0.15814635 -0.1358752 0.09959057
-0.31209692 0.022095595 -0.41256785 -0.30967155 0.122746855 0.049066287 -0.057515692 -0.11236478
0.25654224 -0.43454394 -0.03426893 0.072559744 -0.2207319 -0.27966735 0.016311582 -0.2637706
-0.20486557 0.21148755 0.14179017 -0.016307425 0.104326874 0.10228126 -0.16580425 0.06510976
-0.09682367 -0.120514676 0.044127945 -0.27286687 0.14964063 0.025129125 -0.13647968 -0.04121178
0.22158052 0.08372605 0.025004655 0.31821355 0.110484436 0.36368787 -0.008753208 -0.13269347
0.13042803 -0.09743041 -0.005612198 -0.028921781 -0.07638694 0.066420555 0.048917137 0.120382994
0.2004309 -0.29911762 0.09068779 -0.14487022 -0.091089904 0.24182585 0.093908906 0.1518236
-0.114873 -0.16272053 -0.21054952 0.15612133 -0.08825547 0.15771924 -0.038560748 0.27316126
0.33743072 -0.018717071 -0.07226543 0.36223662 0.00064005126 0.062295947 0.25222254 0.07054642
-0.035303533 0.15840049 -0.016986258 0.019928897 0.38000622 0.41957772 -0.044657648 0.022109738
0.07676654 0.2848537 0.17098384 -0.009483809 0.31336573 -0.18961522 0.030893046 -0.05273641
0.24035007 0.26526663 -0.24196155 -0.002008252 0.12572229 0.32970393 -0.0048338273 -0.099548616
0.03805051 -0.271351 -0.14559136 -0.13169326 -0.59845775 0.3093822 0.08773074 0.019532526
-0.23501249 -0.18001609 0.16486806 -0.18177037 0.01747827 -0.14700758 0.1756007 0.16042118
0.12572533 0.07384733 -0.26695153 0.06515806 0.13294736 -0.2272583 0.015820757 0.2718571
-0.10012028 0.21183391 -0.24992262 0.19396779 0.16955529 -0.1663487 -0.14045875 0.35831866
-0.1949152 -0.35116398 0.20062993 -0.10790274 -0.36987817 0.07316444 -0.1691093 -0.20461877
0.22811285 -0.09370489 -0.014315041 -0.50125206 0.14947122 0.28970316 -0.39087337 -0.014086437
0.28069198 0.17221521 0.13662286 -0.06397843 0.062502176 -0.072548375 -0.32316515 0.07966722
-0.16152354 0.032905687 0.052094586 0.34801406 -0.0027831094 -0.26081678 0.03039077 0.16082178
0.1305834 0.55709904 -0.10917104 0.032237638 -0.1451281 -0.066129126 -0.034168195 -0.34286243
-0.3376353 0.41823387 -0.045965854 0.11448523 -0.16639338 -0.094917305 -0.15698767 0.12359076
-0.030923039 0.10623118 -0.103738494 0.12611201 -0.39494637 -0.31751686 -0.23860253 -0.2386297

network_body._body_endoder.seq_layers.2.bias f4 [128]
00000000: 0000 0000 0000 0000 0000 0000 0000 0000
00000010: 0000 0000 0000 0000 0000 0000 0000 0000
00000020: 0000 0000 0000 0000 0000 0000 0000 0000
00000030: 0000 0000 0000 0000 0000 0000 0000 0000
00000040: 0000 0000 0000 0000 0000 0000 0000 0000
00000050: 0000 0000 0000 0000 0000 0000 0000 0000
00000060: 0000 0000 0000 0000 0000 0000 0000 0000
00000070: 0000 0000 0000 0000 0000 0000 0000 0000
00000080: 0000 0000 0000 0000 0000 0000 0000 0000
00000090: 0000 0000 0000 0000 0000 0000 0000 0000
000000a0: 0000 0000 0000 0000 0000 0000 0000 0000
000000b0: 0000 0000 0000 0000 0000 0000 0000 0000
000000c0: 0000 0000 0000 0000 0000 0000 0000 0000
000000d0: 0000 0000 0000 0000 0000 0000 0000 0000
000000e0: 0000 0000 0000 0000 0000 0000 0000 0000
000000f0: 0000 0000 0000 0000 0000 0000 0000 0000
00000100: 0000 0000 0000 0000 0000 0000 0000 0000
00000110: 0000 0000 0000 0000 0000 0000 0000 0000
00000120: 0000 0000 0000 0000 0000 0000 0000 0000
00000130: 0000 0000 0000 0000 0000 0000 0000 0000
00000140: 0000 0000 0000 0000 0000 0000 0000 0000
00000150: 0000 0000 0000 0000 0000 0000 0000 0000
00000160: 0000 0000 0000 0000 0000 0000 0000 0000
00000170: 0000 0000 0000 0000 0000 0000 0000 0000
00000180: 0000 0000 0000 0000 0000 0000 0000 0000
00000190: 0000 0000 0000 0000 0000 0000 0000 0000
000001a0: 0000 0000 0000 0000 0000 0000 0000 0000
000001b0: 0000 0000 0000 0000 0000 0000 0000 0000
000001c0: 0000 0000 0000 0000 0000 0000 0000 0000
000001d0: 0000 0000 0000 0000 0000 0000 0000 0000
000001e0: 0000 0000 0000 0000 0000 0000 0000 0000
000001f0: 0000 0000 0000 0000 0000 0000 0000 0000
0.0 0.0 0.0 0.0 0.0 0.0 0.0 0.0
0.0 0.0 0.0 0.0 0.0 0.0 0.0 0.0
0.0 0.0 0.0 0.0 0.0 0.0 0.0 0.0
0.0 0.0 0.0 0.0 0.0 0.0 0.0 0.0
0.0 0.0 0.0 0.0 0.0 0.0 0.0 0.0
0.0 0.0 0.0 0.0 0.0 0.0 0.0 0.0
0.0 0.0 0.0 0.0 0.0 0.0 0.0 0.0
0.0 0.0 0.0 0.0 0.0 0.0 0.0 0.0
0.0 0.0 0.0 0.0 0.0 0.0 0.0 0.0
0.0 0.0 0.0 0.0 0.0 0.0 0.0 0.0
0.0 0.0 0.0 0.0 0.0 0.0 0.0 0.0
0.0 0.0 0.0 0.0 0.0 0.0 0.0 0.0
0.0 0.0 0.0 0.0 0.0 0.0 0.0 0.0
0.0 0.0 0.0 0.0 0.0 0.0 0.0 0.0
0.0 0.0 0.0 0.0 0.0 0.0 0.0 0.0
0.0 0.0 0.0 0.0 0.0 0.0 0.0 0.0

network_body._body_endoder.seq_layers.2.weight f4 [128, 128]
00000000: b22d d739 bddf 3dbd 65aa 463b 70f0 223e
00000010: 737d 0e3e b191 afbd 3819 81bd da1b 84bc
00000020: 1e3e 553b 757e 783e d5de 2cbc 4d9f 8bbd
00000030: dcbf 20bd 93e4 babd daec 013d c872 f3bc
00000040: d618 24bd e977 833c 3e27 653d 3459 d53b
00000050: c368 3c3d 7a9d d73d 17c3 f93c 950a 3ebd
00000060: a21f 2c3d 373e 053e ad0a 2a3c 7af2 46bd
00000070: b331 da3c b82e 393d b11b aa3d fe3c 603d
00000080: a5a1 c8bc 3cff 1a3d a292 2e3d 90b3 01be
00000090: 0779 0c3c c331 c13d 746d d0bd 7ad3 adbd
000000a0: 487e b33d 72fb c6bd b9b4 c239 01e9 3e3e
000000b0: 6dae c63d 151b febd af0d b2bd 03c4 89bd
000000c0: 88ee f0bd 53ef acbc 9c5a e63b 8bc0 163b
000000d0: 7f04 883d 7263 0dbc ce1c 7dbd b769 083d
000000e0: 3548 57bd efad ebbc ed54 303b 0cd7 b63d
000000f0: d736 8fba caa9 963d 77e4 85bd c4d5 4abc
00000100: 903b 163d 0cc4 25bd b413 c03b 45ac ab3d
00000110: 6731 f3bd 619e 0dbc e670 b6bb 0c99 183c
00000120: 535b 89bd 3f19 903e f65a 42bd 4301 163d
00000130: b7be 603d 2bf9 983d 7ea5 52bc 95c4 0f3e
00000140: 010a 43be 57ee 91bc bf0e 29be 3b04 d63d
00000150: 70aa fb3d f032 953d 25a6 f93d cf3b bcbc
00000160: 0fb1 053e 9f35 d8bd 53d1 73bd 1497 253e
00000170: 40af acbd 6282 04bc 4f26 16bc a79c 323d
00000180: aca4 c13d e7c7 ba3c e0cc 003e 6f84 25be
00000190: 1a9e 163c 7fc3 c8bb c236 8d3c 1d59 ea3d
000001a0: 39ac b13d fc09 a5bd 6249 a0bc 7372 453e
000001b0: 5a91 b03d add7 5a3d f587 72bd cea3 743d
000001c0: 8d1f 7d3d 636d 96bc 6810 da3d ebc7 04bb
000001d0: 3947 b7bc c183 3bbd 8504 3f3d 3631 bd3c
000001e0: a0de 7dbd 59de 9abd 598d a53d 34bf 343e
000001f0: 9956 4fbd b93f b0bd af21 d33b 6fc3 67bd
00000200: d17c 8d3c da16 8c3c 6bd7 08bd 49e9 883d
00000210: 430d 403d 27fb c1bc e415 fcbb e0bd cd3c
00000220: 82d1 9bbc cc9b f23d d67a ddbd 4a02 413a
00000230: a658 a93d d391 bcbd 4463 f5bd 7d46 583d
00000240: cc4b eb3b 823b 93bd f11d 7a3d cd84 94bc
00000250: 1f82 ffbd 6bb0 3c3c fe7e 0b3d d950 8fbd
00000260: 9e93 833d 76ad 16be 7fbd c4bd 821f 12be
00000270: 2416 26bd d7e8 9739 cc53 173d 9653 963b
00000280: d148 1dbe e9a5 fa3d 3229 553c 9f16 afba
00000290: b967 953c d353 39be 5cbf c63d a56d 94bd
000002a0: 8ffb cb3d be93 65bc a6ef 20bd 308d ad3c
000002b0: 9107 acbc 0d5d 51bd 868d 31bd 0ee5 903d
000002c0: 1f84 28be cb9b 09bd 4e50 383d 9fc9 12bd
000002d0: 9421 b93d b2c0 093e c874 b3bd 01f0 87bd
000002e0: d7b1 053d e7fa 113d a4d7 893d 54d4 51bc
000002f0: 4364 61bd 653f ae3c 25df adbd 4f0d f13d
00000300: 773b 6a3d 076f efbc 6fdf 373d 31ba ba3d
00000310: e825 6fbd 42b1 f3bd 4d53 dc3d 0453 da3d
00000320: 952d afbc 0692 dfbd 1f9b 2b3e a69b 0a3d
00000330: 511e de3c b105 24bd df18 0b3e 6baa f53d
00000340: 2a54 e6bd 3cdd 60bc 8759 bdbd 6c49 843c
00000350: 5eab 03bc 7c75 13bc 5fff 8c3d 1dcf f13c
00000360: 125f 203e f1b8 bb3d 9aa4 1e3d 5b91 de3b
00000370: 49c7 473d c8ef 37bd d553 993c 626f bebd
00000380: 754f 123e d699 4d3e b313 79bc 8682 a1bd
00000390: f4b5 3d3d 48d3 e1bc 0a61 4c3d 56da 043d
000003a0: c450 353d de83 82bd db66 10bc 204d 70bd
000003b0: 69f7 c83c 783e 01be 695b b8bd 6bc1 ce3d
000003c0: a828 bfbb ce67 be3c b2a6 d0bd eae3 2e3d
000003d0: 5455 02be 7146 263c 200b 10bd ccf5 dc3d
000003e0: df34 b03c 1627 cf3d a99c 0c3d 34ad e73d
000003f0: 8a43 463e 5784 8a3c ffb6 cc3d ea44 b83d
0.0004104204 -0.04635595 0.0030313965 0.15912032 0.13915043 -0.0857271 -0.06303638 -0.016126562
0.0032538245 0.2426699 -0.010551174 -0.068174936 -0.03924547 -0.09125628 0.03172002 -0.029717818
-0.040062748 0.016048389 0.055945627 0.006510878 0.045998346 0.10528083 0.030488534 -0.04639681
0.042022355 0.13012014 0.010378522 -0.048571087 0.026635027 0.04521057 0.08306063 0.054745667
-0.02449114 0.037841067 0.04262031 -0.12666154 0.008573777 0.094333194 -0.101771265 -0.084876016
0.087643206 -0.09715928 0.00037137212 0.18643571 0.09701238 -0.12407509 -0.08694016 -0.067268394
-0.11764246 -0.021110212 0.0070298444 0.0023002948 0.066414826 -0.008629667 -0.06179505 0.033303943
-0.052559096 -0.028769461 0.0026906088 0.08927736 -0.0010926378 0.073566034 -0.06537717 -0.012380067
0.036677897 -0.040470168 0.005861724 0.08382467 -0.11874657 -0.0086437175 -0.0055676578 0.009313833
-0.06706872 0.2814426 -0.04745003 0.036622297 0.05486938 0.074694 -0.012856839 0.14039834
-0.19046785 -0.017813845 -0.16509531 0.10450026 0.12288368 0.07285106 0.12189893 -0.022977738
0.13055824 -0.105571024 -0.0595258 0.16170913 -0.08431864 -0.008087726 -0.009164407 0.043606427
0.09455237 0.022800399 0.12578154 -0.161638 0.009192968 -0.0061268206 0.017238025 0.11442778
0.08675427 -0.08058545 -0.019566242 0.1928194 0.086214736 0.05342834 -0.05921169 0.05972653
0.061797667 -0.018362707 0.106476605 -0.0020260762 -0.022372829 -0.045779947 0.04663517 0.023094755
-0.06197989 -0.07561941 0.080836006 0.17651063 -0.050619695 -0.08605904 0.0064432244 -0.056582864
0.017271431 0.01710074 -0.033408564 0.066851206 0.046887647 -0.02367933 -0.0076930393 0.025114954
-0.0190208 0.11846122 -0.10814445 0.0007362707 0.082688615 -0.09207501 -0.11981824 0.052801598
0.0071806666 -0.071890846 0.06106371 -0.01812973 -0.124759905 0.011516671 0.034056656 -0.06997842
0.0642464 -0.14714608 -0.09606456 -0.14269832 -0.04054846 0.00028974444 0.03694515 0.004587601
-0.15359809 0.12238676 0.01301031 -0.0013358182 0.018237935 -0.18098383 0.09704468 -0.072474755
0.0996009 -0.014012275 -0.039291047 0.021185488 -0.020999702 -0.05111413 -0.043347858 0.07074939
-0.1645665 -0.03359584 0.04499846 -0.035836812 0.09039608 0.13452414 -0.08762509 -0.06637574
0.032640304 0.03563967 0.06730583 -0.012806971 -0.055027258 0.021270463 -0.08489827 0.117701165
0.057185616 -0.029227747 0.044890817 0.091175444 -0.05838576 -0.118990436 0.10758076 0.10660365
-0.02138404 -0.10916524 0.16758393 0.033839844 0.027114065 -0.04004449 0.13583706 0.11995395
-0.11246522 -0.013724621 -0.092455916 0.016148292 -0.008036463 -0.009000178 0.06884646 0.029517705
0.15661266 0.09166134 0.038731195 0.00679223 0.048774038 -0.044906408 0.018716732 -0.09298588
0.14288123 0.20078215 -0.015202451 -0.078862235 0.046316102 -0.027566567 0.04989723 0.032434784
0.044266477 -0.06372808 -0.008813585 -0.058667302 0.024532037 -0.12621486 -0.0900181 0.10095485
-0.005833704 0.023242857 -0.101880446 0.042697825 -0.12727863 0.0101486305 -0.03516686 0.107890695
0.021509586 0.10114877 0.03432909 0.11312333 0.19361702 0.016908808 0.09995841 0.08997519
