results/PruebaPequeña/AgenteCoche/AgenteCoche-48255.pt (torch, 175639 bytes, 14 tensors)

discrete_act_size_vector f4 [1, 2]
3.0 3.0
00000000: 0000 4040 0000 4040

network_body._body_endoder.seq_layers.0.weight f4 [128, 29]
0.068595104 0.059335448 -0.11094423 -0.24535982 0.114908114 -0.57874614 0.1849495 -0.014420683
0.32998002 -0.007368526 -0.04316211 -0.1214934 -0.1252526 0.21047924 0.0052280515 0.009646868
0.15573646 0.06595828 -0.45833424 -0.023463815 -0.28923884 -0.15654476 0.05270569 0.13661435
0.19901547 0.09729013 -0.08817166 0.11755899 -0.05992644 0.19486879 0.036981393 0.052468583
-0.06796902 0.037625775 0.09241013 0.28999564 0.17244439 0.10962521 0.061688043 0.08475489
0.1417286 -0.32969385 0.39148614 -0.38583562 0.23884901 0.3979849 0.118079685 0.15646198
-0.058523122 -0.1282873 -0.26053947 0.12564223 -0.4480155 0.014663998 -0.022521101 -0.23142888
-0.35290772 -0.096195385 -0.19917445 0.1514134 -0.078192405 0.0011478147 -0.021102475 0.13538739
0.11807467 -0.18049763 -0.25906423 -0.16184929 -0.18319817 -0.012360267 0.07205078 -0.17824051
0.076963104 0.18461479 -0.17487662 0.04925991 -0.12615076 0.1086978 -0.3001672 -0.10097175
-0.18592286 -0.123620376 -0.23006803 0.044725362 0.14468855 0.13816261 0.030588366 -0.16488957
0.017849203 -0.28595883 0.15481883 0.118761554 -0.09730919 -0.05443079 -0.09165741 0.0980056
-0.21663927 -0.29378402 0.6476647 -0.23148374 0.10231597 -0.0989728 0.050134584 -0.022990417
-0.16007867 -0.0026387782 0.06901138 -0.02832087 0.031053111 -0.1361028 -0.12167604 -0.09762893
0.081134714 0.21930468 0.10609049 -0.17808425 -0.2508399 0.055528227 0.10867156 -0.12191312
0.20861231 -0.143001 0.23423877 0.053487495 0.054559913 0.10337672 -0.03214665 -0.05046804
-0.060125552 0.13617854 0.23223512 -0.150225 0.14754957 0.22442895 0.32539704 0.36059973
-0.2666778 -0.08809545 -0.25536916 -0.085013844 -0.28960675 -0.18588763 -0.11824904 0.124594346
0.08325765 -0.034322884 0.20892058 0.11532879 -0.38126755 0.32090497 -0.19421065 -0.0016899677
-0.28533855 -0.035399426 -0.05434723 0.31139487 0.11070588 0.1165939 -0.22192572 0.31808797
-0.11313819 0.27604803 -0.14307864 -0.38058 0.08911265 -0.15620108 -0.25695437 -0.049939338
-0.021689987 0.33542076 0.12532228 0.0011503383 -0.12614311 0.0686475 -0.075225666 0.06099492
0.20894358 0.036470514 0.011371575 0.15205568 0.10959628 -0.088377796 -0.052864663 -0.27548456
0.13033687 0.28477797 0.025772054 -0.17392543 0.07276866 0.18989769 -0.024184946 -0.137309
-0.09224149 -0.043845113 0.0027722267 0.057773482 0.1514028 -0.6000804 -0.22415553 -0.011222745
0.10048767 0.041341897 0.14596231 -0.11845612 0.1956164 0.10430962 0.16910069 -0.15294284
0.25415704 -0.5021984 -0.42276967 0.14904042 0.17897236 -0.2735662 0.12944405 0.22264384
0.15264252 0.29289675 0.18894711 0.0022887755 -0.10727096 -0.0006066664 -0.17433229 0.29464045
-0.29355878 0.101120465 -0.2284336 0.11123696 -0.17814286 0.13006212 0.3538446 0.22695014
0.38057297 -0.070925124 -0.006278331 -0.2109544 -0.3622952 0.13229315 0.07760542 0.092533566
0.05717098 0.24497987 0.09493918 -0.3342817 -0.04433046 0.051468816 -9.823622e-05 0.32178518
-0.43382916 0.100956924 -0.17213754 -0.3575275 -0.12815848 -0.12943044 0.022741867 -0.11865615
00000000: 977b 8c3d ba09 733d ba36 e3bd 9b3f 7bbe
00000010: f254 eb3d b528 14bf 6763 3d3e ba44 6cbc
00000020: 24f3 a83e ad73 f1bb c1ca 30bd 88d1 f8bd
00000030: 3842 00be df87 573e 1350 ab3b e60d 1e3c
00000040: 6179 1f3e 2215 873d c9aa eabe 3037 c0bc
00000050: 1d17 94be 454d 20be ece1 573d a2e4 0b3e
00000060: b6ca 4b3e 0c40 c73d 5893 b4bd c5c2 f03d
00000070: 6d75 75bd af8b 473e cd79 173d 4ce9 563d
00000080: 5733 8bbd 7c1d 1a3d 8641 bd3d 4f7a 943e
00000090: 4395 303e 2f83 e03d 9aac 7c3d f993 ad3d
000000a0: 4d21 113e a2cd a8be df70 c83e 3f8c c5be
000000b0: d694 743e adc4 cb3e c3d3 f13d 9237 203e
000000c0: f1b5 6fbd bf5d 03be 6e65 85be 5ba8 003e
000000d0: 4a62 e5be 4441 703c 2c7e b8bc b1fb 6cbe
000000e0: 52b0 b4be 1602 c5bd 63f4 4bbe 1d0c 1b3e
000000f0: 5723 a0bd 4572 963a 19df acbc fea2 0a3e
00000100: 22d1 f13d 5fd4 38be 11a4 84be d2bb 25be
00000110: 4d98 3bbe b882 4abc 5c8f 933d ae84 36be
00000120: d59e 9d3d a90b 3d3e db12 33be c2c4 493d
00000130: aa2d 01be f49c de3d 84af 99be 47ca cebd
00000140: 9062 3ebe ae2c fdbd f496 6bbe f131 373d
00000150: 3c29 143e 807a 0d3e 7494 fa3c d0d8 28be
00000160: 7e38 923c 3269 92be d488 1e3e 4239 f33d
00000170: 0a4a c7bd d2f2 5ebd e1b6 bbbd 29b7 c83d
00000180: afd6 5dbe dc6a 96be 5bcd 253f 130a 6dbe
00000190: 098b d13d 40b2 cabd ec59 4d3d 6656 bcbc
000001a0: aaeb 23be 5aef 2cbb d755 8d3d 2b01 e8bc
000001b0: 1863 fe3c 885e 0bbe 4a31 f9bd adf1 c7bd
000001c0: f529 a63d 6891 603e f945 d93d b85b 36be
000001d0: 166e 80be 9171 633d 328f de3d 96ad f9bd
000001e0: 779e 553e db6e 12be 4adc 6f3e b415 5b3d
000001f0: 377a 5f3d 2cb7 d33d 35ac 03bd 93b7 4ebd
00000200: 3646 76bd 6372 0b3e 0bcf 6d3e 95d4 19be
00000210: 3c17 173e b4d0 653e 719a a63e 87a0 b83e
00000220: fe89 88be 636b b4bd bfbf 82be bd1b aebd
00000230: 5647 94be 5459 3ebe 8d2c f2bd 522b ff3d
00000240: fd82 aa3d 2796 0cbd 47ef 553e 8031 ec3d
00000250: 8035 c3be a84d a43e 28df 46be e881 ddba
00000260: e517 92be fdfe 10bd 339b 5ebd 266f 9f3e
00000270: c4b9 e23d c8c8 ee3d 7f40 63be 6ddc a23e
00000280: ffb4 e7bd 2b56 8d3e 3583 12be 62db c2be
00000290: b180 b63d 2df3 1fbe 868f 83be 318d 4cbd
000002a0: 33af b1bc 45bc ab3e 7c54 003e f3c6 963a
000002b0: a92b 01be 0f97 8c3d ea0f 9abd cfd5 793d
000002c0: 4ef5 553e 1b62 153d d84f 3a3c 7cb4 1b3e
000002d0: 0474 e03d 6bff b4bd 9e88 58bd 500c 8dbe
000002e0: 0777 053e 6bce 913e ea1f d33c 8219 32be
000002f0: bc07 953d 8a74 423e 821f c6bc bb9a 0cbe
00000300: 1be9 bcbd ef96 33bd 3fae 353b e3a3 6c3d
00000310: 5609 1b3e de9e 19bf 0789 65be 9bdf 37bc
00000320: 7bcc cd3d 1f56 293d 2577 153e 1f99 f2bd
00000330: aa4f 483e 48a0 d53d bb28 2d3e 0c9d 1cbe
00000340: df20 823e 1390 00bf 4475 d8be 0d9e 183e
00000350: 8844 373e de10 8cbe fb8c 043e bffc 633e
00000360: 524e 1c3e 90f6 953e 5a7b 413e 48ff 153b
00000370: e1b0 dbbd b108 1fba 2a84 32be 1ddb 963e
00000380: 564d 96be 3f18 cf3d 7fea 69be 34d0 e33d
00000390: 156b 36be 012f 053e 1f2b b53e 9e65 683e
000003a0: 76da c23e 3141 91bd 75ba cdbb 6e04 58be
000003b0: c27e b9be db77 073e 97ef 9e3d 3d82 bd3d
000003c0: 1e2c 6a3d 01dc 7a3e 796f c23d f926 abbe
000003d0: db93 35bd f7d0 523d 2b04 ceb8 07c1 a43e
000003e0: db1e debe 81c2 ce3d d344 30be d80d b7be
000003f0: fa3b 03be 6a89 04be 274d ba3c ff01 f3bd

network_body._body_endoder.seq_layers.0.bias f4 [128]
0.0 0.0 0.0 0.0 0.0 0.0 0.0 0.0
0.0 0.0 0.0 0.0 0.0 0.0 0.0 0.0
0.0 0.0 0.0 0.0 0.0 0.0 0.0 0.0
0.0 0.0 0.0 0.0 0.0 0.0 0.0 0.0
0.0 0.0 0.0 0.0 0.0 0.0 0.0 0.0
0.0 0.0 0.0 0.0 0.0 0.0 0.0 0.0
0.0 0.0 0.0 0.0 0.0 0.0 0.0 0.0
0.0 0.0 0.0 0.0 0.0 0.0 0.0 0.0
0.0 0.0 0.0 0.0 0.0 0.0 0.0 0.0
0.0 0.0 0.0 0.0 0.0 0.0 0.0 0.0
0.0 0.0 0.0 0.0 0.0 0.0 0.0 0.0
0.0 0.0 0.0 0.0 0.0 0.0 0.0 0.0
0.0 0.0 0.0 0.0 0.0 0.0 0.0 0.0
0.0 0.0 0.0 0.0 0.0 0.0 0.0 0.0
0.0 0.0 0.0 0.0 0.0 0.0 0.0 0.0
0.0 0.0 0.0 0.0 0.0 0.0 0.0 0.0
00000000: 0000 0000 0000 0000 0000 0000 0000 0000
00000010: 0000 0000 0000 0000 0000 0000 0000 0000
00000020: 0000 0000 0000 0000 0000 0000 0000 0000
00000030: 0000 0000 0000 0000 0000 0000 0000 0000
00000040: 0000 0000 0000 0000 0000 0000 0000 0000
00000050: 0000 0000 0000 0000 0000 0000 0000 0000
00000060: 0000 0000 0000 0000 0000 0000 0000 0000
00000070: 0000 0000 0000 0000 0000 0000 0000 0000
00000080: 0000 0000 0000 0000 0000 0000 0000 0000
00000090: 0000 0000 0000 0000 0000 0000 0000 0000
000000a0: 0000 0000 0000 0000 0000 0000 0000 0000
000000b0: 0000 0000 0000 0000 0000 0000 0000 0000
000000c0: 0000 0000 0000 0000 0000 0000 0000 0000
000000d0: 0000 0000 0000 0000 0000 0000 0000 0000
000000e0: 0000 0000 0000 0000 0000 0000 0000 0000
000000f0: 0000 0000 0000 0000 0000 0000 0000 0000
00000100: 0000 0000 0000 0000 0000 0000 0000 0000
00000110: 0000 0000 0000 0000 0000 0000 0000 0000
00000120: 0000 0000 0000 0000 0000 0000 0000 0000
00000130: 0000 0000 0000 0000 0000 0000 0000 0000
00000140: 0000 0000 0000 0000 0000 0000 0000 0000
00000150: 0000 0000 0000 0000 0000 0000 0000 0000
00000160: 0000 0000 0000 0000 0000 0000 0000 0000
00000170: 0000 0000 0000 0000 0000 0000 0000 0000
00000180: 0000 0000 0000 0000 0000 0000 0000 0000
00000190: 0000 0000 0000 0000 0000 0000 0000 0000
000001a0: 0000 0000 0000 0000 0000 0000 0000 0000
000001b0: 0000 0000 0000 0000 0000 0000 0000 0000
000001c0: 0000 0000 0000 0000 0000 0000 0000 0000
000001d0: 0000 0000 0000 0000 0000 0000 0000 0000
000001e0: 0000 0000 0000 0000 0000 0000 0000 0000
000001f0: 0000 0000 0000 0000 0000 0000 0000 0000

network_body._body_endoder.seq_layers.2.weight f4 [128, 128]
-0.040686425 0.05045782 -0.12933213 0.044433746 0.021186987 0.035395797 -0.014224714 0.09854694
-0.12188447 0.03048134 -0.049884863 0.098027654 -0.16146569 -0.045002166 0.13554919 -0.111062296
-0.006843807 0.06074811 -0.013452915 0.064511575 0.006053286 0.09137991 0.027496262 0.086421
-0.0074783308 -0.07875376 0.012563893 -0.10244697 -0.02338075 0.05911874 0.025855318 -0.12436236
0.065153696 0.08812247 0.2059489 0.03782064 0.01899001 -0.059932787 -0.04730115 -0.11148931
0.008794615 -0.010886292 0.07716495 -0.057228707 0.038372595 0.003283492 -0.023363588 0.038783196
0.096410975 -0.1101344 -0.02455773 -0.09423442 0.051024996 -0.06157899 0.074069805 -0.13263787
-0.0654358 -0.024949055 0.044112317 -0.08539105 -0.038669735 -0.005983191 0.060115572 -0.19890027
-0.117474936 0.00640388 0.08075666 -0.0031427604 0.0744457 0.039114144 -0.058156256 0.05401584
-0.04825276 -0.0016720919 0.039640423 -0.044184413 0.061223682 0.056780983 0.024215432 -0.07709076
0.0740643 -0.05386527 0.093828365 0.02948747 -0.010051013 0.045755897 -0.04201704 -0.023694057
-0.031079894 0.06326805 -0.018325986 0.044069756 0.049598664 -0.038057912 -0.21375503 0.08518686
-0.035468634 -0.0047178795 0.031550657 -0.015328704 -0.05489175 -0.01608533 -0.0009538139 0.019059988
-0.065765575 -0.018416109 -0.06848837 0.09355763 -0.156376 -0.05720399 0.01769589 -0.007978707
0.119239755 -0.14845464 0.046774514 -0.031253643 -0.020710431 -0.054180533 -0.15005276 -0.020740889
0.019426063 -0.0085047195 -0.06205689 -0.010586855 0.18888003 -0.091152936 0.032517824 -0.1326371
0.076486476 -0.11278214 -0.02460306 -0.07519494 -0.0910458 0.09267783 -0.07373979 -0.093927525
-0.014872512 0.12149814 0.007189215 -0.03615402 -0.10235621 0.11114738 -0.020708712 0.014553425
-0.033065233 0.11483908 0.086488016 0.027962426 -0.057172626 0.110614434 0.056714058 -0.0131552
0.09164184 -0.122232124 -0.07027296 0.31810796 -0.00950439 0.0868993 -0.025448311 0.050591905
0.018027153 0.11437153 -0.0055492823 -0.16406342 -0.14453726 -0.057468776 0.011890669 -0.16829103
-0.110092 0.07591885 -0.038590707 -0.030642247 -0.078399114 -0.014114153 0.06963205 0.09553634
-0.15035258 -0.04120693 0.06643483 -0.14684112 -0.03912668 0.09937366 -0.09087922 -0.03808614
-0.026276805 0.047967143 0.09312971 -0.04378985 -0.06794678 -0.0073775086 0.10535709 -0.09659887
-0.0643605 -0.00019028364 -0.0452769 -0.016844045 -0.04897394 -0.115270935 0.09914574 0.019686224
0.048306625 -0.058598205 -0.06878469 -0.062097907 0.045131944 0.111633174 0.082491614 0.047472734
-0.024710244 -0.0054887068 0.069106884 0.0973593 -0.12422326 -0.03382977 0.050933737 0.0039459993
0.18681072 0.12101128 0.08184046 -0.09257632 -0.049985867 -0.09530062 -0.07646852 0.007739516
0.06647099 -0.008651731 0.098160796 -0.037637476 -0.17709325 -0.002571541 -0.075158305 0.018148746
-0.009831714 -0.007160383 0.06368041 0.1411194 0.052986357 -0.05428458 0.066685624 -0.11333619
0.19859669 0.19430552 -0.0622679 0.083868586 0.024492618 0.08720963 -0.12074433 -0.09487798
0.025170488 0.102345556 0.06388485 -0.0954155 0.009204384 -0.09541912 -0.092894584 0.057508353
00000000: cfa6 26bd dcac 4e3d a46f 04be 2900 363d
00000010: 5590 ad3c 2ffb 103d c60e 69bc fad2 c93d
00000020: 919e f9bd 01b4 f93c 1254 4cbd b9c2 c83d
00000030: 4357 25be 3154 38bd 68cd 0a3e a174 e3bd
00000040: 0442 e0bb 03d3 783d 9d69 5cbc a51e 843d
00000050: a55a c63b 6425 bb3d d73f e13c 7efd b03d
00000060: c90c f5bb a749 a1bd c9d8 4d3c b8cf d1bd
00000070: fd88 bfbc 7e26 723d 88ce d33c b1b1 febd
00000080: 4d6f 853d 8e79 b43d 45e4 523e d1e9 1a3d
00000090: f090 9b3c 157c 75bd dabe 41bd 8254 e4bd
000000a0: 4a17 103c 6b5c 32bc a808 9e3d a668 6abd
000000b0: 952c 1d3d db2f 573b ff64 bfbc 21db 1e3d
000000c0: 1e73 c53d 258e e1bd 4b2d c9bc fafd c0bd
000000d0: 96ff 503d 403a 7cbd e9b1 973d 39d2 07be
000000e0: 3403 86bd f661 ccbc 1eaf 343d 81e1 aebd
000000f0: 2864 1ebd a50e c4bb bf3b 763d 83ac 4bbe
00000100: b396 f0bd a4d7 d13b bf63 a53d c5f6 4dbb
00000110: fd76 983d 2736 203d 4135 6ebd b73f 5d3d
00000120: b0a4 45bd 182a dbba ff5d 223d b7fa 34bd
00000130: afc5 7a3d 2d93 683d 715f c63c c3e1 9dbd
00000140: 06af 973d d4a1 5cbd 1629 c03d b58f f13c
00000150: 01ad 24bc 896a 3b3d 0f1a 2cbd 0a1a c2bc
00000160: 439b febc ae92 813d 6120 96bc 7d82 343d
00000170: f827 4b3d 9de2 1bbd 99e2 5abe 7376 ae3d
00000180: 8f47 11bd 7198 9abb 433b 013d 3f25 7bbc
00000190: 2cd6 60bd 62c5 83bc 5e09 7aba b123 9c3c
000001a0: 1ab0 86bd 61dd 96bc a143 8cbd 259b bf3d
000001b0: 0821 20be bb4e 6abd f9f6 903c 1fb9 02bc
000001c0: f933 f43d 7e04 18be a296 3f3d d203 00bd
000001d0: eca8 a9bc 68ec 5dbd 6ea7 19be cce8 a9bc
000001e0: 6823 9f3c 6157 0bbc 5e2f 7ebd 7d74 2dbc
000001f0: c469 413e 64ae babd 6931 053d 05d2 07be
00000200: f1a4 9c3d 53fa e6bd 5b8c c9bc ceff 99bd
00000210: 3876 babd e0cd bd3d e304 97bd 135d c0bd
00000220: d6ab 73bc 04d4 f83d 8293 eb3b 3d16 14bd
00000230: 22a0 d1bd 3da1 e33d 51a5 a9bc 7d71 6e3c
00000240: 696f 07bd c030 eb3d a120 b13d 7511 e53c
00000250: d82d 6abd d289 e23d 004d 683d e888 57bc
00000260: b8ae bb3d d654 fabd 45eb 8fbd 0cdf a23e
00000270: 4db8 1bbc 43f8 b13d fa78 d0bc 7539 4f3d
00000280: aead 933c 9f3b ea3d c1d6 b5bb 3e00 28be
00000290: 9301 14be 6164 6bbd 15d1 423c 7c54 2cbe
000002a0: ea77 e1bd 587b 9b3d 4a11 1ebd 7305 fbbc
000002b0: b78f a0bd 0c3f 67bc 409b 8e3d 8ea8 c33d
000002c0: 07f6 19be 99c8 28bd fc0e 883d 855d 16be
000002d0: 4c43 20bd 6b84 cb3d e21e babd 3600 1cbd
000002e0: 7442 d7bc 3279 443d caba be3d fc5c 33bd
000002f0: ae27 8bbd 07bf f1bb 75c5 d73d a1d5 c5bd
00000300: 70cf 83bd e086 47b9 4574 39bd 86fc 89bc
00000310: e698 48bd 2b13 ecbd ec0c cb3d 0145 a13c
00000320: 2bdd 453d ac04 70bd fdde 8cbd 605a 7ebd
00000330: 46dc 383d ef9f e43d 5df1 a83d c572 423d
00000340: 236d cabc 9cda b3bb e987 8d3d 5064 c73d
00000350: c468 febd 1691 0abd e59f 503d 714d 813b
00000360: 4f4b 3f3e c3d4 f73d f99b a73d a798 bdbd
00000370: fbbd 4cbd f92c c3bd 879b 9cbd c49b fd3b
00000380: f121 883d fdbf 0dbc 8708 c93d c129 1abd
00000390: ef57 35be 4c87 28bb 99ec 99bd aeac 943c
000003a0: 3315 21bc a5a1 eabb e06a 823d 9b81 103e
000003b0: 3908 593d 8259 5ebd 7992 883d ce1c e8bd
000003c0: ee5c 4b3e 07f8 463e a00c 7fbd 4bc3 ab3d
000003d0: bea4 c83c f69a b23d ce48 f7bd 634f c2bd
000003e0: 5732 ce3c 8c9a d13d 0fd6 823d 3469 c3bd
000003f0: fccd 163c 196b c3bd 843f bebd e18d 6b3d

network_body._body_endoder.seq_layers.2.bias f4 [128]
0.0 0.0 0.0 0.0 0.0 0.0 0.0 0.0
0.0 0.0 0.0 0.0 0.0 0.0 0.0 0.0
0.0 0.0 0.0 0.0 0.0 0.0 0.0 0.0
0.0 0.0 0.0 0.0 0.0 0.0 0.0 0.0
0.0 0.0 0.0 0.0 0.0 0.0 0.0 0.0
0.0 0.0 0.0 0.0 0.0 0.0 0.0 0.0
0.0 0.0 0.0 0.0 0.0 0.0 0.0 0.0
0.0 0.0 0.0 0.0 0.0 0.0 0.0 0.0
0.0 0.0 0.0 0.0 0.0 0.0 0.0 0.0
0.0 0.0 0.0 0.0 0.0 0.0 0.0 0.0
0.0 0.0 0.0 0.0 0.0 0.0 0.0 0.0
0.0 0.0 0.0 0.0 0.0 0.0 0.0 0.0
0.0 0.0 0.0 0.0 0.0 0.0 0.0 0.0
0.0 0.0 0.0 0.0 0.0 0.0 0.0 0.0
0.0 0.0 0.0 0.0 0.0 0.0 0.0 0.0
0.0 0.0 0.0 0.0 0.0 0.0 0.0 0.0
00000000: 0000 0000 0000 0000 0000 0000 0000 0000
00000010: 0000 0000 0000 0000 0000 0000 0000 0000
00000020: 0000 0000 0000 0000 0000 0000 0000 0000
00000030: 0000 0000 0000 0000 0000 0000 0000 0000
00000040: 0000 0000 0000 0000 0000 0000 0000 0000
00000050: 0000 0000 0000 0000 0000 0000 0000 0000
00000060: 0000 0000 0000 0000 0000 0000 0000 0000
00000070: 0000 0000 0000 0000 0000 0000 0000 0000
00000080: 0000 0000 0000 0000 0000 0000 0000 0000
00000090: 0000 0000 0000 0000 0000 0000 0000 0000
000000a0: 0000 0000 0000 0000 0000 0000 0000 0000
000000b0: 0000 0000 0000 0000 0000 0000 0000 0000
000000c0: 0000 0000 0000 0000 0000 0000 0000 0000
000000d0: 0000 0000 0000 0000 0000 0000 0000 0000
000000e0: 0000 0000 0000 0000 0000 0000 0000 0000
000000f0: 0000 0000 0000 0000 0000 0000 0000 0000
00000100: 0000 0000 0000 0000 0000 0000 0000 0000
00000110: 0000 0000 0000 0000 0000 0000 0000 0000
00000120: 0000 0000 0000 0000 0000 0000 0000 0000
00000130: 0000 0000 0000 0000 0000 0000 0000 0000
00000140: 0000 0000 0000 0000 0000 0000 0000 0000
00000150: 0000 0000 0000 0000 0000 0000 0000 0000
00000160: 0000 0000 0000 0000 0000 0000 0000 0000
00000170: 0000 0000 0000 0000 0000 0000 0000 0000
00000180: 0000 0000 0000 0000 0000 0000 0000 0000
00000190: 0000 0000 0000 0000 0000 0000 0000 0000
000001a0: 0000 0000 0000 0000 0000 0000 0000 0000
000001b0: 0000 0000 0000 0000 0000 0000 0000 0000
000001c0: 0000 0000 0000 0000 0000 0000 0000 0000
000001d0: 0000 0000 0000 0000 0000 0000 0000 0000
000001e0: 0000 0000 0000 0000 0000 0000 0000 0000
000001f0: 0000 0000 0000 0000 0000 0000 0000 0000

action_model._discrete_distribution.branches.0.weight f4 [3, 128]
0.0060423105 -0.009198658 -0.006512473 -0.0017152535 -0.0037217073 0.004200298 -0.00426626 -0.009845185
-0.0066022165 -0.00011056844 0.0026897257 0.011668046 0.017994497 -0.006701191 0.0019792325 0.005756491
-0.002223117 0.0026823482 0.001973204 0.0030119016 -0.006211153 -0.006273641 0.007931203 0.0007181598
-2.7711192e-05 -0.006583498 -0.005791618 -0.0035896786 -0.0007861039 0.0012415556 0.008438765 0.0015107264
0.008018221 -0.0048511596 -0.00867281 -0.00013786444 -0.004984617 0.00076678226 -0.0039345445 -0.00078148436
0.015639123 -0.0065874956 0.007238825 -0.003768683 -0.006811568 0.012294795 -0.0073935906 -0.00689508
-0.01443475 -0.018738963 -0.009915818 -0.0009842359 -0.015955161 -0.010771153 -0.013811936 0.0016087091
-0.0038202405 -0.00452531 -0.0029306598 -0.01260216 0.0023743892 0.013719636 0.008533541 0.004451516
0.0009086087 -0.012740088 0.0062533813 -0.004321997 0.01848075 0.013357888 0.0094359685 0.005332967
-0.00797487 0.0013784734 -0.0021224152 -0.008795924 0.0012948768 0.0031451713 0.0012801186 0.007870906
-0.001735107 0.0032593247 -0.0054254085 0.0070558824 0.0126459375 -9.803741e-05 0.0067918967 0.013452229
0.026589556 0.00040542622 0.00025547686 0.00064944045 -0.0072263004 0.006235516 -0.010199461 0.019721532
0.014896333 -0.009923944 0.0013815942 0.00504999 -0.010994456 0.013973461 0.0139339585 -0.010111949
0.0046989606 0.0047946745 -0.00022044327 -0.0021084899 -0.009683074 0.0010536459 -0.007239985 0.011201334
-0.014199914 -0.008046613 -0.010289963 -0.013988124 -0.007114105 -0.009301137 0.005702667 -0.008226432
-0.009759938 -0.0015755678 -0.003432108 -0.011777898 0.0025732077 0.004346937 -0.015432726 -0.0062866868
0.008216816 0.0043874457 -0.017236462 -0.017686019 0.0030163971 -0.012262048 0.017890356 0.009862209
-0.0034168314 0.01199743 0.005338254 0.0060901274 -0.007941473 0.006984801 -0.0017194899 -0.010599215
0.005151596 -0.009275283 -0.00071332284 -0.0007476807 0.0042955554 0.01910347 0.010693614 0.003996696
-0.005549059 -0.0048651616 -0.0031854063 -0.0058025992 0.008444565 -0.005324665 -0.0048755757 0.0025170236
0.014379392 -0.010885268 0.009599302 -0.0009218273 -0.0060015447 -0.0059420126 -0.004714353 -0.011822476
0.0005926624 0.013350201 0.005317244 -0.0077099763 0.015413336 0.00051230873 -0.0030621258 -0.003770596
-0.0025455148 -0.00847573 -0.0006627162 0.005951758 0.00307205 0.0057785017 -0.005520011 -0.0026392895
0.0022182933 -0.0046088225 -0.014480287 -0.0029887536 -0.008191059 0.0016212001 -0.00037631678 0.006693923
0.014372225 -0.0041676546 0.01579015 0.00860711 0.008406156 0.01159263 -0.001123596 0.0048435763
0.0051120906 0.0034414448 0.018096333 -0.0039864792 -0.0044643013 0.0040358333 0.0031043175 0.0042866957
0.0006992972 0.008298892 0.0027585865 -0.0038535376 0.013996351 0.0077761333 0.0015510556 -0.006792129
0.007995973 0.00896577 0.004097077 -0.004591651 0.0026241108 -0.00581098 -0.01636904 0.00073570723
0.0011532813 -0.013987996 -0.010375926 0.0059599197 0.008086306 0.000106138876 -0.007506373 0.0070069134
0.009889989 -0.005148815 0.01153341 -0.0019993791 0.0077922284 0.005490278 -0.0021942018 -0.0030477685
0.004094199 -0.007837868 -0.0102399485 -0.0014647025 0.0006187358 0.003010542 -0.0052500986 0.005355296
0.008074229 -0.0063082427 -0.0035915938 0.005895027 0.017271454 -0.014068636 -0.013441125 -0.00019197182
00000000: 93fe c53b f8b5 16bc 9566 d5bb 5bd2 e0ba
00000010: e3e7 73bb a7a2 893b fccb 8bbb b34d 21bc
00000020: 6857 d8bb fbe0 e7b8 1c46 303b 552b 3f3c
00000030: 3269 933c aa95 dbbb 03b6 013b f2a0 bc3b
00000040: b7b1 11bb 56ca 2f3b df50 013b 5363 453b
00000050: ee86 cbbb 1d93 cdbb e0f1 013c e342 3c3a
00000060: 5575 e8b7 62ba d7bb 9dc7 bdbb d040 6bbb
00000070: 8a12 4eba b1bb a23a bf42 0a3c 9103 c63a
00000080: db5e 033c 7af6 9ebb 6718 0ebc b48f 10b9
00000090: ff55 a3bb e301 493a 5aed 80bb 87dc 4cba
000000a0: 9e1d 803c ebdb d7bb aa33 ed3b 02fc 76bb
000000b0: 9333 dfbb 1c70 493c ef45 f2bb 20f0 e1bb
000000c0: bb7f 6cbc 7482 99bc f575 22bc 7a01 81ba
000000d0: 66b4 82bc 7d79 30bc 754b 62bc 52db d23a
000000e0: 005d 7abb 0d49 94bb 5010 40bb 4a79 4ebc
000000f0: a49b 1b3b 53c8 603c 44d0 0b3c 06de 913b
00000100: b32f 6e3a cdbb 50bc 2ae9 cc3b 8a9f 8dbb
00000110: f164 973c 0bdb 5a3c 5299 1a3c 2bc0 ae3b
00000120: 07a9 02bc e4ad b43a 3818 0bbb c71c 10bc
00000130: dbb8 a93a 381f 4e3b a7c9 a73a f9f4 003c
00000140: 886c e3ba 659a 553b a0c7 b1bb 0835 e73b
00000150: e830 4f3c 6f99 cdb8 8f8e de3b bd66 5c3c
00000160: 57d2 d93c 638f d439 86f1 8539 363f 2a3a
00000170: 9aca ecbb 4d53 cc3b a41b 27bc 0d8f a13c
00000180: c00f 743c 0a98 22bc 9c16 b53a 637a a53b
00000190: 1722 34bc f2f0 643c 424b 643c 97ac 25bc
000001a0: bdf9 993b a51c 9d3b ca26 67b9 972e 0abb
000001b0: c2a5 1ebc 7d1a 8a3a 653d edbb cd85 373c
000001c0: c2a6 68bc f1d5 03bc 3c97 28bc 722e 65bc
000001d0: 701d e9bb cc63 18bc 70dd ba3b 28c8 06bc
000001e0: 26e8 1fbc 4883 ceba 38ed 60bb 16f8 40bc
000001f0: 43a3 283b c070 8e3b 8bd9 7cbc 8d00 cebb
00000200: d39f 063c 90c4 8f3b 7b33 8dbc 45e2 90bc
00000210: bfae 453b c2e6 48bc cc8e 923c 1a95 213c
00000220: ebec 5fbb de90 443c 85ec ae3b b18f c73b
00000230: f41c 02bc c2e0 e43b 8260 e1ba 54a8 2dbc
00000240: b8ce a83b 5bf7 17bc 49fe 3aba 0100 44ba
00000250: bbc1 8c3b e17e 9c3c 4534 2f3c b7f6 823b
00000260: e1d4 b5bb ef6b 9fbb 40c2 50bb bb23 bebb
00000270: 135b 0a3c 877a aebb 4bc3 9fbb a6f4 243b
00000280: 8b97 6b3c 2058 32bc 6446 1d3c c8a6 71ba
00000290: 9ba8 c4bb 37b5 c2bb dc7a 9abb 0fb3 41bc
000002a0: e75c 1b3a cdba 5a3c 473c ae3b f8a3 fcbb
000002b0: 3888 7c3c 754c 063a f2ad 48bb 1b1c 77bb
000002c0: a7d2 26bb cadd 0abc 22ba 2dba f706 c33b
000002d0: 7254 493b 9659 bd3b 35e1 b4bb eef7 2cbb
000002e0: c960 113b 9b05 97bb ba3e 6dbc f7de 43bb
000002f0: cb33 06bc 737e d43a 624c c5b9 b258 db3b
00000300: 7b79 6b3c d290 88bb 585a 813c d604 0d3c
00000310: f9b9 093c 04ef 3d3c a045 93ba ddb6 9e3b
00000320: 5383 a73b dd89 613b c33e 943c 03a1 82bb
00000330: 4649 92bb 063f 843b ce71 4b3b 6977 8c3b
00000340: 0a51 373a 13f8 073c 67c9 343b a28b 7cbb
00000350: f350 653c efce fe3b ca4c cb3a 8290 debb
00000360: 8b01 033c 2ae5 123c c640 863b 8f75 96bb
00000370: 46f9 2b3b 096a bebb 5d18 86bc 7adc 403a
00000380: b329 973a e82d 65bc caff 29bc 6e4b c33b
00000390: 6d7c 043c e096 de38 05f8 f5bb 409a e53b
000003a0: 9f09 223c 64b7 a8bb a1f6 3c3c 0408 03bb
000003b0: f355 ff3b cae7 b33b 99cc 0fbb 12bd 47bb
000003c0: a128 863b 676a 00bc 75c5 27bc 43fb bfba
000003d0: a832 223a 834c 453b 0509 acbb 7b7b af3b
000003e0: c549 043c 60b5 cebb f260 6bbb 122b c13b
000003f0: dd7c 8d3c 2380 66bc 2a38 5cbc 0b4c 49b9

action_model._discrete_distribution.branches.0.bias f4 [3]
0.0 0.0 0.0
00000000: 0000 0000 0000 0000 0000 0000

action_model._discrete_distribution.branches.1.weight f4 [3, 128]
0.0030043244 -0.008741188 -0.012479088 -0.007647975 0.0003795736 0.013459756 -0.00036299886 0.009753715
0.00408057 -0.016451037 0.00475322 0.009395012 -0.006177197 0.0030005653 0.023744904 0.0121393865
0.018317815 -0.012045206 0.002432643 -0.006789431 0.015595383 -0.0049217823 -0.010189598 1.7629247e-05
0.0042518843 -0.008915833 0.008016205 -0.007812243 0.0014076933 -0.0040956684 0.013370231 0.0027404667
0.008617106 -0.0031967983 -0.0045974064 -0.0009861208 0.0133294035 0.008602369 -0.000875105 -0.0030706169
0.0026539294 -0.007404316 0.006904295 -0.013391455 -0.0049331663 0.0005588412 0.017824985 0.0038299789
-0.026830932 0.001818914 -0.010155754 0.0053480216 2.603285e-05 -0.01495664 0.007211344 -0.015228716
-0.0017012478 -0.018075986 -0.004982452 0.015130035 -0.0147432955 0.0155974915 -0.0076982537 -0.0009110646
-0.021355052 0.00012653947 -0.0073453127 -0.0071930387 -0.0071552503 0.012706687 -0.008894694 0.0006191149
0.00010055483 -0.015785282 0.003015289 0.0016157342 -0.016043853 -0.009189 0.004625028 -0.014300785
-0.002509653 -0.0005285482 -0.01138266 0.010531685 0.0072225393 0.002077884 -0.008848532 -0.0028261442
0.009037126 0.0039049406 -0.0113667715 8.473487e-05 -0.013091318 -0.008848306 0.0127342 0.0075518237
-0.004841751 -0.0072059147 -0.0014748364 0.008388589 0.0026388874 0.0010392395 -0.0074110082 0.00076781475
-0.008271441 0.0012037669 0.0011591228 0.012105577 -0.0008433267 0.00393817 -0.0003461394 -0.011708365
0.024888232 0.014116158 -4.818364e-05 0.0036043946 0.0004693663 -0.003106877 -0.006839469 0.0032629601
0.005314931 -0.023135958 0.0012865152 -0.004654165 -0.008722891 0.00071845826 0.002897386 0.007907343
-0.0021203777 -0.002471128 0.004442295 -0.00090974075 0.0012573597 -0.009329486 -0.0043701944 -0.0005655541
-0.010069202 0.0056693996 -0.0015217799 0.0023500198 0.001992011 0.012500174 -0.0052776416 0.011110888
0.0035066914 -0.0074416026 0.014117228 -0.013991295 0.011248213 -0.009759848 -0.012467863 0.0034281902
-0.0018088212 -0.0069097667 0.003589224 -0.0007500424 0.010923426 -0.00225327 0.013196642 -0.00021001825
-0.01678585 -0.018474294 -0.006182825 -0.0033396718 0.002182062 -0.014964228 -0.00543229 2.1119613e-05
-0.0003362434 0.00076677516 -0.0033945024 -0.0066829645 -0.0033298158 0.009241198 -0.007789697 -0.0060432134
-0.0015834369 0.015953118 0.0133854095 -0.0029063763 0.003813671 -0.0031136384 0.008736757 -0.017513087
-0.01611696 0.019408468 -0.0071577565 0.01943788 0.008281902 0.0016496461 0.013497256 0.006199828
0.0027001419 0.002887211 -0.008277495 -0.012587505 0.0055574887 -0.00019869891 0.013803281 0.005917981
-0.007071085 0.0011787196 -0.008080246 0.009972866 0.008294938 -0.009495231 0.0030189792 0.012771501
-0.003357093 -0.008806131 -0.020462211 0.0038068872 0.009718869 -0.015439293 -0.017099822 0.007835587
-0.011072597 0.0034457098 0.011579161 -0.0040412666 0.0035575428 0.0027705368 0.028456245 0.0054279184
0.02210815 -0.017442374 -0.0033593748 0.01388699 0.012079584 0.014154843 -0.0018740231 0.0071118074
-0.008638991 0.015768303 0.0046594883 -0.0162138 0.008680573 0.020012893 -0.0029100669 -0.0023245409
-0.0042725345 0.004026558 0.014077087 -0.0005912484 -0.010763894 -0.0012811054 -0.009210328 0.0034519925
-0.0053479318 0.0038715762 0.0054101665 0.0057926243 0.012177757 0.009112096 0.008835535 0.003741384
00000000: 33e4 443b 3337 0fbc 1775 4cbc dd9b fabb
00000010: 8201 c739 4f86 5c3c e250 beb9 0cce 1f3c
00000020: 4db6 853b 53c4 86bc e6c0 9b3b 89ed 193c
00000030: 166a cabb 22a5 443b ac84 c23c 47e4 463c
00000040: 3e0f 963c 4159 45bc fa6c 1f3b e079 debb
00000050: c783 7f3c e746 a1bb 46f2 26bc 85e2 9337
00000060: 6453 8b3b b713 12bc 6756 033c d8fd ffbb
00000070: 5982 b83a f534 86bb d00e 5b3c 6799 333b
00000080: c32e 0d3c 6081 51bb d7a5 96bb b940 81ba
00000090: 9263 5a3c f3f0 0c3c 4d67 65ba 673c 49bb
000000a0: 8ced 2d3b e89f f2bb 6d3d e23b d567 5bbc
000000b0: 66a6 a1bb 337f 123a b405 923c 6200 7b3b
000000c0: 8bcc dbbc a068 ee3a 5264 26bc 753e af3b
000000d0: 1f61 da37 b20c 75bc 234d ec3b dd81 79bc
000000e0: 67fc deba 1714 94bc d643 a3bb f7e3 773c
000000f0: dd8d 71bc 9f8c 7f3c a241 fcbb 83d4 6eba
00000100: caf0 aebc aeaf 0439 f3b0 f0bb 95b3 ebbb
00000110: 9776 eabb b52f 503c 0dbb 11bc 194c 223a
00000120: f7e0 d238 2350 81bc 289c 453b 0bc7 d33a
00000130: 666e 83bc 768d 16bc 8c8d 973b d74d 6abc
00000140: fe78 24bb 458e 0aba 567e 3abc 178d 2c3c
00000150: 0dab ec3b 1c2d 083b 6ff9 10bc d536 39bb
00000160: 7410 143c 08ea 7f3b b23b 3abc b0b3 b138
00000170: f87c 56bc 7cf8 10bc 1ba3 503c 4a75 f73b
00000180: 8da7 9ebb 981f ecbb 4c4f c1ba 4b70 093c
00000190: 2ff1 2c3b 1737 883a 0bd8 f2bb 2d47 493a
000001a0: f084 07bc b7c7 9d3a b5ed 973a 7856 463c
000001b0: b212 5dba c40b 813b 0b7a b5b9 71d4 3fbc
000001c0: 68e2 cb3c 7547 673c ca18 4ab8 b537 6c3b
000001d0: 4715 f639 bf9c 4bbb a01d e0bb 63d7 553b
000001e0: df28 ae3b 9f87 bdbc 49a0 a83a f781 98bb
000001f0: 75ea 0ebc eb56 3c3a 12e2 3d3b cd8d 013c
00000200: 09f6 0abb a6f2 21bb ac90 913b ab7b 6eba
00000210: fecd a43a b3da 18bc d933 8fbb b141 14ba
00000220: 4bf9 24bc 5fc6 b93b 7676 c7ba ca02 1a3b
00000230: 668c 023b 88cd 4c3c 11f0 acbb 710a 363c
00000240: 85d0 653b b0d8 f3bb f24b 673c bf3b 65bc
00000250: 6d4a 383c c5e7 1fbc 0246 4cbc 7dab 603b
00000260: f815 edba 536b e2bb 3039 6b3b 7e9e 44ba
00000270: 2bf8 323c 99ab 13bb ba36 583c 5838 5cb9
00000280: 7b82 89bc 6757 97bc 4c99 cabb 65de 5abb
00000290: ed00 0f3b 852c 75bc 5a01 b2bb 062a b137
000002a0: d349 b0b9 6901 493a 4d76 5ebb c5fc dabb
000002b0: 0a39 5abb 6568 173c b740 ffbb 2606 c6bb
000002c0: 538b cfba 1db0 823c 7a4e 5b3c e778 3ebb
000002d0: c8ee 793b 2f0e 4cbb 9d24 0f3c 9b77 8fbc
000002e0: b707 84bc 82fe 9e3c 9d8b eabb 303c 9f3c
000002f0: d1b0 073c f038 d83a 9823 5d3c ed27 cb3b
00000300: ddf4 303b 5d37 3d3b 559e 07bc d33b 4ebc
00000310: 981b b63b d559 50b9 2827 623c 9feb c13b
00000320: 8fb4 e7bb 447f 9a3a 0263 04bc 3b65 233c
00000330: 7ee7 073c e391 1bbc 11da 453b 8f3f 513c
00000340: ad02 5cbb 9747 10bc 5ea0 a7bc f87c 793b
00000350: e43b 1f3c 17f5 7cbc ed14 8cbc d560 003c
00000360: d669 35bc 6bd1 613b 85b6 3d3c 9a6c 84bb
00000370: aa25 693b e591 353b 121d e93c aedc b13b
00000380: 271c b53c 4fe3 8ebc f528 5cbb 4286 633c
00000390: 73e9 453c b7e9 673c c8a1 f5ba 2a0a e93b
000003a0: 8e8a 0dbc 872c 813c 9fae 983b ced2 84bc
000003b0: f638 0e3c 14f2 a33c d2b6 3ebb 5357 18bb
000003c0: 9e00 8cbb 37f1 833b 95a3 663c 02fe 1aba
000003d0: 0b5b 30bc c4ea a7ba eae6 16bc d33a 623b
000003e0: b43d afbb 45ba 7d3b c447 b13b 0ed0 bd3b
000003f0: 3785 473c e74a 153c ebc2 103c 0232 753b

action_model._discrete_distribution.branches.1.bias f4 [3]
0.0 0.0 0.0
00000000: 0000 0000 0000 0000 0000 0000

network_body._body_endoder.seq_layers.0.weight f4 [128, 29]
0.124484524 0.3401804 -0.023219366 -0.11861374 0.0152532235 -0.14871316 -0.007905471 -0.05366956
-0.18539587 -0.10434815 0.31043637 -0.011523425 -0.07196398 0.0027063568 -0.2681429 -0.19532368
0.094518386 0.10268764 -0.093033805 -0.08429657 -0.18271431 -0.21546702 0.04850518 -0.032630518
0.06425888 -0.11705139 0.21062842 0.4310553 0.04941999 -0.14011607 0.10378047 0.22828422
-0.12653421 -0.00031055848 -0.3057464 0.3440382 0.10380737 -0.23361036 0.038573034 -0.39427325
-0.2785973 0.5231896 0.071585 0.2695666 0.08459959 -0.025669709 0.106380075 -0.05451013
-0.12588154 0.3287046 -0.048926428 -0.000151539 -0.16529302 -0.081272975 0.012028768 0.08661897
-0.09717523 0.0441052 -0.15624723 0.035849307 -0.15064554 0.13737272 0.3397661 0.15218979
-0.314589 -0.2841224 -0.03469029 0.2414623 -0.21573557 -0.24493998 -0.011860589 -0.43345916
0.053743403 0.35191256 0.06843633 0.055427458 -0.025469607 -0.1140903 -0.061161812 0.13282734
0.24023582 -0.07758239 -0.14552397 -0.017245682 0.0015036273 -0.05473272 0.27721527 0.19343704
-0.15532424 0.17114602 -0.09938078 0.21723011 -0.07517316 0.10841528 0.20804341 0.103165805
-0.15748806 -0.11380097 -0.25170237 0.11866151 0.11424275 0.4108721 0.098627195 -0.023847317
-0.082050584 -0.085302025 0.002964755 0.23593614 0.14499174 0.10160449 0.30335307 -0.2510681
-0.10637725 -0.2281319 0.26063913 0.12006247 0.040349826 0.056219082 -0.018407524 0.07238428
-0.16799222 0.06557526 0.009367482 0.103583544 -0.047087654 0.08092012 0.037359122 -0.05912323
0.19934177 0.07229792 -0.25666875 0.20457074 0.16470028 -0.33592957 0.036109902 -0.0666642
0.21283536 0.16109775 -0.20805681 -0.20049746 -0.0546474 -0.15582113 0.19318397 -0.20113061
0.044918254 0.30306837 -0.032718252 -0.21071114 0.12591748 0.0020195746 -0.04109854 0.13189343
-0.04862314 0.07143684 0.4530877 -0.222073 0.26238036 0.13511631 0.045644265 0.25096998
0.14826447 0.034797102 0.16230527 -6.4012194e-05 -0.093886614 -0.10148997 -0.17282577 -0.05895162
-0.24074748 0.0019506786 -0.10671383 -0.10537357 -0.114911325 0.31859443 -0.08172223 0.04956685
0.43074945 0.051272582 0.045839924 0.012243471 -0.27222452 -0.025046518 -0.2717985 -0.09264554
0.33721372 -0.1292028 0.14167337 0.06738349 0.1920478 0.030891974 -0.08481293 0.28941268
0.30988395 0.23040028 -0.12576844 -0.40619504 0.22113736 -0.4310497 0.2072614 -0.43445876
0.07781038 0.076457895 -0.2791375 -0.14422849 0.09325827 0.29580358 -0.0077327415 0.22598764
0.26831976 0.09105475 -0.26037145 -0.26122937 0.2445109 -0.05528612 0.10194737 -0.06280527
0.12351335 -0.103846826 0.04509885 0.076532476 0.22757646 0.16420911 0.0005763715 0.10034745
-0.12291204 0.24226226 -0.024715649 0.13754988 0.13038594 0.39710313 -0.18326381 -0.2290501
0.12497321 0.091635264 0.07650948 0.056505814 -0.0574501 0.06761244 -0.0922168 0.23192008
-0.0866465 -0.21370554 -0.16068074 0.22612178 -0.00072950876 0.12594874 -0.175036 -0.15155439
-0.043884393 -0.06639724 -0.07232583 -0.10220527 -0.083022386 -0.33844617 -0.09169014 -0.20540139
00000000: bef1 fe3d 202c ae3e 8a36 bebc c3eb f2bd
00000010: a8e8 793c 4348 18be f385 01bc 9dd4 5bbd
00000020: 6ad8 3dbe 7cb4 d5bd 84f1 9e3e bfcc 3cbc
00000030: da61 93bd 225d 313b 074a 89be ee02 48be
00000040: db92 c13d e64d d23d 8288 bebd aea3 acbd
00000050: 7619 3bbe 63a3 5cbe 5ead 463d 94a7 05bd
00000060: 299a 833d a4b8 efbd faae 573e 48b3 dc3e
00000070: 9e6c 4a3d 967a 0fbe db8a d43d 57c3 693e
00000080: 2f92 01be 74d2 a2b9 cb8a 9cbe c625 b03e
00000090: f598 d43d 8e37 6fbe c2fe 1d3d 2fde c9be
000000a0: 4ea4 8ebe c1ef 053f 289b 923d a204 8a3e
000000b0: 8d42 ad3d 4849 d2bc ccdd d93d 0446 5fbd
000000c0: 17e7 00be f84b a83e 1467 48bd 71e6 1eb9
000000d0: 9342 29be 7272 a6bd 4f14 453c 4965 b13d
000000e0: cf03 c7bd a7a7 343d 46ff 1fbe b9d6 123d
000000f0: d342 1abe 6fab 0c3e d2f5 ad3e a4d7 1b3e
00000100: cf11 a1be 7e78 91be 6817 0ebd e541 773e
00000110: c9e9 5cbe 8cd1 7abe ea52 42bc 5cee ddbe
00000120: 0b22 5c3d e22d b43e 5928 8c3d e707 633d
00000130: a3a5 d0bc 2da8 e9bd cf84 7abd e403 083e
00000140: 6100 763e 84e3 9ebd 3c04 15be d146 8dbc
00000150: 5c15 c53a 6b2f 60bd 29ef 8d3e 5c14 463e
00000160: 510d 1fbe e740 2f3e 2688 cbbd 9271 5e3e
00000170: 63f4 99bd d508 de3d 5509 553e 9848 d33d
00000180: 8d44 21be 7c10 e9bd 22df 80be ce04 f33d
00000190: 1af8 e93d d45d d23e 0efd c93d 735b c3bc
000001a0: 230a a8bd d4b2 aebd 564c 423b 3e99 713e
000001b0: b778 143e 0416 d03d 1851 9b3e ff8b 80be
000001c0: 51dc d9bd 699b 69be 7e72 853e 50e3 f53d
000001d0: dc45 253d fb45 663d 60cb 96bc 363e 943d
000001e0: 2706 2cbe 524c 863d 117a 193c 9c23 d43d
000001f0: fcde 40bd 73b9 a53d e105 193d 332b 72bd
00000200: 4020 4c3e ef10 943d 166a 83be fe7a 513e
00000210: 31a7 283e f6fe abbe fae7 133d 3d87 88bd
00000220: 83f1 593e cff6 243e d80c 55be 354f 4dbe
00000230: f4d5 5fbd 938f 1fbe 05d2 453e 2ff5 4dbe
00000240: 34fc 373d c72b 9b3e 9303 06bd a9c4 57be
00000250: 83f0 003e d75a 043b f156 28bd 120f 073e
00000260: 0f29 47bd 7a4d 923d 1cfb e73e 1b67 63be
00000270: b856 863e ee5b 0a3e 7bf5 3a3d 237f 803e
00000280: a4d2 173e 6887 0e3d 5a33 263e 493e 86b8
00000290: a047 c0bd f9d9 cfbd 3df9 30be 4177 71bd
000002a0: 8286 76be eaad ff3a c88c dabd 19ce d7bd
000002b0: a156 ebbd cf1e a33e fc5d a7bd 9c06 4b3d
000002c0: 318b dc3e 3303 523d a5c2 3b3d d798 483c
000002d0: 0361 8bbe 5b2e cdbc 2c29 8bbe f2bc bdbd
000002e0: 47a7 ac3e bd4d 04be d312 113e 5b00 8a3d
000002f0: 2ea8 443e 2a11 fd3c 67b2 adbd e62d 943e
00000300: 1ca9 9e3e 0dee 6b3e 71c9 00be ccf8 cfbe
00000310: d571 623e 8cb2 dcbe 553c 543e 6171 debe
00000320: 0c5b 9f3d f595 9c3d 1ceb 8ebe a2b0 13be
00000330: 31fe be3d 9173 973e f062 fdbb 4e69 673e
00000340: 3561 893e ea7a ba3d 684f 85be dbbf 85be
00000350: 1161 7a3e b373 62bd c8c9 d03d 0da0 80bd
00000360: 91f4 fc3d a5ad d4bd 92b9 383d 0fbd 9c3d
00000370: ce09 693e 6f26 283e a317 173a f782 cd3d
00000380: 4fb9 fbbd 9913 783e 7978 cabc e0d9 0c3e
00000390: e483 053e 1a51 cb3e 82a9 3bbe 1c8c 6abe
000003a0: f4f1 ff3d 45ab bb3d 01b1 9c3d a472 673d
000003b0: cc50 6bbd 6478 8a3d 29dc bcbd 757c 6d3e
000003c0: b873 b1bd a0d5 5abe 7e89 24be 788c 673e
000003d0: 813c 3fba b5f8 003e a33c 33be 1331 1bbe
000003e0: 1fc0 33bd 47fb 87bd 911f 94bd ff50 d1bd
000003f0: a407 aabd d148 adbe 0ac8 bbbd be54 52be

network_body._body_endoder.seq_layers.0.bias f4 [128]
0.0 0.0 0.0 0.0 0.0 0.0 0.0 0.0
0.0 0.0 0.0 0.0 0.0 0.0 0.0 0.0
0.0 0.0 0.0 0.0 0.0 0.0 0.0 0.0
0.0 0.0 0.0 0.0 0.0 0.0 0.0 0.0
0.0 0.0 0.0 0.0 0.0 0.0 0.0 0.0
0.0 0.0 0.0 0.0 0.0 0.0 0.0 0.0
0.0 0.0 0.0 0.0 0.0 0.0 0.0 0.0
0.0 0.0 0.0 0.0 0.0 0.0 0.0 0.0
0.0 0.0 0.0 0.0 0.0 0.0 0.0 0.0
0.0 0.0 0.0 0.0 0.0 0.0 0.0 0.0
0.0 0.0 0.0 0.0 0.0 0.0 0.0 0.0
0.0 0.0 0.0 0.0 0.0 0.0 0.0 0.0
0.0 0.0 0.0 0.0 0.0 0.0 0.0 0.0
0.0 0.0 0.0 0.0 0.0 0.0 0.0 0.0
0.0 0.0 0.0 0.0 0.0 0.0 0.0 0.0
0.0 0.0 0.0 0.0 0.0 0.0 0.0 0.0
00000000: 0000 0000 0000 0000 0000 0000 0000 0000
00000010: 0000 0000 0000 0000 0000 0000 0000 0000
00000020: 0000 0000 0000 0000 0000 0000 0000 0000
00000030: 0000 0000 0000 0000 0000 0000 0000 0000
00000040: 0000 0000 0000 0000 0000 0000 0000 0000
00000050: 0000 0000 0000 0000 0000 0000 0000 0000
00000060: 0000 0000 0000 0000 0000 0000 0000 0000
00000070: 0000 0000 0000 0000 0000 0000 0000 0000
00000080: 0000 0000 0000 0000 0000 0000 0000 0000
00000090: 0000 0000 0000 0000 0000 0000 0000 0000
000000a0: 0000 0000 0000 0000 0000 0000 0000 0000
000000b0: 0000 0000 0000 0000 0000 0000 0000 0000
000000c0: 0000 0000 0000 0000 0000 0000 0000 0000
000000d0: 0000 0000 0000 0000 0000 0000 0000 0000
000000e0: 0000 0000 0000 0000 0000 0000 0000 0000
000000f0: 0000 0000 0000 0000 0000 0000 0000 0000
00000100: 0000 0000 0000 0000 0000 0000 0000 0000
00000110: 0000 0000 0000 0000 0000 0000 0000 0000
00000120: 0000 0000 0000 0000 0000 0000 0000 0000
00000130: 0000 0000 0000 0000 0000 0000 0000 0000
00000140: 0000 0000 0000 0000 0000 0000 0000 0000
00000150: 0000 0000 0000 0000 0000 0000 0000 0000
00000160: 0000 0000 0000 0000 0000 0000 0000 0000
00000170: 0000 0000 0000 0000 0000 0000 0000 0000
00000180: 0000 0000 0000 0000 0000 0000 0000 0000
00000190: 0000 0000 0000 0000 0000 0000 0000 0000
000001a0: 0000 0000 0000 0000 0000 0000 0000 0000
000001b0: 0000 0000 0000 0000 0000 0000 0000 0000
000001c0: 0000 0000 0000 0000 0000 0000 0000 0000
000001d0: 0000 0000 0000 0000 0000 0000 0000 0000
000001e0: 0000 0000 0000 0000 0000 0000 0000 0000
000001f0: 0000 0000 0000 0000 0000 0000 0000 0000

network_body._body_endoder.seq_layers.2.weight f4 [128, 128]
0.007410802 0.027708216 -0.061769534 0.08111986 -0.1560483 0.007286455 0.053780828 0.04079075
-0.06330521 -0.06341732 0.12661316 -0.09908246 -0.05241312 0.1253695 0.15807804 -0.0009036769
0.04784771 -0.054291062 -0.016629899 -0.08139304 0.10259214 -0.019119559 0.010706606 -0.013748309
-0.008828159 -0.09979313 0.09460694 0.08984916 -0.22971992 0.051672705 0.11065956 -0.1120127
-0.062454328 0.05921768 0.07091495 0.04100038 -0.07051932 -0.029433332 0.0653467 -0.102321684
0.07896634 0.081395745 0.11488914 -0.027541576 -0.061102994 -0.0072065056 -0.059379194 0.023721932
0.065424554 -0.068126425 -0.05235682 -0.12375325 0.053864405 -0.05271412 -0.096529685 -0.044475894
0.042171028 -0.09403349 -0.052459955 0.08488005 0.06438811 0.06405075 -0.08792851 -0.040578734
-0.039107196 0.1219594 -0.123762846 0.10231197 -0.08656046 0.062546015 0.1522507 -0.048926536
-0.046945915 0.073865525 0.10364739 0.117101066 0.066504486 -0.05016402 -0.050653845 0.025782665
0.10826089 -0.048753336 -0.2461947 0.07927432 -0.06684673 0.034924895 -0.17199834 0.108711205
-0.11938244 -0.04375256 0.16156209 -0.03000167 -0.013486993 -0.0010820504 0.020171657 0.061004117
-0.096025884 -0.088016 -0.049921457 -0.12656505 0.10947932 -0.18165258 0.01367398 0.012541969
0.02777872 0.090004764 -0.037888132 -0.011980956 -0.020907065 0.17685106 0.014967683 -0.0143417595
-0.04199994 -0.011051997 0.048576843 0.113072135 0.102875106 -0.06106948 -0.1314501 -0.04066716
0.066846706 0.09799251 -0.103835694 -0.021092476 0.012161273 -0.21953294 0.037625533 0.016231764
-0.012948332 -0.09869939 0.029043116 0.14797027 -0.018675378 -0.024912355 -0.049156126 -0.06533401
0.043085527 0.07842343 -0.09603011 0.1025574 0.11454538 0.010511603 -0.09482354 0.010407551
0.04763401 -0.13252884 -0.21309985 -0.11810037 -0.04772246 -0.04408824 -0.047222976 -0.040826812
-0.06660045 -0.017944034 -0.03620214 -0.010251339 0.007857474 0.026598027 -0.024595233 -0.06394136
-0.021586632 0.011294483 0.016205449 -0.035561007 0.048111036 -0.029845806 0.07961521 -0.014654915
0.06795311 -0.06463473 -0.066716865 0.12775315 0.007699456 0.15792817 -0.07501527 -0.035336655
-0.07874859 0.15908726 0.12865898 0.051053282 0.038362537 0.11061212 -0.106312275 -0.010315536
-0.0076768356 -0.09244004 0.034598112 -0.123749554 0.024376523 0.041674465 0.072038576 0.057374883
0.08680274 -0.03012772 -0.08907125 -0.11716005 -0.10728942 0.1362482 -0.2522518 0.03343329
-0.004841591 0.06355088 -0.04561007 -0.03803478 0.10422971 -0.10428404 -0.09364134 0.06458781
0.078521356 -0.117365085 0.1667775 0.12618177 0.16234244 0.19915801 0.14452232 0.050915036
-0.13876335 -0.02648692 0.030070145 -0.052994523 -0.029724818 0.061155718 0.09236959 0.039358545
0.03223997 -0.13270837 -0.06364367 0.033946157 0.013569249 0.0512793 0.032725222 -0.046776064
-0.04009251 -0.11162786 0.09425908 -0.113958366 0.079650044 0.13814473 0.047046106 0.07207907
-0.06313683 -0.09445775 0.37637085 -0.0057116873 0.04855663 -0.030593857 -0.047501374 0.04794225
0.123849474 0.05488991 0.17043981 0.13218367 -0.059911445 -0.028506447 0.0053518647 0.046852175
00000000: 50d6 f23b 57fc e23c 0d02 7dbd 2b22 a63d
00000010: 20cb 1fbe 37c3 ee3b 4949 5c3d 3414 273d
00000020: 29a6 81bd f1e0 81bd e1a6 013e bfeb cabd
00000030: 24af 56bd dd60 003e 36df 213e bbe4 6cba
00000040: f6fb 433d 4e60 5ebd 6d3b 88bc 65b1 a6bd
00000050: d41b d23d 9fa0 9cbc c36a 2f3c 9640 61bc
00000060: fca3 10bc 5760 ccbd 49c1 c13d d602 b83d
00000070: b33b 6bbe c2a6 533d 7ba1 e23d ea66 e5bd
00000080: 1cd0 7fbd 3d8e 723d db3b 913d 04f0 273d
00000090: 6f6c 90bd 2c1e f1bc 7ed4 853d 088e d1bd
000000a0: 1bb9 a13d d0b2 a63d ff4a eb3d df9e e1bc
000000b0: 2247 7abd 8d24 ecbb 9937 73bd 7f54 c23c
000000c0: 4ffd 853d de85 8bbd 1b74 56bd 5872 fdbd
000000d0: eca0 5c3d c3ea 57bd 5bb1 c5bd 5b2c 36bd
000000e0: 87bb 2c3d a194 c0bd 40e0 56bd 97d5 ad3d
000000f0: eadd 833d 0a2d 833d dd13 b4bd e335 26bd
00000100: de2e 20bd dac5 f93d 6077 fdbd f088 d13d
00000110: 9c46 b1bd 2018 803d 9ce7 1b3e 3167 48bd
00000120: 5c4a 40bd cf46 973d 1545 d43d afd2 ef3d
00000130: 8133 883d ca78 4dbd 687a 4fbd 2b36 d33c
00000140: e3b7 dd3d 94b1 47bd 771a 7cbe 935a a23d
00000150: f0e6 88bd 680d 0f3d 5520 30be fba3 de3d
00000160: c87e f4bd e235 33bd 8870 253e 10c6 f5bc
00000170: 8cf8 5cbc 96d3 8dba 083f a53c 74df 793d
00000180: 38a9 c4bd bc41 b4bd 717a 4cbd 459a 01be
00000190: b236 e03d 2203 3abe d408 603c d57c 4d3c
000001a0: 3390 e33c 6b54 b83d 9630 1bbd c64b 44bc
000001b0: 4b45 abbc 7218 353e 033b 753c b3f9 6abc
000001c0: 2108 2cbd 6f13 35bc 83f8 463d 5d92 e73d
000001d0: 2fb0 d23d fe23 7abd db9a 06be 9c92 26bd
000001e0: ede6 883d 4cb0 c83d cfa7 d4bd 21ca acbc
000001f0: 1340 473c 3ecd 60be 3b1d 1a3d 7af8 843c
00000200: 3e25 54bc e822 cabd d4eb ed3c 8585 173e
00000210: 1bfd 98bc ff14 ccbc ef57 49bd d6cd 85bd
00000220: 737a 303d 779c a03d 6fab c4bd 9d09 d23d
00000230: c596 ea3d dc38 2c3c d832 c2bd 6f84 2a3c
00000240: e11b 433d a4b5 07be d936 5abe 9bde f1bd
00000250: a078 43bd df95 34bd e16c 41bd 043a 27bd
00000260: d165 88bd 5eff 92bc b248 14bd 3bf5 27bc
00000270: a2bc 003c 1be4 d93c f17b c9bc b0f3 82bd
00000280: 73d6 b0bc 7f0c 393c 4ac1 843c 6ba8 11bd
00000290: 1410 453d 317f f4bc 4d0d a33d 2b1b 70bc
000002a0: 002b 8b3d 375f 84bd daa2 88bd b9d1 023e
000002b0: b84b fc3b ecb7 213e 9ba1 99bd 2bbd 10bd
000002c0: f146 a1bd c5e7 223e 2ebf 033e 3f1d 513d
000002d0: 0922 1d3d 9b88 e23d 40ba d9bd 7e02 29bc
000002e0: f78d fbbb 3451 bdbd c0b6 0d3d 6870 fdbd
000002f0: 46b1 c73c d8b2 2a3d f688 933d ed01 6b3d
00000300: a3c5 b13d 69ce f6bc fd6a b6bd 9cf1 efbd
00000310: 8eba dbbd a684 0b3e 2627 81be 58f1 083d
00000320: 36a6 9ebb f726 823d a0d1 3abd 5cca 1bbd
00000330: 6376 d53d df92 d5bd 08c7 bfbd 9d46 843d
00000340: cecf a03d 1b5d f0bd b9c7 2a3e cb35 013e
00000350: 193d 263e 14f0 4b3e a9fd 133e 498c 503d
00000360: fb17 0ebe 19fb d8bc aa55 f63c c910 59bd
00000370: 7681 f3bc 6b7e 7a3d 452c bd3d 6d36 213d
00000380: 0f0e 043d b4e4 07be 9d57 82bd 200b 0b3d
00000390: 8e51 5e3c 3e0a 523d e20a 063d 4298 3fbd
000003a0: 0b38 24bd 269d e4bd e80a c13d 0163 e9bd
000003b0: 901f a33d d075 0d3e 6bb3 403d 319e 933d
000003c0: e24d 81bd 1173 c1bd aeb3 c03e 1b29 bbbb
000003d0: 51e3 463d f89f fabc cd90 42bd 185f 443d
000003e0: cba4 fd3d 3ed4 603d c687 2e3e 285b 073e
000003f0: b465 75bd 5a86 e9bc b25e af3b 11e8 3f3d

network_body._body_endoder.seq_layers.2.bias f4 [128]
0.0 0.0 0.0 0.0 0.0 0.0 0.0 0.0
0.0 0.0 0.0 0.0 0.0 0.0 0.0 0.0
0.0 0.0 0.0 0.0 0.0 0.0 0.0 0.0
0.0 0.0 0.0 0.0 0.0 0.0 0.0 0.0
0.0 0.0 0.0 0.0 0.0 0.0 0.0 0.0
0.0 0.0 0.0 0.0 0.0 0.0 0.0 0.0
0.0 0.0 0.0 0.0 0.0 0.0 0.0 0.0
0.0 0.0 0.0 0.0 0.0 0.0 0.0 0.0
0.0 0.0 0.0 0.0 0.0 0.0 0.0 0.0
0.0 0.0 0.0 0.0 0.0 0.0 0.0 0.0
0.0 0.0 0.0 0.0 0.0 0.0 0.0 0.0
0.0 0.0 0.0 0.0 0.0 0.0 0.0 0.0
0.0 0.0 0.0 0.0 0.0 0.0 0.0 0.0
0.0 0.0 0.0 0.0 0.0 0.0 0.0 0.0
0.0 0.0 0.0 0.0 0.0 0.0 0.0 0.0
0.0 0.0 0.0 0.0 0.0 0.0 0.0 0.0
00000000: 0000 0000 0000 0000 0000 0000 0000 0000
00000010: 0000 0000 0000 0000 0000 0000 0000 0000
00000020: 0000 0000 0000 0000 0000 0000 0000 0000
00000030: 0000 0000 0000 0000 0000 0000 0000 0000
00000040: 0000 0000 0000 0000 0000 0000 0000 0000
00000050: 0000 0000 0000 0000 0000 0000 0000 0000
00000060: 0000 0000 0000 0000 0000 0000 0000 0000
00000070: 0000 0000 0000 0000 0000 0000 0000 0000
00000080: 0000 0000 0000 0000 0000 0000 0000 0000
00000090: 0000 0000 0000 0000 0000 0000 0000 0000
000000a0: 0000 0000 0000 0000 0000 0000 0000 0000
000000b0: 0000 0000 0000 0000 0000 0000 0000 0000
000000c0: 0000 0000 0000 0000 0000 0000 0000 0000
000000d0: 0000 0000 0000 0000 0000 0000 0000 0000
000000e0: 0000 0000 0000 0000 0000 0000 0000 0000
000000f0: 0000 0000 0000 0000 0000 0000 0000 0000
00000100: 0000 0000 0000 0000 0000 0000 0000 0000
00000110: 0000 0000 0000 0000 0000 0000 0000 0000
00000120: 0000 0000 0000 0000 0000 0000 0000 0000
00000130: 0000 0000 0000 0000 0000 0000 0000 0000
00000140: 0000 0000 0000 0000 0000 0000 0000 0000
00000150: 0000 0000 0000 0000 0000 0000 0000 0000
00000160: 0000 0000 0000 0000 0000 0000 0000 0000
00000170: 0000 0000 0000 0000 0000 0000 0000 0000
00000180: 0000 0000 0000 0000 0000 0000 0000 0000
00000190: 0000 0000 0000 0000 0000 0000 0000 0000
000001a0: 0000 0000 0000 0000 0000 0000 0000 0000
000001b0: 0000 0000 0000 0000 0000 0000 0000 0000
000001c0: 0000 0000 0000 0000 0000 0000 0000 0000
000001d0: 0000 0000 0000 0000 0000 0000 0000 0000
000001e0: 0000 0000 0000 0000 0000 0000 0000 0000
000001f0: 0000 0000 0000 0000 0000 0000 0000 0000

value_heads.value_heads.extrinsic.weight f4 [1, 128]
-0.008895531 -0.096869335 -0.15681554 0.18382531 0.039476663 -0.11819161 -0.16715954 0.13775495
-0.009185374 -0.13980806 0.044800133 0.04899761 0.05482617 0.1894216 0.15395701 -0.17181848
0.19111723 0.0809941 0.11695048 -0.050827026 0.20769614 -0.089361206 -0.14468227 -0.0361588
0.13863486 0.14324555 0.1557461 -0.07558295 -0.14259917 -0.009596065 -0.09695885 -0.09176912
0.1613737 -0.018334046 -0.1204069 0.20164272 -0.0111489 0.046924263 -0.049730957 0.055505663
0.058484137 0.15892693 0.14549151 0.19519803 0.0670785 0.045304507 0.054856926 0.09817296
-0.056352213 0.1710549 -0.08064839 0.08503538 -0.13431154 -0.07806149 0.15573427 0.105288
0.09420794 -0.15719102 0.20522204 0.21047503 0.027284622 -0.09570797 -0.11942018 0.038550347
-0.14134085 0.17324439 -0.09448693 0.042618483 -0.09831536 -0.039105937 0.13349688 -0.00936152
0.10642174 0.10810307 0.089196235 0.042930037 -0.12823582 -0.12119765 -0.13853031 -0.15645638
0.13713372 0.09109959 -0.19389711 -0.09399002 -0.042141587 -0.065074295 0.07208988 -0.015216351
-0.0559984 0.1403693 -0.05282408 -0.12700556 0.030059382 0.17129695 0.17145512 -0.098340705
0.21288893 0.14442196 -0.05143583 -0.09895208 0.17659795 0.19263351 0.11630741 0.016010463
0.18135852 -0.08107151 0.19689852 -0.032065615 -0.1513881 0.16153774 -0.07474586 0.073441565
-0.1580747 -0.053320855 0.10100576 -0.039633825 -0.16281328 -0.057041556 -0.10256238 -0.16406737
0.0054352432 -0.18852428 -0.105336376 -0.053205833 -0.02892889 -0.018386707 -0.15076958 0.16894752
00000000: 90be 11bc 6e63 c6bd 4194 20be b43c 3c3e
00000010: 48b2 213d 710e f2bd df2b 2bbe a20f 0d3e
00000020: 407e 16bc d829 0fbe 5880 373d b8b1 483d
00000030: 6891 603d bcf7 413e e8a6 1d3e 2ff1 2fbe
00000040: 3cb4 433e 3ce0 a53d bc83 ef3d 0030 50bd
00000050: 4cae 543e 0203 b7bd 9727 14be 401b 14bd
00000060: 4cf6 0d3e f6ae 123e e87b 1f3e 3ccb 9abd
00000070: 8405 12be d038 1dbc 5d92 c6bd 73f1 bbbd
00000080: 263f 253e 4831 96bc e597 f6bd 6e7b 4e3e
00000090: e0a9 36bc a833 403d b0b2 4bbd e859 633d
000000a0: 108d 6f3d bebd 223e bafb 143e fee1 473e
000000b0: 7460 893d 3891 393d a8b1 603d e80e c93d
000000c0: 94d1 66bd 0429 2f3e fc2a a5bd 0827 ae3d
000000d0: f788 09be b4de 9fbd ce78 1f3e 3ca1 d73d
000000e0: 18f0 c03d aff6 20be ba25 523e c486 573e
000000f0: 0084 df3c 8a02 c4bd 9192 f4bd f8e6 1d3d
00000100: a8bb 10be fa66 313e 5d82 c1bd b890 2e3d
00000110: 9059 c9bd 8c2d 20bd 68b3 083e 1061 19bc
00000120: a4f3 d93d 2465 dd3d 84ac b63d 68d7 2f3d
00000130: 4050 03be 7936 f8bd e4da 0dbe 1a36 20be
00000140: c86c 0c3e 6c92 ba3d f78c 46be d77d c0bd
00000150: a89c 2cbd ac45 85bd dca3 933d 004e 79bc
00000160: 945e 65bd f8bc 0f3e 105e 58bd bf0d 02be
00000170: 183f f63c 7868 2f3e ee91 2f3e da66 c9bd
00000180: 8eff 593e 5ae3 133e 60ae 52bd 63a7 cabd
00000190: 18d6 343e b841 453e 9432 ee3d 6028 833c
000001a0: 0cb6 393e d208 a6bd c49f 493e 3c57 03bd
000001b0: 7b05 1bbe 266a 253e 5c14 99bd 8868 963d
000001c0: 56de 21be f866 5abd 1cdc ce3d 1457 22bd
000001d0: 86b8 26be 68a4 69bd 3a0c d2bd 4701 28be
000001e0: 201a b23b 820c 41be 99ba d7bd 5cee 59bd
000001f0: 48fc ecbc b89f 96bc 5763 1abe 9400 2d3e
