results - copia/MejorandoCerebro2/AgenteCoche/AgenteCoche-499984.pt (torch, 282319 bytes, 18 tensors)

network_body._body_endoder.seq_layers.0.weight f4 [128, 44]
0	0xbe94bdcf	-0.29051062
1	0x3dc2cd90	0.09511864
2	0x3e77be37	0.24193655
3	0x3d8ea1bf	0.06964444
4	0x3e0be9dc	0.13663429
5	0x3adaee76	0.0016703147
6	0xbeb1f076	-0.3475377
7	0xbe867791	-0.26263097
8	0x3e99dcb6	0.30051202
9	0xbe2c78cf	-0.1684296
10	0x3d6c9536	0.057759486
11	0x3e4a4f1a	0.19756737
12	0x3ebbd032	0.36682278
13	0xbe6a58a4	-0.22885376
14	0xbc1b5959	-0.009481751
15	0x3c7344d8	0.014847957
16	0xbe4f6f27	-0.20257245
17	0xbe917689	-0.28410748
18	0x3d0103fb	0.031497937
19	0xbe18f8b7	-0.14938627
20	0x3ce2f832	0.02770624
21	0xbea9d79d	-0.33172312
22	0xbda075dd	-0.07834981
23	0xbdc02421	-0.09381891
24	0xbe3ab134	-0.1823166
25	0x3d6cac5f	0.057781573
26	0xbe2bae09	-0.16765608
27	0xbcc81203	-0.024422651
28	0x3ca77d4b	0.020445487
29	0xbcc4c992	-0.024021897
30	0x3e6212aa	0.22077432
31	0xbd815eb5	-0.06316892
32	0xbd2408a0	-0.040047288
33	0x3e645802	0.22299197
34	0xbe35c0e8	-0.17749369
35	0xbdc6bc1e	-0.09703849
36	0xbe0fd59e	-0.14046332
37	0xbd81df0b	-0.0634137
38	0xbca52992	-0.020161424
39	0x3e512f00	0.20428085
40	0xbdfbda70	-0.12297523
41	0xbdf44edd	-0.119291045
42	0xbd56d948	-0.05245331
43	0xbe53e191	-0.20691516
44	0x3d77c11d	0.0604869
45	0xbdc358a5	-0.09538392
46	0x3e1eebd8	0.15519655
47	0xbe77ba18	-0.24192083
48	0xbe07efde	-0.13275096
49	0x3d5101b1	0.051027004
50	0x3e99e9d7	0.30061218
51	0xbe8cc87d	-0.2749671
52	0xbe3d4a71	-0.18485428
53	0x3d8f93e2	0.07010628
54	0x3e110ffe	0.14166257
55	0x3e113fa0	0.14184427
56	0xbe07d436	-0.13264546
57	0xbdc4ca54	-0.096089035
58	0x3e0b066d	0.1357667
59	0x3e22336e	0.15839931
60	0x3be8b845	0.0071020448
61	0x3dabee7a	0.08395095
62	0xbdb6f0c0	-0.08932638
63	0xbdc56c9c	-0.09639856
64	0x3da188ea	0.078874424
65	0x3e765c2b	0.24058597
66	0xbde30a18	-0.110859096
67	0xbe2259ef	-0.1585462
68	0xbca12344	-0.019670136
69	0xbd9d57ea	-0.07682784
70	0xbe764bfd	-0.24052425
71	0x3e238b0c	0.15971011
72	0x3e213b99	0.15745391
73	0x3ceb84c4	0.028749831
74	0xbd504ea5	-0.05085625
75	0xbe7921f3	-0.24329357
76	0x3e9ac5ee	0.30229133
77	0x3dcd4ba8	0.10024196
78	0xbcb67f9f	-0.022277651
79	0x3e2a511e	0.16632506
80	0x3e0e5fb0	0.1390369
81	0xbd02628c	-0.031832263
82	0x3c516ce9	0.012782314
83	0x3e745f0d	0.23864384
84	0x3c87abc8	0.016561404
85	0x3e6e530c	0.23273867
86	0x3d186474	0.037205175
87	0xbe0c93a6	-0.13728198
88	0x3cd83bbb	0.02639567
89	0xbdb2eb0d	-0.08736239
90	0x3e8d4a06	0.27595538
91	0xbe658dcb	-0.22417371
92	0xbe07213c	-0.13196272
93	0xbd7a1574	-0.061055616
94	0xbe286c53	-0.16447572
95	0xbcf7f547	-0.030268325
96	0xbdf5f627	-0.120098405
97	0x3d3310b5	0.043717105
98	0x3e7d432e	0.24732658
99	0x3e1dff41	0.15429403
100	0xbd28900a	-0.04115299
101	0xbd52a542	-0.051427133
102	0x3cb6a310	0.022294551
103	0xbe120dd5	-0.14263089
104	0x3e07951c	0.13240474
105	0xbd8f4098	-0.06994742
106	0xbc9d6cb8	-0.01921688
107	0x3e6d71a4	0.23187882
108	0xbdec52db	-0.11539241
109	0xbe42b064	-0.190126
110	0x3b4aa30c	0.0030919937
111	0xbb678d2c	-0.0035331948
112	0x3d811a74	0.06303874
113	0x3e43aeaf	0.19109605
114	0x3d991262	0.07474209
115	0xbe262e1b	-0.16228525
116	0xbe201d15	-0.15636094
117	0xbe02b0d8	-0.12762773
118	0xbe832b70	-0.25619078
119	0x3d034f5c	0.032058105
120	0x3d22cc55	0.039745647
121	0x3e89f996	0.2694823
122	0x3da18928	0.078874886
123	0x3e77a12c	0.24182576
124	0x3ee609ed	0.44929448
125	0x3e744437	0.23854147
126	0xbd36224e	-0.04446631
127	0x3de7a90e	0.113115415
128	0xbd6a8288	-0.05725339
129	0xbd25d825	-0.040489335
130	0xbe880833	-0.26568756
131	0x3d2bb660	0.041921973
132	0xbdf34d8e	-0.11880027
133	0xbde99986	-0.114062354
134	0x3ebdaf18	0.37047648
135	0xbd112508	-0.035435706
136	0xbc5347a4	-0.012895498
137	0xbb705dd2	-0.0036677015
138	0x3eab8e9d	0.33507243
139	0xbd457eab	-0.048216503
140	0xbe696ac4	-0.22794634
141	0x3e06e958	0.13174951
142	0x3e939881	0.2882729
143	0xbe372b44	-0.17887598
144	0xbe12990e	-0.14316198
145	0xbe1eb344	-0.15498072
146	0x3eaf2ee0	0.3421545
147	0x3cf7de62	0.030257408
148	0xbe3e32b4	-0.18574029
149	0x3e94c9fe	0.29060358
150	0xbc87728b	-0.01653411
151	0xbdc2f0b3	-0.09518566
152	0x3e969370	0.2940936
153	0xbdce5708	-0.10075194
154	0xbbb9426d	-0.0056536705
155	0x3d831ce1	0.064019926
156	0x3bea0a45	0.0071423375
157	0xbda15449	-0.07877404
158	0xbe7ea97d	-0.24869342
159	0x3e32c52a	0.17458025
160	0xbc87ba79	-0.01656841
161	0xbbe2eeea	-0.0069254534
162	0xbe90d3f2	-0.282867
163	0xbe6571c7	-0.22406684
164	0x3dddf4d2	0.108377114
165	0x3eb4e38a	0.3532985
166	0xbe1e96a0	-0.15487146
167	0xbc65c0e6	-0.014023041
168	0xbd89d2bb	-0.06729647
169	0x3e231516	0.15926012
170	0x3e152ed4	0.14568645
171	0x3e7adea2	0.2449899
172	0xbcde52cf	-0.027139096
173	0xbdcc5556	-0.09977214
174	0xbd4c3a86	-0.0498605
175	0x3d1a2113	0.0376292
176	0xbd2d44d9	-0.042301986
177	0xbe45da93	-0.1932166
178	0x3d8718d8	0.065965354
179	0x3d87e4a3	0.06635406
180	0x3e6ec092	0.23315647
181	0x3e24aec2	0.1608229
182	0xbb6b19d8	-0.0035873558
183	0x3d596089	0.05307058
184	0xbd614bdf	-0.055003997
185	0xbdc5cc28	-0.0965808
186	0x3e852954	0.26008093
187	0x3ea4f043	0.32214555
188	0xbe4554ec	-0.19270676
189	0xbdf87b88	-0.12132937
190	0x3dc30cfb	0.0952396
191	0xbdd75fef	-0.10516345
192	0xbe50af53	-0.20379381
193	0xbc4b87eb	-0.012422542
194	0xbd733ebc	-0.059386
195	0xbea06cfc	-0.31333148
196	0xbd49fd2d	-0.049313713
197	0xbda1d412	-0.07901777
198	0xbd8b7ce7	-0.068109326
199	0xbb2c0a58	-0.0026251283
200	0xbe296e43	-0.16545968
201	0xbcf632ef	-0.030053584
202	0xbd1e54d1	-0.038655106
203	0x3e31a685	0.17348678
204	0x3d31b8ca	0.04338912
205	0x3c570eb3	0.013126063
206	0x3e0081b6	0.12549481
207	0xbca6ad1f	-0.020346222
208	0x3e06a191	0.1314757
209	0x3e01a356	0.12659964
210	0x3de52d5c	0.11190292
211	0xbcaf7123	-0.021416252
212	0x3c80d348	0.015725747
213	0xbd94f26f	-0.07272803
214	0xbdccec2e	-0.10005985
215	0x3d8f45bc	0.06995723
216	0x3e1138c7	0.14181815
217	0x3e1097f4	0.14120466
218	0xbe38c514	-0.1804393
219	0xbc20e048	-0.009819098
220	0xbddbefd9	-0.10739107
221	0xbe1e2dba	-0.15447131
222	0x3dc2fb28	0.095205605
223	0x3dc9cb9b	0.09853288
224	0xbc7d1db6	-0.015448978
225	0xbdf14b3f	-0.1178193
226	0x3ea158f2	0.31513172
227	0xbe27aa33	-0.1637352
228	0x3d13adf9	0.036054585
229	0xbdc5779a	-0.09641953
230	0xbdf5e27a	-0.120060876
231	0xbd0c7908	-0.034295112
232	0xbd30efcf	-0.04319745
233	0x3d31e2d4	0.04342921
234	0xbc71d847	-0.014761037
235	0xbe45b2f2	-0.19306543
236	0x3e27c5ab	0.16383998
237	0x3e3ba1b1	0.18323399
238	0x3dc16c8d	0.094445325
239	0xbe5c5e81	-0.21520425
240	0x3dc14764	0.09437445
241	0xbb8d7bb4	-0.004317725
242	0xbdc51767	-0.09623604
243	0xbd933665	-0.07188109
244	0xbdcda9cb	-0.10042151
245	0x3bedfd2e	0.0072628474
246	0xbe8c8f62	-0.27453142
247	0xbc808ff8	-0.01569365
248	0xbe8d429b	-0.27589878
249	0x3d491efd	0.04910182
250	0x3e41c6dc	0.18923515
251	0x3e50c851	0.20388915
252	0xbda74027	-0.08166533
253	0xbe67bbc1	-0.22630216
254	0xbda0e53d	-0.07856224
255	0xbdad1c1a	-0.084526256

network_body._body_endoder.seq_layers.0.bias f4 [128]
0	0x00000000	0.0
1	0x00000000	0.0
2	0x00000000	0.0
3	0x00000000	0.0
4	0x00000000	0.0
5	0x00000000	0.0
6	0x00000000	0.0
7	0x00000000	0.0
8	0x00000000	0.0
9	0x00000000	0.0
10	0x00000000	0.0
11	0x00000000	0.0
12	0x00000000	0.0
13	0x00000000	0.0
14	0x00000000	0.0
15	0x00000000	0.0
16	0x00000000	0.0
17	0x00000000	0.0
18	0x00000000	0.0
19	0x00000000	0.0
20	0x00000000	0.0
21	0x00000000	0.0
22	0x00000000	0.0
23	0x00000000	0.0
24	0x00000000	0.0
25	0x00000000	0.0
26	0x00000000	0.0
27	0x00000000	0.0
28	0x00000000	0.0
29	0x00000000	0.0
30	0x00000000	0.0
31	0x00000000	0.0
32	0x00000000	0.0
33	0x00000000	0.0
34	0x00000000	0.0
35	0x00000000	0.0
36	0x00000000	0.0
37	0x00000000	0.0
38	0x00000000	0.0
39	0x00000000	0.0
40	0x00000000	0.0
41	0x00000000	0.0
42	0x00000000	0.0
43	0x00000000	0.0
44	0x00000000	0.0
45	0x00000000	0.0
46	0x00000000	0.0
47	0x00000000	0.0
48	0x00000000	0.0
49	0x00000000	0.0
50	0x00000000	0.0
51	0x00000000	0.0
52	0x00000000	0.0
53	0x00000000	0.0
54	0x00000000	0.0
55	0x00000000	0.0
56	0x00000000	0.0
57	0x00000000	0.0
58	0x00000000	0.0
59	0x00000000	0.0
60	0x00000000	0.0
61	0x00000000	0.0
62	0x00000000	0.0
63	0x00000000	0.0
64	0x00000000	0.0
65	0x00000000	0.0
66	0x00000000	0.0
67	0x00000000	0.0
68	0x00000000	0.0
69	0x00000000	0.0
70	0x00000000	0.0
71	0x00000000	0.0
72	0x00000000	0.0
73	0x00000000	0.0
74	0x00000000	0.0
75	0x00000000	0.0
76	0x00000000	0.0
77	0x00000000	0.0
78	0x00000000	0.0
79	0x00000000	0.0
80	0x00000000	0.0
81	0x00000000	0.0
82	0x00000000	0.0
83	0x00000000	0.0
84	0x00000000	0.0
85	0x00000000	0.0
86	0x00000000	0.0
87	0x00000000	0.0
88	0x00000000	0.0
89	0x00000000	0.0
90	0x00000000	0.0
91	0x00000000	0.0
92	0x00000000	0.0
93	0x00000000	0.0
94	0x00000000	0.0
95	0x00000000	0.0
96	0x00000000	0.0
97	0x00000000	0.0
98	0x00000000	0.0
99	0x00000000	0.0
100	0x00000000	0.0
101	0x00000000	0.0
102	0x00000000	0.0
103	0x00000000	0.0
104	0x00000000	0.0
105	0x00000000	0.0
106	0x00000000	0.0
107	0x00000000	0.0
108	0x00000000	0.0
109	0x00000000	0.0
110	0x00000000	0.0
111	0x00000000	0.0
112	0x00000000	0.0
113	0x00000000	0.0
114	0x00000000	0.0
115	0x00000000	0.0
116	0x00000000	0.0
117	0x00000000	0.0
118	0x00000000	0.0
119	0x00000000	0.0
120	0x00000000	0.0
121	0x00000000	0.0
122	0x00000000	0.0
123	0x00000000	0.0
124	0x00000000	0.0
125	0x00000000	0.0
126	0x00000000	0.0
127	0x00000000	0.0

network_body._body_endoder.seq_layers.2.weight f4 [128, 128]
0	0x3e09f373	0.13471775
1	0xbdadcb12	-0.08485998
2	0xbc286db3	-0.010280061
3	0x3cc9678f	0.024585513
4	0x3c84aadd	0.016194755
5	0xbbff9c0f	-0.007800586
6	0xbe1ad48e	-0.15120146
7	0x3d12e66b	0.035864275
8	0xbe0c4fba	-0.13702288
9	0xbcea8ca5	-0.028631518
10	0x3de05064	0.10952833
11	0xbdf236da	-0.11826868
12	0xbc81276a	-0.015765864
13	0x3c821966	0.015881252
14	0xbda2ad12	-0.07943167
15	0x3d92eb80	0.07173824
16	0xbdfc12c7	-0.12308269
17	0xbd632538	-0.055455416
18	0xbbcb861d	-0.006211056
19	0x3caaef2b	0.020865997
20	0xbcc835f2	-0.024439786
21	0x3dc2c9dc	0.09511158
22	0xbe73fd4f	-0.23827098
23	0xbdb0f949	-0.08641297
24	0xbe049fb3	-0.12951545
25	0x3bea314a	0.007146989
26	0xbca7ccd5	-0.020483414
27	0xbdead4ea	-0.114663914
28	0xbcd43179	-0.025902497
29	0xbd008200	-0.031373978
30	0xbdd6128e	-0.10452758
31	0xbda4a303	-0.080389045
32	0x3d7a350a	0.06108574
33	0x3e1bb8cf	0.15207218
34	0x3cfda595	0.030962745
35	0xbdc5a3ea	-0.09650405
36	0x3d3a35a6	0.04546132
37	0x3db3835e	0.08765291
38	0x3cbad4be	0.022806522
39	0x3d35388c	0.04424338
40	0x3de65734	0.112471014
41	0x3d4fc375	0.05072351
42	0x3dd0cff4	0.10195914
43	0x3cd40416	0.025880855
44	0x3df0185e	0.11723398
45	0xbca6a8df	-0.020344196
46	0xbe085d96	-0.1331695
47	0x3d901e23	0.07036998
48	0x3e2a0cd4	0.16606456
49	0xbb207d0e	-0.00244886
50	0xbe0e04d6	-0.13869032
51	0xbd21acdb	-0.03947149
52	0x3c8bb6a0	0.017054856
53	0xbe20f209	-0.15717329
54	0xbdd7a5e4	-0.10529688
55	0x3dcee865	0.101029195
56	0xbc12ee77	-0.008967987
57	0xbd9e6179	-0.07733435
58	0xbd47ec77	-0.048809495
59	0x3e1d6977	0.15372263
60	0xba4fba38	-0.0007924172
61	0xbd6022f2	-0.054720826
62	0x3d570eaa	0.05250422
63	0x3c4a87f9	0.01236152
64	0x3d538b76	0.051646672
65	0x3e0bf20a	0.1366655
66	0x3d0983ac	0.033572838
67	0x3c26052c	0.010133069
68	0x3d9319ca	0.07182653
69	0xbdc7f612	-0.09763731
70	0x3cde0512	0.027102027
71	0x3d62b9b9	0.0553529
72	0xbdec6791	-0.11543191
73	0x3dee834b	0.11646136
74	0xbd8b8f00	-0.068143845
75	0xbd5598cc	-0.05214767
76	0x3b1dd6e2	0.002408438
77	0xbe171baa	-0.14756647
78	0x3e29e461	0.16591026
79	0x3da57f29	0.080808945
80	0xbcc5b9e1	-0.024136486
81	0xbd6f8cda	-0.058483936
82	0x3c4cabfa	0.012492174
83	0x3d97456c	0.07386288
84	0x3ccf90df	0.025337635
85	0x3ce1d33d	0.027566547
86	0xbe0a18a0	-0.13485956
87	0x3ce4e965	0.027943322
88	0x3cffafa4	0.031211682
89	0x3e23aa0a	0.15982834
90	0xbd884f8a	-0.06655796
91	0xbc8e229c	-0.017350487
92	0xbd84a4ff	-0.06476783
93	0x3d8e6274	0.06952372
94	0x3d50caba	0.050974585
95	0x3d52b50c	0.05144219
96	0xbbf8dca4	-0.007594662
97	0xbdb288de	-0.087175116
98	0xbcf36faf	-0.02971634
99	0xbc4aa14b	-0.012367557
100	0xbd9c1a9a	-0.07622261
101	0xbd88f4fa	-0.066873506
102	0xbd6a8009	-0.05725101
103	0xbd88a0a3	-0.06671264
104	0xbea40b6f	-0.32039973
105	0xbbe87bdb	-0.007094843
106	0x3e105682	0.140955
107	0xbda6bae3	-0.081411146
108	0x3d59b75e	0.05315339
109	0x3d2c5d03	0.04208089
110	0xbd3757b8	-0.04476139
111	0x3dcab4f2	0.09897794
112	0xbc65eca4	-0.01403347
113	0xbce183ad	-0.027528608
114	0xbdf7f8a6	-0.12107973
115	0xbe6f5079	-0.23370542
116	0xbb7f2e13	-0.0038937374
117	0xbd87ea76	-0.06636517
118	0xbd79ea31	-0.061014358
119	0x3d071cf8	0.03298661
120	0xbb6b0c13	-0.003586535
121	0xbd816035	-0.06317178
122	0xbc8f3949	-0.01748337
123	0xbd6d73c4	-0.05797173
124	0xbe2e8949	-0.17044558
125	0x3ccc6a03	0.024952894
126	0xbe299b5c	-0.16563171
127	0xbdf133f3	-0.11777487
128	0x3e6b2808	0.2296449
129	0xbd622291	-0.055208746
130	0xbdb63aa8	-0.088979065
131	0xbcd50b50	-0.02600637
132	0x3db7b220	0.089695215
133	0xbc11be09	-0.008895406
134	0xbbf87792	-0.0075826133
135	0xbc519c7e	-0.012793658
136	0xbe5f8e99	-0.2183174
137	0xbde9402e	-0.113891944
138	0x3d39e06a	0.045380034
139	0xbd82afe7	-0.06381207
140	0x3d330204	0.043703094
141	0x3d1c6063	0.03817786
142	0xbc89a308	-0.016801372
143	0xbd32b12e	-0.043626003
144	0xbc61fb41	-0.013792814
145	0x3cb24761	0.021762552
146	0xbd650432	-0.055912204
147	0xbe082eba	-0.13299075
148	0xbe2461ec	-0.16052979
149	0x3dc872f3	0.0978755
150	0xbdca7a0b	-0.09886559
151	0x3da5080b	0.08058175
152	0xbde267ca	-0.110549524
153	0x3daedb33	0.08537903
154	0xbcda86f1	-0.026675673
155	0xbd55ce56	-0.05219873
156	0xbd912f8e	-0.070891485
157	0x3d296249	0.041353498
158	0x3d16549b	0.03670178
159	0xbd3549cb	-0.044259828
160	0xbd1ca114	-0.038239554
161	0x3bb4b9fb	0.0055153347
162	0xbdc47c47	-0.095940165
163	0x3dfb53ba	0.12271829
164	0x3c2f53d3	0.010701138
165	0xbd09a9cc	-0.033609197
166	0xbd033419	-0.032032106
167	0x3da26b6b	0.079306446
168	0x3dc441c1	0.09582854
169	0x3c641e71	0.013923273
170	0xbc17f27b	-0.00927412
171	0x3d6de088	0.058075458
172	0x3dcfc684	0.10145286
173	0xbd3a4431	-0.04547519
174	0xbc7f1843	-0.015569749
175	0xbc42acb8	-0.011882
176	0x3dbd5423	0.092445634
177	0xbe12834b	-0.14307897
178	0xbcbedde0	-0.023299158
179	0xbbc40167	-0.0059816125
180	0xbda4ece6	-0.08052997
181	0x3d6aef2f	0.05735701
182	0xbd0ea922	-0.034829266
183	0xbba055fb	-0.004893062
184	0x3e1879e0	0.14890242
185	0x3dc656b9	0.0968451
186	0xbd254f2d	-0.04035871
187	0xbd8bda02	-0.06828691
188	0xbcfe2016	-0.03102116
189	0x3d87b668	0.06626588
190	0x3e1d0f95	0.15337975
191	0x3d8e87b6	0.069594786
192	0x3cd4998a	0.02595212
193	0xbb6bfc05	-0.003600837
194	0x3d4d06e8	0.050055414
195	0x3d193d9d	0.037412275
196	0xbcb11629	-0.021617012
197	0x3e061549	0.13094057
198	0xbc923250	-0.017846256
199	0xbd80711a	-0.062715724
200	0x3c45c277	0.01207029
201	0xbdd071a6	-0.10177927
202	0x3df92267	0.12164765
203	0x3d50e619	0.05100069
204	0xbc6b310b	-0.0143549545
205	0xbd216fdc	-0.039413318
206	0x3cacfc3e	0.021116372
207	0x3ccbebac	0.02489265
208	0x3d95d2d7	0.07315605
209	0xbe22c84b	-0.15896718
210	0x3c8dec31	0.017324539
211	0x3dae1e29	0.08501846
212	0xbdba895d	-0.09108231
213	0xbd2ed273	-0.04268117
214	0xbc86d927	-0.016460968
215	0xbe038aad	-0.1284587
216	0xbdc45ce2	-0.095880285
217	0xbd08b995	-0.03338011
218	0xbc1ee821	-0.0096988985
219	0xbbe2637d	-0.0069088326
220	0xbe17d27c	-0.14826387
221	0x3d2a0880	0.041512012
222	0xbd7cfafd	-0.0617628
223	0xbd991827	-0.0747531
224	0xbc850bb3	-0.01624093
225	0xbdb86c7f	-0.09005069
226	0xbd835312	-0.06412329
227	0x3d52a358	0.051425308
228	0x3cd934e0	0.02651447
229	0x3db53ef3	0.08849897
230	0xbd369f38	-0.044585437
231	0x3d2fd552	0.042928047
232	0x3d021ccf	0.031765755
233	0x3da71797	0.08158796
234	0x3d8a21b7	0.06744712
235	0x3c383481	0.011242987
236	0xbb780685	-0.0037845683
237	0xbdcae183	-0.09906294
238	0x3d3040a7	0.043030407
239	0xbcc19002	-0.023628239
240	0xbce59d07	-0.028028978
241	0x3e122032	0.14270094
242	0xbda198cd	-0.078904726
243	0xbdbd6001	-0.09246827
244	0xbd3a89ad	-0.045541454
245	0x3e6b452e	0.22975609
246	0x3d5e1195	0.054215986
247	0x3d513aff	0.051081654
248	0xbe02f050	-0.12786984
249	0x3ddfd204	0.10928729
250	0xbd0b33fc	-0.033985123
251	0x3c4b862b	0.012422125
252	0x3d117a4f	0.035517033
253	0x3db794d3	0.08963933
254	0xbd6f74fc	-0.058461174
255	0x3cb69bcd	0.022291088

network_body._body_endoder.seq_layers.2.bias f4 [128]
0	0x00000000	0.0
1	0x00000000	0.0
2	0x00000000	0.0
3	0x00000000	0.0
4	0x00000000	0.0
5	0x00000000	0.0
6	0x00000000	0.0
7	0x00000000	0.0
8	0x00000000	0.0
9	0x00000000	0.0
10	0x00000000	0.0
11	0x00000000	0.0
12	0x00000000	0.0
13	0x00000000	0.0
14	0x00000000	0.0
15	0x00000000	0.0
16	0x00000000	0.0
17	0x00000000	0.0
18	0x00000000	0.0
19	0x00000000	0.0
20	0x00000000	0.0
21	0x00000000	0.0
22	0x00000000	0.0
23	0x00000000	0.0
24	0x00000000	0.0
25	0x00000000	0.0
26	0x00000000	0.0
27	0x00000000	0.0
28	0x00000000	0.0
29	0x00000000	0.0
30	0x00000000	0.0
31	0x00000000	0.0
32	0x00000000	0.0
33	0x00000000	0.0
34	0x00000000	0.0
35	0x00000000	0.0
36	0x00000000	0.0
37	0x00000000	0.0
38	0x00000000	0.0
39	0x00000000	0.0
40	0x00000000	0.0
41	0x00000000	0.0
42	0x00000000	0.0
43	0x00000000	0.0
44	0x00000000	0.0
45	0x00000000	0.0
46	0x00000000	0.0
47	0x00000000	0.0
48	0x00000000	0.0
49	0x00000000	0.0
50	0x00000000	0.0
51	0x00000000	0.0
52	0x00000000	0.0
53	0x00000000	0.0
54	0x00000000	0.0
55	0x00000000	0.0
56	0x00000000	0.0
57	0x00000000	0.0
58	0x00000000	0.0
59	0x00000000	0.0
60	0x00000000	0.0
61	0x00000000	0.0
62	0x00000000	0.0
63	0x00000000	0.0
64	0x00000000	0.0
65	0x00000000	0.0
66	0x00000000	0.0
67	0x00000000	0.0
68	0x00000000	0.0
69	0x00000000	0.0
70	0x00000000	0.0
71	0x00000000	0.0
72	0x00000000	0.0
73	0x00000000	0.0
74	0x00000000	0.0
75	0x00000000	0.0
76	0x00000000	0.0
77	0x00000000	0.0
78	0x00000000	0.0
79	0x00000000	0.0
80	0x00000000	0.0
81	0x00000000	0.0
82	0x00000000	0.0
83	0x00000000	0.0
84	0x00000000	0.0
85	0x00000000	0.0
86	0x00000000	0.0
87	0x00000000	0.0
88	0x00000000	0.0
89	0x00000000	0.0
90	0x00000000	0.0
91	0x00000000	0.0
92	0x00000000	0.0
93	0x00000000	0.0
94	0x00000000	0.0
95	0x00000000	0.0
96	0x00000000	0.0
97	0x00000000	0.0
98	0x00000000	0.0
99	0x00000000	0.0
100	0x00000000	0.0
101	0x00000000	0.0
102	0x00000000	0.0
103	0x00000000	0.0
104	0x00000000	0.0
105	0x00000000	0.0
106	0x00000000	0.0
107	0x00000000	0.0
108	0x00000000	0.0
109	0x00000000	0.0
110	0x00000000	0.0
111	0x00000000	0.0
112	0x00000000	0.0
113	0x00000000	0.0
114	0x00000000	0.0
115	0x00000000	0.0
116	0x00000000	0.0
117	0x00000000	0.0
118	0x00000000	0.0
119	0x00000000	0.0
120	0x00000000	0.0
121	0x00000000	0.0
122	0x00000000	0.0
123	0x00000000	0.0
124	0x00000000	0.0
125	0x00000000	0.0
126	0x00000000	0.0
127	0x00000000	0.0

action_model._continuous_distribution.log_sigma f4 [1, 2]
0	0x00000000	0.0
1	0x00000000	0.0

action_model._continuous_distribution.mu.weight f4 [2, 128]
0	0xbbadf31f	-0.0053085233
1	0x3b748302	0.0037309532
2	0xbd17258d	-0.036901046
3	0xbc6f1c0b	-0.014594088
4	0xbb86ffec	-0.0041198637
5	0xbd51af13	-0.051192354
6	0x3b945167	0.0045263055
7	0xbcca8539	-0.024721729
8	0xbcc2e26f	-0.023789613
9	0xbd056f9b	-0.03257714
10	0x3b2b40bf	0.002613112
11	0xbb2b5693	-0.0026144132
12	0x3bd85ce0	0.0066028684
13	0xbc56effa	-0.013118738
14	0xbc8565d7	-0.016283913
15	0x3cb4f653	0.022090113
16	0xb7d0f472	-2.4909361e-05
17	0x3b63f2ab	0.0034782093
18	0xbb321d5a	-0.002717814
19	0xbd032484	-0.032017246
20	0x3c15c7b4	0.009141851
21	0x3c3792d7	0.011204443
22	0xbc31a6e2	-0.010843011
23	0x3d044a4d	0.03229742
24	0xbb852afb	-0.0040639616
25	0xbb864747	-0.0040978524
26	0xbc053c42	-0.008132042
27	0x3c9c6c43	0.019094592
28	0x3b646df7	0.0034855583
29	0xbb573492	-0.003283773
30	0x3cd3d81d	0.025859887
31	0xbbde54e7	-0.0067850235
32	0x3d195886	0.03743794
33	0xbaca4b23	-0.001543377
34	0x3b7d3e83	0.0038641996
35	0x3bae274f	0.0053147445
36	0x3b685420	0.0035450533
37	0xbc0752b1	-0.008259461
38	0x3cd1d90a	0.025616188
39	0xbc9c51ea	-0.019082028
40	0xbc1bf646	-0.009519165
41	0xbcc1ca2e	-0.023655977
42	0x3bc9c6cf	0.006157733
43	0x3b302563	0.0026877753
44	0xbc880d7f	-0.016607998
45	0x3cbce4fb	0.023058405
46	0xbc04c58c	-0.0081037395
47	0xbc8e081f	-0.017337857
48	0xbcc2535b	-0.023721388
49	0xbc473cda	-0.012160504
50	0xbc5bf3ff	-0.013424872
51	0xbc02371b	-0.0079477085
52	0x3c0cebd8	0.008601151
53	0x3ba6576d	0.00507634
54	0xbca70691	-0.020388873
55	0x3cc8ac17	0.024496121
56	0x3c60f4e5	0.013730262
57	0xbcce5a47	-0.025189532
58	0x3b970b43	0.004609497
59	0xba6d54dd	-0.0009053478
60	0xbcbd8fa7	-0.023139788
61	0x3c6131d5	0.013744791
62	0xbcd80df0	-0.026373833
63	0xbc7dc10a	-0.015487919
64	0xbd4a4b4b	-0.04938821
65	0xbbd2cf1f	-0.006433382
66	0xbcc2c70c	-0.023776554
67	0x3c015b0c	0.007895242
68	0x3c44350a	0.011975536
69	0xbce18e37	-0.027533634
70	0x3be6ecda	0.007047278
71	0xbb88a3ef	-0.004169933
72	0xbc1a444f	-0.0094157
73	0x3c974930	0.018467516
74	0xbc532182	-0.012886407
75	0xbc475e72	-0.012168514
76	0xbca4a215	-0.020096818
77	0xbb5c8bbf	-0.003365263
78	0xbcb2cbfc	-0.021825783
79	0xbc94a70c	-0.01814606
80	0xbc85896d	-0.016300881
81	0x3c5b1042	0.013370575
82	0x3c619a97	0.013769767
83	0xbc91b01b	-0.017784169
84	0xbc1c409f	-0.009536891
85	0xbcbb0fb3	-0.022834634
86	0x3c90e9d2	0.01768962
87	0x3c9f49ff	0.019444464
88	0xbc26f50d	-0.010190261
89	0xbb49c2b2	-0.0030786213
90	0x3a14e483	0.0005679803
91	0xbc2b7923	-0.010465893
92	0x3c73050f	0.014832749
93	0x3c7aa34b	0.015297721
94	0x3c2f13ce	0.010685874
95	0xbc1aa560	-0.009438843
96	0xbbe305fd	-0.006928204
97	0xbc8c5f2e	-0.017135229
98	0xbc95f1cb	-0.018303772
99	0xbae7e84b	-0.001769313
100	0x3c9350ff	0.017982958
101	0x3bd40d43	0.0064713075
102	0x3b4a1af3	0.0030838817
103	0xbcfbf438	-0.030756101
104	0x3c04f3c2	0.008114757
105	0x3b3a04b4	0.002838415
106	0x3cb60993	0.022221362
107	0xbc13b3a6	-0.0090149995
108	0xbc55f3b0	-0.013058588
109	0xbc0688b7	-0.008211306
110	0xbceda9e3	-0.029011672
111	0xba25901d	-0.0006315725
112	0xba6af3cd	-0.0008962721
113	0x3c8cdc3a	0.017194856
114	0x3c135bd7	0.008994064
115	0x3b270ab3	0.0025488555
116	0xbc0b36be	-0.008496938
117	0xbbed4073	-0.007240349
118	0x3ca109b6	0.01965795
119	0xbc62b975	-0.013838162
120	0x3c9e13e0	0.019296587
121	0x3c095369	0.008381703
122	0x3ba7c7a3	0.005120234
123	0xbbc4caa3	-0.0060056015
124	0x3bac5ccf	0.005260087
125	0x3d1c1320	0.038104177
126	0xbc00bf73	-0.007858145
127	0x3cb5c47b	0.022188416
128	0x3cbd94c6	0.02314223
129	0xbc1c15a7	-0.009526647
130	0xbcb99c90	-0.022657663
131	0xbc742515	-0.014901419
132	0x3d030bc9	0.03199366
133	0xbc2c730e	-0.010525478
134	0xbcb367d3	-0.021900093
135	0xbcb63adf	-0.022244869
136	0x3bc61b2f	0.006045721
137	0xbcb48b0b	-0.022038957
138	0x3b9b171b	0.004732979
139	0x3c1ab6f3	0.009443033
140	0x3c106f97	0.008815668
141	0x3aac3c7e	0.0013140587
142	0x3d1a1cda	0.03762517
143	0xbc7c4bc8	-0.015398927
144	0xbc19bf53	-0.009383994
145	0xbbe9f4e0	-0.007139787
146	0xbc84cebf	-0.016211865
147	0xbb1ef2e9	-0.0024253672
148	0xbc4e7fea	-0.012603739
149	0xbb5a5675	-0.0033315693
150	0x3c8666b1	0.016406389
151	0x3bf89e75	0.007587249
152	0x3ba760d7	0.0051079798
153	0x3c2697d4	0.010168035
154	0xbcc22d03	-0.023703104
155	0xbc8a5e51	-0.016890677
156	0x3becb512	0.0072237337
157	0x3d6653c3	0.056232225
158	0x3bc0ddfb	0.005885837
159	0xbc0a5c66	-0.008444881
160	0xb9d78d85	-0.00041113436
161	0xbbe9f70a	-0.007140045
162	0xbc27547d	-0.010213015
163	0x3bce2bd0	0.006291844
164	0x3c177f46	0.009246653
165	0xbbb54fcb	-0.0055331937
166	0xbb8bed40	-0.0042702258
167	0xbcee7c45	-0.02911199
168	0xbad8a645	-0.0016529044
169	0xbce00547	-0.027346266
170	0x3b926ef6	0.004468794
171	0x3c7b8b13	0.015352982
172	0xbca09c17	-0.01960568
173	0xbbead0e5	-0.0071660154
174	0x3c686b8f	0.0141858
175	0x3bc3d2e4	0.005976068
176	0xbc02d315	-0.007984896
177	0x3b1503db	0.0022737894
178	0x3c18b607	0.009320742
179	0x3c9e5566	0.01932783
180	0x3a24177f	0.00062596047
181	0x3c3b6a77	0.011438957
182	0xbbd1ca5b	-0.0064022965
183	0xbcceeaa5	-0.025258372
184	0x3d2c8f7f	0.042129036
185	0x3c98d42b	0.018655857
186	0xbbdee73b	-0.006802467
187	0x3cced727	0.025249077
188	0xbd1f7e17	-0.038938608
189	0xbcc62a41	-0.02419007
190	0x3c70a335	0.014687349
191	0xbcffd587	-0.031229747
192	0xbb8affed	-0.0042419345
193	0x3b1518b3	0.0022750318
194	0x3c94e6a6	0.018176388
195	0x3b9bd944	0.0047561247
196	0x3ad9a3f2	0.0016604646
197	0x3b634b70	0.0034682415
198	0x3bef9d68	0.0073124655
199	0xbbc0f288	-0.005888287
200	0xbb6c5fa5	-0.003606775
201	0xbcc2439a	-0.023713876
202	0x3d334e09	0.043775592
203	0x3c51fe4b	0.012816976
204	0xbad6eaa7	-0.0016396836
205	0x3a4fb5d8	0.000792352
206	0x3b3e656f	0.0029052158
207	0x3c02bb42	0.007979216
208	0xbcb1975f	-0.021678625
209	0x3c11be38	0.008895449
210	0xbc373b0a	-0.01118351
211	0xbc5a7a3b	-0.013334806
212	0x3c47501a	0.012165094
213	0xbcde6f88	-0.027152792
214	0x3cce42f5	0.025178412
215	0xbcd27d9d	-0.025694663
216	0x3c9e8a72	0.019353125
217	0xba79d9bb	-0.00095310406
218	0xbcb00a00	-0.021489143
219	0x3cf716ea	0.030162293
220	0x3ab7e7d5	0.0014030883
221	0x3c5363b3	0.012902188
222	0x3cffc0a7	0.031219793
223	0xbcc31faf	-0.023818819
224	0x3aacdeee	0.0013188997
225	0xbace2fef	-0.0015730838
226	0xbcfc9983	-0.030834919
227	0x3c4b81e8	0.012421109
228	0xbc87054d	-0.01648202
229	0x3c6c5ff3	0.014427173
230	0xbc5c4f70	-0.013446674
231	0x3c58dd83	0.013236406
232	0x3b886f60	0.0041636676
233	0xbbbb8bb0	-0.005723439
234	0xbc9abb9f	-0.018888293
235	0xbc99edb6	-0.018790107
236	0x3c0454d7	0.008076868
237	0xbc28597f	-0.010275244
238	0xbcdad7d5	-0.026714245
239	0x3cfdce58	0.030982181
240	0xbb3cf607	-0.0028833167
241	0xbccc2b56	-0.024923008
242	0x3ca85279	0.020547139
243	0x3c10e39b	0.008843328
244	0x3d1d40a7	0.038391735
245	0x3c5d699b	0.013513948
246	0x3c4d70f3	0.012539136
247	0x3c9277a4	0.017879315
248	0x3b1b65ca	0.0023711794
249	0xbc0f37f8	-0.008741371
250	0xbc1eb32f	-0.009686275
251	0x3c629107	0.0138285225
252	0x3c8d2e06	0.01723386
253	0xbc434af7	-0.0119197285
254	0x3b1e15bb	0.002412184
255	0xbd01ce95	-0.031691153

action_model._continuous_distribution.mu.bias f4 [2]
0	0x00000000	0.0
1	0x00000000	0.0

network_body._body_endoder.seq_layers.0.weight f4 [128, 44]
0	0x3dfd9870	0.12382591
1	0xbda10427	-0.0786212
2	0x3d74d0c5	0.05976941
3	0xbd53f4e7	-0.05174723
4	0x3e80aba1	0.25130942
5	0x3e8d8f9e	0.27648634
6	0x3de939ad	0.11387954
7	0x3d22ac32	0.039715
8	0x3e60f663	0.21968989
9	0xbd0a4df2	-0.03376574
10	0x3cc84fef	0.024452178
11	0x3e471324	0.19440895
12	0x3c84e7fe	0.016223904
13	0x3e056647	0.13027297
14	0xbda1cbd9	-0.07900209
15	0xbc9150af	-0.017738668
16	0xbd9254f2	-0.07145108
17	0x3dec5ad1	0.11540759
18	0x3e43573b	0.19076245
19	0x3e4792e0	0.19489622
20	0xbd8f705c	-0.07003853
21	0x3da52f42	0.08065654
22	0xbe993d6e	-0.2992968
23	0x3de2bfd5	0.11071745
24	0x3e3d4f97	0.18487392
25	0x3eb5c6ce	0.35503238
26	0xbca2d2c8	-0.019875899
27	0x3cf76c01	0.030202867
28	0xbe7beea7	-0.24602757
29	0x3e78f5b3	0.24312477
30	0x3e8ec68e	0.2788586
31	0xbdbc40c0	-0.091920376
32	0xbd0ea011	-0.03482062
33	0x3e8fe447	0.2810385
34	0xbd0ac60b	-0.033880275
35	0xbe4d8ff8	-0.20074451
36	0xbe33e576	-0.17568001
37	0xbd4ad4e5	-0.04951944
38	0xbc880247	-0.016602648
39	0xbdc36b75	-0.0954198
40	0x3ea7c6e1	0.3276892
41	0x3e5e2ec0	0.21697521
42	0xbea95e13	-0.33079585
43	0xbdb25eef	-0.087095134
44	0xbe33ce46	-0.17559156
45	0xbc6549ca	-0.013994643
46	0x3e2a0329	0.16602768
47	0xbeb7d040	-0.3590107
48	0xbe5521ff	-0.2081375
49	0xbe0ecf0a	-0.13946167
50	0x3d40586e	0.046959333
51	0x3e372dee	0.17888615
52	0xbd92bc4b	-0.0716482
53	0xbbeafbba	-0.0071711214
54	0x3e612f2e	0.21990654
55	0x3e8e7c92	0.27829415
56	0x3d8f8bd8	0.07009095
57	0xbdad980a	-0.08476265
58	0x3dab2df8	0.08358377
59	0xbd5c539f	-0.053790685
60	0xbcd0e675	-0.025500515
61	0xbd7ae318	-0.06125173
62	0xbd454b48	-0.048167497
63	0x3ca650c9	0.020302193
64	0xbe40237d	-0.18763538
65	0x3c96a96e	0.018391337
66	0x3de04fbe	0.109527096
67	0x3d5d059c	0.053960428
68	0xbda43fde	-0.08019994
69	0xbe0de17e	-0.1385555
70	0x3d0c1600	0.03420067
71	0xbeb4e72b	-0.35332617
72	0x3e197986	0.14987764
73	0x3e7b7e55	0.2455991
74	0x3dc0aa32	0.09407462
75	0xbd95155d	-0.07279465
76	0x3e50bf69	0.20385517
77	0xbe0da752	-0.13833359
78	0xbe15b479	-0.14619626
79	0x3dab5a9c	0.08366892
80	0x39c80fac	0.0003815865
81	0x3e8123a2	0.25222498
82	0x3e158733	0.14602356
83	0xbe1912ec	-0.14948624
84	0x3e6628c0	0.22476482
85	0xbe13c51f	-0.14430664
86	0x3d86566f	0.06559455
87	0xbdab8b51	-0.08376182
88	0x3c2eab91	0.010661022
89	0xbd5f69ab	-0.054544132
90	0xbdc82e17	-0.09774416
91	0xbde7e617	-0.11323183
92	0xbe55ea1e	-0.2089009
93	0x3dae017c	0.08496377
94	0x3d66c786	0.056342624
95	0x3cfef0f3	0.031120753
96	0xbde1af57	-0.110197715
97	0x3e5f6e0a	0.2181932
98	0xbd88de0b	-0.06682976
99	0x3c5b7533	0.013394642
100	0xbe8a92fe	-0.2706527
101	0x3f008d12	0.50215256
102	0xbeb0a50a	-0.34500915
103	0xbdef603c	-0.11688277
104	0xbdba62e5	-0.09100894
105	0x3e620cee	0.22075245
106	0xbda3b715	-0.079939045
107	0x3e3be90a	0.18350616
108	0x3d6c8a3d	0.05774902
109	0x3dd4d919	0.103929706
110	0x3cc7c7f8	0.024387345
111	0x3e32b9ac	0.1745364
112	0x3de15a36	0.110035345
113	0x3d000f14	0.03126438
114	0x3c510ed9	0.012759888
115	0xbd0893c0	-0.03334403
116	0x3d51405e	0.051086776
117	0xbd46298c	-0.048379466
118	0xbcdc4858	-0.026889965
119	0x3dbaeb88	0.09126955
120	0xbe2dca11	-0.16971613
121	0xbc21fa9b	-0.009886409
122	0xbe059916	-0.13046679
123	0x3cb91d6e	0.022597041
124	0x3d03d1f2	0.03218264
125	0xbd079eae	-0.033110313
126	0xbe24b97f	-0.16086386
127	0xbc67f027	-0.014156378
128	0xbe967837	-0.29388592
129	0x3e570049	0.20996203
130	0xbd9b0cef	-0.07570826
131	0x3de2f95b	0.11082717
132	0x3c38a5d9	0.01127001
133	0x3d68e4c1	0.05685878
134	0xbd8ec8df	-0.06971907
135	0x3e987c7a	0.29782468
136	0xbe95549f	-0.29166123
137	0x3df24195	0.11828915
138	0x3d183ab0	0.037165344
139	0x3e407e88	0.18798268
140	0x3e0832ca	0.13300624
141	0xbad535b3	-0.0016266614
142	0x3de9b25d	0.11410973
143	0xbd4fe9a7	-0.050759938
144	0xbe3e4e16	-0.18584475
145	0x3d7238d3	0.059136223
146	0x3dc9eadd	0.0985925
147	0xbb8589cc	-0.0040752646
148	0xbc8e04de	-0.017336305
149	0xbd31567e	-0.043295376
150	0xbe0878db	-0.13327353
151	0xbe872f9d	-0.26403514
152	0x3ddb5c04	0.1071091
153	0xbeacfabf	-0.33785054
154	0xbe73c13f	-0.23804186
155	0x3df21423	0.11820247
156	0x3da5496b	0.08070644
157	0xbddf8908	-0.109148085
158	0xbe72fead	-0.23729964
159	0x3d3860e9	0.045014296
160	0xbda13be2	-0.0787275
161	0x3ce1371a	0.027492095
162	0xbe1e264f	-0.15444301
163	0xbe2e3e84	-0.17016035
164	0x3e3a30cf	0.18182682
165	0xbd19bb33	-0.037532043
166	0xbddc3526	-0.10752325
167	0x3e91465e	0.28373998
168	0x3cd5b449	0.026086943
169	0xbe975a0d	-0.2956089
170	0xbb1b1aed	-0.0023667172
171	0xbe964833	-0.2935196
172	0xbd80f5a9	-0.06296856
173	0xbd4d25b4	-0.050084785
174	0xbdd21446	-0.10257773
175	0xbeb19fb4	-0.34692156
176	0x3d5f0c3a	0.05445502
177	0x3e4107df	0.18850659
178	0x3d32a8ec	0.043618128
179	0x3d1d032f	0.038333114
180	0xbe964633	-0.29350433
181	0x3e5a3fef	0.21313451
182	0x3ea7bcff	0.3276138
183	0x3d9c038f	0.07617866
184	0x3d49edc6	0.049299024
185	0xbd2371ed	-0.03990357
186	0x3c6ca95f	0.014444678
187	0xbe3ade09	-0.18248762
188	0x3dd70a65	0.105000295
189	0x3e22c98e	0.158972
190	0xbe3db4f6	-0.18526062
191	0xbd90ed2e	-0.070764884
192	0xbe9ad866	-0.30243224
193	0xbe8013dc	-0.25015152
194	0x3dc09fa8	0.09405452
195	0xbcf48b93	-0.02985171
196	0xbdaf2435	-0.08551828
197	0x3ddde502	0.108346954
198	0xbebb3faf	-0.36572024
199	0x3e129a00	0.14316559
200	0x3d8ad361	0.067785986
201	0xbceefc0e	-0.029172923
202	0x3d811c3c	0.063042134
203	0x3d305639	0.04305098
204	0x3e698ff5	0.22808821
205	0x3de635eb	0.11240753
206	0x3d4136d9	0.047171447
207	0x3e65b822	0.22433522
208	0x3dfa62f3	0.12225904
209	0x3e1bf753	0.15231065
210	0x3d7919ab	0.060815495
211	0xbd40e266	-0.04709091
212	0x3e7a6f60	0.24456549
213	0x3e9b5c43	0.30343828
214	0x3dd79164	0.10525778
215	0xbdcf30e8	-0.1011675
216	0x3e6d93b0	0.2320087
217	0xbc53181e	-0.012884168
218	0x3e6c163f	0.23055361
219	0xbe69e814	-0.22842437
220	0x3c419199	0.011814498
221	0x3e0149dd	0.12625833
222	0x3e93267b	0.28740296
223	0x3dad899f	0.08473515
224	0xbea7e070	-0.3278842
225	0xbdb28e63	-0.08718564
226	0xbdaf91dc	-0.08572742
227	0x3ec78a81	0.38972858
228	0xbcfa7922	-0.030575339
229	0x3e866c50	0.2625451
230	0xbd8bb36c	-0.068213314
231	0x3c3044f1	0.010758624
232	0xbd87b1c8	-0.06625706
233	0xbce349c2	-0.027745131
234	0x3e567378	0.20942485
235	0x3e56cd57	0.20976768
236	0x3db0f25c	0.086399764
237	0xbe6d1351	-0.231519
238	0x3cfa496d	0.03055259
239	0x3e072381	0.13197137
240	0xbddb35e3	-0.107036375
241	0xbdea64fe	-0.11445044
242	0x3ea26e76	0.317249
243	0xbe02729f	-0.12739037
244	0xbd4848f6	-0.048897706
245	0xbe611d7a	-0.219839
246	0x3dac2618	0.08405703
247	0x3e3bfddb	0.18358557
248	0xbdc4aa6b	-0.09602817
249	0x3ea1cf63	0.31603536
250	0x3e97be7e	0.29637522
251	0xbd44c701	-0.048041347
252	0x3df03877	0.1172952
253	0x3e06eb64	0.13175732
254	0xbdfa9a3f	-0.12236451
255	0x3e13834e	0.14405558

network_body._body_endoder.seq_layers.0.bias f4 [128]
0	0x00000000	0.0
1	0x00000000	0.0
2	0x00000000	0.0
3	0x00000000	0.0
4	0x00000000	0.0
5	0x00000000	0.0
6	0x00000000	0.0
7	0x00000000	0.0
8	0x00000000	0.0
9	0x00000000	0.0
10	0x00000000	0.0
11	0x00000000	0.0
12	0x00000000	0.0
13	0x00000000	0.0
14	0x00000000	0.0
15	0x00000000	0.0
16	0x00000000	0.0
17	0x00000000	0.0
18	0x00000000	0.0
19	0x00000000	0.0
20	0x00000000	0.0
21	0x00000000	0.0
22	0x00000000	0.0
23	0x00000000	0.0
24	0x00000000	0.0
25	0x00000000	0.0
26	0x00000000	0.0
27	0x00000000	0.0
28	0x00000000	0.0
29	0x00000000	0.0
30	0x00000000	0.0
31	0x00000000	0.0
32	0x00000000	0.0
33	0x00000000	0.0
34	0x00000000	0.0
35	0x00000000	0.0
36	0x00000000	0.0
37	0x00000000	0.0
38	0x00000000	0.0
39	0x00000000	0.0
40	0x00000000	0.0
41	0x00000000	0.0
42	0x00000000	0.0
43	0x00000000	0.0
44	0x00000000	0.0
45	0x00000000	0.0
46	0x00000000	0.0
47	0x00000000	0.0
48	0x00000000	0.0
49	0x00000000	0.0
50	0x00000000	0.0
51	0x00000000	0.0
52	0x00000000	0.0
53	0x00000000	0.0
54	0x00000000	0.0
55	0x00000000	0.0
56	0x00000000	0.0
57	0x00000000	0.0
58	0x00000000	0.0
59	0x00000000	0.0
60	0x00000000	0.0
61	0x00000000	0.0
62	0x00000000	0.0
63	0x00000000	0.0
64	0x00000000	0.0
65	0x00000000	0.0
66	0x00000000	0.0
67	0x00000000	0.0
68	0x00000000	0.0
69	0x00000000	0.0
70	0x00000000	0.0
71	0x00000000	0.0
72	0x00000000	0.0
73	0x00000000	0.0
74	0x00000000	0.0
75	0x00000000	0.0
76	0x00000000	0.0
77	0x00000000	0.0
78	0x00000000	0.0
79	0x00000000	0.0
80	0x00000000	0.0
81	0x00000000	0.0
82	0x00000000	0.0
83	0x00000000	0.0
84	0x00000000	0.0
85	0x00000000	0.0
86	0x00000000	0.0
87	0x00000000	0.0
88	0x00000000	0.0
89	0x00000000	0.0
90	0x00000000	0.0
91	0x00000000	0.0
92	0x00000000	0.0
93	0x00000000	0.0
94	0x00000000	0.0
95	0x00000000	0.0
96	0x00000000	0.0
97	0x00000000	0.0
98	0x00000000	0.0
99	0x00000000	0.0
100	0x00000000	0.0
101	0x00000000	0.0
102	0x00000000	0.0
103	0x00000000	0.0
104	0x00000000	0.0
105	0x00000000	0.0
106	0x00000000	0.0
107	0x00000000	0.0
108	0x00000000	0.0
109	0x00000000	0.0
110	0x00000000	0.0
111	0x00000000	0.0
112	0x00000000	0.0
113	0x00000000	0.0
114	0x00000000	0.0
115	0x00000000	0.0
116	0x00000000	0.0
117	0x00000000	0.0
118	0x00000000	0.0
119	0x00000000	0.0
120	0x00000000	0.0
121	0x00000000	0.0
122	0x00000000	0.0
123	0x00000000	0.0
124	0x00000000	0.0
125	0x00000000	0.0
126	0x00000000	0.0
127	0x00000000	0.0

network_body._body_endoder.seq_layers.2.weight f4 [128, 128]
0	0xbcb90959	-0.022587465
1	0xbe0dd9f8	-0.1385268
2	0x3d223677	0.039602723
3	0xbdc8f4a6	-0.09812288
4	0x3c1d0ade	0.0095851105
5	0x3ca08402	0.019594196
6	0x3e222d72	0.15837649
7	0xbda4a110	-0.08038533
8	0xbd9b52cf	-0.07584154
9	0x3dbd3eff	0.09240531
10	0x3d2df692	0.042471476
11	0xbdaa579a	-0.0831749
12	0xbcf6cc28	-0.030126646
13	0x3bda8ac2	0.0066693733
14	0x3cc8843d	0.024477119
15	0x3ccfbfa9	0.025359945
16	0x3d8637d3	0.065536164
17	0xbcd43db8	-0.025908336
18	0x3dd15a0f	0.102222554
19	0xbde6fed9	-0.11279077
20	0x3d91aaf2	0.07112683
21	0x3cc79af0	0.024365872
22	0x3d983540	0.07432032
23	0xbe29583c	-0.16537565
24	0xbd876fb1	-0.066131
25	0xbcda6c5a	-0.026662994
26	0xbc55b7fe	-0.013044355
27	0xbc515879	-0.012777441
28	0x3d14bb98	0.036311716
29	0x3d7414e2	0.059590228
30	0x3cc367a5	0.023853133
31	0x3e6e6ac6	0.23282918
32	0xbd644644	-0.055731073
33	0xbd40b9da	-0.04705224
34	0xbddbb706	-0.10728268
35	0x3ae1c6bb	0.0017225364
36	0x3ced367f	0.02895665
37	0xbe39aa72	-0.18131426
38	0xbe02b273	-0.12763385
39	0x3c886d54	0.016653694
40	0xbd887e0a	-0.06664665
41	0x3d8a101f	0.06741356
42	0x3c7a5c6c	0.015280824
43	0xbca5328d	-0.020165706
44	0x3a34b357	0.0006893179
45	0x3daceb31	0.08443297
46	0x3ca8b8e8	0.020595983
47	0xbdbf05d5	-0.09327284
48	0x3c9339c2	0.017971877
49	0xbd9369a4	-0.07197884
50	0x3ce8de4b	0.02842631
51	0xbd0baf34	-0.034102634
52	0xbc8b45fa	-0.01700114
53	0xbd2a6140	-0.04159665
54	0x3c436ba8	0.011927523
55	0x3db91af0	0.09038341
56	0x3d732b21	0.059367303
57	0xbc8a9650	-0.016917378
58	0xbd6f0bb3	-0.058360767
59	0x3ded9950	0.11601508
60	0x3c994452	0.018709335
61	0x3b9cb17b	0.0047818995
62	0xbd5ecfb5	-0.054397304
63	0x3d3e3bb7	0.046443667
64	0xbcae8a09	-0.021306055
65	0x3cd2df93	0.025741374
66	0xbda361cd	-0.079776384
67	0x3c998919	0.018742131
68	0xbcca12cf	-0.024667172
69	0xbe506e06	-0.2035447
70	0x3d97458b	0.07386311
71	0xbc0f9e72	-0.008765804
72	0xbe38cebf	-0.18047617
73	0x3b5036db	0.0031770978
74	0x3d4e654f	0.050389584
75	0x3e0e2c2a	0.13884035
76	0xbd04a3e5	-0.032382865
77	0xbd0bdec3	-0.03414799
78	0x3c1cdffe	0.009574888
79	0xbc0b8223	-0.008514914
80	0x3d3f824c	0.04675512
81	0xbd86cdcf	-0.065822236
82	0x3cf8e4b3	0.03038249
83	0x3c15c566	0.009141302
84	0x3e3c82ef	0.18409322
85	0xbcedbde5	-0.029021213
86	0xbd3db7b0	-0.046317756
87	0x3ddf56a3	0.109051965
88	0xbda2ca0b	-0.07948693
89	0x3dca78db	0.098863326
90	0xbdecdaf0	-0.115651965
91	0xbe129c4f	-0.1431744
92	0x3ddd8065	0.10815505
93	0xbd4c5210	-0.04988295
94	0xbd0c1b01	-0.03420544
95	0xbd810033	-0.06298866
96	0xbcbb96f2	-0.022899125
97	0x3d4a21c2	0.0493486
98	0x3dc6080b	0.09669503
99	0xbdc657d1	-0.096847184
100	0x3d414c25	0.047191758
101	0xbceff1e0	-0.02929014
102	0xbc71516c	-0.014728885
103	0xbdaf790b	-0.08568009
104	0xbd2a7b4e	-0.0416215
105	0x3e62aaf6	0.22135529
106	0x3d1dd2c8	0.038531095
107	0x3bd248f7	0.0064173895
108	0xbd24192d	-0.040063072
109	0xbdf14bf5	-0.11782066
110	0x3c143b4d	0.0090473415
111	0xba346660	-0.000688171
112	0xbd1815b9	-0.03713009
113	0x3d352e8d	0.044233847
114	0x3da64706	0.081190154
115	0xbd2c49ec	-0.042062685
116	0x3bb457f9	0.005503651
117	0xbd053184	-0.032517925
118	0x3d0c9828	0.034324795
119	0xbc650dd3	-0.013980347
120	0x3e18dda0	0.14928293
121	0x3c93a9cc	0.018025301
122	0x3e03a022	0.12854055
123	0xbd713cab	-0.058895748
124	0x3d1df656	0.038565002
125	0xbe020c2b	-0.12699954
126	0x3de70a77	0.11281293
127	0x3e51fa4d	0.20505638
128	0x3e2076b7	0.15670286
129	0x3ddc4aee	0.10756479
130	0x3dc0f378	0.09421438
131	0xbdfaa106	-0.12237744
132	0x3cb0d881	0.021587612
133	0x3cf05bf0	0.029340714
134	0x3cbe07cc	0.023197077
135	0x3d1d899c	0.038461313
136	0x3d5321a8	0.05154577
137	0x3e0c9e85	0.13732345
138	0xbd360466	-0.04443779
139	0xbbc6fd8d	-0.006072706
140	0x3e57563b	0.21028988
141	0x3da10081	0.07861424
142	0x3d5813bb	0.05275319
143	0xbe33d752	-0.17562607
144	0x3dad1df6	0.0845298
145	0x3d348505	0.04407217
146	0xbdc869ab	-0.097857796
147	0x3d8a970b	0.067670904
148	0x3d758392	0.05993993
149	0x3ddeaa4a	0.10872324
150	0xbdcf0447	-0.10108238
151	0xbcdbd7a9	-0.026836233
152	0x3dd5e596	0.10444181
153	0xbda732a9	-0.081639595
154	0xbdc26186	-0.09491257
155	0xbcd9b4b7	-0.02657543
156	0x3dcd9ebe	0.10040043
157	0x3d6d61f2	0.057954736
158	0xbbf3811d	-0.007431163
159	0x3d2a0ad4	0.041514233
160	0xbd7b1344	-0.06129767
161	0x3e6757df	0.22592114
162	0x3d5bfca8	0.05370775
163	0xbdab8be3	-0.08376291
164	0xbd8b5f48	-0.06805283
165	0x3e8a721d	0.27040187
166	0xbd8b8c76	-0.068139
167	0x3d8c47ce	0.06849633
168	0xbd51cafc	-0.05121897
169	0x3d328e73	0.04359288
170	0xbc35aaa2	-0.011088045
171	0x3da06734	0.078321844
172	0x3d3cf2c5	0.04612996
173	0x3dfe4d7c	0.12417123
174	0x3e2296ee	0.15877888
175	0x3d0d8be8	0.034557253
176	0xbcff9690	-0.031199723
177	0x3d91f2d8	0.07126397
178	0xbe1bec67	-0.15226899
179	0xbd128579	-0.03577182
180	0xbd3b0d2d	-0.045666862
181	0x3d09c06f	0.033630785
182	0x3d1c83bd	0.038211573
183	0x3b0f39fc	0.002185463
184	0xbd9b47aa	-0.07582028
185	0xbd79aa75	-0.060953576
186	0x3dadf627	0.084942155
187	0xbc9bf0ee	-0.019035783
188	0xbd8634e9	-0.065530606
189	0x3e046409	0.12928785
190	0xbdfdab22	-0.123861566
191	0xbd9bcf19	-0.0760786
192	0x3d72ade2	0.05924786
193	0x3cad6fd7	0.021171493
194	0x3db41f76	0.08795063
195	0xbc6a114a	-0.014286349
196	0xbb47c725	-0.003048369
197	0xbbe147fb	-0.006875036
198	0x3d805173	0.06265535
199	0x3ddc7039	0.10763592
200	0x3d3dad1f	0.04630768
201	0x3db4ac43	0.08821919
202	0x3d3149e4	0.04328336
203	0x3da6d326	0.08145742
204	0x3e735dbc	0.23766226
205	0x3d372c55	0.044720013
206	0x3c8547a1	0.016269507
207	0x3e1d9737	0.15389715
208	0xbcc668dc	-0.024219923
209	0xbc889b29	-0.016675549
210	0x3d42c69b	0.047552686
211	0x3d681b0f	0.05666643
212	0x3e6978d4	0.22799999
213	0x3d0327c6	0.032020353
214	0xbdbf3619	-0.0933649
215	0xbdac6071	-0.08416832
216	0x3c9e08f6	0.019291382
217	0xbdc115b4	-0.09427968
218	0xba90550d	-0.0011011675
219	0xbccd6888	-0.025074258
220	0x3d9aa30f	0.07550632
221	0x3dbb0abf	0.09132909
222	0x3e3af78d	0.18258496
223	0xbdb50b4c	-0.08840045
224	0xbc635fd3	-0.013877827
225	0x3d096c0a	0.0335503
226	0xb9a3e2f8	-0.00031258888
227	0x3cdde37c	0.027086012
228	0xbb56804e	-0.0032730284
229	0xbcfeeb90	-0.031118184
230	0x3d4acad1	0.049509827
231	0x3c1ffa86	0.009764319
232	0x3cb0cf09	0.021583097
233	0x3c070c41	0.008242668
234	0x3d39fb38	0.045405596
235	0x3b36f099	0.0027914403
236	0xbdd90f42	-0.10598613
237	0x3d9aeb5d	0.07564423
238	0xbd8d21cd	-0.068912126
239	0x3dd0946d	0.1018456
240	0x3d1f6e52	0.03892357
241	0xbd8d43ea	-0.06897719
242	0xbbaf73cb	-0.00535438
243	0xbdb1b6b8	-0.08677429
244	0x3ba67d6e	0.0050808704
245	0x3dc01cc4	0.093804866
246	0x3cfe7b43	0.031064635
247	0xbd56750f	-0.05235773
248	0xbe1d193c	-0.15341657
249	0xbd89ca00	-0.067279816
250	0xbd885bfe	-0.06658171
251	0xbbc0de7b	-0.0058858967
252	0xbdc039c5	-0.09386019
253	0xbc9defb3	-0.019279337
254	0xbd35a0c1	-0.04434276
255	0x3d0314af	0.032002147

network_body._body_endoder.seq_layers.2.bias f4 [128]
0	0x00000000	0.0
1	0x00000000	0.0
2	0x00000000	0.0
3	0x00000000	0.0
4	0x00000000	0.0
5	0x00000000	0.0
6	0x00000000	0.0
7	0x00000000	0.0
8	0x00000000	0.0
9	0x00000000	0.0
10	0x00000000	0.0
11	0x00000000	0.0
12	0x00000000	0.0
13	0x00000000	0.0
14	0x00000000	0.0
15	0x00000000	0.0
16	0x00000000	0.0
17	0x00000000	0.0
18	0x00000000	0.0
19	0x00000000	0.0
20	0x00000000	0.0
21	0x00000000	0.0
22	0x00000000	0.0
23	0x00000000	0.0
24	0x00000000	0.0
25	0x00000000	0.0
26	0x00000000	0.0
27	0x00000000	0.0
28	0x00000000	0.0
29	0x00000000	0.0
30	0x00000000	0.0
31	0x00000000	0.0
32	0x00000000	0.0
33	0x00000000	0.0
34	0x00000000	0.0
35	0x00000000	0.0
36	0x00000000	0.0
37	0x00000000	0.0
38	0x00000000	0.0
39	0x00000000	0.0
40	0x00000000	0.0
41	0x00000000	0.0
42	0x00000000	0.0
43	0x00000000	0.0
44	0x00000000	0.0
45	0x00000000	0.0
46	0x00000000	0.0
47	0x00000000	0.0
48	0x00000000	0.0
49	0x00000000	0.0
50	0x00000000	0.0
51	0x00000000	0.0
52	0x00000000	0.0
53	0x00000000	0.0
54	0x00000000	0.0
55	0x00000000	0.0
56	0x00000000	0.0
57	0x00000000	0.0
58	0x00000000	0.0
59	0x00000000	0.0
60	0x00000000	0.0
61	0x00000000	0.0
62	0x00000000	0.0
63	0x00000000	0.0
64	0x00000000	0.0
65	0x00000000	0.0
66	0x00000000	0.0
67	0x00000000	0.0
68	0x00000000	0.0
69	0x00000000	0.0
70	0x00000000	0.0
71	0x00000000	0.0
72	0x00000000	0.0
73	0x00000000	0.0
74	0x00000000	0.0
75	0x00000000	0.0
76	0x00000000	0.0
77	0x00000000	0.0
78	0x00000000	0.0
79	0x00000000	0.0
80	0x00000000	0.0
81	0x00000000	0.0
82	0x00000000	0.0
83	0x00000000	0.0
84	0x00000000	0.0
85	0x00000000	0.0
86	0x00000000	0.0
87	0x00000000	0.0
88	0x00000000	0.0
89	0x00000000	0.0
90	0x00000000	0.0
91	0x00000000	0.0
92	0x00000000	0.0
93	0x00000000	0.0
94	0x00000000	0.0
95	0x00000000	0.0
96	0x00000000	0.0
97	0x00000000	0.0
98	0x00000000	0.0
99	0x00000000	0.0
100	0x00000000	0.0
101	0x00000000	0.0
102	0x00000000	0.0
103	0x00000000	0.0
104	0x00000000	0.0
105	0x00000000	0.0
106	0x00000000	0.0
107	0x00000000	0.0
108	0x00000000	0.0
109	0x00000000	0.0
110	0x00000000	0.0
111	0x00000000	0.0
112	0x00000000	0.0
113	0x00000000	0.0
114	0x00000000	0.0
115	0x00000000	0.0
116	0x00000000	0.0
117	0x00000000	0.0
118	0x00000000	0.0
119	0x00000000	0.0
120	0x00000000	0.0
121	0x00000000	0.0
122	0x00000000	0.0
123	0x00000000	0.0
124	0x00000000	0.0
125	0x00000000	0.0
126	0x00000000	0.0
127	0x00000000	0.0

value_heads.value_heads.extrinsic.weight f4 [1, 128]
0	0xbe428de4	-0.1899944
1	0x3daee340	0.08539438
2	0xbe53ad91	-0.20671679
3	0x3e37995c	0.17929596
4	0xbd7cc468	-0.061710745
5	0xbd3e5824	-0.046470776
6	0x3e0048e8	0.12527812
7	0xbe525722	-0.20541051
8	0x3e1f407e	0.15551946
9	0x3e4186aa	0.18899027
10	0xbe5887cd	-0.21145554
11	0xbe54fc6c	-0.20799416
12	0x3e3be192	0.18347767
13	0xbdcccea0	-0.10000348
14	0x3dae4310	0.08508885
15	0x3dcabb1c	0.098989695
16	0xbb59d200	-0.0033236742
17	0x3d5d12c0	0.05397296
18	0x3d9e60e8	0.07733327
19	0x3e2b4908	0.16727078
20	0x3dcfcd0c	0.101465315
21	0xbce64960	-0.02811116
22	0x3e34ebaa	0.17668024
23	0x3dc74418	0.09729785
24	0x3d1f74d0	0.03892976
25	0xbde3b552	-0.111185685
26	0xbd99d7d2	-0.075118676
27	0xbcd011a8	-0.025399044
28	0x3e57c6e6	0.21071967
29	0x3dabad34	0.08382645
30	0xbe368ed5	-0.17827924
31	0x3e37cadc	0.17948478
32	0x3d974cc0	0.07387686
33	0x3e38bdb8	0.18041122
34	0xbe22d752	-0.1590245
35	0x3df5a940	0.119951725
36	0xbc8b7230	-0.017022222
37	0xbca7e510	-0.020494968
38	0x3d93f820	0.072250605
39	0xbe1f2632	-0.15541914
40	0x3d9f8c98	0.07790488
41	0x3e3feca8	0.18742621
42	0xbbdcf480	-0.006743014
43	0xbe343e12	-0.17601803
44	0xbe1cd216	-0.15314516
45	0x3e5c47f4	0.21511823
46	0x3b8bf8a0	0.004271582
47	0x3e27e4e2	0.16395906
48	0xbe265394	-0.1624282
49	0xbe14691d	-0.14493223
50	0xb9b26c00	-0.00034031272
51	0x3e1cfed8	0.1533159
52	0xbdca99bf	-0.09892606
53	0xbe15dc12	-0.14634731
54	0x3e56b13a	0.20966044
55	0xbe3dac09	-0.18522657
56	0x3e03f862	0.1288772
57	0x3d6e3c48	0.058162957
58	0xbe1a70e6	-0.1508213
59	0xbe2a07ea	-0.16604581
60	0xbe4eafeb	-0.20184295
61	0x3dc1dc44	0.094658405
62	0xbe4a4ec3	-0.19756608
63	0x3d98e780	0.0746603
64	0xbd938172	-0.07202424
65	0x3c057c20	0.0081472695
66	0x3cb3f1b0	0.021965832
67	0x3dee23c0	0.116279125
68	0x3cdb1a90	0.026746064
69	0xbe35b6e9	-0.17745556
70	0xbe234ed7	-0.15948044
71	0x3bb226c0	0.0054367483
72	0xbd5fd480	-0.054646015
73	0xbc3f3f30	-0.01167278
74	0x3d68e498	0.05685863
75	0xbe1042f6	-0.14088044
76	0xbe3caaf9	-0.18424596
77	0x3e2b8d1a	0.16753045
78	0x3dfad34c	0.12247333
79	0xbe040170	-0.12891173
80	0xbe0096e6	-0.12557563
81	0x3e597486	0.21235856
82	0x3e320802	0.17385867
83	0xbe4db044	-0.20086771
84	0xbe1e2e9e	-0.1544747
85	0x3d2e04c0	0.042485
86	0xbd9c9cb0	-0.07647073
87	0xbe0fd254	-0.14045078
88	0x3c9f52d8	0.019448683
89	0xbdf31663	-0.11869504
90	0x3e06ebec	0.13175935
91	0x3e361622	0.1778188
92	0xbdc58ed0	-0.0964638
93	0x3e2fbdfa	0.17162314
94	0xbd119adc	-0.035548076
95	0xbceb9bf0	-0.02876088
96	0x3e36a4de	0.1783633
97	0xbe3eed25	-0.18645151
98	0x3e5bc470	0.21461654
99	0xbe27aa1c	-0.16373485
100	0xbdea0d94	-0.11428371
101	0xbe2ab035	-0.1666878
102	0x3d46b718	0.048514456
103	0x3dfed35c	0.12442657
104	0xbe56ece2	-0.20988801
105	0x3e1cc244	0.15308481
106	0x3c46cce0	0.012133807
107	0xbda3220c	-0.07965478
108	0x3ddc61c0	0.10760832
109	0x3e39b35e	0.1813483
110	0xbe254503	-0.16139607
111	0xbdd27ea7	-0.10278063
112	0xbe1ab4b8	-0.15108001
113	0x3d87b660	0.06626582
114	0xbc8bd530	-0.01706943
115	0x3db74ff4	0.08950797
116	0xbe189f72	-0.14904574
117	0xbc291b10	-0.010321394
118	0x3de8ee10	0.11373532
119	0xbe0fbd82	-0.14037135
120	0xbdf5ac2c	-0.1199573
121	0xbc9afc98	-0.018919274
122	0x3e0b4d5e	0.13603732
123	0xbe14d92f	-0.14535974
124	0xbe41f9fe	-0.1894302
125	0x3bc3a660	0.005970761
126	0xbc5aa910	-0.013345972
127	0x3e1fafb2	0.15594366
