results/AgenteCoche/AgenteCoche/AgenteCoche-129457.onnx (onnx, 80391 bytes, 9 tensors)

action_model._discrete_distribution.branches.0.bias f4 [3]
00000000: 443d 1ebd 49a3 8d3c 84b2 1abc
-0.038632646 0.017289774 -0.0094419755

action_model._discrete_distribution.branches.0.weight f4 [3, 128]
00000000: 3827 01bd 4818 07ba 965f 463c 8770 073a
00000010: e3eb f93c d045 68bc aa9d 533d a4e3 2a3d
00000020: ecbd 2abd 47b7 edbc cce6 093d 65b3 83bc
00000030: 547d 223d afbf 53bd 7222 0d3d dfca 183d
00000040: 9fa1 16bd 807d 13bd b630 55bc 8f07 86bd
00000050: b337 66bc 946d fe3b 4f75 35bd 85ba 493d
00000060: aef7 dabc c4f8 0fbd b323 143d 36cc 11bd
00000070: 82e4 1e3d e031 c6bc 43c1 1a3d 91e7 153d
00000080: e0e1 273d 488b a03c a1d5 4f3d 2f62 143d
00000090: c611 eaba be2a 743d fc56 023d aab1 173d
000000a0: 54b5 28bd 31fc edba 1c39 c73b dae3 e83a
000000b0: 054b 3abd 5c59 2bbd 4acb 33bd 5aa2 f5bc
000000c0: d0cf 5e3d 52f8 153d a844 48bd dbec 19bd
000000d0: 71d6 1a3d 0609 9d3c 616b f3bc fee2 b93c
000000e0: 4746 823d c4c6 2b3d acaa afbc 9003 19bc
000000f0: 0181 203d 6dcd 0e3d 0556 233c 73c7 30bc
00000100: 1114 283d c540 113d a242 193d 4f27 10bd
00000110: 7623 71bd 2f76 2f3d f9eb cf3c bf99 603d
00000120: df94 c7bc 36e6 e6bc 00cc f6bc 32bc dc3c
00000130: c5ed 06bb ff94 93bd dcd7 5c3d 979b 22bd
00000140: cf34 553d c1b2 c63c f135 6f3d 8939 e7bc
00000150: 309a 51bd 343a 653d c7fa d43c 5fd8 ff3c
00000160: 323e 373d 3e9a 313d 4249 24bc 5378 753d
00000170: b748 853c d3d7 5bbd d230 23bc 17d4 d03c
00000180: 1c80 2b3d ca2b 603d f93d fc3c b5fd 4a3d
00000190: 2821 31bd 721d aabc 09c9 96bc 6630 873d
000001a0: 86b3 03bd f23f 7f3c 0eeb a3bc c78b 81bc
000001b0: 647f 113d 5532 a13c 22d6 183d da4b 43bc
000001c0: b1de b9bc ec38 183d 388f 3abd 8b2e 2a3c
000001d0: 6e0b 733d 296a 413b 4195 183c 13af d8bc
000001e0: 3863 043c 8578 d2bb fd52 483d 636b 923d
000001f0: 11b0 f73c e22e ebbc 4cb5 4fbd b469 0dbc
00000200: 2398 a93c 6e0e e03b 1d24 35bc ab24 11bd
00000210: d30b 683c f59d 093d d099 3cbd ca49 fcbc
00000220: 5657 cb3c 5e22 a93c 3014 13bd 9a2d ba3c
00000230: ac0b 4cbd 1ed2 d93c 3ebc 633b 54fe 2abd
00000240: fede 783d 8fe5 2e3c 001f c63c d760 673d
00000250: f354 a13c 9bbf 7dbc 216f c03c 9cac 54bd
00000260: 9de6 013c 5688 e73c f136 21bb 7433 1ebb
00000270: 40ed 96bc e6b0 de3c ec54 97bc f486 71bd
00000280: 8e07 69bc 6d0c 463c a2b6 26bd 1461 91bc
00000290: 604f ddbc 3219 54bd b605 80bd f003 393c
000002a0: 7011 8a3d 3cfa e23c 5bba 0c3d 3ed2 443c
000002b0: e874 f63c 6320 fa3c 3992 b13c 7b53 a33c
000002c0: cbb1 3fbc a4c5 23bd c353 4c3d cb1a b63b
000002d0: d48c edbc e18b 923c a0e4 1c3d 6027 08bd
000002e0: 0b0e 51bd 1ebb 07bd 9d70 803b 8151 c8bb
000002f0: 5951 453c ede5 61bd 07e7 14bd 9010 583c
00000300: bcad 41bc 1c7d 3cbd 738e 3abd 7532 e53c
00000310: be38 333b 44aa 24bd b8dd 1dbd a904 1ebd
00000320: 5729 e33c 6f85 923c 61ac e93c 5aa1 b63c
00000330: 1656 443c a5cb 723d d9fb bbbc fb29 67ba
00000340: 991e 24bd 01f2 07bd 61ac b43b c53d db3c
00000350: c2c3 123d a5f9 3fbd 2751 c1bc b40d 26bd
00000360: a50a 62bd 55a2 0dbd 574b 013c f0d9 a1bc
00000370: ba44 293c 22aa 443c 057e 9f3b ef50 c8bc
00000380: cf57 dfbc 005d 1dbd 0b3c 2abd 6ce5 c5bc
00000390: 50ab 943d 3fd8 2a3d 80b9 cb3c 8380 36bd
000003a0: dfba 813d 4b76 b33c 39a6 043c 9904 ef3c
000003b0: b110 1fbd e355 9d3c 8df8 b3bc e1ad 353c
000003c0: aa86 d1bc 2758 12bd 94bd 1f3d dfb6 bcbc
000003d0: 2c6c 16bd 34d5 043c f895 033d c563 f03c
000003e0: a678 2ebc 315a 743b 604f 32bd f027 56bd
000003f0: 2635 c43b 72ca c83c 9514 073d d7a5 0bb9
-0.031531543 -0.00051534595 0.01210775 0.0005166609 0.030507987 -0.014176801 0.051664032 0.041721
-0.04168503 -0.029018058 0.03366737 -0.016076753 0.039670303 -0.051696476 0.034456678 0.037302848
-0.036775228 -0.036008358 -0.013012102 -0.065444104 -0.014051366 0.0077645276 -0.044301327 0.049250145
-0.026729431 -0.03514935 0.036166858 -0.03559514 0.03879214 -0.024193704 0.037781965 0.036597792
0.040986896 0.019597664 0.05074084 0.036226448 -0.001785808 0.059611075 0.031821236 0.037034668
-0.041188553 -0.0018156824 0.006079806 0.00177681 -0.0454817 -0.041833267 -0.043895043 -0.029984642
0.054397404 0.03661377 -0.0488936 -0.0375794 0.037802164 0.019169342 -0.029714288 0.022691246
0.063610606 0.041937605 -0.021443687 -0.009339228 0.039185528 0.034863878 0.009969239 -0.01078974
0.04103476 0.03546216 0.03741706 -0.035193738 -0.05887171 0.042837318 0.025381075 0.054834124
-0.02436298 -0.028185945 -0.030126572 0.026945207 -0.00205885 -0.07206153 0.053916797 -0.039699163
0.052052315 0.024255158 0.058401052 -0.028225677 -0.051172435 0.05596371 0.025998486 0.031231103
0.04473705 0.043359987 -0.010027232 0.059929203 0.016270025 -0.053672623 -0.00996037 0.025491757
0.04187022 0.05472926 0.03079127 0.04955836 -0.04324451 -0.020765994 -0.018406408 0.06601028
-0.03215363 0.015579211 -0.020009544 -0.015813721 0.03552188 0.01967732 0.037313588 -0.01191994
-0.022689195 0.03716366 -0.04554674 0.010387073 0.059337072 0.002951274 0.009312929 -0.02645067
0.008080296 -0.0064230585 0.04890727 0.07149389 0.030235322 -0.028708879 -0.050710008 -0.008631159
0.020702427 0.0068376577 -0.011055973 -0.03543536 0.014162975 0.033597905 -0.046045125 -0.030796904
0.024821918 0.02064627 -0.035907924 0.022726823 -0.04981582 0.02658945 0.0034749652 -0.041746452
0.060759537 0.010674848 0.024184704 0.056488838 0.019693827 -0.015487577 0.02349049 -0.051922426
0.007928518 0.028263252 -0.0024599398 -0.0024139555 -0.018423676 0.027183961 -0.018473111 -0.058966592
-0.014222993 0.0120879235 -0.040701516 -0.017746486 -0.027015388 -0.05178184 -0.06251089 0.011292443
0.06741607 0.027707212 0.03435741 0.012013016 0.030085042 0.030533021 0.02167617 0.019937268
-0.011700104 -0.039983407 0.04988457 0.005557393 -0.028997816 0.017888965 0.03830397 -0.033240676
-0.051038783 -0.033137433 0.0039196745 -0.0061132316 0.012043321 -0.055150915 -0.036353137 0.013187543
-0.011821207 -0.04601775 -0.045546006 0.027978161 0.0027347053 -0.04020144 -0.038541526 -0.038578663
0.027729673 0.017885892 0.02852458 0.022293735 0.011983415 0.05927624 -0.022947239 -0.0008818206
-0.040068243 -0.033189777 0.005513713 0.026762852 0.03583122 -0.04686894 -0.023598267 -0.040540412
-0.055185933 -0.03457864 0.007891498 -0.019757241 0.010331327 0.012003453 0.0048673176 -0.024452655
-0.02726355 -0.03841877 -0.041561168 -0.024157248 0.07259238 0.041710135 0.024868727 -0.044556152
0.06334471 0.021906992 0.008096271 0.029176997 -0.038834278 0.019205993 -0.021969104 0.011088819
-0.025576908 -0.0357286 0.038999155 -0.023036418 -0.036724254 0.008107472 0.032125443 0.029344449
-0.010648882 0.0037285204 -0.04353273 -0.05228418 0.005987781 0.024510596 0.032978613 -0.00013317853

action_model._discrete_distribution.branches.1.bias f4 [3]
00000000: a008 ce3c 3d18 d7bb b7c0 08bd
0.025150597 -0.0065641687 -0.033386912

action_model._discrete_distribution.branches.1.weight f4 [3, 128]
00000000: cfa3 a3bc ef58 603d 7345 e7bc ec54 a8bc
00000010: 4166 0d3d 4fd3 2d3d 319e 11bd aad1 8fbc
00000020: 0414 8bbb 936d 503d 3344 28bd 3965 4e3d
00000030: afbd 82bd 5ff8 8e3c d17f b13c 4c94 3dbd
00000040: b14b f6bc d4b7 523d 4124 623d 4125 203c
00000050: b13c 163d 4a23 af3c 8c7b a9ba bcd2 06bd
00000060: c897 c5bb 8333 7f3d 41a4 e8bb d537 0c3d
00000070: bba0 42bd 1eff 563d 9f40 2dbd b634 1fbd
00000080: 41fc aebc 231e 263d 64ee 12bd 0a0e 86bc
00000090: 0096 36b9 c59f 26bd fc9b 9cbc 6bf2 c53c
000000a0: c76b 43bc 546b 523d 255b 0e3d bbf9 543d
000000b0: 1b7f 193d 6230 d73c 5c69 7ebb bd32 7d3d
000000c0: bfa7 01bd 0ccb edbc a79c a33c 3713 d93c
000000d0: d796 1cbc b7f0 09bd 2661 bc3c 1acd 44bd
000000e0: 132e 0e3c a4c5 513b 2e54 b23b ba74 283c
000000f0: e62c 6b3d 5a5b 09bd a5f0 bdbc de3e 8c3c
00000100: 6dcf 0ebd a491 2dbd f5e9 f1bc 94b6 2b3d
00000110: d11f 963c 47f5 11bd 0f66 11bd dcce dabc
00000120: c2f7 433d 2002 3c3d eeec 093c 86c5 2b3d
00000130: 9c29 873d 680e 973a b666 763c 711e 763a
00000140: fc79 1ebd 281b 10bd f5a0 173d e61b 613d
00000150: ea20 c23b ed3f 3ebd 0a10 d0bc 28cf c7bc
00000160: 1eba 20bd 8504 9cbc c5ca cebc 4805 12bd
00000170: 7f60 303d 9757 e33c aec0 b13c 7c0c 53bd
00000180: 5464 57bd 9b76 0dbd 1840 25bd 4c56 3dbd
00000190: d1d6 84bc 6989 183d 73fb 343b 3448 17bd
000001a0: e5fe fb3c 63c4 6c3d 2064 243d 4c4e 373d
000001b0: 59db 22bd b640 433d 735f 1bbd a460 493d
000001c0: bc79 dbbc 0c5c 0bbd 7aa8 193d 29e9 36bd
000001d0: 0965 2fbd b7d3 4b3d 3be4 4a3d 1e89 463d
000001e0: ea22 693d a41a 6d3d f576 e8bc 411c 9f3c
000001f0: 1811 4b3d 9ecd 593d 05b2 3b3b f321 343d
00000200: af2c b33d df17 cfbc a926 01bd 84ae 10bd
00000210: 1405 6ebb 3ee5 853c 4e92 46bc 2b88 323c
00000220: 320a debc 2c36 4ebc 5e0c 4bbc 48c8 f8bb
00000230: 1f60 13bc 1770 44bd 882b 383d 2db3 613a
00000240: 38e0 bf3c 5c53 17bd ea49 82bb 70bb 8abc
00000250: 6db2 39bb e98a 4f3c e312 9bbb 582d 02bd
00000260: b418 0b3c 46ea 9cbc ebff f0bb 8c9b 0ebc
00000270: 869f 043d 69e7 fd39 284c a03b 58c4 de3c
00000280: 47a1 413c c50e f33a 2149 00bb 4c46 913b
00000290: 7017 f4bc f446 f3bc f9e6 9b3b 9f08 e13c
000002a0: a73e e13c 3969 353c b8b2 e93c 2d67 ec3b
000002b0: 24a5 e23c 299d 9f3b e55a 3fbd 2c11 90bd
000002c0: 4a97 cd3c 2fd0 51bc 9618 1c3d d94e 8fbc
000002d0: 5867 8e3c 50ac 223d f72f 9d3c a7d1 0cbd
000002e0: a82a a3bc edf6 383d 9b41 ac39 0674 1f3b
000002f0: 2959 473c c4ed 34bc c24d 1abd 40e5 fb3c
00000300: 53e1 c6bc a5e6 93bc fb93 013c dcad b43b
00000310: 0f39 cabc ab0f ebba d40d 02bd 41f5 6bbc
00000320: 3abd 75bc 256d e6bb bcd4 fdbc 6d05 e53c
00000330: 438d 1bbc f554 c93b a4b4 843d 6fc4 69bc
00000340: aef2 de3b 286d d7bc 4279 bebb 4733 c93b
00000350: a5e6 ca3b a499 a9bc 9539 9ebc d98d 5cbd
00000360: a5a9 9bbc baf4 813c 2c46 14bd 3d58 b9bb
00000370: 4688 7cbc fcd3 063d ad75 cebc 26e4 aebc
00000380: 9423 2abc dca1 09bc 812c 85bc 44c5 7abb
00000390: aa5b 673d 309e d23c 6971 703d 2fb8 d2bc
000003a0: 6357 41bd c450 49bc 756a 203c da7e e43b
000003b0: d8bc ecbb 5447 df3c 2953 3dbc 2e55 173d
000003c0: d741 c6bc 0249 6dbc e79f d0bb 9b2e a9bc
000003d0: 9a77 a43a 33af aa3b 8f85 b63c a0d2 31bc
000003e0: 107c 893c 6279 b0bc a2a8 74bc 02be fc3c
000003f0: 3202 d33c 42f7 4a3c 8caa d33c ae86 29bb
-0.019975571 0.054772314 -0.028231358 -0.020548306 0.034521345 0.042437848 -0.035551254 -0.01755603
-0.0042443294 0.050885748 -0.041080665 0.050389502 -0.063838355 0.017452417 0.021667393 -0.046284005
-0.03006539 0.051444843 0.055210356 0.009774507 0.036678974 0.021379132 -0.0012930497 -0.032915816
-0.0060300566 0.062304985 -0.0070996587 0.034232933 -0.047516566 0.052489392 -0.042297956 -0.03886863
-0.021360518 0.040556084 -0.03587188 -0.016364116 -0.00017412752 -0.04067971 -0.019117348 0.024163445
-0.011927552 0.051371887 0.03475489 0.051995974 0.037474733 0.026268188 -0.0038820123 0.061815966
-0.031654116 -0.029027484 0.019972159 0.02649842 -0.009557447 -0.03367683 0.022995543 -0.048047163
0.008677977 0.0032008672 0.005442164 0.010281736 0.057415865 -0.033534385 -0.023186037 0.017119821
-0.034865785 -0.04237522 -0.029530505 0.041922167 0.018325718 -0.035634305 -0.03549772 -0.026709966
0.047843702 0.045900464 0.008418305 0.04193642 0.06599733 0.0011524679 0.015039137 0.00093886914
-0.038690552 -0.03518215 0.037018735 0.054958247 0.005924334 -0.046447683 -0.025398273 -0.024390772
-0.039239995 -0.019045124 -0.025243172 -0.035649568 0.043060776 0.027751727 0.021698322 -0.051525578
-0.052585915 -0.03453694 -0.040344328 -0.046224877 -0.016215714 0.03724042 0.0027615696 -0.036934093
0.030761192 0.057804476 0.04013455 0.044752404 -0.039759967 0.047669135 -0.037932824 0.04916443
-0.026791446 -0.03402333 0.037514187 -0.044655953 -0.042820964 0.049762454 0.049534064 0.04847061
0.056918062 0.057886735 -0.028377036 0.019422652 0.04957685 0.053174607 0.0028640043 0.04397769
0.08748757 -0.025279937 -0.03153101 -0.03532268 -0.0036318945 0.016344663 -0.012119843 0.010896723
-0.02710447 -0.012586158 -0.012393085 -0.0075922348 -0.008995085 -0.04795846 0.04496339 0.0008609768
0.023422346 -0.036944732 -0.0039760964 -0.01693508 -0.002833511 0.012667396 -0.004732476 -0.031781524
0.008489776 -0.019154679 -0.0073547265 -0.008704077 0.032378696 0.00048428334 0.004891891 0.027193233
0.011818237 0.001854383 -0.0019574838 0.004433429 -0.029796332 -0.029696919 0.0047577587 0.027469931
0.027495695 0.01107245 0.028527603 0.007214448 0.027666636 0.00487103 -0.046717543 -0.07034525
0.025096554 -0.0128059825 0.038109384 -0.017493652 0.017383263 0.03971511 0.01918791 -0.034379628
-0.019917801 0.04515736 0.00032855276 0.002433063 0.0121672535 -0.011043016 -0.037671812 0.030748963
-0.024277365 -0.018054316 0.007908816 0.0055138897 -0.02468541 -0.0017933747 -0.03175147 -0.014401735
-0.014998728 -0.007032054 -0.030985229 0.027956689 -0.009494129 0.006144161 0.06479767 -0.014268025
0.006803832 -0.026297167 -0.005812795 0.006140146 0.0061920458 -0.020703144 -0.019314567 -0.053846214
-0.019001791 0.015863765 -0.036199734 -0.005656271 -0.0154133495 0.032917008 -0.025202597 -0.021349024
-0.010384459 -0.008400407 -0.016256573 -0.0038264552 0.056483902 0.025710195 0.058701906 -0.025722591
-0.04720248 -0.012287322 0.009791006 0.0069731297 -0.0072246604 0.027255692 -0.011555471 0.036946468
-0.024201317 -0.014482738 -0.006366718 -0.020652106 0.0012547851 0.0052088737 0.022280483 -0.01085344
0.01678279 -0.021542255 -0.014932783 0.030852322 0.025757883 0.012388052 0.025838159 -0.002586763

discrete_action_output_shape f4 [1, 2]
00000000: 0000 4040 0000 4040
3.0 3.0

network_body._body_endoder.seq_layers.0.bias f4 [128]
00000000: 0235 773d ab39 15bd 9d6c 513d 5eb1 2fbd
00000010: a45f 973c eade 263d ff44 39bd c056 c63d
00000020: 63d2 e73c a542 32bd 535f 58bd ac37 1dbd
00000030: faa1 0d3d a8d3 b9bc 09fe 20bd ab58 5b3d
00000040: 31a9 20bd 99a4 76bc 2d54 033d 61e9 673d
00000050: d6a9 293d ac8f 263d 46aa 343d 5c29 b4bc
00000060: 935b 1c3d 76fc fe3b c85a f43c 94a4 54bd
00000070: 256d 1d3d 9b57 553d e9a5 bbbc df41 05bd
00000080: dd9d 173d 1b5c b2bc a41e 0abd 70b9 31bd
00000090: 7f90 313c 7f46 443d 9bc0 cdbc 0a78 593d
000000a0: 37a1 5f3d b9ba 30bd 519b 1b3d 0dee 053d
000000b0: c737 9bbc 805a a53c e350 303d 1bca 3a3d
000000c0: 736e 283d 71e8 433d 746f 0c3d 2b47 1b3d
000000d0: 0ace d83c 8618 373d 7fec 343d c5d5 c6bb
000000e0: f487 7f3d fd37 243d 9e94 273d 140c 3e3d
000000f0: bc80 11bd a3a3 3abc bf46 27bd 4ef6 543b
00000100: 8c67 3d3d 3982 3a3d 7309 353d 6aa3 1c3d
00000110: f483 1ebd d9a4 0b3d e67d 28bd 9731 363d
00000120: 429a fe3c af58 e8bb 7e3a 1d3d 7306 2dbd
00000130: 6367 013d d871 3d3d 6468 4cbd ec44 513d
00000140: ccd2 28bd 0164 bb3c 279a 10bd c829 353d
00000150: ae30 303d 836a 4ebd 169f 46bd 2a13 383d
00000160: 4bf0 0ebd 0371 303d 4294 9bbc ea0f 8dbc
00000170: eee0 693d 0a74 5b3d 3860 e33c 80aa 343d
00000180: bb3d 16bd 0028 3c3d be2c fabc 43b0 2c3d
00000190: b8a7 ff3c ce9a 2a3d 7553 473d f4b7 36bd
000001a0: 0cb7 66bc 9ad9 b93c 84d1 5c3d 3cb3 213d
000001b0: 2a70 3dbd d4d2 333d a51c 253d 954d 50bd
000001c0: 5c9a 8b3d f5fa 223d 74b8 05bd bbd3 363d
000001d0: 8880 c03c 449d b83c da2c bf3c 1362 68bd
000001e0: f60b f33c d5eb 33bd 1d4b 293d 74c4 dfbc
000001f0: b044 123d d83f 633d 1111 42b9 9597 35bd
0.060353287 -0.03643195 0.051128972 -0.04289376 0.018478222 0.04073993 -0.045231815 0.09684515
0.028298562 -0.04352059 -0.052825283 -0.03838317 0.0345783 -0.022683933 -0.039304767 0.053551357
-0.039223853 -0.015053892 0.0320627 0.05661905 0.041421734 0.04066436 0.044107698 -0.021992378
0.03817327 0.0077815605 0.029828444 -0.051914766 0.038434166 0.0520855 -0.02290626 -0.032533523
0.037015785 -0.021772435 -0.033720627 -0.043389738 0.010837673 0.047918793 -0.025116256 0.053092994
0.054597106 -0.043146823 0.03798992 0.032697726 -0.018947495 0.020184755 0.04304589 0.0456029
0.041120958 0.047829095 0.034285977 0.037909668 0.026465435 0.04470112 0.044170853 -0.006067964
0.062385514 0.040092457 0.040913217 0.046398237 -0.03552316 -0.011391553 -0.040838953 0.0032495442
0.046241328 0.045534346 0.044198465 0.03824178 -0.03870006 0.034092758 -0.04113569 0.044480886
0.031079415 -0.00709065 0.03838586 -0.04224248 0.031592738 0.046251148 -0.049904242 0.05109112
-0.041216657 0.022874834 -0.03530326 0.0442293 0.043015175 -0.050394546 -0.04849156 0.04494015
-0.03489713 0.043076526 -0.018991593 -0.017219502 0.057099275 0.05357746 0.027755842 0.044107914
-0.036679965 0.045936584 -0.030538913 0.042160284 0.031207904 0.04165154 0.048663575 -0.044609025
-0.014081728 0.022686768 0.053910747 0.03947757 -0.046249546 0.043902233 0.04031052 -0.050855238
0.06816551 0.039790113 -0.03264661 0.044635516 0.023498788 0.022535928 0.023336817 -0.056734156
0.02966879 -0.04392608 0.0413314 -0.027315356 0.035710037 0.055480808 -0.0001850764 -0.044334013

network_body._body_endoder.seq_layers.0.weight f4 [128, 15]
00000000: 1915 bf3d 4679 d63d 8b03 b1be 9d7e c5be
00000010: 7c8b 1c3e 1744 90be 24a1 0cbe bdaf ad3d
00000020: 1de4 b4be d245 0dbb d1b4 80be ade2 233e
00000030: 9c5c e13a 86b9 e83e 582d 9ebe b291 eebd
00000040: 4506 9b3d 43e6 12be e927 29bc ebe6 6f3e
00000050: 9bbf e5be 0b40 e1bd ec6f 6cbe 6d26 383f
00000060: 70f0 8dbe 0b35 92be 4530 96be c666 9fbd
00000070: 5a7d 0bbf 5576 953e de04 c9be 6bbc 593e
00000080: 0577 6e3e ae05 b53e 2c3f 85be 9796 1ebe
00000090: d9de bc3d 04f7 2fbd 9186 95ba bf1b c8be
000000a0: 38d1 b7be befc 9d3e 81dd 9f3d ffa3 053e
000000b0: b873 33bf 8982 0d3d 9489 223e 8512 87be
000000c0: acae d33c d3b0 933e 936b a1bd 7f53 94be
000000d0: 3aa2 1ebd 8296 f3be e369 88be c21d 7d3e
000000e0: 9af4 bcbe cfaa 1f3e a3b0 f0bd 8794 893c
000000f0: b4cf 883d d23e 8a3d 6393 de3d 6294 873d
00000100: e5af 0a3d 391c 9cbd b2a0 6abd 6d6c 3e3e
00000110: 31ac efbd 901f 3a3e 8a27 363e eb70 febd
00000120: 9d57 6ebe 0880 84be 2031 b33e 1b43 0e3e
00000130: 8f9e 84bc b8ff df3e 84c9 6a3e 936f 303e
00000140: eb57 a03d 2622 6ebd b0a9 e33d 9eca 803e
00000150: 6252 943e c25c 42be 3867 93be 340f 2c3d
00000160: 4fb5 e5be f5ed dd3e 52cb 3fbe c483 84bd
00000170: 2e62 8ebd d7b1 163d f514 343e def1 63be
00000180: c537 a33e 04c4 6abd 4ff6 2f3e 743f 4bbe
00000190: 8a18 abbe 023c ddbe 6642 933e fb42 98bc
000001a0: b05f 6e3e a47b b6be a76b b93e ec44 b5be
000001b0: 1caa 073e 56d6 14bf ce8f f23b 6de3 6f3e
000001c0: 4efe ebbe 2685 9f3d 23f9 e93c 9040 14bf
000001d0: 4337 9a3d ec89 d63d 091e 883e ae96 15be
000001e0: 9a5d 1e3e 885e 82be 1088 9f3e 4656 093e
000001f0: ee7c d8bb 1aed 723e 60dd a1be 537f 743b
00000200: 6a2d d8bd d122 ea3d e410 293e f3bf 653e
00000210: 5764 01bf c06c 89bd 0258 c03e 3a0b 6e3e
00000220: aeeb 22be c5c2 4fbd 5f49 d5be 453f a93c
00000230: 8929 1fbc 3838 cdbd a29e 9cbe 6ca6 8cbe
00000240: f2ca a2bd f58a 7f3d 394f c13d 82a6 933e
00000250: fc43 babe ea33 dfbe ca61 783e 1aa3 11bf
00000260: af35 afbd 140d 4bbd 89d6 733e 62a3 203e
00000270: 4e37 163e 28b7 22bd e475 143e 8446 f0bd
00000280: 48fc bb3e 6ca9 1dbe 37a9 a1be 8012 b7be
00000290: d5d1 75bd 2cf0 26bf 5740 09be ba23 08be
000002a0: 93eb 3d3d 54ce 34be 9593 5cbd 5c50 babe
000002b0: 212e 7abe ba4c 123f 592a 48be 39ab 713e
000002c0: 2474 0dbf 3791 2abe dd8f 09bf b6f5 12be
000002d0: 936c dcbe 7558 a33e 89f0 b3bd 5064 16be
000002e0: cd5d 843e a7a4 573e 7493 103e 5c44 fbbd
000002f0: 5817 883d 8ab5 fd3c 1139 a2bd 0386 753d
00000300: c5ee d03e 1cbf 373e b6fb b63e 08d9 943e
00000310: 01b9 e4be 2a42 1dbd 4f80 16bf 2c9f 83be
00000320: 15eb e6be af22 12be ad4c a23c 5b95 fbbd
00000330: 75a5 db3c 02f5 d43d ad16 563d 59ca 893d
00000340: 76c1 02bd 8dfc bfbd 741d edbd e153 0fbf
00000350: 504a 41be a04c 00be 8d82 d33d bcfb a93d
00000360: a066 32bd f22f a4be 2796 cebe ff13 70be
00000370: 1da7 08bd 7281 9b3c c208 bc3c 9285 36be
00000380: ce30 d53c e8bf 12bf 361b 24bd 3acb 7c3e
00000390: bd07 a53e b1e7 a4be f654 3fbd 06d5 a0be
000003a0: aeee c03c f170 f8be 787e 9d3e 97f0 9ebe
000003b0: 7853 403e 6061 a13e 1d8f f63d 9975 a1be
000003c0: 7ea6 e43d 1230 db3d 561b 10bd 9e6e 343c
000003d0: bc2c 8e3e bf3d 1ebf 69e8 0e3e 2e5a eabe
000003e0: 58a2 e83e a885 b7be 4937 45be 289e 6b3e
000003f0: 85d5 503d 897d cbbc 802a 853e 6c4f 173e
0.09330196 0.1047235 -0.34573016 -0.3857316 0.15287584 -0.28176948 -0.13733345 0.08480785
-0.35330287 -0.0021556509 -0.25137952 0.16004439 0.0017193737 0.45454043 -0.3089397 -0.11648883
0.07569555 -0.1434565 -0.010324457 0.23427932 -0.44872746 -0.10998543 -0.2308957 0.71933633
-0.27722502 -0.28556094 -0.29333702 -0.07783274 -0.54488146 0.29191843 -0.39261526 0.21263282
0.2328759 0.35355896 -0.2602476 -0.15487133 0.09222192 -0.04296018 -0.0011407902 -0.3908367
-0.3590181 0.3085689 0.078059204 0.13050841 -0.7009845 0.034548316 0.15872794 -0.26381317
0.025840126 0.28845844 -0.07881846 -0.28969952 -0.03872893 -0.47575766 -0.26643285 0.24718383
-0.36905366 0.15592502 -0.11752441 0.016794456 0.06680241 0.06750263 0.108679555 0.06620099
0.033859152 -0.076225705 -0.057282157 0.18596049 -0.11702765 0.18176103 0.1778852 -0.12423881
-0.2327561 -0.2587893 0.34998417 0.13892786 -0.016188888 0.43749785 0.22928435 0.17230062
0.07829269 -0.058138035 0.1111635 0.25154585 0.28969103 -0.18980697 -0.28789687 0.042006686
-0.4486489 0.4334561 -0.18729904 -0.06470445 -0.0695232 0.036790695 0.1758612 -0.22260234
0.31878486 -0.05731584 0.17183803 -0.19848424 -0.3341716 -0.43209845 0.28761595 -0.018586626
0.2327869 -0.35641205 0.36214945 -0.35404146 0.13248485 -0.5813955 0.0074023968 0.234266
-0.46092457 0.07789068 0.02856118 -0.57911015 0.075300716 0.10475525 0.26585415 -0.14608261
0.15465394 -0.25462747 0.31158495 0.13411817 -0.0066066897 0.2372326 -0.31614208 0.0037307336
-0.10555537 0.11432422 0.1651035 0.22436504 -0.5054373 -0.067101955 0.37567145 0.2324647
-0.15910217 -0.050722856 -0.4165754 0.020660052 -0.009714493 -0.100204885 -0.30589777 -0.2747072
-0.07948865 0.06238838 0.09438939 0.28837973 -0.36379993 -0.43594295 0.24256054 -0.568895
-0.08555161 -0.04957302 0.23812307 0.15687326 0.14669535 -0.039725453 0.14498097 -0.117322
0.36715913 -0.1539666 -0.31574413 -0.35756302 -0.060014565 -0.65210223 -0.1340345 -0.13294879
0.04636724 -0.17656833 -0.053851683 -0.36389434 -0.2443166 0.57148325 -0.19547404 0.23600473
-0.5525534 -0.16656958 -0.5373514 -0.14351544 -0.43051586 0.31903425 -0.08786113 -0.14686704
0.25852814 0.21058904 0.14118749 -0.12268898 0.066450775 0.030970354 -0.07921041 0.059942257
0.40807167 0.17943996 0.35738915 0.29071832 -0.44672397 -0.038393177 -0.58789533 -0.25707376
-0.45101228 -0.14271043 0.019811952 -0.12284347 0.026812294 0.10398294 0.05226772 0.06728048
-0.03192278 -0.09374342 -0.11577883 -0.55987364 -0.18876004 -0.1252923 0.10327635 0.08299968
-0.043554902 -0.3206783 -0.40348932 -0.23445128 -0.033362497 0.018982623 0.022953395 -0.1782439
0.026024248 -0.57324076 -0.040065013 0.246869 0.32232466 -0.32208017 -0.046711884 -0.31412524
0.023551311 -0.48523667 0.3076055 -0.3104293 0.18781841 0.31519604 0.120390154 -0.31535032
0.11164568 0.10702528 -0.03518232 0.011012701 0.27768505 -0.6181297 0.13955845 -0.45771927
0.45436358 -0.3584416 -0.19259371 0.2300955 0.050984878 -0.024840133 0.26008987 0.14776391

network_body._body_endoder.seq_layers.2.bias f4 [128]
00000000: 009e 033d a5b8 283d a16a 38bd c915 19bd
00000010: 5f3b f23c 211e e63c 8412 0ebd f050 e2bc
00000020: fee0 cb3b cc64 2c3d c300 18bd b2b2 163d
00000030: 53ba 00bd d282 ae3c 31e1 c63c 2aab 20bd
00000040: 2a1b 1b3d 6c86 183d 38b9 ca3c 12d0 4d3d
00000050: ca7a 163d 8dd6 183c 380d 053d a182 13bd
00000060: 3dea b93b c4f7 3f3d 3a4a 57bc 9fab f13c
00000070: 5be5 e5bc ee28 0a3d 26d0 0bbd 66e1 cebc
00000080: 50c3 e2bc fead 0f3d 58ce 19bd 7ad3 e8bc
00000090: f87a 56bc df17 37bd 325c ffbc d916 a13c
000000a0: a33a 423d a9b5 ea3c 781d c73c 6a16 4b3d
000000b0: c078 483d e25a 443d de26 3ebb 105a 033d
000000c0: 62b4 27bd 87ff 1dbd c1c5 523d e58d 1c3d
000000d0: 92f0 36bd f130 8a3c d7dd 093d 6125 08bd
000000e0: fe72 c4bc b22a 043b 17d1 063c a9ac c6bb
000000f0: 7b0d f43c 1f69 18bd c394 1dbd c5d7 c83c
00000100: d14d 5abd 8d25 c9bc 8852 ddbc 9378 273d
00000110: 97cd ba3c 838a 55bd 7977 3cbd 1db7 15bd
00000120: 4fcd 2e3d a5ce 4d3d 61e8 4f3c b370 363d
00000130: 69cf 363d 4962 1f3d d603 383d b865 933b
00000140: 2285 43bd 1f1e 35bd 876e a83c daff cf3c
00000150: e3d8 d43c 8eeb 49bd 57dc 3fbd 159d 47bd
00000160: c6b4 07bd 0f0e 18bd 5e51 d7bc 8fef 38bd
00000170: 421b ce3c 5e5c 483d f860 fa3b 35ab 1bbd
00000180: 2cc1 40bd 388e 14bd cd3f fabc 3333 3cbd
00000190: 53aa 463d 1fc6 d13c b692 553d a26c 3fbd
000001a0: 4d90 ac3c 74cb ef3c e914 d83c 7b6f 2d3d
000001b0: 4b66 1dbd 71d3 ce3c 0f73 4fbd 18ae 613d
000001c0: 7e70 41bc 5655 b4bc 5548 073d a477 54bd
000001d0: 9ce4 1fbd 32d4 3f3d b678 2a3d f331 c13c
000001e0: 64c2 063d f51c 223d d481 50bd d126 ea3c
000001f0: a265 243d 3fba 433d e708 103d 85d3 e53c
0.032133102 0.041191716 -0.045023564 -0.03737429 0.029569326 0.028090538 -0.034685627 -0.027626485
0.0062218895 0.042088315 -0.0371101 0.03679151 -0.031427693 0.021302614 0.024277302 -0.039225735
0.037867703 0.03723757 0.024746522 0.05024726 0.036738195 0.009328497 0.03248331 -0.03601325
0.0056736753 0.046867147 -0.013140256 0.02950078 -0.028063467 0.03373044 -0.034134053 -0.025253963
-0.027681023 0.03507804 -0.0375503 -0.028421152 -0.0130908415 -0.0447005 -0.031171892 0.019664215
0.0474192 0.028651075 0.024306044 0.049581923 0.04894328 0.047938235 -0.0029014866 0.032068312
-0.04094351 -0.038573768 0.051458124 0.03822126 -0.04466302 0.01686904 0.03365883 -0.033238772
-0.023980614 0.002016705 0.008228562 -0.006063063 0.029791584 -0.037209626 -0.03847195 0.02451695
-0.053296868 -0.024554038 -0.027016893 0.040886473 0.022803111 -0.05213405 -0.046012376 -0.036551584
0.042676266 0.0502459 0.012689681 0.044541072 0.044631395 0.03891209 0.044925533 0.00449821
-0.047734387 -0.04421818 0.020560516 0.025390554 0.025982326 -0.049296908 -0.04684099 -0.04873379
-0.033131383 -0.037122782 -0.026283916 -0.045150336 0.025159482 0.048916213 0.007640954 -0.038005073
-0.047059223 -0.036268443 -0.030548 -0.045947265 0.048502278 0.025607167 0.052141868 -0.04673446
0.021064902 0.029271819 0.026377158 0.042342644 -0.038427632 0.025247307 -0.050646838 0.05509767
-0.011806605 -0.022013348 0.033027966 -0.05187191 -0.03903638 0.046833225 0.041619025 0.023583388
0.03290023 0.039578397 -0.050905064 0.028582962 0.040135987 0.04778504 0.03516474 0.028054962

network_body._body_endoder.seq_layers.2.weight f4 [128, 128]
00000000: 1ad3 113d 6783 c53c 2b55 a53d 66e6 1cbc
00000010: 24ee 293d a513 213d 2450 873b c0aa c73d
00000020: 423b 863d e475 2ebe e097 cabd 7163 f1bd
00000030: d726 283e 5285 afbd 69bf ebbd 361e 513e
00000040: 4eff af3d d78c 43bc 0643 b23d 36e2 e53d
00000050: e395 9dbd 4ea2 853d 2953 14bd eeeb 113d
00000060: 457f 6dbd 53dd 44be e38e eb3d b7be 69bd
00000070: 108b 8abd 931c 463d 6e71 1fbd 73d9 b5bd
00000080: 07bc 7a3c fbe1 55be 2250 dd3d e9e3 f33c
00000090: c297 3cbd d235 273c 9913 0d3e a7f9 993d
000000a0: fa9c 453d 694e 66bd a34d 273e 30eb 39bd
000000b0: 185e bcbd 4556 35be ae0c 463d 4e62 45bd
000000c0: 5df7 e53b cfb1 ad3d 5dfb cebd 1341 48be
000000d0: fa9d 133e 29da 50be 887f 4a3c 02e0 3cbc
000000e0: 63e9 7c3e 9386 c03c c9c1 2b3d 70f8 0b3d
000000f0: 1059 b2bd c811 1ebd 46f0 3bbe 6b17 253e
00000100: eae2 63bd d91e 17bd 2fca cebd abe7 0ebe
00000110: c3b7 c1ba 1225 fdbc 2a2b 8fbb 6553 503d
00000120: 4434 433d 5a58 9b3d 92e3 b43d f856 73bd
00000130: 6305 b93c ec7d 97bd 84e2 bcbd 0afe e73d
00000140: 4df7 05be c845 443e 52fe 5b3d 78de 6ebc
00000150: 2b22 f1bd 04f1 edbd c8c0 2a3d 135f b33d
00000160: 1879 703d f6f4 033e 9eca 873d 76ee 75bd
00000170: 6b90 78bd fd96 b33d 8936 60bd b715 b83d
00000180: b1e4 643d a06f 6abd bd5f b3bd 2d57 05bd
00000190: 0b74 92bc 43de 24bd cba4 923d 93dd 8fbd
000001a0: ea57 4abe b994 dabc 272b adbd 5ba4 02be
000001b0: 2a70 b73d 601f c63d 2440 433e dc42 6fbd
000001c0: 06d8 be3d b064 133c dcac 8d3d 63ae f43d
000001d0: a5ea 0cbd 6a50 a5bb d690 cdbc 1d60 b3bd
000001e0: 917c 8dbc 52f3 543d b57a d9bd 38fc aa3d
000001f0: e8b0 403d f0fb 813c 441a 653d dd20 5bbd
00000200: aa43 efbd e9ae c8bd 5945 bb3d a7ce 863b
00000210: f21d db3c d9eb 1c3e fce6 9f3c 8af1 42be
00000220: 3daf 16bd 36d6 c1bc ce76 c03b a115 19be
00000230: da39 fcbd 3e6d 083e b8c4 ca3d 0adc e9bc
00000240: 06e9 903d aa4a 0e3d d483 0bbe cbee aebd
00000250: 8046 d23c 4846 cabc 94b8 0bbc e78c 083e
00000260: 54fa 593d ed9a 5abd f58c af3d 0113 91bd
00000270: f6e5 3a3d 4c83 9038 a0ce 8dbd 3e2d ccbd
00000280: c28e 2e3e fab1 593d 8747 0abe a2f5 0bbe
00000290: 0285 1f3e e2fd a3bd b969 c4bd f029 6dbd
000002a0: 6472 8b3d bb0e bbbd 72bf 6dbc 327c 483e
000002b0: def1 4fbc 5d7d 643c 02cb 123e 4840 11bd
000002c0: e01e b5bd 2d9f 713d b1e7 b23d d689 c83d
000002d0: b43f a13d b901 833d f58a 7b3b a635 4b3d
000002e0: 654d d9bd 4bed 5ebd 5416 093e 92c8 fb3c
000002f0: e257 693e e3bd c43d 208d 66be 6639 97bd
00000300: 076b c2bc d1c0 df3d 2230 1cbc 7bad 06be
00000310: 04f3 03be 41f9 403c 6846 99bd 131a 913e
00000320: 2b8a f9bd 1055 263c 2961 75bd 670a 4cbd
00000330: 7b9e 4a3d 0d7c 653d 004a 98bd e9ad 04bd
00000340: 7b68 bfbd 33ca 933d ddd1 04bd 1f94 bcbd
00000350: ad5f f63d 1389 6f3d ba06 f4ba 7974 c53d
00000360: 89fc 11be b715 4a3e c358 5c3d 7458 01bd
00000370: eeb2 063e 606f 843d ebc3 863e 0edc 44bc
00000380: 4527 7e3d ab9e 0e3e a23e 93bc 86c5 c7bd
00000390: f954 2cbd 067e d13c 11b5 a83d 11b0 9cbc
000003a0: 9f9b 073d 31f2 833d 056b bd3c 1abf adbc
000003b0: 1647 b0bd ffd0 97bc 62b4 893d 5727 c1bd
000003c0: 7302 713d 0100 713c c5c6 3cbe ac6b 59bb
000003d0: 732f 18bc 9949 0bbe 2f56 97bb 0a49 7c3d
000003e0: 17a4 113b 7d2c 89bd 9c46 3dbc ce80 84bb
000003f0: 7167 b73d 9f5b 263d f7ca 0c3e 47bf 1dbe
0.035601713 0.02411051 0.08072885 -0.009576416 0.041486874 0.039325375 0.0041294266 0.09749365
0.06554271 -0.17037159 -0.09892249 -0.11786545 0.16421066 -0.08570351 -0.11511118 0.20421681
0.085936174 -0.011935434 0.0870419 0.11224787 -0.07694604 0.06525098 -0.03621212 0.03562539
-0.0579827 -0.19225053 0.11501863 -0.057066645 -0.06764805 0.048367094 -0.038926534 -0.08879366
0.015303618 -0.20886986 0.108063 0.029771762 -0.046043165 0.010205703 0.13777007 0.075183205
0.048245408 -0.05622712 0.1633821 -0.045390308 -0.091976345 -0.1770869 0.048351936 -0.048189454
0.0070180134 0.0848118 -0.101065375 -0.19556074 0.14415732 -0.20395721 0.012359507 -0.011528017
0.24698405 0.02350167 0.041932855 0.034172475 -0.087083936 -0.038591176 -0.18353376 0.16122214
-0.055636324 -0.036894653 -0.10097157 -0.13955562 -0.0014779497 -0.030901466 -0.004369159 0.05086078
0.047657266 0.07585211 0.08832468 -0.05940911 0.022585576 -0.073970646 -0.09222892 0.11327751
-0.13082619 0.19167244 0.053709336 -0.014579408 -0.11774095 -0.11618236 0.041687757 0.08758368
0.058709234 0.12886414 0.06630443 -0.060041867 -0.060684603 0.08769033 -0.05473951 0.08988517
0.05588216 -0.05723536 -0.08758495 -0.03255384 -0.0178776 -0.040251028 0.07160338 -0.07024684
-0.19760099 -0.026682245 -0.08455496 -0.12758009 0.089569405 0.09673953 0.19067436 -0.05841337
0.09318547 0.008996174 0.06917736 0.11947324 -0.034403462 -0.0050449865 -0.025093477 -0.087585665
-0.017271312 0.05198986 -0.10619108 0.08348888 0.04704371 0.015867203 0.055933252 -0.053498138
-0.11682828 -0.097989865 0.091440864 0.0041139903 0.026747677 0.15324344 0.019519322 -0.19037452
-0.036788214 -0.023661714 0.0058735376 -0.14949657 -0.12315722 0.13322923 0.099008024 -0.028547306
0.07075696 0.034739174 -0.13624507 -0.0854164 0.025668383 -0.024691716 -0.008527894 0.13335
0.053217247 -0.053370405 0.08571807 -0.07083703 0.045629464 6.890911e-05 -0.06924176 -0.09969567
0.17046645 0.053148247 -0.13503848 -0.1366792 0.15578082 -0.08007409 -0.095904775 -0.057901323
0.06808928 -0.09133669 -0.014510976 0.19578627 -0.012691943 0.013945905 0.14335254 -0.035461694
-0.088437796 0.058989692 0.08735598 0.09791915 0.078734785 0.06396813 0.0038382385 0.04961171
-0.10610465 -0.05442552 0.13387424 0.030735288 0.22787431 0.096065305 -0.22514772 -0.07383995
-0.023732675 0.10925449 -0.00953296 -0.13152115 -0.12885672 0.011778177 -0.07484132 0.28340206
-0.121845566 0.010152116 -0.059907112 -0.049814608 0.049467545 0.056026507 -0.074359894 -0.032392416
-0.093461 0.07216301 -0.032426704 -0.09207939 0.120299675 0.058480334 -0.0018617727 0.09641356
-0.14256491 0.19734846 0.053795587 -0.031578496 0.13154194 0.064665556 0.2632135 -0.012015356
0.06204917 0.13927715 -0.017974202 -0.097544715 -0.042073224 0.025572788 0.08237661 -0.019126924
0.033107396 0.06442679 0.02312232 -0.021209288 -0.086073086 -0.018532274 0.067238584 -0.094313316
0.058840226 0.014709474 -0.184352 -0.003317575 -0.0092886565 -0.13602294 -0.004618428 0.061593093
0.002222305 -0.066979386 -0.011552479 -0.004043675 0.08955277 0.04061472 0.137493 -0.15404998
