results/AgenteCoche/AgenteCoche/AgenteCoche-22912.onnx (onnx, 84560 bytes, 9 tensors)

discrete_act_size_vector f4 [1, 2]
3.0 3.0
00000000: 0000 4040 0000 4040

network_body._body_endoder.seq_layers.0.weight f4 [128, 15]
0.21476223 -0.20558687 0.01687039 0.43002138 0.064971715 0.029617473 0.04967326 -0.05677724
-0.11590171 -0.50334615 0.2542802 0.29855016 0.085872516 -0.0492641 0.15980858 -0.15277968
0.38621995 -0.019365164 -0.09216022 0.028317574 -0.040976204 0.2734169 0.12285478 -0.40516174
-0.49808908 0.69592994 0.20998299 -0.2506425 -0.16304739 -0.52744603 0.042775035 -0.13105135
0.01832949 0.37953004 0.042814396 0.20904543 -0.2628644 -0.008284574 -0.2737908 0.19250558
-0.4334493 -0.26548487 -0.027793832 0.7766847 -1.0356877 0.14052904 0.4226965 -0.14435132
-0.13681635 0.4891349 0.9407614 0.3211044 -0.39813277 0.22612557 -0.032903038 -0.17120676
-0.53815 0.15339369 0.2137133 -0.14484373 0.36616194 0.31771508 -0.54803634 0.51338947
-0.47803995 0.34236526 0.354826 0.5250226 -0.21886757 -0.31508136 -0.12627771 0.575833
-0.09270296 -0.06946958 -0.23761638 -0.16064496 -0.19100907 -0.20465973 -0.11332421 -0.04445617
-0.7053131 0.14352487 0.14323583 -0.10896471 0.11357504 -0.09882236 0.061523158 0.37505955
0.03197334 -0.1764146 -0.20851722 -0.28033245 0.18256491 0.46827775 -0.04383912 -0.4032998
-0.08024358 -0.13921674 -0.05951725 0.5714249 -0.023163183 0.70230174 0.04213483 -0.4328272
0.072610304 0.4421727 0.0747866 -0.10184263 0.56755304 -0.34123254 0.17743845 0.2537686
-0.68222123 -0.5922093 0.17750843 0.6268476 0.323653 -0.1516968 -0.04378916 -0.16037275
-0.09716597 0.020597436 -0.21136941 -0.43355384 -0.07410248 0.30250108 -0.2889073 -0.13395372
-0.052682187 0.23672757 0.2352426 -0.17482859 0.08075433 -0.6124284 -0.110143885 0.5208386
-0.19040976 -0.03512892 0.0016458776 -0.24072374 -0.63396525 0.14875911 0.23523504 -0.015685901
0.05635591 -0.089406185 0.18097751 -0.70166296 0.3220349 0.10624099 -0.22505808 0.39609808
0.13694999 -0.38795382 -0.30122858 0.39840993 -0.5315284 -0.7575398 -0.32251137 0.3300599
-0.22599526 0.12809828 -0.26483494 -0.24853475 -0.1694261 0.046418466 -0.008152942 0.12559183
0.4336209 -0.047400277 0.5690693 0.12965924 0.38699076 -0.0050845407 0.22163934 0.014632789
-0.19470756 -0.019980786 0.095514126 0.05688917 -0.02893573 0.17802005 -0.12318861 -0.5884875
0.40061885 0.086885616 -0.08069536 -0.3444903 0.106455065 0.22798537 0.5011151 -0.060069956
-0.17948914 -0.08534797 0.4564632 -0.16148363 -0.31153265 -0.2939443 0.24709399 0.12775211
0.12022571 -0.23838027 -0.18657424 0.03319093 -0.073734485 0.22096315 0.056168668 0.38060644
-0.08507812 -0.2959266 0.077138916 0.20166846 0.10905059 -0.55071044 0.047899734 0.46833545
0.34867227 0.08890461 0.033564754 0.21819852 -0.38129595 0.72599876 0.45449477 0.16094288
-0.16428944 -0.007253996 -0.14700206 -0.24715957 -0.47728497 0.037719145 0.2002005 0.09512554
-0.078519054 -0.26603398 0.87937486 0.085108705 -0.12195101 0.16363832 1.1527308 0.5293542
-0.08522818 0.3926994 0.12081502 -0.38761857 -0.057535283 0.38713187 -0.42363432 0.28456435
-0.10859147 -0.2853179 -0.17565162 0.06091719 -0.28632873 -0.2507192 -0.36595643 0.25138873
00000000: a1ea 5b3e 5d85 52be c633 8a3c c32b dc3e
00000010: e40f 853d 58a0 f23c 3076 4b3d 408f 68bd
00000020: e05d edbd 4bdb 00bf 0431 823e 91db 983e
00000030: eedd af3d 27c9 49bd dca4 233e 4772 1cbe
00000040: 9fbe c53e b1a3 9ebc 7fbe bcbd 42fa e73c
00000050: aad6 27bd 4dfd 8b3e 499b fb3d 5c71 cfbe
00000060: 8805 ffbe 7728 323f c805 573e 3754 80be
00000070: e5f5 26be b406 07bf e034 2f3d 5332 06be
00000080: ba27 963c c351 c23e 265e 2f3d 0110 563e
00000090: 2a96 86be 06bc 07bc 4f2e 8cbe 2f20 453e
000000a0: 11ed ddbe a2ed 87be e4af e3bc cfd4 463f
000000b0: 6a91 84bf d8e6 0f3e ad6b d83e d5d0 13be
000000c0: 9619 0cbe e46f fa3e bdd5 703f cc67 a43e
000000d0: 0fd8 cbbe 768d 673e 56c5 06bd d350 2fbe
000000e0: 33c4 09bf 3c13 1d3e a9d7 5a3e ea51 14be
000000f0: 9479 bb3e 8dab a23e 1c4c 0cbf 7e6d 033f
00000100: a7c1 f4be 804a af3e c1ab b53e e267 063f
00000110: d21e 60be 5852 a1be f24e 01be cb69 133f
00000120: 0ddb bdbd 1146 8ebd b551 73be 1d80 24be
00000130: e297 43be 5292 51be 8616 e8bd ac17 36bd
00000140: 668f 34bf 2ff8 123e 6aac 123e e428 dfbd
00000150: 089a e83d 6163 cabd b5ff 7b3d ce07 c03e
00000160: 7af6 023d 07a6 34be 8a85 55be bc87 8fbe
00000170: 4cf2 3a3e 1ac2 ef3e a690 33bd 507d cebe
00000180: bf56 a4bd d58e 0ebe 5cc8 73bd e748 123f
00000190: b7c0 bdbc 0cca 333f 9295 2c3d 879b ddbe
000001a0: b6b4 943d 7664 e23e b829 993d de92 d0bd
000001b0: 284b 113f 08b6 aebe 6db2 353e f5ed 813e
000001c0: 0da6 2ebf 079b 17bf c5c4 353e 1679 203f
000001d0: d9b5 a53e 6856 1bbe 435c 33bd c138 24be
000001e0: f4fe c6bd f4bb a83c 3971 58be c5fa ddbe
000001f0: 0bc3 97bd 6ce1 9a3e a8eb 93be 2a2b 09be
00000200: 47c9 57bd b668 723e 70e3 703e 4406 33be
00000210: 8762 a53d 1cc8 1cbf 1e93 e1bd ae55 053f
00000220: c7fa 42be 58e3 0fbd 7dba d73a 4980 76be
00000230: 8c4b 22bf 4f54 183e 74e1 703e b87f 80bc
00000240: 74d5 663d 971a b7bd 2b52 393e 2fa0 33bf
00000250: c2e1 a43e e094 d93d a075 66be 5ecd ca3e
00000260: 9e3c 0c3e e2a1 c6be a23a 9abe 63fc cb3e
00000270: 3f12 08bf 21ee 41bf 3620 a5be 9cfd a83e
00000280: 4d6b 67be 322c 033e 7298 87be e57f 7ebe
00000290: 097e 2dbe 4a21 3e3d eb93 05bc 259b 003e
000002a0: 8f03 de3e cb26 42bd 87ae 113f 64c5 043e
000002b0: a723 c63e 389c a6bb 6cf5 623e 5ebe 6f3c
000002c0: 6b61 47be bfae a3bc e99c c33d 9e04 693d
000002d0: a00a edbc e34a 363e 4f4a fcbd 1ea7 16bf
000002e0: ea1d cd3e 16f1 b13d 9c43 a5bd 0861 b0be
000002f0: 1d05 da3d ff74 693e 1449 003f ea0b 76bd
00000300: 00cc 37be ebca aebd 8bb5 e93e f75b 25be
00000310: 3581 9fbe de7f 96be 3506 7d3e 73d1 023e
00000320: e638 f63d f519 74be 510d 3fbe 36f3 073d
00000330: 1b02 97bd 2a44 623e 1e11 663d d9de c23e
00000340: 703d aebd b183 97be 02fb 9d3d 2d82 4e3e
00000350: ea55 df3d 5cfb 0cbf 8332 443d aac9 ef3e
00000360: 2c85 b23e 9f13 b63d 327b 093d 6f6f 5f3e
00000370: 3939 c3be 0edb 393f 8ab3 e83e 36ce 243e
00000380: 7e3b 28be eeb2 edbb b587 16be 6617 7dbe
00000390: b25e f4be 647f 1a3d 5c01 4d3e 2ed1 c23d
000003a0: 99ce a0bd 9b35 88be b61e 613f 794d ae3d
000003b0: 73c1 f9bd ce90 273e af8c 933f c283 073f
000003c0: 1d8c aebd e50f c93e dd6d f73d f175 c6be
000003d0: 1eaa 6bbd 2636 c63e 99e6 d8be 6bb2 913e
000003e0: 3465 debd 3015 92be 05de 33be 4e84 793d
000003f0: ae99 92be 445e 80be a45e bbbe 06b6 803e

network_body._body_endoder.seq_layers.0.bias f4 [128]
0.13931549 -0.044851337 0.13291588 0.11546977 0.14517123 -0.19697037 -0.12022132 0.17627724
0.055744085 0.14775412 0.07514891 -0.0070970426 0.061218783 -0.16357797 0.18295735 0.07348351
-0.11130212 0.108906634 0.18275471 0.18534198 0.06397722 0.21987872 -0.10900687 0.08332398
-0.029230634 -0.15990509 0.10503682 0.07188287 0.24017715 0.08680387 0.04494011 0.23283634
0.1298774 -0.18412663 -0.046234477 0.057344012 0.060883246 0.19538872 0.053478338 0.035812687
0.05780134 0.2006163 0.043896124 0.1511445 0.2439183 0.07501784 -0.12356183 0.048510056
0.0016159263 -0.096119754 0.044050977 0.2084842 0.17705369 -0.10076778 -0.025613006 0.07078445
-0.019495392 0.033991948 0.19007006 -0.0295597 0.008206964 -0.088636726 0.2266421 0.017458156
0.20654786 0.18230279 0.18212545 0.028324952 0.16911377 -0.058638573 0.019814886 0.12674734
-0.18620214 0.04858301 0.17814739 0.07057996 -0.20345616 0.044861004 -0.03755446 0.14486319
0.14938542 0.16772516 0.13018748 -0.00023018308 0.12308269 0.09538934 0.10383391 0.1626088
0.04345072 0.07897203 -0.078882106 0.028557064 0.073429 0.21509443 0.19991021 -0.15672418
0.19242106 -0.20075187 0.05117043 0.114166364 0.0761205 -0.14025949 -0.013955977 0.093623154
0.11154081 -0.055023868 0.03472033 0.07636763 -0.102617346 0.07044955 -0.018045446 0.042964377
0.11068356 0.010863025 0.045450106 -0.07865936 0.013575498 0.16138579 0.16328216 0.042240273
0.08541484 0.124948986 0.16183482 0.15089948 0.064559706 -0.030651381 0.08366371 -0.2697965
00000000: b8a8 0e3e 09b6 37bd 1a1b 083e 6a7b ec3d
00000010: c4a7 143e 9ab2 49be 9836 f6bd 0582 343e
00000020: e953 643d db4c 173e ace7 993d 4f8e e8bb
00000030: 8cc0 7a3d fc80 27be 2c59 3b3e 867e 963d
00000040: 5ef2 e3bd 710a df3d 0d24 3b3e 4aca 3d3e
00000050: 7d06 833d e327 613e fe3e dfbd c3a5 aa3d
00000060: 1575 efbc 29be 23be 8b1d d73d 5337 933d
00000070: 00f1 753e 3ac6 b13d 1f13 383d a66c 6e3e
00000080: 95fe 043e b18b 3cbe 5d60 3dbd 8ee1 6a3d
00000090: b660 793d fb13 483e 1a0c 5b3d 53b0 123d
000000a0: 19c1 6c3d 5c6e 4d3e 6ccc 333d a0c5 1a3e
000000b0: b8c5 793e f4a2 993d fc0d fdbd 7bb2 463d
000000c0: 7dcd d33a 6fda c4bd cc6e 343d e27c 553e
000000d0: 904d 353e 565f cebd 5ed2 d1bc 70f7 903d
000000e0: cdb4 9fbc 243b 0b3d baa1 423e 2f27 f2bc
000000f0: 8076 063c 2c87 b5bd de14 683e 6804 8f3c
00000100: 4881 533e 95ad 3a3e 187f 3a3e bb09 e83c
00000110: 292c 2d3e 002f 70bd d452 a23c 0eca 013e
00000120: c6ab 3ebe fafe 463d 456c 363e 3a8c 903d
00000130: d056 50be 2cc0 373d b5d2 19bd 0457 143e
00000140: 7ef8 183e 25c0 2b3e de4f 053e 4d5d 71b9
00000150: c712 fc3d 7c5b c33d dfa6 d43d ec82 263e
00000160: 62f9 313d 16bc a13d f18c a1bd 81f0 e93c
00000170: f261 963d b741 5c3e 43b5 4c3e 4e7c 20be
00000180: 070a 453e e691 4dbe 1698 513d 0ed0 e93d
00000190: 11e5 9b3d 2fa0 0fbe 9ca7 64bc 7fbd bf3d
000001a0: 826f e43d b560 61bd e836 0e3d a266 9c3d
000001b0: 0b29 d2bd db47 903d 0bd4 93bc 6afb 2f3d
000001c0: 10ae e23d d4fa 313c e429 3a3d 2918 a1bd
000001d0: c46b 5e3c 5142 253e 7033 273e 2304 2d3d
000001e0: faed ae3d 41e5 ff3d 07b8 253e 6585 1a3e
000001f0: e137 843d 9b18 fbbc e157 ab3d c422 8abe

network_body._body_endoder.seq_layers.2.weight f4 [128, 128]
0.07914777 -0.04940796 0.446524 0.03242529 -0.29066175 0.024661966 0.2267301 0.16677968
-0.04910489 -0.011620473 -0.10083288 -0.021725668 -0.15690637 -0.030445226 -0.20476426 -0.12732054
-0.23546764 0.0046426994 0.052712653 -0.11350331 -0.11434591 0.14691585 0.25798365 0.15841898
0.14027685 0.162594 0.2459973 0.026217088 -0.07634353 0.30671594 -0.073928915 0.04370711
0.0034528847 -0.0071617574 0.14631368 0.071035415 0.25336474 0.09011565 0.31340727 0.010145269
0.0011767363 0.21884948 0.23070666 -0.15925482 0.24049637 -0.03299514 0.20363565 0.09243287
-0.06811144 -0.1738917 0.09511242 0.43133092 0.09443439 -0.048854414 -0.0058797146 0.32289746
-0.1962323 -0.1060049 -0.17779662 0.19834295 0.083805904 -0.029948344 -0.24406943 -0.0018051083
-0.010167562 0.050037786 -0.25094682 -0.024394471 0.08396773 -0.011807207 0.22479999 0.16844437
-0.19673915 0.36948338 0.15398526 0.20444162 0.23081586 0.24660076 -0.19102708 -0.2961511
0.18818264 -0.13108228 0.14485526 0.016223604 -0.015477652 0.052858062 0.11628798 0.09644658
-0.36498886 0.12322103 0.1746662 0.20556194 -0.071647674 0.1418367 -0.42374018 -0.08325321
-0.35302073 -0.0910522 0.008107706 0.1489069 0.13700408 -0.018460868 -0.129902 0.2598753
0.07268509 0.027405845 0.01618634 0.12635963 -0.11569597 0.059244644 -0.11379132 0.34878126
0.17754574 0.15476513 0.17272247 -0.029032733 -0.22380996 0.31427902 0.16850084 0.08529173
0.13509491 0.05466946 -0.3133251 0.19362725 0.021961182 -0.09049595 0.27714032 -0.1306994
0.073905766 -0.0030309227 -0.026813181 0.02221548 0.10783177 -0.13556065 0.09171246 -0.068112515
-0.03794517 -0.01423542 -0.12392067 0.012348392 -0.066446096 -0.23587207 0.32477915 -0.0062928363
-0.0809651 -0.43747985 -0.03099822 0.08429369 0.23706867 -0.030757364 0.07933422 0.18114556
0.04200772 -0.04156897 -0.04860253 0.06123972 -0.0477531 0.05070434 -0.11305538 0.18430969
-0.021903176 -0.08001899 -0.07310818 0.059341393 -0.070128426 -0.1704257 -0.13300507 0.030340042
0.13244309 -0.11191549 -0.12211863 0.10465572 -0.13013014 0.24863634 -0.15075354 0.1916068
0.12240938 -0.18714818 0.016409863 -0.29352397 0.106047146 -0.13275154 -0.016246663 -0.17680624
0.024731064 0.2616465 -0.05931721 0.0009917464 0.026669543 0.05499211 0.067306526 -0.1381181
-0.08604251 0.11007238 -0.021128466 0.005401127 -0.016846212 -0.40684322 -0.010697704 0.17139085
-0.25573984 0.14357744 -0.0011924548 -0.33262908 -0.025604956 0.254438 -0.02902486 0.18007983
-0.26581937 0.0029582945 -0.0048819087 -0.040281404 0.27029827 0.011683231 -0.10725691 -0.11900865
0.127569 -0.066545844 -0.12496018 -0.2431249 0.030715859 0.10958144 0.16225706 0.17021213
0.2063441 0.110259034 -0.008905212 -0.34005585 -0.07267068 -0.26435566 0.14463641 0.06693741
-0.3052604 -0.21353626 -0.2632098 0.22389683 0.27192843 -0.077689424 0.32798705 0.09607408
0.008128168 -0.071645066 0.102837816 -0.110164456 -0.005415219 -0.22998285 -0.024081336 0.12182919
0.06912514 0.04003679 0.097012185 0.0504808 0.0012383679 0.11759992 -0.1835823 -0.12655666
00000000: 3a18 a23d 0060 4abd cb9e e43e 62d0 043d
00000010: 9ed1 94be e407 ca3c ef2b 683e 4bc8 2a3e
00000020: 3622 49bd cc63 3ebc 7881 cebd 07fa b1bc
00000030: 10ac 20be 4468 f9bc b9ad 51be 5160 02be
00000040: 6e1e 71be c921 983b 39e9 573d 6c74 e8bd
00000050: 302e eabd 1c71 163e 6f16 843e 9638 223e
00000060: bca4 0f3e 0b7f 263e b7e6 7b3e 38c5 d63c
00000070: ff59 9cbd df09 9d3e 0b68 97bd 3a06 333d
00000080: cb49 623b 2dad eabb 41d3 153e 047b 913d
00000090: 06b9 813e 8e8e b83d eb76 a03e 5838 263c
000000a0: b83c 9a3a 141a 603e 5e3e 6c3e b213 23be
000000b0: ae44 763e e925 07bd dd85 503e 724d bd3d
000000c0: 037e 8bbd aa10 32be 4dca c23d 68d7 dc3e
000000d0: d166 c13d 911b 48bd 9faa c0bb d152 a53e
000000e0: 1ff1 48be 1919 d9bd 5110 36be 6a1a 4b3e
000000f0: 6ea2 ab3d 3b56 f5bc 56ed 79be 6299 ecba
00000100: d995 26bc 6cf4 4c3d 1a7c 80be ead6 c7bc
00000110: 46f7 ab3d 0473 41bc f831 663e ae7c 2c3e
00000120: fd75 49be ed2c bd3e 50ae 1d3e 2559 513e
00000130: fe5a 6c3e e984 7c3e 9a9c 43be 1ea1 97be
00000140: f3b2 403e 6f3a 06be f054 143e 5de7 843c
00000150: fa95 7dbc b281 583d 6428 ee3d c985 c53d
00000160: d2df babe 4f5b fc3d b2db 323e d47e 523e
00000170: 04bc 92bd a43d 113e 79f4 d8be a980 aabd
00000180: 22bf b4be 9379 babd 2fd6 043c 0d7b 183e
00000190: cc4a 0c3e 3f3b 97bc 0805 05be 600e 853e
000001a0: ecdb 943d 3982 e03c 3799 843c 6b64 013e
000001b0: 02f2 ecbd 83aa 723d 6c0b e9bd 7593 b23e
000001c0: 8dce 353e c07a 1e3e 29de 303e 0ed6 edbc
000001d0: 702e 65be 2ee9 a03e 7c8b 2c3e 6ead ae3d
000001e0: 5256 0a3e 15ed 5f3d 266c a0be 3946 463e
000001f0: f0e7 b33c f155 b9bd 56e5 8d3e 10d6 05be
00000200: e85b 973d 72a2 46bb 51a7 dbbc 3dfd b53c
00000210: e7d6 dc3d 69d0 0abe bed3 bb3d 937e 8bbd
00000220: 656c 1bbd ae3b 69bc 1fca fdbd e950 4a3c
00000230: e414 88bd 7388 71be 7449 a63e 2334 cebb
00000240: 08d1 a5bd 5cfd dfbe fbef fdbc 2ca2 ac3d
00000250: 21c2 723e def6 fbbc fb79 a23d 397e 393e
00000260: 4910 2c3d 3944 2abd 7213 47bd 80d6 7a3d
00000270: c198 43bd 5baf 4f3d 9489 e7bd aebb 3c3e
00000280: 4a6e b3bc ffe0 a3bd beb9 95bd f60f 733d
00000290: 7e9f 8fbd 1384 2ebe 7b32 08be ae8b f83c
000002a0: 299f 073e f333 e5bd 5519 fabd bd55 d63d
000002b0: d640 05be 869a 7e3e 235f 1abe 9334 443e
000002c0: c5b1 fa3d c6a3 3fbe fa6d 863c c648 96be
000002d0: 3f2f d93d 05f0 07be b917 85bc b20c 35be
000002e0: cd98 ca3c 88f6 853e 9af6 72bd 7dfd 813a
000002f0: 167a da3c 683f 613d 01d8 893d d56e 0dbe
00000300: 0e37 b0bd a16d e13d 9b15 adbc f0fb b03b
00000310: 1101 8abc c14d d0be 6c45 2fbc 1581 2f3e
00000320: 55f0 82be f705 133e 254c 9cba 5c4e aabe
00000330: 7cc1 d1bc b345 823e 8bc5 edbc d966 383e
00000340: 7a19 88be f2df 413b 6bf8 9fbb 1dfe 24bd
00000350: 8964 8a3e 066b 3f3c 83a9 dbbd cfba f3bd
00000360: 73a1 023e 3049 88bd 1feb ffbd bcf5 78be
00000370: d39f fb3c 3c6c e03d b726 263e 174c 2e3e
00000380: de4b 533e 7dcf e13d 2be7 11bc cd1b aebe
00000390: 5ed4 94bd a059 87be 911b 143e 7b16 893d
000003a0: 174b 9cbe 40a9 5abe 6fc3 86be 3645 653e
000003b0: 343a 8b3e a21b 9fbd ebed a73e 7dc2 c43d
000003c0: 022c 053c a6ba 92bd a29c d23d e79d e1bd
000003d0: 2672 b1bb a080 6bbe 3946 c5bc 9581 f93d
000003e0: 7b91 8d3d 9efd 233d 53ae c63d f5c4 4e3d
000003f0: bb50 a23a 3ad8 f03d 00fd 3bbe 1298 01be

network_body._body_endoder.seq_layers.2.bias f4 [128]
0.068881944 0.06819364 0.07393684 -0.007980475 -0.19547479 -0.018076802 -0.16043243 -0.0053619016
-0.11851705 -0.04460522 0.12129436 -0.17198251 0.026499711 0.0166228 -0.005864406 -0.08309523
-0.03934486 0.083445236 0.00090156647 0.15433663 0.10090277 -0.28310332 0.04678446 -0.1898535
-0.087314665 -0.0785768 -0.11483638 0.14894024 0.09003274 -0.09593492 -0.1569719 -0.016210116
-0.048207063 0.2127293 0.025559636 0.08027822 -0.13963857 0.048436634 0.049904242 -0.34357226
0.06385773 0.081729546 0.18359645 0.0011644836 0.022430977 0.0063559106 0.10219921 -0.0015267774
-0.0935182 0.1939188 0.16921578 0.17488234 -0.11577233 -0.03870933 0.028142279 0.04630575
0.069044486 -0.019376677 0.18308581 -0.105193846 -0.12122872 -0.09869425 0.052012317 0.15294069
-0.0022023206 0.18549071 0.008938605 0.08291804 0.09925303 0.04329372 0.12345883 0.014872877
-0.19740543 -0.020521788 -0.10277294 -0.24577816 0.20440514 0.12018663 0.034000494 0.18973036
0.17205216 0.056104463 0.12632312 -0.098338544 0.100283235 -0.103060074 -0.0862477 -0.057547424
-0.061843857 0.04358256 0.04811894 0.031234404 -0.014567709 -0.13672559 -0.12166715 0.13545765
-0.11065986 -0.040556874 0.016716553 -0.119701646 0.00010837581 0.02153307 -0.009854761 -0.16398859
0.07393503 -0.030689105 0.0056918873 -0.1188828 -0.08644902 0.15193331 0.15297785 -0.018019678
0.090222366 -0.061492294 -0.26289302 0.08188711 0.015105092 -0.32370573 0.00074842817 0.08900953
-0.12457707 -0.0087422235 0.1325472 -0.02181051 0.090343006 -0.036938604 0.14902507 -0.130553
00000000: fa11 8d3d 1ba9 8b3d 336c 973d 8ac0 02bc
00000010: 8b2a 48be cd15 94bc 6648 24be e4b2 afbb
00000020: 11b9 f2bd f7b3 36bd 2d69 f83d 2f1c 30be
00000030: ec15 d93c 8a2c 883c 342a c0bb d52d aabd
00000040: 1328 21bd 56e5 aa3d 1a57 6c3a 6c0a 1e3e
00000050: 1da6 ce3d ebf2 90be 10a1 3f3d f568 42be
00000060: 08d2 b2bd e0ec a0bd 562f ebbd ca83 183e
00000070: 1663 b83d 8779 c4bd 3ebd 20be 14cb 84bc
00000080: c574 45bd b6d5 593e 7162 d13c e868 a43d
00000090: 6afd 0ebe 7e65 463d 6468 4c3d b4e8 afbe
000000a0: d7c7 823d d261 a73d b500 3c3e 96a1 983a
000000b0: 2bc1 b73c 3e45 d03b d24d d13d 261e c8ba
000000c0: 7886 bfbd a692 463e e746 2d3e 5b14 333e
000000d0: 0b1a edbd ad8d 1ebd a38a e63c 19ab 3d3d
000000e0: 3267 8d3d d6bb 9ebc d97a 3b3e df6f d7bd
000000f0: c346 f8bd 3620 cabd de0a 553d 7c9c 1c3e
00000100: cf54 10bb 47f1 3d3e 3a73 123c efd0 a93d
00000110: 2c45 cb3d c154 313d fcd7 fc3d 5ead 733c
00000120: a624 4abe 4f1d a8bc 9f7a d2bd 45ad 7bbe
00000130: 954f 513e 6824 f63d 1a44 0b3d ad48 423e
00000140: 712e 303e cbcd 653d d95a 013e b865 c9bd
00000150: 4c61 cd3d 2911 d3bd a2a2 b0bd d9b6 6bbd
00000160: fc4f 7dbd a083 323d 5e18 453d 4bdf ff3c
00000170: 66ad 6ebc cb01 0cbe a02c f9bd 69b5 0a3e
00000180: a3a1 e2bd f71e 26bd 27f1 883c 2326 f5bd
00000190: d247 e338 1f66 b03c dd75 21bc a0ec 27be
000001a0: 406b 973d b867 fbbc 0383 ba3b d378 f3bd
000001b0: 2f0c b1bd 6894 1b3e 3aa6 1c3e 019e 93bc
000001c0: 81c6 b83d 58df 7bbd ea99 86be 6eb4 a73d
000001d0: 597b 773c c2bc a5be 2a32 443a a14a b63d
000001e0: 4322 ffbd 8b3b 0fbc 74ba 073e f4ab b2bc
000001f0: c105 b93d ef4c 17bd 079a 183e b0af 05be

action_model._discrete_distribution.branches.0.weight f4 [3, 128]
0.05006553 0.018890906 0.090753615 -0.03474474 -0.20321794 -0.035298407 -0.025848828 -0.06494774
-0.13032751 0.0474385 0.08941653 -0.22600171 0.023108859 -0.0043498203 0.025019256 -0.023806123
-0.08622842 0.0067997654 -0.04008476 -0.02920037 0.15984313 -0.20954864 0.025959905 -0.16496742
-0.2842107 -0.14638515 -0.26277104 0.16264099 0.0059478832 -0.2758472 -0.17924485 0.009025499
-0.07159742 0.29437733 -0.038087457 -0.1116701 -0.1898754 -0.010964697 0.024400916 -0.24263516
0.2434384 0.2680612 0.2130768 -0.16242068 0.025118522 0.022615291 0.060186088 -0.02609898
-0.27406877 0.3203993 0.19574942 0.06308448 -0.018144112 -0.06416622 0.04244577 0.13175893
0.24230462 -0.258662 0.060081735 -0.21538751 -0.24534118 -0.1250785 0.045440163 0.29993978
-0.1158928 0.29785755 -0.28342527 0.26307437 -0.20780756 0.023022346 0.2944646 -0.05176834
-0.16800854 -0.02138561 -0.16355838 -0.119769245 0.07531643 0.019780451 -0.86362165 0.058663446
0.07420172 -0.04650207 0.45845234 -0.15549278 0.02356005 -0.14054473 -0.25449464 -0.29542717
-0.17580101 0.09988626 -0.05629076 0.000665116 -0.090199165 -0.25223857 -0.14385992 0.1408522
-0.08944952 -0.10625282 0.08746663 -0.16571616 -0.051308464 0.02902566 0.033157133 -0.21282446
0.06517184 -0.09767538 -0.054295216 -0.23189077 -0.19103537 0.21036428 0.11280653 -0.058897905
0.20928821 -0.24941194 -0.23647128 0.12244722 -0.009204861 -0.18768495 0.016921792 0.062457647
-0.22971857 -0.011940713 0.17443083 0.1314813 0.090502195 -0.014905363 0.26287833 -0.18528292
0.03097127 -0.0005571717 -0.04822939 0.1018586 0.20668356 0.07983469 0.113318756 0.09000384
0.20513771 0.04017051 -0.049402975 0.25572354 0.06183767 0.061115466 0.08260312 -0.04075744
0.1017825 0.014808834 0.103870004 -0.017696481 -0.17645428 -0.11884038 -0.093620025 0.0037240344
0.32870302 0.19368327 0.3112836 -0.14701967 -0.021609925 0.2939726 0.07141181 0.11065551
0.023295138 -0.1952415 0.027882922 0.11324457 0.15301855 0.031321313 0.0071542864 -0.01135221
0.025720593 -0.32470557 -0.13589011 0.13053508 0.058464866 0.06669845 -0.020551177 -0.007245163
0.28919813 -0.14025412 0.03371011 -0.047123767 0.17224866 0.118664294 -0.08916088 -0.14798507
-0.3533333 0.26122037 -0.052439623 0.20479698 0.26113257 0.06187918 -0.018871129 -0.4301703
0.17243063 -0.23279382 0.33337063 -0.31037694 0.29302585 0.055555806 -0.4119696 0.0815792
0.20620984 0.083564386 0.17704736 0.14490913 -0.06641576 -0.015596153 0.94092345 -0.07652566
-0.048936415 0.023708666 -0.24194148 0.08911738 -0.014791022 0.1360454 0.2666304 0.34046993
0.18415365 -0.10291306 0.020686258 0.061904367 0.010895951 0.21231896 0.18817721 -0.09260952
0.15103461 0.10054809 0.11794357 0.060132626 0.050707206 -0.11015304 0.076786 0.3273629
-0.084836945 0.11317421 0.09790143 0.25724852 0.23654419 -0.121255465 -0.05638172 0.08363162
-0.09219078 0.18322536 0.12709412 -0.08055561 0.10260093 -0.052603904 0.07412994 0.022007173
0.19117679 0.08209984 -0.1914532 -0.111063875 -0.006902226 0.04306832 -0.27607638 0.10918668
00000000: 8311 4d3d 1ac1 9a3c 08dd b93d 8050 0ebd
00000010: 5d18 50be 1095 10bd ecc0 d3bc 5203 85bd
00000020: 9374 05be df4e 423d 0420 b73d fe6c 67be
00000030: ca4e bd3c f088 8ebb 2ff5 cc3c 0f05 c3bc
00000040: 8798 b0bd 91d0 de3b eb2f 24bd 9d35 efbc
00000050: ebad 233e eb93 56be dea9 d43c 38ed 28be
00000060: 1184 91be fde5 15be ed89 86be 5c8b 263e
00000070: 76e6 c23b d83b 8dbe f68b 37be b0df 133c
00000080: aba1 92bd a0b8 963e 9801 1cbd 4bb3 e4bd
00000090: b26e 42be 46a5 33bc 6ee4 c73c 5a75 78be
000000a0: ea47 793e 513f 893e ce30 5a3e 9b51 26be
000000b0: 5cc5 cd3c b443 b93c b085 763d 87cd d5bc
000000c0: be52 8cbe 610b a43e 8972 483e 7032 813d
000000d0: f6a2 94bc 9469 83bd 9edb 2d3d d0eb 063e
000000e0: b41e 783e 586f 84be 4418 763d 8b8e 5cbe
000000f0: b83a 7bbe 9414 00be 771f 3a3d b591 993e
00000100: 3459 edbd c980 983e 1e1d 91be afb1 863e
00000110: 81cb 54be 5c99 bc3c 10c4 963e 0a0b 54bd
00000120: 6e0a 2cbe e030 afbc d97b 27be 9449 f5bd
00000130: 803f 9a3d 9d0a a23c 4f16 5dbf 1549 703d
00000140: 12f7 973d f478 3ebd 44ba ea3e 8039 1fbe
00000150: 0201 c13c f5ea 0fbe 1f4d 82be 3b42 97be
00000160: 2e05 34be 2b91 cc3d 2491 66bd 2e5b 2e3a
00000170: 57ba b8bd 6a25 81be 0450 13be 8f3b 103e
00000180: 4f31 b7bd 149b d9bd b421 b33d 7fb1 29be
00000190: d328 52bd 39c7 ed3c c6cf 073d a8ee 59be
000001a0: d078 853d 080a c8bd a964 5ebd c674 6dbe
000001b0: c79e 43be bc69 573e 1c07 e73d ee3e 71bd
000001c0: a64f 563e d865 7fbe 8725 72be 9cc5 fa3d
000001d0: fccf 16bc 7c30 40be 929f 8a3c 97d3 7f3d
000001e0: 583b 6bbe fba2 43bc ff9d 323e 09a3 063e
000001f0: 3759 b93d a035 74bc fd97 863e ceba 3dbe
00000200: 76b7 fd3c 290f 12ba 2e8c 45bd 3e9b d03d
00000210: dba4 533e 5f80 a33d aa13 e83d ef53 b83d
00000220: 9f0f 523e d589 243d c65a 4abd 32ee 823e
00000230: 7f49 7d3d 3654 7a3d d32b a93d 46f1 26bd
00000240: 5873 d03d c0a0 723c ccb9 d43d 36f8 90bc
00000250: 6eb0 34be 9662 f3bd dbbb bfbd ee0e 743b
00000260: c34b a83e e854 463e 9060 9f3e 538c 16be
00000270: 4c07 b1bc 9483 963e 5b40 923d 5b9f e23d
00000280: 72d5 be3c 63ed 47be ba6a e43c c5ec e73d
00000290: e5b0 1c3e c74a 003d 816e ea3b 9ffe 39bc
000002a0: feb3 d23c cf3f a6be c726 0bbe fdaa 053e
000002b0: db78 6f3d 3299 883d f15a a8bc d568 edbb
000002c0: c711 943e c79e 0fbe 9d13 0a3d da04 41bd
000002d0: f461 303e 4406 f33d fb99 b6bd 6689 17be
000002e0: 1ae8 b4be adbe 853e eeca 56bd 4db6 513e
000002f0: 2bb3 853e 0675 7d3d a097 9abc 483f dcbe
00000300: a891 303e 8161 6ebe 8eaf aa3e bae9 9ebe
00000310: 7c07 963e 7c8e 633d aeed d2be ff12 a73d
00000320: ac28 533e ce23 ab3d e74b 353e 0f63 143e
00000330: fc04 88bd 0287 7fbc 5ce0 703f 7cb9 9cbd
00000340: 8d71 48bd ad38 c23c 82bf 77be 2c83 b63d
00000350: 0b56 72bc 7c4f 0b3e c883 883e 1352 ae3e
00000360: c692 3c3e 15c4 d2bd 3a76 a93c 6f8f 7d3d
00000370: ee84 323c 246a 593e 87b1 403e 0faa bdbd
00000380: d1a8 1a3e 28ec cd3d 668c f13d a14d 763d
00000390: 5cb2 4f3d eb97 e1bd fa41 9d3d 1c9c a73e
000003a0: febe adbd e1c7 e73d 8c80 c83d 14b6 833e
000003b0: a438 723e c954 f8bd 85f0 66bd 0e47 ab3d
000003c0: 85ce bcbd 6e9f 3b3e f624 023e 57fa a4bd
000003d0: 7020 d23d 3177 57bd 70d1 973d 6348 b43c
000003e0: d9c3 433e f623 a83d 4f0c 44be 7575 e3bd
000003f0: 112c e2bb 6868 303d e259 8dbe 449d df3d

action_model._discrete_distribution.branches.0.bias f4 [3]
0.17363203 -0.15247719 -0.015159499
00000000: 98cc 313e fb22 1cbe 8c5f 78bc

action_model._discrete_distribution.branches.1.weight f4 [3, 128]
0.15991461 0.08597407 0.1342342 0.1529557 -0.09790068 0.10866329 -0.008735255 0.13979147
0.17959638 0.032827083 0.024918074 -0.1502031 0.087225445 0.104365565 0.09731694 -0.1971397
0.1486132 0.015314739 0.12087035 0.27923816 0.07460799 -0.09224635 -0.24432315 0.028972484
-0.22032404 0.039692864 -0.122585885 -0.066751465 -0.020450637 -0.0034956366 -0.083642215 0.114483096
-0.2610101 -0.10653436 0.040454146 -0.36759365 -0.28945664 0.14695992 0.15992408 -0.15177998
-0.03936841 0.029413186 -0.025269808 -0.35960552 0.09675334 0.06451649 0.17385268 -0.11918956
-0.06705434 0.31521225 0.22361392 0.07243561 0.02565564 0.08511522 -0.048941176 -0.1827587
-0.040236227 0.0064821956 -0.052943397 -0.15006134 -0.1265435 -0.32907483 0.15647352 0.069444835
0.09778498 0.29958016 -0.19591491 0.18776485 -0.9471579 0.10373196 0.08682529 0.14960961
-0.2182205 0.11705259 0.100334145 -0.16279586 0.015710825 -0.002113822 -0.73965645 0.014616964
0.063927375 0.1514132 0.015429198 -0.15337886 0.104631074 -0.22739407 -0.15194818 -0.12455871
0.09041137 -0.20987037 -0.06717926 0.1229924 -0.14124703 0.05617133 0.17290212 -0.068963155
0.2535467 0.15541945 0.17643487 -0.07010667 0.16308327 -0.2166447 0.061536107 -0.31101534
0.19807076 0.1254996 0.13844839 -0.13409361 0.082602784 -0.121362306 -0.17234848 -0.18271585
0.1569977 -0.56547964 -0.15342557 -0.024455367 0.124699436 -0.21590282 0.08840841 0.26145586
-0.07859343 0.110728644 0.28512886 -0.16030242 0.11431316 0.1201917 0.21363974 -0.25230405
-0.2357632 0.032752495 0.09338721 -0.18586732 0.035087142 -0.16801116 -0.26797992 -0.12852691
-0.35233486 -0.28655416 0.08478402 0.048595306 -0.1664247 -0.1669186 -0.13366792 0.31457
-0.03319183 0.12013085 -0.08844015 -0.34635952 -0.049609456 0.5367217 0.45032644 0.35564318
0.016872825 -0.07065968 0.0004894212 0.15106645 0.20665736 -0.1747402 0.30424437 -0.0083963545
0.3856664 0.24412838 0.137429 0.3409758 0.42402652 -0.020693833 -0.17641252 0.34128106
-0.052956462 -0.0069952947 -0.03620929 0.34756476 -0.17353424 -0.08737548 -0.16661635 0.2132592
-0.13298777 -0.03127247 -0.5022876 0.032990545 -0.12148955 -0.15469971 0.15113652 0.21779391
0.0591547 -0.08921754 0.22739187 0.09580257 0.016916005 0.41520968 0.011476856 0.07072247
-0.09175269 -0.017171571 0.08803059 -0.13690993 0.5403148 -0.17380059 -0.012623551 -0.00049002626
0.16015694 -0.18955982 -0.13655397 0.17271826 0.18925042 0.21220797 0.23779207 0.12604912
0.010706005 -0.056856126 -0.067953594 0.37555662 0.002040512 0.17126241 -0.06722724 -0.06537639
-0.14906463 0.30918735 0.23277059 -0.20060153 0.4575439 -0.20249976 -0.2645587 0.19900352
-0.48485637 -0.11366195 -0.11552727 0.37199777 -0.0634961 0.37296826 -0.15103777 0.5298804
0.06649034 -0.12161909 -0.18079741 -0.07574772 -0.14858334 0.21397842 0.28575033 0.39555642
0.10834749 0.795222 0.19945881 0.12165547 -0.261275 0.45769036 -0.1868325 -0.5266726
-0.15545793 -0.17419372 -0.051039625 0.09063854 -0.14787433 -0.22802806 -0.12480458 0.36927384
00000000: a8c0 233e 2c13 b03d b174 093e 6ba0 1c3e
00000010: 2780 c8bd dc8a de3d 511e 0fbc 7f25 0f3e
00000020: 1de8 373e b175 063d fd20 cc3c d7ce 19be
00000030: 41a3 b23d 9dbd d53d 1b4e c73d fdde 49be
00000040: 0f2e 183e acea 7a3c e08a f73d 4ef8 8e3e
00000050: 13cc 983d a8eb bcbd d92f 7abe b457 ed3c
00000060: a09c 61be fc94 223d 4f0e fbbd feb4 88bd
00000070: 1888 a7bc 0d17 65bb 9c4c abbd 1d76 ea3d
00000080: 1ea3 85be b02e dabd 3fb3 253d 3c35 bcbe
00000090: a933 94be a97c 163e 23c3 233e 366c 1bbe
000000a0: c540 21bd ecf3 f03c a102 cfbc 371e b8be
000000b0: 9d26 c63d 3921 843d 7006 323e a819 f4bd
000000c0: c953 89bd 8063 a13e 0cfb 643e 1f59 943d
000000d0: c72b d23c e350 ae3d 8b76 48bd 1925 3bbe
000000e0: bece 24bd 9968 d43b 2ddb 58bd aea9 19be
000000f0: 9f94 01be 7f7c a8be 983a 203e 1839 8e3d
00000100: 7e43 c83d 9262 993e eb9d 48be 6e45 403e
00000110: f178 72bf 6c71 d43d 75d1 b13d 4333 193e
00000120: 3275 5fbe 45b9 ef3d fd7b cd3d f5b3 26be
00000130: fdb3 803c 0c88 0abb 205a 3dbf fe7b 6f3c
00000140: 5bec 823d 100c 1b3e bfca 7c3c 590f 1dbe
00000150: d148 d63d fed9 68be 4e98 1bbe a318 ffbd
00000160: 9929 b93d 42e8 56be 4895 89bd 70e3 fb3d
00000170: 10a3 10be e913 663d 410d 313e 8e3c 8dbd
00000180: e0d0 813e 4726 1f3e 58ab 343e 1694 8fbd
00000190: 4dff 263e 1cd8 5dbe 490d 7c3d 673d 9fbe
000001a0: 10d3 4a3e f882 003e 6ac5 0d3e d64f 09be
000001b0: a62b a93d cd8c f8bd 1f7c 30be dd19 3bbe
000001c0: 01c4 203e 46c3 10bf 981b 1dbe 9f56 c8bc
000001d0: 6b62 ff3d a115 5dbe 780f b53d 8bdd 853e
000001e0: 98f5 a0bd b3c5 e23d 69fc 913e 5126 24be
000001f0: 051d ea3d 1127 f63d 60c4 5a3e ff2d 81be
00000200: e96b 71be 7b27 063d cb41 bf3d 0154 3ebe
00000210: 89b7 0f3d 1e0b 2cbe aa34 89be 8f9c 03be
00000220: 3c65 b4be 3ab7 92be 3fa3 ad3d df0b 473d
00000230: 3d6b 2abe b6ec 2abe 3ee0 08be 520f a13e
00000240: 28f4 07bd 2a07 f63d 1c20 b5bd 0956 b1be
00000250: 4933 4bbd 9866 093f 3091 e63e dd16 b63e
00000260: e138 8a3c 06b6 90bd 804c 003a 2ab1 1a3e
00000270: fd9d 533e 18ef 32be ebc5 9b3e dd90 09bc
00000280: 1176 c53e cafc 793e 30ba 0c3e 6194 ae3e
00000290: 011a d93e 1d86 a9bc 7ca5 34be 64bc ae3e
000002a0: e0e8 58bd c938 e5bb 3150 14bd 02f4 b13e
000002b0: f6b2 31be eaf1 b2bd 7a9d 2abe 9f60 5a3e
000002c0: f22d 08be 9017 00bd ec95 00bf 1821 073d
000002d0: 83cf f8bd 9a69 1ebe 88c3 1a3e 5e05 5f3e
000002e0: 334c 723d b0b7 b6bd 6ad9 683e 2334 c43d
000002f0: 6f93 8a3c 5d96 d43e 6c09 3c3c f1d6 903d
00000300: d6e8 bbbd 65ab 8cbc 6249 b43d 1e32 0cbe
00000310: 1252 0a3f c8f8 31be 03d3 4ebc 1b75 00ba
00000320: 2e00 243e f81b 42be ced4 0bbe 0edd 303e
00000330: ddca 413e 0c4d 593e c47f 733e 0513 013e
00000340: 3d68 2f3c f8e1 68bd 412b 8bbd f548 c03e
00000350: 1cba 053b 6a5f 2f3e 6fae 89bd 0fe4 85bd
00000360: 66a4 18be ce4d 9e3e 6a5b 6e3e 7d6a 4dbe
00000370: 3243 ea3e 195c 4fbe 3d74 87be 94c7 4b3e
00000380: 183f f8be 99c7 e8bd 9099 ecbd 7e76 be3e
00000390: 3e0a 82bd b2f5 be3e a5a9 1abe 3ea6 073f
000003a0: 162c 883d 6e13 f9bd f522 39be 9f21 9bbd
000003b0: 3b26 18be 291d 5b3e de4d 923e 5f86 ca3e
000003c0: 4ae5 dd3d ab93 4b3f ee3e 4c3e 8126 f93d
000003d0: d6c5 85be 6456 ea3e 0551 3fbe 04d4 06bf
000003e0: 5d30 1fbe d75f 32be ed0e 51bd b3a0 b93d
000003f0: 5e6c 17be 3080 69be 8b99 ffbd 7611 bd3e

action_model._discrete_distribution.branches.1.bias f4 [3]
0.08667765 -0.032314505 -0.117856845
00000000: 0d84 b13d 375c 04bd ee5e f1bd
