results/AgenteCoche/AgenteCoche/AgenteCoche-24448.pt (torch, 558100 bytes, 48 tensors)

discrete_act_size_vector f4 [1, 2]
000000 00 00 40 40 00 00 40 40
       3.0 3.0

network_body._body_endoder.seq_layers.0.weight f4 [128, 15]
000000 20 c3 5a 3e 8d 67 55 be f9 92 80 3c 10 9f e0 3e
       0.21363497 -0.20840283 0.015695082 0.43871355
000010 bb 47 81 3d 9c 99 b8 3c da 89 46 3d 4f d1 5d bd
       0.063125096 0.022534184 0.04847131 -0.05415469
000020 db 9f ee bd 3e 20 02 bf a0 6c 81 3e 10 80 9d 3e
       -0.11651584 -0.5083045 0.25278187 0.30761766
000030 3c db af 3d b4 ad 57 bd de 9b 25 3e 29 b0 1a be
       0.085867375 -0.05265589 0.1617274 -0.15106262
000040 93 a4 c3 3e 24 da 9f bc b9 c8 c0 bd 84 93 09 3d
       0.38211498 -0.019513197 -0.09413285 0.033587947
000050 b2 f7 39 bd e1 e9 8b 3e 20 86 04 3e e9 a1 cf be
       -0.045402236 0.27326873 0.1294179 -0.40553215
000060 6e fe 00 bf a6 1b 32 3f 62 ee 60 3e 03 53 80 be
       -0.5038823 0.6957344 0.21965936 -0.25063333
000070 e7 6f 21 be 8f 5f 07 bf 11 08 2f 3d ac ed 0b be
       -0.15765344 -0.52880186 0.042732302 -0.13664883
000080 43 b3 95 3c 26 3d c2 3e 62 f5 2f 3d e2 b5 57 3e
       0.018273955 0.37937278 0.042958625 0.21065477
000090 38 9e 86 be c6 b5 a3 bb 67 2e 8c be 3f be 4b 3e
       -0.26292586 -0.0049960343 -0.27379152 0.19896792
0000a0 38 07 de be 55 8b 8a be af b3 e3 bc 85 c3 49 3f
       -0.43364882 -0.27059427 -0.02779564 0.78813964
0000b0 69 70 86 bf 0d d7 11 3e 54 8e df 3e 8c 46 11 be
       -1.0503055 0.14242192 0.43663275 -0.14187068
0000c0 68 80 0c be d0 56 fb 3e e0 7f 74 3f be b5 a5 3e
       -0.13720858 0.4908967 0.9550762 0.3236522
0000d0 c9 33 cb be e9 5e 67 3e 1b b1 14 bd e2 1d 2b be
       -0.39687946 0.22594799 -0.036301713 -0.16710618
0000e0 b2 9c 0b bf 60 10 1d 3e 73 c9 66 3e 4e 37 14 be
       -0.54535973 0.15338278 0.22537784 -0.14474222
0000f0 b8 a3 b9 3e 15 83 a2 3e 5e 3e 0d bf 8d 31 05 3f
       0.3625772 0.31740633 -0.5517329 0.52028733
000100 08 8f f9 be ac 2d af 3e 77 c6 b3 3e 0c af 0b 3f
       -0.48741937 0.34214532 0.35112354 0.54563975
000110 f5 21 62 be b4 03 a2 be bf 20 05 be c4 9e 15 3f
       -0.22083266 -0.3164345 -0.13000773 0.5844538
000120 af e0 bd bd 5d 1b 83 bd d6 c7 73 be c4 8a 23 be
       -0.092713706 -0.064017035 -0.238067 -0.15970904
000130 f3 11 53 be 9f b0 50 be 7d f2 f7 bd 0d e2 35 bd
       -0.20612316 -0.20379876 -0.12106798 -0.044405032
000140 c7 9d 38 bf b9 d8 13 3e 61 77 12 3e 54 54 df bd
       -0.7211575 0.14438142 0.14303352 -0.10904756
000150 ea ac d7 3d b8 8b c8 bd b9 ca 8a 3d f6 07 c0 3e
       0.105310276 -0.09792274 0.067769475 0.37506074
000160 fb 99 10 3d e2 e6 35 be 20 98 52 be 6c a3 92 be
       0.035303097 -0.17763856 -0.20565844 -0.28640306
000170 27 c0 3d 3e e3 78 f2 3e 17 ab 20 bd 76 1b ce be
       0.18530332 0.47357854 -0.039225664 -0.40255326
000180 82 ba 9e bd 2c 96 0f be 80 21 6b bd 10 ae 14 3f
       -0.07750417 -0.1402213 -0.057404995 0.580781
000190 f2 47 a7 bc a3 2a 38 3f 0a b9 2c 3d a8 b1 e0 be
       -0.020420048 0.7194006 0.042168655 -0.4388554
0001a0 cd a7 9a 3d c0 de e2 3e 93 25 9c 3d 33 08 cf bd
       0.07551537 0.4431057 0.07624354 -0.10108986
0001b0 9c 23 12 3f 6f 6e aa be 9c e7 3b 3e c5 50 82 3e
       0.57085586 -0.3328738 0.1835007 0.25452247
0001c0 ce 53 2f bf 51 cc 17 bf 3f ac 39 3e 69 aa 20 3f
       -0.6848725 -0.5929614 0.18132113 0.62760025
0001d0 50 29 a8 3e e1 59 1b be f8 55 39 bd 00 f1 27 be
       0.3284402 -0.15171005 -0.045248 -0.16400528
0001e0 9d d2 cd bd c0 d5 d2 3c 56 42 60 be 2f 19 e1 be
       -0.10049937 0.02573669 -0.21900305 -0.43964526
0001f0 e1 04 9c bd 8e d5 a0 3e 95 3f 98 be 0f 05 0e be
       -0.07618118 0.3141293 -0.2973601 -0.13869117
000200 3d f6 57 bd 43 ec 79 3e 42 9c 68 3e d5 49 31 be
       -0.052725065 0.24406533 0.22715858 -0.17313321
000210 b9 62 a5 3d ea 41 1f bf 4b b0 e4 bd b2 6a 05 3f
       0.080754705 -0.6220995 -0.11166438 0.5211593
000220 6b 2f 4b be 59 8f 0e bd 58 c4 98 3b 83 28 6d be
       -0.19842307 -0.034804676 0.004662078 -0.23159985
000230 40 7e 25 bf 25 a9 18 3e 3c 83 70 3e 14 ea 71 bc
       -0.6464577 0.14908274 0.23487562 -0.014765281
000240 c9 51 51 3d ae 8b b6 bd 67 14 43 3e 2a a0 33 bf
       0.051103387 -0.089133605 0.19050752 -0.70166266
000250 d0 41 a7 3e 3f 61 d8 3d b1 29 67 be 58 02 cf 3e
       0.32667398 0.10565423 -0.22574498 0.40431476
000260 43 5b 0b 3e 3d aa c9 be 47 56 9a be 9c 84 d0 3e
       0.13609032 -0.39387694 -0.3014395 0.40726173
000270 18 4f 08 bf 6f ff 42 bf c8 19 a5 be cc 33 ad 3e
       -0.5324569 -0.7617101 -0.32246232 0.3382858
000280 ef d8 68 be b4 cf 07 3e 76 98 87 be 9c 24 7f be
       -0.22739004 0.13262826 -0.26483506 -0.24916309
000290 9b b8 30 be 74 43 45 3d a9 ba 1e ba 1a 94 02 3e
       -0.17257921 0.04816003 -0.0006055036 0.12751809
0002a0 fe 21 e4 3e 7b 01 38 bd d8 a7 14 3f d4 c8 06 3e
       0.44557184 -0.044923287 0.5806861 0.13162547
0002b0 d8 44 cc 3e 3c 5f a0 bb 0d 73 68 3e 67 35 93 3c
       0.39896274 -0.0048941653 0.22700138 0.0179698
0002c0 55 88 53 be a2 b9 a3 bc ef 94 cf 3d 14 c1 6a 3d
       -0.20657475 -0.019985978 0.10135829 0.05731304
0002d0 52 65 da bc a8 29 3b 3e d4 95 f7 bd 02 0d 17 bf
       -0.026659641 0.1827761 -0.12089124 -0.59004223
0002e0 2b 7e d0 3e 5c 70 b6 3d bd 92 a0 bd d3 e4 b4 be
       0.4072126 0.089081496 -0.07840488 -0.3533083
0002f0 a9 96 da 3d ba cb 6e 3e 69 d3 00 3f 68 02 7c bd
       0.106732674 0.23319903 0.50322586 -0.061525732
000300 65 ca 37 be a7 8d bf bd 45 e1 eb 3e 4f e2 24 be
       -0.17948301 -0.0935319 0.46070305 -0.16101955
000310 e3 f0 a3 be 32 19 96 be 28 4a 78 3e 7b 1a 03 3e
       -0.3201972 -0.29316097 0.24247038 0.1280307
000320 bb c5 f3 3d 65 3d 73 be 20 a3 3e be 2c f6 07 3d
       0.119029485 -0.23753889 -0.18616915 0.033193752
000330 39 5b 95 bd 93 f7 63 3e 71 fe 82 3d dd de c2 3e
       -0.0729279 0.22262411 0.06396187 0.38060656
000340 02 7a a3 bd c5 07 97 be 1c f2 9b 3d 95 75 53 3e
       -0.079822555 -0.29498115 0.07614538 0.20650323
000350 b7 17 dd 3d 99 01 0e bf 3e ec 41 3d a7 de ed 3e
       0.10795539 -0.5547119 0.04734444 0.46458933
000360 b4 f1 b1 3e 17 59 be 3d c3 97 08 3d 87 59 61 3e
       0.34754717 0.09294336 0.033347856 0.22006808
000370 f8 3c c4 be 48 46 3b 3f 99 b3 e8 3e 2c b4 28 3e
       -0.38327765 0.73154116 0.45449522 0.1647498
000380 97 78 2a be ad c4 07 bc de cd 13 be d8 7a 7e be
       -0.16647564 -0.008286637 -0.14434001 -0.24851549
000390 00 7f f6 be 5f 1c 29 3d 4b 7e 47 3e 1e c1 bf 3d
       -0.48143768 0.041286822 0.1948177 0.09363006
0003a0 f0 0e bd bd 0d d7 87 be 80 ea 61 3f 18 51 aa 3d
       -0.09231365 -0.26531258 0.88248444 0.08316249
0003b0 21 8d 01 be c2 91 27 3e 2f 9c 94 3f 8a ad 07 3f
       -0.12651493 0.16364196 1.1610163 0.52999175
0003c0 4b 41 ac bd e3 3e ca 3e 93 68 fa 3d b8 67 c6 be
       -0.08410891 0.39501104 0.12226977 -0.38751006
0003d0 fc ed 65 bd c4 06 c7 3e 91 26 d8 be 2a 2a 95 3e
       -0.056135163 0.3887235 -0.42216924 0.2913373
0003e0 ec 8a de bd e9 95 92 be d3 a4 32 be 06 f7 85 3d
       -0.10866341 -0.28629997 -0.17445688 0.065412566
0003f0 ae 99 92 be a3 4c 7a be 1f 5d ba be 06 88 81 3e
       -0.28632873 -0.24443297 -0.3639917 0.2529909

network_body._body_endoder.seq_layers.0.bias f4 [128]
000000 f7 30 15 3e 6e f9 2e bd e8 62 07 3e 88 77 f8 3d
       0.1456946 -0.042718343 0.13221323 0.12132174
000010 d2 e2 15 3e 87 9f 49 be d1 3c ed bd fd 21 37 3e
       0.14637306 -0.19689761 -0.115838654 0.17884059
000020 44 e0 7a 3d 42 b3 1b 3e cf b0 a5 3d 0c 00 46 bc
       0.061249033 0.152051 0.08090364 -0.012084972
000030 88 a7 7e 3d 3c 47 27 be 4b 19 3d 3e d3 50 97 3d
       0.06217149 -0.16335768 0.1846668 0.07388463
000040 42 69 e2 bd 26 bd ee 3d c5 d9 3e 3e 04 5c 3e 3e
       -0.110552326 0.11657171 0.1863776 0.18589789
000050 a8 ab 8d 3d b0 e4 65 3e 63 26 e1 bd 7d a3 aa 3d
       0.069175065 0.22450519 -0.1099365 0.08331964
000060 3a e9 df bc 85 4a 26 be d2 32 d6 3d 6d 4c 92 3d
       -0.02733289 -0.16239364 0.10458912 0.07143483
000070 db c6 7e 3e 93 94 b3 3d 5c 4d 3d 3d 98 63 76 3e
       0.24880545 0.08768573 0.046216354 0.2406143
000080 de 43 04 3e 79 83 38 be 54 2d 45 bd 2e a8 65 3d
       0.12916514 -0.18018903 -0.04813893 0.05606859
000090 c0 a2 77 3d 83 a4 4a 3e 97 9a 5a 3d bd 78 0e 3d
       0.060457945 0.19789319 0.053370085 0.034783114
0000a0 5f c0 6a 3d eb 0a 55 3e fb 27 30 3d 8b 0e 1d 3e
       0.057312366 0.20804946 0.04300688 0.15337579
0000b0 d2 5c 7f 3e 62 42 9d 3d eb ae fd bd cc cc 43 3d
       0.24937752 0.07678677 -0.123868786 0.04780273
0000c0 67 2a 47 ba e6 4c bc bd fa 53 31 3d f6 e1 55 3e
       -0.0007597566 -0.09194355 0.043292977 0.20886979
0000d0 ca 1c 37 3e 77 f4 cb bd a3 4b e4 bc 1f 2f 92 3d
       0.17882076 -0.09958737 -0.027868098 0.07137894
0000e0 b1 6d 94 bc 00 d6 09 3d 14 2b 47 3e f9 67 f2 bc
       -0.018118711 0.033651352 0.19450027 -0.029590594
0000f0 c0 84 d9 3b 96 e4 b2 bd 7e f3 6b 3e 0e 7e a3 3c
       0.0066381395 -0.087350056 0.23042104 0.019957568
000100 4f 9b 54 3e 39 f0 3c 3e d4 7e 3e 3e 0d 86 d1 3c
       0.2076237 0.18451013 0.18603069 0.025576616
000110 1d 0b 2c 3e ca 02 6a bd d9 26 92 3c b7 4a fe 3d
       0.16801114 -0.057131566 0.01784079 0.124165945
000120 45 dd 39 be 3f c1 48 3d b4 ef 39 3e 22 2d 98 3d
       -0.18150814 0.04901242 0.18157846 0.074304834
000130 b9 29 51 be 04 9f 31 3d 63 45 fe bc c3 18 19 3e
       -0.20426072 0.04336454 -0.031038946 0.14950852
000140 12 01 1e 3e fa ef 2c 3e 1f 76 04 3e c8 0d 41 b9
       0.15430096 0.16888419 0.12935685 -0.00018411048
000150 48 2d 03 3e ce 30 cd 3d 26 02 d6 3d 00 77 27 3e
       0.12810242 0.100190744 0.104496285 0.16353989
000160 e5 c3 44 3d 25 c4 a1 3d 71 f4 a1 bd 59 d5 ce 3c
       0.048038382 0.0789874 -0.079079516 0.025248216
000170 58 ab 98 3d f6 8f 5f 3e 91 e8 4e 3e f8 9c 23 be
       0.07454556 0.2183226 0.20205905 -0.15977848
000180 3a 9f 47 3e cd d0 50 be 20 5a 40 3d 18 b6 fc 3d
       0.19494334 -0.20392151 0.04696095 0.12339419
000190 55 6b 9c 3d c5 5b 0b be 77 24 b4 bb 09 53 c1 3d
       0.076376595 -0.13609226 -0.005497511 0.09439666
0001a0 0a 6f f6 3d e6 1b 5a bd 0b 77 22 3d 20 8f a0 3d
       0.12032898 -0.053249262 0.03966431 0.07839799
0001b0 b3 b9 d9 bd 8d b8 91 3d 35 9f 82 bc a2 b9 2f 3d
       -0.106311224 0.071152784 -0.015945056 0.042901643
0001c0 3d ba e5 3d b1 8c 45 3c 63 60 2e 3d 50 c0 9e bd
       0.11217163 0.012057469 0.04257239 -0.077515244
0001d0 66 92 6b 3c a3 f1 28 3e 87 d4 26 3e af 47 2c 3d
       0.014378166 0.16498427 0.1629201 0.04206055
0001e0 94 8a a5 3d b8 a8 fd 3d 56 c8 2c 3e c9 96 1d 3e
       0.08083072 0.12385696 0.16873297 0.15389551
0001f0 8e b3 82 3d ed c5 f4 bc 86 1c b0 3d 4b 9f 8c be
       0.063819036 -0.029879535 0.085991904 -0.2746528

network_body._body_endoder.seq_layers.2.weight f4 [128, 128]
000000 cd 5e a5 3d ae 52 47 bd 1f 04 e9 3e 72 de 33 3d
       0.080747224 -0.048662834 0.45510957 0.043913312
000010 6f e7 92 be 88 45 ca 3c 59 70 68 3e 52 bc 31 3e
       -0.28692195 0.024691358 0.22699107 0.17356995
000020 c0 c4 4f bd 11 54 50 bc b0 f2 cd bd e5 64 90 bc
       -0.050724745 -0.0127153555 -0.100560546 -0.017626235
000030 c0 d9 1f be f1 c1 f0 bc 1e e1 4f be 72 fc 01 be
       -0.15610409 -0.029389353 -0.20300719 -0.12693956
000040 38 0b 72 be 49 5a e8 3b e2 9a 50 3d a7 51 df bd
       -0.23637092 0.007090841 0.050928958 -0.10904246
000050 71 aa eb bd 96 cb 15 3e d0 e1 86 3e a4 4a 23 3e
       -0.115071185 0.14628443 0.26344156 0.15946442
000060 3e 2f 11 3e 4d ad 30 3e dc 06 7c 3e 23 19 e4 3c
       0.14178178 0.17253609 0.24611992 0.027844017
000070 51 37 a2 bd 2d 60 9d 3e 85 bd 8a bd b7 c0 38 3d
       -0.07920707 0.3073744 -0.06774429 0.045105662
000080 b7 08 01 3c 04 ed d1 bb 66 5c 20 3e 81 b4 90 3d
       0.007875613 -0.0064064283 0.15660247 0.070656784
000090 8b 0d 82 3e 69 ad c0 3d b5 61 a1 3e 96 b8 59 3c
       0.25400957 0.09408075 0.31519857 0.013288638
0000a0 17 f0 9d 3b 64 f1 5e 3e 2b ea 6c 3e cb 95 1e be
       0.0048198807 0.2177177 0.23136203 -0.15486829
0000b0 7c 4b 7b 3e 40 1c db bc 29 c9 55 3e 15 02 bf 3d
       0.24540514 -0.02674687 0.20877518 0.09326569
0000c0 fc fb 81 bd dc 45 2b be f3 ef cd 3d 1d 71 df 3e
       -0.0634689 -0.16725868 0.10055532 0.43640986
0000d0 a1 e3 c9 3d 18 fe 3c bd 04 5d 5e bb 7d f7 a4 3e
       0.0985787 -0.04614076 -0.0033929953 0.3222007
0000e0 db cc 46 be bd 84 d7 bd 58 fa 33 be 29 a8 4b 3e
       -0.19414084 -0.10523365 -0.17575967 0.19888367
0000f0 45 01 c6 3d 34 22 e6 bc 7a 03 79 be 8c 07 f9 b9
       0.09668211 -0.028092481 -0.24317732 -0.00047498604
000100 ec 6c cc bb 8c 9f 5b 3d 1a 0d 7d be 4f 57 9e bc
       -0.0062385704 0.053618953 -0.24712029 -0.019328741
000110 2a f5 bc 3d e0 ae 41 bc 00 29 68 3e f0 96 2c 3e
       0.09226449 -0.011821479 0.2267189 0.16854453
000120 4e 1e 4a be 6c 13 be 3e 15 e6 1f 3e 6b 7a 54 3e
       -0.19738123 0.37124193 0.15615113 0.20749824
000130 6e 8f 6b 3e cc 78 7f 3e 35 23 45 be e8 1f 96 be
       0.23003933 0.24948424 -0.19251712 -0.29321218
000140 fa 17 43 3e 1d f5 03 be 17 1e 14 3e 54 e0 81 3c
       0.19052115 -0.12886472 0.14464603 0.015854038
000150 3b 9e 5e bc eb 7a 55 3d b7 1b f2 3d 67 22 c9 3d
       -0.01358753 0.052119177 0.118216924 0.09821015
000160 f0 a5 bc be 71 0e fd 3d 5a d8 38 3e c9 da 52 3e
       -0.3684535 0.1235627 0.18051282 0.20591272
000170 a9 61 93 bd 61 6a 13 3e a9 c8 d7 be e2 6b 9f bd
       -0.071963616 0.14396049 -0.4214528 -0.07784249
000180 67 2a b4 be 92 15 b1 bd 51 17 11 3c a0 65 1b 3e
       -0.351886 -0.08646692 0.008855657 0.15175486
000190 8b 63 0a 3e 18 12 a0 bc 76 c6 05 be 0f ec 87 3e
       0.13514535 -0.019539878 -0.13063988 0.26547286
0001a0 f2 d8 ad 3d 0b 52 f3 3c 11 2a a1 3c cc 6c 02 3e
       0.08488645 0.029702207 0.01967338 0.12736815
0001b0 5e 9b de bd d7 49 78 3d a9 dc e2 bd b5 ab b3 3e
       -0.10869478 0.060617294 -0.11077244 0.3509194
0001c0 4d 17 42 3e f0 1b 20 3e 1d b1 39 3e d4 51 f8 bc
       0.18954201 0.15635657 0.1813397 -0.030312456
0001d0 89 d5 61 be ec 7f a1 3e 77 38 34 3e e0 49 b1 3d
       -0.22054113 0.3154291 0.17599665 0.08656669
0001e0 5b 87 0b 3e ce 99 62 3d 5f 19 9f be 1c 87 46 3e
       0.13625853 0.05532246 -0.31074044 0.19387478
0001f0 27 ad b9 3c a5 24 b2 bd a4 51 90 3e 02 42 07 be
       0.022665573 -0.08698396 0.28187287 -0.13208774
000200 48 f2 a2 3d d7 3a 91 ba 33 6e e1 bc e9 19 52 3c
       0.07956368 -0.0011080158 -0.027518367 0.01282356
000210 d2 01 e6 3d f6 70 0c be 89 94 af 3d 01 8c 9c bd
       0.11230816 -0.13714966 0.08573253 -0.07643891
000220 d4 ca 1f bd 08 9b 64 bc dd f1 04 be 08 f1 01 3c
       -0.03901179 -0.013952978 -0.12982889 0.0079310015
000230 65 b6 8d bd e2 df 71 be 82 34 a7 3e 55 9b 07 bc
       -0.069195546 -0.23620561 0.32657248 -0.00827678
000240 7b 20 9e bd 0c aa e2 be 9f 73 0c bd db b9 ab 3d
       -0.07721039 -0.4427036 -0.034289952 0.083850585
000250 4a 53 77 3e 20 0e 13 bd 44 05 87 3d fc bb 38 3e
       0.24152866 -0.035902143 0.06592801 0.1804046
000260 05 bd 0a 3d 3a 77 43 bd 27 35 4f bd da f7 84 3d
       0.03387167 -0.047721125 -0.0505878 0.064925864
000270 e3 b2 2e bd 0a 7f 5c 3d fb 6d e1 bd 89 79 44 3e
       -0.04265107 0.05383209 -0.11007305 0.19186987
000280 19 22 bc bc 61 ec ab bd 41 10 ae bd 61 81 7c 3d
       -0.022965478 -0.08394695 -0.08499194 0.061646823
000290 b0 e4 97 bd 95 e2 2c be a4 2b 06 be bc 3f 08 3d
       -0.074166656 -0.16883309 -0.13102585 0.033263907
0002a0 4a 6a 07 3e c5 dc f0 bd 78 77 fc bd 9c 32 e4 3d
       0.1322414 -0.117608584 -0.12327474 0.111424655
0002b0 fb 84 0c be 5b 24 80 3e 0b 8b 1d be b8 1d 44 3e
       -0.13722603 0.25027737 -0.15385072 0.19151962
0002c0 eb 82 fe 3d ad b9 36 be 6b 94 86 3c de c3 98 be
       0.12427314 -0.17844267 0.016428193 -0.29836935
0002d0 cf 65 d7 3d 39 fa 09 be c7 0b 81 bc db c1 2f be
       0.10517465 -0.13474359 -0.015752686 -0.17163794
0002e0 a6 41 a0 3c 10 cf 87 3e 30 24 84 bd 62 a9 89 3b
       0.019562554 0.26525164 -0.06452215 0.0042011
0002f0 42 df aa 3c a7 ad 66 3d e2 3a 91 3d 04 e0 11 be
       0.02085841 0.05631795 0.07091309 -0.14245611
000300 a2 1f bc bd 5a 3a de 3d cc cb 88 bc f4 ef af 3b
       -0.09185721 0.108509734 -0.01669874 0.005369181
000310 1b 23 9a bc 52 f2 cc be 2f 8b 07 bc 3a 73 2b 3e
       -0.018815568 -0.40028626 -0.00827293 0.16743174
000320 69 aa 84 be 47 12 17 3e 2f ee e2 bb e6 67 ad be
       -0.25911263 0.14753066 -0.0069253664 -0.3386833
000330 07 90 cb bc 06 91 7c 3e a4 68 a3 bc 64 f6 3b 3e
       -0.024848951 0.24664697 -0.019947357 0.1835571
000340 a7 4a 8d be 1c 54 c8 b9 cb c0 08 bc a5 88 29 bd
       -0.27596018 -0.0003820964 -0.008346747 -0.04139008
000350 3d 68 8b 3e 4f 84 8a 3c 68 ca d7 bd 62 95 fb bd
       0.27227965 0.016908793 -0.10536653 -0.12284352
000360 74 58 01 3e f0 f6 87 bd 17 1c 05 be bf 11 78 be
       0.12631398 -0.066388965 -0.12998997 -0.2422552
000370 ab 37 04 3d 56 c6 de 3d 9e 19 28 3e 94 e3 2e 3e
       0.03227965 0.10877673 0.16416022 0.17079002
000380 91 14 5c 3e d8 18 db 3d f6 06 1f bc 6b 98 ae be
       0.2149222 0.10698098 -0.009706249 -0.3410066
000390 b0 e8 8c bd eb 5d 89 be 1c 6e 27 3e d7 9f 88 3d
       -0.06880319 -0.26829466 0.16350597 0.06671112
0003a0 4e 0a a3 be 30 3e 5d be 88 5f 8a be c4 3e 67 3e
       -0.318438 -0.21605754 -0.2702601 0.22582537
0003b0 0f eb 87 3e 7f 02 9c bd 7f 55 a1 3e e5 25 c7 3d
       0.26546523 -0.076176636 0.3151054 0.09724025
0003c0 ab 1a b1 bb 29 74 99 bd eb 8a d1 3d 94 7f e4 bd
       -0.0054047904 -0.07492859 0.102315746 -0.11157146
0003d0 41 37 d1 bb c1 f7 6b be a6 25 cb bc 3e 56 ff 3d
       -0.0063847606 -0.2304373 -0.024798226 0.12467621
0003e0 de 1c 8c 3d 18 98 19 3d 38 8e af 3d 9f 74 57 3d
       0.068414435 0.037498564 0.08572048 0.052601453
0003f0 2f ed 34 3b 29 a6 f2 3d 51 80 40 be 16 20 ef bd
       0.0027607193 0.11848099 -0.18798949 -0.11676042

network_body._body_endoder.seq_layers.2.bias f4 [128]
000000 33 f8 8c 3d e2 89 89 3d 93 a7 9a 3d 28 1c 17 bc
       0.06883278 0.06715752 0.075514935 -0.009223022
000010 9d 2a 40 be 3d b1 9d bc 82 8c 27 be 8f f6 a1 bb
       -0.18766256 -0.019249553 -0.16362193 -0.004942722
000020 76 97 01 be 19 97 3c bd 1d 64 f7 3d 9e b5 29 be
       -0.12655434 -0.046042535 0.12079642 -0.16573188
000030 df c2 c6 3c 01 f0 8b 3c 7c cf 3d bc 76 70 b0 bd
       0.024262844 0.017082216 -0.011585113 -0.086152
000040 5e 90 2c bd c3 5e b2 3d b3 23 0f bb a7 f5 21 3e
       -0.042129867 0.087094806 -0.0021841347 0.15816365
000050 e2 08 ce 3d 9c 8f 94 be 50 6d 3e 3d 6c 52 43 be
       0.10060288 -0.29015815 0.046490967 -0.1907441
000060 6b 5a c4 bd 99 4a a6 bd 75 ed ce bd fe 01 22 3e
       -0.09587558 -0.08119697 -0.10103885 0.15821072
000070 a2 ba be 3d ca 4c c7 bd 86 a1 1f be b5 a1 cc bc
       0.09312941 -0.09731443 -0.1558896 -0.024979452
000080 16 91 46 bd 47 a0 65 3e b5 52 e5 3c f1 29 b4 3d
       -0.04847821 0.22424422 0.02799354 0.08797062
000090 59 99 0c be 78 3d 3d 3d f8 15 4c 3d b1 de b1 be
       -0.13730372 0.0462012 0.04982564 -0.34740213
0000a0 b4 81 89 3d 5f 6d ac 3d 59 53 3a 3e 77 d2 02 3c
       0.06714192 0.084192984 0.18195857 0.007984749
0000b0 a7 63 b4 3c b1 57 6e 3b 1e 14 d2 3d ab bd ed ba
       0.022020174 0.0036368186 0.10257743 -0.001813819
0000c0 34 6b bf bd 1b 01 4d 3e 89 72 2e 3e 4d 03 34 3e
       -0.09346619 0.20019953 0.17035879 0.17579384
0000d0 25 5b fd bd 9b 7e 22 bd a7 55 eb 3c 5a bc 3e 3d
       -0.123709 -0.03967152 0.028727366 0.046566345
0000e0 47 55 94 3d af a8 97 bc aa a3 3e 3e ed 3b c9 bd
       0.07242828 -0.018513052 0.1861712 -0.09825883
0000f0 37 0d e4 bd a0 9c be bd d8 c6 62 3d 65 67 25 3e
       -0.11135333 -0.093072176 0.055365413 0.16152723
000100 56 59 26 bc 93 d4 41 3e fa 23 af 3c 6c 1e b3 3d
       -0.010153135 0.18928747 0.02137946 0.08746037
000110 3d ee da 3d 21 96 2e 3d 17 78 02 3e 8c 82 5e 3c
       0.106899716 0.042623643 0.12741123 0.0135809295
000120 76 92 4e be 1a dd a7 bc 33 37 da bd ac 9e 80 be
       -0.20173058 -0.020491172 -0.1065506 -0.25121057
000130 af f5 54 3e 68 02 ff 3d 24 9f de 3c 88 07 45 3e
       0.20796846 0.12451631 0.027175494 0.19241154
000140 56 70 30 3e ee 66 5c 3d 81 52 0b 3e a7 99 c0 bd
       0.17230353 0.0538091 0.13605691 -0.09404307
000150 b7 b7 cd 3d c6 da c8 bd 09 cb ad bd 99 c3 69 bd
       0.100448065 -0.09807353 -0.084859915 -0.057071302
000160 27 9b 83 bd e0 42 2f 3d 6e aa 4a 3d 12 b9 fd 3c
       -0.06426077 0.042788386 0.04947894 0.030972037
000170 e9 22 89 bc 40 9b 0e be 18 fa 02 be 57 53 0c 3e
       -0.01674028 -0.1392641 -0.12790716 0.13703667
000180 8c 06 eb bd 6a fd 2e bd 1e 46 97 3c 15 7f f0 bd
       -0.11475858 -0.042722143 0.018466052 -0.11742989
000190 0b 05 41 bb 4b 95 a8 3c c4 d6 2d bc ad 81 2b be
       -0.0029452469 0.020579001 -0.010610286 -0.16748686
0001a0 06 d3 a1 3d 2b e3 02 bd be f0 c8 3b b3 f7 f1 bd
       0.07901578 -0.031954926 0.0061322143 -0.11814823
0001b0 66 e0 b7 bd 65 e3 20 3e b8 2d 27 3e ad af 4b bc
       -0.089783475 0.15711744 0.16326034 -0.012432021
0001c0 76 a7 bd 3d 01 6a 76 bd 6f cc 86 be 15 8e b3 3d
       0.09260456 -0.060159687 -0.26327845 0.08767334
0001d0 1a 9a 82 3c 02 13 a9 be 88 53 70 b9 7e 95 b9 3d
       0.015942622 -0.33022314 -0.00022919301 0.090617165
0001e0 5b 51 ff bd 50 99 3c bc 82 60 0a 3e c4 bc b6 bc
       -0.12466689 -0.011511162 0.13513377 -0.022306807
0001f0 0a 4a b6 3d 2d 15 18 bd 51 73 1d 3e a2 76 02 be
       0.089008406 -0.03712957 0.15376021 -0.12740567

action_model._discrete_distribution.branches.0.weight f4 [3, 128]
000000 25 8f 47 3d e3 97 ae 3c f9 fe c6 3d db b9 19 bd
       0.048720498 0.02131266 0.09716601 -0.03753076
000010 8d d8 53 be ba 7b 1c bd ea 9d ec bc 13 a1 89 bd
       -0.20688076 -0.038203932 -0.028883893 -0.067201756
000020 f1 8c fd bd 4a 9c 45 3d b3 20 be 3d 9b d9 6a be
       -0.12380398 0.048244752 0.09283581 -0.22934572
000030 e8 a4 92 3c b2 ce f5 bb 66 50 98 3c 66 f4 d9 bc
       0.017900899 -0.0075014466 0.018593024 -0.026605796
000040 20 47 b5 bd b2 39 2d 3c 58 49 34 bd cc e8 0e bd
       -0.08851457 0.010572838 -0.04401526 -0.03488998
000050 54 e6 24 3e 68 9f 5a be 79 e4 d4 3c 89 d8 32 be
       0.16103488 -0.21349871 0.02598785 -0.17465414
000060 d7 6b 99 be 93 9c 16 be 74 ef 8a be 32 9c 37 3e
       -0.29965088 -0.14708166 -0.27135813 0.17930678
000070 83 59 0f 3c 0a 4e 8d be 0f 34 3d be 2e a8 2c 3c
       0.008749369 -0.27598602 -0.1847689 0.010538144
000080 b1 a7 93 bd 78 53 a5 3e 2b 78 0e bd 63 4a ee bd
       -0.07209719 0.32290244 -0.03478257 -0.11635282
000090 6b fb 41 be 9a 0a 31 bc a4 1c c9 3c e8 c1 80 be
       -0.18943565 -0.01080575 0.02454979 -0.2514794
0000a0 d5 52 82 3e 42 76 8a 3e 38 a7 5b 3e 63 18 29 be
       0.2545382 0.2704335 0.21450508 -0.16513209
0000b0 70 14 b9 3c 7d c5 b7 3c 37 93 7d 3d 6f b7 db bc
       0.022592753 0.022433037 0.061907973 -0.026820866
0000c0 f8 98 8c be 87 6e b0 3e c7 ad 2e 3e 18 5e 86 3d
       -0.27460456 0.34459326 0.17058478 0.06560916
0000d0 2f c8 61 bc 69 df 85 bd 9b 71 33 3d 1a b0 06 3e
       -0.013780638 -0.06536753 0.043809514 0.13153115
0000e0 4c cb 7b 3e 36 4b 85 be 7e e1 83 3d 0e c2 61 be
       0.2458927 -0.26033944 0.064394936 -0.22046682
0000f0 e1 d3 80 be 26 f1 f9 bd 04 20 21 3d f7 e1 9a 3e
       -0.2516165 -0.122041985 0.039337173 0.30250522
000100 5f f5 06 be e2 39 9a 3e 7e 21 97 be b8 b3 86 3e
       -0.13179539 0.30122286 -0.2951774 0.2630899
000110 db c4 38 be 52 76 97 3c 69 5b 99 3e ce 53 54 bd
       -0.18043844 0.018489037 0.29952553 -0.051837735
000120 60 1a 26 be 78 c0 b8 bc f0 2a 29 be 21 3f ee bd
       -0.16220999 -0.022552714 -0.16520286 -0.11633135
000130 82 fa a5 3d 7e c2 bf 3c f0 e5 73 bf 42 96 80 3d
       0.08104421 0.02340817 -0.9527273 0.062786594
000140 4c f2 9d 3d 00 18 54 bd 96 c3 ff 3e 11 0f 1e be
       0.0771223 -0.0517807 0.49953908 -0.15435435
000150 94 0b d3 3c 55 74 11 be b0 30 83 be 0f 42 98 be
       0.025762357 -0.14204533 -0.25623083 -0.297379
000160 41 9a 36 be 3e 09 cc 3d 82 e1 63 bd fa b4 b4 ba
       -0.1783228 0.099627 -0.055634983 -0.0013786845
000170 b0 56 be bd 3f fd 81 be 26 30 10 be ac aa 18 3e
       -0.09293878 -0.25388524 -0.14080867 0.14908856
000180 63 de c4 bd 31 01 e1 bd 98 31 c3 3d 4f cb 2f be
       -0.096127294 -0.10986555 0.09530944 -0.171674
000190 1e 82 5c bd fc 05 e5 3c b3 34 03 3d 3b 61 5c be
       -0.053835027 0.027956955 0.03203268 -0.21521465
0001a0 cf aa 76 3d 52 b7 ce bd e4 2c 66 bd 2d 2b 6e be
       0.06022149 -0.10093559 -0.056195155 -0.23258658
0001b0 44 83 43 be 30 42 62 3e 0c 71 02 3e ab 53 61 bd
       -0.19093043 0.22095561 0.12738436 -0.055011433
0001c0 40 9e 6c 3e c7 d4 80 be 29 b0 82 be c3 1e 09 3e
       0.23107243 -0.25162336 -0.25525025 0.13390641
0001d0 0c 15 29 bc 30 a6 40 be 42 53 6b 3c 6c 80 3d 3d
       -0.010319959 -0.18813396 0.014363112 0.04626505
0001e0 f0 4a 6c be 30 c9 85 bc a5 22 31 3e 13 9a 0d 3e
       -0.23075461 -0.016331285 0.17298372 0.13828306
0001f0 10 eb b8 3d 84 c0 84 bc 1c cd 87 3e 55 94 3c be
       0.090292096 -0.01620508 0.26523674 -0.18415959
000200 7e 1f 07 3d a3 9d 74 bb 5f dc 29 bd 83 17 d4 3d
       0.032989018 -0.0037325404 -0.041469928 0.10356047
000210 1b 55 60 3e 00 b1 a8 3d 6a 98 fc 3d b6 61 bb 3d
       0.21907465 0.08236885 0.12333758 0.09149496
000220 61 cf 4d 3e 3d a4 2d 3d ba ee 54 bd 0b e9 89 3e
       0.2009864 0.042392958 -0.05198548 0.2693561
000230 12 d6 88 3d 35 55 83 3d 95 01 b6 3d 99 13 05 bd
       0.06681456 0.06412736 0.088870205 -0.032489393
000240 b3 a3 cd 3d 77 72 37 3c d4 9f dc 3d 89 57 1f bc
       0.10040989 0.011196724 0.10772672 -0.00972546
000250 ea f3 31 be 35 12 0a be f0 c1 bc bd 89 e0 89 3b
       -0.17378202 -0.13483508 -0.09216678 0.004207675
000260 fb da b3 3e 41 cf 49 3e 4a 30 a9 3e a9 a6 2a be
       0.35128006 0.19707967 0.33044654 -0.16665138
000270 88 0a bc bc b0 36 98 3e c7 dd 94 3d 46 69 eb 3d
       -0.02295424 0.29729223 0.07268863 0.11494689
000280 2a 37 f1 3c b2 24 66 be 0b d0 c8 3c 5c ed dc 3d
       0.02944525 -0.22474936 0.024513265 0.1078746
000290 b7 48 1a 3e 02 93 ee 3c a5 ad db 3b 9b d3 8b bc
       0.15066801 0.029122833 0.0067040497 -0.017068675
0002a0 9a a8 ad 3c e6 ba a6 be b3 45 0d be a0 c2 fb 3d
       0.02119856 -0.32564467 -0.1379612 0.12292981
0002b0 ce e6 7b 3d d8 5e 8e 3d b7 54 b6 bc 23 4a 58 bb
       0.06149941 0.06951684 -0.022257192 -0.0033003173
0002c0 5f 25 96 3e 72 02 0f be aa b6 6b 3d 75 40 4a bd
       0.29325387 -0.13965777 0.05754725 -0.049377877
0002d0 f9 81 32 3e 05 3b f4 3d a3 bc b8 bd 6a a3 14 be
       0.17432393 0.119253196 -0.090203546 -0.14515463
0002e0 19 24 b8 be b8 af 87 3e e1 bf 66 bd 48 b3 5f 3e
       -0.3596504 0.2650125 -0.056335334 0.21845734
0002f0 9c 03 8e 3e aa a0 6d 3d 98 71 a4 3a c5 76 dd be
       0.2773713 0.05801455 0.0012546061 -0.43254676
000300 20 4d 47 3e de d1 66 be d9 7b b6 3e 03 bc 9f be
       0.19463015 -0.22540995 0.35641363 -0.3119813
000310 cb de 87 3e 99 67 7b 3d b0 d7 d7 be 3e 21 a2 3d
       0.26537165 0.061378095 -0.42156744 0.07916497
000320 b1 6e 58 3e fc 80 ad 3d 97 db 37 3e a2 df 1b 3e
       0.21135975 0.084718674 0.1795486 0.15222028
000330 b2 91 97 bd c8 b7 9e bc d3 97 83 3f de a6 a8 bd
       -0.07400836 -0.019374743 1.0280708 -0.082349524
000340 e4 0a 4c bd ef 07 b8 3c f3 31 8d be e4 7b af 3d
       -0.049815074 0.02246472 -0.2757717 0.08568552
000350 a2 b8 89 bc 1c ce 07 3e da 5d 8b 3e 54 47 b0 3e
       -0.016811673 0.13262218 0.2722004 0.3442942
000360 f8 d7 3f 3e 68 79 ca bd 63 07 b1 3c f4 f6 82 3d
       0.1873473 -0.09886438 0.021609968 0.06394759
000370 19 c5 50 3c 0b a2 5b 3e b0 cc 3f 3e 5d 28 cb bd
       0.012742304 0.21448533 0.18730426 -0.09919808
000380 f8 c7 19 3e db a5 cf 3d 1b 64 04 3e 55 50 80 3d
       0.15017688 0.10139056 0.12928812 0.06265322
000390 f3 a4 4e 3d e7 fe db bd 66 13 a3 3d c8 d0 b4 3e
       0.050450277 -0.10741978 0.07962684 0.35315537
0003a0 77 f8 88 bd 02 4b ea 3d 0a f3 ca 3d 14 45 87 3e
       -0.06688016 0.11440088 0.09909637 0.2641989
0003b0 bc 1f 75 3e 5c f6 04 be 8a a9 93 bd fe f7 a0 3d
       0.23937887 -0.12984604 -0.072100714 0.07859801
0003c0 96 00 be bd c5 fc 44 3e fa 7c 11 3e e1 b0 ba bd
       -0.092774555 0.19237049 0.14207831 -0.09115768
0003d0 2c 86 d5 3d d7 3b 79 bd 02 55 9d 3d d0 d1 fe 3c
       0.10425982 -0.060848083 0.076822296 0.031105906
0003e0 49 52 45 3e 81 83 af 3d 30 6f 36 be 06 55 ee bd
       0.1926967 0.08570004 -0.17815852 -0.11637311
0003f0 87 4e dd bb 7c d5 35 3d ea 4d 90 be ed cd d8 3d
       -0.006753746 0.044393048 -0.28184444 0.10586152

action_model._discrete_distribution.branches.0.bias f4 [3]
000000 39 25 33 3e d6 e7 1f be 03 f0 37 bc
       0.17494668 -0.15615782 -0.011226657

action_model._discrete_distribution.branches.1.weight f4 [3, 128]
000000 15 09 25 3e da d5 b7 3d 9e b0 0c 3e 70 bb 1f 3e
       0.16116746 0.08976336 0.13739249 0.15598845
000010 37 c8 ba bd 73 bd e1 3d 8d 0d 7b bc 7c 07 12 3e
       -0.09120219 0.11022463 -0.015323055 0.14260668
000020 ba 82 41 3e 97 5f 0a 3d 55 57 e8 3c 30 2f 12 be
       0.18897524 0.033782568 0.028361956 -0.14275813
000030 bb ec b5 3d 98 c8 d7 3d 1b 5f d2 3d a4 cd 49 be
       0.088830434 0.10536307 0.10272046 -0.19707352
000040 a1 43 20 3e bf d3 ad 3c 59 e4 fc 3d c0 35 92 3e
       0.15650798 0.021219132 0.12348241 0.28556633
000050 1c ff a2 3d 6f 6b d1 bd 71 9e 7d be 28 4a 11 3d
       0.079588145 -0.102255695 -0.24767472 0.03547111
000060 fb db 3f be 7c 2f 23 3d 42 7c eb bd 84 a5 93 bd
       -0.1873626 0.039840207 -0.1149831 -0.07209304
000070 69 87 84 bc b9 51 5d bb c3 79 a1 bd 0a 7d fe 3d
       -0.01617785 -0.0033770634 -0.07884552 0.12426193
000080 24 ba 85 be b9 bd ee bd a2 d4 3a 3d b1 71 c9 be
       -0.26118577 -0.116572805 0.04561294 -0.39344552
000090 10 2f 97 be fe 3a 1c 3e 89 ba 25 3e 89 77 21 be
       -0.29528093 0.15256879 0.16184439 -0.15768255
0000a0 70 ac 32 bd cb c5 e0 3c cc fc ac bc 54 a1 c6 be
       -0.04362148 0.027438065 -0.021116637 -0.3879496
0000b0 d8 22 c6 3d 2d 6f 89 3d 11 65 35 3e 23 66 f3 bd
       0.09674615 0.06710658 0.17714335 -0.118847154
0000c0 44 bf 8b bd d8 b5 af 3e b9 15 6c 3e b2 7a 9b 3d
       -0.068235904 0.34318423 0.23055162 0.07591762
0000d0 ff 00 f1 3c f1 85 ae 3d 8d 49 40 bd 94 42 3d be
       0.02941942 0.08521641 -0.046945143 -0.18482429
0000e0 9d 4c 32 bd b9 8b b0 3b 22 e0 42 bd b6 d5 11 be
       -0.043530095 0.00538775 -0.04757703 -0.1424168
0000f0 0d 12 f5 bd 75 ac ab be 89 be 2f 3e 19 46 89 3d
       -0.119663335 -0.33530012 0.17162527 0.06702823
000100 2e ed c7 3d 10 79 9c 3e de 6a 3c be e6 89 42 3e
       0.09762035 0.30561113 -0.18400142 0.18997917
000110 ea cf 77 bf 60 92 d7 3d 79 c5 ad 3d a4 85 20 3e
       -0.96801627 0.10525966 0.084849305 0.1567598
000120 60 cb 5f be 89 20 f3 3d 40 cb d3 3d 41 9a 23 be
       -0.21854925 0.1187144 0.10341501 -0.15976812
000130 a0 b5 b9 3c 00 30 46 3b a4 4b 2d bf aa cd a7 3c
       0.022669613 0.0030241013 -0.67693543 0.02048381
000140 14 9f 88 3d ef 2d 24 3e ed fc 46 3a 10 cc 1f be
       0.06670967 0.16033147 0.00075907895 -0.15605187
000150 49 a5 dd 3d 94 8f 7a be 6a 99 1d be a2 93 02 be
       0.10822541 -0.24468833 -0.15390554 -0.1275163
000160 a9 7e bc 3d 5d 21 58 be ac 2a 86 bd 52 56 fd 3d
       0.09203846 -0.21106477 -0.06551108 0.1236998
000170 9a 84 10 be 4f 50 6e 3d df 16 38 3e b0 fd 82 bd
       -0.14113083 0.058182057 0.17977475 -0.06396043
000180 a1 09 8d 3e 53 4e 24 3e 55 ef 5b 3e 3a 45 81 bd
       0.2754641 0.16045503 0.21478017 -0.06312032
000190 e5 4c 2d 3e 74 bc 5d be 97 18 79 3d a0 9f a2 be
       0.16923864 -0.2165392 0.060814466 -0.3176241
0001a0 6a c3 58 3e ac ed 03 3e 60 ac 0f 3e 90 23 09 be
       0.21168295 0.12883633 0.140306 -0.13392472
0001b0 ba aa ac 3d f5 d9 f9 bd 24 7d 3b be c5 f6 3e be
       0.08431001 -0.12199775 -0.18309456 -0.18648823
0001c0 b3 40 2c 3e 49 04 13 bf 1e 55 1e be e7 e0 c0 bc
       0.16821556 -0.57428414 -0.15462157 -0.023544742
0001d0 da 49 00 3e 46 50 65 be e1 d8 b3 3d 6e 2f 88 3e
       0.12528172 -0.22393903 0.08781601 0.26598686
0001e0 9e 39 9c bd 0b ce e9 3d 43 48 98 3e 46 ca 22 be
       -0.07628177 0.11416253 0.2974263 -0.15897474
0001f0 7f 4d ef 3d bf b2 f8 3d c9 dd 5c 3e 3b 39 83 be
       0.11684703 0.12143468 0.2156898 -0.256296
000200 12 9d 74 be 6c 76 fd 3c bb 50 c1 3d 7b b2 43 be
       -0.23888043 0.030940257 0.09439226 -0.19111054
000210 bf 31 f2 3c 70 d1 30 be 18 a5 8b be a3 70 07 be
       0.029564736 -0.17267394 -0.27274394 -0.13226561
000220 7c 38 bc be 4a 49 94 be 83 38 ac 3d 93 ea 2f 3d
       -0.36761844 -0.28962165 0.08409216 0.042948317
000230 fd 17 30 be bd 34 2e be 23 68 13 be c4 09 a2 3e
       -0.17196651 -0.17012306 -0.14395194 0.31648076
000240 9e fb 29 bd 2c 4a f4 3d 40 39 c5 bd 0f ad b8 be
       -0.041499726 0.1192821 -0.0963006 -0.36069533
000250 d6 12 5e bd 01 3e 10 3f 31 d4 e9 3e 0b 64 b8 3e
       -0.054217182 0.5634461 0.45669702 0.36013827
000260 47 67 d3 bc d6 0f 92 bd 99 cf 18 bc 4d a9 20 3e
       -0.025806082 -0.07131927 -0.009326839 0.15689583
000270 d2 eb 53 3e 09 bb 33 be 58 c3 9b 3e 1f 45 9e bc
       0.20695427 -0.17551817 0.30422473 -0.019320069
000280 f4 1f c7 3e 5b d2 81 3e 59 24 0c 3e 2b 8e b9 3e
       0.38891566 0.253558 0.1368574 0.36241278
000290 b5 56 dc 3e 7b ff dd bc 1a 39 39 be c9 8f b7 3e
       0.43034902 -0.027099362 -0.18088189 0.35851887
0002a0 37 83 59 bd 73 c5 b9 bb 06 a7 1e bd fc 92 c0 3e
       -0.05310365 -0.0056692897 -0.038733505 0.3761214
0002b0 f9 b4 34 be 4c 92 bd bd 11 19 2f be ba d0 5d 3e
       -0.1764716 -0.092564195 -0.17099406 0.21661654
0002c0 77 f3 06 be 9a ed 65 bd 90 42 05 bf 87 85 02 3d
       -0.13178812 -0.056134798 -0.5205469 0.031865623
0002d0 c7 fa ff bd 39 dd 1f be cd 62 1e 3e 42 0e 63 3e
       -0.12499004 -0.15611733 0.15467377 0.22173408
0002e0 6a e3 79 3d 57 8f b6 bd eb d1 68 3e f1 e0 b7 3d
       0.061007895 -0.08914059 0.22736327 0.08978451
0002f0 0e 15 20 3c 1e 35 d8 3e 67 0c 78 3b 33 d0 97 3d
       0.009770645 0.42228025 0.003784919 0.07412758
000300 90 d9 db bd a7 79 a0 bc dc 57 95 3d 97 af 0d be
       -0.10734856 -0.019589258 0.072921485 -0.13836513
000310 9d 98 11 3f 86 35 37 be 1e 99 37 bc e3 41 db bb
       0.56873494 -0.17891511 -0.01120594 -0.006691204
000320 56 fe 21 3e 05 7f 45 be af 70 10 be 99 c4 2c 3e
       0.15819678 -0.19286735 -0.14105485 0.16871871
000330 75 7b 40 3e 08 76 59 3e 3b 88 35 3e c0 60 00 3e
       0.18797095 0.21236432 0.17727749 0.12536907
000340 df 98 17 3c 92 b6 86 bd b5 dd 78 bd d0 d3 c1 3e
       0.009252756 -0.06577791 -0.06075831 0.37856913
000350 0c 49 3f b8 63 99 44 3e 4c 97 85 bd 32 e1 7f bd
       -4.560598e-05 0.19199137 -0.06522998 -0.062470622
000360 35 1c 1c be 37 24 a0 3e f6 69 70 3e 97 8b 50 be
       -0.15245135 0.3127763 0.23477921 -0.2036575
000370 32 51 ec 3e 92 18 53 be 22 96 8c be c4 b7 4a 3e
       0.46155697 -0.20614842 -0.27458292 0.19796664
000380 02 91 05 bf d0 de f6 bd 00 e2 1a be ff 33 be 3e
       -0.5217439 -0.12054217 -0.15125275 0.37149045
000390 a3 c6 8f bd 2c cc c0 3e ef 5e 1d be 20 b4 0a 3f
       -0.07020309 0.3765577 -0.15368246 0.541811
0003a0 86 15 79 3d 2a b2 01 be c8 69 3c be a9 aa 97 bd
       0.060811542 -0.1266562 -0.18399727 -0.07405598
0003b0 90 54 1b be f7 e9 5c 3e 63 12 97 3e 60 30 cd 3e
       -0.15168977 0.21573626 0.29506215 0.4007597
0003c0 0b 8d ca 3d 3b 5a 4f 3f 97 3b 49 3e 63 47 fb 3d
       0.09890183 0.80997056 0.19651638 0.12269475
0003d0 2c 47 87 be 7b 43 f4 3e 81 14 42 be 11 33 0c bf
       -0.26421487 0.47707734 -0.18953134 -0.5476542
0003e0 21 80 27 be f1 e2 39 be 91 ab 71 bd 60 33 ba 3d
       -0.16357471 -0.18152978 -0.05900151 0.0909183
0003f0 13 57 1b be d1 56 6d be c6 02 01 be 4d a3 bf 3e
       -0.15169935 -0.23177649 -0.12598714 0.37429276

action_model._discrete_distribution.branches.1.bias f4 [3]
000000 b1 03 b4 3d 32 a6 06 bd 9b b9 f5 bd
       0.087897666 -0.03287334 -0.11998292

exp_avg f4 [128, 15]
000000 d9 0a 31 ba 1a 2e 32 ba d9 0a 31 ba 99 45 2a ba
       -0.00067536306 -0.0006797031 -0.00067536306 -0.0006495356
000010 18 3b 36 ba 23 17 36 ba d9 0a 31 ba 68 c8 32 ba
       -0.00069515547 -0.00069461967 -0.00067536306 -0.0006820024
000020 58 64 88 39 00 66 e2 39 d9 0a 31 ba 38 61 45 ba
       0.00026014703 0.00043182075 -0.00067536306 -0.00075294403
000030 8f 90 25 35 b0 4e 98 39 88 9a 8d ba a6 ef 99 ba
       6.167765e-07 0.00029050326 -0.00108035 -0.0011744394
000040 b3 8c 95 ba a6 ef 99 ba 46 7b 95 ba 49 b3 99 ba
       -0.001140973 -0.0011744394 -0.0011404536 -0.0011726405
000050 68 43 95 ba a6 ef 99 ba 86 77 98 ba 53 af 08 38
       -0.0011387886 -0.0011744394 -0.00116323 3.258821e-05
000060 1a 0b 42 39 a6 ef 99 ba 8c 29 9b ba 63 14 5f b5
       0.00018505417 -0.0011744394 -0.0011837943 -8.310364e-07
000070 f4 b8 a7 38 b5 92 90 ba 93 12 bb b8 b8 ee 2d ba
       7.997631e-05 -0.001103005 -8.9203146e-05 -0.0006634998
000080 93 12 bb b8 8c 3b 12 ba a4 75 bb b8 b8 83 41 ba
       -8.9203146e-05 -0.0005578331 -8.938767e-05 -0.00073819933
000090 93 12 bb b8 74 ab b6 b9 be 0f 4d 37 5c 58 55 ba
       -8.9203146e-05 -0.00034841488 1.2222617e-05 -0.0008138472
0000a0 93 12 bb b8 54 c3 bd b9 9a 3d 82 31 20 f8 c6 b9
       -8.9203146e-05 -0.0003619442 3.7905012e-09 -0.0003795037
0000b0 6c 6b f9 ba dd b3 71 bb 8a 6c c3 bb dd b3 71 bb
       -0.0019029207 -0.0036880889 -0.0059638666 -0.0036880889
0000c0 ea 75 c3 bb 32 eb 71 bb f7 e5 c8 bb dd b3 71 bb
       -0.005964984 -0.003691387 -0.0061309296 -0.0036880889
0000d0 7e 56 a4 bb 68 94 b4 39 14 a8 1e bb dd b3 71 bb
       -0.0050151935 0.00034442847 -0.002420907 -0.0036880889
0000e0 70 48 9d bb 44 25 36 37 12 94 73 bb e4 4e 2a bc
       -0.004799895 1.0856722e-05 -0.0037167114 -0.010394786
0000f0 3f 58 54 3b 84 f2 db 3a 3f 58 54 3b 83 9a e6 3a
       0.0032401232 0.0016780649 0.0032401232 0.0017593656
000100 aa 7d 52 3b ff e1 c8 3a 3f 58 54 3b 7a fa 1c 3b
       0.0032118359 0.0015326141 0.0032401232 0.0023953007
000110 ac 8b 43 3a ff 8c 95 ba 3f 58 54 3b 38 07 24 3b
       0.00074594724 -0.0011409818 0.0032401232 0.0025028717
000120 04 b5 66 36 26 27 f0 ba da 87 fc ba e9 a2 b5 b8
       3.4378036e-06 -0.0018322214 -0.0019266561 -8.661097e-05
000130 6c 05 90 39 e9 a2 b5 b8 81 10 8e 39 9d 55 b5 b8
       0.0002746986 -8.661097e-05 0.00027096647 -8.646699e-05
000140 04 ff 9e 39 e9 a2 b5 b8 b9 62 0c 39 3c 1a 5c 37
       0.0003032611 -8.661097e-05 0.00013388217 1.311913e-05
000150 8d 3c 0e 3a e9 a2 b5 b8 0b 48 06 39 89 84 41 b4
       0.0005425893 -8.661097e-05 0.00012806074 -1.8022742e-07
000160 c2 0e 22 3a 74 66 a3 3a 3c f4 91 3a 59 a2 86 3b
       0.00061820087 0.0012466446 0.001113541 0.004108709
000170 3c f4 91 3a d2 fc 85 3b f1 83 94 3a 25 1f 8e 3b
       0.001113541 0.0040889764 0.0011330826 0.004337209
000180 3c f4 91 3a fb 24 38 3b 37 c4 58 ba 6f 4d 21 3b
       0.001113541 0.0028098214 -0.00082689844 0.0024612804
000190 3c f4 91 3a 91 08 22 3b 3d 30 1d b7 8f b5 92 3b
       0.001113541 0.0024724344 -9.369161e-06 0.00447721
0001a0 67 d3 19 3c 10 e4 e6 bb e4 35 01 bc 10 e4 e6 bb
       0.009388781 -0.00704623 -0.007886384 -0.00704623
0001b0 a6 31 00 bc ea 1f e7 bb a7 9d 02 bc 10 e4 e6 bb
       -0.007824337 -0.007053365 -0.007972158 -0.00704623
0001c0 2c 39 f7 bb b2 6d 42 39 1c c5 02 ba 11 e4 e6 bb
       -0.007544657 0.00018542146 -0.0004988478 -0.0070462306
0001d0 64 7a f9 bb 0b 94 0b 36 38 52 7b ba 64 98 24 bc
       -0.007613467 2.0798786e-06 -0.00095871417 -0.010046098
0001e0 a9 c5 99 39 08 ab 6f 38 a9 c5 99 39 b0 0f 40 38
       0.00029329702 5.7141326e-05 0.00029329702 4.5790977e-05
0001f0 53 e3 99 39 98 b8 32 38 a9 c5 99 39 f0 01 11 39
       0.00029351804 4.2610423e-05 0.00029329702 0.00013829
000200 f9 42 0e 36 de a6 aa b9 a9 c5 99 39 34 a6 1b 39
       2.1198632e-06 -0.00032549253 0.00029329702 0.00014843867
000210 00 a5 a1 b2 a6 d8 f6 b9 c5 99 4d ba 67 43 fa ba
       -1.88179e-08 -0.00047082192 -0.0007843043 -0.0019093574
000220 a8 16 c6 ba 67 43 fa ba 6e e7 c3 ba 70 20 fa ba
       -0.0015112953 -0.0019093574 -0.0014946291 -0.0019083153
000230 2e e1 c2 ba 67 43 fa ba 03 74 d9 ba c9 7c e2 b8
       -0.0014868134 -0.0019093574 -0.001659036 -0.00010799763
000240 30 e2 e7 39 67 43 fa ba 40 15 de ba ff e7 0a b5
       0.00044228276 -0.0019093574 -0.0016943589 -5.1746605e-07
000250 3c 8b 40 3a 0c 4a 86 b9 92 d0 15 39 db 23 c6 ba
       0.0007344966 -0.0002561364 0.00014287446 -0.0015116887
000260 92 d0 15 39 9a d7 c7 ba 75 a8 15 39 8a 1e d6 ba
       0.00014287446 -0.0015246749 0.00014272502 -0.0016336006
000270 92 d0 15 39 4c a7 6a ba 1c c3 91 b7 cf 30 19 bb
       0.00014287446 -0.0008951321 -1.7376202e-05 -0.002337504
000280 92 d0 15 39 48 42 62 ba 27 67 04 b5 bc 8d 42 bb
       0.00014287446 -0.00086310925 -4.932394e-07 -0.002968653
000290 0c 74 db bb 09 82 96 38 f1 f2 13 3a 09 82 96 38
       -0.0066971835 7.176778e-05 0.0005643806 7.176778e-05
0002a0 89 b5 1c 3a 5f 67 93 38 8d 5c 1b 3a 09 82 96 38
       0.00059779786 7.0287606e-05 0.0005926572 7.176778e-05
0002b0 b1 78 e0 39 96 e2 1b b9 e0 e1 7c 38 02 82 96 38
       0.00042814531 -0.00014866362 6.0291844e-05 7.176773e-05
0002c0 8c fb ec 39 84 79 24 35 b5 df 66 3a 3b 30 35 3b
       0.00045200845 6.127159e-07 0.00088071387 0.0027647156
0002d0 93 40 38 bb db 3d 16 bb 93 40 38 bb d0 c0 17 bb
       -0.002811466 -0.0022925052 -0.002811466 -0.0023155697
0002e0 f9 5c 38 bb 5e 64 13 bb 93 40 38 bb d4 09 27 bb
       -0.0028131588 -0.0022490243 -0.002811466 -0.0025488036
0002f0 92 f6 b6 b8 e6 d0 36 3a 93 40 38 bb 3a 5c 2c bb
       -8.7243636e-05 0.00069738773 -0.002811466 -0.0026300089
000300 c5 44 78 b5 ef d0 3a 3a ee bb de ba 39 86 38 b8
       -9.248727e-07 0.00071264704 -0.0016993263 -4.3994023e-05
000310 5f 4d 55 39 39 86 38 b8 99 2b 56 39 db 33 39 b8
       0.00020342086 -4.3994023e-05 0.00020424872 -4.415573e-05
000320 b9 c5 67 39 39 86 38 b8 08 29 bf 38 9c 15 6b 35
       0.00022103534 -4.3994023e-05 9.1152324e-05 8.757577e-07
000330 a2 6b b7 39 39 86 38 b8 de 57 4c 38 21 95 08 b5
       0.00034984673 -4.3994023e-05 4.8719223e-05 -5.088096e-07
000340 40 fa db 39 92 16 04 3a fd a7 6e bb 86 d6 be bb
       0.00041957386 0.00050387636 -0.0036416047 -0.005823913
000350 fd a7 6e bb 82 4a bf bb b0 64 6f bb bc 25 c4 bb
       -0.0036416047 -0.0058377394 -0.003652852 -0.0059859436
000360 fd a7 6e bb fd a5 a2 bb d0 9a 01 3a b4 fa cd ba
       -0.0036416047 -0.004963635 0.00049440283 -0.0015714974
000370 fd a7 6e bb 39 70 9e bb fb 64 9e 36 d0 fa 5d bb
       -0.0036416047 -0.0048351553 4.7205226e-06 -0.003387142
000380 2e 06 39 bc 4a 97 3c bb 4a 8e 04 bb 4a 97 3c bb
       -0.011292977 -0.0028776699 -0.0020226412 -0.0028776699
000390 ba 17 09 bb 0d 0a 3b bb 81 84 fd ba 4a 97 3c bb
       -0.0020918683 -0.0028539926 -0.0019341857 -0.0028776699
0003a0 7b c3 1f bb ef 5b e8 b9 0d 57 90 3a 4a 97 3c bb
       -0.002437799 -0.00044318984 0.0011012271 -0.0028776699
0003b0 2e 3d 23 bb f0 7e 8a b5 ea 93 82 3a 40 64 67 39
       -0.0024908292 -1.0318745e-06 0.0009962295 0.00022067223
0003c0 e6 86 06 ba 38 77 2e ba e6 86 06 ba df 9f 2f ba
       -0.0005131796 -0.0006655338 -0.0005131796 -0.0006699543
0003d0 af b8 06 ba 96 42 31 ba e6 86 06 ba f6 45 22 ba
       -0.00051392143 -0.0006761936 -0.0005131796 -0.00061902346
0003e0 ac 87 eb 37 ad a7 d0 b8 e6 86 06 ba c4 0b 25 ba
       2.807736e-05 -9.949445e-05 -0.0005131796 -0.00062960037
0003f0 0c 9c 20 b3 1f 33 8d b9 22 a4 9a ba e8 f5 79 bb
       -3.7394827e-08 -0.00026931704 -0.0011798183 -0.0038140956

exp_avg_sq f4 [128, 15]
000000 98 2c 8e 37 4d 73 7f 38 a9 c4 80 37 4a 58 64 38
       1.6948485e-05 6.090412e-05 1.5350366e-05 5.444166e-05
000010 13 13 81 37 92 46 91 38 7a e8 73 37 36 2c 85 38
       1.538688e-05 6.9272835e-05 1.4538056e-05 6.350169e-05
000020 ee f2 ab 37 57 e7 c4 38 72 9a c8 36 c6 8b 99 38
       2.0497911e-05 9.389099e-05 5.9784443e-06 7.321643e-05
000030 f7 1f ee 37 45 b8 20 39 65 c2 36 3a 7f 17 30 36
       2.8386696e-05 0.00015327435 0.0006971716 2.623972e-06
000040 eb 69 41 37 78 0d 61 36 b9 04 56 37 c4 8f 9a 35
       1.1528357e-05 3.3535453e-06 1.2756494e-05 1.1515735e-06
000050 2a bc 2b 37 c3 17 61 36 ac 62 9b 37 a1 66 a8 35
       1.0236205e-05 3.3541444e-06 1.8523388e-05 1.2546844e-06
000060 e7 61 04 37 dd 70 6f 36 de be a9 37 ec 02 4b 36
       7.890608e-06 3.567947e-06 2.023525e-05 3.0251058e-06
000070 fc d1 50 37 a8 f6 d9 38 6a 1d da 38 ca f8 eb 39
       1.2446657e-05 0.0001039331 0.00010400529 0.00045008055
000080 3d 29 81 38 d8 f2 c8 39 15 27 1c 39 8b 95 1a 3a
       6.1588806e-05 0.00038327905 0.00014891879 0.00058969174
000090 89 65 51 38 92 c2 a0 39 18 55 86 39 41 64 56 3a
       4.9924045e-05 0.00030662544 0.00025621871 0.0008178391
0000a0 55 28 9b 36 1c 4f 94 39 cc 4a 93 39 bf 33 9e 3a
       4.6240552e-06 0.000282877 0.00028093753 0.0012069865
0000b0 c4 4e 5d 3b 10 24 34 39 63 ff d3 39 92 b4 d9 38
       0.0033768872 0.00017179572 0.00040435334 0.00010381
0000c0 d7 e5 c3 39 23 d4 8a 39 10 40 03 3a 34 65 cf 38
       0.00037364542 0.00026479465 0.00050067995 9.88938e-05
0000d0 c5 9d ac 39 2b e8 cd 39 d8 ed 1a 3a 3a c8 3c 38
       0.00032923944 0.00039273626 0.0005910075 4.500917e-05
0000e0 5f 63 a7 39 92 5a d8 39 4f 1f 3b 3a ed 99 e4 3a
       0.0003192676 0.0004126621 0.0007138149 0.0017440893
0000f0 b4 58 55 38 9f 89 49 39 17 23 45 38 ff 2e 4a 39
       5.086577e-05 0.00019220122 4.700114e-05 0.00019281729
000100 d7 53 10 38 7e 5a 62 39 43 46 44 38 4f 36 49 39
       3.4410357e-05 0.0002158675 4.6795478e-05 0.00019189085
000110 b5 37 99 37 95 bb 8a 39 cf 75 40 38 6b 43 4b 39
       1.8264962e-05 0.0002646117 4.5886085e-05 0.00019384704
000120 91 52 aa 37 62 70 d1 39 f7 6a 02 3b a2 d9 1d 34
       2.0304027e-05 0.00039947318 0.0019900182 1.4700939e-07
000130 ba a0 b7 36 00 fa 3d 34 0d 16 e9 36 b0 3e 07 34
       5.472536e-06 1.7692946e-07 6.946508e-06 1.259566e-07
000140 35 af de 36 4c 12 40 34 3a 08 99 37 34 0b 55 36
       6.6365124e-06 1.788805e-07 1.8242852e-05 3.1745994e-06
000150 71 6f 23 37 ee 56 2c 34 7f 5a ce 37 cd b8 bd 36
       9.741504e-06 1.6050373e-07 2.4599254e-05 5.6541526e-06
000160 c5 46 83 37 24 b0 2a 39 dc ac 67 38 94 eb 5e 39
       1.5649372e-05 0.00016278081 5.523568e-05 0.0002125933
000170 7d bb 83 38 72 ab 86 39 00 b5 c6 37 ea bf 48 39
       6.281489e-05 0.00025686208 2.3687724e-05 0.0001914498
000180 24 98 83 38 18 2b ca 39 26 b7 9c 37 8d 70 7f 39
       6.274905e-05 0.0003856055 1.8681934e-05 0.00024360624
000190 a5 16 83 38 4a 11 e9 39 f8 b1 a6 37 73 66 aa 39
       6.250785e-05 0.00044454104 1.9871615e-05 0.00032501257
0001a0 c3 cb 54 3b 7b d3 a7 38 b8 3b 5f 39 10 9d bd 38
       0.0032470084 8.002572e-05 0.00021289184 9.0414775e-05
0001b0 e8 ca 5a 39 a8 16 10 38 fd 51 5a 39 b1 97 bc 38
       0.00020865689 3.4353376e-05 0.00020820643 8.992793e-05
0001c0 61 c6 57 39 3e 40 04 37 14 bb 7e 39 f1 97 bd 38
       0.000205779 7.882771e-06 0.0002429302 9.0405236e-05
0001d0 30 6c 63 39 4d e1 33 37 41 ab c6 39 63 a1 10 3b
       0.0002168871 1.0721688e-05 0.00037893097 0.002206885
0001e0 00 2d 68 35 3a 80 7c 37 48 80 62 34 16 68 70 37
       8.649222e-07 1.5050226e-05 2.1094559e-07 1.4329349e-05
0001f0 c6 c0 10 36 71 4e 94 37 4b 4a 45 34 4d e7 dc 37
       2.156988e-06 1.7679502e-05 1.8374082e-07 2.6333752e-05
000200 4f 76 b1 36 d4 8f c1 37 60 46 51 34 6b 83 12 38
       5.288784e-06 2.3074368e-05 1.9490244e-07 3.4931505e-05
000210 a4 78 e3 36 ba 82 05 38 ea 0e 8d 39 77 c7 84 37
       6.7791716e-06 3.183142e-05 0.00026904728 1.582851e-05
000220 7d 3d 64 38 32 8b 85 37 4d 0d 87 38 9e f4 fc 36
       5.44167e-05 1.5919653e-05 6.439779e-05 7.5386624e-06
000230 e2 30 61 38 45 64 85 37 f5 cc ff 38 f0 16 25 36
       5.3689706e-05 1.5901527e-05 0.00012197524 2.4600267e-06
000240 5f 86 67 38 86 67 76 37 c9 16 1f 39 70 ab 4c 36
       5.5199835e-05 1.4686846e-05 0.0001517191 3.0498159e-06
000250 ed f8 9b 38 c6 34 83 3a 6a 70 02 36 60 bb 9a 38
       7.437342e-05 0.0010010235 1.9436943e-06 7.3781935e-05
000260 81 21 a7 35 1d ae 9b 38 a0 98 b3 36 11 93 b4 38
       1.245222e-06 7.423407e-05 5.3523836e-06 8.610462e-05
000270 bb 5f 8f 35 ed 82 ef 38 16 76 9b 37 df 68 f4 38
       1.0682191e-06 0.00011420795 1.8532428e-05 0.000116543604
000280 97 be 00 35 ab a6 1c 39 68 eb ce 37 35 d9 36 39
       4.796106e-07 0.00014939408 2.4666733e-05 0.00017437788
000290 88 ad bc 3a ee 23 c7 38 e0 6e 20 39 3c 6f a2 38
       0.0014394978 9.495752e-05 0.00015300093 7.745481e-05
0002a0 de 82 15 39 a5 1c d5 38 7c ef 2f 39 91 d4 9b 38
       0.00014258499 0.00010161967 0.00016778515 7.4305695e-05
0002b0 c4 a0 0f 39 43 ea 02 39 a5 43 40 39 c8 e6 ce 37
       0.00013697433 0.00012485035 0.00018335746 2.466458e-05
0002c0 ed cf 08 39 66 ca 07 39 b1 bc 65 39 84 7c 05 3a
       0.00013047429 0.00012950003 0.00021909435 0.00050921016
0002d0 a8 8c 61 37 3c 1a 28 38 0c 93 49 37 db 9a 35 38
       1.3443794e-05 4.0078754e-05 1.2014771e-05 4.3297983e-05
0002e0 4e 80 67 37 d3 fa 31 38 5e 7f 3c 37 62 a8 61 38
       1.3798546e-05 4.2433687e-05 1.1235328e-05 5.3801e-05
0002f0 e1 39 23 37 f6 0c 4e 38 91 3f 1a 37 c2 74 90 38
       9.729033e-06 4.9126298e-05 9.1939155e-06 6.888203e-05
000300 ea a9 27 37 e0 3f 92 38 12 11 15 3a e7 03 85 36
       9.993537e-06 6.97372e-05 0.00056864426 3.964163e-06
000310 e4 a9 8f 37 75 1e bb 35 cc 0d 84 37 0e 7d 18 37
       1.712604e-05 1.394145e-06 1.574205e-05 9.089023e-06
000320 54 11 c3 37 0d 1d a2 35 7f 7f a7 37 2e 6c aa 37
       2.325388e-05 1.2078395e-06 1.9967321e-05 2.0315954e-05
000330 14 ee e4 37 b1 76 a7 34 09 dd bf 37 57 e2 cd 37
       2.7290582e-05 3.1192533e-07 2.2871902e-05 2.4543302e-05
000340 6b d9 0d 38 cf 55 f4 38 e7 50 29 3a 60 68 84 3a
       3.3819506e-05 0.0001165081 0.0006458894 0.0010101907
000350 b6 75 0c 3a 07 a9 82 3a bc 39 31 3a 40 ef 8c 3a
       0.00053581165 0.0009968587 0.0006760617 0.0010752454
000360 15 76 05 3a 5d 65 a2 3a aa 43 66 3a c2 13 98 3a
       0.0005091143 0.0012389828 0.00087838864 0.0011602568
000370 fc b6 3e 39 51 61 ae 3a 83 1a 71 3a 1c 0a ae 3a
       0.00018187979 0.0013304149 0.0009197371 0.0013278159
000380 18 b4 99 3b fe b1 4e 38 e8 e5 49 39 e9 5e 28 38
       0.0046906583 4.9279995e-05 0.000192545 4.0142713e-05
000390 bd 52 46 39 b3 2d 37 38 dd 95 71 39 e2 8a 1d 38
       0.00018913574 4.367316e-05 0.0002303938 3.756106e-05
0003a0 07 32 62 39 64 69 3e 38 d7 6b 9b 39 f6 27 06 38
       0.00021571676 4.5397683e-05 0.0002964425 3.1985306e-05
0003b0 cf dd 84 39 81 94 4d 38 e5 bf e9 39 10 7f 1a 3b
       0.00025342262 4.9014114e-05 0.00044584196 0.002357427
0003c0 0d 8a 9a 35 bd 71 23 38 52 d4 48 35 57 83 26 38
       1.1514072e-06 3.8968155e-05 7.481477e-07 3.9699804e-05
0003d0 66 c0 90 36 43 2f 41 38 9d e8 46 35 29 42 25 38
       4.3139325e-06 4.60588e-05 7.4099245e-07 3.9400682e-05
0003e0 96 af 86 37 0d 4b 25 38 3c 51 89 35 44 dd 0e 38
       1.6055808e-05 3.9408962e-05 1.0230938e-06 3.4061508e-05
0003f0 5d 66 b2 37 43 f3 56 38 de e0 4b 39 3e be 62 38
       2.126692e-05 5.124813e-05 0.00019443358 5.4059776e-05
