results/AgenteCoche_imitation6/AgenteCoche.onnx (onnx, 80391 bytes, 9 tensors)

action_model._discrete_distribution.branches.0.bias f4 [3]
00000000: 0000 0000 0000 0000 0000 0000
0.0 0.0 0.0

action_model._discrete_distribution.branches.0.weight f4 [3, 128]
00000000: d86e f2ba 0bb7 893c e5a7 15bb 46f6 8039
00000010: 7be8 023c a589 523b 0a2a 8d3b 337f f7bb
00000020: b64e 01bc 035f ca3b ba4c 30bc cfa6 873b
00000030: 458c 1f3a 27dc 11bc 18c0 ae3c 0bb2 73bc
00000040: 0b1c 4f3b 9f69 d2bb 3377 9e3c 133b fdbb
00000050: 6ddd b73b a013 21bc 2314 5cbc fee9 87ba
00000060: fafc 533c 828f e2ba 9f2a 17bc 3016 31bb
00000070: e3ec ef3b b8bc 2a3b c827 8ebb cbb3 3bbb
00000080: bf0e 2f3c 87ba 5db9 3fa9 e93b a29f cf3b
00000090: 5e24 aa3b 3f19 9c3b fb31 07bc dfa4 fa3b
000000a0: 16de 93bb afb1 313c 5583 d33b 837f 16bc
000000b0: 15c4 c03b a3f1 8a3b 905a 863c 1b55 91bc
000000c0: ebd0 a53b a9ae c3ba 7b46 0ebc 133e 3e3c
000000d0: c39d a13c ab39 0a3c 986c e0b9 7dd7 d53a
000000e0: 0d27 65bb b354 d53a 57c5 7fbb 690c ab3a
000000f0: c548 e4bb 2f76 7fbc ba0a b5bc 27ee cbba
00000100: a3dc 32bc 2327 b2bb b251 7539 deb1 b63b
00000110: a091 ec38 67ac 13bc a21b e63b 7eb5 223c
00000120: c17f 2f3a 73bd e33a f3c1 093b eed3 c13b
00000130: b51f 5b3b 9298 ae3b cb3b 2d3c c813 80b9
00000140: 1fa0 f53b db6f a6bb ba9b c7bb 0e53 943b
00000150: 4a0f 5d3b df79 f7bb 2069 eb3b af43 02bc
00000160: 8a47 6cbb 4317 f43b ef4e 1cbb 3bf5 8138
00000170: c37c bc3b 500d 39ba 8cf7 a6bb 9e77 04bb
00000180: 2ff8 613c ae00 9e3b 3dda dfbb 9f5b df3b
00000190: fae3 16bc fa5d c53b c4fd a8b8 e0c3 57ba
000001a0: f74b 363c e910 253c b602 30bb 57f5 083c
000001b0: 53ec 2cbc f9d2 99ba ba2f fb3b 83dc 15bc
000001c0: df2e 7e38 843a 05bc 80a9 a6bb 0b3d 883b
000001d0: b464 a7ba 90c8 a03a 43bc d7bb c410 223c
000001e0: 2a71 003c c664 9ebb 67ab 263a ff10 1e3c
000001f0: bfc8 0cbc 5bcb 9b3b 5766 2e39 9b5a 44bb
00000200: 0d7e 62bb b80b d43b 1f68 a339 c2ea 6b39
00000210: 7e88 b2bb 8bb9 c5bb a8a4 bdba aa7a 553c
00000220: f085 c0bb b29e da3b 7fad dc3a 0036 46bc
00000230: cd08 703c 8a56 643c 4077 333c 4518 603b
00000240: 64a2 923c 084c 67ba e7fe b13a d845 74bb
00000250: 05f3 1fba 1dfd 703b 6b19 1b3c ef55 593c
00000260: 8f93 c23c 5e63 99bc c76d c8bb 50b2 bbbc
00000270: 5701 7a3c 94e1 8dbb 427e 413c ed4a 53bc
00000280: 3f5c 8d3a 10c1 a8bb 0e74 273c 5c1c 1e3b
00000290: e638 c9bb a467 85ba 67b2 ea3b 1858 63ba
000002a0: 056d 1fbc 3579 34bb 2745 403c 0874 a0ba
000002b0: 8caa c63b 324d 8c3c 3b93 6d3c 8f26 f33b
000002c0: aa45 2cbb dc17 173c f56b 623c 3d5b f9ba
000002d0: 6bf9 d2ba c7e5 493c 35a7 be3b 7879 ecbb
000002e0: 4997 4a3c adbf 98bc 6930 203c 0746 8a3b
000002f0: 752e 5fbc 7f81 de3b 0f02 9bbb 6c70 8ebb
00000300: 6733 073b 6a51 4f3c 3da6 dd3b 671e 513a
00000310: 9739 e33b 880b 8cbc d987 c7bb b591 e6ba
00000320: 17d2 6f3c d8e2 2ebb 5fda 34bb 012f 9b3b
00000330: 1074 c53b f52f 50bc 93b9 19bc 0dad 95ba
00000340: 2805 7dbc dd22 ec3b afe7 a339 d97b a9bb
00000350: 7678 4bbb e69e 933a 4868 cebb 24a3 1239
00000360: 34e0 2cbb c817 803a 2ab3 c1bc 8070 f73a
00000370: 2ee0 813a 064d c8bb 4d29 40bc 7f5d c53a
00000380: f249 e33b e322 ae3b ebcf 203a f664 8b3a
00000390: 1dc1 70bb 704f e63b abd2 0ebc c857 54bb
000003a0: 9e24 3dbb e8ed 833b db90 af3b f01c d83b
000003b0: 88c3 92b9 5b9a c9bb 3451 3d3b 7a27 0d3c
000003c0: 4f18 153c 15a8 e339 be1e 03bc f15d 823c
000003d0: 89dd 033c 6f72 023b 14a2 33bc 60ef a63b
000003e0: 9fc5 0fbc 1397 10bc 8dcf 673c 218f 0e3b
000003f0: 12b2 ac39 5e23 85bb 1502 d5ba cc5f 99bb
-0.0018496169 0.016810915 -0.0022835669 0.0002459755 0.007989998 0.00321255 0.00430799 -0.007553005
-0.007892301 0.006175877 -0.010760481 0.004139758 0.00060862704 -0.008902586 0.021331832 -0.014873992
0.0031602408 -0.0064212824 0.019343948 -0.0077279895 0.005611113 -0.009831339 -0.013432535 -0.0010369418
0.012938732 -0.00172852 -0.00922647 -0.0027021281 0.0073219403 0.0026052427 -0.0043382384 -0.00286411
0.010684668 -0.00021145689 0.0071307714 0.0063361684 0.0051923236 0.0047637518 -0.008251662 0.0076490487
-0.0045125587 0.010845586 0.006454865 -0.009185675 0.00588275 0.004240231 0.016400605 -0.017740777
0.0050603054 -0.0014929372 -0.008683796 0.011611479 0.019728547 0.008436601 -0.00042805518 0.0016314831
-0.0034965903 0.0016275853 -0.0039027536 0.0013049963 -0.0069666826 -0.015592142 -0.022099841 -0.0015558646
-0.010916862 -0.0054367944 0.00023395455 0.0055754026 0.00011280482 -0.009013272 0.007022337 0.009930966
0.0006694757 0.0017375186 0.0021020144 0.0059151566 0.0033435647 0.0053282464 0.010573338 -0.000244288
0.0074958946 -0.005079252 -0.006091562 0.0045265025 0.0033731037 -0.00755237 0.0071841627 -0.007950707
-0.0036053383 0.007449062 -0.002385076 6.196877e-05 0.0057521774 -0.00070591737 -0.005095428 -0.00202129
0.013792082 0.0048218584 -0.006831436 0.006816342 -0.009209627 0.006023166 -8.058132e-05 -0.0008230787
0.01112651 0.0100748325 -0.0026857085 0.008359275 -0.010554391 -0.0011735848 0.0076656016 -0.009146812
6.060197e-05 -0.008131627 -0.005086124 0.0041576675 -0.0012771101 0.0012266804 -0.006583722 0.009891693
0.00783948 -0.0048337905 0.00063579384 0.009647607 -0.0085927835 0.0047544665 0.00016632058 -0.0029961232
-0.0034559995 0.0064711235 0.0003116736 0.000224988 -0.0054484 -0.0060340813 -0.0014468627 0.013029734
-0.0058753416 0.00667175 0.0016836374 -0.012097836 0.014650536 0.013936648 0.010953724 0.0034194153
0.0178997 -0.000882328 0.0013579995 -0.0037273075 -0.00061015814 0.003677196 0.009466509 0.013265117
0.023752002 -0.01872414 -0.006116602 -0.022912174 0.0152591085 -0.0043298695 0.011809887 -0.012896282
0.0010784938 -0.005149968 0.010220541 0.002412579 -0.006140816 -0.0010177982 0.0071623805 -0.000867249
-0.009730582 -0.0027538065 0.011735237 -0.0012241611 0.0060628112 0.017126653 0.0145004345 0.007420368
-0.002628664 0.009221997 0.013819684 -0.0019024384 -0.0016096061 0.01232285 0.0058182725 -0.0072166286
0.012365171 -0.018646086 0.009777167 0.0042197737 -0.013621916 0.0067903395 -0.00473047 -0.004346898
0.0020630003 0.012653688 0.006764202 0.00079772476 0.0069343555 -0.017095342 -0.0060891923 -0.0017591032
0.014637492 -0.0026685502 -0.002759598 0.004735828 0.0060257986 -0.012706746 -0.009382623 -0.0011419371
-0.015443124 0.0072063045 0.000312624 -0.0051722345 -0.0031047142 0.0011262565 -0.0062990524 0.0001398442
-0.0026378753 0.0009772712 -0.023645002 0.0018878132 0.000990873 -0.0061126975 -0.011728597 0.0015057771
0.006936305 0.0053142174 0.0006134498 0.0010634947 -0.0036736198 0.0070285127 -0.008717219 -0.0032400955
-0.0028860937 0.0040261634 0.0053578443 0.0065952465 -0.00027992972 -0.006152434 0.0028887512 0.008615369
0.009100034 0.00043422045 -0.008002935 0.015913935 0.008048424 0.0019904634 -0.010963935 0.0050944537
-0.008775144 -0.008825081 0.014148605 0.0021752792 0.0003293907 -0.004063054 -0.0016251231 -0.0046806093

action_model._discrete_distribution.branches.1.bias f4 [3]
00000000: 0000 0000 0000 0000 0000 0000
0.0 0.0 0.0

action_model._discrete_distribution.branches.1.weight f4 [3, 128]
00000000: 37aa 51bb b6ae b7bb 6245 25bb 437e 45ba
00000010: 5fa7 143c 701c acbb 3360 883b cf8f 0fbc
00000020: 9072 f0bb 4b81 80bb c345 4fbc 2fa7 623c
00000030: 0580 6b3a c0b3 143c 1b4e c63b 405d 563c
00000040: 8bb7 103b 1a59 cabb 1132 c13b df9f fbbb
00000050: ba3a a53c abc2 0f3c a643 85ba 38ee 153c
00000060: 9dad 3eb7 e34d 8b3b 8e76 9cb9 e30c a33a
00000070: 3b45 6b3c 276c e3b9 1077 8d3b fd10 f7b9
00000080: 9fd8 d2ba bd65 79bb 6620 86ba a00a a0bb
00000090: 83a9 a63b f55d 71bc 3f32 ca3b 4869 823b
000000a0: fdbc 113c 1235 83bb 2be1 8939 302f a839
000000b0: 80b2 ec3b d867 a83c daf8 46bb 3a77 69bc
000000c0: 337d 1cbb 22e7 0a3c d7eb 523c 546b 283c
000000d0: c8d9 5fba 49ca 9bbb 0514 4dbb 6b9e 443c
000000e0: 715d 233a 0785 263b 1cc1 383c bd0f 5d3b
000000f0: ba9c 033b e3c4 e33b a227 eb38 78a0 203c
00000100: 07de 6abb 3bb9 e1ba 79a3 ae39 455c b9bb
00000110: 5704 09bb 8714 993b 8d69 f5bb 1568 a63b
00000120: 913d b03b b279 8b3b 4074 d53b 9fd6 f839
00000130: 4147 1fbc b08d 3abb bb61 8fbb 3b1b e3bb
00000140: e815 403b 03a7 7f3c 8bae 9cbc 6ece 97bb
00000150: c0c0 6b3b 1c80 803b e7d6 75ba a057 6abc
00000160: bc1e 093c e177 293c 384b e2ba 9c85 b43b
00000170: 0840 f83b 9367 473c bba5 13bc 9efe a13b
00000180: 2940 8d3c 5507 633b 9833 d7bb 5bc6 1f3c
00000190: b226 013b a3cd 833b c7be 2e3b 472d 8bbc
000001a0: 6e4b c33b ba48 0c3c d5df 05bc 8a67 e63b
000001b0: c35d c93b 7f7e 22bc 1316 823b 8a9e cdbb
000001c0: bdd2 493c 3fb8 873b a0e7 1fbb 88b7 fe3b
000001d0: 9fde b0b9 48af 02bc 6c21 c7ba 75f4 8dbb
000001e0: e817 7abc e57b 71bb fed8 a63b 338d b93b
000001f0: 3700 60bb 02d3 c83b 838e 2abb 1f00 1e3c
00000200: d011 5abb 6f7f 883b 63b5 c63b 38bc fa3b
00000210: ef1f 73b8 f86e 54bb 02a9 8abc ff5d 833b
00000220: f306 94bb 7f62 973a b794 80bc 56d6 bfbb
00000230: abbc 89bc f8a6 073c adce 29bc 2b89 9b3a
00000240: 82c8 4c3b 198b ae3b 6a6d 5cbb b3fb 6abb
00000250: ddea 373a 1fd0 25bc d6e8 9d38 d38e 8bbb
00000260: a3aa 8cbc 0284 4e3c cab9 913c daa8 863a
00000270: cfb0 d7bb 8fa9 313a 3cef 883b b338 dfbb
00000280: 6979 a53b 1232 f63b ca77 39b8 9fa3 d23b
00000290: d9c6 49bc e789 da3a db38 1b3c bf13 6f3b
000002a0: 5f76 753c 4de7 1ebc 1ab6 53ba ee5f b5bb
000002b0: ef27 10bc 638c 9ebc ea2a 09bc 6f07 ee3b
000002c0: e35e b03b 9410 493c 113a 3abc 1a4a 81bb
000002d0: 5e58 04bc 6297 4fbc 6586 353b c8a2 aa3a
000002e0: abc0 7cba 8715 a6bc dbbb 023c 8ac5 5a3c
000002f0: dfb6 9cbb d62e 493c 2696 14bc 271d 86bb
00000300: 47d8 473b 4a0d 1d3a 00f6 143c 3f7f 8a3b
00000310: e542 bebb 985b fe3b c5a5 44bc 72f2 e2bb
00000320: 7e02 333c 170d eab9 4aed 5b39 2a11 9d3c
00000330: 8f8c 6f3c e7f6 fcbb e2f6 623c d1c4 b8ba
00000340: 0cfe 423c 17bd bbba a83e acba cf1a 533c
00000350: d38a 143c b9af b3bc cb35 1fbc 6042 aabb
00000360: d375 783b d78d c83b 389e e93b 7ff7 2d3b
00000370: ab54 a6bc 2349 3a3c 8b68 1fbc 1a7e dabb
00000380: 444d 84bb 223b 963b ee3f 3f3c 47aa 643b
00000390: 5875 20bc 188e 1abc 5a48 13bc 6798 82bb
000003a0: ab33 65bb df75 3c3c fea6 ca3b 42ab 973c
000003b0: c5d7 413c fd17 d2bc d54b 88ba c297 00bc
000003c0: 6f14 853b 5a13 d43b 818a bb3a 78bd 90bb
000003d0: ec57 a6bb 02e5 03ba a599 d9bb 1ed8 41bc
000003e0: 772b 7ebb 165f ae3b dae0 323c 99c7 153c
000003f0: 2548 ef3b bcc4 9539 326e 8bbb 83ba 91bb
-0.0031992325 -0.005605544 -0.0025218357 -0.0007533768 0.0090731075 -0.0052524135 0.0041618585 -0.008762314
-0.0073378757 -0.003921663 -0.01265091 0.013833805 0.0008983615 0.009076059 0.0060517914 0.013083756
0.0022082056 -0.0061751725 0.005895861 -0.00767897 0.020169605 0.00877444 -0.0010167256 0.009151034
-1.1365305e-05 0.004251228 -0.0002984297 0.0012439754 0.014359768 -0.00043377394 0.004317172 -0.00047124168
-0.0016086287 -0.0038055026 -0.0010233044 -0.004884079 0.0050861253 -0.014731874 0.0061705406 0.0039798357
0.008895156 -0.004004129 0.0002629844 0.00032078614 0.0072234273 0.020557329 -0.003036073 -0.014249617
-0.0023878335 0.008477958 0.012873611 0.010279495 -0.0008539227 -0.004754339 -0.003129245 0.01200066
0.00062318804 0.002540888 0.01127651 0.0033731305 0.002008243 0.006950961 0.000112130554 0.009803884
-0.0035837905 -0.0017221341 0.00033309663 -0.0056567513 -0.0020907128 0.0046716365 -0.0074893893 0.0050783255
0.005378433 0.0042564506 0.006514102 0.0004746215 -0.009721578 -0.00284658 -0.004375664 -0.0069307364
0.0029309932 0.015603784 -0.019126197 -0.0046327626 0.0035973042 0.003921522 -0.0009378031 -0.014303118
0.008369144 0.010343523 -0.0017264849 0.0055090915 0.0075759925 0.01217069 -0.009011681 0.004943683
0.017242508 0.0034641821 -0.0065674298 0.0097518815 0.0019706902 0.0040223165 0.0026664005 -0.016989363
0.0059599197 0.008562261 -0.0081710415 0.007031386 0.0061452105 -0.009917854 0.0039699166 -0.006275003
0.01231831 0.004141837 -0.0024399534 0.0077733435 -0.00033735202 -0.007976361 -0.0015192456 -0.00433212
-0.015264489 -0.0036847529 0.0050917855 0.005662584 -0.0034179816 0.0061286697 -0.0026024885 0.009643584
-0.0033274777 0.004165582 0.0060641035 0.007651832 -5.7965455e-05 -0.0032414775 -0.016926292 0.004009008
-0.00451743 0.001154974 -0.015695913 -0.0058544083 -0.016813597 0.008279555 -0.010364217 0.0011866441
0.0031247442 0.0053266403 -0.0033634552 -0.003585559 0.00070158934 -0.010120421 7.5297125e-05 -0.0042589693
-0.01717121 0.012604715 0.017788786 0.001027371 -0.0065823565 0.00067772804 0.0041789096 -0.006812179
0.0050498736 0.007513293 -4.4219e-05 0.0064281966 -0.012315475 0.0016673178 0.009474005 0.0036480275
0.014981835 -0.009698701 -0.00080761465 -0.0055351174 -0.008798583 -0.019354051 -0.008372048 0.0072640697
0.005382405 0.012272019 -0.011366383 -0.003945601 -0.008077709 -0.01267037 0.0027698514 0.0013018483
-0.0009641747 -0.020273937 0.007979359 0.013352761 -0.004782542 0.012279233 -0.009069001 -0.0040928307
0.0030493902 0.0005991055 0.009091854 0.0042265947 -0.0058063143 0.0077623837 -0.012002413 -0.0069258744
0.010925887 -0.0004464171 0.00020973865 0.019173224 0.014620914 -0.0077198627 0.013852807 -0.0014096742
0.01190139 -0.0014323321 -0.0013141232 0.01288481 0.009066301 -0.021934377 -0.009717415 -0.005195901
0.0037912026 0.0061204243 0.007129457 0.0026545224 -0.020304045 0.011369976 -0.009729515 -0.0066678645
-0.004037531 0.004584686 0.011672957 0.0034891532 -0.009793602 -0.009433292 -0.008989418 -0.003985453
-0.0034973423 0.011502712 0.006184458 0.01851428 0.011831229 -0.025646204 -0.0010398576 -0.007848682
0.0040612738 0.0064720334 0.0014308245 -0.0044171177 -0.005076399 -0.0005031378 -0.0066406303 -0.0118313115
-0.0038783231 0.0053213937 0.010917867 0.009141826 0.0073023015 0.00028566073 -0.0042550797 -0.0044472828

discrete_action_output_shape f4 [1, 2]
00000000: 0000 4040 0000 4040
3.0 3.0

network_body._body_endoder.seq_layers.0.bias f4 [128]
00000000: 0000 0000 0000 0000 0000 0000 0000 0000
00000010: 0000 0000 0000 0000 0000 0000 0000 0000
00000020: 0000 0000 0000 0000 0000 0000 0000 0000
00000030: 0000 0000 0000 0000 0000 0000 0000 0000
00000040: 0000 0000 0000 0000 0000 0000 0000 0000
00000050: 0000 0000 0000 0000 0000 0000 0000 0000
00000060: 0000 0000 0000 0000 0000 0000 0000 0000
00000070: 0000 0000 0000 0000 0000 0000 0000 0000
00000080: 0000 0000 0000 0000 0000 0000 0000 0000
00000090: 0000 0000 0000 0000 0000 0000 0000 0000
000000a0: 0000 0000 0000 0000 0000 0000 0000 0000
000000b0: 0000 0000 0000 0000 0000 0000 0000 0000
000000c0: 0000 0000 0000 0000 0000 0000 0000 0000
000000d0: 0000 0000 0000 0000 0000 0000 0000 0000
000000e0: 0000 0000 0000 0000 0000 0000 0000 0000
000000f0: 0000 0000 0000 0000 0000 0000 0000 0000
00000100: 0000 0000 0000 0000 0000 0000 0000 0000
00000110: 0000 0000 0000 0000 0000 0000 0000 0000
00000120: 0000 0000 0000 0000 0000 0000 0000 0000
00000130: 0000 0000 0000 0000 0000 0000 0000 0000
00000140: 0000 0000 0000 0000 0000 0000 0000 0000
00000150: 0000 0000 0000 0000 0000 0000 0000 0000
00000160: 0000 0000 0000 0000 0000 0000 0000 0000
00000170: 0000 0000 0000 0000 0000 0000 0000 0000
00000180: 0000 0000 0000 0000 0000 0000 0000 0000
00000190: 0000 0000 0000 0000 0000 0000 0000 0000
000001a0: 0000 0000 0000 0000 0000 0000 0000 0000
000001b0: 0000 0000 0000 0000 0000 0000 0000 0000
000001c0: 0000 0000 0000 0000 0000 0000 0000 0000
000001d0: 0000 0000 0000 0000 0000 0000 0000 0000
000001e0: 0000 0000 0000 0000 0000 0000 0000 0000
000001f0: 0000 0000 0000 0000 0000 0000 0000 0000
0.0 0.0 0.0 0.0 0.0 0.0 0.0 0.0
0.0 0.0 0.0 0.0 0.0 0.0 0.0 0.0
0.0 0.0 0.0 0.0 0.0 0.0 0.0 0.0
0.0 0.0 0.0 0.0 0.0 0.0 0.0 0.0
0.0 0.0 0.0 0.0 0.0 0.0 0.0 0.0
0.0 0.0 0.0 0.0 0.0 0.0 0.0 0.0
0.0 0.0 0.0 0.0 0.0 0.0 0.0 0.0
0.0 0.0 0.0 0.0 0.0 0.0 0.0 0.0
0.0 0.0 0.0 0.0 0.0 0.0 0.0 0.0
0.0 0.0 0.0 0.0 0.0 0.0 0.0 0.0
0.0 0.0 0.0 0.0 0.0 0.0 0.0 0.0
0.0 0.0 0.0 0.0 0.0 0.0 0.0 0.0
0.0 0.0 0.0 0.0 0.0 0.0 0.0 0.0
0.0 0.0 0.0 0.0 0.0 0.0 0.0 0.0
0.0 0.0 0.0 0.0 0.0 0.0 0.0 0.0
0.0 0.0 0.0 0.0 0.0 0.0 0.0 0.0

network_body._body_endoder.seq_layers.0.weight f4 [128, 15]
00000000: d3f1 1fbe d519 65be ff6e 803d 508f 48bd
00000010: d551 5cbc 50a0 ebbd 1e89 8e3e fd8e 85be
00000020: e6b4 393d 6d6c 5a3e 76ee 28be 9077 98bb
00000030: 04d7 8fbe 31f6 d43e b487 453e ed34 823c
00000040: 127d 363e a158 f93d b8d6 7e3c d765 013d
00000050: 659f de3e 44b8 79bd 3dd3 d8bd 75b9 96be
00000060: 5032 e63e 21f6 90bd 6a61 c93d 7267 7d3d
00000070: ea97 70be 932b 563d 045a 4d3e 45e6 013f
00000080: 01e8 0cbf 17fc 9e3e bd9b 95be c951 87be
00000090: 20a5 923d 8818 093e 919b 253d ec6d 923d
000000a0: 5466 393e 7589 8ebe 0921 bdbd 7798 84be
000000b0: 48a5 15bd eaa2 9bbd d222 c9be 111b 6a3e
000000c0: 3532 44be c40e 28bc 56f8 8a3e b7b5 a2be
000000d0: ba5b c9bb dd85 87be a4fd 9dbd 46f1 283f
000000e0: 6c66 9bbd ec5e 863d 6b66 a03b 9027 fb3e
000000f0: 5297 9dbe 58a6 853d 7370 6fbd 2abf a1be
00000100: adef 5abe 5ea4 3ebe bc2e 3f3d 7545 ecbe
00000110: 8546 1e3e 57db 99be faa9 a13e ad0c 2d3c
00000120: dbf4 0f3d 19dd 90be 503e 1f3e 0929 883e
00000130: fd9d a83e de77 903e d978 8c3e 8124 b33c
00000140: b08d cb3e bf2b 59bd 2040 9a3d 758d 233a
00000150: bec5 01be 8f4b 93be 76fa 96be 0d16 e33e
00000160: 24b9 763d 41f8 9cbd 48a0 22be 02fa f83e
00000170: fe83 8ebe 222b 9dbd cf34 633e 03c4 39bd
00000180: 2cf2 a8be 1352 f73e 8569 2c3e ffe1 9d3d
00000190: c900 2abd 3fad 0a3e 288c 27be 77f8 da3d
000001a0: caed c7be 82f7 553f c3e6 353d cecc c5be
000001b0: ca66 f53d 9b23 cdbe 44f7 83be d1dd 1cbe
000001c0: 7b82 b0be 5e39 7a3d 2d3a 72bd a522 fe3c
000001d0: 0851 243d 0e70 3fbf 7c55 80be 7d72 43bc
000001e0: adb0 0b3f cd65 103f f9e3 68bd 933c 17be
000001f0: e1aa d83c 199b a0bd 15d0 a5bd c106 023e
00000200: 84d3 9abe dc6a af3c c58a 343e 41e0 74be
00000210: 2ae0 a33c 67be 603d 0ca0 8abe 761f c53d
00000220: 8df0 59bc 67a6 4b3e bbdc 80be 53bb c13e
00000230: ad27 b7be 8921 813e 8866 91bd feba c6be
00000240: 2ebe 86bd 2b81 96be fb13 24be 19c2 35be
00000250: 6b87 b2bd 94a8 c13e 3962 503e 4781 88be
00000260: 64b0 e9bd c5f1 6dbe 610a 1b3d 56b5 c2be
00000270: 0031 0bbd f7c6 a7be 12fe 0e3f aa35 253e
00000280: 5f77 343d ca72 213e c97b ec3e 5c7a 87bd
00000290: 4a29 0ebe adb9 6e3e 8f48 533e 8d86 b3bd
000002a0: ab3f 043d c5dc 38bf 0d8a 7abe 074f 0b3e
000002b0: 0162 a93e 88c0 883e eeb2 57be 40df 523c
000002c0: 8b26 ab3e f1de 773e 030a 71bd 8829 8b3e
000002d0: 373d c23e bfc0 583e 35b4 a1bd 0057 093e
000002e0: 2e4f 31be 3233 acbd 42d1 0abf b2aa 30bf
000002f0: e1df 7abe 94b4 9d3e 9c80 a33e b121 c43d
00000300: 81fb f1be 9afe 3cbe e873 773e ce39 aa3d
00000310: 63d6 ed3e dfac d2bc 122c 16be 36b3 f83e
00000320: 0943 1abe fe82 133d 468d b6bd a29d 96bc
00000330: 1ead 5cbe f315 a4be 2ebf e33c 09c1 ddbd
00000340: e8b6 913e aa90 d73e b41a fd3e 455b 90bd
00000350: 47e6 2dbd de42 a3be 54c0 953d f4d5 20be
00000360: aa06 97bd 9ae7 3b3e 2182 d33e 5003 993e
00000370: 4299 1cbe d990 9f3e 9c7e 13be 2785 cdbe
00000380: 803e cd3d a363 733d 90bd 893d ceb7 30bd
00000390: c702 6cbd e4ff c8be be8f cdbe ad43 07be
000003a0: dce4 b9be 4fd3 4a3f 3ca0 993e 56bb 54be
000003b0: 2270 7b3e fffb ee3d 193a 17bf 2ab3 98bd
000003c0: 3d02 2a3e 8526 d7be d607 6ebe c48c cbbd
000003d0: 92f8 38bd 3fa9 af3c 31b5 83be c70d 98be
000003e0: 2771 b2be b456 89be aa26 613e 227e 16bf
000003f0: 7fac b8bd 0b14 d43d 5353 93be 7767 cfbd
-0.15619592 -0.22373135 0.06271171 -0.0489648 -0.013447245 -0.115051866 0.27838987 -0.26085654
0.045338534 0.21330424 -0.16497216 -0.004652925 -0.2809373 0.4159408 0.19290048 0.015894378
0.17821148 0.12175108 0.015554123 0.031591263 0.43480983 -0.060966745 -0.105871655 -0.29438367
0.4496026 -0.07078195 0.098330334 0.06186623 -0.2349545 0.05228765 0.2005387 0.5074199
-0.5504151 0.31051704 -0.2922038 -0.26429585 0.07160401 0.13388264 0.040431563 0.07149872
0.18105441 -0.27839246 -0.092348166 -0.2589757 -0.036534578 -0.07599433 -0.39284378 0.22861888
-0.19159777 -0.010257427 0.2714259 -0.31779262 -0.006144968 -0.26469317 -0.07714394 0.65993154
-0.07587895 0.06561074 0.0048950217 0.4905362 -0.3077951 0.06525868 -0.05845685 -0.3159116
-0.21380492 -0.18617389 0.04667543 -0.46146742 0.15456589 -0.30050156 0.31574994 0.010562104
0.03514562 -0.28293684 0.15551114 0.26593807 0.32933035 0.2821645 0.2743595 0.021867992
0.39756536 -0.053020235 0.07531762 0.0006239035 -0.12673089 -0.28768584 -0.29487962 0.4435276
0.060235158 -0.07664538 -0.15881455 0.4862824 -0.27835077 -0.076742426 0.22188114 -0.045352947
-0.32997262 0.48304805 0.16837128 0.07709121 -0.041504655 0.1354265 -0.16362059 0.10691922
-0.39048606 0.8358079 0.044409525 -0.38632816 0.11982496 -0.40066227 -0.25774586 -0.15318991
-0.3447455 0.061089866 -0.059137512 0.03102238 0.04011634 -0.74780357 -0.2506522 -0.011929152
0.5456646 0.56405336 -0.056858037 -0.14769201 0.026448669 -0.078420825 -0.08096329 0.12697889
-0.302395 0.02141326 0.17631061 -0.23913671 0.02000435 0.05486908 -0.2707523 0.09625141
-0.013301981 0.19887696 -0.25168404 0.3783823 -0.35772458 0.25220898 -0.070996344 -0.3881454
-0.06579243 -0.29395422 -0.16023247 -0.17749824 -0.08717235 0.37823927 0.20349969 -0.2666113
-0.11410597 -0.23236759 0.037851695 -0.38028973 -0.033982277 -0.32768986 0.5585643 0.16133752
0.044059154 0.15766445 0.4618819 -0.06615135 -0.13882938 0.23313017 0.20633148 -0.08765898
0.03228728 -0.7221187 -0.24466725 0.13604365 0.33082584 0.2670939 -0.2106435 0.01287061
0.33427843 0.24206139 -0.05884744 0.27180123 0.37937328 0.21167277 -0.078957 0.13412094
-0.17315361 -0.08408202 -0.5422555 -0.6901046 -0.24499466 0.30801833 0.3193406 0.095767386
-0.47262195 -0.18456498 0.24165308 0.083118066 0.46452627 -0.025717197 -0.14665249 0.48574227
-0.15064634 0.036013596 -0.089136645 -0.018385712 -0.21550414 -0.32047996 0.027801123 -0.10827834
0.2845986 0.42102557 0.49434435 -0.07048658 -0.042455938 -0.31886953 0.07312074 -0.15706617
-0.07374318 0.18350068 0.41310218 0.2988534 -0.15292838 0.31165197 -0.14403766 -0.4014065
0.100216866 0.059421193 0.06725609 -0.04314404 -0.057619836 -0.3925773 -0.4014873 -0.1320941
-0.36307418 0.7922868 0.30005062 -0.20774588 0.24554494 0.11669158 -0.59073025 -0.07456048
0.16602416 -0.42021576 -0.23245177 -0.09938958 -0.04515893 0.021443008 -0.25724176 -0.2969801
-0.34851953 -0.26823962 0.21987405 -0.58786213 -0.09017276 0.103553854 -0.2877451 -0.10127156

network_body._body_endoder.seq_layers.2.bias f4 [128]
00000000: 0000 0000 0000 0000 0000 0000 0000 0000
00000010: 0000 0000 0000 0000 0000 0000 0000 0000
00000020: 0000 0000 0000 0000 0000 0000 0000 0000
00000030: 0000 0000 0000 0000 0000 0000 0000 0000
00000040: 0000 0000 0000 0000 0000 0000 0000 0000
00000050: 0000 0000 0000 0000 0000 0000 0000 0000
00000060: 0000 0000 0000 0000 0000 0000 0000 0000
00000070: 0000 0000 0000 0000 0000 0000 0000 0000
00000080: 0000 0000 0000 0000 0000 0000 0000 0000
00000090: 0000 0000 0000 0000 0000 0000 0000 0000
000000a0: 0000 0000 0000 0000 0000 0000 0000 0000
000000b0: 0000 0000 0000 0000 0000 0000 0000 0000
000000c0: 0000 0000 0000 0000 0000 0000 0000 0000
000000d0: 0000 0000 0000 0000 0000 0000 0000 0000
000000e0: 0000 0000 0000 0000 0000 0000 0000 0000
000000f0: 0000 0000 0000 0000 0000 0000 0000 0000
00000100: 0000 0000 0000 0000 0000 0000 0000 0000
00000110: 0000 0000 0000 0000 0000 0000 0000 0000
00000120: 0000 0000 0000 0000 0000 0000 0000 0000
00000130: 0000 0000 0000 0000 0000 0000 0000 0000
00000140: 0000 0000 0000 0000 0000 0000 0000 0000
00000150: 0000 0000 0000 0000 0000 0000 0000 0000
00000160: 0000 0000 0000 0000 0000 0000 0000 0000
00000170: 0000 0000 0000 0000 0000 0000 0000 0000
00000180: 0000 0000 0000 0000 0000 0000 0000 0000
00000190: 0000 0000 0000 0000 0000 0000 0000 0000
000001a0: 0000 0000 0000 0000 0000 0000 0000 0000
000001b0: 0000 0000 0000 0000 0000 0000 0000 0000
000001c0: 0000 0000 0000 0000 0000 0000 0000 0000
000001d0: 0000 0000 0000 0000 0000 0000 0000 0000
000001e0: 0000 0000 0000 0000 0000 0000 0000 0000
000001f0: 0000 0000 0000 0000 0000 0000 0000 0000
0.0 0.0 0.0 0.0 0.0 0.0 0.0 0.0
0.0 0.0 0.0 0.0 0.0 0.0 0.0 0.0
0.0 0.0 0.0 0.0 0.0 0.0 0.0 0.0
0.0 0.0 0.0 0.0 0.0 0.0 0.0 0.0
0.0 0.0 0.0 0.0 0.0 0.0 0.0 0.0
0.0 0.0 0.0 0.0 0.0 0.0 0.0 0.0
0.0 0.0 0.0 0.0 0.0 0.0 0.0 0.0
0.0 0.0 0.0 0.0 0.0 0.0 0.0 0.0
0.0 0.0 0.0 0.0 0.0 0.0 0.0 0.0
0.0 0.0 0.0 0.0 0.0 0.0 0.0 0.0
0.0 0.0 0.0 0.0 0.0 0.0 0.0 0.0
0.0 0.0 0.0 0.0 0.0 0.0 0.0 0.0
0.0 0.0 0.0 0.0 0.0 0.0 0.0 0.0
0.0 0.0 0.0 0.0 0.0 0.0 0.0 0.0
0.0 0.0 0.0 0.0 0.0 0.0 0.0 0.0
0.0 0.0 0.0 0.0 0.0 0.0 0.0 0.0

network_body._body_endoder.seq_layers.2.weight f4 [128, 128]
00000000: 5486 cebc f0ff a1bc 355f 1bbe 2d61 34bb
00000010: 0c56 d03d 442e a73d a8ae 3a3d b254 66bd
00000020: a497 50bd f09f 32be ae3d d33d acca 27be
00000030: 259c 22be e197 3cbd e11a 973d e9c4 9cbd
00000040: 9a2c 983d ec78 a63c ee2c c1b8 2712 71ba
00000050: 9e57 543d a10a 18be ff0a c63b 5b87 f23d
00000060: d51b 22bd 5e85 0f3b 1c74 733d f29e 343e
00000070: d0d2 85bc bed7 513b 3c5d 16be 2f08 d4bd
00000080: 9c8d 0c3d 146f ce3c 66d2 3f3e 875e e03c
00000090: e240 9c3d f80e 103d 2913 fbbd 97fe 74bd
000000a0: 8869 8b3d ae89 fbbd 3792 e8bc aebf 5e3b
000000b0: bc6a 763d 8592 00bd f410 eebd 2f78 ecbd
000000c0: 9afa df3c 7b27 303e 7b32 05be dc19 9b3c
000000d0: 682f 103d 5b27 c9bc 066c 0bbd 1c28 713d
000000e0: e864 82bc 771e 543d 6a6f 8ebd 8204 08be
000000f0: 1007 87bc 4948 ef3d 990c 19be 9f46 afbd
00000100: f63f 0d3d 1fbe 7e3d 7581 e33d 3ad2 d2bd
00000110: d451 f93b f1bb 1abe e215 2dbd 9c3e 573d
00000120: b2d6 073e 5944 0fbe 2a8e 133d 7232 8c3d
00000130: 3239 93bc b86a 35bc c1be 02bd 7fbb edbd
00000140: 59b9 15bd 7960 03be 7f6f 493d 5a6c 6dbd
00000150: 0dba 06be 3e80 aebd 6497 353d 1e8e 02be
00000160: 3c92 abbc e81e 923c 90f3 07bd 68de 713d
00000170: 9614 a0bd 19d1 20be c9af 88bd 3956 81bd
00000180: 47d9 cd3c fc61 853d 6354 8f3d c2e5 b23d
00000190: 3565 e83c e6bd ad3c b640 373d ed54 aabd
000001a0: c8ff a9bd 8312 da3d e585 1cbc 4ebb b7bd
000001b0: 6e2d 443e dcd6 69bd 61e7 b2bd f3ea d73c
000001c0: 14f3 a53d daed c43d 8bb3 c9bc 3e26 403d
000001d0: 47aa 68bc 0a54 0abc e6bf 383e 4ae0 293d
000001e0: adbf dcbc f611 a9bd b491 54bd f14d 913d
000001f0: 4de8 9e3c a437 8e3d e3c7 fbba 557d 883d
00000200: 3aa5 3dbd 2c14 fdbb 4125 07bc 1526 8f3c
00000210: badb 45be 9301 923d 7b44 693d 4ded c83d
00000220: 76cf 1bbb 5f34 40bd 3789 313d f164 8e3c
00000230: 35ee 24be 866d b6bb 0dd0 df3d 2736 93bd
00000240: 8027 333d 4257 1abe c4ce 213d eb84 02be
00000250: a596 023c 91a6 96bd aca9 833c 8794 a3bd
00000260: cfdd c23d 9c53 b33d 7df7 09bc 7a4c e03c
00000270: 2a3f 6f3c 9c8b 09be b9e8 1d3d 2fc1 0b3e
00000280: 1ee1 eebd b423 8ebc 208e 0e3d 0811 0e3c
00000290: ed31 79bd 8542 243e cad7 c83b a58b bebd
000002a0: 5637 583d e7d5 f7bc 9e2c f9bc cd2f a1bd
000002b0: 1689 873d 38c9 6e3d 02a5 f23c cf68 813c
000002c0: 947d fb3d 696b b03d 2432 1b3d 14da 81bd
000002d0: 6136 c8bd 780d 11bd 549b 673d 54bb bc3d
000002e0: 3bcf b73b 1328 f8bd 645d 083c d767 08bc
000002f0: 63a4 b83d f379 88bd cf10 00be f2d4 1a3d
00000300: d6ff 72bc 5fcd e8bd 3bc2 08bd c137 0c3c
00000310: a3fb d1bd 3282 443d b937 77bd d4a2 cf3d
00000320: feaf 6fba 689e 0abd c000 36bd f1e2 a83c
00000330: 29de 843d 9e8a 593d c8b3 ddbd d83c f7bc
00000340: 89b7 3f3d a41a b03d 15c2 fdbc 474b abbd
00000350: f496 ef3d b4a8 65bd ece7 0d3e 96fc 003d
00000360: dca6 043d 5497 7d3c 5a80 cfbc 351b 013e
00000370: 1233 183c 7b6d 96bd ae5f 83bd 10cd 9bbd
00000380: a307 50bd c2f8 3abd 6d56 9ebc 92ef 45bd
00000390: b5b1 ed3d 6373 fd3d 98c8 883d 0f2b ac3c
000003a0: f027 dabc e395 adbd ae0d 133d df36 313d
000003b0: 5936 f1bc 42b5 2f3d 7940 90bc 0b4e 68bd
000003c0: 2313 86be 8dff cabb e61f 373d cd06 82bb
000003d0: 8325 04be 1cf4 bebd 44f6 853b d38e 12be
000003e0: da2e 29be 7242 3b3d b3b0 c63d 26db 21bd
000003f0: 4f60 57bd 1407 8ebc 99a1 99bd 8ad4 9cbd
-0.025210537 -0.01977536 -0.15173037 -0.0027523742 0.10172662 0.08163121 0.04557672 -0.056233115
-0.050925866 -0.17443824 0.10314499 -0.16385907 -0.15879877 -0.04604328 0.073781736 -0.07654745
0.07430382 0.020321332 -9.211326e-05 -0.00091961253 0.05184137 -0.14847805 0.0060437913 0.11842223
-0.039577324 0.0021899561 0.059436902 0.17638758 -0.016335875 0.0032019462 -0.14684004 -0.103531234
0.034314737 0.02519945 0.18732604 0.027388824 0.07629563 0.035170525 -0.12259514 -0.05981311
0.06807238 -0.1228212 -0.028390033 0.0033988762 0.060160384 -0.031389732 -0.11624327 -0.11546361
0.027341176 0.1720256 -0.13007538 0.01893323 0.03520146 -0.024554899 -0.034038566 0.058876142
-0.015917256 0.051786866 -0.06954844 -0.1328297 -0.01648286 0.11683709 -0.14946212 -0.08558392
0.034484826 0.062193032 0.11108676 -0.10294004 0.0076086316 -0.15110756 -0.042257197 0.052549943
0.13265494 -0.13990916 0.03602425 0.06845559 -0.017971609 -0.011072807 -0.0319202 -0.11608028
-0.036553714 -0.1282977 0.049178597 -0.05796466 -0.1315691 -0.08520554 0.04433383 -0.12749526
-0.020943753 0.017837003 -0.033191264 0.059049994 -0.078164265 -0.15704764 -0.06674153 -0.06315274
0.02512802 0.0651283 0.06998517 0.08735229 0.028368572 0.021208715 0.044739448 -0.083169796
-0.083007395 0.10648062 -0.009553407 -0.089712724 0.19157955 -0.05708967 -0.08735538 0.02635715
0.08103004 0.09615679 -0.024621746 0.04691147 -0.0142007535 -0.008442888 0.18041953 0.041473664
-0.026946867 -0.08255379 -0.051896766 0.07094944 0.019397879 0.06944206 -0.0019209351 0.0666453
-0.04630015 -0.007723352 -0.008248628 0.017474214 -0.193221 0.071292065 0.056950074 0.098108865
-0.002377478 -0.046924945 0.04334375 0.017382117 -0.16106494 -0.0055672554 0.109283544 -0.07188063
0.043738842 -0.15072349 0.039503828 -0.12746017 0.007970487 -0.07355989 0.016072117 -0.07987314
0.09514963 0.087561816 -0.008420822 0.027380217 0.014602462 -0.13432163 0.03855202 0.13647912
-0.116640314 -0.017351009 0.03480351 0.008671053 -0.06083863 0.16041 0.0061292397 -0.09303979
0.052787147 -0.030253364 -0.030416783 -0.078704454 0.06617944 0.058297366 0.029619697 0.015797047
0.122798115 0.08614237 0.037889615 -0.06340423 -0.09775997 -0.035413235 0.056544617 0.092154175
0.0056094206 -0.121170186 0.008323047 -0.008325539 0.09015729 -0.06663885 -0.12506412 0.037800737
-0.014831504 -0.113672964 -0.033388358 0.008558215 -0.10253074 0.047975726 -0.060355876 0.10138479
-0.00091433513 -0.033842474 -0.04443431 0.020616027 0.06487686 0.05311071 -0.10825306 -0.03018038
0.046805892 0.08598831 -0.030976335 -0.083639674 0.11698714 -0.05606909 0.13858002 0.031490885
0.032385692 0.015477974 -0.025329757 0.12608035 0.00928952 -0.073451005 -0.06414734 -0.07607472
-0.050788533 -0.04564739 -0.01932832 -0.048324175 0.116061606 0.12375524 0.06678885 0.021016626
-0.026630372 -0.08475854 0.035901718 0.04326522 -0.02944486 0.04289747 -0.017608868 -0.056715053
-0.26186475 -0.006195015 0.044708155 -0.003968096 -0.12904935 -0.09323904 0.004088195 -0.14312296
-0.16521779 0.045717664 0.097016715 -0.039515637 -0.05258208 -0.01733736 -0.075015254 -0.07657726
