results - copia/PruebaDemoCarrera/AgenteCoche.onnx (onnx, 87559 bytes, 9 tensors)

action_model._discrete_distribution.branches.0.bias f4 [3]
00000000: 0000 0000 0000 0000 0000 0000
0.0 0.0 0.0

action_model._discrete_distribution.branches.0.weight f4 [3, 128]
00000000: 9d76 40bb 872a 243c 0b1f 9a3b 356e a53b
00000010: a271 103b 7a5f b13b 14fc 2bbc f0c8 d83b
00000020: c3ec c8bb 5cec 933a 574f 793c de80 c939
00000030: abd8 4e3c 7bc6 13bc e886 943a dad6 6b3c
00000040: 9fbf 18bc f034 24bc 2f41 ab3b cfbb 393c
00000050: 58b7 83bb dfe1 773b a5b7 0fbc 126b ddb9
00000060: f1f3 263b 22ad e3bb e63c 94bc 97d4 853c
00000070: da41 753c 9a59 b53a 0ac5 5d3c 1daf e4bb
00000080: 6fc9 7bbb b760 de3a 9021 21bb 0242 ccbb
00000090: bb27 fc3b 6622 25bc 905f 7a3b 4492 b439
000000a0: 9fb9 08bb 8ae9 d23b ead5 253b a2c1 f23b
000000b0: 488a c6bb b374 c23a 8331 df3b 9dac 703b
000000c0: f5eb 313c b71a a23a 349c 2d3c 18cb 7d3b
000000d0: 7cd0 85bc e660 29ba ed0b ea3b ed78 94bc
000000e0: 1f55 04bb 0b0d 32bb 0b62 153a 961d c53a
000000f0: 96f8 3dbb 686b 0abc a748 6bba 95d2 bd3b
00000100: 13f4 ccb9 ad3a f63b 47d0 483a 85e3 9dbb
00000110: 0318 953b df1e 043c 4ed4 27bb 22ec 37bc
00000120: 3070 533c 50b4 cebb 776d 88bb b356 673c
00000130: f21e 55bb f9f5 b03b 0ad5 ddba 973e c03b
00000140: 57ef 9d3b 00f1 04ba a1b4 0dbc cf0d cb3b
00000150: e581 53bc b2df 733b 5333 e1bb 64c2 053c
00000160: eead 293c 830d 9a3a 5bda 81ba 8c0d b33b
00000170: be4f 95bb 32f0 9abb 8835 783b 4cc7 16bc
00000180: 4b75 e33b 7387 c13b 39d9 bbbb 8f9b 0dbc
00000190: ec92 11bc 3f10 ec3b 509a b33b 544f 19bb
000001a0: 8f58 993b 134c debb 57d4 9abb 7992 c6b7
000001b0: 2f2b 253b db01 beba dec5 94bc 9351 a43c
000001c0: 7e62 a43b 8fbf 57bc dbd1 093c 5b69 e03b
000001d0: 6a0c e8bb 15b9 393b 3a7a 21bc 450a 7abb
000001e0: 2a4a 873c 9369 84bb 946c 81bc 4065 e13b
000001f0: b295 703b 37ba 90bb ef7f c8ba 4f1c a5b9
00000200: 9e31 253b 883d e1bb c74e 5dbc b500 213b
00000210: 02f4 d03a d825 db3b c748 b9bb 0b0e e6bb
00000220: eea1 34bc 27a1 3b3c 1186 30b9 d77c 9dbb
00000230: c3fa 033c fc1d a5bb 008f 61bb 4f6e a9ba
00000240: df89 97bc 9b95 90bb 8acb 78ba 85c5 5fbb
00000250: a4c7 30bc ff12 1b3c f0b6 a63a 2f27 433c
00000260: 83ec 30bc 9601 c03b c015 37bc 5310 9fbb
00000270: 0b17 37bc 3fa0 9f3b d8c2 d83b 1a6c 3d3b
00000280: 773f 513b 8d96 efbb 7bd2 4a3c 9bbb 8f39
00000290: 7b2c 2e3b a5cf 363c b24c 61ba db5c 2c3c
000002a0: 484d 91bb 5c77 95bb 7bde 87bb bf84 4d3c
000002b0: 9342 323c 1f9e 16ba b423 8d3c a70a 1b3b
000002c0: 6bfc 723c c523 7e3b b72a 1a3c 613f b43a
000002d0: 188c 1dbc 5844 813b bf83 8a3b 9fd4 aabb
000002e0: 5f99 083c ffcb 553c 8972 473b 29d4 093a
000002f0: 465b 033c 0b0a 06bc 2786 d339 42d9 383c
00000300: e052 a8ba cab3 9dbb eba5 36bc b2b4 d93b
00000310: 7a14 d43b 037f b63b 7a44 7bbc 22c3 153b
00000320: 1320 a0bb 9b69 293b 9bad 52bc b7fe 9f3b
00000330: 381d 87b9 1ba1 00bb 3384 71bb 7ca2 2ebc
00000340: b134 163b 970f 57bc a251 583c db9e 96bc
00000350: 6445 0abb 2547 7d3c 3cb1 00bc e011 68bc
00000360: 141b 2e3a 2faf 36bc 6fbd 2e3c f744 9e3c
00000370: 197d 043c 1bb7 2abb 1a3f 813c d371 2abc
00000380: a8bb 7a3c 9cb0 49bc 50a7 5abc 1765 fc3b
00000390: 9bb5 073a 1f4a 133c e706 3fbb 8619 0a3b
000003a0: 2568 6739 80dc e33b 8c59 bf3b 87b9 fa3b
000003b0: ae33 88bb 7be3 6bbc 684d c53b 9b7d 5fbc
000003c0: 1dee 603b cd0c dfbb c2c8 6c3c c8d1 ca3b
000003d0: 335d d73a ef8a 2b3c e677 b2b9 d3e6 e0bb
000003e0: 37b2 5c3c 11e1 20bc 7336 043a dd34 e1b9
000003f0: cf6e e33b 3524 233b 567b 413b 1f8a 593c
-0.0029367574 0.010019905 0.0047034076 0.005048538 0.0022040387 0.005412993 -0.010497112 0.0066157505
-0.00613174 0.001128565 0.01521667 0.0003843372 0.0126249 -0.009019489 0.0011331709 0.014394486
-0.00932303 -0.010022387 0.0052262763 0.011336281 -0.004019659 0.0037823839 -0.008771812 -0.00042232178
0.002547499 -0.0069481293 -0.018095445 0.016336722 0.0149693135 0.0013835907 0.013535747 -0.006978883
-0.0038419624 0.0016966079 -0.0024586655 -0.0062334547 0.007695166 -0.010079002 0.0038203932 0.00034441252
-0.0020862592 0.0064365314 0.0025304505 0.0074083367 -0.006058965 0.0014835804 0.006811322 0.003672398
0.010859479 0.0012367581 0.010596324 0.003872579 -0.016334765 -0.00064612774 0.007142535 -0.018124068
-0.0020192338 -0.0027168419 0.00056985085 0.0015038725 -0.002898728 -0.008448459 -0.00089753646 0.0057929256
-0.00039091762 0.007514319 0.000766043 -0.004818382 0.0045499816 0.008064001 -0.0025608721 -0.011225732
0.012905166 -0.006308116 -0.00416344 0.014119792 -0.0032519666 0.005400416 -0.0016924453 0.0058668363
0.0048197913 -0.0005071312 -0.008649022 0.0061967145 -0.012909387 0.003721219 -0.0068725734 0.008164022
0.0103564095 0.0011753294 -0.0009906994 0.0054642614 -0.004556625 -0.0047283405 0.0037873704 -0.0092027895
0.0069414726 0.0059060394 -0.005732682 -0.008643045 -0.008885127 0.007204085 0.005481042 -0.002339323
0.0046797465 -0.006783971 -0.00472502 -2.3671646e-05 0.0025202741 -0.0014496403 -0.018160757 0.020058429
0.005016624 -0.01316823 0.00841185 0.006848497 -0.007081558 0.0028339077 -0.009855801 -0.0038153094
0.016514856 -0.0040409057 -0.015798844 0.006878525 0.003671032 -0.00441673 -0.0015296916 -0.00031492344
0.0025206576 -0.00687379 -0.0135075515 0.0024567072 0.0015941861 0.006687861 -0.0056544277 -0.007020717
-0.011024935 0.011451996 -0.00016834612 -0.004806142 0.008055392 -0.005038975 -0.003441751 -0.0012926551
-0.01849836 -0.0044123656 -0.0009490779 -0.003414483 -0.0107897855 0.009464978 0.0012719315 0.011911198
-0.010798576 0.005859564 -0.011174619 -0.004854241 -0.011174927 0.0048713977 0.006615024 0.0028903545
0.0031928697 -0.007311648 0.012379284 0.00027414862 0.0026576805 0.011157905 -0.00085944973 0.010520185
-0.0044342615 -0.004561348 -0.004146395 0.012543856 0.01088013 -0.0005745608 0.017228939 0.0023657472
0.014830689 0.0038778645 0.009409598 0.0013751799 -0.0096159205 0.003944915 0.004227131 -0.0052133347
0.008337348 0.013049125 0.0030433259 0.00052577496 0.008017367 -0.008181105 0.00040345007 0.011282267
-0.0012842081 -0.0048126923 -0.011147956 0.006643855 0.0064721676 0.00556934 -0.01533615 0.0022851904
-0.004886636 0.00258503 -0.012858774 0.0048826593 -0.00025770976 -0.0019627276 -0.0036852479 -0.0106588565
0.002291959 -0.0131262755 0.0132030565 -0.018386295 -0.002109849 0.015458857 -0.007854756 -0.014164418
0.0006641608 -0.011150165 0.010665282 0.019319994 0.008086466 -0.002604908 0.01577716 -0.010403114
0.01530353 -0.012310173 -0.0133455545 0.0077024805 0.00051769026 0.00898984 -0.0029148401 0.0021072342
0.00022068674 0.006953776 0.0058395322 0.007651511 -0.0041565513 -0.014397497 0.0060211904 -0.0136407865
0.0034321614 -0.006806946 0.014452161 0.0061895587 0.0016430974 0.010470136 -0.00034040137 -0.006863454
0.013470224 -0.009819285 0.0005043514 -0.0004295473 0.0069406996 0.0024893407 0.0029522977 0.01327756

action_model._discrete_distribution.branches.1.bias f4 [3]
00000000: 0000 0000 0000 0000 0000 0000
0.0 0.0 0.0

action_model._discrete_distribution.branches.1.weight f4 [3, 128]
00000000: d209 e8b9 d17d 8abb 475d 463c d87b b1bb
00000010: 7f31 c93b bc35 1c3c 3318 1bbc 46b2 993b
00000020: f524 3d3c dd0b f539 29e9 babb e74a 58bc
00000030: 6530 89bc dffb a3bc aeae c23b 23d6 dfba
00000040: a296 0e3c a9d0 233b ca0d feba d0d5 3dbc
00000050: 8259 d73a c6ce 0ebc 9aa1 1c3a eb3d e03b
00000060: 4a85 79bc 3386 243c 32e9 d6bb 068e 8c3b
00000070: dc47 893c 23d0 aa3b 8d9b fb3a e79d e3bb
00000080: 2ac2 e43b 1091 a9bb 6bca 033c bf78 ecb8
00000090: d5b8 ee3a eb2f f5ba cbed 80bc 1ac8 1739
000000a0: 7301 0c3c 0387 a4b9 17be e2ba aa63 2a3c
000000b0: 63ca 40bc 177f 12b9 80fb 933b fbc1 f03a
000000c0: 3baf a3bb 7941 1d3b 2bd0 f2bb 03fb 0f3c
000000d0: 2e6c 303c 2f27 88b9 b1dc 383c a00a d2bb
000000e0: a352 473c 3bc4 9d3c 9472 15bc c097 663c
000000f0: 5247 ccbb abe7 23bb d364 663c e275 413c
00000100: 5c0b 833c 4afe 2aba 4f59 9cbb 5a4a b6b9
00000110: efc3 8abb f0f5 d8bb 51ec 003c 83fa f03a
00000120: 3eab c93b f1d7 36bb fa86 06bc 72ae 39bc
00000130: efa6 893c ee7d 1d3a e7fc 3e3c 1d42 59bc
00000140: f705 d7bb cfff d53a a423 33bb 3774 e53a
00000150: 2ca6 463b 1bf8 f73b 8c2b 3ebb 7ec2 933a
00000160: ed02 62bc 7657 a5bb 0984 49bc ee09 033c
00000170: 6ba3 13bc 6ef0 473c b71f daba 0bbc b1bb
00000180: 2fcb bdbb 1de6 fabb db90 843b 57cb 0e3b
00000190: b35f b9bb 1bf4 343c d700 833a 4023 ed3b
000001a0: d52e c03b b213 b33a d909 c03b 0e02 1dbc
000001b0: b7ad 75ba 4570 b3bb 397d 26bb 6e32 93bc
000001c0: fbf5 0bbb 4c64 41bb 24e7 3abc 1505 5abc
000001d0: fcbe 9f3b ce23 c43b 2bff d13b f1f9 a43b
000001e0: ba17 64bc c50a 76ba d269 77bb 3deb d6bb
000001f0: da9e 823a 4756 c03b dc95 0b3c 58a4 2fbb
00000200: b5f7 7c3b 6c80 8b3c 6c08 ac3a 66bc c838
00000210: 6ca8 933b 476c 203c 82df 01bc f777 6d3c
00000220: 1524 d3bb aed2 963b aa30 d63a 9eca 10ba
00000230: 9a76 ce3a fcc9 07bc aa61 e9bb 1bbd 08bb
00000240: 2334 603a c30c 563b cb57 1c3c da8b 9039
00000250: 4952 213b 1048 35bb eb0d 9cbc a2f2 5b3b
00000260: 7d01 6e3c bf30 1abc 629b 023c 638f f3bb
00000270: 4d5b 4f3a ade6 5d3b 8b9f 96ba 1806 efba
00000280: e28d e03b 429c f539 aed9 313a 59bc 1f3b
00000290: 5ae8 a43b 7b4f 5dbc 897d 943a 801b efbb
000002a0: 15ee 6fbb 5342 c13b 8147 89bb dd9f 7dbc
000002b0: 738a 023c 6ef9 3dbc df16 2fbb 56f6 3ab6
000002c0: 37e6 75bb 48c5 e9bb 3745 97bc 7904 c039
000002d0: bc7f 9bb9 c92e 8abc 33eb 6bbc 8b6b 53bc
000002e0: 5b16 00bc a293 0c3b 79ac b1ba fb06 14bb
000002f0: 0a4a 653b a621 37b9 9b1f 9f3a 0531 173a
00000300: 8f54 67bc 6af8 0fbc 1f2f f93b a551 1f3c
00000310: ecb0 263c bbbf 703a 9d92 73bb a923 2f3c
00000320: d7ef a43a 593e a1bb 9d02 573c d076 ec3b
00000330: 3d91 e53b 5adc dd3b f254 fdba 60b1 e0bc
00000340: b724 833b f36d 91bb 378b 68bc 22d8 e2bb
00000350: 938f dabb 62f5 7cba 787e 473b efc3 1b3b
00000360: ef92 87bb 08c3 8ab9 0282 38ba 1891 0abc
00000370: f7ed 473b 0843 0cba 48b5 cd3a 7ddc 853b
00000380: 0258 b53b c933 813c f537 ef3a 0ca0 b3ba
00000390: fabd fdbb 98c9 f23b d44c a2bb dd73 4fbc
000003a0: 7fe4 b43b 7810 cb3b 8df2 9fb9 e7cd c53b
000003b0: 1037 33bb 372e 1d3c 17f6 eabb c882 cfbb
000003c0: daf5 31bc 8930 afbb b135 1bbc 83b2 413b
000003d0: 0938 1abc eefc bd3b 0bb6 a53a 236f 183c
000003e0: f24e 6fbb a91f 8d3c 93ca f73b bfa7 3bbc
000003f0: 4e4c 94b8 37b8 643b d691 803a a676 973c
-0.00044257805 -0.0042264243 0.0121072 -0.0054163747 0.0061399336 0.009534296 -0.009466219 0.0046904413
0.011544456 0.0004673888 -0.0057040644 -0.013201452 -0.01674671 -0.020017562 0.0059412336 -0.0017077368
0.008702906 0.0024996197 -0.0019382772 -0.011586621 0.0016429874 -0.008716291 0.0005975008 0.0068433187
-0.0152295325 0.010041761 -0.0065585608 0.0042893915 0.016757898 0.0052128 0.0019196138 -0.0069463137
0.006981154 -0.0051747635 0.008043866 -0.00011275848 0.0018213043 -0.0018706297 -0.015738389 0.00014475026
0.008545267 -0.0003138111 -0.0017299083 0.010399738 -0.011767003 -0.0001397099 0.004516065 0.0018368358
-0.0049952543 0.0023995324 -0.0074100695 0.008787873 0.01076798 -0.00025969135 0.011283086 -0.006409958
0.012165698 0.019258609 -0.009121556 0.014074266 -0.006234088 -0.002500991 0.014062124 0.011807891
0.015996628 -0.00065228774 -0.0047713886 -0.0003476914 -0.004234783 -0.006621115 0.007868842 0.0018385205
0.006154447 -0.0027899707 -0.008210892 -0.011333095 0.016803233 0.00060078397 0.011656976 -0.013260392
-0.0065619904 0.0016326847 -0.0027334476 0.0017505948 0.0030311448 0.0075674183 -0.0029017655 0.0011273173
-0.013794643 -0.0050458265 -0.012299546 0.007997973 -0.00901113 0.012203319 -0.0016641532 -0.005424028
-0.0057920436 -0.007656826 0.0040455884 0.002178868 -0.00565716 0.011044527 0.0009994757 0.007236868
0.005864958 0.0013662486 0.005860549 -0.009583009 -0.0009371894 -0.00547603 -0.0025404228 -0.017968383
-0.0021356333 -0.0029509244 -0.011407647 -0.013306876 0.004875062 0.0059857136 0.006408592 0.005034678
-0.0139216725 -0.000938576 -0.0037752283 -0.0065588043 0.0009965554 0.00586966 0.008519616 -0.0026800837
0.0038599793 0.01702901 0.0013125069 9.571835e-05 0.0045061614 0.00979144 -0.007926824 0.014493934
-0.0064435103 0.0046027517 0.0016341407 -0.00055233564 0.0015751899 -0.008287903 -0.007122238 -0.0020864669
0.0008552691 0.0032661415 0.009542416 0.00027570018 0.0024615696 -0.002766136 -0.019049605 0.0033561368
0.014526722 -0.009411036 0.007971616 -0.0074328645 0.0007910028 0.0033859417 -0.0011491639 -0.0018236069
0.0068528512 0.00046846463 0.0006784451 0.0024373739 0.0050325813 -0.013507719 0.0011328916 -0.0072969794
-0.0036610414 0.005897799 -0.004189432 -0.015480009 0.007967579 -0.011595113 -0.0026716513 -2.7859546e-06
-0.0037521252 -0.0071341135 -0.018465621 0.00036624426 -0.00029659073 -0.016868012 -0.014399338 -0.012904058
-0.00781783 0.00214503 -0.0013555429 -0.0022587168 0.0034986758 -0.00017464775 0.0012140156 0.00057674974
-0.014119281 -0.008787254 0.007604494 0.009724055 0.010174017 0.00091838435 -0.0037166246 0.010689654
0.0012583685 -0.0049207625 0.013123182 0.007216312 0.007005839 0.0067706527 -0.0019327684 -0.027428329
0.0040021795 -0.004438156 -0.014193348 -0.0069227377 -0.0066699474 -0.0009649602 0.0030440371 0.0023767909
-0.004137389 -0.0002646672 -0.00070384156 -0.008457445 0.0030506828 -0.00053505646 0.0015694285 0.004085122
0.005534173 0.015771763 0.001825093 -0.0013704314 -0.0077435942 0.0074092858 -0.0049530063 -0.012661901
0.005520403 0.0061970316 -0.00030507558 0.0060365084 -0.0027346052 0.009593538 -0.0071704495 -0.006332729
-0.010861838 -0.005346362 -0.00947325 0.0029555864 -0.009412774 0.005797974 0.0012642754 0.009303841
-0.003651556 0.01722701 0.0075619905 -0.011453568 -7.071403e-05 0.003489984 0.0009809087 0.018489193

discrete_action_output_shape f4 [1, 2]
00000000: 0000 4040 0000 4040
3.0 3.0

network_body._body_endoder.seq_layers.0.bias f4 [128]
00000000: 0000 0000 0000 0000 0000 0000 0000 0000
00000010: 0000 0000 0000 0000 0000 0000 0000 0000
00000020: 0000 0000 0000 0000 0000 0000 0000 0000
00000030: 0000 0000 0000 0000 0000 0000 0000 0000
00000040: 0000 0000 0000 0000 0000 0000 0000 0000
00000050: 0000 0000 0000 0000 0000 0000 0000 0000
00000060: 0000 0000 0000 0000 0000 0000 0000 0000
00000070: 0000 0000 0000 0000 0000 0000 0000 0000
00000080: 0000 0000 0000 0000 0000 0000 0000 0000
00000090: 0000 0000 0000 0000 0000 0000 0000 0000
000000a0: 0000 0000 0000 0000 0000 0000 0000 0000
000000b0: 0000 0000 0000 0000 0000 0000 0000 0000
000000c0: 0000 0000 0000 0000 0000 0000 0000 0000
000000d0: 0000 0000 0000 0000 0000 0000 0000 0000
000000e0: 0000 0000 0000 0000 0000 0000 0000 0000
000000f0: 0000 0000 0000 0000 0000 0000 0000 0000
00000100: 0000 0000 0000 0000 0000 0000 0000 0000
00000110: 0000 0000 0000 0000 0000 0000 0000 0000
00000120: 0000 0000 0000 0000 0000 0000 0000 0000
00000130: 0000 0000 0000 0000 0000 0000 0000 0000
00000140: 0000 0000 0000 0000 0000 0000 0000 0000
00000150: 0000 0000 0000 0000 0000 0000 0000 0000
00000160: 0000 0000 0000 0000 0000 0000 0000 0000
00000170: 0000 0000 0000 0000 0000 0000 0000 0000
00000180: 0000 0000 0000 0000 0000 0000 0000 0000
00000190: 0000 0000 0000 0000 0000 0000 0000 0000
000001a0: 0000 0000 0000 0000 0000 0000 0000 0000
000001b0: 0000 0000 0000 0000 0000 0000 0000 0000
000001c0: 0000 0000 0000 0000 0000 0000 0000 0000
000001d0: 0000 0000 0000 0000 0000 0000 0000 0000
000001e0: 0000 0000 0000 0000 0000 0000 0000 0000
000001f0: 0000 0000 0000 0000 0000 0000 0000 0000
0.0 0.0 0.0 0.0 0.0 0.0 0.0 0.0
0.0 0.0 0.0 0.0 0.0 0.0 0.0 0.0
0.0 0.0 0.0 0.0 0.0 0.0 0.0 0.0
0.0 0.0 0.0 0.0 0.0 0.0 0.0 0.0
0.0 0.0 0.0 0.0 0.0 0.0 0.0 0.0
0.0 0.0 0.0 0.0 0.0 0.0 0.0 0.0
0.0 0.0 0.0 0.0 0.0 0.0 0.0 0.0
0.0 0.0 0.0 0.0 0.0 0.0 0.0 0.0
0.0 0.0 0.0 0.0 0.0 0.0 0.0 0.0
0.0 0.0 0.0 0.0 0.0 0.0 0.0 0.0
0.0 0.0 0.0 0.0 0.0 0.0 0.0 0.0
0.0 0.0 0.0 0.0 0.0 0.0 0.0 0.0
0.0 0.0 0.0 0.0 0.0 0.0 0.0 0.0
0.0 0.0 0.0 0.0 0.0 0.0 0.0 0.0
0.0 0.0 0.0 0.0 0.0 0.0 0.0 0.0
0.0 0.0 0.0 0.0 0.0 0.0 0.0 0.0

network_body._body_endoder.seq_layers.0.weight f4 [128, 29]
00000000: e401 e23e 22fc 303e aa7b 6fbe 7f82 18bd
00000010: c0ab 943e 2e44 403e b36e 873e 326d d93d
00000020: be4b 3dbd 97cb a9bd 7629 953e d165 39bd
00000030: 18dd d63c f996 86be ef45 05be 8aee 1d3e
00000040: 0669 533e b9f9 43be b10e c4bd c7d9 7ebd
00000050: 6053 d4bc 2190 1e3d 4159 023e ef04 c33b
00000060: 8985 a0bd b656 aa3e deab a7bc 73ba 22bd
00000070: 5a19 3c3e 056f 9ebe 2851 3c3e 63b7 7abe
00000080: 9efb 5bbe cdd9 9cbc e417 293e 9e19 afbd
00000090: 37f9 173d 5a39 d9be 63d2 223e 56f0 09bd
000000a0: 84c3 ce3d 94e5 5d3e 7373 56bd bf6c 423e
000000b0: ce8e b8be 2396 f93e d407 e2bd 2bbd b4be
000000c0: ee52 aebe 3f65 28bd ced4 2a3e d0ff 13be
000000d0: 0ace debd 02b2 92be bc4c 6f3e 24b9 b9be
000000e0: 6487 6c3e 4a9f 83be c55f 4abe a171 0cbe
000000f0: 0b60 f43c 3e3d 0d3e 62da c73d 9f96 803e
00000100: 1dfd 083e 6b69 58be 0a83 d13a aaee 0e3d
00000110: cc8a 1dbc d348 adbc b1f9 a4bc 19a4 86be
00000120: f730 09be 03df 3f3d 3c28 133e eb16 7b3e
00000130: 9704 a0bd e73d c0be 60b6 66bd 8a58 91bd
00000140: dfa2 823d de0e cf3d dc94 c7be c647 f63b
00000150: 060b 213e b61a 7abe fffb dcbd 8956 9a3d
00000160: f1aa ea3d a4da 983e f1b3 df3d 87f5 5f3c
00000170: e53f e03d b86a 3ebe 1594 a5bd 139c 5cbd
00000180: b2a1 953e bb41 7fbd fb17 07bb 0391 47bd
00000190: 259d a4be 95e2 0c3e baef f73d cb3e 323e
000001a0: 718f e3bd ae67 c139 f454 0d3e f3a8 d2bd
000001b0: b2b2 bbbd 13d0 9a3d c815 0c3e 0ca4 973e
000001c0: 252c 553e 0688 9fbe e924 3a3d 0708 e83e
000001d0: 406d d43d 0d22 c8bd 6789 1ebe bc81 15be
000001e0: 4280 4abd fb87 15be d0a6 8a3d 3daa 2b3d
000001f0: ca9d 39be c813 c03d a218 a53e 8c01 8bbd
00000200: 84ad 1bbe f967 113e ff46 d43c 8cae a2be
00000210: fb2b 5abe f3c9 32be e227 023d 6588 94be
00000220: a167 91be dbe6 ce3d 0cf3 2c3d aa92 033e
00000230: a768 13be 448b 853d a694 843d e7ea 4a3e
00000240: f6bd 36be 8b22 edbd 6a60 383d 3eab 2fbe
00000250: 849d ad3d bfe9 b33e ad72 1d3d 165e 193d
00000260: 0b5f 3f3c 3ef5 c6bc ea5a 2fbe 2dbe aa3d
00000270: 53cd 87be 8667 8abd ab1c 4fbe 3b81 923e
00000280: 3ed6 9ebd 2143 353d 5cd6 08bf fb4e b1bd
00000290: 3f5d c93d 1a46 07be f9ec ad3c ceec babe
000002a0: e438 a9bd 685d e43d a5c9 a1bd 9fff 433e
000002b0: 9d17 31be 6cb0 0dbe daee a0be 6c04 af3e
000002c0: f851 42bd 8a69 46be fbfc f13e 9f0e acbd
000002d0: 0a47 aebe 2c85 61be 6f1f f93d bccb f93d
000002e0: 36e5 6abd 8d06 213d 23a0 5ebe 228b b33d
000002f0: cd9f 143e 3d56 77be e30e adbd 79ff 39bc
00000300: 09e8 723e 477d 7ebd 4425 5f3c 73af a83d
00000310: 331f a93e 49c7 543e 27e3 87be 1d26 813c
00000320: 19f9 61be 8a45 1d3b e220 17be 29bd 4a3e
00000330: a1d2 723d 655b edbb 4dc3 24bc adc2 0b3e
00000340: a527 703e ae1f 02bc 7d76 0c3c e8f1 c2be
00000350: 1c84 503e fc42 3d3d dc82 b93d dc9a 8ebd
00000360: 6407 a73d 4b7e 4e3d 8357 1cbe 9182 ea3d
00000370: b07c 0abe b4df 31be 83b2 e5bd 02c1 da3d
00000380: cf1f b4be 00fa 6a3e de12 be3e d58d babd
00000390: c9b9 90be 76b4 773e 14a6 92be 40d3 653d
000003a0: 4379 df3d b591 c1bd c228 f93c c8a5 263e
000003b0: c2a3 bebd 31e9 debb 02c9 423e b325 003f
000003c0: 0e3d be3d 8fbb 7c3e e1bd 283d db45 3d3e
000003d0: 20fc e4bd 79ff a8be 30b0 4d3d c905 70bd
000003e0: 3ea1 bbbc d517 09be 7fc2 3fbe 7bff 8ebe
000003f0: 298c b5bd e253 893e 2f00 503e 73e5 e9bd
0.44142067 0.17283681 -0.23387018 -0.037233826 0.29037285 0.18776008 0.26451644 0.106165305
-0.04621481 -0.08290785 0.29133195 -0.045263115 0.026228473 -0.26287058 -0.13014959 0.15423027
0.20645532 -0.1913823 -0.09573115 -0.062219407 -0.025918663 0.03871167 0.1272936 0.005951516
-0.0783797 0.3326928 -0.020467695 -0.039728593 0.18369046 -0.30944076 0.18390334 -0.24484019
-0.21482703 -0.019146824 0.1651302 -0.08549808 0.037102904 -0.42426568 0.15900569 -0.033676468
0.100958854 0.21669608 -0.052356195 0.18986796 -0.3604645 0.48747358 -0.11036649 -0.35300574
-0.34047645 -0.04111218 0.16682741 -0.14453053 -0.108791426 -0.28651434 0.23369116 -0.36274064
0.23098522 -0.25707465 -0.19763096 -0.13715221 0.029830953 0.13792893 0.0975845 0.25114915
0.13377805 -0.21133964 0.0015984487 0.034895577 -0.009615611 -0.02115289 -0.020138593 -0.26297072
-0.13397585 0.04684354 0.14370817 0.24520461 -0.078133754 -0.37547228 -0.05632627 -0.070969656
0.063787214 0.101102576 -0.38980758 0.0075158803 0.15726861 -0.24424252 -0.10790252 0.075360365
0.11458386 0.2985431 0.10922993 0.013669378 0.10949687 -0.18595397 -0.08084885 -0.05385978
0.29224926 -0.062318545 -0.0020613659 -0.04872228 -0.32151142 0.13758309 0.12106271 0.17406766
-0.11111344 0.00036889076 0.13801938 -0.10286131 -0.09164943 0.07559218 0.13680184 0.29617345
0.20817621 -0.31158465 0.045445357 0.45318624 0.103724 -0.0977212 -0.15482102 -0.14600271
-0.049438722 -0.14602654 0.06770098 0.0419104 -0.18126598 0.09378773 0.32245356 -0.067874044
-0.1520291 0.14199819 0.02591276 -0.31773794 -0.2130584 -0.1745985 0.031776316 -0.2901031
-0.28399375 0.10102626 0.042223975 0.12848917 -0.1439539 0.065207034 0.06473665 0.1981617
-0.17845902 -0.11578854 0.045013823 -0.17155167 0.08477309 0.35139272 0.03843944 0.037443243
0.011680375 -0.024286862 -0.17124525 0.083370544 -0.26523837 -0.06758027 -0.2022578 0.2861422
-0.07755707 0.044253472 -0.53452086 -0.086576425 0.098322384 -0.13210335 0.021231161 -0.36508793
-0.08262804 0.11150628 -0.07899789 0.1914048 -0.17294164 -0.13836831 -0.3143223 0.3418306
-0.047441453 -0.19376197 0.4726332 -0.08401226 -0.34038574 -0.22023457 0.121641986 0.121970624
-0.0573475 0.039312888 -0.21740775 0.08766772 0.14514084 -0.24153991 -0.08450105 -0.011352413
0.23721327 -0.062131193 0.013619725 0.08236589 0.33031616 0.20779146 -0.2654049 0.015765244
-0.2206768 0.0023997747 -0.14758638 0.19798721 0.059282903 -0.007243561 -0.010056329 0.13648482
0.23452623 -0.007942123 0.008573172 -0.38075185 0.20362896 0.04620646 0.090581626 -0.06963131
0.081557065 0.05041341 -0.15267758 0.11450685 -0.13524127 -0.17370492 -0.11215689 0.106813446
-0.35180518 0.2294693 0.3712377 -0.091090836 -0.28266743 0.24189934 -0.28642333 0.056109667
0.10911801 -0.094516195 0.030414943 0.16274178 -0.09308578 -0.006802701 0.19021991 0.50057524
0.09288989 0.24680923 0.041196708 0.18483679 -0.111809015 -0.3300741 0.050216854 -0.058599267
-0.022904035 -0.13387997 -0.18726538 -0.2792929 -0.08864624 0.2682181 0.2031257 -0.11420717

network_body._body_endoder.seq_layers.2.bias f4 [128]
00000000: 0000 0000 0000 0000 0000 0000 0000 0000
00000010: 0000 0000 0000 0000 0000 0000 0000 0000
00000020: 0000 0000 0000 0000 0000 0000 0000 0000
00000030: 0000 0000 0000 0000 0000 0000 0000 0000
00000040: 0000 0000 0000 0000 0000 0000 0000 0000
00000050: 0000 0000 0000 0000 0000 0000 0000 0000
00000060: 0000 0000 0000 0000 0000 0000 0000 0000
00000070: 0000 0000 0000 0000 0000 0000 0000 0000
00000080: 0000 0000 0000 0000 0000 0000 0000 0000
00000090: 0000 0000 0000 0000 0000 0000 0000 0000
000000a0: 0000 0000 0000 0000 0000 0000 0000 0000
000000b0: 0000 0000 0000 0000 0000 0000 0000 0000
000000c0: 0000 0000 0000 0000 0000 0000 0000 0000
000000d0: 0000 0000 0000 0000 0000 0000 0000 0000
000000e0: 0000 0000 0000 0000 0000 0000 0000 0000
000000f0: 0000 0000 0000 0000 0000 0000 0000 0000
00000100: 0000 0000 0000 0000 0000 0000 0000 0000
00000110: 0000 0000 0000 0000 0000 0000 0000 0000
00000120: 0000 0000 0000 0000 0000 0000 0000 0000
00000130: 0000 0000 0000 0000 0000 0000 0000 0000
00000140: 0000 0000 0000 0000 0000 0000 0000 0000
00000150: 0000 0000 0000 0000 0000 0000 0000 0000
00000160: 0000 0000 0000 0000 0000 0000 0000 0000
00000170: 0000 0000 0000 0000 0000 0000 0000 0000
00000180: 0000 0000 0000 0000 0000 0000 0000 0000
00000190: 0000 0000 0000 0000 0000 0000 0000 0000
000001a0: 0000 0000 0000 0000 0000 0000 0000 0000
000001b0: 0000 0000 0000 0000 0000 0000 0000 0000
000001c0: 0000 0000 0000 0000 0000 0000 0000 0000
000001d0: 0000 0000 0000 0000 0000 0000 0000 0000
000001e0: 0000 0000 0000 0000 0000 0000 0000 0000
000001f0: 0000 0000 0000 0000 0000 0000 0000 0000
0.0 0.0 0.0 0.0 0.0 0.0 0.0 0.0
0.0 0.0 0.0 0.0 0.0 0.0 0.0 0.0
0.0 0.0 0.0 0.0 0.0 0.0 0.0 0.0
0.0 0.0 0.0 0.0 0.0 0.0 0.0 0.0
0.0 0.0 0.0 0.0 0.0 0.0 0.0 0.0
0.0 0.0 0.0 0.0 0.0 0.0 0.0 0.0
0.0 0.0 0.0 0.0 0.0 0.0 0.0 0.0
0.0 0.0 0.0 0.0 0.0 0.0 0.0 0.0
0.0 0.0 0.0 0.0 0.0 0.0 0.0 0.0
0.0 0.0 0.0 0.0 0.0 0.0 0.0 0.0
0.0 0.0 0.0 0.0 0.0 0.0 0.0 0.0
0.0 0.0 0.0 0.0 0.0 0.0 0.0 0.0
0.0 0.0 0.0 0.0 0.0 0.0 0.0 0.0
0.0 0.0 0.0 0.0 0.0 0.0 0.0 0.0
0.0 0.0 0.0 0.0 0.0 0.0 0.0 0.0
0.0 0.0 0.0 0.0 0.0 0.0 0.0 0.0

network_body._body_endoder.seq_layers.2.weight f4 [128, 128]
00000000: cd8c fbbd 8b54 5cbe af3f 1dbd 581c 21bd
00000010: c593 11bd 1bd2 5dbd ccc1 babd 7056 1ebe
00000020: e5c5 3fbe e717 603e ed00 6f3d 6db6 28bd
00000030: 733b 70bc 52b0 a43d e17b c1bc d113 71bd
00000040: f3b4 dfbc 04f2 10be b214 c03c 792a d03d
00000050: de93 febb 7336 86bd 05f5 973d 17de d6bc
00000060: 0a4d c2ba a8a4 8c3b a5e1 9d3b 243f 03bd
00000070: 2827 32bd d664 97bc 8e85 b8bd e9b0 ca3d
00000080: b7d2 bf3d fa7d a93d b1cc 16bd 5c6c 003e
00000090: faab abbd 0b27 923d 231e 92bd 8334 333b
000000a0: a4a7 82bd 27f2 7d3d ff51 703c 64b1 163d
000000b0: f480 e43d 00fd 9a3d ed8d 833d b061 e9bd
000000c0: 4b32 4b3d 0f8d 42bd 812f 7abd 2b51 f4bd
000000d0: 8996 5a3d ee35 973d dd6d 5a3c cbed 0cbb
000000e0: 361d 1e3d 21cf 373e 15b1 41bd 813f c23c
000000f0: 5865 043e 9f8c 3b3e 11b1 27bb 9734 033e
00000100: 007b b13d 7d38 9d3d 1ca8 83bd 330b 8e3d
00000110: a479 e33d 5f53 44bd 0831 b5bd f86a 50bd
00000120: 13e4 0f3e 4dbd e8bc aa42 923d 4662 103e
00000130: be3f e43d 4dc9 95bd c265 abbd b380 7a3d
00000140: 4444 66bd dde1 1e3e fa2b 94bd 4c27 15bd
00000150: 1927 1bbd 2684 4dbe 8b6e a5bb 2060 88b9
00000160: a845 f33a 14a3 b23c bce9 3dbd 4170 55bd
00000170: 77dd 6d3c 7d0a 3f3c 42af d33d 6386 933d
00000180: 2982 933d c9e0 dabd 5896 22be 71fc 17bd
00000190: c591 14bc 10e8 a3bd 8e49 36bc d72d d8bc
000001a0: 34a7 273e 5f8d a43b e068 c6bd 6787 bbbc
000001b0: 8f3d 69bd fe7e 933c d755 f23d 5859 9cbc
000001c0: 2e5c e0bd d3c7 1bbb 3cf3 063c 76f5 99ba
000001d0: decb 1abe 32cb afbc 919b 94bb 0d59 10bc
000001e0: 15f5 dabd aef1 b1bd 8b72 d8bc bafa 09be
000001f0: 4a14 a3bd 763d 90bd f19a 2ebe 8fa2 2a3e
00000200: a329 a33b 9ec7 d7bb eb96 c6bc 9c51 e03d
00000210: 3c87 d0bc fe6d 67bd 8f9e 713d cfe8 103c
00000220: 1127 043d c83a bdbd ac11 c73c d832 1d3c
00000230: 7131 603c e92c d5bd 4867 c9bc 94fe 0b3d
00000240: 67a8 a13c 4395 1d3b 1542 003e 23a2 10be
00000250: 9d9f e6bc 9b83 653e 7d86 053e bedd 7cbd
00000260: a939 36be 4f12 b53d a4c1 c83d a62d 3abd
00000270: 829e 6ebd b435 3c3d 89c7 f33c 5b1a 963d
00000280: 5c96 0abd e4b3 bf3d 13af 9b3d 3e3a f73d
00000290: ad5b f63b b9ce 0dbe c91a 98bd 8bda ffbc
000002a0: da51 8bba 9616 2abc 58d7 4cbe 4c8e adbd
000002b0: 79d7 5ebd 4d13 eebb 608c 55bd 8383 e23d
000002c0: 6e63 f1bd 7050 c73d 20e9 a4bc 1b60 3a3d
000002d0: 72ca cfbd ab94 6ebd 6cdf 803d ed76 f73d
000002e0: bf72 3bbe 3cd7 14bd d7a6 283d e175 083e
000002f0: e565 6f3d 778c a03d a1d2 913d b7e2 573e
00000300: c328 993d 399c bdbd 0c99 143d 9932 babb
00000310: 1616 e43c e26f edbd 69d4 8fbd 9193 693d
00000320: 01db f4bc d1a8 8abe 3b9b eabd 5a03 d83c
00000330: 056b b3bd 1cd1 2cbd 2b34 993d e830 313b
00000340: 3b8e 633c d3aa 01be 23c2 8bbd d922 18bd
00000350: 2b19 c63d b869 01be bdd2 a9bd 61b8 8ebd
00000360: 1645 cebd aa55 e03d 78fa 45bb 897e 14bd
00000370: c297 bfbd 3a7a fa3c 4151 c8bb acef 98bd
00000380: e2bf 9c3c 20c8 893c 84fa 4e3d b22e ea3d
00000390: f32c 963c 79bb 00bd 9aa2 85bd ec0c 783d
000003a0: 5f22 af3d 2c56 0d3e 95f1 66bd 118f 9a3d
000003b0: ece7 d53d a2db f33d c389 8f3c 02eb b33d
000003c0: 2427 2ebe 8304 2bbd e573 81bb 4488 7f3d
000003d0: 1f7d 9fbc 40cc ac3a fb79 6abd 2c72 4fbe
000003e0: 2d3d 893d 4f7e 053e 6b57 87bd 9a88 99bc
000003f0: cff1 9e3d 890d 813c 2351 573d 166e 71bc
-0.12282715 -0.21516626 -0.03839081 -0.03933367 -0.035541315 -0.05415545 -0.09118995 -0.15462661
-0.18727835 0.21884118 0.058350492 -0.0411896 -0.014662611 0.08041443 -0.02361864 -0.05885679
-0.027307963 -0.14154822 0.023447368 0.10164351 -0.007769092 -0.06553354 0.07419781 -0.026228948
-0.0014823985 0.0042920895 0.0048181587 -0.032042637 -0.043494374 -0.0184807 -0.090098485 0.09897024
0.093663625 0.08275981 -0.036816303 0.12541336 -0.08382411 0.07136353 -0.071346544 0.0027344532
-0.06379631 0.061998513 0.014667987 0.036790267 0.11157408 0.07567787 0.064235546 -0.113955855
0.04960851 -0.047497805 -0.06108046 -0.11929544 0.053366218 0.07383333 0.0133318575 -0.002150404
0.038602076 0.17950107 -0.04728802 0.023711922 0.12929285 0.18315361 -0.0025587718 0.1281303
0.086660385 0.0767679 -0.06428549 0.0693573 0.111071855 -0.04793107 -0.088472426 -0.050883263
0.14051847 -0.028410578 0.071416214 0.14099988 0.1114497 -0.07313786 -0.08369018 0.061157893
-0.056217447 0.15515848 -0.0723495 -0.03641443 -0.037879083 -0.20069942 -0.005048578 -0.0002601156
0.0018560188 0.021806277 -0.046365485 -0.052109007 0.014518133 0.011660215 0.10336162 0.072033666
0.072025605 -0.106874056 -0.15877664 -0.03710598 -0.009067957 -0.08003247 -0.011125935 -0.026389046
0.16372377 0.0050217356 -0.09687972 -0.022891713 -0.056943472 0.01800489 0.11832779 -0.019085571
-0.10955082 -0.0023770228 0.0082367025 -0.0011746127 -0.15116832 -0.021459196 -0.0045351465 -0.008810294
-0.10691277 -0.08688675 -0.026421806 -0.13474551 -0.07962854 -0.07042973 -0.17051293 0.16663574
0.0049793287 -0.0065850755 -0.024241885 0.10953066 -0.02545511 -0.05650138 0.058989104 0.008844568
0.03226382 -0.09239727 0.024300419 0.009594642 0.013683663 -0.104089566 -0.024585381 0.03417833
0.01973362 0.0024045266 0.12525208 -0.1412435 -0.028152281 0.22413485 0.13039584 -0.061734907
-0.17795433 0.08841383 0.09802559 -0.04545369 -0.058256634 0.045949653 0.029758232 0.07329246
-0.0338348 0.09360483 0.07601752 0.12071656 0.007518253 -0.1384839 -0.07426984 -0.03123214
-0.0010629252 -0.0103813615 -0.20004022 -0.084744066 -0.05440471 -0.0072654844 -0.052135825 0.1106024
-0.11786543 0.09732139 -0.020130694 0.04550181 -0.10146035 -0.05824725 0.06292614 0.1208323
-0.18305491 -0.036338076 0.041174736 0.13326217 0.058446784 0.078392915 0.071202524 0.21082579
0.07478478 -0.09258313 0.03627877 -0.0056823012 0.027842563 -0.115936056 -0.07022936 0.057025496
-0.029889585 -0.27081922 -0.11455389 0.026368786 -0.08760647 -0.04219161 0.074806534 0.0027037207
0.013888891 -0.1266282 -0.06824138 -0.03714261 0.09672769 -0.12637985 -0.08292148 -0.06968761
-0.10071771 0.10953839 -0.0030209105 -0.036253486 -0.093551174 0.03057586 -0.006113202 -0.07467589
0.019134466 0.01681906 0.05053188 0.11434688 0.01833198 -0.031428788 -0.065251544 0.0605592
0.08551478 0.13802403 -0.056382734 0.07546819 0.10444626 0.11907126 0.017521745 0.087850586
-0.17007118 -0.04175235 -0.0039505833 0.062385812 -0.019468842 0.001318343 -0.057245236 -0.20258397
0.067011215 0.13036464 -0.066084705 -0.018741895 0.07760965 0.015753524 0.052567612 -0.014735719
