results/EntrenamientoCircuitoCompleto1/AgenteCoche/AgenteCoche-2999000.pt (torch, 597567 bytes, 44 tensors)

network_body._body_endoder.seq_layers.0.weight f4 [128, 29]
-0.021808261 0.35115254 0.26920673 0.08001737 -0.11973849 -0.41519108 -0.01995779 0.7577836
-0.1427604 0.20436203 -0.19062203 -0.3220427 0.040506523 0.068936415 0.32299483 0.8816502
-0.13603006 0.093409106 -0.1977823 -0.512684 -0.045714743 0.18103372 -0.026292201 0.45136407
0.18232548 0.13553618 0.18185048 -0.49336058 0.10088683 0.074960716 0.13936272 -0.11857543
-0.09626001 -0.15713985 -0.22432864 0.34166613 -0.39941856 -0.012045412 0.08633748 0.14278585
0.6231511 -0.26700777 -0.35701063 -0.079157025 -0.34227207 0.05227255 0.07048578 0.14909387
0.6773199 -0.12356241 -0.20279518 0.15200119 -0.16742533 0.1290733 0.09211132 -0.068398625
0.45989385 0.12192816 -0.14823432 0.11505244 -0.0038050897 0.4597076 0.12042318 -0.16465083
0.17975822 0.66129106 -0.036011122 0.028800135 0.0022193603 -0.32191867 -0.32889852 0.013956825
-0.10845989 0.8840333 -0.067191266 0.19629417 -0.037082925 -0.6126821 0.0855665 0.24728355
-0.05901192 -0.077763446 0.09211613 0.15391673 0.14545436 -0.6783168 0.09007845 -0.36993954
-0.121587425 -0.26326424 0.13442118 -0.06635068 0.058908634 0.30692044 -0.680066 0.28634384
0.31760308 0.3222498 0.74211586 -0.14222567 -0.32156947 -0.0899679 -0.35338596 -0.12743087
-0.020961292 0.15209764 0.52420413 0.12355689 -0.071723625 0.12922752 -0.024422865 -0.041852128
-0.0696634 -0.048051156 0.34066388 0.014181689 0.64053494 0.052124105 0.050462764 -0.29146835
-0.044434402 0.28570625 0.17999913 -0.4901526 0.4608528 0.12225655 -0.03840478 -0.14676471
-0.18944286 0.24914464 0.20508151 -0.4765946 -0.62724155 0.4581092 -0.026754117 0.021337844
-0.023391316 0.06459813 -0.008609699 0.2530768 -0.012104517 -0.13175105 -0.05869187 0.0726816
-0.3509339 -0.19092081 0.17909828 -0.024424009 -0.14968747 0.06442109 -0.20937616 0.075811975
0.4830924 -0.08864355 0.16033019 -0.37826306 -0.5272567 0.17550589 -0.2388305 -0.14165077
0.3653887 -0.029712653 0.21291362 0.018260952 -0.95902187 0.0030619674 -0.11007515 -0.23205236
-0.092900865 -0.029723495 0.17908897 0.50575274 -0.31052166 0.2693375 -0.12477534 0.28840855
-0.21460958 -0.0536169 -0.26512542 -0.09560937 0.027544027 0.31063753 0.08302339 -0.07269682
0.17992473 -0.26107323 0.048966676 0.10724009 0.16735838 0.29959506 -0.16315903 -0.05519815
-0.009306717 -0.4599988 -0.016502878 -0.051844195 0.2256275 0.26843038 0.00055311195 -0.10757391
-0.5195826 -0.14870249 0.040572878 0.15982202 0.22481583 0.13323356 -0.20461312 0.1310981
0.337656 0.051935054 -0.6297539 0.04235473 -0.0984947 0.14897129 0.11334733 -0.22478664
0.108792864 -0.09779539 -0.23846653 0.25572065 -0.041268833 0.36806557 0.8733317 -0.06319799
0.15465316 -0.2774083 -0.017986357 0.16812415 0.16971864 -0.1549747 0.46327493 -0.18129045
-0.006614652 0.09333131 0.07725946 0.4710466 -0.12096436 0.12788694 -0.021953885 0.46149704
0.15808932 0.23012237 -0.053379163 -0.46729317 0.40215465 -0.05966369 -0.14666381 0.33217886
-0.42552114 0.019329969 -0.06115236 -0.61837405 0.2694989 0.008941852 -0.48585522 0.09826633
00000000: 3da7 b2bc 44ca b33e 77d5 893e 26e0 a33d
00000010: 7439 f5bd ed93 d4be 857e a3bc 1bfe 413f
00000020: c82f 12be 4844 513e 6c32 43be c8e2 a4be
00000030: 2bea 253d 892e 8d3d 945f a53e d4b3 613f
00000040: 774b 0bbe 464d bf3d 7187 4abe 423f 03bf
00000050: 623f 3bbd e760 393e be62 d7bc 3119 e73e
00000060: 88b3 3a3e ffc9 0a3e 0337 3a3e c299 fcbe
00000070: c19d ce3d 0185 993d 1ab5 0e3e add7 f2bd
00000080: f823 c5bd 45e9 20be 68b6 65be ddee ae3e
00000090: 9780 ccbe 1f5a 45bc b4d1 b03d 7436 123e
000000a0: d586 1f3f 3eb5 88be 19ca b6be 141d a2bd
000000b0: 493e afbe be1b 563d d95a 903d 10ac 183e
000000c0: d664 2d3f 4a0e fdbd 8aa9 4fbe 33a6 1b3e
000000d0: 8c71 2bbe cb2b 043e dca4 bc3d 9414 8cbd
000000e0: 3577 eb3e 79b5 f93d bdca 17be 9da0 eb3d
000000f0: d05e 79bb cb5e eb3e 6ea0 f63d 3a9a 28be
00000100: 8a12 383e 5f4a 293f 6680 13bd 43ee eb3c
00000110: b072 113b 86d2 a4be 6365 a8be 2bab 643c
00000120: 3820 debd 0250 623f 939b 89bd 5701 493e
00000130: 44e4 17bd bcd8 1cbf 7d3d af3d e637 7d3e
00000140: 7cb6 71bd 7142 9fbd 62a7 bc3d 599c 1d3e
00000150: fdf1 143e 2ba6 2dbf 0d7b b83d b768 bdbe
00000160: d402 f9bd 92ca 86be b5a5 093e dee2 87bd
00000170: 2e4a 713d ad24 9d3e ce18 2ebf a99b 923e
00000180: df9c a23e edfd a43e 4efb 3d3f 9ba3 11be
00000190: c1a4 a4be 1741 b8bd 01ef b4be 3d7d 02be
000001a0: 04b7 abbc 7cbf 1b3e 3e32 063f 650b fd3d
000001b0: d6e3 92bd 3854 043e 7612 c8bc 236d 2bbd
000001c0: afab 8ebd 4ad1 44bd 7f6b ae3e 515a 683c
000001d0: 19fa 233f 1680 553d 0bb2 4e3d 573b 95be
000001e0: d900 36bd 1748 923e b151 383e 48f5 fabe
000001f0: e6f4 eb3e a461 fa3d 554e 1dbd 7d49 16be
00000200: 4ffd 41be c61f 7f3e e300 523e 3504 f4be
00000210: e792 20bf 4a8d ea3e 732b dbbc b4cc ae3c
00000220: 259f bfbc 064c 843d b20f 0dbc 4893 813e
00000230: 0652 46bc bfe9 06be e366 70bd 17da 943d
00000240: 9cad b3be bf80 43be 8a65 373e dc14 c8bc
00000250: ac47 19be 34ef 833d b466 56be 4f43 9b3d
00000260: e357 f73e c08a b5bd 992d 243e b2ab c1be
00000270: 4cfa 06bf d1b7 333e fc8f 74be e60c 11be
00000280: 3a14 bb3e f367 f3bc 0706 5a3e fe97 953c
00000290: 7582 75bf 4aab 483b 156f e1bd 229f 6dbe
000002a0: cf42 bebd b07e f3bc 1963 373e 0379 013f
000002b0: b2fc 9ebe 9be6 893e 378a ffbd 49aa 933e
000002c0: 9dc2 5bbe 659d 5bbd 85be 87be d8ce c3bd
000002d0: 03a4 e13c e20b 9f3e 2b08 aa3d 12e2 94bd
000002e0: 303e 383e 64ab 85be 4891 483d b1a0 db3d
000002f0: ff5f 2b3e 8664 993e 2913 27be 7517 62bd
00000300: 337b 18bc f684 ebbe 0b31 87bc 945a 54bd
00000310: e50a 673e b56f 893e b7fe 103a b64f dcbd
00000320: 5e03 05bf 7745 18be bf2f 263d 62a8 233e
00000330: 1f36 663e 616e 083e 1a86 51be 953e 063e
00000340: 3fe1 ac3e dab9 543d 8d37 21bf 277c 2d3d
00000350: 97b7 c9bd ee8b 183e a522 e83d 782e 66be
00000360: cbce de3d f348 c8bd 9230 74be d1ed 823e
00000370: 8209 29bd 1773 bc3e ab92 5f3f f36d 81bd
00000380: 665d 1e3e 7608 8ebe 2058 93bc bd28 2c3e
00000390: b9ca 2d3e b0b1 1ebe 5f32 ed3e 34a4 39be
000003a0: b9bf d8bb 7c24 bf3d 353a 9e3d 052d f13e
000003b0: 2abc f7bd cbf4 023e a2d8 b3bc 5749 ec3e
000003c0: 2be2 213e 33a5 6b3e 1ca4 5abd 0d41 efbe
000003d0: 37e7 cd3e ea61 74bd 0a2f 16be 5913 aa3e
000003e0: e8dd d9be e259 9e3c e67a 7abd c34d 1ebf
000003f0: c3fb 893e d880 123c 04c2 f8be dc3f c93d

network_body._body_endoder.seq_layers.0.bias f4 [128]
-0.031038433 0.03309153 0.038644154 0.07165974 -0.08685373 -0.085538514 -0.06376651 0.011488815
-0.038843248 -0.001964477 0.058998432 -0.05987201 0.03449002 -0.057246055 -0.007746906 0.015921576
-0.031581365 -0.0021012619 0.026573773 0.032778118 -0.0031630248 -0.0011614081 0.040473357 -0.05234254
-0.093668476 -0.02175996 0.002732793 0.064196095 0.05677321 0.03468722 0.015445065 -0.0044931113
-0.09982913 0.04754956 -0.037891038 0.064057276 -0.018598711 0.011775525 0.026096238 0.009259586
-0.14563149 0.080995895 0.07191313 -0.025550619 -0.0029026407 0.050125204 -0.030813174 -0.028684145
-0.05251446 0.044284306 0.13856736 0.022802524 0.06315951 -0.0065620067 -0.033438515 0.038642924
-0.03939555 0.08956265 0.025960777 -0.083474666 0.020165496 0.020022884 0.0016209079 -0.0066395677
-0.06324644 -0.02341 -0.14270711 -0.10534057 0.07996775 -0.046035796 0.055971626 -0.057688747
-0.0735369 0.038531326 0.09503405 0.014241899 -0.026050776 0.06247039 0.08409284 -0.089066505
-0.04121132 0.06235789 0.0013318107 0.06366182 0.004058918 -0.051514365 0.050149232 0.025514629
-0.038528632 -0.027364548 0.017853787 -0.015912052 -0.029531289 0.093835324 0.042785924 -0.008966629
0.010347501 0.026373064 0.038665086 -0.052453507 -0.061153684 0.045721557 0.10518088 -0.016914215
-0.030301537 -0.033584848 -0.010307163 -0.0733369 0.095731445 0.016431611 0.012435678 -0.00760751
0.034944 0.045012645 0.040144805 -0.017711742 -0.01216437 0.09484795 0.08471837 -0.008266012
0.071011856 0.04984225 0.030229991 0.028589977 0.090016514 -0.062817864 -0.02947281 0.07557367
00000000: 5044 febc fc8a 073d 5549 1e3d 57c2 923d
00000010: 5ee0 b1bd d12e afbd 0498 82bd 953b 3c3c
00000020: 191a 1fbd 74be 00bb 57a8 713d 5a3c 75bd
00000030: 6845 0d3d d77a 6abd c2d9 fdbb f76d 823c
00000040: 765b 01bd 53b5 09bb 3eb1 d93c 5942 063d
00000050: c04a 4fbb 643a 98ba 64c7 253d 2265 56bd
00000060: 42d5 bfbd f241 b2bc a918 333b 3e79 833d
00000070: 078b 683d 3014 0e3d 4c0d 7d3c f33a 93bb
00000080: 3773 ccbd 54c3 423d a233 1bbd 7630 833d
00000090: 535c 98bc 22ee 403c c7c7 d53c 85b5 173c
000000a0: 6c20 15be 2de1 a53d 3147 933d 884f d1bc
000000b0: 3b3a 3ebb 1650 4d3d e96b fcbc 03fb eabc
000000c0: 6719 57bd 7663 353d 9ae4 0d3e 5ccc ba3c
000000d0: c659 813d 1a06 d7bb d3f6 08bd 0b48 1e3d
000000e0: 3a5d 21bd 9f6c b73d b2ab d43c c4f4 aabd
000000f0: 1c32 a53c 0807 a43c a574 d43a bb90 d9bb
00000100: 5987 81bd 54c6 bfbc d021 12be ccbc d7bd
00000110: 22c6 a33d 0890 3cbd 8142 653d 094b 6cbd
00000120: 849a 96bd 06d3 1d3d 36a1 c23d db56 693c
00000130: 7068 d5bc f4e0 7f3d de38 ac3d 8068 b6bd
00000140: 33cd 28bd fd6a 7f3d 2790 ae3a 2161 823d
00000150: ac00 853b ba00 53bd 4869 4d3d 0e04 d13c
00000160: 33d0 1dbd 9e2b e0bc 1b42 923c fe59 82bc
00000170: 9aeb f1bc bc2c c03d 4b40 2f3d c5e8 12bc
00000180: 9188 293c 530c d83c 485f 1e3d 7dd9 56bd
00000190: 497c 7abd 8746 3b3d 1369 d73d ae8f 8abc
000001a0: ee3a f8bc 4490 09bd 60df 28bc a831 96bd
000001b0: d90e c43d 969b 863c 04bf 4b3c 6b48 f9bb
000001c0: 7121 0f3d 2e5f 383d e16e 243d 3718 91bc
000001d0: 114d 47bc a43f c23d d380 ad3d 2b6e 07bc
000001e0: aa6e 913d 6327 4c3d e3a4 f73c 8735 ea3c
000001f0: 945a b83d a7a6 80bd f670 f1bc 5ec6 9a3d

network_body._body_endoder.seq_layers.2.weight f4 [128, 128]
-0.029095978 -0.012103497 -0.05215194 0.08595476 0.2046396 -0.072830714 -0.042992454 0.12714441
-0.09913861 -0.08963135 -0.22687466 -0.14113176 0.18005142 -0.045337416 0.12918483 0.18606173
-0.0510419 -0.1404939 -0.07771115 0.013342689 -0.06232588 -0.34200606 0.09385924 0.12780191
0.081257135 -0.27912852 0.20234445 -0.011827855 -0.06540951 0.15353674 -0.0410102 -0.122491464
-0.024822356 0.048495144 -0.086195834 0.29511476 0.2661331 -0.019056404 -0.0081913 0.17879221
0.22982562 -0.026679976 0.07454266 0.15325332 0.30104062 0.0138765285 0.23822543 0.028777277
-0.2211444 -0.16558185 0.070145264 -0.21715839 0.049444657 -0.0871287 0.25751972 -0.007353615
0.058662593 -0.061813984 0.20108308 0.14801075 0.10681112 0.09737094 -0.23718488 -0.00560854
-0.09532339 -0.0403223 0.06991885 -0.110934496 0.037276994 -0.0647091 -0.012186221 -0.012560014
-0.073711164 0.0339409 -0.17081958 -0.09807011 -0.0864759 0.18915409 -0.087367766 -0.07478157
-0.044588782 -0.08192921 -0.23218037 -0.16688669 -0.1039228 0.036100958 -0.043267056 -0.152605
-0.0976435 -0.033485387 -0.0037127868 0.13116638 -0.12130116 0.06374227 0.024822999 -0.05973958
-0.105167076 0.015362406 -0.089585245 0.10961425 -0.07868454 0.25791615 -0.23666003 0.028687293
-0.008248652 0.2127648 -0.19003537 -0.13898715 0.14460315 -0.119343035 0.2302391 -0.22628762
-0.2152908 0.12326009 -0.2051279 -0.1373958 0.027925273 0.054811273 -0.008137684 -0.4294842
0.17781968 0.14982934 0.016365418 0.026683379 0.085227296 0.055952076 0.13385867 -0.06523078
-0.1504273 0.1387401 0.019634677 0.10266283 -0.019534523 0.03643912 0.056845784 0.056799613
0.099304505 0.14354898 -0.103088796 -0.022559881 -0.07105189 0.13668515 0.037609693 -0.09793233
0.026542505 -0.08366421 0.22436652 -0.30335703 -0.067857765 -0.0054589147 0.015036728 -0.05866224
0.04017619 -0.10541501 0.033709366 0.10123084 0.167175 0.09605784 -0.028376827 -0.01821777
0.017492622 0.0233093 -0.01959561 0.257183 0.023731448 0.20260704 0.09694952 -0.020447785
0.026690857 0.020485489 -0.04548983 0.04700156 -0.25293288 -0.076676995 0.02589663 0.07046294
-0.04372442 0.11230002 -0.10792364 -0.041680634 -0.0012547574 -0.19152775 -0.07649023 0.08418599
-0.10768954 0.14639571 -0.011354712 -0.24817774 0.1261403 -0.04708575 0.100667916 -0.08763562
0.0932663 0.010187698 -0.14567304 0.050192907 -0.02742841 -0.059911765 0.12573692 0.048635535
0.08354772 -0.03531608 -0.006494734 -0.10587538 -0.043711897 -0.036204133 0.14368534 -0.06298406
-0.038601786 -0.034982316 0.048000857 -0.020525267 -0.0804888 -0.09608979 0.08056825 -0.041877497
-0.046553124 0.018833334 0.06798898 0.06981511 0.08642218 -0.05220605 -0.062466986 -0.06496499
-0.08575883 0.05638738 0.154732 0.08013072 -0.13523096 -0.09846645 0.1183648 -0.08426079
0.22819059 0.18302828 -0.02918356 0.118022524 -0.036870547 -0.08630809 -0.067087874 -0.21630089
0.04441575 0.07304311 0.045637473 0.0028438095 0.00022008648 -0.044148594 -0.024224553 0.06400268
-0.058943965 -0.01560822 -0.16503052 0.10214573 -0.14347507 -0.12692273 -0.029157668 -0.012327781
00000000: b05a eebc bf4d 46bc 469d 55bd 0d09 b03d
00000010: 0b8d 513e 4528 95bd db18 30bd 2532 023e
00000020: 2f09 cbbd a490 b7bd d551 68be d884 10be
00000030: 665f 383e bab3 39bd 0749 043e f786 3e3e
00000040: 5011 51bd a2dd 0fbe 0627 9fbd 4b9b 5a3c
00000050: 6c49 7fbd 6b1b afbe 4639 c03d 81de 023e
00000060: 246a a63d efe9 8ebe 6233 4f3e 9fc9 41bc
00000070: 6cf5 85bd bc38 1d3e 50fa 27bd cedc fabd
00000080: 4158 cbbc d8a2 463d 7187 b0bd 4819 973e
00000090: 9942 883e 2d1c 9cbc cd34 06bc 4e15 373e
000000a0: 6857 6b3e f78f dabc d2a9 983d 70ee 1c3e
000000b0: ff21 9a3e 615a 633c 5ef1 733e 53be eb3c
000000c0: ad73 62be 4a8e 29be 52a8 8f3d c55e 5ebe
000000d0: 7b86 4a3d 8870 b2bd a0d9 833e 98f6 f0bb
000000e0: 3048 703d a930 7dbd b9e8 4d3e 2190 173e
000000f0: cabf da3d 6a6a c73d 98e0 72be d8c7 b7bb
00000100: e938 c3bd ff28 25bd 9d31 8f3d a031 e3bd
00000110: c3af 183d 3486 84bd b7a8 47bc 84c8 4dbc
00000120: e1f5 96bd 9d05 0b3d 54eb 2ebe fbd8 c8bd
00000130: 471a b1bd 9cb1 413e dfed b2bd 1427 99bd
00000140: baa2 36bd 80ca a7bd b1c0 6dbe 58e4 2abe
00000150: 7ad5 d4bd 99de 133d cc38 31bd 7c44 1cbe
00000160: 51f9 c7bd f927 09bd 3a52 73bb 7b50 063e
00000170: be6c f8bd 4f8b 823d 9a59 cb3c 7db1 74bd
00000180: d661 d7bd 9ab2 7b3c 7878 b7bd 707d e03d
00000190: 5c25 a1bd 960d 843e 0257 72be 9d01 eb3c
000001a0: 5b25 07bc 04df 593e a298 42be a652 0ebe
000001b0: d912 143e 1f6a f4bd ccc3 6b3e f1b7 67be
000001c0: 3175 5cbe c96f fc3d 0c0d 52be 7cb1 0cbe
000001d0: 8bc3 e43c c981 603d ec53 05bc 5ae5 dbbe
000001e0: 5d16 363e dd6c 193e c510 863c 1a97 da3c
000001f0: a68b ae3d 012e 653d 3f12 093e b797 85bd
00000200: 9d09 1abe e311 0e3e e7d8 a03c e440 d23d
00000210: dd06 a0bc 3041 153d 20d7 683d b6a6 683d
00000220: 2960 cb3d 81fe 123e 3820 d3bd 80cf b8bc
00000230: a783 91bd 31f7 0b3e 9f0c 1a3d bf90 c8bd
00000240: ab6f d93c 2458 abbd 56c0 653e 9d51 9bbe
00000250: 03f9 8abd b2e0 b2bb 9c5c 763c d147 70bd
00000260: ca8f 243d d3e3 d7bd d512 0a3d 1d52 cf3d
00000270: ec2f 2b3e f9b9 c43d 8576 e8bc 6f3d 95bc
00000280: b04c 8f3c 25f3 be3c f986 a0bc 7dad 833e
00000290: 7468 c23c 3878 4f3e 788d c63d 1d82 a7bc
000002a0: c9a6 da3c 2fd1 a73c 8b53 3abd b584 403d
000002b0: 6b80 81be d408 9dbd 2b25 d43c e04e 903d
000002c0: 6118 33bd 8efd e53d 1207 ddbd 50b9 2abd
000002d0: ac76 a4ba da1f 44be e9a6 9cbd b469 ac3d
000002e0: 558c dcbd c2e8 153e 1d09 3abc 4e22 7ebe
000002f0: ec2a 013e fddc 40bd fb2a ce3d 4e7a b3bd
00000300: 6702 bf3d 4dea 263c 502b 15be 1497 4d3d
00000310: 8bb1 e0bc 0a66 75bd 2ec1 003e 0e36 473d
00000320: 111b ab3d 98a7 10bd c7d1 d4bb 31d5 d8bd
00000330: 3f0b 33bd c94a 14bd 4022 133e c9fd 80bd
00000340: e81c 1ebd 9e49 0fbd 8c9c 443d 9b24 a8bc
00000350: 50d7 a4bd b9ca c4bd f700 a53d bd87 2bbd
00000360: 7dae 3ebd 5d48 9a3c ce3d 8b3d 39fb 8e3d
00000370: 1dfe b03d 03d6 55bd 62dd 7fbd 5d0c 85bd
00000380: 53a2 afbd 74f6 663d 1172 1e3e 931b a43d
00000390: fc79 0abe c7a8 c9bd 3f69 f23d ec90 acbd
000003a0: cbaa 693e c46b 3b3e 5c12 efbc cbb5 f13d
000003b0: 9205 17bd 4cc2 b0bd 5e65 89bd fb7d 5dbe
000003c0: 4aed 353d a097 953d 5cee 3a3d 355f 3a3b
000003d0: 04c7 6639 28d5 34bd 9272 c6bc d613 833d
000003e0: 3a6f 71bd 9fb9 7fbc c3fd 28be c831 d13d
000003f0: 21eb 12be 08f8 01be 10dc eebc 76fa 49bc

network_body._body_endoder.seq_layers.2.bias f4 [128]
0.007245601 -0.043602683 -0.037096303 0.009832566 -0.015579655 -0.021378187 0.05973004 0.031888794
-0.03969192 0.00792525 -0.07011233 0.010564126 -0.04071786 -0.032236762 -0.017580166 -0.014392038
-0.023651622 -0.029258102 0.006147381 -0.009605182 -0.08901244 0.014512708 0.019793175 0.008268776
-0.0004070106 0.0036802466 -0.0210982 0.027768254 -0.030288508 0.017098615 -0.17667101 -0.0434282
0.0156050855 -0.09027411 -0.0145800635 -0.059200726 -0.015594357 -0.04046253 -0.08309094 -0.0050307293
-0.00014620458 -0.18749565 -0.055767324 -0.05521205 -0.032376513 0.0068456437 -0.15462346 0.007840505
-0.017272558 0.00029703125 -0.01054676 -0.04166817 -0.08999004 0.03912687 -0.026239144 0.022955913
-0.009089159 -0.032275498 -0.062449712 0.01924877 -0.0041740383 0.030944489 -0.03376311 -0.016278101
0.089967184 0.01852888 0.0617579 -0.012622311 -0.017838579 -0.038499445 -0.070760176 -0.026600158
0.029274683 0.0029348442 -0.021184294 0.028051035 -0.029220505 -0.10274824 0.049436018 -0.0066075507
-0.020278033 0.004512462 0.06602049 -0.019701764 -0.11865143 0.013570352 0.045311637 -0.0438078
0.017656473 -0.04381658 0.0055614132 0.03352259 0.019148348 0.0028684302 -0.037706535 -0.035387598
0.023804147 -0.033687938 -0.03262634 -0.110157825 0.011869789 -0.01599881 -0.014053619 -0.06790244
-0.14340018 0.026115693 0.020700913 -0.002097422 -0.030184537 0.0341011 -0.021051582 0.02070971
0.024894597 -0.023656195 0.014764543 -0.03557775 -0.024090147 -0.042860944 -0.02029678 -0.035085022
-0.018117651 0.010187212 0.004543438 -0.00092976174 0.030793503 -0.041616935 -0.006456195 0.029509125
00000000: 826c ed3b ba98 32bd 4bf2 17bd c518 213c
00000010: cf41 7fbc 4f21 afbc 7da7 743d d39d 023d
00000020: ff93 22bd e8d8 013c 0e97 8fbd 2815 2d3c
00000030: c5c7 26bd b20a 04bd 4804 90bc 95cc 6bbc
00000040: 0cc1 c1bc b0ae efbc f86f c93b 0e5f 1dbc
00000050: 274c b6bd b6c6 6d3c 4c25 a23c c379 073c
00000060: 0a64 d5b9 4b30 713b 22d6 acbc 407a e33c
00000070: 9b1f f8bc 6512 8c3c 3fe9 34be c5e1 31bd
00000080: 79ac 7f3c a2e1 b8bd 38e1 6ebc 767c 72bd
00000090: 797f 7fbc 0abc 25bd 952b aabd d1d8 a4bb
000000a0: 7e4e 19b9 dcfe 3fbe 476c 64bd 0826 62bd
000000b0: 3c9d 04bd 6c51 e03b 9d55 1ebe 7675 003c
000000c0: 2e7f 8dbc dcba 9b39 51cc 2cbc 3eac 2abd
000000d0: b34c b8bd 7f43 203d 79f3 d6bc 0a0e bc3c
000000e0: b2ea 14bc 5033 04bd 45cb 7fbd 99af 9d3c
000000f0: 5fc6 88bb 4c7f fd3c 304b 0abd a759 85bc
00000100: b740 b83d e1c9 973c daf5 7c3d cfcd 4ebc
00000110: 3622 92bc 98b1 1dbd b6ea 90bd 93e8 d9bc
00000120: 76d1 ef3c 8456 403b af8a adbc 49cb e53c
00000130: d75f efbc ab6d d2bd 6c7d 4a3d 2784 d8bb
00000140: 1e1e a6bc 46dd 933b c035 873d 9865 a1bc
00000150: 85ff f2bd 2f56 5e3c b298 393d cf6f 33bd
00000160: 4fa4 903c 0479 33bd 843c b63b fc4e 093d
00000170: ffdc 9c3c 46fc 3b3b 2b72 1abd 96f2 10bd
00000180: ea00 c33c 5dfc 09bd 32a3 05bd 6d9a e1bd
00000190: 8179 423c f00f 83bc 2641 66bc 6f10 8bbd
000001a0: 7fd7 12be 94f0 d53c f694 a93c e774 09bb
000001b0: 9045 f7bc 98ad 0b3d 5e74 acbc 69a7 a93c
000001c0: c1ef cb3c a3ca c1bc fbe6 713c fab9 11bd
000001d0: b358 c5bc f58e 2fbd 6f45 a6bc 50b5 0fbd
000001e0: 786b 94bc 44e8 263c 1fe1 943b 41bb 73ba
000001f0: a842 fc3c 8576 2abd 7d8e d3bb 1fbd f13c

action_model._continuous_distribution.log_sigma f4 [1, 2]
-0.6869318 -0.72557783
00000000: c3da 2fbf 78bf 39bf

action_model._continuous_distribution.mu.weight f4 [2, 128]
0.159836 0.009746975 -0.004792598 -0.0073739006 0.004525331 0.02952566 0.0006405496 0.006300285
-0.0811349 0.0015898716 -0.06606676 0.057638627 0.0055295546 0.0035330586 -0.005339456 0.0062608845
0.0033555557 0.01052272 -0.004611979 0.001305949 -0.0026961106 0.004430971 -0.0007599442 -0.001656199
0.007192554 -0.000873811 0.0070253513 4.184756e-05 -0.0002978761 -0.0075463 -0.033362933 0.0016279154
-0.06020578 -0.008619118 0.0050990507 0.005137392 0.0028884308 0.0054367133 -0.08330878 -0.0009844571
0.00085783255 -0.05962247 -0.12767343 -0.051689148 -0.00030776707 -0.027645255 -0.029905017 0.000341393
-0.020369466 -0.030703612 0.0022990112 0.005135915 -0.041868497 -0.00352846 -0.0007775078 0.0016962069
-0.0013618714 0.0071950094 -0.09176257 -0.0009554939 0.0035548185 -0.0021592735 0.008043186 -0.010805234
-0.054193355 0.0008910458 -0.0013438996 0.021058727 0.0035446382 -0.022681953 0.02311646 -0.037463877
0.15715812 0.07968967 0.013874351 0.005393956 -0.009980131 -0.028657362 -0.07307903 0.007793794
-0.0028739243 -0.0029810527 -0.049752552 0.0031321205 -0.03511461 -0.1226018 0.0048196632 -0.04170734
0.002806072 -0.09350512 0.16445504 0.001150039 -0.0033013448 0.0012850447 0.00518739 0.019010782
-0.0018937606 -0.16339923 0.047791965 -0.021984613 -4.016119e-05 -0.010544603 -0.006463777 0.0017945152
-0.06206381 -0.011276386 0.0028142754 -0.0049734516 0.0133178225 -0.0039589605 0.0060638567 0.14600007
-0.008107159 0.0062500616 -0.0013988012 0.015850151 -0.0023056113 -0.0013640614 -0.018353466 -0.032393105
0.0027807064 0.20462069 -0.003030865 0.0073535563 0.17143048 0.009734593 -0.0024301629 -0.00023180239
-0.05035869 0.009003458 -0.004619301 -0.06425848 -0.050028943 -0.14561376 0.0011857335 0.0046612034
-0.054025307 -0.027599836 -0.06866351 0.101359084 0.004529189 0.0007858786 -0.005814819 0.012439296
-0.049829952 0.006337667 -0.034420118 0.0033413323 -0.14539357 0.001934767 0.0016879049 -0.0043504937
0.006212911 0.0002777517 0.0064902683 -0.00317852 -0.00054392865 -0.005160081 -0.08424428 0.011112241
0.0036369641 -0.004887435 0.0033192837 0.0020088677 0.006342742 0.0019708367 -0.044029675 -0.0024867048
0.005676756 -0.04659131 -0.0023314238 -0.048122294 -0.00159555 -0.02181834 -0.09732011 0.0053870617
-0.086213805 0.09482628 0.001261266 0.002300134 -0.046870653 -0.0008512565 0.00037382243 0.0018667483
-0.023587046 0.00080201606 -0.0703477 -0.0013678396 0.0011878039 -0.003884403 0.0054581393 -0.032641444
0.114600085 -1.5215977e-05 -0.0010712103 0.06641874 0.0027949132 -0.04149319 -0.04545705 -0.032202825
-0.13734205 0.011239691 0.011311512 0.007150114 -0.003174421 -0.044417616 0.005708197 0.0025355963
-0.0044487207 -0.0012152101 0.107461765 0.0030512002 -0.09209921 0.17402896 0.001147654 0.07442908
0.004390553 -0.07275145 -0.2217226 -0.0007785373 -0.000979063 0.0036550106 -0.016381126 0.009099489
-0.0026586486 0.043380618 -0.038897097 -0.07865458 -0.0027793979 -0.058684196 -0.009230114 -0.0010932079
-0.09283211 -0.008497569 0.0029155079 -0.031197585 -0.06065202 -0.004188914 0.0025526248 -0.16043957
-0.0072232806 0.027639244 -0.0030881178 0.045618307 -0.0027346082 -0.0002379725 -0.016955452 -0.068236075
-0.022410491 -0.13979028 -0.0019296675 0.004766362 -0.27464062 0.009076864 -0.0020377105 -0.0015388748
00000000: 0cac 233e c7b1 1f3c 3a0b 9dbb c3a0 f1bb
00000010: 3a49 943b ccdf f13c 8eea 273a 9f72 ce3b
00000020: 0e2a a6bd 3d63 d03a 024e 87bd 7b16 6c3d
00000030: 4431 b53b e38a 673b 9af6 aebb 1b28 cd3b
00000040: e2e8 5b3b 7d67 2c3c 1520 97bb 602c ab3a
00000050: 3bb1 30bb ae31 913b fe36 47ba d114 d9ba
00000060: 84af eb3b 7710 65ba eb34 e63b 7a85 2f38
00000070: 412c 9cb9 f446 f7bb 92a7 08bd c75f d53a
00000080: 569a 76bd 3337 0dbc f015 a73b 9157 a83b
00000090: d44b 3d3b 7526 b23b cb9d aabd e608 81ba
000000a0: 2be0 603a b136 74bd d3bc 02be 00b8 53bd
000000b0: cc5b a1b9 4d78 e2bc 5efb f4bc fefc b239
000000c0: dedd a6bc 2486 fbbc 02ab 163b 2d4b a83b
000000d0: 4d7e 2bbd bc3d 67bb aad1 4bba 4253 de3a
000000e0: d280 b2ba 1dc4 eb3b 04ee bbbd 1c7a 7aba
000000f0: f5f7 683b 9982 0dbb 91c7 033c 7008 31bc
00000100: daf9 5dbd 1295 693a ca25 b0ba 5a83 ac3c
00000110: 294d 683b 81cf b9bc bb5e bd3c b973 19bd
00000120: 0fee 203e 5634 a33d 3f51 633c c8bf b03b
00000130: b483 23bc d8c2 eabc 75aa 95bd 1563 ff3b
00000140: 7358 3cbb c45d 43bb 55c9 4bbd 4344 4d3b
00000150: 56d4 0fbd a716 fbbd 44ee 9d3b 51d5 2abd
00000160: 13e6 373b 9d7f bfbd e766 283e e8bc 963a
00000170: 605b 58bb f26e a83a fbfa a93b 80bc 9b3c
00000180: 1038 f8ba 2152 27be 82c1 433d 1319 b4bc
00000190: c072 28b8 45c3 2cbc 17ce d3bb f035 eb3a
000001a0: 9f36 7ebd 97c0 38bc b56f 383b 56f8 a2bb
000001b0: ff32 5a3c 2bba 81bb 51b3 c63b 0b81 153e
000001c0: e4d3 04bc 51cd cc3b fb57 b7ba 2dd8 813c
000001d0: bd19 17bb 4eca b2ba 025a 96bc a2ae 04bd
000001e0: 833c 363b 1688 513e 7aa1 46bb 1af6 f03b
000001f0: 798b 2f3e d87d 1f3c 5e43 1fbb fb0f 73b9
00000200: ea44 4ebd 3d83 133c 815d 97bb f399 83bd
00000210: 26eb 4cbd c61b 15be 9d6a 9b3a 02bd 983b
00000220: a449 5dbd 0d19 e2bc 749f 8cbd 5a95 cf3d
00000230: 9769 943b 6c03 4e3a 3d8a bebb 30ce 4b3c
00000240: 7e1a 4cbd 34ac cf3b 1cfc 0cbd 41fa 5a3b
00000250: 0de2 14be 0298 fd3a b13c dd3a 968e 8ebb
00000260: ad95 cb3b 349f 9139 51ac d43b b74e 50bb
00000270: 6f96 0eba e615 a9bb 4488 acbd 1e10 363c
00000280: 225a 6e3b c726 a0bb 5788 593b 35a7 033b
00000290: c7d6 cf3b 2729 013b 7658 34bd fcf7 22bb
000002a0: 1504 ba3b 88d6 3ebd cdca 18bb e21b 45bd
000002b0: c621 d1ba 60bc b2bc c44f c7bd f385 b03b
000002c0: dd90 b0bd 4834 c23d 1051 a53a d8bd 163b
000002d0: 71fb 3fbd db26 5fba 99fd c339 aead f43a
000002e0: 9f39 c1bc 633e 523a 7412 90bd 1549 b3ba
000002f0: 16b0 9b3a 7891 7ebb 31da b23b 09b3 05bd
00000300: 73b3 ea3d 2048 7fb7 da67 8cba 8c06 883d
00000310: dd2a 373b c3f4 29bd 2c31 3abd 1ce7 03bd
00000320: 65a3 0cbe ae26 383c ec53 393c 814b ea3b
00000330: f209 50bb 3fef 35bd d40b bb3b 3f2c 263b
00000340: 93c6 91bb af47 9fba ea14 dc3d a5f6 473b
00000350: 839e bcbd a634 323e e16c 963a 466e 983d
00000360: a1de 8f3b b6fe 94bd 400b 63be c116 4cba
00000370: e753 80ba e788 6f3b b631 86bc 0616 153c
00000380: b93c 2ebb e0af 313d 9052 1fbd a715 a1bd
00000390: 8f26 36bb d75e 70bd e739 17bc f849 8fba
000003a0: c31e bebd 6339 0bbc 1b12 3f3b 1492 ffbc
000003b0: 416e 78bd 2843 89bb f049 273b 454a 24be
000003c0: 45b1 ecbb b26b e23c 0562 4abb 43da 3a3d
000003d0: 1d37 33bb 4288 79b9 29e6 8abc 5bbf 8bbd
000003e0: 3596 b7bc 2f25 0fbe e6ec fcba 242f 9c3b
000003f0: b29d 8cbe 21b7 143c 1c8b 05bb 12b4 c9ba

action_model._continuous_distribution.mu.bias f4 [2]
0.03990886 0.025749538
00000000: 7977 233d b2f0 d23c

exp_avg f4 [128, 29]
-3.5013793e-05 -0.003212594 0.0 -5.4202716e-05 -0.0012056407 -0.0020419671 0.0 -4.3192806e-05
1.5255791e-06 -0.0032491332 0.0 -0.00010307323 -0.001195804 -0.002051804 0.0 -2.8755429e-05
-0.00093224784 -0.0023153597 0.0 -0.00024117011 -0.0019065714 -0.0013410363 0.0 -7.2266794e-06
-0.0027472628 -0.00050034426 0.0 -0.0002947095 -0.0010359335 2.8958117e-05 0.0014089629 0.0
2.40574e-05 0.0006310674 0.0008068534 0.0 2.2013533e-05 7.753857e-06 0.001430167 0.0
4.5707522e-05 0.00063978543 0.0007981354 0.0 1.569711e-05 0.0003211165 0.0011168044 0.0
0.000100817095 0.0009885455 0.00044937545 0.0 8.046714e-06 0.0013190631 0.00011885786 0.0
0.00014849186 0.00049663824 -8.1358485e-05 -0.0065784706 0.0 -0.00012892405 -0.0021881007 -0.0044717276
0.0 -9.989027e-05 -0.00018998704 -0.0064698425 0.0 -0.00025477813 -0.0018954994 -0.0047643287
0.0 -6.608317e-05 -0.0022470558 -0.004412773 0.0 -0.00050540006 -0.0040424783 -0.0026173512
0.0 -2.9582174e-05 -0.005261427 -0.0013984024 0.0 -0.0005608921 -0.0020065128 5.9608767e-05
0.0031770272 0.0 5.4121396e-05 0.000889483 0.0023471527 0.0 4.4379205e-05 8.586148e-05
0.0031507744 0.0 0.0001136833 0.00082896743 0.0024076686 0.0 3.4758217e-05 0.0011453277
0.002091308 0.0 0.00023596606 0.0021614213 0.0010752142 0.0 1.9886718e-05 0.0025730731
0.00066356256 0.0 0.0002826377 0.00096334773 -2.0972664e-08 0.0015434499 0.0 3.6752288e-05
0.0006450474 0.00089838135 0.0 3.4325083e-05 0.00010975249 0.0014336766 0.0 5.6685432e-05
0.00062225125 0.0009211776 0.0 2.5753216e-05 0.00034932466 0.001194104 0.0 0.00010194151
0.0009745827 0.000568846 0.0 2.0440431e-05 0.0013222491 0.00022117975 0.0 0.000134168
0.0005717143 -9.667057e-05 -0.002322 0.0 -3.2227916e-05 -0.000573186 -0.0018454844 0.0
-3.6296464e-05 -2.18208e-05 -0.0023968497 0.0 -7.974068e-05 -0.00051168667 -0.0019069838 0.0
-3.255952e-05 -0.0006088624 -0.0018098082 0.0 -0.00015620599 -0.0016511331 -0.0007675376 0.0
-2.1532043e-05 -0.0024430384 2.4367793e-05 0.0 -0.00023194269 -0.0012287989 -1.3188185e-06 -0.00018417399
0.0 7.625001e-07 8.418487e-05 -0.00026967766 0.0 -5.0457397e-06 -2.7724132e-05 -0.00015776865
0.0 -3.6035322e-06 5.7696496e-05 -0.00024318931 0.0 -6.112812e-06 -4.567388e-06 -0.0001809254
0.0 -6.9642397e-06 -4.6998404e-05 -0.00013849443 0.0 -3.3544238e-06 -0.00018989266 4.399846e-06
0.0 -1.7342907e-05 -9.0355505e-05 2.8123148e-05 0.0041640205 0.0 0.0001004318 0.0013008874
0.0028912562 0.0 5.4572258e-05 0.00030474615 0.003887398 0.0 0.00020507685 0.00081351463
0.0033786288 0.0 4.766696e-05 0.0025292237 0.0016629195 0.0 0.00037339574 0.0026117896
0.0015803538 0.0 3.510106e-05 0.003300544 0.00089159945 0.0 0.0003151227 0.0010130951
-3.594182e-05 -0.0021416275 0.0 -4.0823572e-05 -0.00041764003 -0.0017599291 0.0 -3.8268376e-05
-0.00018249979 -0.0019950694 0.0 -9.110346e-05 -0.00028498383 -0.0018925853 0.0 -4.1431354e-05
-0.00084748387 -0.0013300853 0.0 -0.00015099972 -0.0015021331 -0.00067543646 0.0 -3.2281983e-05
00000000: c6db 12b8 628a 52bb 0000 0000 b957 63b8
00000010: 9706 9eba 86d2 05bb 0000 0000 ec29 35b8
00000020: 80c2 cc35 69ef 54bb 0000 0000 0529 d8b8
00000030: 86bc 9cba 8f77 06bb 0000 0000 d037 f1b7
00000040: 1862 74ba 4abd 17bb 0000 0000 9ce2 7cb9
00000050: ece5 f9ba b6c5 afba 0000 0000 b47c f2b6
00000060: 6c0b 34bb 8929 03ba 0000 0000 3d83 9ab9
00000070: 29c8 87ba 15eb f237 f3ac b83a 0000 0000
00000080: e0ce c937 376e 253a 0483 533a 0000 0000
00000090: b4a9 b837 9016 0237 7174 bb3a 0000 0000
000000a0: 14b6 3f38 46b7 273a f639 513a 0000 0000
000000b0: 49ad 8337 875b a839 bd61 923a 0000 0000
000000c0: c46d d338 1592 813a 279a eb39 0000 0000
000000d0: 6000 0737 6ae4 ac3a 5443 f938 0000 0000
000000e0: 7bb4 1b39 d430 023a 019f aab8 3690 d7bb
000000f0: 0000 0000 c92f 07b9 3d66 0fbb 9287 92bb
00000100: 0000 0000 2e7c d1b8 4237 47b9 f900 d4bb
00000110: 0000 0000 be93 85b9 6872 f8ba 161e 9cbb
00000120: 0000 0000 2296 8ab8 5743 13bb 0699 90bb
00000130: 0000 0000 d37c 04ba c476 84bb de87 2bbb
00000140: 0000 0000 3c27 f8b7 0c68 acbb 994a b7ba
00000150: 0000 0000 d508 13ba b37f 03bb 6d04 7a38
00000160: ac35 503b 0000 0000 6800 6338 322c 693a
00000170: b0d2 193b 0000 0000 cf23 3a38 8810 b438
00000180: 397d 4e3b 0000 0000 4269 ee38 104f 593a
00000190: fac9 1d3b 0000 0000 5ac9 1138 d21e 963a
000001a0: 530e 093b 0000 0000 a86d 7739 a2a6 0d3b
000001b0: 34ee 8c3a 0000 0000 67d2 a637 01a1 283b
000001c0: eef2 2d3a 0000 0000 fd2e 9439 2c89 7c3a
000001d0: 6027 b4b2 964d ca3a 0000 0000 7826 1a38
000001e0: 6618 293a 5a81 6b3a 0000 0000 47f8 0f38
000001f0: eb2a e638 34ea bb3a 0000 0000 85c1 6d38
00000200: 931e 233a 2f7b 713a 0000 0000 9c08 d837
00000210: 9025 b739 7b83 9c3a 0000 0000 6ec9 d538
00000220: 237b 7f3a 9c1e 153a 0000 0000 7e77 ab37
00000230: 514f ad3a 7dec 6739 0000 0000 73af 0c39
00000240: 19df 153a 9ebb cab8 b22c 18bb 0000 0000
00000250: 762c 07b8 dc41 16ba 2ee4 f1ba 0000 0000
00000260: 083d 18b8 d00b b7b7 7714 1dbb 0000 0000
00000270: 743a a7b8 b622 06ba c2f3 f9ba 0000 0000
00000280: 8590 08b8 109c 1fba 1637 edba 0000 0000
00000290: 3acb 23b9 d56a d8ba 9434 49ba 0000 0000
000002a0: b69f b4b7 621b 20bb 7069 cc37 0000 0000
000002b0: a435 73b9 a60f a1ba 4202 b1b5 d41e 41b9
000002c0: 0000 0000 9cae 4c35 688c b038 8663 8db9
000002d0: 0000 0000 934e a9b6 1f91 e8b7 b36e 25b9
000002e0: 0000 0000 36d4 71b6 24ff 7138 a200 7fb9
000002f0: 0000 0000 a81c cdb6 9041 99b6 cbb6 3db9
00000300: 0000 0000 5dae e9b6 2720 45b8 d138 11b9
00000310: 0000 0000 901c 61b6 ec1d 47b9 64a2 9336
00000320: 0000 0000 9c7b 91b7 3e7d bdb8 00ea eb37
00000330: 5672 883b 0000 0000 e99e d238 8a82 aa3a
00000340: 3b7b 3d3b 0000 0000 84e4 6438 56c6 9f39
00000350: b7c3 7e3b 0000 0000 e609 5739 0b42 553a
00000360: fc6b 5d3b 0000 0000 02ee 4738 55c1 253b
00000370: 52f6 d93a 0000 0000 54c4 c339 8f2a 2b3b
00000380: e023 cf3a 0000 0000 7a39 1338 f14d 583b
00000390: 3aba 693a 0000 0000 0e37 a539 d5c9 843a
000003a0: 3cc0 16b8 8c5a 0cbb 0000 0000 fa39 2bb8
000003b0: b2f6 dab9 6cad e6ba 0000 0000 5b82 20b8
000003c0: 6a5d 3fb9 b6bf 02bb 0000 0000 cc0e bfb8
000003d0: e269 95b9 a010 f8ba 0000 0000 94c6 2db8
000003e0: ae29 5eba 4256 aeba 0000 0000 ae55 1eb9
000003f0: 39e3 c4ba c60f 31ba 0000 0000 8466 07b8

exp_avg_sq f4 [128, 29]
7.1294846e-07 4.276167e-05 0.0 8.177593e-08 1.0634994e-05 3.1866002e-05 0.0 9.1272334e-08
3.474505e-06 3.879616e-05 0.0 1.2685155e-07 2.2353288e-05 1.8155062e-05 0.0 9.995223e-08
2.9823927e-05 1.2009588e-05 0.0 2.41545e-07 2.8553739e-05 1.3100523e-05 0.0 1.14307866e-07
3.5691864e-05 6.309807e-06 0.0 2.334293e-07 2.985743e-05 1.6234958e-07 8.488512e-06 0.0
1.7766876e-08 2.4317376e-06 5.8671e-06 0.0 1.8406663e-08 8.286749e-07 7.5768257e-06 0.0
3.253311e-08 5.627032e-06 2.4664337e-06 0.0 1.7594182e-08 6.229534e-06 2.0918606e-06 0.0
5.980913e-08 7.098662e-06 1.2233193e-06 0.0 1.9719078e-08 6.975746e-06 1.3244476e-06 0.0
5.5754256e-08 5.8795654e-06 4.8665565e-06 0.00014790936 0.0 2.1769593e-07 3.0971245e-05 0.000119842334
0.0 2.2007899e-07 1.9182582e-05 0.00012835422 0.0 3.9853109e-07 5.142213e-05 9.247018e-05
0.0 2.6899312e-07 9.80131e-05 5.007016e-05 0.0 8.263535e-07 9.480529e-05 5.151579e-05
0.0 3.6305735e-07 0.0001136499 3.3465938e-05 0.0 8.090969e-07 9.490953e-05 4.2677038e-07
4.3832006e-05 0.0 7.3959065e-08 7.9351175e-06 3.5147215e-05 0.0 7.478957e-08 4.5741563e-06
3.8141694e-05 0.0 1.606419e-07 2.1776437e-05 1.9234702e-05 0.0 7.84488e-08 3.1451495e-05
1.1086806e-05 0.0 2.8776608e-07 3.537864e-05 6.872086e-06 0.0 9.845107e-08 3.389921e-05
8.47976e-06 0.0 2.7413412e-07 2.8535957e-05 9.1637236e-07 8.539739e-06 0.0 6.065341e-09
8.2355973e-07 8.687085e-06 0.0 9.174365e-09 1.9219158e-06 7.251392e-06 0.0 8.091132e-09
1.3130839e-06 7.881606e-06 0.0 1.6425592e-08 2.6658975e-06 6.710056e-06 0.0 1.36271066e-08
5.717262e-06 3.5135781e-06 0.0 2.503025e-08 8.245943e-06 1.0526533e-06 0.0 4.9806815e-08
6.286379e-06 4.4607464e-07 4.089529e-05 0.0 7.071684e-08 1.1619823e-05 2.807864e-05 0.0
6.017157e-08 2.765825e-06 3.7423335e-05 0.0 1.687508e-07 2.3513005e-05 1.4745849e-05 0.0
5.771551e-08 3.1042655e-05 8.711469e-06 0.0 3.4035602e-07 3.3216304e-05 6.063705e-06 0.0
7.351928e-08 2.9537014e-05 9.778631e-06 0.0 2.8114553e-07 2.6453978e-05 5.2633638e-08 1.1956317e-06
0.0 2.3150053e-09 1.4440964e-07 1.0649144e-06 0.0 2.9592941e-09 3.5807622e-07 8.2683357e-07
0.0 2.7255813e-09 4.725352e-07 7.049646e-07 0.0 4.2715667e-09 8.421686e-07 3.6197645e-07
0.0 3.503854e-09 7.703188e-07 4.38135e-07 0.0 4.651504e-09 9.989964e-07 1.8709682e-07
0.0 4.1245682e-09 8.9947685e-07 4.511114e-06 7.497539e-05 0.0 1.1179642e-07 1.3555773e-05
6.656694e-05 0.0 1.02208666e-07 1.5488453e-05 6.0003887e-05 0.0 2.7499436e-07 2.8591825e-05
4.803412e-05 0.0 1.2305836e-07 6.0533013e-05 1.7146458e-05 0.0 5.31253e-07 5.226456e-05
2.3949e-05 0.0 1.6491651e-07 5.5084984e-05 2.2450466e-05 0.0 4.476039e-07 4.397106e-05
6.89131e-07 3.1416024e-05 0.0 5.1628223e-08 4.8414586e-06 2.6396814e-05 0.0 5.1901164e-08
3.957622e-06 2.6883845e-05 0.0 1.2312142e-07 1.5500458e-05 1.4180925e-05 0.0 5.4120967e-08
2.2584405e-05 8.1990875e-06 0.0 2.1016471e-07 2.5521193e-05 5.0206995e-06 0.0 6.729827e-08
00000000: 7261 3f35 fe5a 3338 0000 0000 cb9c af33
00000010: f46c 3237 dca7 0538 0000 0000 7f01 c433
00000020: 8b2b 6936 0fb9 2238 0000 0000 b034 0834
00000030: 5283 bb37 b34b 9837 0000 0000 52a5 d633
00000040: 652e fa37 ca7c 4937 0000 0000 b1ad 8134
00000050: b086 ef37 51ca 5b37 0000 0000 6a79 f533
00000060: d9b3 1538 d4b8 d336 0000 0000 8fa4 7a34
00000070: 5876 fa37 5052 2e34 e269 0e37 0000 0000
00000080: c69d 9832 ef30 2336 01de c436 0000 0000
00000090: ae1c 9e32 1b72 5e35 703c fe36 0000 0000
000000a0: 88ba 0b33 d6cf bc36 0285 2536 0000 0000
000000b0: 0422 9732 4a07 d136 e461 0c36 0000 0000
000000c0: 6b70 8033 0b31 ee36 ee30 a435 0000 0000
000000d0: b662 a932 3411 ea36 acc3 b135 0000 0000
000000e0: 7476 6f33 1549 c536 674b a336 1e18 1b39
000000f0: 0000 0000 cdbf 6934 1fe7 0138 dd53 fb38
00000100: 0000 0000 da4e 6c34 48ea a037 d396 0639
00000110: 0000 0000 b2f5 d534 17ae 5738 8dec c138
00000120: 0000 0000 226a 9034 628c cd38 6d02 5238
00000130: 0000 0000 95d2 5d35 34d2 c638 a912 5838
00000140: 0000 0000 39ea c234 5357 ee38 c75d 0c38
00000150: 0000 0000 b730 5935 2a0a c738 e01e e534
00000160: 42d8 3738 0000 0000 6dd3 9e33 1221 0537
00000170: 096b 1338 0000 0000 009c a033 b47b 9936
00000180: 55fa 1f38 0000 0000 e97c 2c34 8bac b637
00000190: 355a a137 0000 0000 af77 a833 c9ea 0338
000001a0: 7801 3a37 0000 0000 457e 9a34 8763 1438
000001b0: c596 e636 0000 0000 0c6c d333 002f 0e38
000001c0: 4b44 0e37 0000 0000 b52c 9334 8060 ef37
000001d0: a1fc 7535 e645 0f37 0000 0000 4e67 d031
000001e0: 9812 5d35 bfbe 1137 0000 0000 499d 1d32
000001f0: 43fa 0036 fc50 f336 0000 0000 2d01 0b32
00000200: 383d b035 3d3b 0437 0000 0000 4218 8d32
00000210: c5e7 3236 f126 e136 0000 0000 a61c 6a32
00000220: e8d6 bf36 d0ca 6b36 0000 0000 1a02 d732
00000230: 0e58 0a37 e448 8d35 0000 0000 2ceb 5533
00000240: 96ef d236 087c ef34 fc86 2b38 0000 0000
00000250: fedc 9733 c3f2 4237 6c8a eb37 0000 0000
00000260: ac37 8133 839c 3936 00f7 1c38 0000 0000
00000270: de31 3534 cb3d c537 f064 7737 0000 0000
00000280: e0e2 7733 cc33 0238 7927 1237 0000 0000
00000290: 2dba b634 bc51 0b38 d476 cb36 0000 0000
000002a0: a7e1 9d33 41c6 f737 e60e 2437 0000 0000
000002b0: 59f0 9634 7ce9 dd37 4c0f 6233 9879 a035
000002c0: 0000 0000 0116 1f31 050f 1b34 2eee 8e35
000002d0: 0000 0000 745c 4b31 9f3d c034 92f3 5d35
000002e0: 0000 0000 ef4c 3b31 beb0 fd34 cc3c 3d35
000002f0: 0000 0000 19c5 9231 6311 6235 aa55 c234
00000300: 0000 0000 74c8 7031 e8c7 4e35 d138 eb34
00000310: 0000 0000 10d3 9f31 4115 8635 c8e4 4834
00000320: 0000 0000 16b8 8d31 9473 7135 2d5e 9736
00000330: 1b3c 9d38 0000 0000 bb14 f033 9a6d 6337
00000340: db99 8b38 0000 0000 cf7d db33 33ed 8137
00000350: afac 7b38 0000 0000 f0a2 9334 7ad8 ef37
00000360: 3e78 4938 0000 0000 0622 0434 d4e4 7d38
00000370: bdd5 8f37 0000 0000 6e9b 0e35 a536 5b38
00000380: 16e6 c837 0000 0000 e813 3134 0d0b 6738
00000390: 0254 bc37 0000 0000 364e f034 916d 3838
000003a0: b9fc 3835 b3c4 0338 0000 0000 d5bd 5d33
000003b0: d073 a236 ba6e dd37 0000 0000 efe9 5e33
000003c0: b7cb 8436 9e84 e137 0000 0000 5c33 0434
000003d0: fb06 8237 9cea 6d37 0000 0000 a272 6833
000003e0: a473 bd37 d08e 0937 0000 0000 a3a9 6134
000003f0: 5816 d637 7b77 a836 0000 0000 9d85 9033

exp_avg f4 [128]
-0.003247608 0.001437921 -0.006659829 0.0032366356 0.0015434289 -0.0024186708 -0.00018549286 0.0041921437
-0.002177569 0.0012354782 -0.0035081531 -0.0007546494 0.00079060637 -0.0004892544 -0.0021217845 0.00012818564
-0.0015880596 0.0019000281 -2.474467e-05 0.0010496172 -0.00041865613 -0.0029021702 0.00453922 -0.00054390484
-0.0010116297 -0.0032711704 -0.0020724717 -0.00015148254 -0.0021344107 0.0059110224 -0.0023286515 0.0008643827
-0.00079761795 0.0023280252 -0.0019087049 0.0026600412 -0.0027504195 -0.0045628455 0.001253235 0.0060142763
0.00039570555 -0.0012663306 0.0025262816 0.0028511328 0.0066601736 -0.00044725614 0.0009247218 -0.0016431089
-0.0028642453 -9.768008e-05 -0.00020103318 -0.0038570631 0.00082955125 -0.0020502773 0.0072942562 -0.00048728526
-0.002360912 -7.865828e-05 -0.0032811644 0.0014087654 -0.00018095522 0.0059435936 -0.002853998 -0.0003323705
0.001028253 -0.00011231926 0.00216354 0.0007114636 0.0036881333 -0.0012853673 0.0015170707 0.0013621165
-0.0016637594 -0.00251398 -0.005432425 -0.0014268397 0.0009419555 0.0057185134 -0.00011198295 -0.00088001473
-0.0007087169 9.853995e-05 -0.003971232 1.2892153e-05 0.0023863937 -9.6642325e-05 -8.054528e-05 -0.0043068985
0.00022672903 -0.0025253904 -0.0032029399 -0.0017771455 -0.0020036972 -0.0024414924 0.0031347363 -0.00027990172
-0.00026139093 -0.0014868353 0.0011293765 0.0016643181 -0.00046638938 0.0069152243 -0.004871286 0.0002686741
0.00042182073 0.0035014683 0.002129551 -0.0032682214 0.0037942198 -0.004527283 -0.0014837589 -0.002987435
-0.0016729039 -0.00036228262 -0.0010494961 -0.0015936706 -0.0036327923 0.00069083495 0.0027073747 -0.003993936
-7.899755e-05 0.00472166 -0.00052773394 0.0051427595 0.004609314 -0.0020735124 -0.0007816625 0.003157655
00000000: d2d5 54bb 9f78 bc3a b23a dabb bc1d 543b
00000010: e14c ca3a 9082 1ebb dc80 42b9 405e 893b
00000020: 8cb5 0ebb c5ef a13a 0be9 65bb aad3 45ba
00000030: b240 4f3a 4f41 00ba a30d 0bbb 9269 0639
00000040: 7026 d0ba 5d0a f93a c692 cfb7 4f93 893a
00000050: 137f dbb9 5632 3ebb bdbd 943b d694 0eba
00000060: a998 84ba 2261 56bb 4ed2 07bb 49d7 1eb9
00000070: 78e1 0bbb 40b1 c13b 4a9c 18bb be97 623a
00000080: 3c17 51ba c891 183b 822d faba 1654 2e3b
00000090: 6240 34bb ec83 95bb 9743 a43a 6813 c53b
000000a0: b376 cf39 01fb a5ba f98f 253b 12da 3a3b
000000b0: 963d da3b b47d eab9 0869 723a 965d d7ba
000000c0: 10b6 3bbb 98d9 ccb8 6fcc 52b9 c8c6 7cbb
000000d0: 3e76 593a f25d 06bb a804 ef3b 527a ffb9
000000e0: 88b9 1abb 58f5 a4b8 ce08 57bb 53a6 b83a
000000f0: ccbe 3db9 7ac2 c23b 240a 3bbb 0342 aeb9
00000100: 72c6 863a f28c ebb8 2eca 0d3b 8481 3a3a
00000110: 9cb4 713b c579 a8ba 72d8 c63a 0c89 b23a
00000120: 8012 daba 96c1 24bb 7c02 b2bb cc04 bbba
00000130: 90ed 763a 5e62 bb3b 63d8 eab8 cab0 66ba
00000140: 30c9 39ba 3ca7 ce38 1c21 82bb 604b 5837
00000150: 0b65 1c3b 74ac cab8 6bea a8b8 e220 8dbb
00000160: 1cbe 6d39 0581 25bb 6ae8 51bb 1cef e8ba
00000170: 7650 03bb 7201 20bb 2670 4d3b c6bf 92b9
00000180: 4c0b 89b9 eae1 c2ba 9607 943a 4025 da3a
00000190: b985 f4b9 1b99 e23b 4f9f 9fbb d4dc 8c39
000001a0: d227 dd39 e478 653b f08f 0b3b a82f 56bb
000001b0: 72a8 783b 9a59 94bb b07a c2ba d8c8 43bb
000001c0: 5745 dbba c0f0 bdb9 3f8f 89ba b6e2 d0ba
000001d0: 2414 6ebb 2619 353a 366e 313b 90df 82bb
000001e0: 7dab a5b8 28b8 9a3b a057 0aba 9884 a83b
000001f0: ba09 973b c4e3 07bb 7be8 4cba a9f0 4e3b

exp_avg_sq f4 [128]
4.3610504e-05 8.694064e-06 0.00015361176 4.4438e-05 9.469721e-06 4.1551953e-05 1.2405369e-06 8.082757e-05
3.2283984e-05 1.0976371e-05 4.7941794e-05 4.1575986e-06 1.9666475e-05 2.1510364e-06 3.0349851e-05 1.2718039e-06
1.9336214e-05 1.7661925e-05 4.3212066e-07 2.8714789e-05 2.3412272e-06 3.592204e-05 9.4963856e-05 2.579423e-06
7.6174742e-06 6.5393215e-05 2.1679378e-05 3.606736e-06 2.6371765e-05 0.000136613 3.2437038e-05 6.741531e-06
5.1097977e-06 3.831522e-05 1.3228314e-05 3.6372538e-05 5.235847e-05 0.000121166486 5.7139514e-06 0.00014657414
3.1241875e-06 1.3450975e-05 2.2892993e-05 5.6052006e-05 0.00015849191 3.1157015e-06 4.2968804e-06 7.68145e-06
4.9062877e-05 5.2980236e-06 6.051217e-07 5.8122438e-05 5.89833e-06 2.6645908e-05 0.00023275331 1.6900801e-06
3.9563703e-05 6.040597e-06 6.536913e-05 1.0920551e-05 9.151817e-07 0.0002011716 0.00010160481 2.4845426e-06
5.6429326e-06 3.2409872e-07 2.9288556e-05 2.601923e-06 6.477677e-05 1.35445825e-05 9.458574e-06 1.03123075e-05
1.9152913e-05 4.045185e-05 0.00013687914 1.0239759e-05 5.427532e-06 0.0001883518 1.404815e-06 2.9323671e-06
3.6670433e-06 1.6956606e-06 9.852587e-05 2.4996132e-06 3.4156375e-05 2.5357065e-06 4.103273e-07 0.000109256565
2.549943e-05 2.9169918e-05 5.9484348e-05 3.0148749e-05 2.6259253e-05 4.2112344e-05 2.9035426e-05 1.0496271e-06
3.1010422e-06 1.3861323e-05 8.949557e-06 1.3791392e-05 5.7395446e-06 0.00024437474 0.00011229211 5.733346e-06
3.509481e-07 5.0631763e-05 2.2314527e-05 5.075931e-05 9.735935e-05 9.649177e-05 1.2150129e-05 6.520947e-05
1.47479e-05 4.0327277e-06 1.2610173e-05 1.2492903e-05 7.0343405e-05 5.6719105e-06 2.9628072e-05 7.700181e-05
3.5469057e-07 0.00011494068 3.4225989e-06 0.00010756642 8.4704196e-05 1.7239474e-05 1.3397234e-05 3.875219e-05
00000000: 6cea 3638 b8dc 1137 d812 2139 f062 3a38
00000010: 24e0 1e37 1248 2e38 8680 a635 f981 a938
00000020: aa68 0738 2827 3837 1c15 4938 8081 8b36
00000030: 6ff9 a437 865a 1036 cf97 fe37 d9b2 aa35
00000040: 3434 a237 b228 9437 36fe e734 8ae0 f037
00000050: fa1d 1d36 ffaa 1638 5527 c738 261a 2d36
00000060: 9b99 ff36 b723 8938 1cdc b537 410b 7236
00000070: ef38 dd37 c63f 0f39 010d 0838 4f35 e236
00000080: d474 ab36 a7b4 2038 2def 5d37 b78e 1838
00000090: 7b9b 5b38 c31a fe38 78ba bf36 b2b1 1939
000000a0: 22a9 5136 7fab 6137 540a c037 6219 6b38
000000b0: d930 2639 5817 5136 ec2d 9036 94df 0037
000000c0: ddc8 4d38 adc5 b136 a66f 2235 7ec8 7338
000000d0: 45ea c536 a785 df37 3e0f 7439 b6d6 e235
000000e0: 34f1 2538 55b0 ca36 c916 8938 6937 3737
000000f0: cfaa 7535 97f1 5239 ab14 d538 1ebc 2636
00000100: 6c58 bd36 caff ad34 b2b0 f537 b29c 2e36
00000110: c3d8 8738 8a3d 6337 44b0 1e37 0603 2d37
00000120: 91aa a037 d8aa 2938 3787 0f39 6ecb 2b37
00000130: 251e b636 4d80 4539 138d bc35 afc9 4436
00000140: 5317 7636 7496 e335 ac9f ce38 07bf 2736
00000150: 2143 0f38 1b2b 2a36 f44a dc34 ac20 e538
00000160: 9ce7 d537 ecb1 f437 d57e 7938 f2e7 fc37
00000170: 5147 dc37 c9a1 3038 1a91 f337 eae0 8c35
00000180: 801b 5036 ee8d 6837 0e26 1637 9461 6737
00000190: 5096 c036 6c1f 8039 5e7e eb38 1161 c036
000001a0: f169 bc34 715d 5438 1530 bb37 65e6 5438
000001b0: 672d cc38 a05b ca38 68d8 4b37 11c1 8838
000001c0: c06d 7737 de50 8736 4890 5337 9c98 5137
000001d0: 5485 9338 5751 be36 cd89 f837 087c a138
000001e0: 4d6c be34 4f0c f138 cdaf 6536 4895 e138
000001f0: 38a3 b138 7d9d 9037 afc4 6037 d989 2238
