results/EntrenamientoCircuitoCompleto/AgenteCoche/AgenteCoche-5999999.onnx (onnx, 300789 bytes, 11 tensors)

60 f4 [28]
0.22572602 0.22572601 0.0004082483 0.02463447 0.3444939 0.34449413 0.0004082483 0.02840887
0.44025522 0.44025424 0.0004082483 0.028917175 0.49520198 0.49520203 0.0004082483 0.028646113
0.4432049 0.44320413 0.0004082483 0.029557765 0.44892514 0.44880232 0.0004082483 0.02831657
0.35666126 0.35656038 0.0004082483 0.027262576
00000000: b924 673e b824 673e 290a d639 3ace c93c
00000010: 8161 b03e 8961 b03e 290a d639 b8b9 e83c
00000020: 2269 e13e 0169 e13e 290a d639 b6e3 ec3c
00000030: 1d8b fd3e 1f8b fd3e 290a d639 41ab ea3c
00000040: c1eb e23e a7eb e23e 290a d639 2023 f23c
00000050: 84d9 e53e 6bc9 e53e 290a d639 27f8 e73c
00000060: 4e9c b63e 158f b63e 290a d639 c455 df3c

63 f4 [3]
0.8406453 4.1835694 0.7392234
00000000: 8834 573f cddf 8540 bf3d 3d3f

action_model._continuous_distribution.log_sigma f4 [1, 2]
-1.651286 -1.5674416
00000000: 575d d3bf eda1 c8bf

action_model._continuous_distribution.mu.bias f4 [2]
0.051177107 0.13175139
00000000: 169f 513d d6e9 063e

action_model._continuous_distribution.mu.weight f4 [2, 256]
-0.032681268 -0.00016716868 -0.03486938 2.5815372e-05 0.0013515227 0.0063237897 -0.034024425 -0.00023003876
-0.001129233 -0.068252265 0.000981506 0.04204913 0.0015961571 -0.056977145 -0.00014533829 0.04892594
0.0009135022 0.07866374 0.00094665744 -0.028118074 -6.5875705e-05 -0.0009571689 -0.03822103 -0.03562304
-0.029872656 0.00022331817 -0.00054453633 0.0006906427 -0.026505314 0.00043626715 0.06100733 0.0004967937
-0.0016556821 0.0029557573 0.06801636 -0.0010463811 0.0023450549 -0.00018053302 0.010773834 0.0016482639
0.0003879526 0.000262986 -0.0007886095 -0.0061105164 0.049706686 -0.10305049 -0.01003696 -0.0048965937
0.07229388 0.0003806471 0.020365803 -0.0002511511 2.8549686e-05 0.00020825102 -2.4802595e-05 0.00022174051
0.095001645 0.0001001455 -0.020744588 -0.00083944283 -0.05696453 -0.100126535 0.00035922683 0.0022525412
0.0021767807 -0.018140681 0.00012520148 0.001714204 0.010973222 0.0006569721 -0.0014958268 -0.08882778
-0.0050985576 -0.057486393 -0.014077862 -0.13329463 0.0009975868 0.0010886454 0.0012233766 0.0013506063
0.00046450677 0.020205919 -0.1258642 -0.05605293 -0.009254353 0.0001572389 -0.0012819655 -0.016163463
0.0011899626 -0.032038003 0.00047349147 0.028349513 0.039915726 -0.04668422 -0.0005848119 0.0012253576
-0.00010906798 -0.00044542467 0.08712106 0.010881814 0.0010511031 -0.03165052 0.080012135 0.06955166
-0.0013006659 0.00217619 -0.0015913507 -0.0058875587 -0.008613692 -0.0014326521 -0.0006325509 0.0059468453
0.0024875335 0.00079850596 0.103295326 0.029532516 -0.001234727 -0.042380214 -0.0013250897 -0.023382349
-0.0016318946 0.046368156 0.045888145 -0.04574836 0.00025219418 0.0006527384 0.0051489742 0.0015350195
-0.007207646 0.03515839 0.056049637 0.05622744 0.15510805 -0.017950937 0.0014010923 -0.12088055
-0.0014564587 -0.14144258 -0.10459252 -0.00014639282 0.00022750637 -0.005069712 0.0011417515 0.0003579795
-0.018169846 -0.017077945 -0.0005499338 0.0011782038 0.00074564776 0.0015791411 -0.0008619532 0.0119965905
0.0020737797 -0.00065762433 -0.040890984 0.00034699566 -0.033607256 -0.03185434 -0.043626864 -0.0001305039
0.0012577778 0.054021545 -0.0036866996 7.369742e-05 -0.0010732592 -0.084659636 -0.008717721 -0.0022664438
0.0002925686 0.011886597 -0.010744302 -0.033159174 0.14280261 -0.01540317 0.004682684 0.06633409
-0.0645583 -0.013063882 0.06554969 0.0733586 0.011236695 -0.00089220837 0.00017001858 0.07269578
0.045722622 0.0006747946 -0.0019025564 0.00075950957 0.0011003964 -0.018480822 0.00041677104 -0.0010947686
-0.002511553 -0.0007902281 0.00076889567 0.11614335 0.0053431713 0.0755191 0.050565615 0.08212002
0.075741276 3.4453515e-05 -0.010641075 -0.001525011 0.06950665 0.08616182 0.00064741354 0.054546624
-6.089677e-05 0.0010222758 0.0010712103 0.00062160665 -0.0009883263 0.0002361477 -0.005633404 4.5241704e-06
-0.00082346064 0.02048136 -0.0033652247 -0.0012171795 -0.14126639 0.055224404 -0.009542444 -0.0006496763
-0.002260801 0.0016670591 -0.011286451 0.0020260168 0.0019492586 0.0023959556 0.012705515 -0.01345426
0.00059351843 0.00052960915 -0.06379985 -0.044469696 -0.085421115 0.009453146 0.0008695153 0.09061826
-1.9068055e-05 0.0005975467 -0.062352445 -6.335082e-05 0.0008396119 0.09931757 -0.0012953376 -0.007991506
0.00058805867 -0.0006989326 0.00068108994 -0.024568982 0.00051269104 7.214027e-05 -0.016669733 0.0003898949
00000000: cbdc 05bd 004a 2fb9 32d3 0ebd 178e d837
00000010: 9425 b13a cb37 cf3b 325d 0bbd 8f36 71b9
00000020: c602 94ba d8c7 8bbd e0a5 803a b53b 2c3d
00000030: 2536 d13a de60 69bd f365 18b9 9166 483d
00000040: 1878 6f3a 741a a13d 1b29 783a e057 e6bc
00000050: c026 8ab8 84ea 7aba a88d 1cbd 77e9 11bd
00000060: 80b7 f4bc 842a 6a39 37bf 0eba 3f0c 353a
00000070: ac21 d9bc c9ba e439 d2e2 793d 433b 023a
00000080: 7903 d9ba 61b5 413b 294c 8b3d b926 89ba
00000090: 7eaf 193b 774d 3db9 bc84 303c 8f0a d83a
000000a0: 1e66 cb39 62e1 8939 b0ba 4eba ba3a c8bb
000000b0: 3d99 4b3d 230c d3bd 1072 24bc 9b73 a0bb
000000c0: d00e 943d 9791 c739 2fd6 a63c eeac 83b9
000000d0: fc7d ef37 f55d 5a39 2b0f d0b7 0483 6839
000000e0: 3990 c23d 3505 d238 8ef0 a9bc 0e0e 5cba
000000f0: a453 69bd 240f cdbd 9c56 bc39 5f9f 133b
00000100: 52a8 0e3b c49b 94bc 8448 0339 24af e03a
00000110: 07c9 333c a738 2c3a 9e0f c4ba 57eb b5bd
00000120: cd11 a7bb da76 6bbd d5a6 66bc 637e 08be
00000130: 75c1 823a e1b0 8e3a b559 a03a d406 b13a
00000140: 0b89 f339 e286 a53c 8be2 00be c297 65bd
00000150: 929f 17bc 7fe0 2439 a007 a8ba 3d69 84bc
00000160: 85f8 9b3a 483a 03bd f33e f839 3d3d e83c
00000170: ac7e 233d f437 3fbd 104e 19ba 2e9c a03a
00000180: 6dbb e4b8 e387 e9b9 876c b23d a349 323c
00000190: 2bc5 893a faa3 01bd 67dd a33d 1a71 8e3d
000001a0: 1b7b aaba 699e 0e3b de94 d0ba 6cec c0bb
000001b0: 7120 0dbc d4c7 bbba c6d1 25ba c1dd c23b
000001c0: e305 233b d452 513a 808c d33d 2dee f13c
000001d0: 90d6 a1ba e096 2dbd a2ae adba 578c bfbc
000001e0: 4ce5 d5ba 89ec 3d3d 35f5 3b3d a262 3bbd
000001f0: ee38 8439 881c 2b3a bab8 a83b b532 c93a
00000200: 1e2e ecbb 3e02 103d 4e94 653d be4e 663d
00000210: a5d4 1e3e d80d 93bc dba4 b73a 3990 f7bd
00000220: a5e6 beba 53d6 10be 9a34 d6bd 0681 19b9
00000230: c78e 6e39 d41f a6bb d3a6 953a 32af bb39
00000240: eed8 94bc 0ce7 8bbc 6f29 10ba f66d 9a3a
00000250: 9377 433a 2ffb ce3a b3f4 61ba 598d 443c
00000260: 40e8 073b 6c64 2cba 4e7d 27bd f8ec b539
00000270: c3a7 09bd b279 02bd 15b2 32bd e0d7 08b9
00000280: 05dc a43a b245 5d3d 8e9c 71bb 008e 9a38
00000290: 9aac 8cba 0862 adbd c6d4 0ebc 9e88 14bb
000002a0: e563 9939 00c0 423c de08 30bc ead1 07bd
000002b0: d93a 123e 945d 7cbc 3371 993b 2bda 873d
000002c0: 2437 84bd e409 56bc ea3e 863d 093d 963d
000002d0: 1d1a 383c 17e3 69ba 0447 3239 86e1 943d
000002e0: a547 3b3d b3e4 303a 335f f9ba d319 473a
000002f0: 2d3b 903a 1865 97bc 1082 da39 577e 8fba
00000300: de98 24bb 4f27 4fba b78f 493a 91dc ed3d
00000310: c515 af3b c2a9 9a3d e41d 4f3d 8b2e a83d
00000320: 3e1e 9b3d 2e82 1038 e757 2ebc e1e2 c7ba
00000330: 8159 8e3d 9c75 b03d 30b7 293a 486c 5f3d
00000340: 696b 7fb8 e2fd 853a da67 8c3a 51f3 223a
00000350: ba8a 81ba 6a9e 7739 6b98 b8bb 54ce 9736
00000360: 82dd 57ba 86c8 a73c 1a8b 5cbb c489 9fba
00000370: 23a8 10be fc32 623d e957 1cbc 0a4f 2aba
00000380: f229 14bb 3981 da3a ceea 38bc ecc6 043b
00000390: 447e ff3a 7705 1d3b cb2a 503c 426f 5cbc
000003a0: 5996 1b3a 78d5 0a3a 7fa9 82bd db25 36bd
000003b0: 44f1 aebd 5ee1 1a3c 2ff0 633a 1196 b93d
000003c0: 56f4 9fb7 aea4 1c3a 4765 7fbd 36db 84b8
000003d0: 6719 5c3a 0367 cb3d 51c8 a9ba ceee 02bc
000003e0: f327 1a3a 9338 37ba 2c8b 323a e444 c9bc
000003f0: 1d66 063a 034a 9738 f78e 88bc cf6a cc39

network_body._body_endoder.seq_layers.0.bias f4 [256]
0.11105439 -0.009773358 -0.00344036 -0.02229899 -0.034800224 -0.051258616 -0.00296016 0.028101938
-0.02778046 0.06229672 -0.148954 0.0637718 -0.035822283 0.08717063 0.083738595 -0.09009747
0.083322175 0.008737408 -0.099698395 -0.08839966 -0.040589437 -0.022197286 -0.037577406 0.004498546
-0.10757281 -0.059280135 -0.09230458 -0.14641972 -0.07888877 -0.033916365 0.024289673 0.0014440388
0.06632083 -0.13532886 -0.052852355 0.09083782 -0.009320346 -0.023951823 -0.053617295 -0.0549447
-0.07102291 -0.07441138 -0.010611043 -0.06801819 0.09866223 -0.076524675 -0.11845716 -0.026053544
0.036379922 -0.11117409 -0.01021848 0.022054302 0.09713677 -0.041576274 -0.014432094 0.009909905
-0.10955691 -0.012463091 -0.028064534 0.00849372 -0.10368904 -0.022079196 -0.081619784 -0.100371055
0.026223829 0.07460543 -0.09771342 0.099832125 0.094739236 0.047209367 0.0062617604 0.02850245
-0.048313484 -0.039269827 0.035320565 0.011764021 0.017351694 0.02505242 0.020765655 -0.011790082
0.018841958 -0.03761828 0.030506628 0.04820894 -0.038356192 0.009796126 0.070514254 -0.06958123
0.089496925 -0.2018832 0.030870263 -0.00058425695 0.04989346 -0.01373509 -0.04666699 0.03581606
-0.11402118 -0.07622502 0.041317157 -0.16378124 0.13382939 0.07714337 -0.0915292 -0.09047582
-0.06249134 0.038659625 0.01302735 -0.03766281 -0.015555497 0.0105891125 -0.185522 -0.05181043
-0.030435432 -0.09010377 -0.0896324 0.00455113 0.07823736 -0.13403076 -0.012168777 -0.0015358903
-0.063206255 -0.07022996 -0.16686739 -0.142916 -0.117794074 -0.035560355 0.040477917 -0.064857155
-0.052956335 0.07703015 0.057159033 0.073939756 -0.11499947 -0.037009064 0.028523428 0.04898723
0.093635716 -0.020310804 -0.01924554 0.052749727 -0.017858092 0.013447309 0.043593388 -0.0032509475
-0.027360788 0.08292858 -0.07670788 -0.10013138 -0.07448514 0.10177089 0.0059557464 0.07485812
-0.079598844 -0.14325334 0.121905915 0.043138787 -0.040027346 0.01750298 -0.06484456 0.09511358
-0.02999381 -0.009793663 -0.15653406 0.077429555 -0.013302766 0.041133963 0.048069738 -0.12065934
0.16396661 -0.08969048 -0.022101037 -0.000692706 -0.105503954 0.008568901 -0.061879482 -0.066959724
-0.055969674 -0.06003771 0.04820599 -0.15742122 -0.012080167 0.00018814644 -0.05558238 -0.03072941
-0.11381595 -0.13407196 -0.010377318 -0.08009539 0.0015163431 -0.046152636 -0.06370734 0.032817736
0.06620754 0.06376379 0.09291467 0.081304476 -0.07055711 0.005335527 -0.032690786 0.081378356
-0.12227639 0.0013034899 0.0065848785 -0.04012607 0.1301203 0.014737677 -0.018907415 -0.08101504
0.09988801 -0.12803935 0.06611621 -0.053983722 -0.054093394 0.004997922 -0.019971255 -0.048739724
-0.0019795375 0.011747505 -0.084198296 0.03559126 -0.025224384 0.005350609 -0.02071378 -0.06483195
0.017143456 0.033734728 -0.045418464 0.09161755 0.08001948 -0.010722545 -0.020908892 -0.014196626
-0.059304398 0.00049734925 -0.0731599 -0.029196031 -0.14980906 0.015116658 0.017882353 0.09186631
-0.068158105 -0.033186406 -0.023553096 -0.080149576 -0.09352697 0.13710354 0.033537038 0.09862289
-0.022683635 -0.018399077 -0.0004416681 0.0009238791 0.07901821 0.026810247 0.05959424 0.1179944
00000000: 7c70 e33d 6f20 20bc aa77 61bb 5fac b6bc
00000010: ae8a 0ebd 8ef4 51bd 3eff 41bb 0936 e63c
00000020: d993 e3bc d82a 7f3d 6687 18be ca9a 823d
00000030: 63ba 12bd 8486 b23d 247f ab3d 0685 b8bd
00000040: d1a4 aa3d 5827 0f3c ac2e ccbd e20a b5bd
00000050: 1c41 26bd 15d7 b5bc c4ea 19bd 8a68 933b
00000060: 224f dcbd bacf 72bd 2f0a bdbd 0def 15be
00000070: 6f90 a1bd e3eb 0abd 23fb c63c e745 bd3a
00000080: 37d3 873d a693 0abe b67b 58bd 2e09 ba3d
00000090: 5db4 18bc 9d36 c4bc cf9d 5bbd b20d 61bd
000000a0: 7674 91bd fe64 98bd f1d9 2dbc 1f4d 8bbd
000000b0: 6c0f ca3d f8b8 9cbd ab99 f2bd 3e6e d5bc
000000c0: 1d03 153d 3eaf e3bd 696b 27bc 39ab b43c
000000d0: a5ef c63d e24b 2abd 9774 6cbc 275d 223c
000000e0: 605f e0bd fe31 4cbc 98e7 e5bc 3e29 0b3c
000000f0: eb5a d4bd 6edf b4bc 4628 a7bd 578f cdbd
00000100: 5bd3 d63c bbca 983d f91d c8bd c974 cc3d
00000110: a506 c23d 9c5e 413d 742f cd3b f87d e93c
00000120: 5ce4 45bd 66d9 20bd 4cac 103d e1bd 403c
00000130: 2425 8e3c bc3a cd3c bc1c aa3c 302b 41bc
00000140: 735a 9a3c a015 1abd 09e9 f93c bd76 453d
00000150: 621b 1dbd ee7f 203c c769 903d 9b80 8ebd
00000160: 2a4a b73d 78ba 4ebe a2e3 fc3c d228 19ba
00000170: 165d 4c3d 2509 61bc e325 3fbd dcb3 123d
00000180: f083 e9bd dd1b 9cbd 2e3c 293d 45b6 27be
00000190: 920a 093e 58fd 9d3d a973 bbbd 634b b9bd
000001a0: ebf6 7fbd 8e59 1e3d ab70 553c 5244 1abd
000001b0: 7cdc 7ebc f57d 2d3c 7bf9 3dbe 2c37 54bd
000001c0: ba53 f9bc 5388 b8bd 3191 b7bd a521 953b
000001d0: e93a a03d 5c3f 09be 8d5f 47bc ed4f c9ba
000001e0: 4872 81bd bad4 8fbd 49df 2abe 9258 12be
000001f0: 053e f1bd bca7 11bd 2ccc 253d d4d3 84bd
00000200: bee8 58bd fcc1 9d3d 971f 6a3d ba6d 973d
00000210: d884 ebbd d196 17bd f7a9 e93c d5a6 483d
00000220: 15c4 bf3d d862 a6bc d3a8 9dbc 1910 583d
00000230: 224b 92bc 1a52 5c3c fb8e 323d d90d 55bb
00000240: bb23 e0bc 76d6 a93d 0519 9dbd ae11 cdbd
00000250: aa8b 98bd 426d d03d 6c28 c33b 374f 993d
00000260: b804 a3bd 01b1 12be cfa9 f93d 4cb2 303d
00000270: b7f3 23bd 6962 8f3c 3acd 84bd e9ca c23d
00000280: 94b5 f5bc 9a75 20bc 774a 20be 6393 9e3d
00000290: d8f3 59bc 167c 283d c6e4 443d 3e1c f7bd
000002a0: dde6 273e a4af b7bd 3c0d b5bc b696 35ba
000002b0: 7512 d8bd 9364 0c3c 5775 7dbd 2e22 89bd
000002c0: 7540 65bd 1aea 75bd a573 453d 0733 21be
000002d0: e5eb 45bc 2d49 4539 5aaa 63bd 3ebc fbbc
000002e0: 5618 e9bd 294a 09be a005 2abc 0d09 a4bd
000002f0: 08c0 c63a 8c0a 3dbd fe78 82bd e46b 063d
00000300: d297 873d 9796 823d 0c4a be3d f682 a63d
00000310: 3f80 90bd a5d5 ae3b c6e6 05bd b2a9 a63d
00000320: 0b6c fabd ddd9 aa3a f7c5 d73b 3c5b 24bd
00000330: 423e 053e 4c76 713c b9e3 9abc 37eb a5bd
00000340: 1692 cc3d bf1c 03be ef67 873d 091e 5dbd
00000350: 0991 5dbd 9cc5 a33b c29a a3bc 4ea3 47bd
00000360: 21bb 01bb 9b78 403c 2870 acbd 24c8 113d
00000370: 5ea3 cebc 2954 af3b f2af a9bc 9dc6 84bd
00000380: 6f70 8c3c 6d2d 0a3d b608 3abd fba1 bb3d
00000390: 41e1 a33d 9dad 2fbc 2049 abbc f798 68bc
000003a0: 2be9 72bd 8b60 023a dcd4 95bd 842c efbc
000003b0: 8c67 19be dcab 773c 037e 923c 6724 bc3d
000003c0: 7a96 8bbd 78ee 07bd 6cf2 c0bc 7625 a4bd
000003d0: 118b bfbd df64 0c3e 225e 093d ccfa c93d
000003e0: 08d3 b9bc a9b9 96bc b08f e7b9 7a30 723a
000003f0: 4dd4 a13d 2aa1 db3c 1719 743d 0ca7 f13d

network_body._body_endoder.seq_layers.0.weight f4 [256, 31]
-0.23715273 0.31439018 -0.11546609 -0.0816123 0.059164777 -0.17861106 0.1300106 0.052325413
-0.13109706 0.008357325 -0.06423522 -0.12740897 0.06178135 0.14517725 -0.2645172 0.34735018
-0.09866981 -0.23221678 -0.087015375 -0.56606406 -0.10949577 0.112674795 0.14535394 0.016612828
-0.058375258 -0.33547205 -0.063073836 0.6609679 -0.16917962 -0.114180595 0.3722875 -0.18989618
-0.01035277 -0.036052678 0.33588213 -0.027665017 0.027273327 -0.040983465 0.08997849 0.0017215793
-0.17928469 0.0912582 -0.24950324 -0.12787502 -0.030109622 0.15048157 -0.11800969 0.06028583
0.025426708 0.18733521 0.050504036 0.48506516 0.3446155 -0.38304356 -0.18490098 -0.25857395
-0.12621315 -0.22859892 0.18612164 0.24687324 -0.07002267 -0.23823269 0.034080386 -0.028374216
0.12797557 -0.59214413 0.09715213 -0.10276277 0.21255131 -0.06874716 -0.11166289 -0.20253624
0.2464496 -0.14223626 -0.08915188 0.4055295 -0.089360066 -0.17310439 -0.03648609 -0.15710652
-0.0414933 0.28595915 0.09934961 -0.06157341 0.22516422 0.21661665 -0.202143 0.1791785
-0.23149131 0.17844024 0.45511594 0.42325962 -0.11015897 0.030875301 -0.108911455 0.42991376
0.18766282 -0.16846524 -0.20276067 -0.012634688 0.040388323 0.28804985 -0.17548023 0.22929317
0.65728176 0.11762054 -0.05536937 -0.14298588 -0.028344559 -0.15546168 0.09852587 0.024799138
0.49993324 -0.02289353 0.0047421847 -0.0071412665 -0.0046890904 -0.10230445 0.06961254 0.17647322
0.0024435592 0.01185363 0.012406687 -0.27536803 -0.12082414 0.017825088 -0.019525658 0.057418767
0.032837354 0.07887239 0.41710633 -0.07501535 -0.030266143 -0.45889816 -0.038764875 -0.43480638
0.19301617 -0.22134088 0.059738822 0.22295573 0.08712095 -0.04596931 -0.12941964 0.13417068
0.19696645 -0.22340757 -0.31240276 -0.6519911 -0.053368345 -0.003133585 0.03949659 0.13824166
0.14732702 -0.12904221 0.51690876 -0.25938138 0.13328588 -0.13865313 0.14181207 0.015378217
0.1728699 -0.12843834 0.40991494 0.046344433 0.02089144 -0.24282381 -0.12884732 -0.15045354
0.013271744 -0.013286192 -0.08658521 -0.10639209 -0.05199674 0.22350457 -0.09265375 0.0054249107
0.0022648459 -0.16264263 -0.17597814 0.08809268 0.057146493 0.28372484 0.15953322 0.0055606975
-0.12976052 0.1105458 0.09000726 -0.08100943 0.029898863 0.051492028 0.17155872 0.17291038
-0.23684737 -0.3547259 0.037492618 -0.0018680119 -0.02115567 0.3243942 0.09497053 0.0006590884
0.057350494 0.07606077 0.082169786 0.19779402 0.0878555 -0.1222552 0.097390085 0.17020601
0.09552809 0.0771142 -0.24727961 -0.2026134 -0.23730046 0.017727084 0.105076864 0.23581272
-0.028644012 0.16313984 -0.08757772 -0.09279847 -0.16660558 0.13595434 0.3941079 -0.017724575
-0.013412872 0.06457821 0.07920202 0.2343076 -0.14452916 -0.11803719 0.14767835 0.12295035
-0.24253154 -0.018276319 0.15313089 -0.10177209 -0.13386501 0.051945377 0.028560968 -0.1982096
0.016377334 0.2573317 -0.2592496 0.1718713 -0.6245779 0.110794164 -0.28399435 -0.07195881
-0.1620012 0.22619559 -0.006065228 -0.025446137 0.036659177 -0.18928187 -0.07458162 -0.07214171
00000000: 2ad8 72be c0f7 a03e 7c79 ecbd 5924 a7bd
00000010: c456 723d d1e5 36be 8021 053e 2c53 563d
00000020: 4f3e 06be 29ed 083c c18d 83bd 7f77 02be
00000030: 710e 7d3d 58a9 143e cc6e 87be e2d7 b13e
00000040: 6613 cabd 3cca 6dbe 1e35 b2bd 93e9 10bf
00000050: 513f e0bd 0bc2 e63d aad7 143e a017 883c
00000060: e51a 6fbd fec2 abbe db2c 81bd 3135 293f
00000070: 6c3d 2dbe 84d7 e9bd 789c be3e 2574 42be
00000080: aa9e 29bc f9ab 13bd bef8 ab3e bfa1 e2bc
00000090: 506c df3c 47de 27bd a446 b83d 9ea6 e13a
000000a0: 6896 37be 94e5 ba3d c77d 7fbe abf1 02be
000000b0: 74a8 f6bc d717 1a3e 10af f1bd 46ee 763d
000000c0: ac4b d03c cdd4 3f3e 52dd 4e3d 765a f83e
000000d0: 7171 b03e 491e c4be af56 3dbe ce63 84be
000000e0: 053e 01be d615 6abe ac96 3e3e 57cc 7c3e
000000f0: 0c68 8fbd 45f3 73be e097 0b3d 0b71 e8bc
00000100: 070c 033e c296 17bf b2f7 c63d 4a75 d2bd
00000110: 0da7 593e 50cb 8cbd 83af e4bd a965 4fbe
00000120: 495d 7c3e 62a6 11be 4395 b6bd 90a1 cf3e
00000130: 6902 b7bd 4742 31be 7072 15bd 88e0 20be
00000140: e1f4 29bd 3d69 923e cf77 cb3d 6634 7cbd
00000150: 7391 663e c1d0 5d3e 93fe 4ebe 927a 373e
00000160: 0f0c 6dbe 0ab9 363e f504 e93e 7cb5 d83e
00000170: 079b e1bd 33ee fc3c f80c dfbd a81d dc3e
00000180: af2a 403e 2782 2cbe 7ea0 4fbe b901 4fbc
00000190: 3a6e 253d 457b 933e 17b1 33be d4cb 6a3e
000001a0: 9e43 283f 0ae3 f03d feca 62bd e46a 12be
000001b0: d932 e8bc 5931 1fbe eec7 c93d 9027 cb3c
000001c0: 40f7 ff3e 368b bbbc 5464 9b3b 4901 eabb
000001d0: f1a6 99bb ff84 d1bd 0591 8e3d 65b5 343e
000001e0: 1f24 203b ba35 423c 6b45 4b3c 0afd 8cbe
000001f0: a672 f7bd eb05 923c 46f4 9fbc f12f 6b3d
00000200: 7680 063d d987 a13d f68e d53e a6a1 99bd
00000210: b4f0 f7bc b3f4 eabe ebc7 1ebd f19e debe
00000220: 08a6 453e 2fa7 62be b2b0 743d 824e 643e
00000230: 786c b23d 514a 3cbd 9586 04be 0a64 093e
00000240: 93b1 493e f4c4 64be 41f3 9fbe e4e8 26bf
00000250: c498 5abd d55c 4dbb 2dc7 213d 398f 0d3e
00000260: e5dc 163e a423 04be 2254 043f a3cd 84be
00000270: 187c 083e 16fb 0dbe 2f37 113e ebf4 7b3c
00000280: cf04 313e 5785 03be 5fe0 d13e a9d3 3d3d
00000290: 8624 ab3c cea6 78be 8df0 03be 7e10 1abe
000002a0: bb71 593c 54ae 59bc 9653 b1bd 19e4 d9bd
000002b0: 89fa 54bd 62de 643e 40c1 bdbd 73c3 b13b
000002c0: cf6d 143b ca8b 26be 9d33 34be ef69 b43d
000002d0: 7112 6a3d 6244 913e ad5c 233e 8336 b63b
000002e0: f1df 04be d665 e23d ba55 b83d 46e8 a5bd
000002f0: 76ee f43c 4ee9 523d 17ad 2f3e 6b0f 313e
00000300: 1e88 72be a29e b5be dc91 193d 14d8 f4ba
00000310: a84e adbc ff16 a63e e97f c23d acc6 2c3a
00000320: 5ae8 6a3d c0c5 9b3d a248 a83d 848a 4a3e
00000330: 96ed b33d ef60 fabd 7474 c73d 7c4a 2e3e
00000340: 3ba4 c33d 0dee 9d3d de36 7dbe e379 4fbe
00000350: e4fe 72be 6438 913c 8a32 d73d e478 713e
00000360: d9a6 eabc 210e 273e f35b b3bd 200d bebd
00000370: a79a 2abe 9d37 0b3e 83c8 c93e 2133 91bc
00000380: aac1 5bbc 9541 843d ab34 a23d 55ee 6f3e
00000390: 74ff 13be 7bbd f1bd fe38 173e 65cd fb3d
000003a0: 305a 78be 38b8 95bc 58ce 1c3e e36d d0bd
000003b0: e913 09be adc4 543d b1f8 e93c 75f7 4abe
000003c0: c229 863c fbc0 833e 5dbc 84be 08ff 2f3e
000003d0: 56e4 1fbf 0de8 e23d b567 91be 245f 93bd
000003e0: a4e3 25be d19f 673e d2be c6bb 6b74 d0bc
000003f0: ef27 163d 1bd3 41be 40be 98bd 08bf 93bd

network_body._body_endoder.seq_layers.2.bias f4 [256]
-0.14877516 0.002258 -0.1293331 -0.024048988 0.009579971 -0.39969024 -0.16840297 -0.013901953
0.0042640623 0.009326063 -0.0011002555 -0.06610308 0.00739173 -0.07646466 0.0011550965 -0.11718518
-0.0024124258 -0.011610554 0.004163048 -0.10557756 -0.022408718 -0.0030146714 -0.066298865 -0.1182326
-0.032652464 -0.024915196 -0.011342109 0.0123031745 -0.09967866 0.018900692 -0.08485175 0.043314315
-0.007791119 0.011922518 -0.204017 -0.042356417 -0.006041075 -0.023445912 -0.16131006 -0.03567143
0.020252636 -0.015748482 -0.0262561 -0.20867984 -0.07306945 -0.1739643 -0.037048306 -0.053418234
-0.06044566 0.010746139 -0.23833902 -0.01694777 -0.032214444 0.010010783 0.0077068824 -4.9205275e-05
-0.030436184 -0.031421073 -0.04854192 0.026894778 -0.1397755 -0.1719985 0.012052693 -0.03843524
0.0067994175 -0.07793837 -0.03425262 -0.0073696007 -0.18873794 0.012356251 0.024796527 -0.050836757
-0.00027141016 -0.1191417 0.02968611 -0.08040374 0.005418222 -0.04192835 0.0005579728 0.00082500686
-0.037624545 -0.07406633 0.00809907 -0.045195438 -0.09569884 -0.02890833 -0.0015699442 -0.13281107
0.004935096 -0.0445724 -0.20364378 -0.15829942 -0.051403463 -0.11644119 0.030352233 -0.00082790054
0.0066641187 0.024019264 -0.037273005 -0.2716808 0.009480089 -0.047091875 -0.00042940758 -0.12027835
-0.00014554501 -0.104075596 -0.11929867 -0.19639054 -0.19714987 -0.019407654 0.008042505 -0.18646266
0.020334775 -0.02015646 -0.040366024 -0.15395011 0.001110137 -0.040908877 -0.04216456 -0.19499868
-0.03429826 -0.10733259 -0.11189722 -0.10520578 -0.0557731 -0.024796719 -0.10394132 0.024754038
0.01030645 -0.08653422 -0.06538272 -0.048442446 -0.20542826 -0.05787731 0.0096204905 -0.11390916
0.0024383382 -0.025407085 -0.06586888 -0.029240772 -0.017637 -0.0028539447 -0.00024978598 -0.060376883
-0.17965111 -0.05609015 0.01754143 0.018163396 0.004360536 0.028871747 -0.007322271 -0.0737007
-0.05059482 -0.03846192 -0.13870323 -0.01888679 0.021579904 -0.16234657 0.010577276 -0.003804476
-0.011250059 -0.11048222 -0.098376885 0.013440961 -0.069544256 -0.0009456005 -0.062146645 -0.027275918
-0.010836294 -0.21209681 -0.2321723 -0.110570304 -0.16732976 -0.11625551 -0.18775718 -0.055704787
-0.022920692 -0.073013835 -0.06337965 -0.1575631 -0.09276733 -0.0037616566 -0.017671937 -0.1860045
-0.1632532 0.004060478 -0.10541811 -0.028645506 -0.01037704 -0.05803566 0.021602534 -0.0129123675
0.0019040554 -0.0084812585 -0.00037932867 -0.16354491 -0.1873717 -0.14205322 -0.063677065 -0.09063975
-0.0163051 0.009732706 0.020526903 -0.002426951 -0.17765737 -0.21591137 0.004388387 -0.10641914
0.008940137 -0.012880456 0.0019745587 -0.00022485227 -0.022407547 -0.012323079 -0.16435143 -0.009191955
-0.03969683 -0.09259333 -0.015852164 -0.008587623 0.0014922646 -0.05454248 -0.2295626 -0.007134275
-0.04064127 -0.0016594282 -0.017591532 0.009309567 -0.33632192 0.020369861 -0.1335771 -0.0006047562
-0.014453524 -0.14579533 -0.084468625 -0.0120832585 -0.0066332533 -0.036668368 0.011843995 -0.17599471
-0.021857334 -0.049170673 -0.094019644 -0.00470758 -0.015762407 -0.043116838 0.00019262049 -0.1239847
0.008427882 0.004187495 -0.06470099 -0.055102523 0.017026432 0.03787816 -0.18036954 -0.010371474
00000000: 8458 18be f4fa 133b e56f 04be 6202 c5bc
00000010: 50f5 1c3c 33a4 ccbe d471 2cbe 04c5 63bc
00000020: 8cb9 8b3b 58cc 183c 7336 90ba 0d61 87bd
00000030: 5336 f23b 8199 9cbd 9b66 973a c9fe efbd
00000040: ca19 1ebb 313a 3ebc 2e6a 883b 0c39 d8bd
00000050: 7d92 b7bc cb91 45bb b3c7 87bd ef23 f2bd
00000060: 97be 05bd f41a ccbc 41d4 39bc 4193 493c
00000070: 5324 ccbd a0d5 9a3c c1c6 adbd 5a6a 313d
00000080: a54c ffbb aa56 433c d5e9 50be ec7d 2dbd
00000090: 36f4 c5bb a411 c0bc 772e 25be 351c 12bd
000000a0: dbe8 a53c f602 81bc 0817 d7bc 2bb0 55be
000000b0: 70a5 95bd b323 32be f7bf 17bd 14cd 5abd
000000c0: de95 77bd 9310 303c 250f 74be 0dd6 8abc
000000d0: 4bf3 03bd 4404 243c 048a fc3b c361 4eb8
000000e0: 4e55 f9bc 62b3 00bd e4d3 46bd 7052 dc3c
000000f0: 4f21 0fbe 6020 30be a978 453c 456e 1dbd
00000100: a6cd de3b 279e 9fbd 7a4c 0cbd b17c f1bb
00000110: 8544 41be df71 4a3c 1622 cb3c 343a 50bd
00000120: 0e4c 8eb9 9000 f4bd 4930 f33c b7aa a4bd
00000130: 578b b13b 10bd 2bbd ec44 123a 4645 583a
00000140: 321c 1abd 17b0 97bd f6b1 043c da1e 39bd
00000150: c1fd c3bd 29d1 ecbc 96c6 cdba a0ff 07be
00000160: 96b6 a13b 8d91 36bd ff87 50be 3e19 22be
00000170: 708c 52bd b878 eebd 3fa5 f83c 7707 59ba
00000180: ae5e da3b 0cc4 c43c 94ab 18bd bf19 8bbe
00000190: 6052 1b3c 69e3 40bd 1c22 e1b9 7f54 f6bd
000001a0: 719d 18b9 9625 d5bd dc52 f4bd 9a1a 49be
000001b0: a8e1 49be cdfc 9ebc b6c4 033c 11f0 3ebe
000001c0: 1d95 a63c 291f a5bc d856 25bd 19a5 1dbe
000001d0: 0482 913a 1190 27bd bfb4 2cbd bcad 47be
000001e0: 557c 0cbd 30d1 dbbd 5f2a e5bd 2176 d7bd
000001f0: 5672 64bd 7d22 cbbc 30df d4bd fbc8 ca3c
00000200: 62dc 283c da38 b1bd 60e7 85bd 966b 46bd
00000210: c95b 52be c210 6dbd 439f 1d3c 3549 e9bd
00000220: 87cc 1f3b 8522 d0bc 43e6 86bd 588a efbc
00000230: 787b 90bc 3f09 3bbb b5f5 82b9 c04d 77bd
00000240: 76f6 37be c9be 65bd 0cb3 8f3c 67cb 943c
00000250: d4e2 8e3b 7184 ec3c a9ef efbb 65f0 96bd
00000260: 843c 4fbd 3f8a 1dbd 3808 0ebe 78b8 9abc
00000270: 57c8 b03c 2e3e 26be 504c 2d3c 8454 79bb
00000280: 2b52 38bc 8144 e2bd d279 c9bd 7a37 5c3c
00000290: 386d 8ebd 2de2 77ba 7b8d 7ebd bf71 dfbc
000002a0: b68a 31bc e82f 59be 93be 6dbe af72 e2bd
000002b0: 7e58 2bbe 5e17 eebd 6b43 40be b42a 64bd
000002c0: 2dc4 bbbc 4788 95bd 31cd 81bd 3958 21be
000002d0: ccfc bdbd 2086 76bb bdc4 90bc f777 3ebe
000002e0: d92b 27be c20d 853b 73e5 d7bd fba9 eabc
000002f0: 7604 2abc cdb6 6dbd ccf7 b03c 658e 53bc
00000300: 7f91 f93a faf4 0abc a2e0 c6b9 5178 27be
00000310: 5ede 3fbe 6676 11be 1f69 82bd 55a1 b9bd
00000320: 4692 85bc ed75 1f3c 0928 a83c 7b0d 1fbb
00000330: d0eb 35be df17 5dbe 75cc 8f3b 47f2 d9bd
00000340: a779 123c 8c08 53bc 9967 013b 52c6 6bb9
00000350: 0890 b7bc bde6 49bc be4b 28be db99 16bc
00000360: 2599 22bd 92a1 bdbd 66dc 81bc 1ab3 0cbc
00000370: 1798 c33a ef67 5fbd 7512 6bbe a3c6 e9bb
00000380: 7677 26bd 2c81 d9ba 1e1c 90bc 2787 183c
00000390: 6332 acbe b2de a63c 6fc8 08be 8088 1eba
000003a0: 79ce 6cbc 5f4b 15be e3fd acbd dcf8 45bc
000003b0: c35b d9bb 9231 16bd 510d 423c f537 34be
000003c0: 270e b3bc 3067 49bd 5f8d c0bd 0b42 9abb
000003d0: 2a20 81bc 489b 30bd 2bfa 4939 b1eb fdbd
000003e0: 1915 0a3c 4137 893b f481 84bd 2fb3 61bd
000003f0: 047b 8b3c 2126 1b3d cbb2 38be 1ded 29bc

network_body._body_endoder.seq_layers.2.weight f4 [256, 256]
-0.055274855 0.0027937805 -0.15943637 -0.05942493 -0.00922991 -0.10824896 -0.07390096 -0.035567585
-0.12638086 -0.08289766 -0.0010335722 0.015282441 -0.0066036656 -0.10624823 -0.20517196 0.20387374
-0.38282993 -0.036782287 -0.0251592 0.04036147 -0.12373297 -0.031428408 -0.09659119 -0.0055532944
0.106087156 -0.0556922 -0.012864438 -0.18126129 -0.037271395 -0.11606198 -0.032529365 -0.0022924982
-0.19813049 -0.10750342 -0.2447561 -0.09093629 -0.04491898 -0.20485877 -0.16137071 0.09783608
0.007862156 -0.07766764 -0.15628707 -0.02946667 -0.06802328 0.05701169 0.0041481145 -0.031241093
0.09031748 -0.08117504 0.01684896 -0.06097624 -0.16306314 -0.090340905 -0.13330603 0.003581421
-0.053833958 0.032507148 0.006614185 -0.1357128 0.013194717 0.15063924 -0.053030975 0.024168702
-0.07851271 -0.08706763 -0.03491265 -0.0015905416 0.0110447025 -0.11031878 0.05518466 -0.026800606
-0.08134536 -0.16542722 0.011421077 -0.048092864 -0.07147672 0.1452279 -0.012799881 0.07211133
-0.040476866 -0.06827765 0.012315833 0.068248875 0.06632978 -0.04578769 -0.10372582 -0.052840024
-0.12853763 0.057674117 0.064990714 -0.17184024 -0.20298722 -0.13664526 -0.0589905 0.06541063
0.040827688 -0.011389392 0.06531787 0.0044555934 -0.020181647 -0.1507252 -0.12300161 -0.047081508
-0.08237672 0.059087362 -0.08976711 0.0107230125 -0.11631013 -0.14489445 -0.036365416 -0.0055891415
-0.1269778 -0.2507847 0.0017094043 -0.16256754 -0.18446295 0.05379515 -0.250393 0.07767598
0.033347223 0.05983219 0.07110165 -0.11122371 -0.055984627 0.122432195 -0.09738306 0.008797265
0.022498418 -0.12652445 -0.04224763 -0.11684487 0.17385097 -0.16325788 -0.11102156 -0.24539694
-0.093740255 -0.012515426 -0.14179069 -0.14895238 -0.035055023 -0.05852156 -0.13504782 -0.03388596
-0.16407903 0.025123298 -0.050068695 -0.0021763204 0.0064713317 0.07609125 -0.15207104 -0.19462986
-0.012032743 -0.07084377 -0.082598336 -0.16502374 0.061471615 -0.12285131 0.061774008 -0.060311247
0.12511979 -0.00014628688 0.0614945 -0.1031985 0.052183248 -0.29596004 -0.21095198 -0.088801645
-0.11309917 -0.13650799 0.05188262 -0.06442292 -0.01569224 -0.074057266 0.007846935 0.0031261938
-0.00575383 -0.046201628 -0.22828467 -0.13809687 -0.15207058 -0.07194636 -0.1720806 -0.06516648
-0.050072595 -0.10226105 -0.02441755 0.004745133 -0.14027014 0.11017469 0.016953578 -0.14031358
0.04756206 -0.058702864 -0.09130173 -0.015221293 0.04773728 0.024997618 0.049597263 -0.13194825
0.08018871 -0.008323142 -0.035545237 0.02282261 -0.111652054 -0.008793266 -0.13815741 0.03047051
-0.060608607 -0.033871066 -0.09678582 -0.10124385 -0.0040999455 -0.17538226 -0.18111423 -0.02699826
0.07291343 -0.010253157 -0.13369283 -0.0627867 -0.25105795 -0.18332963 -0.12240595 -0.12463172
-0.02751057 -0.25274757 -0.1669949 -0.06092565 0.02973193 -0.077806406 0.10036355 0.02708661
0.055457406 0.11093908 -0.1596575 -0.073641285 -0.014857524 -0.10767595 -0.2247147 -0.20566641
-0.054365844 -0.17562754 -0.061683886 -0.09090132 0.08133117 -0.10538388 0.0122292675 -0.087451525
-0.09983409 0.087295555 -0.1495221 -0.09932691 0.014444605 -0.017808853 0.045433003 -0.010324289
00000000: e367 62bd dc17 373b 4a43 23be 8e67 73bd
00000010: 0c39 17bc a1b1 ddbd 6359 97bd 51af 11bd
00000020: fc69 01be 40c6 a9bd ee78 87ba 3463 7a3c
00000030: 9063 d8bb ac98 d9bd 9918 52be 47c4 503e
00000040: 4902 c4be 06a9 16bd ab1a cebc 1252 253d
00000050: b667 fdbd 13bb 00bd 9ad1 c5bd 69f8 b5bb
00000060: 3944 d93d 811d 64bd 5dc5 52bc 8f9c 39be
00000070: e4a9 18bd e7b1 edbd 833d 05bd bd3d 16bb
00000080: b8e2 4abe c12a dcbd 58a1 7abe ce3c babd
00000090: f7fc 37bd 7fc6 51be 5d3e 25be 485e c83d
000000a0: 46d0 003c 3610 9fbd b809 20be 1664 f1bc
000000b0: ca4f 8bbd 1785 693d e8ec 873b 52ed ffbc
000000c0: 5ff8 b83d 193f a6bd d506 8a3c 39c2 79bd
000000d0: 06fa 26be a704 b9bd 6081 08be 46b6 6a3b
000000e0: ff80 5cbd 3726 053d cebb d83b 4cf8 0abe
000000f0: a72e 583c 2c41 1a3e 0237 59bd 71fd c53c
00000100: 46cb a0bd 8350 b2bd 9100 0fbd b879 d0ba
00000110: d7f4 343c d0ee e1bd 4f09 623d f28c dbbc
00000120: 6598 a6bd c165 29be 781f 3b3c 06fd 44bd
00000130: 6362 92bd 9fb6 143e 98b6 51bc 1baf 933d
00000140: 12cb 25bd 27d5 8bbd 59c8 493c 11c6 8b3d
00000150: e8d7 873d df8b 3bbd 346e d4bd c86e 58bd
00000160: 5e9f 03be b23b 6c3d da19 853d e3f6 2fbe
00000170: e2db 4fbe bcec 0bbe 06a0 71bd 02f6 853d
00000180: ef3a 273d 939a 3abc 60c5 853d 3a00 923b
00000190: fb53 a5bc b557 1abe 45e8 fbbd 8ad8 40bd
000001a0: 20b5 a8bd 9705 723d d2d7 b7bd 93af 2f3c
000001b0: 0134 eebd 365f 14be e7f3 14bd 1e25 b7bb
000001c0: 7806 02be da66 80be 170e e03a 1b78 26be
000001d0: dbe3 3cbe 4e58 5c3d 8333 80be 9614 9f3d
000001e0: 1997 083d 9912 753d be9d 913d 42c9 e3bd
000001f0: 2350 65bd bbbd fa3d c570 c7bd 6722 103c
00000200: 9a4e b83c a08f 01be da0b 2dbd 5d4c efbd
00000210: fd05 323e 132d 27be 465f e3bd 5649 7bbe
00000220: e4fa bfbd 800d 4dbc 9431 11be f986 18be
00000230: db95 0fbd 4eb4 6fbd fa49 0abe 01cc 0abd
00000240: 5504 28be 60cf cd3c d514 4dbd 99a0 0ebb
00000250: 770d d43b bbd5 9b3d 83b8 1bbe 0d4d 47be
00000260: fb24 45bc 8a16 91bd 5129 a9bd fcfb 28be
00000270: a9c9 7b3d 7899 fbbd be06 7d3d ed08 77bd
00000280: 671f 003e 9664 19b9 a8e1 7b3d bc59 d3bd
00000290: 1abe 553d 1388 97be cc03 58be a3dd b5bd
000002a0: 8aa0 e7bd c0c8 0bbe df82 543d 2af0 83bd
000002b0: 038d 80bc 56ab 97bd 6e90 003c d4e0 4c3b
000002c0: a08a bcbb eb3d 3dbd 75c3 69be 4469 0dbe
000002d0: 64b8 1bbe 9d58 93bd e635 30be 0176 85bd
000002e0: ec18 4dbd 3e6e d1bd 5007 c8bc 107d 9b3b
000002f0: faa2 0fbe 45a3 e13d 3be2 8a3c 5dae 0fbe
00000300: 6fd0 423d 6a72 70bd 67fc babd bb62 79bc
00000310: 2b88 433d cec7 cc3c 8026 4b3d 711d 07be
00000320: fa39 a43d ca5d 08bc e297 11bd 7bf6 ba3c
00000330: d5a9 e4bd a111 10bc 2379 0dbe 4a9d f93c
00000340: bb40 78bd 63bc 0abd a537 c6bd f058 cfbd
00000350: d658 86bb 6897 33be 0276 39be 742b ddbc
00000360: a353 953d dbfc 27bc c6e6 08be 5096 80bd
00000370: ab8a 80be c3ba 3bbe f9af fabd ea3e ffbd
00000380: d95d e1bc 2168 81be b600 2bbe 2d8d 79bd
00000390: 6090 f33c f758 9fbd 688b cd3d bde4 dd3c
000003a0: 4e27 633d 0734 e33d 417d 23be 3ed1 96bd
000003b0: f96c 73bc 3585 dcbd 9c1b 66be 379a 52be
000003c0: b8ae 5ebd b5d7 33be 3ea8 7cbd 792a babd
000003d0: f590 a63d 81d3 d7bd 445d 483c c919 b3bd
000003e0: d175 ccbd 03c8 b23d 521c 19be e86b cbbd
000003f0: 11a9 6c3c dfe3 91bc f517 3a3d 3527 29bc

network_body.observation_encoder.processors.0.normalizer.running_mean f4 [28]
0.053853102 0.94614613 0.0 0.040837053 0.13761353 0.8623871 0.0 0.045176733
0.26298162 0.73704004 0.0 0.044603053 0.56904584 0.43095642 0.0 0.053238045
0.7314407 0.26855797 0.0 0.04952029 0.7202 0.27956367 0.0 0.057861146
0.850399 0.14948528 0.0 0.04960639
00000000: 1295 5c3d a236 723f 0000 0000 c144 273d
00000010: 90ea 0c3e 67c5 5c3f 0000 0000 3d0b 393d
00000020: 87a5 863e a8ae 3c3f 0000 0000 b1b1 363d
00000030: fdac 113f 52a6 dc3e 0000 0000 2310 5a3d
00000040: b33f 3b3f 6e80 893e 0000 0000 cad5 4a3d
00000050: 075f 383f f822 8f3e 0000 0000 cfff 6c3d
00000060: c0b3 593f ab12 193e 0000 0000 1230 4b3d

network_body.observation_encoder.processors.1.normalizer.running_mean f4 [3]
0.43962452 8.226859 4.3360167
00000000: 7716 e13e 37a1 0341 a6c0 8a40
