results/EntrenamientoPrueba3/AgenteCoche/AgenteCoche-556771.onnx (onnx, 300006 bytes, 7 tensors)

action_model._continuous_distribution.log_sigma f4 [1, 2]
-0.0101535125 -0.06266502
00000000: eb5a 26bc 8556 80bd

action_model._continuous_distribution.mu.bias f4 [2]
0.025161067 -0.022468919
00000000: 951e ce3c bd10 b8bc

action_model._continuous_distribution.mu.weight f4 [2, 256]
-0.0013299711 -0.0065328106 -0.00096869393 -0.0007878726 -0.027747985 -0.002262392 -0.0013153332 -0.005300025
0.0028149507 -0.0039517903 -0.017505253 -0.00062678894 0.0008216553 -0.007994769 -0.001160445 0.0005275679
-0.008791619 0.003053916 0.011321746 -0.004298039 -0.036999162 0.0003474632 0.0031846187 -0.0013845817
0.005109466 -0.013173551 -0.0007815726 -0.005228791 0.0020257493 0.004970882 0.0005099057 -0.0014381364
-0.0037039164 -0.02704207 0.008315876 -0.009643506 -0.027137728 -0.00081408623 -0.0038290287 0.00027000863
-0.007000012 -0.00021053234 -0.010325883 -0.01408632 -0.017131757 0.0016822276 -0.0032660256 -0.022118827
0.0020771953 0.0007203498 -0.001492189 -0.0040242146 0.012859133 -1.4493364e-05 -0.0054882118 0.00653169
-0.022657026 -0.0012777887 -0.042026117 -0.027925275 0.00042743125 -0.0003988658 -0.013450066 -0.041076936
0.034391776 0.003598464 -0.025763618 0.01839445 0.009884342 -0.014177198 -0.0016601487 -0.003286295
-0.00019926448 -0.031108268 -7.665336e-05 0.0063438867 0.018379835 0.00092419796 0.0016886104 -0.01048496
-0.034273468 -0.00028983195 -0.0041541886 0.0014465943 -0.0009756191 -0.00909434 -0.044709638 -0.03165686
0.0016480547 -0.040295616 0.0008874719 -0.0028369988 -0.003571971 0.0076736473 -0.02036338 0.004812335
-0.0050643072 0.015142684 -0.026232745 -0.01934306 0.0018686635 0.00050988916 0.00918135 -0.0007120549
0.0014192299 0.00029167364 0.0015443217 -0.014286659 0.0020332965 -6.8690046e-05 0.0022817329 0.0044126096
0.0020798298 0.01032251 0.0020544636 -0.0038282082 0.011088429 -0.00034898298 -0.01942144 0.0027287807
0.0052229576 -3.9000413e-05 0.0028949177 -0.026570063 -0.013418202 -0.019600281 -0.0049259956 -0.011651788
0.011162513 0.0026080932 -0.035777356 0.003971818 -0.013616119 -0.0074530737 -0.012435166 0.00012451052
-0.0005991696 0.0054073115 0.008277991 -0.008639137 0.0025200192 0.0008209838 -0.008657313 -0.004048213
0.00061321014 -0.00096699834 -0.023943292 0.008325349 -0.003144372 0.0018888238 0.009029779 0.0058906903
-0.0015478983 -0.0059030605 -0.005788703 0.0028088947 -0.01693724 0.010135167 0.0006602343 -0.0014234415
0.0069848956 -0.0130144665 -0.040202323 -0.012125195 -0.0020958367 -0.0045264396 -0.010298507 0.0021932248
-0.00082147133 -0.005108039 0.00042616788 0.0045906003 0.0028921291 -0.003664721 0.0014274742 0.0030214011
0.0059736087 0.008239284 -0.0020173823 0.005122147 0.010080971 -0.0019452533 -0.0020222538 -0.018921368
0.0025452923 -0.020619906 0.018820673 -0.001093455 -0.008736661 -0.015834201 0.0004888136 0.0041565257
-0.024433501 0.0018686214 0.0017785945 -0.0018981076 0.00026602345 -0.0008319642 -0.0032427334 -0.006489812
-0.011124047 0.0044243643 0.0013001718 -0.0021657667 -0.025846703 -0.0039698146 -0.014034691 -0.0046496703
0.0062742466 0.00056602445 0.00063825236 -0.00054362766 -0.006140127 -0.054626115 0.0009771258 9.947049e-05
0.0008833186 0.024153886 0.0003308499 -0.001071636 0.0044040256 -0.012489356 0.0051645525 0.00024348851
0.0014357881 0.00018952266 0.0018211084 0.0003662696 -0.00011931958 -0.001122529 -0.013045472 -0.0021869112
0.0016954032 0.0152935665 0.003167875 -0.0022292382 -0.009671259 -0.028433312 -0.013116921 -0.0030948769
-0.0023510596 -0.01967648 -0.00011532866 0.0016297643 -0.007733714 -0.007588275 -0.0026278694 0.009652005
0.0015885837 -0.016639734 -0.00048619462 0.0042665885 -0.008361748 0.004848139 0.00028878744 0.024614038
00000000: 6d52 aeba 3011 d6bb f3ef 7dba 3c89 4eba
00000010: be4f e3bc a444 14bb 4267 acba d5ab adbb
00000020: 097b 383b 057e 81bb 2d67 8fbc 184f 24ba
00000030: 5b64 573a 7efc 02bc 131a 98ba 7c4c 0a3a
00000040: b90a 10bc 3524 483b d87e 393c 90d6 8cbb
00000050: 6f8c 17bd b92b b639 09b5 503b da7a b5ba
00000060: 4f6d a73b e1d5 57bc 73e2 4cba 4756 abbb
00000070: 6fc2 043b c8e2 a23b 31ab 053a da7f bcba
00000080: 68bd 72bb 5587 ddbc 503f 083c ccff 1dbc
00000090: f14f debc 6768 55ba 71f0 7abb f28f 8d39
000000a0: 5b60 e5bb 58c2 5cb9 e42d 29bc 4fca 66bc
000000b0: e657 8cbc 317e dc3a d10a 56bb 8b32 b5bc
000000c0: 8e21 083b dbd5 3c3a 8e95 c3ba 8fdd 83bb
000000d0: 1daf 523c 8628 73b7 75d6 b3bb c907 d63b
000000e0: 3a9b b9bc 797b a7ba 9423 2cbd 8cc3 e4bc
000000f0: da18 e039 dd1e d1b9 aa5d 5cbc 4a40 28bd
00000100: 64de 0c3d 35d4 6b3b 390e d3bc f5af 963c
00000110: eff1 213c 7a47 68bc 5999 d9ba e25e 57bb
00000120: a7f1 50b9 c4d6 febc f6c0 a0b8 61e0 cf3b
00000130: 4f91 963c e045 723a 5d54 dd3a 1cc9 2bbc
00000140: 5662 0cbd 96f4 97b9 dc1f 88bb a69b bd3a
00000150: b1c0 7fba 6d00 15bc 7421 37bd a0aa 01bd
00000160: 8a03 d83a 040d 25bd 3ba5 683a f1ec 39bb
00000170: bb17 6abb 3873 fb3b 1ad1 a6bc cbb0 9d3b
00000180: 7df2 a5bb 0519 783c 0ee6 d6bc 5675 9ebc
00000190: f1ed f43a 15aa 053a 5f6d 163c 32a9 3aba
000001a0: 7405 ba3a c6eb 9839 d66a ca3a 9712 6abc
000001b0: 0e41 053b b00d 90b8 2089 153b a797 903b
000001c0: c14d 083b bf1f 293c 2ea4 063b ade2 7abb
000001d0: 3eac 353c b4f7 b6b9 b619 9fbc 58d5 323b
000001e0: 5825 ab3b 6094 23b8 a9b8 3d3b 76a9 d9bc
000001f0: 05d8 5bbc c590 a0bc 3f6a a1bb 24e7 3ebc
00000200: f9e2 363c 8bec 2a3b 478b 12bd 0626 823b
00000210: 2416 5fbc ea38 f4bb debc 4bbc 0a8f 0239
00000220: 9711 1dba d12f b13b 69a0 073c 2b8b 0dbc
00000230: e826 253b 4a37 573a 67d7 0dbc dfa6 84bb
00000240: d6bf 203a 297e 7dba b924 c4bc 0b67 083c
00000250: cf11 4ebb 6992 f73a a3f1 133c b106 c13b
00000260: d9e2 caba 766e c1bb 29af bdbb 6f15 383b
00000270: f7bf 8abc f90d 263c 9313 2d3a c592 baba
00000280: 8de1 e43b a13a 55bc 31ab 24bd c1a8 46bc
00000290: 4e5a 09bb 8752 94bb 12bb 28bc 35bc 0f3b
000002a0: 0258 57ba 5661 a7bb 496f df39 bf6c 963b
000002b0: e089 3d3b d12b 70bb 161a bb3a b302 463b
000002c0: 43be c33b 10fe 063c 0f36 04bb afd7 a73b
000002d0: a82a 253c dff7 feba ca87 04bb fc00 9bbc
000002e0: ebce 263b 14eb a8bc d02d 9a3c 4352 8fba
000002f0: 3624 0fbc bab6 81bc ba23 003a 7733 883b
00000300: c428 c8bc 88ec f43a ba1f e93a ecc9 f8ba
00000310: 1079 8b39 2c18 5aba 0a84 54bb 7da8 d4bb
00000320: a341 36bc 42fa 903b 876a aa3a 89ef 0dbb
00000330: 77bc d3bc 3815 82bb c3f1 65bc 435c 98bb
00000340: 3298 cd3b 4261 143a 6450 273a 3c82 0eba
00000350: 1e33 c9bb a2bf 5fbd e712 803a d09a d038
00000360: 828e 673a 5fde c53c ec75 ad39 2376 8cba
00000370: a54f 903b 28a0 4cbc 683b a93b f350 7f39
00000380: 0e31 bc3a 9aba 4639 42b2 ee3a e007 c039
00000390: 363b fab8 d321 93ba adbc 55bc 4852 0fbb
000003a0: 4b38 de3a de91 7a3c 209c 4f3b 6918 12bb
000003b0: 3374 1ebc faec e8bc 5be8 56bc 6bd3 4abb
000003c0: 3c14 1abb 9230 a1bc 9adc f1b8 d19d d53a
000003d0: 186b fdbb 10a7 f8bb 5538 2cbb 7123 1e3c
000003e0: 0638 d03a 0d50 88bc f0e7 feb9 bdce 8b3b
000003f0: b7ff 08bc 23dd 9e3b 6568 9739 61a3 c93c

network_body._body_endoder.seq_layers.0.bias f4 [256]
-0.02107437 0.013442881 -0.004648961 -0.022047572 0.02073308 -0.029251983 0.018224569 -0.038716346
0.03265805 -0.013547408 0.0015090981 0.016436005 -0.014115839 0.018384865 -0.012316619 0.0073459623
0.034055926 0.005120074 0.009106705 -0.008708969 0.009778564 0.004584541 -0.03028994 -0.02373289
0.025360066 -0.0011610549 0.011637605 0.0282266 -0.006956059 0.0052634724 -0.001891988 -0.024983956
0.035442468 -0.0045083514 -0.00063392136 0.0066250623 0.0002484598 0.026415654 -0.013462978 -0.03839823
0.0015351716 -0.011911782 -0.001061219 -0.0052144034 0.0003528669 0.0141336415 0.0024790238 0.017067794
0.012049891 0.000103059254 0.017940653 -0.041983057 -0.04058509 0.0063553522 -0.040907502 -0.02566635
0.0085844565 -0.020927463 -0.042784996 0.033687804 -0.038743474 -0.054642297 -0.012948606 -0.026025793
-0.029659217 -0.015892988 -0.029399246 -0.036742926 -0.02656421 -0.029331507 -0.035235707 -0.016284188
-0.032811992 -0.011428754 0.0023628217 -0.052901547 -0.015358058 -0.011649127 -0.022288498 0.0060761427
0.016377334 -0.028888913 0.012668617 0.030856112 -0.031663753 0.0034216905 -0.052437894 0.03333452
-0.008568871 0.0125410585 0.014199535 -0.025251072 0.020750305 -0.009187249 0.016093124 0.003977528
0.003447269 -0.010574027 -0.0035508748 0.010821728 -0.014618789 -0.045109365 0.008240164 0.009671441
0.0111763505 -0.008713073 0.04284424 -0.0065258057 -0.02203524 0.030441971 -0.021088451 -0.024930885
-0.008756875 -0.020324929 -0.026674481 -0.027117701 0.007551813 0.031530134 -0.026742067 -0.010963717
-0.023628002 0.009344293 0.01488577 0.00047402416 -0.018411392 0.038313113 -0.011860598 0.015886705
0.010868231 -0.009678019 -0.0037591166 0.022198342 -0.009822652 0.009844242 0.02150597 -0.020695709
-0.017662216 0.020411503 0.011513128 -0.048046198 -0.054125167 -0.011919668 -0.013328086 -0.03645906
-0.044069454 0.019486694 0.016529446 -0.007913765 -0.00093865255 0.035886128 0.04054702 -0.027589142
-0.041545175 0.02031573 -0.00655438 0.0031349729 0.0008792115 0.02068452 -0.023061236 -0.030302744
-0.04401388 -0.039351594 -0.031092957 -0.0143450145 0.004142491 0.018891457 0.003639001 -0.026184916
0.0100867 0.006108659 -0.021227628 -0.026885873 0.030353978 -0.025580145 0.011500257 -0.0057079997
0.021812908 0.009433378 0.032745562 -0.024089608 -0.0002839227 -0.021782257 -0.009891034 0.032870017
-0.00462247 0.015070045 -0.013194221 -0.026469093 0.010964942 -0.014347633 -0.028231004 -0.01417176
-0.01613433 0.0008064903 -0.00766257 0.031146549 0.015257651 -0.025906947 0.017383039 0.0062725935
-0.02077439 0.010749577 -0.01815051 0.013903359 0.0124339955 0.020623082 -0.016700534 -0.018352218
-0.02024784 0.009905075 -0.009939117 -0.00049356476 -0.001879241 -0.04364148 0.008254101 0.01125715
0.008354397 0.013891146 0.008453368 1.6760365e-05 -0.0135093685 -0.0050547724 -0.006425715 -0.04221314
-0.029887037 0.01844262 -6.974157e-05 -0.016746083 -0.042480543 -0.034649823 0.01656489 0.004102114
-0.0076874048 -0.027148925 -0.027532162 0.00981485 0.016398072 -0.00568723 0.0155638065 -0.00062630547
-0.02762798 -0.010393676 0.046964806 0.028404463 -0.011281967 -0.011414915 0.001195058 0.019535357
0.028823646 0.025578525 0.032197177 -0.0016626217 -0.002004709 -0.0032972477 0.008485432 0.0010313842
00000000: 28a4 acbc 883f 5c3c 5056 98bb 1c9d b4bc
00000010: 6cd8 a93c dba1 efbc b14b 953c 0895 1ebd
00000020: 73c4 053d f3f5 5dbc eecc c53a cda4 863c
00000030: 1f46 67bc db9b 963c a5cb 49bc 66b6 f03b
00000040: 3a7e 0b3d 4bc6 a73b 4a34 153c 10b0 0ebc
00000050: 4536 203c eb39 963b 9c22 f8bc 7a6b c2bc
00000060: eabf cf3c 8a2e 98ba a7ab 3e3c 783b e73c
00000070: a7ef e3bb 3579 ac3b 95fc f7ba 27ab ccbc
00000080: 1f2c 113d cbba 93bb be2d 26ba 0d17 d93b
00000090: b643 8239 a465 d83c d393 5cbc 7647 1dbd
000000a0: d037 c93a a329 43bc 9a18 8bba 96dd aabb
000000b0: fe00 b939 ca90 673c 1e77 223b c2d1 8b3c
000000c0: e86c 453c 8421 d838 47f8 923c 6df6 2bbd
000000d0: 8d3c 26bd 8f40 d03b a08e 27bd 3d42 d2bc
000000e0: d2a5 0c3c 1270 abbc 523f 2fbd 39fc 093d
000000f0: 7ab1 1ebd 9ad0 5fbd 6426 54bc 0b34 d5bc
00000100: e3f7 f2bc 0332 82bc b0d6 f0bc c07f 16bd
00000110: 309d d9bc a148 f0bc 5153 10bd 6b66 85bc
00000120: de65 06bd ab3f 3bbc 92d9 1a3b 4baf 58bd
00000130: 5da0 7bbc fbdb 3ebc 5e96 b6bc 611a c73b
00000140: c229 863c 71a8 ecbc 0890 4f3c f5c5 fc3c
00000150: dab1 01bd 713e 603b 1ec9 56bd c789 083d
00000160: 7364 0cbc 0379 4d3c 2ba5 683c 56db cebc
00000170: 8bfc a93c 1d86 16bc bad5 833c ec55 823b
00000180: 94eb 613b af3e 2dbc cbb5 68bb 9e4d 313c
00000190: a583 6fbc 99c4 38bd c101 073c f774 1e3c
000001a0: 031d 373c 47c1 0ebc 717d 2f3d 6dd6 d5bb
000001b0: 3f83 b4bc 7161 f93c b0c1 acbc db3b ccbc
000001c0: ff78 0fbc 7780 a6bc 7184 dabc f125 debc
000001d0: 3375 f73b be25 013d 2e12 dbbc 29a1 33bc
000001e0: 838f c1bc ce18 193c 72e3 733c 7286 f839
000001f0: 7dd3 96bc 36ee 1c3d f452 42bc d624 823c
00000200: aa10 323c 8e90 1ebc 835b 76bb 4cd9 b53c
00000210: 30ef 20bc be49 213c 4a2d b03c 0c8a a9bc
00000220: 5ab0 90bc 0636 a73c 8fa1 3c3c 17cc 44bd
00000230: 5ab2 5dbd b64a 43bc 0b5e 5abc 1856 15bd
00000240: 2c82 34bd 8fa2 9f3c c368 873c bca8 01bc
00000250: e80f 76ba 55fd 123d a214 263d a002 e2bc
00000260: 462b 2abd 2c6d a63c 20c6 d6bb 1e74 4d3b
00000270: e37a 663a 9572 a93c ebea bcbc 763d f8bc
00000280: e647 34bd 232f 21bd a8b6 febc 5a07 6bbc
00000290: bcbd 873b 42c2 9a3c 4e7c 6e3b c081 d6bc
000002a0: b042 253c 252b c83b 90e5 adbc c33f dcbc
000002b0: e8a8 f83c 748d d1bc 936b 3c3c 2c0a bbbb
000002c0: fcb0 b23c 758e 1a3c 3620 063d 9257 c5bc
000002d0: 76db 94b9 b470 b2bc 010e 22bc b6a2 063d
000002e0: 1778 97bb 5ae8 763c 932c 58bc b6d5 d8bc
000002f0: 4da6 333c 5612 6bbc b544 e7bc ab30 68bc
00000300: 242c 84bc a66a 533a 4c16 fbbb 0c27 ff3c
00000310: 3afb 793c ce3a d4bc e066 8e3c 548a cd3b
00000320: 0e2f aabc fe1e 303c 61b0 94bc eaca 633c
00000330: f5b7 4b3c bdf1 a83c 8fcf 88bc 6457 96bc
00000340: ccde a5bc e548 223c aed7 22bc 9262 01ba
00000350: dd50 f6ba 69c1 32bd 353c 073c e96f 383c
00000360: e1e0 083c b097 633c ff7f 0a3c 9c98 8c37
00000370: 6656 5dbc 81a2 a5bb ce8e d2bb afe7 2cbd
00000380: a9d5 f4bc fa14 973c 3842 92b8 152f 89bc
00000390: 1400 2ebd f9ec 0dbd 18b3 873c 076b 863b
000003a0: a0e6 fbbb 6c67 debc 218b e1bc 77ce 203c
000003b0: 4055 863c f15b babb 56ff 7e3c a62e 24ba
000003c0: 1354 e2bc 3d4a 2abc 2b5e 403d 7ab0 e83c
000003d0: 00d8 38bc a005 3bbc 7ea3 9c3a 9d08 a03c
000003e0: 911f ec3c 0e8a d13c 30e1 033d 54ec d9ba
000003f0: 7061 03bb a316 58bb 7b06 0b3c 832f 873a

network_body._body_endoder.seq_layers.0.weight f4 [256, 31]
-0.12153947 -0.024281077 0.008333224 -0.1888386 0.017205592 -0.03563224 -0.34840325 -0.2559458
-0.13161075 -0.020671984 -0.02401177 -0.00061360595 -0.029928064 -0.16156459 -0.20194237 -0.33671987
0.11033772 0.21092494 0.19063096 -0.15060024 0.20269836 -0.277857 0.06337973 -0.06585341
-0.09425648 -0.17730187 0.024029177 0.24992418 -0.061498005 0.0019843215 -0.027123526 0.1032567
-0.12914215 0.4368433 -0.0236624 -0.1331738 0.16519143 0.13068566 0.057002176 -0.43487853
0.15632676 -0.010549818 0.044438858 -0.02992671 0.11080787 -0.13347548 0.018362077 0.25542036
-0.029033432 0.34300867 0.01220335 -0.19813399 0.15456542 -0.052487735 0.0492415 0.14232089
-0.33775586 -0.40175134 -0.040743873 -0.08303551 -0.08709952 -0.13691 0.35593233 -0.022739515
0.05824684 -0.1137224 0.13993715 0.28803802 0.21096295 -0.0028364777 0.334589 -0.07942247
-0.38791862 -0.12532297 0.28999725 -0.027636737 0.19094278 -0.050594844 -0.3597733 -0.10757159
0.0006115308 0.24812235 0.11016921 -0.2504753 -0.12137792 0.018600237 -0.2215423 0.024416463
-0.06269522 0.21917517 -0.2621084 0.12929717 0.27094096 0.14773433 0.44772545 -0.28475624
0.19141841 0.13191368 0.31572047 -0.27624616 0.49853057 0.033217806 -0.053120326 -0.28261736
-0.13351405 0.020901537 0.1115205 0.064722665 -0.055536043 -0.04403168 -0.021957004 0.0097501315
-0.09045884 0.13416182 -0.055951186 -0.06095858 -0.06694785 -0.18161233 0.09220194 -0.17307083
-0.20747817 -0.26650715 0.46957645 0.38066366 -0.03489357 0.16358916 -0.13814859 0.01297257
0.21648139 0.107830435 -0.011900496 0.1546114 0.3046597 0.033434335 0.011493437 -0.061111297
-0.15462671 0.29839906 0.33118996 0.15164393 -0.2200822 -0.21829604 -0.2958027 0.11395064
-0.094604895 0.03395959 -0.009032378 0.20101196 -0.110641316 0.08376582 0.102738574 0.4961191
-0.0073183957 -0.098045 0.037918165 0.24338654 0.09414383 -0.242542 0.057159845 0.06907637
0.00025735254 -0.18164942 0.08649292 -0.036860824 -0.051886708 -0.17703553 0.004964331 0.30508393
0.11910296 0.24501021 0.16406487 -0.085124254 -0.18636635 0.3501147 0.20726065 -0.10429056
0.27595535 -0.3281899 -0.05401725 -0.08756301 0.20190087 0.09853259 -0.21722926 -0.10659711
-0.0005279357 -0.08773207 0.01867415 -0.02886645 -0.25405297 -0.08525955 0.14062297 -0.083225064
-0.11812341 0.18785675 -0.12757991 -0.050100036 -0.19069394 0.15184133 0.038566727 0.22502695
0.07583649 0.2643995 0.29442808 -0.13835011 0.013726536 -0.32710385 -0.14920811 0.39202332
0.3760027 0.10807281 0.06715867 0.09219961 -0.06938023 -0.07246064 0.0046046725 -0.07170807
-0.11054421 -0.0010722294 0.06686046 0.2125744 0.21372946 0.09665767 -0.18902619 -0.3823218
0.17260113 -0.536183 -0.004402755 -0.15592003 -0.010468798 -0.016932523 0.08304277 -0.23843509
0.08629066 -0.073251225 -0.011233187 0.10935388 -0.37842357 0.17040099 0.18519646 -0.064470425
0.10335515 0.034284554 0.041769333 0.27479833 -0.29013985 0.10096435 -0.26086968 -0.01193222
0.33882004 -0.16305916 -0.015470742 0.1658368 0.033807598 0.08426321 0.049291324 0.3293017
00000000: b0e9 f8bd 1ce9 c6bc 1388 083c e85e 41be
00000010: bef2 8c3c 1df3 11bd e961 b2be 540b 83be
00000020: f8c4 06be 4b58 a9bc 55b4 c4bc 66da 20ba
00000030: b32b f5bc 3071 25be fbc9 4ebe 8c66 acbe
00000040: bef8 e13d b5fc 573e c334 433e f336 1abe
00000050: 2990 4f3e 4643 8ebe 3bcd 813d 27de 86bd
00000060: 8b09 c1bd 9f8e 35be d6d8 c43c 20ec 7f3e
00000070: 55e5 7bbd 640b 023b 2832 debc 4078 d33d
00000080: d73d 04be eda9 df3e a6d7 c1bc b65e 08be
00000090: f127 293e 76d2 053e 1d7b 693d 66a8 debe
000000a0: 1f14 203e 25d9 2cbc 8505 363d dc28 f5bc
000000b0: 3def e23d ccad 08be 116c 963c 75c6 823e
000000c0: 85d7 edbc d59e af3e 8ff0 473c a3e3 4abe
000000d0: 6646 1e3e 61fd 56bd 75b1 493d 91bc 113e
000000e0: 56ee acbe 5ab2 cdbe 0ce3 26bd 850e aabd
000000f0: 3c61 b2bd 2332 0cbe c33c b63e 3848 babc
00000100: 3d94 6e3d 4ae7 e8bd af4b 0f3e b879 933e
00000110: ac06 583e 33e4 39bb 404f ab3e 3fa8 a2bd
00000120: 459d c6be aa54 00be 857a 943e 7066 e2bc
00000130: 8186 433e 8a3c 4fbd 3534 b8be 7e4e dcbd
00000140: 234f 203a c913 7e3e 65a0 e13d 4c3e 80be
00000150: fd94 f8bd 865f 983c fcdb 62be 0905 c83c
00000160: 5a66 80bd 756f 603e 1233 86be 7a66 043e
00000170: c6b8 8a3e ab47 173e 453c e53e 92cb 91be
00000180: 3003 443e 6114 073e 1da6 a13e 2370 8dbe
00000190: 663f ff3e 650f 083d b394 59bd 39b3 90be
000001a0: e8b7 08be b339 ab3c dc64 e43d 518d 843d
000001b0: c379 63bd 905a 34bd 2ddf b3bc 04bf 1f3c
000001c0: 7c42 b9bd b761 093e 122d 65bd b4af 79bd
000001d0: f41b 89bd 95f8 39be 5fd4 bc3d 7b39 31be
000001e0: 2875 54be a073 88be 536c f03e 59e6 c23e
000001f0: 8fec 0ebd eb83 273e d376 0dbe e78a 543c
00000200: 4cad 5d3e 34d6 dc3d 4cfa 42bc 7352 1e3e
00000210: 5bfc 9b3e 71f2 083d f84e 3c3c d74f 7abd
00000220: 7756 1ebe c3c7 983e bb91 a93e 8c48 1b3e
00000230: 3a5d 61be ff88 5fbe 7473 97be f45e e93d
00000240: 36c0 c1bd 3619 0b3d 8afc 13bc 14d6 4d3e
00000250: ea97 e2bd 6a8d ab3d 9a68 d23d 5303 fe3e
00000260: 27cf efbb d1cb c8bd 1450 1b3d 523a 793e
00000270: 7bce c03d ee5c 78be 7120 6a3d e977 8d3d
00000280: 46ed 8639 4e02 3abe 3323 b13d 60fb 16bd
00000290: 2887 54bd cd48 35be d4ab a23b f633 9c3e
000002a0: 41ec f33d f5e3 7a3e 9f00 283e a055 aebd
000002b0: d2d6 3ebe 3c42 b33e 233c 543e 4a96 d5bd
000002c0: 054a 8d3e 8208 a8be 3141 5dbd 3c54 b3bd
000002d0: 1abf 4e3e 74cb c93d 5971 5ebe 964f dabd
000002e0: 2a65 0aba dfac b3bd 88fa 983c 5579 ecbc
000002f0: 3b13 82be 8f9c aebd 78ff 0f3e e771 aabd
00000300: b0ea f1bd 855d 403e 4fa4 02be b235 4dbd
00000310: 4645 43be 4b7c 1b3e 25f8 1d3d 776d 663e
00000320: 2950 9b3d 5f5f 873e 47bf 963e a7ab 0dbe
00000330: 44e5 603c 287a a7be 03ca 18be 48b7 c83e
00000340: 6d83 c03e 4755 dd3d 7c8a 893d 26d3 bc3d
00000350: 3917 8ebd 3e66 94bd cbe2 963b aedb 92bd
00000360: 0165 e2bd 0c8a 8cba 23ee 883d 1aad 593e
00000370: e5db 5a3e 75f4 c53d 1590 41be afbf c3be
00000380: 5abe 303e 4a43 09bf fc44 90bb 80a9 1fbe
00000390: 5285 2bbc 13b6 8abc 5412 aa3d 5428 74be
000003a0: 28b9 b03d bd04 96bd 670b 38bc edf4 df3d
000003b0: bcc0 c1be 997d 2e3e 24a4 3d3e 1209 84bd
000003c0: ddab d33d f66d 0c3d 5216 2b3d 5eb2 8c3e
000003d0: 368d 94be 66c6 ce3d b690 85be 5c7f 43bc
000003e0: d279 ad3e fbf8 26be ff78 7dbc 1fd1 293e
000003f0: d679 0a3d 3192 ac3d b3e5 493d 3c9a a83e

network_body._body_endoder.seq_layers.2.bias f4 [256]
-0.0021240343 -0.010673874 0.0029047218 -0.003945746 -0.008231654 0.0014362271 -0.004663717 -0.033948045
0.0014849028 -0.013231798 -0.023783421 -0.002253918 0.00040557262 0.0009018224 0.008081007 -0.004660496
0.010020013 -0.0142324865 0.023241479 -0.0009887773 -0.009124197 -0.009070355 0.0018171615 -0.0016644928
0.0049149212 -0.008011878 -0.0032615843 -0.007024946 -0.0036340917 -0.011299951 -0.0018628339 0.0013914562
-0.00075996324 -0.015923487 0.009133632 -0.01769541 -0.031520065 -0.010511074 -0.008879242 0.0037728932
-0.0015289407 0.0058746804 -0.0007579421 -0.007961962 -0.01666526 0.005349517 -0.0014200528 -0.016627723
0.012378175 -0.0026420804 0.0037745263 -0.0030821753 0.02260378 0.0043463386 -0.00844811 -0.011298375
-0.006049866 -0.00024252842 -0.01895438 -0.011107175 -0.0018548233 0.00032097186 -0.019636916 -0.032100175
0.020073388 -0.007396191 -0.02158816 0.010065603 -0.011718504 0.0024718386 -0.0024481139 0.0023786793
-0.0074279327 -0.020175343 -0.008381657 0.0072411364 0.009402083 -0.0040054624 -0.0050218683 -0.012608739
-0.011314854 -0.005823489 0.004654464 -0.0019557432 -0.0041625076 -0.013147905 -0.02415888 -0.015228868
0.002025146 -0.04295289 0.0038825893 -0.006300074 -0.006922257 0.0072059967 -0.028674426 -0.0009175587
-0.0060131927 0.017724434 -0.014008179 -0.018368741 0.02390216 -0.0015021825 0.00097226945 0.00057174044
-0.009973814 -0.0061942576 0.0048016026 -0.016289337 0.00076859695 -0.0015970268 0.00163305 -0.00010929424
-0.005356547 -0.007985938 0.004841209 0.011902732 0.001040697 -0.00031030734 -0.024527503 0.0061807474
-0.009659842 0.0021112112 -0.0012788945 -0.009697928 -0.018516604 -0.028043333 -0.0095557915 -0.010379498
0.011835453 0.0028645813 -0.015150824 -0.020745333 -0.02407783 -0.004406244 -0.0139897205 -0.0030902186
0.0029004747 0.0073563685 0.00066697935 -0.017228447 -0.0018217029 -0.008084382 -0.007949816 -0.007871443
-0.010202681 0.0024813798 -0.019525241 -0.0012610239 -0.014887707 0.007303051 0.0027526598 0.005790791
-0.0028895754 -0.0013594099 -0.005828231 0.0016695379 -0.03168162 0.020322822 0.00035906406 -0.011785551
0.0012046421 -0.0006590342 -0.01914028 -0.015095679 -0.00964613 0.007512306 -0.004936841 0.0024747637
0.008107694 -0.013202706 -0.008800375 -0.0036611278 -0.0005243338 -0.008876396 0.009980377 -0.00015072443
0.0002231838 0.00024939296 -0.010333042 0.0036960903 0.0061101513 -0.014527852 -0.008679979 0.00494156
0.008870706 -0.018786615 0.014268416 0.0070505985 -0.0076333624 -0.0019677444 -0.00789791 -0.011842388
-0.009250955 -0.009502318 -0.0022523706 -0.0015042723 -0.00064491143 -0.005333603 -0.0019190005 -0.008507995
8.909986e-05 0.0038038956 -0.016194629 -0.010312747 -0.042921636 -0.0023010317 -0.02296288 0.0056370576
0.0024292918 -0.0055551045 0.011557184 0.011491889 -0.008016027 -0.040682677 -0.006943953 0.00434673
0.0071075936 0.0046593836 4.251657e-05 -0.01056945 -0.005257965 -0.024246864 0.0036684892 0.0011836976
-0.0069588125 0.0035628772 -0.008687468 -0.014976861 -0.0053409976 0.00047943808 -0.00022200661 0.0006640425
0.0041173855 0.007834043 -0.0038159306 0.008467183 -0.017668312 -0.026747737 -0.0032719045 -0.018987978
-0.01894045 -0.024752477 -0.010317986 0.002660056 -0.004088408 -0.013150818 -0.0029518919 0.00012359204
0.004411048 -0.017134635 -0.00014548186 0.00085987523 -0.00229123 0.0039030316 -0.0070245117 0.008557836
00000000: 6233 0bbb 79e1 2ebc 255d 3e3b 514b 81bb
00000010: 0fde 06bc c93f bc3a 18d2 98bb 1b0d 0bbd
00000020: 12a1 c23a 2fca 58bc 73d5 c2bc 78b6 13bb
00000030: 09a3 d439 4768 6c3a 3366 043c 13b7 98bb
00000040: fb2a 243c 602f 69bc ea64 be3c dc99 81ba
00000050: a87d 15bc d49b 14bc d22d ee3a 1c2b daba
00000060: 590d a13b 4044 03bc 4ec0 55bb 8531 e6bb
00000070: f129 6ebb 6e23 39bc 552a f4ba 8661 b63a
00000080: 4538 47ba f971 82bc 3ba5 153c f7f5 90bc
00000090: 2f1b 01bd a436 2cbc 3e7a 11bc a542 773b
000000a0: bd66 c8ba 6480 c03b a2b0 46ba e472 02bc
000000b0: 9585 88bc 004b af3b 1121 baba dd36 88bc
000000c0: d4cd 4a3c c126 2dbb 0b5e 773b 52fe 49bb
000000d0: 902b b93c bb6b 8e3b f169 0abc d21c 39bc
000000e0: f43d c6bb 3a4f 7eb9 3746 9bbc defa 35bc
000000f0: 8b1d f3ba 1d48 a839 99dd a0bc 797b 03bd
00000100: f270 a43c bf5b f2bb a7d9 b0bc 33ea 243c
00000110: f8fe 3fbc 92fe 213b 8970 20bb 9ee3 1b3b
00000120: 0466 f3bb c346 a5bc 3853 09bc 0e47 ed3b
00000130: 320b 1a3c 4140 83bb 7c8e a4bb e294 4ebc
00000140: f061 39bc f7d2 bebb 7984 983b ed2b 00bb
00000150: a565 88bb 4f6a 57bc d8e8 c5bc 8182 79bc
00000160: 50b8 043b 5fef 2fbd 0a73 7e3b da70 cebb
00000170: 1ad4 e2bb 4820 ec3b a1e6 eabc 5288 70ba
00000180: 510a c5bb d532 913c 9082 65bc 0b7a 96bc
00000190: 76ce c33c e1e4 c4ba e6df 7e3a dae0 153a
000001a0: 3569 23bc 33f9 cabb c356 9d3b 3771 85bc
000001b0: ab7b 493a 5453 d1ba 110c d63a e634 e5b8
000001c0: f985 afbb 74d7 02bc 01a3 9e3b ad03 433c
000001d0: ff67 883a bfb0 a2b9 e7ed c8bc de87 ca3b
000001e0: 5044 1ebc 3f5c 0a3b 94a0 a7ba 0fe4 1ebc
000001f0: 22b0 97bc 22bb e5bc e58f 1cbc c50e 2abc
00000200: 7de9 413c b3bb 3b3b 293b 78bc 1ef2 a9bc
00000210: df3e c5bc 4162 90bb 2435 65bc 4485 4abb
00000220: e415 3e3b b10d f13b 3ad8 2e3a ac22 8dbc
00000230: 35c6 eeba 5b74 04bc f23f 02bc 3af7 00bc
00000240: 2529 27bc a59e 223b 66f3 9fbc f148 a5ba
00000250: 92eb 73bc 6f4e ef3b f865 343b adc0 bd3b
00000260: 085f 3dbb 3a2e b2ba bffa bebb 65d4 da3a
00000270: 96c4 01bd 0c7c a63c c340 bc39 2f18 41bc
00000280: 15e5 9d3a 09c3 2cba 14cc 9cbc de53 77bc
00000290: cd0a 1ebc ca29 f63b 39c5 a1bb a52f 223b
000002a0: 22d6 043c 2a50 58bc 732f 10bc 88ef 6fbb
000002b0: 7273 09ba 4e6e 11bc bc84 233c c80b 1eb9
000002c0: 7206 6a39 f5c0 8239 eb4b 29bc 1b3a 723b
000002d0: aa37 c83b 3a06 6ebc 7836 0ebc cfec a13b
000002e0: 7056 113c 63e6 99bc 13c6 693c b508 e73b
000002f0: 4921 fabb 46f5 00bb 3c66 01bc 9306 42bc
00000300: 5191 17bc 9caf 1bbc 829c 13bb 012b c5ba
00000310: 460f 29ba 81c5 aebb f986 fbba 1e65 0bbc
00000320: 20db ba38 c74a 793b 99aa 84bc ccf6 28bc
00000330: 99ce 2fbd e8cc 16bb a61c bcbc 11b7 b83b
00000340: c134 1f3b 9807 b6bb 585a 3d3c 7a48 3c3c
00000350: a755 03bc e1a2 26bd 1a8a e3bb 046f 8e3b
00000360: d1e6 e83b bead 983b d253 3238 7d2b 2dbc
00000370: 024b acbb 5ca1 c6bc 096b 703b 4d26 9b3a
00000380: c006 e4bb 297f 693b e255 0ebc 8261 75bc
00000390: 8903 afbb 175d fb39 72ca 68b9 2313 2e3a
000003a0: 22eb 863b 5c5a 003c b114 7abb f1b9 0a3c
000003b0: 23bd 90bc 121e dbbc 736d 56bb ad8c 9bbc
000003c0: 0129 9bbc b5c5 cabc c50c 29bc 5654 2e3b
000003d0: 0df8 85bb 8776 57bc 8774 41bb 7c98 0139
000003e0: 8d8a 903b ef5d 8cbc 7d8c 18b9 4069 613a
000003f0: 7628 16bb 01ca 7f3b e02d e6bb 2a36 0c3c

network_body._body_endoder.seq_layers.2.weight f4 [256, 256]
0.020747272 0.10810036 -0.020003697 -0.041735783 -0.03235681 0.10149267 -0.052622583 -0.032450613
0.00021501305 -0.20542307 0.020237593 0.001217234 -0.024717905 0.027573008 -0.044786897 0.036002394
-0.043290865 -0.06172284 -0.035769485 0.17207633 -0.0028438675 -0.056942903 0.036088817 -0.052536864
-0.015115724 0.028611874 0.0067191543 0.0381649 0.054528814 -0.09522745 -0.024042666 -0.112659164
-0.12715916 0.09920963 0.08851905 0.13278423 0.02899915 -0.014884685 0.03133886 0.061262913
0.021960873 -0.015167298 -0.101348065 0.06354389 0.1477862 -0.05588991 0.030952146 -0.076546185
-0.017199134 0.030250827 0.12803882 0.093526006 0.0029725402 0.0032734273 -0.107967384 -0.03532827
0.020649195 -0.015227489 0.060421016 0.019944407 0.07688118 -0.05029837 0.08795577 -0.00027946787
0.03278274 -0.06785429 0.0039906413 -0.044136178 0.0748437 0.033591557 -0.052527256 -0.06519689
-0.102445014 0.08805832 0.017313207 0.011193724 0.040547825 -0.0671757 -0.054191004 0.032496534
-0.0020522599 0.052654047 -0.022127591 0.0169279 -0.035751864 -0.041017596 0.046924207 0.061873224
0.028106341 0.05757014 -0.045697425 -0.050003733 0.05863481 0.12558305 0.028503967 -0.0036602258
0.122396685 -0.01049969 0.10269328 0.1244944 -0.06604457 0.0040286616 -0.040824544 0.022833
-0.084981315 0.050833154 -0.0039260583 0.03901928 0.04775785 0.13258402 -0.071930446 -0.004756963
0.04852378 0.03528688 0.008300471 -0.1009232 -0.04853073 0.028404145 0.056877457 -0.0020501332
-0.11922526 -0.03459738 0.053771455 -0.0831778 0.04529769 0.06328054 -0.04320612 0.016977564
-0.09207373 -0.049207937 -0.042104214 -0.056947917 0.16232245 -0.03569537 0.0051506874 0.09579992
-0.0067823553 -0.02829043 0.044319194 -0.1293216 -0.03748619 -0.028500712 -0.015792826 -0.049883332
-0.060883325 -0.05579314 0.009419312 0.03319399 0.004030763 0.030347409 -0.013999521 -0.0076194555
-0.04505516 -0.06731645 0.022075111 0.03739593 0.0778702 -0.012831521 -0.025375722 0.087241575
-0.19620353 0.034594584 -0.04652562 -0.02004509 -0.027808107 -0.02481607 0.046961382 -0.10611197
-0.027239932 -0.06087047 0.069640934 -0.08048612 0.0011719895 0.003921442 -0.0061056484 -0.0016483298
0.0076311226 -0.021816207 0.07509372 -0.13361977 0.015447274 0.002307975 -0.02556256 0.012451604
0.05594772 -0.088508435 0.023748908 0.08985611 0.016940342 -0.040852077 -0.0003704564 0.06989861
0.10724768 0.009891139 0.0055691414 -0.17871389 -0.15142442 0.070184775 0.021730714 -0.036136817
0.08334072 -0.024748936 0.014100798 0.09815314 -0.09782061 -0.11148855 0.017136423 0.050260518
0.035507504 -0.049713418 0.007941113 -0.023290675 -0.068132505 0.01944999 0.122172765 0.035809204
0.061736196 0.0411095 0.1049389 0.11732744 0.022947868 0.051900487 -0.045574963 0.04530214
-0.10120116 -0.0032415427 0.013398223 -0.047216706 1.1047483e-05 -0.11829476 -0.09115741 0.02562126
-0.013013019 0.1054471 -0.014170429 0.113908835 0.005010256 -0.05017128 0.016510103 -0.10044958
0.017434753 0.04321325 -0.009743431 -0.06377973 -0.014161851 0.06647161 -0.025026673 -0.028828515
-0.008416819 -0.07793547 0.038031135 -0.07720048 0.07192809 0.08070801 -0.091478005 0.09864172
00000000: 2ff6 a93c b963 dd3d cbde a3bc 24f3 2abd
00000010: 9388 04bd 64db cf3d c78a 57bd efea 04bd
00000020: 2075 6139 6d5a 52be 4fc9 a53c 988b 9f3a
00000030: 347d cabc cae0 e13c 7772 37bd 3f77 133d
00000040: c351 31bd 17d1 7cbd 0683 12bd c734 303e
00000050: 2e60 3abb f63c 69bd ded1 133d e530 57bd
00000060: f1a7 77bc 7363 ea3c 5a2c dc3b cc52 1c3d
00000070: 9b59 5f3d 9c06 c3bd 20f5 c4bc d9b9 e6bd
00000080: 0336 02be 6b2e cb3d 7a49 b53d 97f8 073e
00000090: a08f ed3c e5de 73bc 2d5d 003d d2ee 7a3d
000000a0: 4ae7 b33c 4280 78bc 938f cfbd 4d23 823d
000000b0: 4455 173e d1ec 64bd 5b8f fd3c 3fc4 9cbd
000000c0: 33e5 8cbc 95d0 f73c 9c1c 033e 908a bf3d
000000d0: f3ce 423b ff86 563b 011e ddbd 60b4 10bd
000000e0: 8028 a93c b87c 79bc 077c 773d 7462 a33c
000000f0: e173 9d3d aa05 4ebd 2822 b43d 8b85 92b9
00000100: 3247 063d 31f7 8abd edc3 823b 23c8 34bd
00000110: a747 993d 4d97 093d d226 57bd f285 85bd
00000120: b1ce d1bd ec57 b43d 6dd4 8d3c e265 373c
00000130: 7a15 263d 6a93 89bd 63f7 5dbd 161b 053d
00000140: 357f 06bb c5ab 573d ec44 b5bc 61ac 8a3c
00000150: 8c70 12bd 1102 28bd 9933 403d c76e 7d3d
00000160: 453f e63c abce 6b3d 392d 3bbd b7d0 4cbd
00000170: 0e2b 703d d898 003e 2781 e93c 66e0 6fbb
00000180: 1dab fa3d e406 2cbc db50 d23d ecf6 fe3d
00000190: 6042 87bd dd02 843b a337 27bd 460c bb3c
000001a0: af0a aebd 6d36 503d 2aa6 80bb aed2 1f3d
000001b0: bc9d 433d 1bc4 073e 4550 93bd 4ce0 9bbb
000001c0: dfc0 463d fa88 103d b3fe 073c d3b0 cebd
000001d0: 29c8 46bd cfaf e83c 56f8 683d 875b 06bb
000001e0: 602c f4bd fbb5 0dbd 753f 5c3d 1f59 aabd
000001f0: 128a 393d 3a99 813d e7f8 30bd 8814 8b3c
00000200: 2791 bcbd 438e 49bd 7875 2cbd 3842 69bd
00000210: db37 263e 4f35 12bd 19c7 a83b c032 c43d
00000220: 853e debb 55c1 e7bc 0b88 353d e26c 04be
00000230: 1f8b 19bd 537a e9bc f55f 81bc 7752 4cbd
00000240: cb60 79bd 5987 64bd 7553 1a3c 6cf6 073d
00000250: 7e14 843b 219b f83c 3f5e 65bc a0ac f9bb
00000260: c28b 38bd 35dd 89bd ddd6 b43c 7a2c 193d
00000270: 697a 9f3d 4d3b 52bc bfe0 cfbc b6ab b23d
00000280: 94e9 48be 0db3 0d3d a691 3ebd 9a35 a4bc
00000290: d4cd e3bc 124b cbbc 945a 403d 3c51 d9bd
000002a0: 4726 dfbc 5053 79bd e89f 8e3d e8d5 a4bd
000002b0: 719d 993a 717f 803b e411 c8bb c50c d8ba
000002c0: 7f0e fa3b e7b7 b2bc bcca 993d 9fd3 08be
000002d0: 9016 7d3c 6541 173b 9368 d1bc d001 4c3c
000002e0: 7029 653d e943 b5bd 128d c23c 7b06 b83d
000002f0: 79c6 8a3c 8254 27bd d139 c2b9 0127 8f3d
00000300: aca4 db3d 720e 223c 587d b63b c600 37be
00000310: 010f 1bbe 09bd 8f3d 9c04 b23c 3304 14bd
00000320: 8aae aa3d 48be cabc 0907 673c 8304 c93d
00000330: 2c56 c8bd 1c54 e4bd af61 8c3c f9dd 4d3d
00000340: 5170 113d 4ca0 4bbd 711b 023c 16cc bebc
00000350: 0e89 8bbd 9655 9f3c b735 fa3d acac 123d
00000360: 18df 7c3d 6f62 283d 35ea d63d 5e49 f03d
00000370: 2bfd bb3c 9b95 543d d0ac 3abd bd8e 393d
00000380: 8e42 cfbd 1070 54bb 3884 5b3c 4e66 41bd
00000390: 9458 3937 8644 f2bd bcb0 babd ade3 d13c
000003a0: 8f34 55bc a6f4 d73d 162b 68bc 0949 e93d
000003b0: 132d a43b 6680 4dbd 3240 873c 82b8 cdbd
000003c0: 54d3 8e3c 6000 313d e9a2 1fbc f29e 82bd
000003d0: 1c07 68bc 4422 883d bd04 cdbc c729 ecbc
000003e0: b3e6 09bc a29c 9fbd 89c6 1b3d 491b 9ebd
000003f0: 094f 933d 3e4a a53d d258 bbbd ac04 ca3d
