results - copia/PruebaPequeña/AgenteCoche/AgenteCoche-503374.pt (torch, 175639 bytes, 14 tensors)

discrete_act_size_vector f4 [1, 2]
0	0x40400000	3.0
1	0x40400000	3.0

network_body._body_endoder.seq_layers.0.weight f4 [128, 29]
0	0x3ef5c557	0.4800212
1	0xbe0a369d	-0.13497396
2	0x3e7920e8	0.24328959
3	0xbe928a78	-0.28621268
4	0x3e00c663	0.12575679
5	0xbe22e55b	-0.15907805
6	0x3ea53bc2	0.32272154
7	0xbddd2088	-0.107972205
8	0xbe027e54	-0.12743503
9	0x3e6f75fd	0.23384853
10	0x3e273f7e	0.16332814
11	0xbe3ce095	-0.18445046
12	0x3d6e4d23	0.058179032
13	0xbe04d126	-0.12970409
14	0x3ba0a757	0.004902761
15	0xbe209916	-0.15683398
16	0x3db3ebbf	0.087851994
17	0x3e2493ab	0.16071956
18	0x3e8a916e	0.2706408
19	0x3dcf7fdd	0.1013181
20	0xbdf464f4	-0.11933318
21	0x3e42c64f	0.19020961
22	0xbe8028ca	-0.2503112
23	0xbe19e230	-0.1502769
24	0x3d0015e8	0.03127089
25	0xbe024106	-0.12720117
26	0x3d7431d7	0.059617843
27	0xbd65d374	-0.05610986
28	0x3dd3deda	0.1034524
29	0xbeff2252	-0.49830872
30	0x3d695004	0.056961074
31	0x3ed9027c	0.42384708
32	0xbdaf13e9	-0.085487194
33	0x3dbc767b	0.09202286
34	0xbe2b5804	-0.16732794
35	0xbc7ecb22	-0.01555136
36	0x3e94d567	0.29069063
37	0x3e01b982	0.12668422
38	0xbee323ca	-0.44363242
39	0xbe176ad9	-0.14786853
40	0x3dfffc8c	0.12499341
41	0x3e2e00e0	0.16992521
42	0x3dcbe012	0.099548474
43	0xbeaf25c8	-0.34208512
44	0xbc973ce0	-0.018461645
45	0xbe4d1538	-0.20027626
46	0xbb9dae40	-0.004812032
47	0xbdb59140	-0.08865595
48	0xbe90b595	-0.28263536
49	0xbcf349ff	-0.02969837
50	0xbf02788b	-0.50965184
51	0x3d934579	0.07190985
52	0xbe6172ba	-0.22016421
53	0x3e3de84e	0.18545648
54	0x3dfcae2d	0.12337909
55	0xbe7b9968	-0.24570239
56	0x3df733b6	0.1207041
57	0xbedae664	-0.427539
58	0xbdcca381	-0.099921234
59	0xbe1a221a	-0.15052071
60	0xbce1b0a2	-0.027550045
61	0x3d888452	0.06665863
62	0x3ee170db	0.44031414
63	0xbdb7efab	-0.0898126
64	0x3c9712cd	0.018441582
65	0x3d523541	0.051320318
66	0x3dcbe8a6	0.099564835
67	0x3e0cf580	0.13765526
68	0x3e8cc7eb	0.27496275
69	0x3e103852	0.14083984
70	0xbea1456b	-0.31498274
71	0xbd30b082	-0.04313708
72	0xbdaa267b	-0.08308121
73	0xbb853c18	-0.0040660016
74	0xbcdb6bf5	-0.026784876
75	0xbeb0eeb9	-0.3455713
76	0x3df9f46e	0.122048244
77	0xbe2ae494	-0.16688758
78	0xbde2468a	-0.110486105
79	0xbcf096cc	-0.02936878
80	0x3e5a91ae	0.21344635
81	0xbdfd0d96	-0.12356107
82	0xbb206064	-0.0024471516
83	0xbe5b449e	-0.21412894
84	0xbd50795a	-0.05089698
85	0xbe7dca3d	-0.24784179
86	0xbecc00f6	-0.39844483
87	0x3e156694	0.14589912
88	0xbc72ec23	-0.014826807
89	0xbb752f9e	-0.0037412415
90	0x3e34bb52	0.17649582
91	0xbeb17250	-0.34657526
92	0x3e806d6c	0.25083482
93	0xbeac903b	-0.3370379
94	0xbea081ee	-0.31349128
95	0xbe43e5b2	-0.1913059
96	0xbd37bd51	-0.04485828
97	0x3d5cc6c7	0.053900506
98	0xbe008455	-0.1255048
99	0x3caa2f33	0.02077446
100	0xbd1484db	-0.036259513
101	0xbbb104f4	-0.005402202
102	0xbcebdfa9	-0.028793173
103	0xbd7ecffc	-0.062210068
104	0x3eadf342	0.33974653
105	0x3dbeadb7	0.09310477
106	0xbe45dffb	-0.19323723
107	0xbe70e7c4	-0.23525912
108	0x3d2cdee6	0.04220476
109	0x3e82de4f	0.25560233
110	0xbe7c8e5e	-0.24663684
111	0x3dc20835	0.094742216
112	0xbe1c8cfe	-0.15288159
113	0xbe99a569	-0.3000901
114	0x3ebf8773	0.37408027
115	0x3e557c7b	0.20848267
116	0x3edad72d	0.4274229
117	0x3c08ea32	0.008356618
118	0xbd8ebd47	-0.069696955
119	0xbe368931	-0.17825772
120	0xbda3f1a3	-0.08005073
121	0x3cdbad43	0.026816016
122	0xbc413e45	-0.011794631
123	0xbe3961eb	-0.18103759
124	0xbe4f7bf9	-0.20262136
125	0xbdb2b315	-0.087255634
126	0x3e455a74	0.19272786
127	0xbe33d093	-0.17560034
128	0xbe4502e8	-0.1923939
129	0x3e2a056a	0.16603628
130	0x3e330b2e	0.17484733
131	0x3e186f27	0.14886151
132	0xbd94e9d5	-0.072711624
133	0xbdc39ed6	-0.0955178
134	0x3ec417ff	0.38299558
135	0x3c8e9fc6	0.01741017
136	0xbd042962	-0.03226603
137	0xbe330571	-0.17482544
138	0x3db97323	0.09055164
139	0x3d1e569c	0.038656816
140	0xbd5fd96e	-0.054650716
141	0xbc7d5259	-0.015461528
142	0xbc5ff6bc	-0.013669666
143	0xbd19bd63	-0.03753413
144	0x3eaf43a7	0.34231302
145	0x3e0f30f0	0.13983512
146	0xbe5b57b6	-0.21420178
147	0x3eacb3a4	0.33730805
148	0x3e8ddfd3	0.27709827
149	0x3d685915	0.05672558
150	0x3d8053b1	0.06265963
151	0xbd3dcfb9	-0.046340678
152	0xbc6de58b	-0.014520059
153	0x3d00d874	0.031456426
154	0xbe734dd5	-0.2376016
155	0xbd91aa15	-0.07112519
156	0xbe7f37a2	-0.24923566
157	0xbe1f9d33	-0.1558731
158	0xbea39426	-0.31948966
159	0xbf1dcb9b	-0.616388
160	0xbe2b45f6	-0.16725907
161	0xbe2d0145	-0.16895016
162	0xbcba9f08	-0.02278091
163	0x3de2f58c	0.110819906
164	0x3e591e89	0.21203054
165	0xbda044a9	-0.07825596
166	0x3db91a80	0.090382576
167	0x3e01d1e0	0.12677717
168	0x3dd4fc66	0.10399704
169	0x3dd0c074	0.101929575
170	0x3e19848b	0.14991967
171	0xbea781b5	-0.32716146
172	0x3d5da2b4	0.054110244
173	0x3d39c867	0.045357134
174	0xbd365654	-0.044515923
175	0xbdc75f83	-0.09735014
176	0xbe4ee9eb	-0.2020642
177	0xbc2f055e	-0.010682432
178	0xbe1c624c	-0.15271872
179	0x3e379846	0.17929181
180	0x3da1f9b4	0.07908955
181	0xbe09b4cd	-0.13447876
182	0xbd183e4a	-0.03716878
183	0xbe497e8a	-0.19677177
184	0xbe67a793	-0.22622518
185	0x3e801d7c	0.25022495
186	0x3e9071ca	0.28211814
187	0x3e11d5dd	0.14241739
188	0x3e36e4b2	0.17860678
189	0xbd8c0f26	-0.06838827
190	0xbe82164f	-0.25407645
191	0xbe086f7e	-0.13323781
192	0xbe2aab44	-0.16666895
193	0xbda11bbe	-0.078666195
194	0xbe85e541	-0.2615147
195	0x3df9826d	0.1218308
196	0xbd257c99	-0.04040203
197	0xbe0495ca	-0.12947765
198	0xbe8cf7f6	-0.2753293
199	0xbcc301e6	-0.023804616
200	0xbc06dfe7	-0.008232093
201	0xbd14ff59	-0.03637633
202	0xbd6558fd	-0.05599307
203	0xbdbf28ba	-0.0933394
204	0x3e36cb51	0.17850997
205	0x3e935ba7	0.28780863
206	0x3cda3964	0.026638694
207	0xbe9271c6	-0.28602427
208	0x3e89ce5f	0.2691526
209	0x3dc6339c	0.096778125
210	0xbe3f29a6	-0.18668231
211	0xbdc14d91	-0.09438623
212	0xbe5820fd	-0.21106334
213	0xbe3f0aac	-0.18656415
214	0xbd83142a	-0.0640033
215	0xbd254820	-0.040351987
216	0xbebe3543	-0.3715001
217	0x3dbf4e91	0.09341157
218	0x3d81a288	0.063298285
219	0x3e80dd8f	0.25169036
220	0x3dfd2d20	0.123621225
221	0x3bb2082f	0.0054331045
222	0x3e0e6b73	0.13908176
223	0x3e825cdc	0.2546147
224	0xbe1453a6	-0.14485034
225	0x3d9c4260	0.076298475
226	0x3dcb931d	0.09940169
227	0xba78c725	-0.0009490124
228	0x3e85b3e3	0.26113805
229	0xbd559af7	-0.05214974
230	0x3c3e2d4c	0.011607479
231	0xbe0e3ba0	-0.13889933
232	0x3e067529	0.1313063
233	0xbe9cbdbf	-0.30613515
234	0x3ede6653	0.43437442
235	0x3e34cc3b	0.17656033
236	0x3ce7bdf8	0.028288826
237	0x3c8471e6	0.016167592
238	0xbcf6832f	-0.03009185
239	0x3ce58c8e	0.028021123
240	0xbdaa4eb0	-0.0831579
241	0x3c95456c	0.01822158
242	0xbd997bfe	-0.07494353
243	0x3d2a0e91	0.041517798
244	0x3bcd1d95	0.00625963
245	0x3e26190c	0.16220492
246	0xbe0240a0	-0.12719965
247	0x3e2159d4	0.15756923
248	0xbd9647bf	-0.07337903
249	0x3ce510ac	0.027962051
250	0x3ce5979a	0.02802639
251	0x3e3eb982	0.18625453
252	0x3d4e4391	0.050357405
253	0x3e0ca25c	0.1373381
254	0xbdb1b00e	-0.08676158
255	0xbd9556cd	-0.072919466

network_body._body_endoder.seq_layers.0.bias f4 [128]
0	0x00000000	0.0
1	0x00000000	0.0
2	0x00000000	0.0
3	0x00000000	0.0
4	0x00000000	0.0
5	0x00000000	0.0
6	0x00000000	0.0
7	0x00000000	0.0
8	0x00000000	0.0
9	0x00000000	0.0
10	0x00000000	0.0
11	0x00000000	0.0
12	0x00000000	0.0
13	0x00000000	0.0
14	0x00000000	0.0
15	0x00000000	0.0
16	0x00000000	0.0
17	0x00000000	0.0
18	0x00000000	0.0
19	0x00000000	0.0
20	0x00000000	0.0
21	0x00000000	0.0
22	0x00000000	0.0
23	0x00000000	0.0
24	0x00000000	0.0
25	0x00000000	0.0
26	0x00000000	0.0
27	0x00000000	0.0
28	0x00000000	0.0
29	0x00000000	0.0
30	0x00000000	0.0
31	0x00000000	0.0
32	0x00000000	0.0
33	0x00000000	0.0
34	0x00000000	0.0
35	0x00000000	0.0
36	0x00000000	0.0
37	0x00000000	0.0
38	0x00000000	0.0
39	0x00000000	0.0
40	0x00000000	0.0
41	0x00000000	0.0
42	0x00000000	0.0
43	0x00000000	0.0
44	0x00000000	0.0
45	0x00000000	0.0
46	0x00000000	0.0
47	0x00000000	0.0
48	0x00000000	0.0
49	0x00000000	0.0
50	0x00000000	0.0
51	0x00000000	0.0
52	0x00000000	0.0
53	0x00000000	0.0
54	0x00000000	0.0
55	0x00000000	0.0
56	0x00000000	0.0
57	0x00000000	0.0
58	0x00000000	0.0
59	0x00000000	0.0
60	0x00000000	0.0
61	0x00000000	0.0
62	0x00000000	0.0
63	0x00000000	0.0
64	0x00000000	0.0
65	0x00000000	0.0
66	0x00000000	0.0
67	0x00000000	0.0
68	0x00000000	0.0
69	0x00000000	0.0
70	0x00000000	0.0
71	0x00000000	0.0
72	0x00000000	0.0
73	0x00000000	0.0
74	0x00000000	0.0
75	0x00000000	0.0
76	0x00000000	0.0
77	0x00000000	0.0
78	0x00000000	0.0
79	0x00000000	0.0
80	0x00000000	0.0
81	0x00000000	0.0
82	0x00000000	0.0
83	0x00000000	0.0
84	0x00000000	0.0
85	0x00000000	0.0
86	0x00000000	0.0
87	0x00000000	0.0
88	0x00000000	0.0
89	0x00000000	0.0
90	0x00000000	0.0
91	0x00000000	0.0
92	0x00000000	0.0
93	0x00000000	0.0
94	0x00000000	0.0
95	0x00000000	0.0
96	0x00000000	0.0
97	0x00000000	0.0
98	0x00000000	0.0
99	0x00000000	0.0
100	0x00000000	0.0
101	0x00000000	0.0
102	0x00000000	0.0
103	0x00000000	0.0
104	0x00000000	0.0
105	0x00000000	0.0
106	0x00000000	0.0
107	0x00000000	0.0
108	0x00000000	0.0
109	0x00000000	0.0
110	0x00000000	0.0
111	0x00000000	0.0
112	0x00000000	0.0
113	0x00000000	0.0
114	0x00000000	0.0
115	0x00000000	0.0
116	0x00000000	0.0
117	0x00000000	0.0
118	0x00000000	0.0
119	0x00000000	0.0
120	0x00000000	0.0
121	0x00000000	0.0
122	0x00000000	0.0
123	0x00000000	0.0
124	0x00000000	0.0
125	0x00000000	0.0
126	0x00000000	0.0
127	0x00000000	0.0

network_body._body_endoder.seq_layers.2.weight f4 [128, 128]
0	0xbd8b8acf	-0.06813585
1	0x3d95f1f3	0.07321539
2	0xbdbd2739	-0.09235997
3	0x3d140092	0.036133356
4	0x3dd1d0a4	0.10244873
5	0xbd8022b9	-0.06256623
6	0xbc634a38	-0.013872676
7	0xbca15780	-0.019695044
8	0x3dca7a54	0.098866135
9	0xbae6e670	-0.0017616283
10	0x3d19815a	0.037476875
11	0xbdd111e9	-0.10208494
12	0xbd9c2810	-0.07624829
13	0xbe1be170	-0.15222716
14	0x3e17b14a	0.14813724
15	0x3d59f5e2	0.053213008
16	0xbd3afbb4	-0.0456502
17	0xbd7ed528	-0.062215
18	0x3e090259	0.13379802
19	0x3cd3d042	0.025856141
20	0x3c89e748	0.016833916
21	0x3c277420	0.010220557
22	0x3db73bbf	0.089469425
23	0x3db909df	0.09035086
24	0xbcd22c8b	-0.025656005
25	0x3dd58d3e	0.104273304
26	0x3d2350d9	0.039872024
27	0x3d25062e	0.040289097
28	0xbd92a016	-0.0715944
29	0xbdd92be3	-0.10604074
30	0xbe067557	-0.13130699
31	0xbddb5efa	-0.10711475
32	0x3deab84e	0.114609346
33	0x3c97ef6d	0.018546784
34	0x3d2fb464	0.042896643
35	0xbdc9669a	-0.09834023
36	0xbd562816	-0.052284323
37	0x3e153142	0.14569572
38	0x3cd1c0be	0.025604602
39	0xbd1b4c60	-0.037914634
40	0x3cc1a90a	0.023640174
41	0x3be4eb34	0.006986046
42	0x3cd237e1	0.02566141
43	0xbe2fc5ea	-0.17165342
44	0xbe3c2b2a	-0.18375841
45	0xbc8c0d12	-0.017096076
46	0xbca80f96	-0.020515244
47	0xbe5e3085	-0.21698196
48	0x3c8a632a	0.016892988
49	0x3d501c49	0.050808225
50	0xbbdc259c	-0.0067183506
51	0x3cbd6abc	0.023122184
52	0xbccf7066	-0.02532215
53	0xbd79f357	-0.061023083
54	0x3b876e4b	0.004133021
55	0x3d960490	0.07325089
56	0x3ca393f3	0.019968009
57	0xbe1d8148	-0.15381348
58	0xbd5724b5	-0.05252524
59	0xbe1c3ea3	-0.15258269
60	0xbc9c1bae	-0.019056167
61	0x3d0c3c1b	0.03423701
62	0x3d841bb4	0.064505965
63	0xbd7baf5f	-0.061446544
64	0x3bb25411	0.0054421504
65	0xbdd62446	-0.10456137
66	0x3d4884bb	0.048954707
67	0x3d8e9caa	0.06963475
68	0x3d1ce5ed	0.03830521
69	0xbca1b0d8	-0.019737646
70	0x3d9858ea	0.07438834
71	0xbd76d6a3	-0.060263287
72	0xbdae1465	-0.08499984
73	0x3d433a38	0.047662944
74	0x3d0042b7	0.031313624
75	0x3e04d1ee	0.12970707
76	0x3dd0a4d3	0.10187688
77	0xbbc8acf3	-0.006124133
78	0x3d8274fa	0.06369968
79	0x3e72ae64	0.23699337
80	0xbe133170	-0.14374328
81	0x3c1b724f	0.0094877025
82	0xbdf198a0	-0.11796689
83	0xbccc4bb0	-0.024938434
84	0x3cfbf2a6	0.030755352
85	0x3d90ec57	0.07076328
86	0xbd1d436e	-0.038394384
87	0xbcacf6ac	-0.021113716
88	0x3d301486	0.042988323
89	0xbd19e906	-0.037575744
90	0xbd1a7e20	-0.03771794
91	0x3d3fcc87	0.04682591
92	0xbd719f20	-0.058989644
93	0xbe3951fb	-0.1809768
94	0x3d8baa01	0.06819535
95	0x3ddf410b	0.10901078
96	0xbd92197e	-0.071337685
97	0x3da25f08	0.07928282
98	0x3dc2daf8	0.09514421
99	0xbe0615a5	-0.13094194
100	0x3e728049	0.2368175
101	0xbd840bc2	-0.06447555
102	0x3cb41723	0.021983689
103	0x3de29966	0.11064415
104	0x3dfe7522	0.12424685
105	0xbc79b10c	-0.015239965
106	0xbc489e4b	-0.012244771
107	0xbdf2d177	-0.118563585
108	0xbe059851	-0.13046385
109	0x3d69fc02	0.0571251
110	0xbcc54d17	-0.02408461
111	0xb9dce457	-0.00042131796
112	0x3d1c5a9c	0.03817235
113	0xbdbb069d	-0.09132121
114	0x3dc12a21	0.094318636
115	0x3d2062df	0.03915679
116	0xbdd0ddbd	-0.10198543
117	0xbc84e0ac	-0.016220413
118	0x3d217985	0.03942253
119	0x3dd71460	0.10501933
120	0x3e177cdd	0.14793725
121	0xbd3c082c	-0.04590623
122	0xbc64a084	-0.0139542855
123	0xbddf96a6	-0.10917406
124	0xbcebd94d	-0.02879014
125	0x3d930ca4	0.071801454
126	0xbd7629b7	-0.060098376
127	0x3d76e53e	0.060277216
128	0xbe88af84	-0.26696408
129	0x3db3342a	0.08750184
130	0x3cc1efde	0.023673948
131	0x3dafc055	0.08581606
132	0x3d8aafa7	0.06771784
133	0xbe516dc2	-0.20452026
134	0x3cc634d1	0.024195107
135	0xbacc0c30	-0.0015567597
136	0x3c62db78	0.013846271
137	0x3d2d5081	0.042313103
138	0xbdf9298a	-0.12166126
139	0x3dd16687	0.10224634
140	0xbdabad04	-0.083826095
141	0x3d9edc59	0.07756872
142	0xbda481ad	-0.08032546
143	0x3e23a6d5	0.1598161
144	0x3d90b789	0.070662566
145	0xba833429	-0.0010010052
146	0x3d9f4e3d	0.07778595
147	0x3da7d535	0.08194963
148	0xbc354cd3	-0.01106568
149	0xbcfb8f32	-0.03070793
150	0x3cac818c	0.021057867
151	0x3d49651e	0.0491687
152	0x3de72d49	0.11287934
153	0x3e0078b3	0.12546043
154	0x3c8db46a	0.017297942
155	0xbb9f4795	-0.004860828
156	0xbdcc75c7	-0.09983402
157	0xbd19eefd	-0.037581433
158	0x3dc8a11c	0.09796354
159	0x3d43449d	0.047672857
160	0xbdc661fc	-0.09686658
161	0x3d9434e7	0.07236653
162	0x3c490426	0.0122690555
163	0xbd7330c9	-0.059372697
164	0xbdbf02b8	-0.093266904
165	0x3d8d3577	0.06894963
166	0x3de4fcbe	0.11181019
167	0x3c67fe69	0.014159777
168	0x3d6bbb86	0.057551883
169	0xbcda1f4a	-0.026626248
170	0x3d2a2809	0.041542087
171	0xbd4954a4	-0.049152985
172	0xbdd5ba01	-0.10435868
173	0xbd61eba8	-0.05515638
174	0x3d8a2ebf	0.06747197
175	0xbe1e14a8	-0.15437567
176	0x3d191c79	0.03738067
177	0x3db79f31	0.0896591
178	0xbd584c29	-0.052807007
179	0x3da09de7	0.078426175
180	0xbd8e94db	-0.06961986
181	0xbc493fa4	-0.0122832395
182	0xbdce37b2	-0.10069217
183	0xbd0b794a	-0.034051217
184	0xbe00fd70	-0.12596679
185	0x3d2d5169	0.042313967
186	0xbd9bfe25	-0.076168336
187	0x3e18b5dd	0.14913125
188	0xbca91a94	-0.020642556
189	0xbe2ab17f	-0.16669272
190	0xbd8dacdd	-0.06917737
191	0x3ce43970	0.02785942
192	0x3d8329a9	0.064044304
193	0xbba3aa96	-0.0049947007
194	0xbd53c026	-0.05169692
195	0x3e47b6ea	0.1950337
196	0x3d83f31e	0.06442855
197	0xbcfb2c6b	-0.030660829
198	0x3e0d368e	0.13790342
199	0x3d4bf6ad	0.049795795
200	0x3bfafbad	0.0076593966
201	0xbddf38b9	-0.10899491
202	0x3d94c2db	0.07263728
203	0x3cea40f5	0.028595427
204	0xbd79ba49	-0.06096867
205	0x3d252410	0.040317595
206	0xbcfbbc52	-0.030729447
207	0x3e64746a	0.22310033
208	0x3d52aca8	0.05143419
209	0xbc79e0ef	-0.015251382
210	0xbe282917	-0.16421925
211	0x3d63a508	0.055577308
212	0x3d1597de	0.036521785
213	0xbdbc19f7	-0.0918464
214	0x3c1e51cb	0.009663056
215	0x3d7fa257	0.06241068
216	0xbd013542	-0.03154493
217	0xbe0aef6c	-0.13567895
218	0xbe94eb93	-0.2908598
219	0xbd361286	-0.04445126
220	0x3cf1de81	0.029525043
221	0xbc758cbf	-0.01498717
222	0x3cef7766	0.029231738
223	0xbc02fd5d	-0.007994977
224	0x3b18c312	0.002330963
225	0x3d9ba9f5	0.07600776
226	0xbd011386	-0.03151276
227	0xbdad1a97	-0.08452337
228	0x3e028396	0.12745509
229	0xbd0bf79e	-0.034171693
230	0xbdea5dba	-0.11443658
231	0xbd4dafc7	-0.050216462
232	0x3e1ca53e	0.1529741
233	0x3d3fe200	0.04684639
234	0xbd984834	-0.07435647
235	0x3dc8a3dc	0.09796879
236	0xbe33bac9	-0.17551722
237	0xbbdd769a	-0.006758523
238	0xbd3c6525	-0.045994896
239	0x3ba58528	0.005051274
240	0xbcff0658	-0.031130955
241	0x3c7fbf89	0.01560963
242	0xbd8a1070	-0.067414165
243	0xbc814386	-0.015779268
244	0xbdc20cc4	-0.09475091
245	0x3d1d94ec	0.0384721
246	0xbd46efe2	-0.048568614
247	0xbc6b65d2	-0.014367538
248	0xbe6d4be7	-0.23173486
249	0xbd71d508	-0.059041053
250	0x3d8490f7	0.06472962
251	0x3d9e70db	0.07736369
252	0xbd6f0c2e	-0.058361225
253	0x3cc1b997	0.023648066
254	0xbbdced71	-0.0067421724
255	0xbd467db5	-0.048459727

network_body._body_endoder.seq_layers.2.bias f4 [128]
0	0x00000000	0.0
1	0x00000000	0.0
2	0x00000000	0.0
3	0x00000000	0.0
4	0x00000000	0.0
5	0x00000000	0.0
6	0x00000000	0.0
7	0x00000000	0.0
8	0x00000000	0.0
9	0x00000000	0.0
10	0x00000000	0.0
11	0x00000000	0.0
12	0x00000000	0.0
13	0x00000000	0.0
14	0x00000000	0.0
15	0x00000000	0.0
16	0x00000000	0.0
17	0x00000000	0.0
18	0x00000000	0.0
19	0x00000000	0.0
20	0x00000000	0.0
21	0x00000000	0.0
22	0x00000000	0.0
23	0x00000000	0.0
24	0x00000000	0.0
25	0x00000000	0.0
26	0x00000000	0.0
27	0x00000000	0.0
28	0x00000000	0.0
29	0x00000000	0.0
30	0x00000000	0.0
31	0x00000000	0.0
32	0x00000000	0.0
33	0x00000000	0.0
34	0x00000000	0.0
35	0x00000000	0.0
36	0x00000000	0.0
37	0x00000000	0.0
38	0x00000000	0.0
39	0x00000000	0.0
40	0x00000000	0.0
41	0x00000000	0.0
42	0x00000000	0.0
43	0x00000000	0.0
44	0x00000000	0.0
45	0x00000000	0.0
46	0x00000000	0.0
47	0x00000000	0.0
48	0x00000000	0.0
49	0x00000000	0.0
50	0x00000000	0.0
51	0x00000000	0.0
52	0x00000000	0.0
53	0x00000000	0.0
54	0x00000000	0.0
55	0x00000000	0.0
56	0x00000000	0.0
57	0x00000000	0.0
58	0x00000000	0.0
59	0x00000000	0.0
60	0x00000000	0.0
61	0x00000000	0.0
62	0x00000000	0.0
63	0x00000000	0.0
64	0x00000000	0.0
65	0x00000000	0.0
66	0x00000000	0.0
67	0x00000000	0.0
68	0x00000000	0.0
69	0x00000000	0.0
70	0x00000000	0.0
71	0x00000000	0.0
72	0x00000000	0.0
73	0x00000000	0.0
74	0x00000000	0.0
75	0x00000000	0.0
76	0x00000000	0.0
77	0x00000000	0.0
78	0x00000000	0.0
79	0x00000000	0.0
80	0x00000000	0.0
81	0x00000000	0.0
82	0x00000000	0.0
83	0x00000000	0.0
84	0x00000000	0.0
85	0x00000000	0.0
86	0x00000000	0.0
87	0x00000000	0.0
88	0x00000000	0.0
89	0x00000000	0.0
90	0x00000000	0.0
91	0x00000000	0.0
92	0x00000000	0.0
93	0x00000000	0.0
94	0x00000000	0.0
95	0x00000000	0.0
96	0x00000000	0.0
97	0x00000000	0.0
98	0x00000000	0.0
99	0x00000000	0.0
100	0x00000000	0.0
101	0x00000000	0.0
102	0x00000000	0.0
103	0x00000000	0.0
104	0x00000000	0.0
105	0x00000000	0.0
106	0x00000000	0.0
107	0x00000000	0.0
108	0x00000000	0.0
109	0x00000000	0.0
110	0x00000000	0.0
111	0x00000000	0.0
112	0x00000000	0.0
113	0x00000000	0.0
114	0x00000000	0.0
115	0x00000000	0.0
116	0x00000000	0.0
117	0x00000000	0.0
118	0x00000000	0.0
119	0x00000000	0.0
120	0x00000000	0.0
121	0x00000000	0.0
122	0x00000000	0.0
123	0x00000000	0.0
124	0x00000000	0.0
125	0x00000000	0.0
126	0x00000000	0.0
127	0x00000000	0.0

action_model._discrete_distribution.branches.0.weight f4 [3, 128]
0	0x3a2c2045	0.0006566088
1	0x3c31a076	0.0108414795
2	0xbc008da8	-0.0078462735
3	0xbc366167	-0.011131621
4	0xbc124707	-0.008928067
5	0xb870d112	-5.741517e-05
6	0x3b3d7f58	0.0028915014
7	0x3c1f20bf	0.009712397
8	0xbb39a832	-0.0028329012
9	0xbc70dceb	-0.014701108
10	0xbc262c0a	-0.010142336
11	0xbb2acb86	-0.002606125
12	0x3bf4830d	0.0074619115
13	0x3c701660	0.014653772
14	0x3ad43f48	0.0016193176
15	0xbb53581f	-0.003224857
16	0x3bdcdb90	0.006740041
17	0xbbadcbcd	-0.005303836
18	0x3a90db3f	0.0011051669
19	0x3cc06564	0.023485847
20	0x3bd412fa	0.0064719887
21	0x3b86dd46	0.0041157333
22	0xbbca8aef	-0.006181113
23	0x3bc2210b	0.005924349
24	0x3c200e10	0.009768978
25	0x3bcbfa25	0.006224888
26	0xbc32b8ee	-0.0109083485
27	0xbc304fdc	-0.010761227
28	0xbb921a16	-0.004458676
29	0xbb3dbaed	-0.0028950528
30	0x3b9197c7	0.004443142
31	0xbc3ac9a3	-0.011400613
32	0xbae4785b	-0.0017430888
33	0xbc0d53ad	-0.008625907
34	0x3bae845e	0.005325838
35	0x3c0350ef	0.008014902
36	0xbc04213d	-0.008064565
37	0xbc30f9df	-0.010801761
38	0x3c14c817	0.009080908
39	0xbb05fbc6	-0.0020444258
40	0x3c68bbc3	0.014204922
41	0x3b914c58	0.0044341497
42	0x3c5d8f4a	0.013522932
43	0xbbc906df	-0.0061348523
44	0xbb92b25f	-0.00447683
45	0xbc1df549	-0.009641
46	0x3ac3b41f	0.0014931
47	0xbc2c96e7	-0.010534025
48	0xbab4d90f	-0.0013797599
49	0x3baf5481	0.00535065
50	0x3c8fb897	0.017544074
51	0xbc13227b	-0.008980389
52	0xbc92761e	-0.017878588
53	0xbc9cf99e	-0.019161996
54	0xbbab45df	-0.005226835
55	0x3915e5c3	0.0001429534
56	0xbb510757	-0.0031895244
57	0xbcb0752d	-0.021540249
58	0xbac6c177	-0.0015163858
59	0xbb1f2d97	-0.0024288648
60	0xb9d563ba	-0.00040700828
61	0x3b7a6d03	0.0038211949
62	0xba8f5865	-0.0010936378
63	0xbc4f859a	-0.01266613
64	0xbb59e4aa	-0.0033247867
65	0xbc086cf6	-0.00832676
66	0xbc215ccf	-0.009848787
67	0x3a148f6b	0.0005667123
68	0xbc7eacbf	-0.015544116
69	0xbbe0bf78	-0.0068587624
70	0x3b35bb4b	0.0027730044
71	0xbb242248	-0.0025044847
72	0xbae273c8	-0.0017276937
73	0xba316ad4	-0.0006767933
74	0x392322bb	0.0001555783
75	0xbc084a3d	-0.008318481
76	0x3bafdc0f	0.005366809
77	0xbab4f336	-0.0013805393
78	0xbb9feddf	-0.0048806514
79	0xbaac1e00	-0.0013131499
80	0x3c7144ff	0.014725923
81	0xbc047ff8	-0.008087151
82	0x3cc5ff1b	0.024169495
83	0xbc6f77a2	-0.014615925
84	0x3b3c9f50	0.002878148
85	0xbb323e0c	-0.0027197627
86	0x3bf8996f	0.00758665
87	0xbbbbcab3	-0.0057309507
88	0x3ca4b352	0.020105038
89	0xba4ec9c7	-0.00078883435
90	0xbbd81d37	-0.0065952796
91	0xbc8edc8a	-0.017439146
92	0x3b2fa972	0.0026803878
93	0xbc58b0b0	-0.013225719
94	0x3c1dd9eb	0.009634475
95	0xbb8da460	-0.0043225735
96	0x3b95ff75	0.004577572
97	0xbba31381	-0.0049766903
98	0xbb773ff5	-0.003772733
99	0xbca564f0	-0.020189732
100	0x3c0eaaa6	0.008707678
101	0x3b9f897b	0.004868684
102	0xbb532a75	-0.0032221351
103	0xbc2bfff2	-0.010498034
104	0xb8f1eeda	-0.00011536265
105	0x3ab3ba68	0.001371217
106	0x3b069465	0.0020535227
107	0x3bc8f1bc	0.0061323326
108	0x3bbacd1b	0.00570072
109	0x3a208ce3	0.00061245094
110	0xbb0bb8a9	-0.0021319783
111	0x3aaa9d53	0.0013016857
112	0xbc2de0e3	-0.010612699
113	0xbcabcaba	-0.020970691
114	0x3be043d2	0.0068440223
115	0x3c34923b	0.011021192
116	0x399c06a7	0.00029759595
117	0xbc01175f	-0.007879107
118	0x3b888386	0.0041660694
119	0xbba6a828	-0.0050859638
120	0x3b26d99f	0.0025459302
121	0x3aae4845	0.0013296684
122	0xbb9e87a4	-0.004837947
123	0x3af15302	0.0018411579
124	0x3b685912	0.003545348
125	0x3af67ef7	0.0018806149
126	0xbc02d214	-0.007984657
127	0x3baa92bc	0.0052054804
128	0xbc9a5b39	-0.018842326
129	0x3c1333ff	0.008984565
130	0x3be22a67	0.0069020274
131	0xbc074c89	-0.0082579935
132	0x3c2cd873	0.010549652
133	0x3a5b9de8	0.0008377717
134	0xbb3a40e8	-0.0028420035
135	0x3c3d301f	0.0115471175
136	0xbc0a862a	-0.008454839
137	0x3c04216f	0.008064612
138	0x3c9289d2	0.017887983
139	0x3c4599fc	0.0120606385
140	0x3c487cb2	0.012236761
141	0xbc3d118a	-0.011539826
142	0xbc36db9a	-0.0111607555
143	0xbae006cf	-0.0017091873
144	0xbc0b42ec	-0.008499842
145	0xbc05b055	-0.008159717
146	0xbb3a490b	-0.0028424885
147	0xbc0c692f	-0.00857
148	0xbbea5dd2	-0.0071522975
149	0xbb355da3	-0.002767422
150	0x39f9852b	0.000475922
151	0x3baac857	0.0052118707
152	0x3aaa1a80	0.0012977868
153	0x3c4c2e2b	0.012462179
154	0x3b9758f2	0.0046187574
155	0xbb9ee80a	-0.0048494386
156	0x3bc878a3	0.0061178966
157	0xbc04904c	-0.008091044
158	0x3c906c49	0.01762976
159	0xbc734765	-0.014848565
160	0x3c16c393	0.009201902
161	0xbbcd3397	-0.0062622535
162	0xbc028ad0	-0.007967666
163	0x3b750da7	0.003739217
164	0xb8d44ebd	-0.00010123614
165	0xbc3d3b99	-0.011549854
166	0xbc6b7ead	-0.014373464
167	0x3bac1f52	0.005252757
168	0xbbbd1628	-0.0057704635
169	0x3b5da963	0.0033822886
170	0xbc6de8fb	-0.014520879
171	0x3c3b8247	0.011444635
172	0x3c8ccf97	0.01718883
173	0x3cc8da45	0.024518142
174	0x3b1ec8e8	0.0024228636
175	0x3bc24465	0.0059285634
176	0x39794410	0.00023771846
177	0x3bd3ba4d	0.006461418
178	0xb94e366b	-0.00019665963
179	0xbb3e423a	-0.0029031173
180	0xbb9a16e0	-0.004702434
181	0xbb81f2a7	-0.003965694
182	0xbbf6d7e5	-0.007533061
183	0xbbf58d07	-0.0074936184
184	0xbb1e9380	-0.0024196804
185	0xbc4367e3	-0.011926624
186	0x3b2c1c27	0.0026261897
187	0x3b95383b	0.0045538223
188	0xbc3c5641	-0.011495174
189	0x3925ac3b	0.00015799787
190	0x3b02b0c1	0.001994178
191	0x3c174fb2	0.009235309
192	0x3bb5f743	0.0055531575
193	0x3c5141f5	0.012772073
194	0xbc8313d4	-0.016000666
195	0xbc41919f	-0.011814504
196	0x3b4151ec	0.0029498292
197	0x3c0c8da3	0.008578691
198	0x3c0bc133	0.008529949
199	0x3c6de297	0.014519355
200	0x3bb19eab	0.005420526
201	0xbc6dbdd5	-0.0145105915
202	0xbb70b0a5	-0.0036726382
203	0xba058627	-0.00050935376
204	0xbbeeef70	-0.007291727
205	0xbb3246e0	-0.002720289
206	0xbbf8b8ea	-0.007590403
207	0xbb09421e	-0.002094395
208	0xba75c235	-0.00093749474
209	0x3c2b769b	0.0104652895
210	0xbc41a323	-0.01181868
211	0x3c0a765b	0.00845107
212	0x3bb7012b	0.005584856
213	0xbb729748	-0.003701644
214	0x3b3eb6df	0.00291007
215	0xbbb24381	-0.005440176
216	0xbb75a30d	-0.003748122
217	0xbbfbb2da	-0.007681233
218	0xbbdd427f	-0.0067523117
219	0x3b90f5f7	0.0044238525
220	0x3c1319af	0.008978291
221	0x3c50e01a	0.0127487425
222	0xbaeb8d4b	-0.0017971186
223	0xbbd284db	-0.006424529
224	0x3c102787	0.008798487
225	0x3ac46198	0.0014982698
226	0x3c6dfe90	0.014526024
227	0xbc1e7efb	-0.009673829
228	0xbb870fc0	-0.0041217506
229	0xbb714e8f	-0.0036820506
230	0xba3bb900	-0.0007161051
231	0xbbaf1b6e	-0.005343846
232	0xbc0f0bdf	-0.008730858
233	0x3a3779b0	0.0006999029
234	0xbb9d2273	-0.0047953664
235	0xbbe4aa95	-0.006978343
236	0x3c173906	0.009229904
237	0x3bf4481a	0.0074548842
238	0xbc26688b	-0.010156761
239	0x398ab133	0.00026453435
240	0xbc250254	-0.010071356
241	0xbaaa98cf	-0.0013015511
242	0xbc4d3043	-0.0125237135
243	0x3bf08c13	0.007340917
244	0x386a6257	5.5881534e-05
245	0x3b3dcc8a	0.0028961026
246	0xbbc01e54	-0.0058629904
247	0xbb84255f	-0.0040327753
248	0xbb8be214	-0.004268894
249	0x3ccd1a2a	0.02503689
250	0xbc23b96e	-0.00999294
251	0x3c1a3a3a	0.009413296
252	0x3b586af3	0.003302273
253	0x3b85f576	0.004088099
254	0x3b15d7c4	0.0022864202
255	0xbbff3480	-0.007788241

action_model._discrete_distribution.branches.0.bias f4 [3]
0	0x00000000	0.0
1	0x00000000	0.0
2	0x00000000	0.0

action_model._discrete_distribution.branches.1.weight f4 [3, 128]
0	0xbba2d067	-0.004968691
1	0xbb831a51	-0.00400094
2	0xbc5bad3d	-0.013408002
3	0x3ba28307	0.0049594673
4	0x3bc49c74	0.006000096
5	0xb9a7992c	-0.00031966844
6	0x3a6958d5	0.00089014816
7	0xbb41d5c2	-0.0029576872
8	0xbbb86177	-0.005626853
9	0xbc43c8c7	-0.0119497245
10	0xbb87d7a3	-0.004145579
11	0xbc11d611	-0.008901135
12	0x3bbd075b	0.005768699
13	0xbca41f8d	-0.020034576
14	0x3b1cb4f6	0.0023911572
15	0xbbe07408	-0.0068497695
16	0xba25fc03	-0.0006331803
17	0xbb0f20ca	-0.0021839612
18	0x3baed74c	0.005335724
19	0x3bfe0df2	0.0077531273
20	0xbbeeb2f0	-0.0072845146
21	0xbc8d07af	-0.017215578
22	0x3be752bf	0.0070594246
23	0xbc9314af	-0.017954199
24	0xbaaa3866	-0.0012986779
25	0xbc60f0f2	-0.013729321
26	0xbb000f08	-0.001954021
27	0x3c975487	0.018472923
28	0x3c9cbe73	0.019133782
29	0x3bb9697a	0.0056583257
30	0xbb94bd1a	-0.004539144
31	0x3747fbc3	1.1919942e-05
32	0xba186f83	-0.00058149564
33	0x3b9f80d3	0.004867652
34	0x3c0df01f	0.008663206
35	0xbc0d3f6b	-0.008621077
36	0x3c0ac46a	0.00846968
37	0xbba9709a	-0.005170894
38	0xbc0d8b54	-0.008639175
39	0x3bd13a9d	0.006385161
40	0xbb8362af	-0.0040095667
41	0xbb9cf8bb	-0.004790393
42	0x3c882566	0.016619395
43	0xbc22e344	-0.00994188
44	0xbab35ef2	-0.0013684912
45	0x3a7408ca	0.0009309171
46	0x3b519fc0	0.0031986088
47	0xbb448bf0	-0.0029990636
48	0xbcb963a5	-0.022630522
49	0xbb19d7b7	-0.0023474523
50	0xbb9123da	-0.0044293227
51	0xbc434424	-0.011918101
52	0x3b1981a7	0.0023423226
53	0x3b103f71	0.002201047
54	0x37575b60	1.28362735e-05
55	0xbb6ad1f5	-0.003583071
56	0xbbc59f15	-0.006030927
57	0xbc187ab7	-0.009306601
58	0xbc052255	-0.008125861
59	0x3b8347ac	0.0040063467
60	0x3bc58729	0.0060280752
61	0xbb9d5ecf	-0.004802562
62	0x3b49027f	0.0030671654
63	0x3c896893	0.016773498
64	0x3bd4aec7	0.0064905616
65	0x3c24eec7	0.010066695
66	0x3ca7c69b	0.020480445
67	0xbb01434b	-0.0019723948
68	0x3b9390cb	0.0045033447
69	0x3bd5a01b	0.00651933
70	0xba95a9c8	-0.0011418397
71	0xbc3dcf98	-0.011585139
72	0xbb91025b	-0.0044253296
73	0xbc1609eb	-0.009157638
74	0xbafdc64b	-0.0019361464
75	0xbb8af1b9	-0.0042402414
76	0xbc39e8cf	-0.01134701
77	0x3c0936e2	0.0083749015
78	0xbbca28ff	-0.006169438
79	0x3a52e3c0	0.00080448017
80	0x3bc8e5f5	0.0061309286
81	0x39e1c1aa	0.00043059635
82	0xbb1ed37f	-0.0024234948
83	0xbb3aebe2	-0.0028521945
84	0x3c829f02	0.015944961
85	0x3838097b	4.3877848e-05
86	0x3c12949b	0.008946563
87	0xbc007db5	-0.007842471
88	0x3bce560d	0.006296879
89	0x3c1ab11f	0.009441643
90	0x3b833d3b	0.004005102
91	0x3bddd74a	0.006770049
92	0xbc1c9840	-0.009557784
93	0xbb5a10d0	-0.0033274181
94	0x3ba3ed97	0.005002688
95	0x3b037c0e	0.0020062956
96	0x3c9c50a7	0.019081427
97	0xbbd81425	-0.0065941983
98	0x3bf61c52	0.0075107003
99	0xba71791a	-0.0009211466
100	0xb958c23b	-0.00020671722
101	0x3b169b89	0.002298089
102	0x3c6e4fc2	0.014545383
103	0xbbee07c8	-0.007264111
104	0x3ab163b3	0.0013533741
105	0xb9dfe5dd	-0.00042705136
106	0xbc8dddbc	-0.017317645
107	0xba925875	-0.0011165278
108	0xbca1cf6b	-0.019752225
109	0xbb128e2b	-0.002236257
110	0xbc20ec41	-0.009821952
111	0x3c163bcb	0.009169529
112	0x3bc248c7	0.005929086
113	0xbb58156b	-0.003297175
114	0x3b2735f0	0.0025514327
115	0xbb94b4c0	-0.0045381486
116	0x3a541367	0.00080900494
117	0xbb8c15af	-0.004275046
118	0x3ba2b1fa	0.004965064
119	0xbbe708e5	-0.007050621
120	0xbb946f23	-0.00452985
121	0x39cec2f5	0.00039436636
122	0xb7d34ad8	-2.5188012e-05
123	0xbb46cb7f	-0.0030333695
124	0xbac87505	-0.0015293664
125	0xbbec04c8	-0.0072027184
126	0x390de31e	0.00013531416
127	0x3c2d71d9	0.010586225
128	0x3b798a50	0.0038076825
129	0xbaf34c03	-0.0018562082
130	0x3c961377	0.018319828
131	0x3b8a9fb7	0.0042304653
132	0x3a8ac0bb	0.0010586003
133	0x3c6f975a	0.014623487
134	0x3c8bbc37	0.017057521
135	0x3c93fc97	0.01806478
136	0xbb4bacfc	-0.0031078449
137	0x3b75d578	0.003751127
138	0xbb372b43	-0.002794937
139	0xbc38631d	-0.011254099
140	0x3b4a889d	0.0030904182
141	0xbc359afc	-0.011084314
142	0x3bb0797d	0.0053855763
143	0xbc618015	-0.013763447
144	0xbb9a403b	-0.004707364
145	0x3c4f74cb	0.012662123
146	0xbbbd6d4f	-0.005780853
147	0xbb8250c4	-0.003976913
148	0x3af40dcb	0.0018619833
149	0xbc6f6a12	-0.0146126915
150	0xbbf5ca93	-0.0075009554
151	0x3b93bf34	0.004508877
152	0x3a9ce1d3	0.0011969156
153	0xbc1844c7	-0.009293742
154	0xbbdcc03b	-0.006736783
155	0xbc38afb4	-0.01127236
156	0xbc030597	-0.007996938
157	0xb9c85287	-0.0003820846
158	0x3c043100	0.008068323
159	0xb9c8ef53	-0.00038325283
160	0xbb4bb1db	-0.0031081352
161	0xbae3bbeb	-0.001737473
162	0x38bfa4ce	9.138287e-05
163	0x3ae26403	0.0017272237
164	0x3c594a75	0.013262381
165	0x3b18713e	0.0023260857
166	0xbb882477	-0.0041547376
167	0x3c455d48	0.012046166
168	0xbb7387b0	-0.0037159733
169	0xbc4fea43	-0.01269013
170	0xbb1ba902	-0.002375186
171	0xbb18754b	-0.0023263271
172	0xbc1a56c4	-0.009420101
173	0xbc351dbc	-0.0110544525
174	0xbb8391c2	-0.0040151784
175	0xbc0a4d21	-0.0084412405
176	0xbaed6a8f	-0.0018113422
177	0x3c0a3855	0.008436282
178	0x3ba28519	0.004959714
179	0x3cb16b13	0.021657502
180	0xbc22d537	-0.00993853
181	0x3bf01e50	0.0073278323
182	0xbb97f608	-0.0046374835
183	0x39e5d6d7	0.00043838352
184	0xbbb0aeda	-0.0053919377
185	0x3c0d4d37	0.0086243665
186	0xbb49d1c9	-0.0030795208
187	0xbbc36e7f	-0.0059641
188	0xbc84daef	-0.016217677
189	0x3b8fac5d	0.004384561
190	0x3c08b09e	0.00834289
191	0xba73f52b	-0.0009306247
192	0x3c208bb7	0.009798936
193	0x3c72af67	0.014812327
194	0xbb9499d4	-0.0045349393
195	0x3c32dcf6	0.010916939
196	0xbb2271ae	-0.0024786997
197	0x3b80fbb5	0.003936256
198	0xbc618920	-0.013765603
199	0xbb1b34ff	-0.0023682711
200	0xbc7d43b8	-0.01545804
201	0x3bd3322f	0.0064451913
202	0x3c8d62bc	0.017258994
203	0x3c2507a1	0.01007262
204	0xbc6c6742	-0.014428915
205	0x3b5258af	0.0032096317
206	0x3c6c3a6f	0.0144182285
207	0x3acf91da	0.0015836314
208	0x3bee88bb	0.007279483
209	0x3a10ad26	0.0005518965
210	0xbb059530	-0.0020383112
211	0x3c349964	0.011022899
212	0xbc3878da	-0.011259282
213	0xbb1ed712	-0.0024237079
214	0xbb960f98	-0.0045794956
215	0xbb42fcae	-0.002975266
216	0x3be74763	0.0070580705
217	0xba9079cb	-0.0011022625
218	0x3bae3ce9	0.0053173197
219	0xbb80d23c	-0.003931312
220	0xbb28ad4b	-0.0025738056
221	0x3b69b185	0.0035658788
222	0xbc2b6462	-0.010460945
223	0xbb4227f4	-0.0029625865
224	0x3b727278	0.0036994498
225	0x3c4587b7	0.012056283
226	0xbb7d3095	-0.0038633693
227	0xbc8dc149	-0.01730408
228	0x3c02e0ae	0.007988138
229	0x3c5c258b	0.013436685
230	0x3c8755ba	0.01652037
231	0x3c3a8545	0.011384313
232	0x3bdcf66d	0.0067432434
233	0xbc5954d2	-0.013264852
234	0x3c59e398	0.0132988915
235	0xbb59404a	-0.0033149892
236	0x3c3fc6e3	0.011705133
237	0x3c426617	0.01186516
238	0xbc5a2262	-0.013313862
239	0xbb1d2053	-0.0023975566
240	0xbb772aab	-0.003771464
241	0xbb83a492	-0.004017421
242	0x3c03c648	0.008042879
243	0x3b6c90c7	0.0036097036
244	0x3b2b3d5d	0.0026129105
245	0xbb353436	-0.0027649528
246	0xbb52a74f	-0.003214318
247	0xbb100842	-0.0021977578
248	0x3a66b2da	0.00088004547
249	0x3c7c4bff	0.015398978
250	0xbb0466b8	-0.0020202827
251	0xbbdff09d	-0.0068341033
252	0x3c3907e4	0.011293385
253	0xbc994ddd	-0.018713886
254	0x3c87b440	0.016565442
255	0x3c929014	0.017890967

action_model._discrete_distribution.branches.1.bias f4 [3]
0	0x00000000	0.0
1	0x00000000	0.0
2	0x00000000	0.0

network_body._body_endoder.seq_layers.0.weight f4 [128, 29]
0	0x3d7bcd80	0.061475277
1	0x3da3a7cb	0.07990988
2	0xbe5f8754	-0.21828967
3	0x3e48e0ab	0.19616954
4	0xbe0bf3e8	-0.13667262
5	0xbe0f819f	-0.1401429
6	0xbae551ff	-0.001749575
7	0xbdc3ba9c	-0.09557077
8	0xbd66b282	-0.056322582
9	0xbe7612ba	-0.24030581
10	0x3db9a6f4	0.09065047
11	0x3e51eb16	0.20499834
12	0xbe241a9b	-0.16025774
13	0x3e2c28a8	0.16812384
14	0x3e291d92	0.16515186
15	0xbd478751	-0.048713032
16	0xbe9ece79	-0.310169
17	0x3e76ba22	0.24094442
18	0xbe8716dc	-0.26384628
19	0x3d276433	0.04086704
20	0x3e8dcef0	0.27696943
21	0x3dbef20a	0.09323509
22	0xbe2be06d	-0.1678483
23	0xbd5e88e0	-0.054329753
24	0x3d3ec4d1	0.046574418
25	0x3de4580b	0.11149605
26	0xbdaa32d1	-0.08310474
27	0x3e1ee38b	0.15516488
28	0xbe9ebd55	-0.31003824
29	0x3e7ddbd0	0.24790883
30	0xbd98e8d2	-0.07466282
31	0x3c7ca45d	0.015420047
32	0xbdb3e1dc	-0.08783314
33	0x3e97984d	0.29608384
34	0x3e68a7e0	0.22720289
35	0xbe2970ee	-0.16546986
36	0xbe1b9c2c	-0.15196294
37	0x3e01880f	0.12649558
38	0xbe96e2c1	-0.29469875
39	0xbeae9c76	-0.34103745
40	0xbcfd5fbe	-0.030929442
41	0x3e8f3bd2	0.27975327
42	0x3e19676c	0.14980859
43	0x3e8f8715	0.28032747
44	0xbf0b9ae8	-0.54533243
45	0x3df35643	0.118816875
46	0xbd9c524e	-0.07632886
47	0xbc1ef7d8	-0.009702645
48	0x3ece134a	0.4024909
49	0x3e8f717e	0.28016275
50	0x3cc510f6	0.02405594
51	0x3c6670b7	0.014064959
52	0xbd211c23	-0.039333474
53	0x3ddc85f7	0.10767739
54	0x3d422220	0.047395825
55	0xbd3af1e1	-0.04564083
56	0xbe11b25c	-0.14228195
57	0x3cfb0b01	0.030644896
58	0xbede53b2	-0.4342323
59	0xbe814505	-0.2524797
60	0xbddcbf12	-0.10778631
61	0x3e848adc	0.2588719
62	0x3e70cee0	0.23516417
63	0x3e63ca4d	0.2224514
64	0x3d4ec91d	0.050484765
65	0xbcaf404d	-0.021392966
66	0xbe2b65e2	-0.16738084
67	0x3d96d4a9	0.073647805
68	0x3e2a254d	0.16615792
69	0x3eae4700	0.34038544
70	0xbe3c63ab	-0.18397395
71	0x3da67cac	0.08129248
72	0x3dfceac4	0.123494655
73	0x3e854375	0.26028028
74	0xbe0223d8	-0.12708986
75	0xbe8c7d89	-0.27439526
76	0x3ec33dcb	0.38133082
77	0x3d15b407	0.03654864
78	0xbe2c78f3	-0.16843013
79	0xbe42e74f	-0.1903355
80	0xbde5446c	-0.11194691
81	0x3e9199cb	0.28437647
82	0x3c9b2f6a	0.018943507
83	0xbc3972f9	-0.0113189155
84	0x3e47be1b	0.19506113
85	0xbd86cd43	-0.06582119
86	0x3eb243b6	0.34817284
87	0xbddf4f62	-0.10903813
88	0x3e698940	0.22806263
89	0x3cd5a9b7	0.026081903
90	0xbd01b7ea	-0.031669535
91	0x3ef1a5c0	0.4719677
92	0xbf172f6b	-0.5905673
93	0xbdb5846a	-0.088631466
94	0x3e8f3c23	0.27975568
95	0x3e2936a4	0.1652475
96	0xbe19fa9f	-0.1503701
97	0x3de24ae1	0.11049438
98	0xbc4d8871	-0.012544737
99	0xbd9a2e09	-0.07528312
100	0x3ddb39bb	0.107043706
101	0x3e41e5d6	0.18935332
102	0xbe331eca	-0.17492214
103	0xbe4ae2bb	-0.19813053
104	0x3d422799	0.047401045
105	0x3de97f81	0.114012726
106	0xbe242c18	-0.16032445
107	0x3e267716	0.16256365
108	0xbe84cdec	-0.25938356
109	0x3d86d19a	0.06582947
110	0x3e6e6ced	0.2328374
111	0xbd8bbace	-0.068227395
112	0xbe62d81d	-0.22152753
113	0x3e4bd27c	0.19904512
114	0xbd55ee0d	-0.052228976
115	0x3e9014ff	0.2814102
116	0xbd8b8be9	-0.06813795
117	0x3d11f7ff	0.035636898
118	0xbeb61c87	-0.3556864
119	0x3c1fb4b6	0.009747675
120	0x3ec5ea63	0.38655385
121	0x3e5623b5	0.20912059
122	0x3c869a47	0.016430987
123	0x3e0b9075	0.13629325
124	0x3cd33ccf	0.025785832
125	0x3cebe800	0.02879715
126	0xbd77b6f9	-0.06047723
127	0x3d51d4fc	0.05122851
128	0x3ca63389	0.020288246
129	0xbe8768e5	-0.26447216
130	0x3e7d0345	0.24708278
131	0xbdebd687	-0.11515527
132	0xbdf2172d	-0.11820827
133	0x3e4093c1	0.18806364
134	0xbbb1fc0b	-0.005431657
135	0x3d7f48cc	0.062325284
136	0x3ea39db0	0.31956244
137	0xbe62100a	-0.22076431
138	0xbdcb887e	-0.09938143
139	0xbd187307	-0.037219074
140	0xbdc29a9e	-0.09502147
141	0x3e196caa	0.14982858
142	0xbd625173	-0.055253457
143	0xbcd397d9	-0.025829243
144	0x3d74b6ce	0.05974465
145	0xbcceae93	-0.025229728
146	0x3e2dd0c1	0.16974165
147	0x3e714d42	0.23564628
148	0xbbcbca60	-0.0062191933
149	0xbe3f3f3e	-0.18676469
150	0x3e9f766c	0.31145036
151	0x3c730640	0.014833033
152	0x3de0b2b4	0.10971585
153	0xbed6b653	-0.41935977
154	0xbdde2893	-0.10847583
155	0x3e3cb082	0.18426707
156	0xbe019eb3	-0.12658195
157	0xbd22985b	-0.03969608
158	0xbe74886c	-0.23880166
159	0x3da99f30	0.08282316
160	0xbdd9c49d	-0.10633204
161	0xbdd70e67	-0.10500794
162	0xbe26f30d	-0.16303654
163	0x3e1445be	0.1447973
164	0x3b8b52ee	0.0042518293
165	0xbeea4bfe	-0.45761102
166	0x3f0823ef	0.5317983
167	0xbe4f2c28	-0.20231688
168	0xbebf4180	-0.3735466
169	0x3ea11090	0.3145795
170	0x3e858767	0.26079866
171	0xbbabc06e	-0.0052414453
172	0x3e04e435	0.12977679
173	0xbe560edb	-0.20904104
174	0x3ddfa461	0.10920025
175	0xbc48f019	-0.012264275
176	0x3d5631eb	0.0522937
177	0xbe9fd236	-0.31215066
178	0x3dd8712f	0.10568463
179	0xbde59e13	-0.11211791
180	0x3dde57e4	0.108566076
181	0x3d98b9ab	0.07457288
182	0x3e0936a2	0.13399747
183	0xbe3c2613	-0.18373899
184	0x3ce640e5	0.028107116
185	0x3dbb6b9e	0.09151386
186	0xbd6b037f	-0.05737638
187	0x3e816951	0.25275663
188	0xbcc70f15	-0.024299184
189	0x3dae34fb	0.08506199
190	0x3eb9eecc	0.36315
191	0xbc209455	-0.00980099
192	0x3ea9a77e	0.331356
193	0xbdf79b87	-0.12090211
194	0xbd9da715	-0.07697884
195	0x3da20461	0.079109915
196	0x3d220fe5	0.03956594
197	0xbcd61e1d	-0.026137406
198	0xbda59a2e	-0.08086048
199	0x3d08d55a	0.033406593
200	0xbdb187a3	-0.08668449
201	0xbd8bb327	-0.0682128
202	0xbec5a5d1	-0.3860307
203	0xbe4301b7	-0.19043623
204	0xbd90b4f1	-0.07065762
205	0x3c02ef3e	0.00799161
206	0x3e607f9f	0.21923684
207	0x3dc58406	0.09644322
208	0x3de4ccc1	0.11171866
209	0x3e834284	0.25636685
210	0x3d50b79b	0.05095635
211	0xbe2baffe	-0.16766354
212	0xbe1dc2e0	-0.1540637
213	0xbe355ee9	-0.17711987
214	0xbcbff903	-0.023434168
215	0xbe18fdec	-0.14940614
216	0xbd281f35	-0.041045386
217	0xbdd8f288	-0.10593134
218	0xbe834954	-0.25641882
219	0x3d126693	0.035742354
220	0xbdad90a9	-0.08474857
221	0x3dc87d0b	0.09789475
222	0x3e53e261	0.20691825
223	0xbc3262b1	-0.010887788
224	0x3c8e6fdd	0.017387325
225	0xbd7903c3	-0.060794603
226	0xbe93eac7	-0.28890058
227	0xbe1ef9fd	-0.1552505
228	0xbe08f275	-0.1337374
229	0x3db9fc4d	0.09081326
230	0xbd0359df	-0.03206813
231	0x3e252c08	0.16130078
232	0xbdc3d6b3	-0.09562435
233	0x3d3f5f91	0.046722
234	0x3c959e28	0.018263891
235	0x3e5b99b7	0.21445356
236	0xbe13ebd1	-0.14445426
237	0x3e386517	0.18007313
238	0xbdc4174e	-0.095747575
239	0x3e019e24	0.12657982
240	0xbe7e645a	-0.24842969
241	0xbd9f6114	-0.07782188
242	0x3d2637a4	0.040580407
243	0xbdf8dd12	-0.12151541
244	0x3e32a357	0.17445122
245	0xbdae458c	-0.08509359
246	0x3db0de81	0.08636189
247	0x3e313cc6	0.1730834
248	0x3eb07124	0.3446132
249	0x3eafd242	0.343401
250	0x3df2536a	0.11832316
251	0x3e51266e	0.20424816
252	0xbe3e0b75	-0.18559058
253	0xbd70147e	-0.058613293
254	0xbde5269a	-0.11189003
255	0xbb80f048	-0.0039348938

network_body._body_endoder.seq_layers.0.bias f4 [128]
0	0x00000000	0.0
1	0x00000000	0.0
2	0x00000000	0.0
3	0x00000000	0.0
4	0x00000000	0.0
5	0x00000000	0.0
6	0x00000000	0.0
7	0x00000000	0.0
8	0x00000000	0.0
9	0x00000000	0.0
10	0x00000000	0.0
11	0x00000000	0.0
12	0x00000000	0.0
13	0x00000000	0.0
14	0x00000000	0.0
15	0x00000000	0.0
16	0x00000000	0.0
17	0x00000000	0.0
18	0x00000000	0.0
19	0x00000000	0.0
20	0x00000000	0.0
21	0x00000000	0.0
22	0x00000000	0.0
23	0x00000000	0.0
24	0x00000000	0.0
25	0x00000000	0.0
26	0x00000000	0.0
27	0x00000000	0.0
28	0x00000000	0.0
29	0x00000000	0.0
30	0x00000000	0.0
31	0x00000000	0.0
32	0x00000000	0.0
33	0x00000000	0.0
34	0x00000000	0.0
35	0x00000000	0.0
36	0x00000000	0.0
37	0x00000000	0.0
38	0x00000000	0.0
39	0x00000000	0.0
40	0x00000000	0.0
41	0x00000000	0.0
42	0x00000000	0.0
43	0x00000000	0.0
44	0x00000000	0.0
45	0x00000000	0.0
46	0x00000000	0.0
47	0x00000000	0.0
48	0x00000000	0.0
49	0x00000000	0.0
50	0x00000000	0.0
51	0x00000000	0.0
52	0x00000000	0.0
53	0x00000000	0.0
54	0x00000000	0.0
55	0x00000000	0.0
56	0x00000000	0.0
57	0x00000000	0.0
58	0x00000000	0.0
59	0x00000000	0.0
60	0x00000000	0.0
61	0x00000000	0.0
62	0x00000000	0.0
63	0x00000000	0.0
64	0x00000000	0.0
65	0x00000000	0.0
66	0x00000000	0.0
67	0x00000000	0.0
68	0x00000000	0.0
69	0x00000000	0.0
70	0x00000000	0.0
71	0x00000000	0.0
72	0x00000000	0.0
73	0x00000000	0.0
74	0x00000000	0.0
75	0x00000000	0.0
76	0x00000000	0.0
77	0x00000000	0.0
78	0x00000000	0.0
79	0x00000000	0.0
80	0x00000000	0.0
81	0x00000000	0.0
82	0x00000000	0.0
83	0x00000000	0.0
84	0x00000000	0.0
85	0x00000000	0.0
86	0x00000000	0.0
87	0x00000000	0.0
88	0x00000000	0.0
89	0x00000000	0.0
90	0x00000000	0.0
91	0x00000000	0.0
92	0x00000000	0.0
93	0x00000000	0.0
94	0x00000000	0.0
95	0x00000000	0.0
96	0x00000000	0.0
97	0x00000000	0.0
98	0x00000000	0.0
99	0x00000000	0.0
100	0x00000000	0.0
101	0x00000000	0.0
102	0x00000000	0.0
103	0x00000000	0.0
104	0x00000000	0.0
105	0x00000000	0.0
106	0x00000000	0.0
107	0x00000000	0.0
108	0x00000000	0.0
109	0x00000000	0.0
110	0x00000000	0.0
111	0x00000000	0.0
112	0x00000000	0.0
113	0x00000000	0.0
114	0x00000000	0.0
115	0x00000000	0.0
116	0x00000000	0.0
117	0x00000000	0.0
118	0x00000000	0.0
119	0x00000000	0.0
120	0x00000000	0.0
121	0x00000000	0.0
122	0x00000000	0.0
123	0x00000000	0.0
124	0x00000000	0.0
125	0x00000000	0.0
126	0x00000000	0.0
127	0x00000000	0.0

network_body._body_endoder.seq_layers.2.weight f4 [128, 128]
0	0x3cd8d29f	0.02646762
1	0x3a92b72d	0.0011193507
2	0x3d2c7096	0.042099558
3	0xbde91b1c	-0.11382124
4	0xbd6ff47b	-0.058582764
5	0xbd28710b	-0.04112343
6	0x3d656b59	0.056010578
7	0xbe81cab1	-0.25349954
8	0xbc60bfc1	-0.013717593
9	0xbdcc7920	-0.0998404
10	0x3dd70da7	0.10500651
11	0x3c81e486	0.015856039
12	0x3daf923f	0.08572816
13	0xbe142f49	-0.14471163
14	0xbe7754b2	-0.24153402
15	0x3ce6e37a	0.028184641
16	0x3e006be0	0.12541151
17	0xbdeb47b7	-0.11488288
18	0x3c3c48fe	0.011492012
19	0x3e2a8108	0.16650784
20	0xbdc61862	-0.096726194
21	0x3dd724fd	0.10505102
22	0xbe118297	-0.14209972
23	0xbc7712cd	-0.015080166
24	0x3d8ce2bf	0.06879186
25	0x3d1d4d7d	0.038403977
26	0xbbdea841	-0.00679496
27	0xbd8835a4	-0.06650856
28	0xbd6deb14	-0.058085516
29	0x3cfb634c	0.030686997
30	0xbe469d48	-0.19395936
31	0xbd163223	-0.036668908
32	0x3c35ed94	0.011104006
33	0x3d9026cf	0.07038652
34	0xbdec8fe2	-0.11550881
35	0x3e086248	0.13318741
36	0xbd9869ce	-0.07442056
37	0xbe0675a2	-0.13130811
38	0xbde36f96	-0.11105268
39	0xbcac3d14	-0.021025218
40	0xbd8c474a	-0.06849535
41	0x3e1fc986	0.15604219
42	0xbe4dbb45	-0.20090969
43	0x3e02b768	0.12765276
44	0xbdf67d49	-0.12035615
45	0xbcea5a01	-0.02860737
46	0x3df9220f	0.12164699
47	0x3d0eefe6	0.034896754
48	0xbd5ff6ea	-0.054678835
49	0x3b137872	0.002250221
50	0x3d00c884	0.031441227
51	0xbd6e7855	-0.058220226
52	0x3d8b775b	0.068098746
53	0x3b0dd2b9	0.0021640493
54	0x3da7134d	0.08157978
55	0x3c1c8132	0.009552287
56	0xbb9899ff	-0.0046570296
57	0xbe6958d7	-0.22787796
58	0xbce26c77	-0.02763961
59	0x3cbcf094	0.023063935
60	0x3d9996ce	0.07499467
61	0xba48e0f0	-0.0007662913
62	0xbc38c7d4	-0.0112781115
63	0x3d1f407e	0.038879864
64	0xbdac8cf6	-0.08425324
65	0x3dd72672	0.1050538
66	0x3e265e8a	0.16247001
67	0xbd753cd3	-0.05987246
68	0xbdc3f519	-0.09568233
69	0x3c389c84	0.011267785
70	0xbc6df22c	-0.01452307
71	0x3d9dffe2	0.077148214
72	0x3def6c32	0.116905585
73	0xbd29b8a5	-0.041435856
74	0xbe19e290	-0.15027833
75	0x3d510acc	0.051035687
76	0x3cd758fa	0.026287545
77	0x3c9afb30	0.018918604
78	0xbe61486b	-0.22000282
79	0xbc1331eb	-0.008984069
80	0xbda8847b	-0.08228394
81	0x3df2fcd8	0.11864632
82	0x3e788205	0.24268349
83	0xbda25719	-0.07926769
84	0x3b38ccae	0.002819817
85	0xbc5678ab	-0.013090293
86	0x3e1a57c9	0.1507255
87	0xbd8e90d3	-0.06961217
88	0xbcb437c5	-0.02199925
89	0xbd3de808	-0.04636386
90	0x3bfc453a	0.007698682
91	0xbc373ac3	-0.0111834435
92	0xbcd34974	-0.025791861
93	0xbd64b130	-0.05583304
94	0x3d58d409	0.052936587
95	0x3dca454c	0.098764986
96	0xbe416d1d	-0.1888928
97	0xbd55e588	-0.05222085
98	0x3dd1406d	0.10217366
99	0xbda7ab11	-0.08186925
100	0x3e3df694	0.18551093
101	0xbc50fb84	-0.0127552785
102	0xbd83b0fc	-0.064302415
103	0xb82072f4	-3.825403e-05
104	0x3beea397	0.007282685
105	0xbdde835a	-0.10864897
106	0x3da8f375	0.08249561
107	0x3c548b18	0.012972616
108	0x3d00cec4	0.031447187
109	0x3d69fe35	0.057127196
110	0x3e1660a6	0.14685306
111	0x3d8ecbc1	0.06972457
112	0xbbc75f64	-0.0060843695
113	0x3d074efe	0.033034317
114	0xbe1d7b57	-0.15379082
115	0xbb9fff8b	-0.004882758
116	0x3daecce4	0.085351735
117	0xbe30486d	-0.17215128
118	0x3c59dd81	0.01329744
119	0xbd906380	-0.07050228
120	0x3da006cc	0.078137964
121	0xbb915708	-0.0044354238
122	0xbe380fc3	-0.17974763
123	0xbdba8819	-0.0910799
124	0xbd84e6e0	-0.064893484
125	0xbc2b9cc4	-0.010474388
126	0xbdc83356	-0.097754166
127	0xbb5e5d3a	-0.003393008
128	0x3d98814e	0.07446538
129	0x3d861450	0.06546843
130	0xbe1043a6	-0.14088306
131	0xbd693985	-0.05693962
132	0xbe24201c	-0.16027874
133	0x3e287db1	0.16454197
134	0xbd9eab09	-0.07747466
135	0x3dd9f3de	0.10642217
136	0x3dc868b3	0.09785595
137	0x3db1b1fb	0.08676525
138	0x3b0c0cc6	0.0021369918
139	0xbbbb0f75	-0.0057086297
140	0x3dc7c888	0.09755045
141	0xbd73346a	-0.059376158
142	0xbbddeefe	-0.006772875
143	0x3e2739ec	0.16330689
144	0x3d29c777	0.04144999
145	0xbc5a2870	-0.013315305
146	0xbdf098eb	-0.11747917
147	0xbc688415	-0.014191647
148	0x3d67cd2a	0.056592144
149	0x3d8f3da0	0.06994176
150	0xbda6380e	-0.0811616
151	0x3d36c421	0.044620637
152	0xbc9fb144	-0.019493707
153	0x3cf2ad89	0.029623764
154	0x3e05c308	0.1306268
155	0x3cab0586	0.020876657
156	0xbd4cf895	-0.050041754
157	0xbdcaa357	-0.09894436
158	0x3ddce503	0.10785868
159	0x3dc563fe	0.096382126
160	0xbd94773a	-0.07249303
161	0xbe0de86b	-0.13858192
162	0x3d3dd17e	0.046342365
163	0xbe4a1b28	-0.19736922
164	0xbd4d7b54	-0.050166443
165	0xbd836086	-0.06414895
166	0xbdd5a824	-0.10432461
167	0x3d57c1ef	0.052675184
168	0x3c6acf38	0.014331631
169	0x3d9bb767	0.076033406
170	0xbe37a094	-0.1793235
171	0x3d0c6bba	0.034282424
172	0x3d81db3e	0.06340645
173	0xbd00ec7d	-0.031475533
174	0x3da723db	0.08161136
175	0x3ddac2dd	0.106816985
176	0x3e317911	0.1733134
177	0xbd86adfd	-0.065761544
178	0xbd1567a5	-0.036475796
179	0xbc44b446	-0.012005871
180	0xbd5dd58a	-0.054158725
181	0xbe0813c3	-0.13288788
182	0xbe3c8979	-0.18411817
183	0xbcce4f1f	-0.025184212
184	0xbe10a31e	-0.14124724
185	0x3e060609	0.1308824
186	0xbc7fa8c9	-0.015604206
187	0x3db7f7a0	0.089827776
188	0x3e8e50d9	0.27796057
189	0x3e740c7b	0.23832886
190	0x3ccad1a8	0.024758175
191	0x3ca9aaf5	0.020711401
192	0x3d77f761	0.060538653
193	0xbc8930b3	-0.016746854
194	0xbaaf233d	-0.0013361942
195	0x3da09ae5	0.07842044
196	0x3ca69bfc	0.020338051
197	0x3d10ac1e	0.035320394
198	0x3c552c3f	0.013011037
199	0x3da53eaf	0.080685966
200	0xbc3f6373	-0.011681425
201	0xbc1876b0	-0.009305641
202	0xbd2c654f	-0.042088803
203	0xbe1860f1	-0.1488073
204	0x3dbcf888	0.09227091
205	0x3dd589f9	0.10426707
206	0xbb5ed59d	-0.0034001835
207	0x3d89b48f	0.06723892
208	0xbc93744a	-0.017999787
209	0xbe51e5e6	-0.20497856
210	0xbdd23249	-0.102634974
211	0x3c88d622	0.016703669
212	0x3d1cf390	0.038318217
213	0xbe3e42cf	-0.18580173
214	0x3c29e5f2	0.010369765
215	0xbe53be35	-0.20678027
216	0x3e01351d	0.12617917
217	0xbd4f4267	-0.050600436
218	0xbdb3174e	-0.087446794
219	0xbc671073	-0.014103043
220	0x3d54ba0b	0.051935237
221	0x3db4e988	0.08833605
222	0x3d56bec4	0.052428022
223	0x3ce2700a	0.027641315
224	0x3c927953	0.017880118
225	0xbc69b012	-0.01426317
226	0x3d578b9b	0.052623373
227	0x3c29a032	0.010353135
228	0x391fd46b	0.00015242553
229	0x3dc7375a	0.09727354
230	0x3e47e7ed	0.19522066
231	0xbdf26dac	-0.118373245
232	0xbd73cdb1	-0.059522334
233	0xbdc27f39	-0.09496922
234	0x3e1315ea	0.14363828
235	0xbdab46aa	-0.083630875
236	0x3d025051	0.031814877
237	0xbcf453c1	-0.029825093
238	0xbc84e8aa	-0.016224224
239	0x3d2e552c	0.042561695
240	0x3cb4bc2d	0.022062385
241	0xbe0e537d	-0.13899036
242	0x3dd3a7a1	0.10334707
243	0x3c74f6e0	0.014951438
244	0xbd1a49c3	-0.037668
245	0x3cf05027	0.029335095
246	0x3c88cd9f	0.01669961
247	0x3dfc6b77	0.12325185
248	0x3d037663	0.032095324
249	0xbde0bef9	-0.10973925
250	0x3e38d31e	0.18049285
251	0x3dac5870	0.084153056
252	0x3df9f3f7	0.12204736
253	0x3c044dae	0.008075161
254	0x3de92489	0.11383922
255	0x3c921610	0.017832786
