results/PruebaCircuitoCompleto2/AgenteCoche/AgenteCoche-73178.onnx (onnx, 84964 bytes, 7 tensors)

action_model._continuous_distribution.log_sigma f4 [1, 2]
000000 49 f0 88 bd c4 2c 56 bd
       -0.06686456 -0.052288786

action_model._continuous_distribution.mu.bias f4 [2]
000000 b3 16 c7 bb 46 29 a7 3c
       -0.006075704 0.020405423

action_model._continuous_distribution.mu.weight f4 [2, 128]
000000 cf bf b3 3b 9b 29 ea 3a 65 40 ca 3c 31 65 86 bc
       0.005485512 0.0017865183 0.024688909 -0.016405674
000010 ac 90 7d 3b 62 bc 83 3a 9e ba 04 bd 16 92 c5 bb
       0.0038690967 0.0010050649 -0.032404535 -0.0060293777
000020 52 11 87 ba b2 cc 0f 3c 00 7a 01 bc 03 43 8f 3a
       -0.0010304844 0.0087768305 -0.007902622 0.0010930005
000030 7f 95 e4 3b 5b b6 ce bb 3e 55 a0 bc 1e ed 17 3d
       0.006975829 -0.0063083596 -0.019571897 0.037091367
000040 b3 93 30 3c 1a 95 96 bb 4b 3c 35 bc 7a a8 a9 3b
       0.010777402 -0.004595411 -0.011061738 0.0051775547
000050 3a fb aa 3c 86 22 e2 3b e1 96 95 3b a1 b4 57 3b
       0.020871747 0.006901088 0.0045651053 0.003291406
000060 ea 72 70 3b 9e e8 0a 3b 4d 74 37 3c e8 43 db 3c
       0.0036689588 0.002119578 0.011197162 0.026765779
000070 dc e0 97 3c 8e 62 48 bd b7 76 a0 3c c7 e8 5a bb
       0.018539838 -0.048922114 0.019587858 -0.0033402906
000080 c7 dc 6b bc 61 bd a1 bb 25 0b c2 bb 36 7e 9a 3b
       -0.014395899 -0.004935906 -0.0059217387 0.0047147525
000090 16 ff 17 3b 04 22 26 bb ac 95 81 3c bb ed 2e bc
       0.0023192815 -0.0025349865 0.01581844 -0.010676797
0000a0 f8 6e 10 bc 3a 1a 6a 3c f9 46 84 bb 8c ca 1d 3d
       -0.0088155195 0.014288479 -0.004036781 0.038523242
0000b0 75 6c 20 3c 9a c4 f2 3b 87 eb 6d bb ff ed 2b bd
       0.009791483 0.0074086906 -0.0036303715 -0.041975018
0000c0 dc 3e 85 bc 77 5f b0 3c b7 80 2f 3d 2d 91 45 3b
       -0.016265325 0.021529896 0.04284736 0.0030146346
0000d0 a1 87 bf 3b 9c cc f0 3c 79 36 0b 3c d5 7b 47 ba
       0.0058450256 0.02939444 0.008496874 -0.00076097
0000e0 b5 0c 0a bd 01 45 e1 ba 94 09 eb ba c4 53 3c bc
       -0.033703525 -0.0017186702 -0.0017931932 -0.011494581
0000f0 c7 60 37 bb 29 1d f4 bb 82 13 02 3c 02 f8 e8 3b
       -0.0027981268 -0.007449765 0.007939221 0.007109643
000100 ad fa ea bb 43 09 88 bc 52 f8 e5 bb 4a c4 01 3c
       -0.007170996 -0.016605979 -0.0070181275 0.007920334
000110 35 dd 45 3c 5f db bf bb 37 5e 35 bd 85 10 89 3c
       0.012076666 -0.0058550085 -0.044279303 0.01673151
000120 7d 9c 29 bc e7 23 94 bc 74 03 c8 bc 49 27 90 bc
       -0.010352251 -0.018083526 -0.02441571 -0.017596858
000130 9e 9c f2 3b 61 d9 48 3b 1f 1a 61 bc 3f 73 0e bc
       0.007403924 0.0030647146 -0.013739138 -0.008694469
000140 85 8b 6c 3b d7 b4 a1 3c e7 07 c6 3c 38 7c 0c 3b
       0.0036093902 0.019739551 0.02417369 0.0021436345
000150 bd de 0f 3b 3d fa 8d 3b 31 17 93 bb 4a 4f e4 bb
       0.002195283 0.0043328092 -0.0044888486 -0.00696746
000160 0c 7d 28 3c 25 44 2a bd d8 8e 03 3a 39 0a 2a 3d
       0.01028372 -0.041568894 0.0005018539 0.041513655
000170 24 1a df bc c7 c0 c9 3c 89 83 c5 3c f5 c0 f9 bb
       -0.027234145 0.024628056 0.024110572 -0.007621879
000180 25 75 d1 bc 60 8e b4 bb 90 9d 69 bb 21 63 ca 3b
       -0.025568554 -0.0055101365 -0.0035646893 0.006176368
000190 53 e9 19 bc 73 43 bb bc c4 c1 b8 bb 0e 4c 9a 3b
       -0.009394008 -0.02285931 -0.005638333 0.0047087735
0001a0 19 c3 a5 3c 70 2d 12 3d bd f0 a6 bc 85 5e 89 bb
       0.020234631 0.035687864 -0.020378465 -0.004192176
0001b0 41 00 82 3b 75 a3 25 bd 6f 9e e5 3c 60 9b bd ba
       0.0039673154 -0.040439088 0.028029649 -0.0014465861
0001c0 4b f9 51 bb 1d 13 5f bc d8 40 b8 3c aa ca 04 bc
       -0.003203946 -0.013615397 0.022491857 -0.0081049595
0001d0 a3 75 bc bc c2 bc 85 3a ec e2 18 3c c8 3c fe 3b
       -0.023005312 0.0010203349 0.009331446 0.0077587105
0001e0 15 d3 1f 3a 1c b2 4b 3c 01 da 91 3c eb 74 3c bc
       0.00060968223 0.012432601 0.017804148 -0.011502485
0001f0 b6 65 68 bc 15 9b ed 3b d6 15 77 bc 82 11 63 bb
       -0.014184406 0.0072511532 -0.01508089 -0.0034647887
000200 8f 02 38 3d a0 f3 92 3c 23 0d 4a 3c ed 5f 48 bc
       0.044924315 0.017938435 0.012332234 -0.012229902
000210 ce 88 a6 bc 15 dd 05 3c 79 cb df bc 86 10 e8 ba
       -0.020328905 0.008170386 -0.027318703 -0.001770512
000220 e7 25 aa bb cc 82 0f bd bd 20 ab 3b d3 91 27 bd
       -0.0051925066 -0.035036847 0.0052224086 -0.040910553
000230 44 50 9e bc b0 cf c4 bc 03 0a 23 bd ad ff fb bb
       -0.019325383 -0.024024814 -0.03980447 -0.007690391
000240 e1 08 2e 3d ca 68 58 bc 7f 44 75 bb d9 db db bb
       0.042488936 -0.013208577 -0.003742486 -0.0067095575
000250 11 c3 79 bd 7c 94 98 3c 78 bb f9 3c 91 36 87 bc
       -0.060977045 0.01862549 0.0304849 -0.016505511
000260 a6 30 81 3a 38 fd be bc e1 c8 e2 bc 88 fd 1f bc
       0.0009856417 -0.023314103 -0.027683677 -0.009765036
000270 5f 59 1b bc b6 5c 3a bc 05 eb 0b bc c2 00 bb 3b
       -0.009481757 -0.011374643 -0.00853992 0.0057068774
000280 11 4a f7 bc 0a ca 86 3a c7 85 99 3c a8 e6 4b b7
       -0.030186685 0.0010283601 0.018740548 -1.2153447e-05
000290 cd 65 50 bd 99 d3 08 bd a8 82 fe bc 56 df b7 3c
       -0.050878335 -0.03340492 -0.031068161 0.022445362
0002a0 7d 6a 0f 3d f9 0a 06 3d a9 d5 1b bc 65 97 ec 3b
       0.035013665 0.032725308 -0.00951139 0.007220196
0002b0 a0 6e ce bc cd e5 b3 3c 6e e4 6b bd 58 1d 62 3c
       -0.025199234 0.021960163 -0.057590894 0.013800941
0002c0 3d 7a 9f bc 62 2b 4d 3c 95 94 0f bd ba 68 04 bc
       -0.019467467 0.01252255 -0.03505381 -0.008081609
0002d0 a5 06 08 3c 4c b7 24 bd be be 7b 3c 5b 35 84 3c
       0.008302365 -0.040213868 0.015365301 0.016138723
0002e0 e9 c1 96 bc 47 62 13 3c 82 80 e0 bb 13 c2 43 bc
       -0.01840301 0.008995599 -0.006851257 -0.011948126
0002f0 66 17 14 3d d0 6a 02 bd 0d 73 60 bb be bc 88 b9
       0.036155127 -0.031840146 -0.0034248263 -0.00026080565
000300 28 63 72 3d a3 2a ba bc bd cd f0 3c 63 fc c9 3c
       0.059176594 -0.022725409 0.029394979 0.02465648
000310 c8 ee 46 3c 22 80 32 bd d4 e1 44 3c 4d d9 a7 bc
       0.012141891 -0.04357923 0.012016732 -0.02048936
000320 71 ad d8 bc 4d 28 2e bd 29 79 73 3d f3 fa 11 3d
       -0.02644989 -0.042518903 0.05944172 0.035639714
000330 aa c9 55 bc 5c d7 cb bc 5b 93 71 3c b1 d7 5a bd
       -0.013048569 -0.024882965 0.014744605 -0.053428356
000340 13 76 35 bd 0c 29 19 bd 86 6b 2a 3d 83 ba d5 3b
       -0.044302057 -0.03739266 0.04160645 0.006522478
000350 fa 21 3e bb f7 88 87 b9 2f 18 3b bd 96 8c 20 3c
       -0.002901195 -0.00025851253 -0.04567736 0.009799143
000360 0a 9f 08 bd a1 43 ab bc 29 1c 97 39 0f ea 5e bd
       -0.033354796 -0.020906271 0.00028821945 -0.054422434
000370 07 47 df bb 32 a5 fd bc 1e da 5b 3b 91 7b bc 3c
       -0.006813887 -0.03096256 0.0033546756 0.02300814
000380 cf 2a 0f 3c d7 4f ff 3a 62 ea 20 3b 02 1c 9d 3b
       0.008738234 0.001947875 0.0024553766 0.0047945986
000390 61 91 67 bc d7 c2 8e 3c c6 23 35 bd da af 97 3b
       -0.014133782 0.017426891 -0.04422357 0.0046291174
0003a0 13 08 5b 3c 44 ba f1 bb 0d 09 9d 3c d9 a6 20 bd
       0.013368624 -0.007376941 0.019169355 -0.03922162
0003b0 59 df 22 bd 66 17 d5 3b b9 b7 c4 bc 1e 2f 89 bb
       -0.039763782 0.0065030335 -0.024013387 -0.004186525
0003c0 6a 71 03 3d 68 2a d9 bc b2 81 0c bc e5 da 91 bc
       0.032090582 -0.026509479 -0.008575844 -0.017804572
0003d0 ec a4 00 3c cc b3 01 3c 9a 23 6c bc 26 8f 4c 3d
       0.00785182 0.007916402 -0.014412785 0.049941204
0003e0 96 55 c0 3c b9 7c 71 3b fc 68 27 3c 38 0e 68 3c
       0.02347831 0.0036848022 0.010217901 0.014163546
0003f0 36 e2 7d 3d fe b8 b4 bb bc e3 35 bc a5 27 05 bd
       0.06198331 -0.005515217 -0.011101659 -0.03250851

network_body._body_endoder.seq_layers.0.bias f4 [128]
000000 8b a1 4a 3c 2a a0 97 bb 77 2b 22 ba 4f c1 e7 3a
       0.012367616 -0.0046272473 -0.00061862863 0.0017681512
000010 14 0d 7e bc b3 6f 10 3b 34 08 03 bb 20 a8 53 3c
       -0.015506048 0.0022039234 -0.0019993903 0.012918502
000020 a7 7f 9b 3c e2 97 8c 3c 89 46 23 3c 26 a2 46 3c
       0.018981768 0.017162267 0.009965547 0.01212362
000030 31 09 1e 3a e2 f2 8a bc 04 50 b5 3c 98 57 dc bb
       0.00060285913 -0.016961519 0.022132881 -0.006724309
000040 5a 89 c1 bb f6 f6 77 3c d7 38 65 bc d0 06 ff bb
       -0.005906266 0.015134564 -0.013990602 -0.0077827945
000050 b2 a4 a8 bb df fa 4a 3c 4a 5c 51 3c 38 45 d4 3c
       -0.0051465863 0.012388914 0.012778351 0.025911912
000060 f8 3b 4e bc b7 df 0c bd 01 6e 76 bc b6 16 b0 bc
       -0.01258754 -0.03439304 -0.015040875 -0.021495204
000070 fe 4a c4 3a 56 de 4b bc bc 6a 2a 3c 0f ea 59 3b
       0.0014975963 -0.012443146 0.010401424 0.0033251082
000080 b8 5e 9f ba 72 1c 83 bb 3d 33 55 3a 39 8a 09 3c
       -0.0012158966 -0.0040011937 0.000813294 0.008394771
000090 87 6d 69 3c 1a 73 11 3c 71 6f c5 3b 36 fc da bc
       0.014247305 0.00887754 0.0060252477 -0.026731592
0000a0 92 4a 58 3c ea 9e 4a bc c8 30 68 3c 15 89 98 3b
       0.013201373 -0.01236699 0.014171787 0.0046550133
0000b0 81 e8 61 bc 02 4e 82 3c ce 91 74 bc 63 67 0c 3d
       -0.013788343 0.015906338 -0.014927341 0.034278285
0000c0 ea 1f 73 3c 4a 6d 88 bc 79 93 76 3c a0 ba eb 3b
       0.014839152 -0.016653676 0.015049809 0.0071938783
0000d0 7c 8d ed bb d1 58 b2 bc 2a 47 9d ba 4f c4 92 bc
       -0.0072495323 -0.021770867 -0.0011999358 -0.017915873
0000e0 65 6c ab 3c be ef 18 bc 88 03 a8 bc 8a 80 c2 3c
       0.02092571 -0.009334503 -0.020509496 0.023742933
0000f0 48 e6 a4 bb 3b b5 8f 3c ab 71 4c bc 7a 02 52 b8
       -0.0050323345 0.017542472 -0.012478272 -5.0070208e-05
000100 c2 ab 8e bb 61 d1 9c 3c 4a f3 9f bc 5c fe 05 bd
       -0.004353971 0.019142808 -0.019525189 -0.03271328
000110 1c f7 3c 3c d8 06 e0 bb 20 16 c4 3b 0c 95 bb bc
       0.011533525 -0.0068367533 0.005984083 -0.02289822
000120 9a 57 15 3c bb 0c dd bc 29 06 4c bc e2 a0 23 3d
       0.009115124 -0.02698361 -0.012452641 0.03994835
000130 58 ea 34 bc b7 22 6f 3c ed 46 b1 bc cb c8 8a 3c
       -0.0110422 0.014595679 -0.021640265 0.016941449
000140 93 76 99 3b 5f ea cc 3b ca 8a ca 3b 75 9f bc bb
       0.0046833246 0.006253525 0.0061810957 -0.0057563134
000150 30 2b 93 38 9a bf bb bc ac 37 b5 3c f9 a8 70 3a
       7.0175505e-05 -0.022918511 0.022121273 0.00091804523
000160 b9 0f a4 ba db d9 99 3b 98 d0 a0 bb f2 73 e8 38
       -0.0012516893 0.00469516 -0.004907679 0.000110842186
000170 48 be 93 bb cb 1c ef bb 96 66 cb bc 3c b5 30 bc
       -0.0045087673 -0.0072971336 -0.02482919 -0.010785397
000180 69 09 b4 3c 47 e8 b3 3b 18 18 15 3c b2 23 bb bc
       0.021977143 0.005490336 0.009099983 -0.02284417
000190 9f d8 96 3c 3e f6 3a bb 5a 98 ca bc 14 a7 cb bc
       0.01841384 -0.002852812 -0.02473085 -0.024859942
0001a0 bf ac 55 3c d7 76 aa 3c 8a 98 c4 3b 69 a6 bc bc
       0.013041674 0.02080862 0.0059996294 -0.02302857
0001b0 48 55 4d 3c 7c 14 20 3c c6 f4 c7 3b 5c b8 94 bc
       0.01253254 0.009770509 0.0061021773 -0.018154316
0001c0 65 53 6e 3c cb a4 00 3d 0e a0 80 3c 05 48 19 bc
       0.01454625 0.03140716 0.01570132 -0.00935555
0001d0 e3 e2 4d 3c 31 cc 04 bc 14 8a a5 bb 3d dc 6a 3c
       0.012566301 -0.008105324 -0.0050518606 0.014334735
0001e0 4d 51 bb bc b9 10 d0 bc ba fd 9a bc 9c ab a6 3c
       -0.022865916 -0.025398599 -0.018919814 0.020345502
0001f0 71 f2 e3 bc 7e 21 01 bb 24 36 e9 bc 5b 98 31 bc
       -0.027825566 -0.00197038 -0.0284682 -0.010839547

network_body._body_endoder.seq_layers.0.weight f4 [128, 30]
000000 39 0c a5 be 02 d9 48 3e 1b 38 a7 3d 84 97 87 3e
       -0.32235888 0.19614032 0.08164998 0.26482785
000010 ba f3 46 be 6b f4 81 bd 4b 83 3e 3e f6 a5 44 3e
       -0.19428912 -0.06345447 0.18604772 0.19203934
000020 5d c0 ba 3e 47 8b ef 3d 18 78 d7 bd fe d2 c3 3c
       0.36474887 0.11696487 -0.10520953 0.02390432
000030 bb d3 8c be 1d f6 9b bc c0 f7 48 3e 48 b9 ec bb
       -0.27505288 -0.019038254 0.19625759 -0.0072242357
000040 50 fb 4b be c6 3e ed bd 44 dc de be e7 c8 55 bc
       -0.19920087 -0.11584239 -0.43527424 -0.013048387
000050 6c 8f c9 bc 78 e8 d3 bd 49 cf 14 3d b5 93 3e be
       -0.024604522 -0.10347074 0.036330495 -0.18611033
000060 dd d8 1e be ef 48 a2 3e 8b af 7a 3e 72 40 79 3d
       -0.15512414 0.3169627 0.24481027 0.060852475
000070 2e ae a0 3e 89 04 9e be cf 82 a9 bd b3 88 8f 3e
       0.3138289 -0.30862835 -0.08276903 0.2803398
000080 a1 0e ce bc dd bc 78 3d 84 c9 f8 bc c9 55 73 3d
       -0.02515346 0.06072699 -0.030369528 0.059407983
000090 7d 26 4e be fc 4a df bd 72 69 5f 3e 64 b1 1c 3e
       -0.2013187 -0.10902974 0.21817568 0.15302044
0000a0 38 c7 50 bd 0b 4c 3b be fc b5 2e 3e 26 b7 01 be
       -0.05097124 -0.18290727 0.17061609 -0.12667522
0000b0 30 60 d3 3e 60 3c c0 be 91 72 89 3e c3 b4 f2 3d
       0.41284323 -0.37546062 0.2684522 0.11850884
0000c0 94 ce a4 be b7 d2 2f be e2 e3 26 3f eb 2f 2e 3e
       -0.32188857 -0.17170225 0.6519147 0.17010467
0000d0 2a 07 b7 3e b8 02 ad be 2f 8d 40 be f6 15 8c be
       0.35747653 -0.33791137 -0.18803857 -0.27360505
0000e0 21 c9 93 3e d0 97 5c be ea 45 01 be ad 1a ed 3c
       0.28864387 -0.21542287 -0.12624326 0.028943384
0000f0 5c 83 b4 3d 38 ed ad bd aa f1 c1 3c 11 14 c7 be
       0.08814117 -0.084925115 0.023674805 -0.38882497
000100 8d 4d 94 bd b7 5a a9 3c be f7 03 3d f0 67 0d 3d
       -0.07241354 0.020673139 0.032218687 0.03452295
000110 78 fb 09 bd 2d 99 5a be d6 68 67 bc 99 24 3b be
       -0.033687085 -0.21347494 -0.014124116 -0.1827568
000120 ba d5 15 bd d9 09 53 3d 0b 6c 51 be 20 3a 16 3d
       -0.03658078 0.051523063 -0.20451371 0.036676526
000130 82 0c 9b bd 02 3d 9a 3e 12 5f 31 3d 1a cf 93 bd
       -0.07570745 0.3012467 0.043303557 -0.07217236
000140 55 a2 34 3d 87 47 1d 3d 1f 55 1d be 34 da 9a bd
       0.044100124 0.038398292 -0.15364502 -0.0756115
000150 c3 e6 28 be 86 86 69 be 08 ae e6 be 1f e5 76 3e
       -0.16494279 -0.22805223 -0.4505465 0.2411084
000160 61 6b 8a 3d c6 72 81 be 9e fc 2e be ed 77 6f be
       0.06758762 -0.25282878 -0.17088553 -0.23385592
000170 92 08 bd bd fc 97 24 3e 69 af c7 3d 20 d1 b2 3e
       -0.0923015 0.16073602 0.09750254 0.34925175
000180 0d 53 9e 3d 5e 0d 27 3e b8 e7 87 3d d6 eb 01 be
       0.077306844 0.16313693 0.06635994 -0.1268762
000190 21 d0 05 be 67 a5 c6 bd 21 23 95 bd c1 ad 51 3e
       -0.13067676 -0.09699517 -0.07282091 0.20476438
0001a0 15 03 a4 bd f4 c4 77 be e6 ca 2f be b1 0d 82 3d
       -0.080084 -0.24196225 -0.17167243 0.06350268
0001b0 b4 ca ae be 60 99 f7 bd d8 b2 03 3f e4 9c e6 3d
       -0.34139025 -0.12089801 0.5144477 0.11260393
0001c0 4c be fb 3d 21 d4 1f be b1 ff 61 3e 76 03 21 be
       0.122921556 -0.15608265 0.22070195 -0.15723976
0001d0 67 ab 04 bf 5e c2 37 bd 2e 0e 22 be e4 2f dd 3d
       -0.5182404 -0.044863097 -0.15825722 0.1080015
0001e0 92 75 62 bd 39 1a 1a 3e 04 cd f2 3c e1 2e dd 3d
       -0.055287905 0.15049066 0.029638775 0.10799957
0001f0 65 63 bc bd 77 a1 69 bd 88 bd 5f 3e 9a 5b 3a 3d
       -0.091986455 -0.05703875 0.21849644 0.045497514
000200 d3 a6 29 bd 13 bc b7 bd 9c e9 b4 bd 37 75 3d 3d
       -0.04141886 -0.08971419 -0.0883362 0.046254363
000210 01 dc f7 3d a6 06 99 be a8 ad 06 3e 8c 02 a1 be
       0.12102509 -0.29887885 0.13152182 -0.31447256
000220 ab 05 fd 3c 31 50 3c be 22 5f 28 3c 10 b7 bd be
       0.030886492 -0.18389966 0.010276588 -0.37053728
000230 16 cf 4f bd 78 70 88 bd 03 49 81 be 9b 59 97 3d
       -0.050734602 -0.06662077 -0.25251016 0.07390138
000240 95 cf 2b bc 5b 59 49 be 34 a7 a4 3c 80 54 93 bc
       -0.010486503 -0.19662993 0.02009926 -0.017984629
000250 2b 26 92 3e fd d0 a8 bd 70 f7 cd bc 48 74 24 bd
       0.28544745 -0.08242986 -0.025142401 -0.040149957
000260 0c 39 4a be c9 46 c2 bd f3 e2 45 3e 6e a6 b4 be
       -0.19748324 -0.094861574 0.19324856 -0.35283226
000270 31 53 f7 3d 0b ec 71 bd 76 29 8c be 27 c9 16 3e
       0.120764144 -0.059063 -0.27375382 0.14725171
000280 51 07 84 be 37 6a 06 be a6 e8 5e 3e 8b e8 89 be
       -0.25786832 -0.13126455 0.21768436 -0.2693523
000290 82 6d 6c 3e 85 38 a4 bc 4f 35 6f 3e 68 00 0a bf
       0.23088649 -0.020046482 0.2336018 -0.5390687
0002a0 1e 1a d8 3d 3e b5 23 3e 5a cd 63 be 66 64 89 be
       0.105518565 0.15987107 -0.22246304 -0.2683441
0002b0 7a 78 d6 bd 18 2a ea 3c d2 e6 8f 3e 70 36 09 3d
       -0.10472198 0.028584525 0.2810579 0.03349918
0002c0 2f 30 ad bd b5 01 e9 bd 1c 98 a4 3d aa aa 28 3e
       -0.08456456 -0.11377279 0.08036825 0.16471353
0002d0 44 65 e7 bd 0c 1b 03 bd e2 70 e7 bc 1b d7 82 3e
       -0.11298612 -0.032008216 -0.028252069 0.25554737
0002e0 bc 9c 7b be 65 e7 9b 3e 23 09 ac 3d 2d 8f 31 be
       -0.24571508 0.30449978 0.0840018 -0.17339773
0002f0 c5 ce df bc 34 10 6f be e1 b3 02 3e 62 b3 83 bd
       -0.027320275 -0.23346025 0.12763931 -0.06430699
000300 1f 55 92 3d 5c 74 be bd c6 53 69 3d 59 d6 f0 3e
       0.07145142 -0.092995375 0.05696466 0.47038534
000310 b7 95 7e 3e 4b 2e 84 3e cf a1 d2 3c 57 c2 f4 3e
       0.24861799 0.2581657 0.025711922 0.4780452
000320 2f ad 62 3e ea fc 2a 3e 18 a7 a0 3e d6 0c ee be
       0.22136377 0.16698042 0.31377482 -0.46494168
000330 1b 0e 17 3e e1 9b 79 be 26 4b 54 3d cd 37 9f 3e
       0.14751475 -0.2437587 0.05182948 0.3109726
000340 38 b6 bb 3e ea 43 33 be 91 d4 ab 3d 6c e4 45 bc
       0.3666246 -0.17506376 0.08390153 -0.012078386
000350 4f 8d 11 3e 64 5c 8d bc e1 7e 9c 3e a9 f1 8d 3e
       0.14214061 -0.01725597 0.3056555 0.27723435
000360 f7 3d c8 bd 42 e5 a8 bd 9e 7c ff bd 13 78 e3 bd
       -0.09777444 -0.082468525 -0.12474941 -0.11106887
000370 e0 15 30 3e 76 da 4e be 77 21 47 be 5f 38 8d 3c
       0.17195845 -0.20200524 -0.1944636 0.017238794
000380 6a b2 6f be 0f bb 77 3e 00 ee 39 3e 46 6c 94 bd
       -0.23407903 0.24192451 0.18157196 -0.07247214
000390 09 9e 2d 3b 17 c2 23 be 3b fa dd bd 52 f8 b9 bd
       0.0026491901 -0.15992008 -0.10838743 -0.090805665
0003a0 18 62 2d be 4c 35 0c 3f 7f 27 8e bc e0 fd a4 3e
       -0.16931951 0.54768825 -0.017352818 0.3222494
0003b0 35 d6 82 3e b8 50 b5 3d 27 18 9e 3e 88 ab bb bc
       0.25554052 0.088532865 0.30877802 -0.02290894
0003c0 1d 9b 42 3e 81 67 05 3d 28 4e 92 be a1 bd 88 3e
       0.19004484 0.032569412 -0.28575253 0.26707175
0003d0 24 f4 c6 be 72 86 43 3e 85 b3 a0 3d 21 db 22 3e
       -0.3885814 0.19094256 0.07846741 0.15903904
0003e0 48 53 0e be c9 30 0a 3d 97 e7 f3 bc 69 2c 72 bd
       -0.13898957 0.03373793 -0.029773517 -0.059124384
0003f0 e5 4b 1a 3e 8f 7d 1d be d5 ae 49 3d b2 47 ca 3d
       0.15068014 -0.15379928 0.049239 0.09876956

network_body._body_endoder.seq_layers.2.bias f4 [128]
000000 e4 7b b0 3c 00 fe 62 3c d6 b6 32 3b 4d ab 08 3b
       0.02154345 0.013854504 0.0027269623 0.0020854056
000010 60 0e 97 bc cd 7e 27 39 53 53 1a bc 35 05 46 bc
       -0.018439472 0.00015973598 -0.00941928 -0.012086202
000020 3d 81 ed ba 71 be 6d bc c1 d0 49 3c 9e f0 96 bc
       -0.0018120181 -0.014510737 0.012317837 -0.018425282
000030 ac 87 cc bc 68 6a 8b bc 7d 4f 77 bc 7c 96 7f bb
       -0.024967037 -0.017018512 -0.015094635 -0.0038999608
000040 4b c4 78 3c 8e e1 88 3a ad a0 17 bc 14 7f 85 bc
       0.015183519 0.0010443197 -0.009254617 -0.016295947
000050 69 23 88 bc ec 92 39 3c 47 26 ad 3c 77 d2 6e bc
       -0.016618447 0.011326533 0.021136416 -0.014576546
000060 26 3e 9e b9 95 99 a0 bc 4f ac 94 bb 02 ab 97 bc
       -0.00030182413 -0.019604484 -0.0045371423 -0.01851416
000070 b8 63 4f ba 9e b9 47 3b ad 7b 82 bc 3b 04 84 3b
       -0.00079112826 0.0030475627 -0.015928114 0.0040288246
000080 0d ae 90 bc 07 6e 55 bc d9 61 70 3c b4 47 03 3c
       -0.017661119 -0.013026721 0.014671766 0.008012701
000090 0f 6e 9e bc 34 36 7e bc 7e 82 6c bc 3f a5 6c 3c
       -0.01933959 -0.015515853 -0.014435409 0.014443695
0000a0 30 93 b2 3c 64 6f b2 3c d2 2d 37 bc f8 ce 34 b9
       0.0217987 0.02178163 -0.011180358 -0.0001724324
0000b0 8c d9 42 bc 23 3b 47 3c 13 99 a8 bc 5d 6a 11 3c
       -0.0118926875 0.012160095 -0.020580804 0.008875457
0000c0 7c d8 4c bc 9d ee ba 3b 05 12 5b bc 22 49 ac bc
       -0.012502786 0.0057047145 -0.013370995 -0.021030966
0000d0 ad 58 85 3c f3 7f a2 bc 80 a1 19 3c 7d 59 78 3c
       0.016277635 -0.019836402 0.0093768835 0.015158054
0000e0 3e 07 d5 bb 41 36 5d 3c 8b fb 24 bc 42 ca 86 3b
       -0.0065011075 0.013501705 -0.010069738 0.0041134665
0000f0 a2 38 ab 3c e7 90 5f bc 11 10 84 bc e3 12 25 bc
       0.020901028 -0.013645387 -0.016120942 -0.010075304
000100 21 80 ba 3c 2e bc 53 bc 1d 9d df 3c f1 b2 54 3c
       0.022766175 -0.0129232835 0.027296597 0.012982116
000110 d4 e3 ab 3c 19 67 ad bc dd ce cf 3b 64 02 9e bc
       0.02098266 -0.021167325 0.0063417987 -0.01928825
000120 9f 13 c1 bb ca fa 3d bc 30 e8 ac 3c 73 66 ba 3c
       -0.0058922316 -0.011595437 0.02110681 0.02275393
000130 db e7 d7 3b b6 3e a3 bc 9e e7 01 b9 dd af a7 bb
       0.0065889186 -0.019927364 -0.00012388683 -0.0051174
000140 b8 4b 9a bc 21 de 92 bc 95 cb 1e 3c 33 23 f4 3b
       -0.018834934 -0.017928185 0.009692092 0.007450485
000150 af d0 94 ba 97 8f 94 bc d4 ec 8b bc f7 75 2c 3c
       -0.0011353696 -0.018134875 -0.017080702 0.010526172
000160 7f ff be bc 6a 31 37 bc 6d 12 dc ba 59 1e 59 bc
       -0.02331519 -0.011181215 -0.0016790159 -0.013251864
000170 92 f6 a1 bb 7d 76 8e bc af 9e a7 ba d4 41 8f 3c
       -0.0049427235 -0.017390484 -0.001278838 0.017487444
000180 08 57 2c 3c 98 f0 a1 3c c5 25 b5 3c ac 72 e6 ba
       0.010518797 0.019768044 0.022112736 -0.0017581782
000190 50 8c 8b bc 73 61 54 3c dc ff 95 bc 76 c8 68 3c
       -0.01703468 0.012962687 -0.01831048 0.01420795
0001a0 a8 96 b6 3b e1 cd f2 bb 80 42 b9 3c ed 23 9f bc
       0.005572159 -0.0074097966 0.022614717 -0.01942631
0001b0 59 c8 70 bc ca 10 5c 3b 84 c0 01 bc 07 2b 30 3b
       -0.014696204 0.0033579343 -0.007919434 0.0026881115
0001c0 0f 9d 72 3c fb bc 8c bc 2c 0a cc 3a e6 57 26 bc
       0.0148079535 -0.017179957 0.0015566996 -0.010152793
0001d0 49 24 9d 3b ff 40 60 3c 53 a3 b7 bc 2d ce a1 3c
       0.0047955853 0.013687371 -0.022416746 0.019751633
0001e0 17 27 67 3c bf 25 82 bc f0 62 ef 3b 77 c0 87 3c
       0.014108441 -0.01588714 0.0073054954 0.016571267
0001f0 48 c9 f2 3c 80 8f 77 3b 3e 41 f0 ba 29 1b 7d bc
       0.029636994 0.0037774742 -0.001832999 -0.01544837

network_body._body_endoder.seq_layers.2.weight f4 [128, 128]
000000 89 95 96 3c 9e bc 40 bd 82 7a 62 bd a4 c7 b2 3a
       0.01838185 -0.04705488 -0.055292614 0.001363982
000010 ba 77 33 3e fc 8c b8 bd 8a 74 38 bd fb 19 b9 bd
       0.17526141 -0.09011266 -0.045033015 -0.090381585
000020 63 7d 27 3e b7 90 da bc ab f4 ac 3d 28 ae de bd
       0.16356425 -0.026680334 0.08445104 -0.108730614
000030 b9 34 21 be 1a 96 06 3e 34 a8 a3 3b d5 88 80 3d
       -0.15742768 0.13143197 0.0049944166 0.06276099
000040 74 3c f6 3c b0 a2 ae bd 5d 33 b2 bd 72 86 30 3c
       0.030058123 -0.08527124 -0.08701203 0.010774242
000050 ec 7a 9f bc f1 5d b4 bd 51 b7 cc 3d 5f a4 89 bc
       -0.019467793 -0.088069804 0.09995902 -0.016802011
000060 cb 9d 17 be 34 f6 c9 3c 6a af 0b be 35 ae d9 3c
       -0.14806287 0.024653532 -0.13641134 0.026572326
000070 39 96 b2 3d 25 f5 23 bc f2 e7 5d bd 1c 02 a0 bd
       0.08720059 -0.0100071775 -0.05417628 -0.07812902
000080 f2 d6 1a bd 86 7f 9e 3c 22 0d 98 3c 24 f9 47 bd
       -0.037802644 0.019347917 0.01856095 -0.048821583
000090 b6 59 a1 bd d6 53 fc 3c e3 75 83 3d 5c 37 89 3c
       -0.07878439 0.030801695 0.064189695 0.01675003
0000a0 6b 81 15 3d 6e 87 61 3d 46 0a da 3d b5 4d a0 bc
       0.036500376 0.055060796 0.10646491 -0.019568304
0000b0 e1 4e e5 3b 10 43 85 3e d2 36 0d be 86 34 82 3d
       0.0069979285 0.26027727 -0.13790444 0.06357674
0000c0 96 37 94 3d 45 19 99 3c 03 b9 3d 3d e9 49 92 bd
       0.07237165 0.018688807 0.04631902 -0.071430035
0000d0 c6 81 4c bd 4c 37 81 bc 63 d5 b6 3d c6 d8 ce bd
       -0.04992845 -0.015773438 0.08927419 -0.1009994
0000e0 02 63 00 3e 27 d0 d7 3d d2 9c f7 bd 25 45 e0 3c
       0.12537768 0.10537749 -0.12090458 0.02737672
0000f0 45 73 03 3e f1 a6 64 3d 36 8b b9 3b cf 56 8f 3c
       0.1283694 0.05582327 0.005662347 0.017497448
000100 63 3c 0f be a1 cb 15 3e e8 c1 89 3d 74 51 9d bd
       -0.1398788 0.1462846 0.06726438 -0.076815516
000110 eb 8d a7 3d 37 de 94 3d eb 11 ae 3c b4 d3 4a 3d
       0.081813656 0.072689466 0.021248778 0.049518302
000120 aa 69 07 3d f0 64 dd bd ba 8f b7 bc ea fd 0c 3e
       0.033059753 -0.10810268 -0.022407401 0.13768736
000130 c6 ee 20 be 57 17 33 bd 3e 79 18 3d da a2 d5 3c
       -0.15716085 -0.04372343 0.037225 0.02607863
000140 da 94 f8 bb bf eb 7f 3c 32 87 f4 3c 01 ab db bd
       -0.007586104 0.015620171 0.029849622 -0.10725976
000150 e0 e2 51 bc 61 94 d6 bc 9e 4e b0 bb e0 91 55 bd
       -0.012810439 -0.0261938 -0.0053804656 -0.05214107
000160 58 48 a6 3c 15 13 bf bc ad 6a 25 bd da ab 21 bd
       0.020298168 -0.023324529 -0.040384937 -0.03947053
000170 25 10 e1 3d 57 f4 7c bc fc 84 8d bd 30 04 66 3d
       0.109894074 -0.0154391145 -0.069101304 0.056156337
000180 64 29 2a be a2 47 0d be 47 df af 3d 8a 2c 86 be
       -0.16617352 -0.13796857 0.08587509 -0.26205856
000190 28 cd 2c 3c 8d c6 2d be 43 ac 95 3c aa d5 61 bd
       0.01054696 -0.16970272 0.018270617 -0.055135407
0001a0 e4 1e e8 3c 31 94 d6 3d 3a 9d 0f 3e 0b e0 b3 bd
       0.028335042 0.10477484 0.14024821 -0.08782967
0001b0 71 3d ba bc 31 6d 2f 3e c9 e2 e0 3c 68 f0 03 3d
       -0.022734376 0.17131497 0.02745189 0.03221169
0001c0 ce 3d a5 bc 67 61 be 3c 39 50 88 be 80 e1 38 3d
       -0.020171072 0.023239804 -0.26623705 0.04513693
0001d0 01 7e f0 3b 72 89 63 bc 51 dd 3f bd b5 2b 0a bb
       0.0073392396 -0.01388775 -0.046841923 -0.002108318
0001e0 03 32 77 bd 07 94 f9 3d e7 18 ea bd ff 14 ca 3d
       -0.06035043 0.12186437 -0.11430531 0.09867286
0001f0 ff 34 c7 bd ff a2 9d 3d 0e 4f c6 3d 33 0a 0e bd
       -0.09726905 0.07697105 0.09683047 -0.034677695
000200 ac d1 92 3d 6e fa 8d bd 8a 9e 8a 3c 3e c7 73 3e
       0.07168898 -0.06932531 0.0169213 0.23806474
000210 87 bd a5 3d 25 05 a0 bd ad 5e f8 3d 75 69 f5 bb
       0.0809279 -0.07813481 0.12127433 -0.007489378
000220 83 24 b9 3d 1e d0 80 bd ce a8 0f be 56 39 89 3d
       0.09040167 -0.06289695 -0.14029238 0.06700389
000230 13 42 2e be 37 b1 be 3d 8f a9 73 3d 04 81 2b 3d
       -0.17017393 0.09311145 0.059487876 0.041871086
000240 57 fa 29 3d 42 a9 6c 3c f8 ed 84 bd 0c d1 83 3d
       0.04149851 0.014444651 -0.064907014 0.06436357
000250 2d 8c 66 bd 6d 3e 85 3c fc 49 15 be 81 ba 90 bd
       -0.056286026 0.016265118 -0.14579004 -0.07066823
000260 50 3a 77 bd 9d 36 88 bd 53 d3 98 3b 79 33 5c bd
       -0.060358346 -0.06651042 0.0046638637 -0.053760026
000270 2e 8a 8c 3c c5 06 08 3e f8 34 fa bd a9 3e af bc
       0.017155733 0.13283832 -0.12217134 -0.021392183
000280 47 82 43 bc d3 f6 b7 3d d7 15 0c 3d f2 d2 36 be
       -0.011932916 0.08982625 0.034200516 -0.17853907
000290 64 cf 0a 3d 8b 51 5e bd fd 2b 6e 3c 9d df d1 3d
       0.03388919 -0.054276984 0.014536855 0.10247729
0002a0 d1 39 da bc cd e1 08 bd f2 d3 1b 3e 48 d0 ea bc
       -0.026638897 -0.033418465 0.1521757 -0.02866377
0002b0 4b e4 e8 bd d4 f4 92 3d aa a4 96 bd 45 a5 ee 3c
       -0.113716684 0.071756035 -0.07355626 0.029131541
0002c0 1c 66 5c bd 36 33 df 3c a0 33 31 3d 7d e1 44 bd
       -0.053808317 0.027246099 0.043262124 -0.048066605
0002d0 28 d5 09 3e 1d d8 c6 bd 88 f9 91 bc 51 9d ba bd
       0.13460219 -0.09709189 -0.017819181 -0.09112037
0002e0 8c be 3c bd d2 58 b3 bb e7 ec 68 bd 88 e7 85 bd
       -0.046080157 -0.0054732347 -0.056866553 -0.06538302
0002f0 1b d9 93 bd c5 85 7a 3c 2d f0 9f 3d 1f 34 12 3d
       -0.07219144 0.015290682 0.07809482 0.035694238
000300 68 b0 c9 bd 93 85 1a 3d 22 5a b7 3d be 1f 1d 3d
       -0.098481 0.037725043 0.08952738 0.03836035
000310 a5 64 99 bd 48 e6 57 3e 12 62 df bd a6 e1 fb bd
       -0.074898995 0.21083939 -0.10907377 -0.122988984
000320 16 f1 24 bd 5c 8a 86 3d b0 d2 a5 3d ff 89 4d 3d
       -0.04026898 0.06569359 0.08096826 0.05018043
000330 00 c7 66 bc 03 f0 6b 3d d2 d8 ea bd 6b 75 04 3e
       -0.014085531 0.05760194 -0.114671364 0.12935416
000340 29 81 af bd f3 54 3d 3c 03 4f 44 3d 7e 1b ad 3c
       -0.08569557 0.011555898 0.047926914 0.021131273
000350 8d c7 86 bd 3f 1c 8b 3b 7c 2c 86 3d 60 0e 46 3c
       -0.0658103 0.0042453106 0.065514535 0.012088388
000360 36 97 8c 3b 2f c9 54 bd 7c e0 60 3d fa 4a ac bd
       0.0042904867 -0.051949676 0.054901585 -0.08412738
000370 eb 3a 87 3c 77 7b b2 3d 06 1d 34 be bc 67 5c 3e
       0.016507586 0.08714955 -0.17589197 0.21523947
000380 9a 3a 96 3d ca 73 95 bd 74 9e a4 3d 39 91 07 be
       0.07335396 -0.07297476 0.08038035 -0.13238992
000390 30 15 0c bd 22 96 bb bd 0b 32 c2 bd 63 32 90 3b
       -0.034199893 -0.09159495 -0.09482201 0.004400538
0003a0 27 32 80 3c d1 f2 98 3c 34 6c 2e bd c7 1f 53 3d
       0.015648915 0.018670471 -0.04258366 0.051543977
0003b0 3b ee 12 3e c3 8e 83 3c 90 01 0f 3d 20 b6 9c bc
       0.1434869 0.016059285 0.0349136 -0.019129813
0003c0 4f e6 a3 bd 23 c4 d9 bd f7 26 7e 3b f0 4b 00 bd
       -0.08002912 -0.10633113 0.003878055 -0.03132242
0003d0 85 36 9a bd d2 df a3 bc 67 b6 d1 bc 1b 94 d5 bd
       -0.0752993 -0.020004187 -0.025599672 -0.104286395
0003e0 b8 b6 8f bd 6e 46 ff 3d 4d 9c 31 3c 11 59 ab bb
       -0.07017273 0.12464605 0.010840488 -0.0052291234
0003f0 39 d7 4d be 95 61 c9 3d 32 ef 22 bb 3a 44 ac 3c
       -0.20101632 0.098330654 -0.002486181 0.021028627
