results - copia/PruebaPrefabLarga/AgenteCoche/AgenteCoche-1499972.pt (torch, 261591 bytes, 20 tensors)

discrete_act_size_vector f4 [1, 2]
3.0 3.0
00000000: 0000 4040 0000 4040

network_body._body_endoder.seq_layers.0.weight f4 [128, 29]
-0.023474304 0.31264248 -0.04358762 -0.0568813 -0.041438878 0.109530956 0.20105675 0.039067384
0.23834044 0.25129542 0.017943906 -0.21722601 -0.036560446 0.007861632 -0.05689268 -0.1089578
-0.27699554 -0.06767462 0.11414378 -0.2639051 -0.26113287 -0.1003457 0.03078463 0.051631685
0.013740668 -0.030454211 -0.2839863 -0.10734717 -0.2221586 0.25175413 -0.08869783 0.06883241
-0.35745528 -0.14828168 0.027493784 -0.22382241 -0.3070726 0.2953814 0.15830304 0.056053557
-0.065702885 0.20956196 0.05337895 0.18945429 0.09281211 0.12575085 -0.18290228 -0.24934398
0.0378655 0.028247025 0.030565085 -0.18589556 0.066109516 -0.051517807 0.010950173 -0.6054185
-0.23071033 -0.01672079 0.25863296 -0.18050781 -0.1470841 -0.17632477 -0.191415 -0.23229815
0.17692769 -0.2070403 -0.05490594 0.14791767 -0.5654756 -0.11010532 0.032139357 -0.10848459
-0.025003228 -0.030139474 0.06845598 -0.25488567 0.01945337 -0.034690738 0.02008273 -0.06275029
-0.15126975 0.1183643 -0.03945893 0.186529 -0.18692115 0.23852092 0.10442041 0.2766976
0.20167203 -0.05135944 -0.11075644 -0.13236827 0.06626803 -0.020301677 0.10464553 -0.10875581
0.08865183 0.23680004 0.19533324 0.43762067 -0.14403787 0.24567538 0.09027804 -0.21445212
-0.32158366 -0.20077674 -0.23205361 -0.11596978 0.06442158 -0.18084763 -0.011607656 0.17407653
-0.1153922 0.20707914 -0.15351509 0.3864612 0.074882515 -0.16459382 -0.03966021 0.1303415
0.15989117 -0.0047023227 0.10266514 0.3094561 0.17221826 -0.54794085 -0.15418208 0.14310999
-0.22322649 0.29809532 -0.27526903 0.12571144 -0.0930967 0.14403044 -0.04273578 0.21648486
-0.06262424 0.0644965 -0.20194966 -0.12644096 -0.11553114 -0.08366395 -0.22685254 -0.023999078
0.058645904 0.16936941 0.484362 0.3262943 0.18098918 0.020509003 0.12634543 -0.021208238
-0.19359288 -0.13241133 0.08563958 -0.2729557 -0.054889593 -0.14726107 -0.2838697 -0.04333044
-0.059024226 0.15928157 0.041059677 0.07546811 0.066290945 0.19490539 0.08012044 0.028077496
0.19174157 0.10762679 0.13512295 -0.037206315 -0.15143275 0.0117418105 -0.053749785 0.26322675
-0.23265792 -0.25106588 0.16569659 0.060511716 0.43653622 -0.016403867 -0.21247636 -0.09336343
0.0020255724 -0.056524184 -0.003966729 0.07054419 0.34998396 -0.1633388 -0.17762555 0.08245212
-0.22900687 -0.09163361 0.19767 0.13036074 0.112430744 0.041395627 0.18314295 0.061218012
0.06072978 -0.22885826 -0.022052806 -0.20033301 0.3894633 -0.23036626 0.09702188 -0.050969467
-0.09176907 0.16640495 -0.03210129 0.07895633 0.085428536 -0.20716992 -0.4113666 0.045000285
0.15417674 0.21838243 -0.21696252 0.36482847 -0.10002931 0.032918874 0.19868864 -0.051730055
0.06333581 0.013691823 -0.1310653 0.038606204 -0.13124074 0.11495284 -0.39769113 0.18364687
0.14715917 0.27927354 0.04533575 -0.025771836 -0.08143952 -0.13402937 0.06935183 0.023180336
0.15875067 -0.30759192 0.324414 0.24807644 0.09098322 0.0029777468 -0.12407245 0.09247121
0.2765325 0.26253965 -0.095560335 0.03476833 0.08706747 0.03438163 -0.17424148 -0.07934158
00000000: 2f4d c0bc ad12 a03e ef88 32bd 5efc 68bd
00000010: d0bb 29bd c451 e03d d2e1 4d3e 1f05 203d
00000020: 840f 743e cba9 803e 19ff 923c 7f70 5ebe
00000030: 68c0 15bd 13ce 003c 4c08 69bd 4425 dfbd
00000040: 5cd2 8dbe fe98 8abd 37c4 e93d 921e 87be
00000050: 35b3 85be 0c82 cdbd 0c30 fc3c bf7b 533d
00000060: 8a20 613c 1c7b f9bc a766 91be d5d8 dbbd
00000070: 8b7d 63be ebe5 803e 35a7 b5bd 02f8 8c3d
00000080: 6104 b7be 27d7 17be a53a e13c b431 65be
00000090: 9f38 9dbe 3b3c 973e 311a 223e 6a98 653d
000000a0: 3c8f 86bd 6997 563e e3a3 5a3d 4e00 423e
000000b0: 4714 be3d d5c4 003e bc4a 3bbe 0754 7fbe
000000c0: db18 1b3d 4e66 e73c a163 fa3c 685b 3ebe
000000d0: 6d64 873d 5604 53bd 5b68 333c b5fc 1abf
000000e0: 543f 6cbe 0afa 88bc 8a6b 843e 0ad7 38be
000000f0: 379d 16be 7b8e 34be 4b02 44be 91df 6dbe
00000100: 882c 353e 5f02 54be 0de5 60bd bb77 173e
00000110: 02c3 10bf e67e e1bd 8fa4 033d 2b2d debd
00000120: 92d3 ccbc 0fe7 f6bc a632 8c3d 6080 82be
00000130: ac5c 9f3c e017 0ebd 8a84 a43c 3983 80bd
00000140: 75e6 1abe fb68 f23d b09f 21bd 7501 3f3e
00000150: 4268 3fbe d43e 743e 5eda d53d 4fab 8d3e
00000160: 1d83 4e3e 475e 52bd 46d4 e2bd 8c8b 07be
00000170: 88b7 873d b44f a6bc 6550 d63d 5ebb debd
00000180: 178f b53d b67b 723e 7005 483e d10f e03e
00000190: aa7e 13be 5492 7b3e b1e3 b83d 5699 5bbe
000001a0: 9da6 a4be 6b98 4dbe 769f 6dbe 9081 edbd
000001b0: 76ef 833d 1f30 39be 0a2e 3ebc 1e41 323e
000001c0: bf52 ecbd 8e0c 543e 0f33 1dbe 3ede c53e
000001d0: 015c 993d 488b 28be bf72 22bd 3e78 053e
000001e0: 83ba 233e f115 9abb 1a42 d23d 0871 9e3e
000001f0: fc59 303e da45 0cbf e8e1 1dbe 6d8b 123e
00000200: 7c95 64be f39f 983e 10f0 8cbe 80ba 003e
00000210: 7ca9 bebd b77c 133e b70b 2fbd 35ae 5d3e
00000220: 2341 80bd be16 843d e4cb 4ebe bd79 01be
00000230: 979b ecbd 0158 abbd 084c 68be b799 c4bc
00000240: b036 703d 2d6f 2d3e 4cfe f73e 0c10 a73e
00000250: 3a55 393e 7f02 a83c b260 013e e6bc adbc
00000260: 363d 46be d696 07be ce63 af3d d9c0 8bbe
00000270: e9d3 60bd 9bcb 16be 5f57 91be 427b 31bd
00000280: 63c3 71bd b51a 233e 312e 283d 068f 9a3d
00000290: 8cc3 873d 4795 473e 2f16 a43d c702 e63c
000002a0: e757 443e 6f6b dc3d ac5d 0a3e a665 18bd
000002b0: 3011 1bbe b960 403c bc28 5cbd a8c5 863e
000002c0: e13d 6ebe b58b 80be 5eac 293e 22db 773d
000002d0: ad81 df3e 6761 86bc 6793 59be 5335 bfbd
000002e0: 77bf 043b e785 67bd 56fb 81bb 7979 903d
000002f0: 1931 b33e 4942 27be 79e3 35be a8dc a83d
00000300: c780 6abe 67aa bbbd 016a 4a3e 497d 053e
00000310: 1742 e63d 768e 293d d389 3b3e bdbf 7a3d
00000320: cabf 783d d259 6abe 16a8 b4bc 1924 4dbe
00000330: bc67 c73e 22e5 6bbe 68b3 c63d 5cc5 50bd
00000340: 6cf1 bbbd 0f66 2a3e a47c 03bd dbb3 a13d
00000350: 28f5 ae3d 5a24 54be a59e d2be 3852 383d
00000360: 82e0 1d3e a59f 5f3e 6c2b 5ebe ccca ba3e
00000370: 2bdc ccbd f1d5 063d 0975 4b3e e5e2 53bd
00000380: 35b6 813d ab53 603c fb35 06be 8a21 1e3d
00000390: f963 06be 656c eb3d 2c9e cbbe ed0d 3c3e
000003a0: e5b0 163e f1fc 8e3e fbb1 393d 751f d3bc
000003b0: c3c9 a6bd ff3e 09be 5508 8e3d b0e4 bd3c
000003c0: 898f 223e b07c 9dbe 9819 a63e c007 7e3e
000003d0: 6955 ba3d 4d26 433b b219 febd 8c61 bd3d
000003e0: ab95 8d3e 996b 863e 23b5 c3bd 3d69 0e3d
000003f0: 6e50 b23d c1d3 0c3d 5c6c 32be d77d a2bd

network_body._body_endoder.seq_layers.0.bias f4 [128]
0.0 0.0 0.0 0.0 0.0 0.0 0.0 0.0
0.0 0.0 0.0 0.0 0.0 0.0 0.0 0.0
0.0 0.0 0.0 0.0 0.0 0.0 0.0 0.0
0.0 0.0 0.0 0.0 0.0 0.0 0.0 0.0
0.0 0.0 0.0 0.0 0.0 0.0 0.0 0.0
0.0 0.0 0.0 0.0 0.0 0.0 0.0 0.0
0.0 0.0 0.0 0.0 0.0 0.0 0.0 0.0
0.0 0.0 0.0 0.0 0.0 0.0 0.0 0.0
0.0 0.0 0.0 0.0 0.0 0.0 0.0 0.0
0.0 0.0 0.0 0.0 0.0 0.0 0.0 0.0
0.0 0.0 0.0 0.0 0.0 0.0 0.0 0.0
0.0 0.0 0.0 0.0 0.0 0.0 0.0 0.0
0.0 0.0 0.0 0.0 0.0 0.0 0.0 0.0
0.0 0.0 0.0 0.0 0.0 0.0 0.0 0.0
0.0 0.0 0.0 0.0 0.0 0.0 0.0 0.0
0.0 0.0 0.0 0.0 0.0 0.0 0.0 0.0
00000000: 0000 0000 0000 0000 0000 0000 0000 0000
00000010: 0000 0000 0000 0000 0000 0000 0000 0000
00000020: 0000 0000 0000 0000 0000 0000 0000 0000
00000030: 0000 0000 0000 0000 0000 0000 0000 0000
00000040: 0000 0000 0000 0000 0000 0000 0000 0000
00000050: 0000 0000 0000 0000 0000 0000 0000 0000
00000060: 0000 0000 0000 0000 0000 0000 0000 0000
00000070: 0000 0000 0000 0000 0000 0000 0000 0000
00000080: 0000 0000 0000 0000 0000 0000 0000 0000
00000090: 0000 0000 0000 0000 0000 0000 0000 0000
000000a0: 0000 0000 0000 0000 0000 0000 0000 0000
000000b0: 0000 0000 0000 0000 0000 0000 0000 0000
000000c0: 0000 0000 0000 0000 0000 0000 0000 0000
000000d0: 0000 0000 0000 0000 0000 0000 0000 0000
000000e0: 0000 0000 0000 0000 0000 0000 0000 0000
000000f0: 0000 0000 0000 0000 0000 0000 0000 0000
00000100: 0000 0000 0000 0000 0000 0000 0000 0000
00000110: 0000 0000 0000 0000 0000 0000 0000 0000
00000120: 0000 0000 0000 0000 0000 0000 0000 0000
00000130: 0000 0000 0000 0000 0000 0000 0000 0000
00000140: 0000 0000 0000 0000 0000 0000 0000 0000
00000150: 0000 0000 0000 0000 0000 0000 0000 0000
00000160: 0000 0000 0000 0000 0000 0000 0000 0000
00000170: 0000 0000 0000 0000 0000 0000 0000 0000
00000180: 0000 0000 0000 0000 0000 0000 0000 0000
00000190: 0000 0000 0000 0000 0000 0000 0000 0000
000001a0: 0000 0000 0000 0000 0000 0000 0000 0000
000001b0: 0000 0000 0000 0000 0000 0000 0000 0000
000001c0: 0000 0000 0000 0000 0000 0000 0000 0000
000001d0: 0000 0000 0000 0000 0000 0000 0000 0000
000001e0: 0000 0000 0000 0000 0000 0000 0000 0000
000001f0: 0000 0000 0000 0000 0000 0000 0000 0000

network_body._body_endoder.seq_layers.2.weight f4 [128, 128]
-0.08594765 0.004611671 0.042941682 -0.0372886 0.115261145 -0.14376114 0.09797763 0.12910475
0.17115915 0.0797575 -0.08356244 0.00061528763 -0.065963455 0.011733118 0.10129681 0.15986481
-0.09139468 -0.015558453 0.014248555 0.13927148 -0.018259946 -0.04553022 -0.010399127 0.029699177
-0.06465634 -0.033379428 -0.026493253 -0.028359117 -0.14188202 0.03666397 -0.050307274 -0.009519483
-0.0654834 -0.15479639 0.055649284 0.121750355 0.013428527 0.0010562339 0.020843418 -0.046909757
-0.0035058644 -0.18588193 -0.048485197 -0.07243744 0.0728199 -0.16354458 0.026531829 -0.04771265
0.026159942 -0.019036662 -0.02970907 0.040209174 -0.02489605 -0.017626999 -0.013326092 0.045579344
0.038335074 -0.007666683 -0.052592732 0.047718205 0.06460881 -0.015449306 -0.028694525 0.12347793
-0.03202375 -0.09547287 0.049927093 0.10538728 0.033521347 -0.066531055 -0.045173403 -0.200226
-0.00934493 -0.10498513 0.14342105 0.055961948 0.05607843 0.066440925 -0.07644807 0.14218472
-0.11595354 0.07053999 -0.060230136 0.04467039 0.11702895 -0.116489075 -0.010099698 -0.0065577407
-0.040774614 -0.1339525 -0.082419224 0.010596701 -0.10085908 -0.0782378 -0.08691581 0.015239481
0.14290603 -0.022044845 -0.0054391627 0.174059 0.072071776 -0.08271838 -0.07694799 -0.01779756
-0.029999204 0.054151475 0.0019634182 -0.019342462 0.10401106 0.03446059 0.2086179 -0.057923872
-0.013401299 0.113908716 -0.080765806 -0.042733274 -0.002575227 0.122180305 -0.07846538 0.09578517
-0.15259098 -0.11333207 -0.09683421 0.040959783 0.011101992 0.037084177 -0.21861713 0.116414115
0.012582765 0.0129777985 0.09280973 -0.1342449 0.037205864 0.10533536 -0.023389246 0.01774812
0.14417988 -0.028079204 -0.04179486 0.07052814 -0.05005319 -0.09298818 -0.0051651676 -0.06580245
0.018020548 0.059842993 -0.03906557 0.0942232 -0.041071553 -0.13650408 0.06339287 0.11233667
-0.034550782 0.089325316 -0.054247107 -0.008735653 -0.058724906 -0.047323167 -0.034148294 0.02343644
0.123638265 -0.066087455 -0.12553133 -0.016799929 0.12621292 0.121120386 -0.08248997 0.11284358
-0.1639999 -0.041357853 0.0024336115 -0.07970617 0.1549991 0.022982018 0.09799621 0.03019361
-0.03838936 0.10420022 -0.0016117778 0.068636656 -0.1895062 0.15430169 -0.018702311 0.011007741
-0.009404358 0.014600893 -0.11687581 0.11037809 -0.050892487 0.04856893 0.06373294 -0.05231153
-0.061327964 0.06645483 -0.07084918 0.12507594 0.11892606 -0.22926855 0.12673567 -0.09695957
-0.022413332 0.025179444 0.10744322 -0.05911924 -0.05135689 -0.1190587 -0.12960339 -0.025990726
0.079194576 -0.050176788 0.040678777 -0.052096236 0.13542524 -0.10209353 0.1333818 -0.08199585
0.08208517 -0.093214445 -0.07672014 -0.029655017 0.044387147 -0.027291767 -0.031893 -0.050414484
0.06030309 0.0010138035 0.0077257594 0.02816372 0.009532257 -0.07319317 -0.054030057 -0.03166788
0.18814483 0.07513883 -0.003961897 -0.07480535 0.13216694 0.042768415 0.11937485 0.0516734
-0.12444925 0.0125181265 -0.032155365 0.069802605 0.09791349 0.023006001 -0.05995323 -0.2538713
-0.15793599 -0.1382995 0.030789595 -0.10780186 -0.042313203 -0.10072764 -0.11451737 0.0071483036
00000000: 5205 b0bd 801d 973b 9ee3 2f3d eebb 18bd
00000010: 090e ec3d 1f36 13be 7fa8 c83d 0934 043e
00000020: 5844 2f3e e657 a33d c922 abbd 414b 213a
00000030: d917 87bd 443c 403c b474 cf3d 9ab3 233e
00000040: 222d bbbd e2e8 7ebc c572 693c 2f9d 0e3e
00000050: e295 95bc e57d 3abd 1a61 2abc b04b f33c
00000060: 8b6a 84bd deb8 08bd 6108 d9bc 6151 e8bc
00000070: 8549 11be f62c 163d 000f 4ebd 9bf7 1bbc
00000080: 291c 86bd f282 1ebe 81f0 633d 4058 f93d
00000090: 5303 5c3c 5471 8a3a d1bf aa3c 7224 40bd
000000a0: a5c2 65bb d557 3ebe 6a98 46bd 155a 94bd
000000b0: 9a22 953d 3b78 27be 4759 d93c 576e 43bd
000000c0: 604d d63c c6f2 9bbc 7060 f3bc 60b2 243d
000000d0: cdf2 cbbc 7f66 90bc ae55 5abc 68b1 3a3d
000000e0: 3d05 1d3d cc38 fbbb 7a6b 57bd 2a74 433d
000000f0: a051 843d 161f 7dbc c810 ebbc ffe1 fc3d
00000100: 562b 03bd 4887 c3bd 5a80 4c3d 49d5 d73d
00000110: ae4d 093d 6f41 88bd bf07 39bd 0b08 4dbe
00000120: 7a1b 19bc 7202 d7bd f8dc 123e 5b38 653d
00000130: 7fb2 653d 2e12 883d ce90 9cbd df98 113e
00000140: 0d79 edbd 4577 903d e0b3 76bd 4df8 363d
00000150: e0ac ef3d d391 eebd 3479 25bc 51e2 d6bb
00000160: 4803 27bd d82a 09be 69cb a8bd c99d 2d3c
00000170: 358f cebd 243b a0bd eb00 b2bd 04af 793c
00000180: f555 123e 6497 b4bc 013b b2bb 863c 323e
00000190: 5e9a 933d 4168 a9bd e896 9dbd 30cc 91bc
000001a0: e4c0 f5bc f0cd 5d3d b1ac 003b 1574 9ebc
000001b0: c003 d53d 8c26 0d3d ee9f 553e 9541 6dbd
000001c0: 1f91 5bbc f948 e93d 8b68 a5bd 1609 2fbd
000001d0: 24c5 28bb ab39 fa3d 75b2 a0bd 042b c43d
000001e0: cf40 1cbe a51a e8bd 0451 c6bd 72c5 273d
000001f0: 21e5 353c 94e5 173d 2bdd 5fbe 866a ee3d
00000200: f127 4e3c d5a0 543c 0713 be3d 7f77 09be
00000210: 2d65 183d 11ba d73d ce9a bfbc 8164 913c
00000220: e4a3 133e 5c06 e6bc 1631 2bbd 0f71 903d
00000230: 9304 4dbd 9670 bebd 9140 a9bb 6fc3 86bd
00000240: d49f 933c ed1d 753d 3803 20bd 18f8 c03d
00000250: a53a 28bd bac7 0bbe 1fd4 813d c510 e63d
00000260: 1f85 0dbd 31f0 b63d 3732 5ebd fc1f 0fbc
00000270: 8789 70bd f0d5 41bd 15df 0bbd c7fd bf3c
00000280: 0f36 fd3d dc58 87bd 498b 00be 01a0 89bc
00000290: f63d 013e f70d f83d 80f0 a8bd 891a e73d
000002a0: 97ef 27be da66 29bd 3a7d 1f3b fd3c a3bd
000002b0: 16b8 1e3e c944 bc3c 3db2 c83d 9758 f73c
000002c0: 293e 1dbd ed66 d53d 4a42 d3ba 6091 8c3d
000002d0: ea0d 42be 4301 1e3e 9735 99bc d059 343c
000002e0: bd14 1abc 9538 6f3c 965c efbd e80d e23d
000002f0: a474 50bd 37f0 463d 6a86 823d 9d44 56bd
00000300: 0833 7bbd 7819 883d 6019 91bd e813 003e
00000310: 828f f33d 60c5 6abe ffc6 013e bd92 c6bd
00000320: 2a9c b7bc 1f45 ce3c 310b dc3d 0427 72bd
00000330: 9a5b 52bd 0cd5 f3bd c0b6 04be 81ea d4bc
00000340: c430 a23d 2d86 4dbd ca9e 263d dd62 55bd
00000350: eaac 0a3e 6a16 d1bd 3d95 083e 71ed a7bd
00000360: 451c a83d 37e7 bebd 731f 9dbd 14ef f2bc
00000370: 4ccf 353d fc92 dfbc 3ca2 02bd 6b7f 4ebd
00000380: 5f00 773d 9ae1 843a 5e28 fd3b 9ab7 e63c
00000390: 2f2d 1c3c 4de6 95bd 9f4e 5dbd 2eb6 01bd
000003a0: 0aa9 403e 63e2 993d cdd2 81bb 8c33 99bd
000003b0: c556 073e ef2d 2f3d cd7a f43d 7da7 533d
000003c0: 40df febd d418 4d3c 58b5 03bd abf4 8e3d
000003d0: de86 c83d 1577 bc3c 8591 75bd 6bfb 81be
000003e0: f9b9 21be 629e 0dbe 763a fc3c 39c7 dcbd
000003f0: 9c50 2dbd 4b4a cebd 1588 eabd 513c ea3b

network_body._body_endoder.seq_layers.2.bias f4 [128]
0.0 0.0 0.0 0.0 0.0 0.0 0.0 0.0
0.0 0.0 0.0 0.0 0.0 0.0 0.0 0.0
0.0 0.0 0.0 0.0 0.0 0.0 0.0 0.0
0.0 0.0 0.0 0.0 0.0 0.0 0.0 0.0
0.0 0.0 0.0 0.0 0.0 0.0 0.0 0.0
0.0 0.0 0.0 0.0 0.0 0.0 0.0 0.0
0.0 0.0 0.0 0.0 0.0 0.0 0.0 0.0
0.0 0.0 0.0 0.0 0.0 0.0 0.0 0.0
0.0 0.0 0.0 0.0 0.0 0.0 0.0 0.0
0.0 0.0 0.0 0.0 0.0 0.0 0.0 0.0
0.0 0.0 0.0 0.0 0.0 0.0 0.0 0.0
0.0 0.0 0.0 0.0 0.0 0.0 0.0 0.0
0.0 0.0 0.0 0.0 0.0 0.0 0.0 0.0
0.0 0.0 0.0 0.0 0.0 0.0 0.0 0.0
0.0 0.0 0.0 0.0 0.0 0.0 0.0 0.0
0.0 0.0 0.0 0.0 0.0 0.0 0.0 0.0
00000000: 0000 0000 0000 0000 0000 0000 0000 0000
00000010: 0000 0000 0000 0000 0000 0000 0000 0000
00000020: 0000 0000 0000 0000 0000 0000 0000 0000
00000030: 0000 0000 0000 0000 0000 0000 0000 0000
00000040: 0000 0000 0000 0000 0000 0000 0000 0000
00000050: 0000 0000 0000 0000 0000 0000 0000 0000
00000060: 0000 0000 0000 0000 0000 0000 0000 0000
00000070: 0000 0000 0000 0000 0000 0000 0000 0000
00000080: 0000 0000 0000 0000 0000 0000 0000 0000
00000090: 0000 0000 0000 0000 0000 0000 0000 0000
000000a0: 0000 0000 0000 0000 0000 0000 0000 0000
000000b0: 0000 0000 0000 0000 0000 0000 0000 0000
000000c0: 0000 0000 0000 0000 0000 0000 0000 0000
000000d0: 0000 0000 0000 0000 0000 0000 0000 0000
000000e0: 0000 0000 0000 0000 0000 0000 0000 0000
000000f0: 0000 0000 0000 0000 0000 0000 0000 0000
00000100: 0000 0000 0000 0000 0000 0000 0000 0000
00000110: 0000 0000 0000 0000 0000 0000 0000 0000
00000120: 0000 0000 0000 0000 0000 0000 0000 0000
00000130: 0000 0000 0000 0000 0000 0000 0000 0000
00000140: 0000 0000 0000 0000 0000 0000 0000 0000
00000150: 0000 0000 0000 0000 0000 0000 0000 0000
00000160: 0000 0000 0000 0000 0000 0000 0000 0000
00000170: 0000 0000 0000 0000 0000 0000 0000 0000
00000180: 0000 0000 0000 0000 0000 0000 0000 0000
00000190: 0000 0000 0000 0000 0000 0000 0000 0000
000001a0: 0000 0000 0000 0000 0000 0000 0000 0000
000001b0: 0000 0000 0000 0000 0000 0000 0000 0000
000001c0: 0000 0000 0000 0000 0000 0000 0000 0000
000001d0: 0000 0000 0000 0000 0000 0000 0000 0000
000001e0: 0000 0000 0000 0000 0000 0000 0000 0000
000001f0: 0000 0000 0000 0000 0000 0000 0000 0000

action_model._discrete_distribution.branches.0.weight f4 [3, 128]
-0.003494066 0.0034310773 -0.019201847 -0.011427042 0.010481267 0.011448245 -0.009989397 -0.00360792
0.008351897 -0.002225807 0.006141832 -0.00087889016 -0.0032921028 0.009029692 -0.0053425767 -0.00019972103
-0.00651426 -0.004938462 -0.018808646 -0.0006465413 -0.0061015603 0.012195094 0.0049312157 0.016001109
-0.004989482 -0.0021412696 0.0034001176 0.019713517 0.0061991187 0.013373791 0.004599675 0.0042573973
0.014170955 0.0036441933 -0.003270474 0.010166003 0.016443206 -0.0015304456 -0.010969023 0.011230862
0.013991526 -0.0014017989 -0.00886792 -0.007875978 -0.007264095 -0.0018922038 0.0127750365 -0.007465128
0.004270042 -0.003352439 0.0031930425 0.018082395 -0.00809653 -0.009109285 -0.01947551 -0.0073309117
-0.0046467874 -0.0031710367 -0.011400452 -0.0004839128 -0.002993983 0.0029027758 -0.013348365 -0.003164953
0.0019399654 -0.0033200376 0.00045264428 -0.007096354 -0.011609568 -0.005898739 -0.019452121 0.011172071
-0.015309664 0.0014973417 0.0052979942 0.0156712 0.0014035646 0.008946824 -0.010914356 -0.001816902
-0.0006999411 -0.00690922 -0.0078295125 -0.0023028003 -0.0071364264 0.009911903 -0.016586088 0.0011431428
0.010178077 -0.002351755 0.007744619 -0.001304105 -0.00076247886 -0.007939397 -0.0055002994 -0.0040959995
0.017227136 -0.0009023472 0.017446881 -0.004751029 -0.0031993452 0.0033626966 0.008095879 -0.0042195185
0.011825541 1.1059989e-05 0.0022577425 -0.0063477526 0.004490478 0.0012884219 -0.011575199 0.016271511
-0.0105097545 0.014917499 0.005001586 -0.0051592807 -0.00068942714 0.014213293 0.0060945335 0.0063524134
0.007322419 -0.013191285 0.0024823602 0.0012238825 0.0014832461 -0.0056495685 -0.0065158256 -0.0011237425
-0.0059705037 -0.0064559616 -0.0029284393 0.0055076587 -0.002480303 -0.0030080497 -0.0010624198 0.004844463
0.01104339 0.010286278 -0.011992096 -0.018549472 -0.005620932 0.0031307843 0.013200389 0.014864474
0.0012119155 -0.0037509215 0.00016177222 -0.00039187176 0.0065847635 -0.018710501 0.0082098935 -0.014080699
0.02554292 -0.0038927204 -0.0053657456 -0.0039466624 -0.0023064802 -0.006128165 0.01200443 0.0053015877
0.0013765767 0.015830478 -0.0027102262 0.013076368 0.011087801 0.0036925857 0.026738033 0.0052945833
0.005313861 0.007925483 -0.0026083572 -0.006207661 -0.0044627483 -0.0036436566 0.010525515 -0.004896395
0.008320058 -0.0072864997 0.00803898 -0.017729169 -0.0013217393 0.0121392375 0.0038789194 -0.0073088654
0.0010497434 0.014594518 0.0018923477 0.0031134256 -0.005657784 -0.005456704 0.006177645 -0.012938236
0.005411194 -0.0034095708 0.004695985 -0.00037800102 -0.0088295285 0.00030546883 0.011141957 -0.010328337
-0.0032639806 0.0058426163 0.021518936 0.008758918 -0.0066880058 0.010500655 -0.019149546 0.0014974022
-0.0023884175 -0.010506488 -0.005594877 -0.004355218 0.008973977 0.0032916067 0.020723395 -0.0033556768
0.009005348 -0.0108258305 0.009752916 -0.012537916 0.004294864 0.019169265 -0.0056296266 -0.006773621
0.0012958403 -0.0086995745 0.005100234 -0.008732616 0.0032514955 -0.00092593016 0.006647361 -0.006153222
0.009709871 0.014966783 -0.0063166763 -0.009781315 0.0008023887 0.00033574566 -0.008204888 0.017976718
-0.013859548 -0.005700478 0.005736611 -0.014772512 0.0011498493 -0.009654175 0.003118644 -0.011584388
0.0153547395 -0.0032970149 0.009127782 0.008364464 0.0131128505 -0.006053376 0.00019763182 0.0042350125
00000000: b3fc 64bb eddb 603b 314d 9dbc 7d38 3bbc
00000010: 9fb9 2b3c 6b91 3b3c 91aa 23bc da72 6cbb
00000020: 65d6 083c d8de 11bb 6c41 c93b 5265 66ba
00000030: 52c0 57bb 46f1 133c c810 afbb 356c 51b9
00000040: 9375 d5bb d2d2 a1bb 9714 9abc a77c 29ba
00000050: 99ef c7bb eecd 473c 0996 a13b c214 833c
00000060: cf7e a3bb 8b54 0cbb 82d4 5e3b 3e7e a13c
00000070: fa21 cb3b bf1d 5b3c dfb8 963b a381 8b3b
00000080: 4b2d 683c 6bd3 6e3b 7355 56bb 4f8f 263c
00000090: e7b3 863c 3c99 c8ba 6bb7 33bc a601 383c
000000a0: b73c 653c 91bc b7ba c14a 11bc 3f0a 01bc
000000b0: a507 eebb d303 f8ba 634e 513c 089e f4bb
000000c0: b5eb 8b3b 98b4 5bbb 5d42 513b 8821 943c
000000d0: 4fa7 04bc 1c3f 15bc 1b8b 9fbc 2538 f0bb
000000e0: 1444 98bb 2bd1 4fbb f6c8 3abc adb5 fdb9
000000f0: b336 44bb 7f3c 3e3b 1ab3 5abc 1a6b 4fbb
00000100: 7046 fe3a fd94 59bb e350 ed39 8888 e8bb
00000110: 0f36 3ebc 364a c1bb 0e5a 9fbc 100b 373c
00000120: 63d5 7abc 7342 c43a cc9a ad3b e360 803c
00000130: d0f7 b73a b395 123c 21d2 32bc 1d25 eeba
00000140: 417c 37ba bd66 e2bb 5b47 00bc 94ea 16bb
00000150: afd8 e9bb 8965 223c 8cdf 87bc 82d5 953a
00000160: f3c1 263c e71f 1abb 93c6 fd3b 81ee aaba
00000170: 17e1 47ba 3f14 02bc db3b b4bb bc37 86bb
00000180: ec1f 8d3c 7f8b 6cba c3ec 8e3c 85ae 9bbb
00000190: 1bac 51bb b060 5c3b 94a4 043c e343 8abb
000001a0: eabf 413c 4b8e 3937 a2f6 133b cf00 d0bb
000001b0: dc24 933b 44e0 a83a e7a5 3dbc d54b 853c
000001c0: 1b31 2cbc 8768 743c 58e4 a33b 2f0f a9bb
000001d0: acba 34ba dfde 683c a7b4 c73b e827 d03b
000001e0: e7f0 ef3b 4220 58bc 18af 223b af6a a03a
000001f0: 7b69 c23a 0420 b9bb b582 d5bb 8b4a 93ba
00000200: 37a4 c3bb 888c d3bb 0feb 3fbb 9779 b43b
00000210: 948c 22bb b322 45bb e540 8bba 4dbe 9e3b
00000220: 56ef 343c c787 283c 7f7a 44bc 10f5 97bc
00000230: cc2f b8bb d82d 4d3b 7246 583c 1f8a 733c
00000240: 23d9 9e3a 05d2 75bb 66a1 2939 2374 cdb9
00000250: 00c5 d73b c446 99bc ca82 063c bbb2 66bc
00000260: 633f d13c 031d 7fbb 23d3 afbb 0153 81bb
00000270: 5128 17bb c6ce c8bb 3bae 443c f1b8 ad3b
00000280: 406e b43a ebae 813c 0d9e 31bb 433e 563c
00000290: 9ca9 353c 4fff 713b b809 db3c 2f7e ad3b
000002a0: e61f ae3b e3d9 013c f9f0 2abb a269 cbbb
000002b0: 3f3c 92bb 6aca 6ebb 3673 2c3c f071 a0bb
000002c0: da50 083c 97c3 eebb edb5 033c c33c 91bc
000002d0: 363e adba a7e3 463c 7835 7e3b 357f efbb
000002e0: 8b97 893a d81d 6f3c a708 f83a 9d0a 4c3b
000002f0: ef64 b9bb 27ce b2bb d86d ca3b e5fa 53bc
00000300: 6350 b13b 1b73 5fbb c7e0 993b 702e c6b9
00000310: baa9 10bc 5527 a039 c18c 363c 2f38 29bc
00000320: 82e8 55bb 6b73 bf3b 7b48 b03c 9181 0f3c
00000330: 0f27 dbbb f00a 2c3c 82df 9cbc 7b44 c43a
00000340: ff86 1cbb 6823 2cbc 3b55 b7bb 37b6 8ebb
00000350: 9607 133c ffb7 573b 1cc4 a93c eaea 5bbb
00000360: 2b8b 133c d35e 31bc b2ca 1f3c d56b 4dbc
00000370: eebb 8c3b dd08 9d3c bb78 b8bb 40f5 ddbb
00000380: 2fd9 a93a a988 0ebc dd1f a73b 3f13 0fbc
00000390: 0b17 553b 1fba 72ba 1bd2 d93b f8a0 c9bb
000003a0: 2716 1f3c 3d37 753c 1ffc cebb cf41 20bc
000003b0: 6557 523a 0507 b039 cb6d 06bc e943 933c
000003c0: 2813 63bc 13cb babb 2efa bb3b 6808 72bc
000003d0: 8ab6 963a 8b2c 1ebc 2a62 4c3b 72cc 3dbc
000003e0: 7292 7b3c bb12 58bb b18c 153c 1b0b 093c
000003f0: 48d7 563c 665b c6bb 633b 4f39 dcc5 8a3b

action_model._discrete_distribution.branches.0.bias f4 [3]
0.0 0.0 0.0
00000000: 0000 0000 0000 0000 0000 0000

action_model._discrete_distribution.branches.1.weight f4 [3, 128]
-0.0055960375 0.0005080341 -0.0022353835 -0.005730111 0.023333313 -0.0046334644 0.0045074453 -0.0009675136
-0.004374821 -0.01600064 -0.0133166555 -0.0072873505 0.009751998 -0.0028644463 -0.0030411377 -0.01972581
-7.565275e-05 0.007614211 0.008131048 0.014123148 0.00094963855 0.010102912 0.006199065 -0.010262719
0.0066523203 -0.0080248155 -0.00255077 -0.0025415528 0.008241773 -0.00077525387 -8.785251e-05 0.0011412052
0.008608571 0.0018226112 -0.017187981 -0.015455656 0.008142444 0.008979745 -0.009983516 -0.0045665246
0.00151582 0.007619103 -0.008252613 0.0038103373 0.015378586 -0.008808927 -0.0005882224 0.0009899558
-0.0028660588 0.005688146 0.0022088762 -0.012426695 0.018719982 0.0017707043 -0.003595929 0.008998971
-0.015166946 0.0036680133 0.013435744 -0.00030718872 0.0005927057 0.0023567087 0.0016620106 -0.009376983
0.0046937163 -0.010502683 0.018754536 0.0048511364 -0.014320681 -0.001366241 0.0019629875 0.011068942
-0.018416328 -0.010248131 -0.0022431968 -0.0012127993 0.011976446 0.0074140006 -0.0020714593 0.0014730616
0.0068383045 -0.00045720657 -0.0042311247 0.01268519 -0.0011968618 -0.0037289131 0.00030312565 0.0019402683
-0.0019518369 0.0041108346 -0.01752722 -0.010274864 -0.0047168164 0.007258087 0.0015643226 -0.0010321833
0.0035285652 -0.006562598 -0.006310656 -0.0056914045 0.0017005999 -0.0024505581 0.0034220756 -0.008593045
0.0073437714 -0.008748633 -0.0039435257 0.012899122 0.017364688 0.005606918 0.017910121 0.010280152
-0.0038547998 0.0010224723 -0.001415233 -0.010497068 -0.0077965567 -0.0022772406 0.0037016708 -0.0032892257
-0.008714639 0.008554408 -0.01573385 -0.00090518733 0.0034837879 -0.0063313283 0.005306246 0.0085637
-0.014317899 -0.011928135 -0.00067903276 -0.001018316 -0.0019146912 0.007658876 0.013960947 0.0120912995
0.0003547977 -0.0013248916 0.014612508 -0.011648621 0.0049122814 -0.004639502 -0.0019084746 0.015235402
-0.004277808 -0.0068140044 0.0143977925 -0.004798386 0.0059042443 0.0030128162 -0.0011857433 0.006294496
0.019757781 0.0041377535 -0.0019585274 0.007200966 -0.016837806 -0.008975472 -0.0041561075 0.0018695496
-0.018682333 -0.003167006 0.0052294075 0.006349839 -0.020838413 -0.0007575559 0.0128889205 0.012669711
-0.0048470288 -0.0026525783 0.0024681536 -0.0010111659 0.010555649 -7.9899706e-05 0.011099427 0.00054607674
-0.009109277 0.003879031 0.0063337632 0.0066984207 0.015652893 0.009295315 -0.008662748 0.014070823
0.012242421 -0.0003511791 0.016327035 -0.0006421752 0.0027662246 -0.006043223 0.008497755 -0.009445861
-0.009121709 0.0017554028 0.01540378 -0.0148506705 -0.0055303173 -0.0136536015 0.0018612471 -0.0048399526
0.002553279 0.003481748 0.010224601 0.0047228686 -0.0002861127 0.005659952 0.007247341 0.020610575
0.003976934 -0.017508833 -0.0006883241 -0.0060141417 -0.006840884 0.0048955316 -0.020525765 -0.0022047167
0.013042961 -0.005953806 0.0058374354 0.0007965555 -0.004190843 0.005685533 -0.012901698 -0.012826428
-0.0073216506 0.010513172 4.7429894e-05 -0.0032982414 0.0014046865 0.011771133 -0.01478657 0.0029550914
-0.0034250845 -0.0035383669 -0.0018479202 0.0020337005 -0.0082204295 -0.0052004745 -0.0018072015 0.0006563099
-0.031903397 0.012907988 0.013762248 0.006500495 0.00055840984 0.00048427383 0.012779683 0.0059379106
-0.005984563 -0.002902452 0.0016001071 0.0013284824 -0.003129124 0.007607128 -0.0056612142 -0.0018828206
00000000: f75e b7bb 972d 053a 837f 12bb a8c3 bbbb
00000010: 8125 bf3c 51d4 97bb 31b3 933b bda0 7dba
00000020: a95a 8fbb c613 83bc 1a2e 5abc baca eebb
00000030: d8c6 1f3c 6fb9 3bbb d34d 47bb 0698 a1bc
00000040: c3a7 9eb8 a280 f93b 1638 053c c764 673c
00000050: 2af1 783a af86 253c 8721 cb3b f724 28bc
00000060: b5fb d93b 847a 03bc d22a 27bb 2e90 26bb
00000070: 8008 073c 683a 4bba 753d b8b8 7e94 953a
00000080: f70a 0d3c afe4 ee3a cfcd 8cbc b839 7dbc
00000090: e367 053c c81f 133c e791 23bc c9a2 95bb
000000a0: 7bae c63a aba9 f93b f835 07bc dab6 793b
000000b0: 77f6 7b3c 5153 10bc f032 1aba 68c1 813a
000000c0: 7dd4 3bbb a163 ba3b cbc2 103b 5699 4bbc
000000d0: a65a 993c fa16 e83a ada9 6bbb 6c70 133c
000000e0: c87e 78bc 0d63 703b 9821 5c3c 2c0e a1b9
000000f0: ce5f 1b3a 0373 1a3b d2d7 d93a eba1 19bc
00000100: bfcd 993b 7213 2cbc 1da3 993c 48f6 9e3b
00000110: 4aa1 6abc 7113 b3ba 77a5 003b 825a 353c
00000120: d7dd 96bc c7e7 27bc 9902 13bb cbf6 9eba
00000130: db38 443c 25f1 f23b 52c1 07bb bf13 c13a
00000140: db13 e03b 3ab5 efb9 3fa5 8abb 8bd5 4f3c
00000150: 05e0 9cba c860 74bb d6ec 9e39 9a50 fe3a
00000160: c7d4 ffba 2eb4 863b 3f95 8fbc e757 28bc
00000170: 868f 9abb 3fd5 ed3b f509 cd3a 534a 87ba
00000180: 803f 673b 100b d7bb 9fc9 cebb f67e babb
00000190: aae6 de3a 8b99 20bb e744 603b d8c9 0cbc
000001a0: 05a4 f03b 6d56 0fbc b138 81bb d756 533c
000001b0: 6440 8e3c 3dba b73b 3fb8 923c 156e 283c
000001c0: cfa0 7cbb 7a04 863a 577f b9ba e5fb 2bbc
000001d0: 427a ffbb c23d 15bb bb97 723b 0d90 57bb
000001e0: d8c7 0ebc ca27 0c3c 46e4 80bc 184a 6dba
000001f0: 4350 643b 0877 cfbb 05e0 ad3b c34e 0c3c
00000200: 9f95 6abc 396e 43bc 1e01 32ba 0479 85ba
00000210: 60f6 faba 4ff7 fa3b 75bc 643c 961a 463c
00000220: 2404 ba39 fca7 adba 4d69 6f3c dcd9 3ebc
00000230: 34f7 a03b f706 98bb c825 faba e89d 793c
00000240: db2c 8cbb 0348 dfbb b8e4 6b3c c73b 9dbb
00000250: 6478 c13b ab72 453b f16a 9bba 0f42 ce3b
00000260: 12db a13c fe95 873b a35a 00bb 15f6 eb3b
00000270: 70ef 89bc dc0d 13bc f52f 88bb ad0b f53a
00000280: b10b 99bc 8b8d 4fbb 735b ab3b 4f12 d03b
00000290: 52b5 aabc b796 46ba 0d2c 533c 9f94 4f3c
000002a0: d3d3 9ebb e1d6 2dbb bfc0 213b 1989 84ba
000002b0: 9af1 2c3c d48f a7b8 5fda 353c 9726 0f3a
000002c0: 143f 15bc 5737 7e3b 758b cf3b 6d7e db3b
000002d0: 7f3a 803c 604b 183c 33ee 0dbc 4f89 663c
000002e0: 6f94 483c 761e b8b9 46c0 853c a657 28ba
000002f0: 8c49 353b 3b06 c6bb 2b3a 0b3c d0c2 1abc
00000300: 3873 15bc 8b15 e63a 2360 7c3c 3a50 73bc
00000310: aa37 b5bb 5bb3 5fbc 17f5 f33a 7798 9ebb
00000320: ea54 273b 0a2e 643b 1685 273c 4bc2 9a3b
00000330: 6601 96b9 1e77 b93b 1a7b ed3b 82d7 a83c
00000340: f150 823b af6e 8fbc a670 34ba 4712 c5bb
00000350: 7f29 e0bb b26a a03b a625 a8bc 027d 10bb
00000360: 25b2 553c 2518 c3bb f547 bf3b efcf 503a
00000370: 5753 89bb b54d ba3b a561 53bc f025 52bc
00000380: 75ea efbb 703f 2c3c 76ef 4638 4f27 58bb
00000390: 751d b83a b6db 403c 5f43 72bc 35aa 413b
000003a0: 6277 60bb f2e3 67bb ea35 f2ba d547 053b
000003b0: fbae 06bc be68 aabb 9fdf ecba 360c 2c3a
000003c0: 23ad 02bd 077c 533c 0d7b 613c 1b02 d53b
000003d0: 4062 123a 22e6 fd39 e061 513c ce92 c23b
000003e0: 271a c4bb 1037 3ebb afba d13a 7920 ae3a
000003f0: fd11 4dbb 3745 f93b b581 b9bb fac8 f6ba

action_model._discrete_distribution.branches.1.bias f4 [3]
0.0 0.0 0.0
00000000: 0000 0000 0000 0000 0000 0000

network_body._body_endoder.seq_layers.0.weight f4 [128, 29]
-0.5213677 -0.18460937 -0.13409491 0.25521263 -0.028436989 -0.10088997 0.08102015 -0.2741491
0.16678579 -0.16190906 0.2186745 0.13396993 0.21484901 0.13429022 0.011883402 -0.22422361
-0.02095221 0.075974934 -0.15408531 0.018148215 0.15339565 -0.05893572 -0.09778979 -0.08134146
0.05701193 0.04935935 0.013655185 -0.030735957 0.091813974 0.27358884 -0.26728097 0.06565741
0.00842023 -0.2540287 0.02131076 0.053981982 -0.24324058 -0.19422264 0.101530224 -0.18829936
-0.39308468 -0.06895357 0.115342125 0.027528647 -0.04673228 -0.010408457 0.113088466 -0.16066162
0.29653084 -0.35115096 -0.058551956 0.45927063 -0.33085033 0.29251483 -0.3855013 0.3740065
0.049415972 -0.14972588 0.23458913 0.18630743 -0.11280859 0.0030224514 -0.13047984 0.14979413
0.12387559 -0.09464914 -0.035581067 -0.30469298 0.041230462 -0.2863201 -0.24329393 -0.0025577708
-0.0062688254 -0.051364746 -0.41255215 0.080293745 0.0764834 0.019695222 0.14764032 0.22035283
0.09589838 -0.18778954 0.009076598 0.08968686 0.042239908 -0.006028383 -0.14101802 -0.07672495
0.2734977 0.14687675 -0.19945137 0.26940563 0.092009224 -0.035209913 -0.15945508 -0.21690549
0.062958024 0.044541035 -0.26567662 -0.10875105 -0.16472508 0.11897904 0.234576 0.00032607085
0.04842598 -0.041730367 -0.019556805 -0.3251292 0.31219217 0.17766444 -0.05566018 -0.15851071
0.104503736 0.030842572 0.07556276 0.035456616 -0.34773898 0.0040869224 -0.023286423 -0.11411273
0.010804436 0.1888666 -0.059076305 0.17275593 0.029315967 -0.3739168 -0.1261401 -0.23195538
-0.08719101 0.10673641 0.13260363 0.10563936 -0.17499657 0.258852 0.0628603 0.36679453
-0.29601052 -0.094906084 0.08989967 -0.03837159 -0.11177524 0.16887064 -0.12952581 -0.047643676
0.23623775 0.041169573 -0.09713668 -0.179364 0.18612777 0.047113776 0.35761517 0.00986752
0.39660457 0.13047935 0.0042868974 0.1470384 -0.093790695 0.20033525 -0.10520748 -0.14347124
-0.06409349 0.071749955 -0.10862598 -0.104358725 -0.114185154 -0.09378907 -0.13291806 -0.17794716
0.25838837 -0.21009348 0.18796389 -0.208587 0.19132593 0.27451697 -0.11142206 0.021324284
-0.24775216 0.12167703 0.065076254 -0.079640746 0.15182748 -0.059523433 -0.3116055 -0.051427376
-0.18048696 -0.005580492 0.115827486 -0.14005268 -0.19525251 0.12553085 -0.13757867 -0.07675965
-0.2308366 -0.2532691 -0.271586 0.1831596 0.11517346 0.12955704 0.08630292 -0.036108714
0.2764664 0.1346099 0.032727502 -0.10143212 0.001842379 0.2657444 0.0706485 -0.4136538
-0.22144206 0.12898503 0.20646787 -0.15004247 -0.14486927 0.034047842 0.24178444 -0.2525146
0.23217157 -0.057661667 -0.08410855 0.08114718 0.10777603 0.084052 0.015447423 -0.020613423
0.07263037 0.16294451 0.22055076 0.04119985 -0.048972078 0.25487632 -0.25134233 -0.0006882529
0.0028040586 0.03851891 -0.0518697 0.4383744 0.27120227 0.015560273 -0.45800424 -0.18609707
-0.18329957 0.15338896 0.30561805 0.13893813 0.0793434 -0.011909289 0.30263186 0.26353678
-0.24456915 0.22189489 0.1468862 0.15497895 0.21660006 0.11703783 -0.070481494 0.062763266
00000000: 5b78 05bf 3d0a 3dbe 2d50 09be 3bab 823e
00000010: b0f4 e8bc 679f cebd e4ed a53d 455d 8cbe
00000020: e5c9 2a3e 7dcb 25be 35ec 5f3e 6a2f 093e
00000030: 6101 5c3e 6083 093e 9ab2 423c e09a 65be
00000040: f8a3 abbc bf98 9b3d 8ac8 1dbe 91ab 943c
00000050: c013 1d3e 9566 71bd 0346 c8bd 5a96 a6bd
00000060: 5785 693d 082d 4a3d ffb9 5f3c f9c9 fbbc
00000070: f708 bc3d d613 8c3e 0dd9 88be 6477 863d
00000080: 01f5 093c 0d10 82be e793 ae3c 361c 5d3d
00000090: 0f14 79be 4de2 46be 14ef cf3d 8cd1 40be
000000a0: 6542 c9be 8837 8dbd 7e38 ec3d c283 e13c
000000b0: 596a 3fbd 3c88 2abc ed9a e73d 7b84 24be
000000c0: e4d2 973e 0fca b3be 2dd4 6fbd 8525 eb3e
000000d0: 3765 a9be 81c4 953e 6d60 c5be c87d bf3e
000000e0: 6768 4a3d be51 19be 2238 703e 60c7 3e3e
000000f0: 3108 e7bd 5214 463b 829c 05be a263 193e
00000100: 7cb2 fd3d 69d7 c1bd 74bd 11bd b800 9cbe
00000110: 46e1 283d 8c98 92be 0b22 79be 46a0 27bb
00000120: b86a cdbb d763 52bd 093a d3be 0c71 a43d
00000130: 54a3 9c3d e057 a13c 062f 173e 2ca4 613e
00000140: 5f66 c43d e74b 40be 03b6 143c bfad b73d
00000150: c103 2d3d be89 c5bb 0767 10be f821 9dbd
00000160: e407 8c3e dc66 163e fb3c 4cbe 89ef 893e
00000170: 556f bc3d 4538 10bd 3148 23be 791c 5ebe
00000180: 23f0 803d a970 363d c406 88be dfb8 debd
00000190: b1ad 28be 48ab f33d b134 703e 7df4 aa39
000001a0: 525a 463d 76ed 2abd 9835 a0bc 5677 a6be
000001b0: a7d7 9f3e abed 353e eefb 63bd a250 22be
000001c0: 0e06 d63d 90a9 fc3c a6c0 9a3d f53a 113d
000001d0: d80a b2be 97eb 853b 2bc3 bebc efb3 e9bd
000001e0: 1705 313c 3f66 413e fff9 71bd eee6 303e
000001f0: 0a28 f03c 0672 bfbe df2a 01be b685 6dbe
00000200: 3391 b2bd 9e98 da3d 3fc9 073e 7359 d83d
00000210: 4d32 33be 4088 843e e7bc 803d 7ecc bb3e
00000220: b18e 97be 1f5e c2bd 511d b83d 872b 1dbd
00000230: 6bea e4bd 6dec 2c3e 6aa2 04be 0426 43bd
00000240: 4fe8 713e 6da1 283d 98ef c6bd 32ab 37be
00000250: 4798 3e3e 60fa 403d 5619 b73e 61ab 213c
00000260: c10f cb3e 619c 053e 1a79 8c3b 3c91 163e
00000270: 5615 c0bd af24 4d3e 0577 d7bd 20ea 12be
00000280: 7343 83bd a4f1 923d 4c77 debd 07ba d5bd
00000290: e8d9 e9bd 7c14 c0bd ac1b 08be c837 36be
000002a0: 7b4b 843e bf22 57be 9b79 403e d597 55be
000002b0: f2ea 433e 7d8d 8c3e 4031 e4bd 44b0 ae3c
000002c0: beb2 7dbe cf31 f93d b346 853d b01a a3bd
000002d0: aa78 1b3e d8ce 73bd c28a 9fbe 83a5 52bd
000002e0: 93d1 38be 8fdc b6bb f636 ed3d f869 0fbe
000002f0: 46f0 47be 298b 003e 6ce1 0cbe 2a34 9dbd
00000300: 6e60 6cbe 7dac 81be 520d 8bbe 318e 3b3e
00000310: 10e0 eb3d 9aaa 043e 96bf b03d bbe6 13bd
00000320: 018d 8d3e 2dd7 093e 460d 063d a5bb cfbd
00000330: fb7b f13a a60f 883e 29b0 903d 6eca d3be
00000340: b5c1 62be a714 043e 506c 533e bca4 19be
00000350: 9c58 14be c075 0b3d 5796 773e 9849 81be
00000360: 62be 6d3e a42e 6cbd 1a41 acbd 7e30 a63d
00000370: aeb9 dc3d 7423 ac3d 3017 7d3c 7bdd a8bc
00000380: 3bbf 943d edda 263e 0fd8 613e 2dc1 283d
00000390: f296 48bd 267f 823e f1af 80be df6b 34ba
000003a0: 4cc4 373b 01c6 1d3d 5375 54bd 9c72 e03e
000003b0: 06db 8a3e 84f0 7e3c 887f eabe 3b90 3ebe
000003c0: e2b2 3bbe ff11 1d3e f879 9c3e cc45 0e3e
000003d0: cb7e a23d 2e1f 43bc 90f2 9a3e 4bee 863e
000003e0: 5670 7abe 6a38 633e 5669 163e cdb2 1e3e
000003f0: 68cc 5d3e 88b1 ef3d 9a58 90bd 078a 803d

network_body._body_endoder.seq_layers.0.bias f4 [128]
0.0 0.0 0.0 0.0 0.0 0.0 0.0 0.0
0.0 0.0 0.0 0.0 0.0 0.0 0.0 0.0
0.0 0.0 0.0 0.0 0.0 0.0 0.0 0.0
0.0 0.0 0.0 0.0 0.0 0.0 0.0 0.0
0.0 0.0 0.0 0.0 0.0 0.0 0.0 0.0
0.0 0.0 0.0 0.0 0.0 0.0 0.0 0.0
0.0 0.0 0.0 0.0 0.0 0.0 0.0 0.0
0.0 0.0 0.0 0.0 0.0 0.0 0.0 0.0
0.0 0.0 0.0 0.0 0.0 0.0 0.0 0.0
0.0 0.0 0.0 0.0 0.0 0.0 0.0 0.0
0.0 0.0 0.0 0.0 0.0 0.0 0.0 0.0
0.0 0.0 0.0 0.0 0.0 0.0 0.0 0.0
0.0 0.0 0.0 0.0 0.0 0.0 0.0 0.0
0.0 0.0 0.0 0.0 0.0 0.0 0.0 0.0
0.0 0.0 0.0 0.0 0.0 0.0 0.0 0.0
0.0 0.0 0.0 0.0 0.0 0.0 0.0 0.0
00000000: 0000 0000 0000 0000 0000 0000 0000 0000
00000010: 0000 0000 0000 0000 0000 0000 0000 0000
00000020: 0000 0000 0000 0000 0000 0000 0000 0000
00000030: 0000 0000 0000 0000 0000 0000 0000 0000
00000040: 0000 0000 0000 0000 0000 0000 0000 0000
00000050: 0000 0000 0000 0000 0000 0000 0000 0000
00000060: 0000 0000 0000 0000 0000 0000 0000 0000
00000070: 0000 0000 0000 0000 0000 0000 0000 0000
00000080: 0000 0000 0000 0000 0000 0000 0000 0000
00000090: 0000 0000 0000 0000 0000 0000 0000 0000
000000a0: 0000 0000 0000 0000 0000 0000 0000 0000
000000b0: 0000 0000 0000 0000 0000 0000 0000 0000
000000c0: 0000 0000 0000 0000 0000 0000 0000 0000
000000d0: 0000 0000 0000 0000 0000 0000 0000 0000
000000e0: 0000 0000 0000 0000 0000 0000 0000 0000
000000f0: 0000 0000 0000 0000 0000 0000 0000 0000
00000100: 0000 0000 0000 0000 0000 0000 0000 0000
00000110: 0000 0000 0000 0000 0000 0000 0000 0000
00000120: 0000 0000 0000 0000 0000 0000 0000 0000
00000130: 0000 0000 0000 0000 0000 0000 0000 0000
00000140: 0000 0000 0000 0000 0000 0000 0000 0000
00000150: 0000 0000 0000 0000 0000 0000 0000 0000
00000160: 0000 0000 0000 0000 0000 0000 0000 0000
00000170: 0000 0000 0000 0000 0000 0000 0000 0000
00000180: 0000 0000 0000 0000 0000 0000 0000 0000
00000190: 0000 0000 0000 0000 0000 0000 0000 0000
000001a0: 0000 0000 0000 0000 0000 0000 0000 0000
000001b0: 0000 0000 0000 0000 0000 0000 0000 0000
000001c0: 0000 0000 0000 0000 0000 0000 0000 0000
000001d0: 0000 0000 0000 0000 0000 0000 0000 0000
000001e0: 0000 0000 0000 0000 0000 0000 0000 0000
000001f0: 0000 0000 0000 0000 0000 0000 0000 0000

network_body._body_endoder.seq_layers.2.weight f4 [128, 128]
-0.1133252 0.03581019 0.02879687 0.08241599 0.07810857 -0.03044457 -0.017926957 -0.03651134
-0.07375182 -0.14242981 0.06291999 0.0471071 -0.0888576 0.0059548873 -0.017027546 0.048413377
-0.052703902 -0.039307877 -0.2447731 -0.004700838 0.104962334 0.022047037 0.028880985 -0.0054683904
0.059070244 -0.0013230126 0.046873167 -0.14170541 -0.047191147 -0.12588108 0.009354618 -0.024624784
0.060164668 -0.016434025 -0.042394485 -0.12286822 0.108023785 -0.11703376 -0.10410196 -0.01507355
0.05225106 0.041566946 0.3009899 0.07787714 -0.034508593 -0.0615972 0.17730367 -0.09857469
0.0046641584 -0.005435207 -0.015838105 -0.05344814 0.02648318 0.030789785 -0.015044752 -0.12386908
-0.1569896 -0.21248858 0.030013826 0.037606448 -0.0047688712 0.047702715 0.10191227 0.104123294
-0.022572618 0.08796653 0.2993257 -0.058568276 -0.029435625 -0.058177054 0.06355314 0.035365656
-0.011028398 0.029697644 -0.06892439 -0.06456382 -0.036156483 -0.08318463 -0.04110835 0.17464486
-0.15889026 0.112558655 -0.06761829 -0.01067357 -0.15217179 -0.09705542 0.07907651 -0.14141941
-0.03237837 0.022492658 0.04565197 0.259957 -0.00698297 0.12800907 0.013783442 -0.06577829
-0.045413572 0.09768357 -0.02836276 -0.097795226 0.08707289 -0.15623422 -0.026133804 0.006843856
-0.09833405 0.10956037 -0.031145046 0.0030757124 -0.08011305 0.008931537 0.052638896 -0.05692121
-0.059008338 -0.11149845 -0.005857185 0.09909585 -0.11738119 -0.12610844 -0.15760016 -0.15774092
0.013110832 0.01987434 -0.024319613 -0.039322518 -0.18543921 -0.02633445 0.099317014 -0.22382464
0.051050518 0.017795773 0.02509339 -0.051172 -0.06175206 0.07611089 0.1098614 -0.015389736
0.17083398 0.1636069 -0.04426359 0.12662499 -0.04327632 0.04204115 -0.16222867 0.07829256
0.1587646 0.12541552 0.015765721 0.02726834 -0.02813182 0.045094784 -0.0980717 -0.012640945
0.13342524 -0.05177807 -0.022195982 -0.010889963 0.0377818 0.013866039 -0.023239877 0.02616553
-0.035147477 -0.006251641 0.054750994 0.110169254 0.025121458 0.07247037 -0.016929124 -0.10641531
0.026988083 -0.10602771 0.11216734 0.03555065 -0.21352257 -0.052974757 -0.13555449 -0.012509949
0.061960027 -0.07242819 0.13649917 -0.017902102 -0.09259989 -0.0744265 -0.029377103 -0.116348036
0.04808928 -0.124430664 -0.1255551 0.050430577 0.003089719 -0.09626477 -0.030569907 0.026691161
-0.03802664 0.023618149 0.011601006 0.006076596 -0.07025033 0.023069773 -0.09415476 -0.15814835
0.019327162 -0.1311782 0.09127073 0.081046194 0.030188907 0.044984847 -0.091621965 -0.032812957
0.014204478 -0.18921149 -0.016933419 -0.094946556 0.15436311 -0.08130811 0.034102973 -0.15036057
0.0117270565 0.17471415 0.027357927 -0.024577659 0.08051337 0.040495284 0.0028778266 -0.067533724
-0.038326185 0.029488564 0.04335648 -0.09431003 0.05264114 -0.073730975 -0.003542971 -0.010576627
0.13000894 -0.12428005 0.027442314 -0.094854474 -0.002352639 -0.009531971 -0.0038983915 0.06891545
-0.04165597 -0.029628292 -0.045384105 -0.040108338 -0.025342949 -0.06721374 0.030415528 -0.04136065
-0.084875524 -0.019764721 -0.0141543085 0.05578008 0.07782258 0.07040207 -0.039460715 0.11120164
00000000: 0b17 e8bd b5ad 123d 6ae7 eb3c b7c9 a83d
00000010: 63f7 9f3d e466 f9bc 8edb 92bc ea8c 15bd
00000020: 320b 97bd 1fd9 11be 32dc 803d 60f3 403d
00000030: f9fa b5bd 3721 c33b 5a7d 8bbc 1b4d 463d
00000040: 0ce0 57bd 4c01 21bd cda5 7abe 7d09 9abb
00000050: 7ef6 d63d fd9b b43c d197 ec3c 2f30 b3bb
00000060: a4f3 713d f068 adba 14fe 3f3d 391b 11be
00000070: 814b 41bd f8e6 00be 1d44 193c eab9 c9bc
00000080: 3a6f 763d a6a0 86bc d7a5 2dbd 55a2 fbbd
00000090: 933b dd3d 65af efbd 6933 d5bd 0df7 76bc
000000a0: 3505 563d 1a42 2a3d 591b 9a3e 0d7e 9f3d
000000b0: e258 0dbd 584d 7cbd 188f 353e 87e1 c9bd
000000c0: ccd5 983b d219 b2bb eabe 81bc 70ec 5abd
000000d0: 41f3 d83c dc3a fc3c 437e 76bc 12af fdbd
000000e0: e2c1 20be 9b96 59be 8edf f53c 3809 1a3d
000000f0: 3144 9cbb ec63 433d 61b7 d03d 983e d53d
00000100: 36ea b8bc cc27 b43d 3841 993e 4ae5 6fbd
00000110: fb22 f1bc 104b 6ebd 2628 823d 94db 103d
00000120: 74b0 34bc 7948 f33c 3b28 8dbd 093a 84bd
00000130: d218 14bd b45c aabd 3b61 28bd 1ad6 323e
00000140: 21b4 22be 2785 e63d 757b 8abd 33e0 2ebc
00000150: ecd2 1bbe fec4 c6bd def2 a13d 40d0 10be
00000160: 2f9f 04bd 8642 b83c 8ffd 3a3d 1519 853e
00000170: 66d1 e4bb cf14 033e f2d3 613c c5b6 86bd
00000180: 9503 3abd 530e c83d 0559 e8bc dd48 c8bd
00000190: 4553 b23d ddfb 1fbe 8f16 d6bc 6d42 e03b
000001a0: 5d63 c9bd 3061 e03d e523 ffbc e491 493b
000001b0: 5012 a4bd 9555 123c e29b 573d 3726 69bd
000001c0: bab2 71bd 4d59 e4bd a1ed bfbb c4f2 ca3d
000001d0: 8d65 f0bd 9222 01be f061 21be d686 21be
000001e0: d1ce 563c 83cf a23c ed39 c7bc a610 21bd
000001f0: c7e3 3dbe 58bb d7bc b866 cb3d 4932 65be
00000200: 591a 513d 71c8 913c a790 cd3c bb99 51bd
00000210: baef 7cbd 07e0 9b3d 04ff e03d 3b25 7cbc
00000220: 1aef 2e3e 9188 273e bd4d 35bd fba9 013e
00000230: 8342 31bd 5733 2c3d 461f 26be da57 a03d
00000240: 3093 223e ed6c 003e 1d27 813c db61 df3c
00000250: b474 e6bc 4fb5 383d d1d9 c8bd f71b 4fbc
00000260: a0a0 083e 3e15 54bd 59d4 b5bc d16b 32bc
00000270: 17c1 1a3d 622e 633c 8e61 bebc 1859 d63c
00000280: cdf6 0fbd 91da ccbb 9442 603d 6ba0 e13d
00000290: 84cb cd3c 586b 943d f2ae 8abc 45f0 d9bd
000002a0: 1d16 dd3c 0e25 d9bd feb7 e53d 8f9d 113d
000002b0: a9a5 5abe 0ffc 58bd ccce 0abe 87f6 4cbc
000002c0: ccc9 7d3d 3b55 94bd 70c6 0b3e 6ea7 92bc
000002d0: 03a5 bdbd ec6c 98bd 40a8 f0bc e147 eebd
000002e0: 44f9 443d 81d5 febd 8491 00be 4b90 4e3d
000002f0: e27c 4a3b 7726 c5bd be6d fabc 6ca7 da3c
00000300: d2c1 1bbd d97a c13c 2512 3e3c 2f1e c73b
00000310: 68df 8fbd d2fc bc3c 36d4 c0bd a4f1 21be
00000320: ff53 9e3c 9453 06be 26ec ba3d 8cfb a53d
00000330: ba4e f73c 0842 383d 4ca4 bbbd e166 06bd
00000340: e6b9 683c a8c0 41be f4b7 8abc 5773 c2bd
00000350: 5d11 1e3e de84 a6bd 8faf 0b3d 1ff8 19be
00000360: d722 403c 44e8 323e bb1d e03c 1657 c9bc
00000370: 32e4 a43d 62de 253d eb99 3c3b 1f4f 8abd
00000380: ebfb 1cbd 0092 f13c 9096 313d 9e25 c1bd
00000390: 3c9e 573d 4400 97bd 3131 68bb 9749 2dbc
000003a0: 1021 053e 8a86 febd b4ce e03c 1043 c2bd
000003b0: bc2e 1abb fc2b 1cbc 287c 7fbb 8b23 8d3d
000003c0: 739f 2abd 08b7 f2bc afe4 39bd a448 24bd
000003d0: 049c cfbc 5ba7 89bd fc29 f93c c969 29bd
000003e0: 38d3 adbd a0e9 a1bc 79e7 67bc a779 643d
000003f0: 7261 9f3d f62e 903d 8fa1 21bd afbd e33d

network_body._body_endoder.seq_layers.2.bias f4 [128]
0.0 0.0 0.0 0.0 0.0 0.0 0.0 0.0
0.0 0.0 0.0 0.0 0.0 0.0 0.0 0.0
0.0 0.0 0.0 0.0 0.0 0.0 0.0 0.0
0.0 0.0 0.0 0.0 0.0 0.0 0.0 0.0
0.0 0.0 0.0 0.0 0.0 0.0 0.0 0.0
0.0 0.0 0.0 0.0 0.0 0.0 0.0 0.0
0.0 0.0 0.0 0.0 0.0 0.0 0.0 0.0
0.0 0.0 0.0 0.0 0.0 0.0 0.0 0.0
0.0 0.0 0.0 0.0 0.0 0.0 0.0 0.0
0.0 0.0 0.0 0.0 0.0 0.0 0.0 0.0
0.0 0.0 0.0 0.0 0.0 0.0 0.0 0.0
0.0 0.0 0.0 0.0 0.0 0.0 0.0 0.0
0.0 0.0 0.0 0.0 0.0 0.0 0.0 0.0
0.0 0.0 0.0 0.0 0.0 0.0 0.0 0.0
0.0 0.0 0.0 0.0 0.0 0.0 0.0 0.0
0.0 0.0 0.0 0.0 0.0 0.0 0.0 0.0
00000000: 0000 0000 0000 0000 0000 0000 0000 0000
00000010: 0000 0000 0000 0000 0000 0000 0000 0000
00000020: 0000 0000 0000 0000 0000 0000 0000 0000
00000030: 0000 0000 0000 0000 0000 0000 0000 0000
00000040: 0000 0000 0000 0000 0000 0000 0000 0000
00000050: 0000 0000 0000 0000 0000 0000 0000 0000
00000060: 0000 0000 0000 0000 0000 0000 0000 0000
00000070: 0000 0000 0000 0000 0000 0000 0000 0000
00000080: 0000 0000 0000 0000 0000 0000 0000 0000
00000090: 0000 0000 0000 0000 0000 0000 0000 0000
000000a0: 0000 0000 0000 0000 0000 0000 0000 0000
000000b0: 0000 0000 0000 0000 0000 0000 0000 0000
000000c0: 0000 0000 0000 0000 0000 0000 0000 0000
000000d0: 0000 0000 0000 0000 0000 0000 0000 0000
000000e0: 0000 0000 0000 0000 0000 0000 0000 0000
000000f0: 0000 0000 0000 0000 0000 0000 0000 0000
00000100: 0000 0000 0000 0000 0000 0000 0000 0000
00000110: 0000 0000 0000 0000 0000 0000 0000 0000
00000120: 0000 0000 0000 0000 0000 0000 0000 0000
00000130: 0000 0000 0000 0000 0000 0000 0000 0000
00000140: 0000 0000 0000 0000 0000 0000 0000 0000
00000150: 0000 0000 0000 0000 0000 0000 0000 0000
00000160: 0000 0000 0000 0000 0000 0000 0000 0000
00000170: 0000 0000 0000 0000 0000 0000 0000 0000
00000180: 0000 0000 0000 0000 0000 0000 0000 0000
00000190: 0000 0000 0000 0000 0000 0000 0000 0000
000001a0: 0000 0000 0000 0000 0000 0000 0000 0000
000001b0: 0000 0000 0000 0000 0000 0000 0000 0000
000001c0: 0000 0000 0000 0000 0000 0000 0000 0000
000001d0: 0000 0000 0000 0000 0000 0000 0000 0000
000001e0: 0000 0000 0000 0000 0000 0000 0000 0000
000001f0: 0000 0000 0000 0000 0000 0000 0000 0000

value_heads.value_heads.extrinsic.weight f4 [1, 128]
0.11274448 0.16390502 0.15224263 -0.092667066 0.1637434 -0.12444836 -0.14040856 -0.1657638
-0.109205835 0.0005288124 -0.19084845 0.20838565 -0.074964255 -0.16471113 -0.1102682 0.197265
0.08399275 -0.17484681 0.02923794 -0.15722643 -0.06661086 0.038196564 -0.18083385 0.0030816197
0.18644118 0.11115438 0.055105478 -0.08119148 0.008731589 0.10387933 0.18891561 -0.10547219
0.009962752 0.0660733 0.106099874 0.07165769 -0.18702611 -0.20733503 0.0043465495 0.18083423
0.12675205 -0.15754569 -0.070415735 -0.04958269 0.039078176 -0.20192093 0.21394986 -0.1689042
0.15467212 -0.14234522 -0.19202335 0.12447813 0.07165414 -0.15744513 -0.12010037 -0.10365406
-0.13272908 -0.003399834 0.11673686 -0.14891234 -0.04912728 -0.053718805 0.03017138 -0.0153476
-0.092382595 -0.10307917 0.15989664 0.13061962 -0.13310608 0.12198186 -0.21201503 -0.025618553
0.19906583 -0.19581467 -0.19829646 0.028223217 0.094112426 0.10474613 0.09738916 -0.14699025
-0.21462378 -0.11005684 0.17598647 -0.047500134 -0.11892566 -0.06429501 0.14228374 -0.051214874
-0.05532171 -0.021567822 -0.019622013 0.094620585 0.1631403 -0.16090898 -0.00036682189 -0.20889086
0.15658277 0.15853468 0.09661186 0.07669592 -0.08182143 -0.0541977 -0.14826284 0.17635232
0.1419529 0.10979971 -0.05551988 0.011410445 -0.006300047 -0.025249347 -0.10994097 -0.18118277
-0.0763756 0.012784794 0.07021326 -0.16762654 0.065277606 0.0511823 0.03158313 0.13242051
-0.053863138 -0.06776449 -0.025953934 0.17777872 0.074540675 0.1365389 -0.119336054 0.10941738
00000000: 94e6 e63d b8d6 273e 7ee5 1b3e 3bc8 bdbd
00000010: 5aac 273e c8de febd 43c7 0fbe fcbd 29be
00000020: 4fa7 dfbd 00a0 0a3a c76d 43be 0c63 553e
00000030: dc86 99bd 09aa 28be 4bd4 e1bd d6ff 493e
00000040: 6404 ac3d 0b0b 33be 6884 ef3c f7ff 20be
00000050: 466b 88bd 0074 1c3d 822c 39be 00f5 493b
00000060: 70ea 3e3e e8a4 e33d 48b6 613d b847 a6bd
00000070: f00e 0f3c b0be d43d 1873 413e ce01 d8bd
00000080: d03a 233c 7051 873d e44a d93d 44c1 923d
00000090: c683 3fbe a24f 54be 806d 8e3b 9c2c 393e
000000a0: 4acb 013e a853 21be 2036 90bd 3817 4bbd
000000b0: 7010 203d 5cc4 4ebe ac15 5b3e 39f5 2cbe
000000c0: 5e62 1e3e f2c2 11be c5a1 44be 64ee fe3d
000000d0: 68bf 923d 4c39 21be 2ff7 f5bd 9448 d4bd
000000e0: 22ea 07be c0cf 5ebb bc13 ef3d 7a7c 18be
000000f0: b039 49bd 4008 5cbd f829 f73c 8074 7bbc
00000100: 1633 bdbd 2c1b d3bd f2bb 233e 26c1 053e
00000110: f64c 08be a0d1 f93d 781a 59be 00de d1bc
00000120: ead7 4b3e a483 48be 3a0e 4bbe 6034 e73c
00000130: 04be c03d 2485 d63d f873 c73d 9d84 16be
00000140: 56c6 5bbe 7b65 e1bd cc35 343e 808f 42bd
00000150: 4c8f f3bd 1aad 83bd d4b2 113e b0c6 51bd
00000160: 0499 62bd 00af b0bc 58be a0bc 70c8 c13d
00000170: 400e 273e 53c5 24be 0052 c0b9 7ce7 55be
00000180: 3c57 203e ea56 223e 70dc c53d c012 9d3d
00000190: fe91 a7bd 68fe 5dbd 37d2 17be b495 343e
000001a0: 1a5c 113e acde e03d d068 63bd e0f2 3a3c
000001b0: a070 cebb b8d7 cebc bb28 e1bd fa87 39be
000001c0: d06a 9cbd 5077 513c f8cb 8f3d 4ba6 2bbe
000001d0: 44b0 853d 88a4 513d 505d 013d 3e99 073e
000001e0: 989f 5cbd 1cc8 8abd 589d d4bc a00b 363e
000001f0: c8a8 983d dad0 0b3e 7666 f4bd 3816 e03d
